OmniIsaacGymEnvs/omniisaacgymenvs/runs/Naranjelio/nn/last_Naranjelio_ep_500_rew_6.0842004.pth (torch, 672755 bytes, 36 tensors)

value_mean_std.running_mean f8 [1]
0.34624742871731007
00000000: 588e aaf9 ea28 d63f

value_mean_std.running_var f8 [1]
0.1408237559661999
00000000: 9cf6 2f49 8306 c23f

value_mean_std.count f8 []
49152001.0
00000000: 0000 0008 0070 8741

running_mean_std.running_mean f8 [48]
-0.0045773814886252515 8.55261599356607e-05 0.0004802550988937739 -0.0014883012433818887 -0.0035654550564737076 0.0015707977850746486 0.3192727667950964 -0.061548249453082425
-0.8849145170786976 0.0074715818283722195 0.014787549121543257 0.009251465557662505 0.4688831604180693 -0.03162352409246111 -3.398341263128519e-06 0.24045871988578185
0.22406413267784628 0.09955655964496474 -0.24695828499852454 -0.4108454491239316 -0.4867988366861993 -0.46703313806452207 0.43553458863546746 0.48271208610539723
-0.0013446197363846874 0.0011422318252262626 -0.0009738845292096302 -0.0008985591535630594 -0.011025475475469565 0.0024857548733075844 0.0049237113958463105 -0.0023354761260081756
0.006361872587225636 -0.0027804921195446557 -0.002607195465955299 0.0022877984448377558 0.6502545892490175 0.33545878628943954 -0.5414271194980071 0.14396565009308507
-0.17453472689085428 0.017725536432638335 0.7968268392355533 -0.09499560705439991 0.6297448843936673 -0.5701441039610097 -0.6078607897631885 0.7025574511720771
00000000: 4a29 b87c bbbf 72bf f12a 503d 906b 163f
00000010: 7e4c 88f1 5779 3f3f e1d6 ae4a 6362 58bf
00000020: 7bfa 9c1b 4d35 6dbf 5ac2 6447 67bc 593f
00000030: 1edb f80a f76e d43f 0bd8 0d8d 4083 afbf
00000040: fa79 d33f 3851 ecbf 4ccd a279 859a 7e3f
00000050: 8f90 eb3e ef48 8e3f ebf3 14b0 6ef2 823f
00000060: b601 e983 2e02 de3f b8d4 8563 f530 a0bf
00000070: 526d f2dd e181 ccbe 4d46 f9f0 59c7 ce3f
00000080: 0f6b 072d 22ae cc3f 7c03 c7e7 897c b93f
00000090: 9fbf c53e 549c cfbf 6aa7 ecb5 4a4b dabf
000000a0: 9813 d34e b627 dfbf fca9 88f5 dee3 ddbf
000000b0: 56d5 9d77 ccdf db3f 3739 cd3b c1e4 de3f
000000c0: 5fe4 c572 be07 56bf dfee 5c15 deb6 523f
000000d0: 0d13 fd19 89e9 4fbf 8a27 cb16 a971 4dbf
000000e0: a34d b844 8694 86bf dd14 607c 015d 643f
000000f0: 4fbd b8b6 e22a 743f 380e 9e32 d921 63bf
00000100: f357 412b e80e 7a3f d31f 0c57 1dc7 66bf
00000110: aa7c 5668 af5b 65bf 3c6c 0370 dcbd 623f
00000120: 0cc0 5cb6 e2ce e43f 3b37 1121 2878 d53f
00000130: 642a 6df7 5e53 e1bf c9d6 7267 776d c23f
00000140: f599 0168 2757 c6bf 0a03 219d a426 923f
00000150: a0ef e2ff 9a7f e93f d8f3 8fd1 a151 b8bf
00000160: 4869 69be de26 e43f e1a1 10d9 9e3e e2bf
00000170: 4eb7 9178 9873 e3bf c80b 8bc3 597b e63f

running_mean_std.running_var f8 [48]
0.000911275844543971 0.0008923981201428943 0.0032340952669603156 0.00034785814417378683 0.0004615802426246689 0.0006715508313299521 0.050796500702642584 0.03942982020378438
0.0209819801973231 5.322891594466671 1.349880424064101 0.02037944309235146 0.017643496784315028 0.06792371525273651 4.702286467573945e-08 0.0767784047032658
0.0007783939871669302 0.13953442436525004 0.01684591688634012 0.18999221576431943 0.1634978848951321 0.09567102804251156 0.5255649148479241 0.0618081919028738
7.626774621565451e-05 8.735622447196654e-05 7.988170774900284e-05 0.00012584635554109552 0.0001389283939938614 0.0001210800779507315 8.913403803462477e-05 0.00016282902785936837
0.000188763050443931 0.00011549983169341452 0.00015608394087393768 8.902801852762914e-05 0.27241545013521906 0.5541186087971499 0.38710331749249194 0.6436836524734291
0.5599291656777134 0.5847045219771037 0.14658966988184194 0.5699946628844391 0.2867722693485715 0.26891959100190593 0.2844588529885695 0.18266740563956363
00000000: b2ff 97f9 55dc 4d3f 5ced d95e fa3d 4d3f
00000010: 5376 ebac 637e 6a3f bded 555a 17cc 363f
00000020: ace0 ea0b 0840 3e3f 5a4f d86d 6001 463f
00000030: 49c6 89ba ff01 aa3f 205b 8638 2530 a43f
00000040: dce3 02db 4c7c 953f f38c 1918 a44a 1540
00000050: d4da 2d37 1c99 f53f 118f 5e46 59de 943f
00000060: 6dee b306 2311 923f 3d21 a2d7 7263 b13f
00000070: 60c1 a9f7 c53e 693e 1055 3de1 bfa7 b33f
00000080: 5fc3 f05b a481 493f c64f a896 43dc c13f
00000090: ed50 6458 0e40 913f dfe5 9938 aa51 c83f
000000a0: 697d 4baa 7fed c43f 7506 9e80 e57d b83f
000000b0: ab4c 2683 6dd1 e03f 520a b2c5 52a5 af3f
000000c0: 644d 27e7 3dfe 133f 481c 4382 60e6 163f
000000d0: 3208 114a c5f0 143f 021a 76f6 b37e 203f
000000e0: f1bd 3fd1 a935 223f eb39 65e6 8bbd 1f3f
000000f0: e1b0 ff1c af5d 173f a611 f1b2 a257 253f
00000100: 6313 b741 d6bd 283f 44f4 cfff 0f47 1e3f
00000110: 4ccc ccd7 4e75 243f 1ca4 46b6 9156 173f
00000120: 6a60 5036 416f d13f dc70 dcf2 56bb e13f
00000130: 366a 33fe 4cc6 d83f 8efb 8a75 0e99 e43f
00000140: ee31 d591 f0ea e13f 10e1 f641 e6b5 e23f
00000150: 1b77 0947 73c3 c23f 7776 7f72 653d e23f
00000160: c81d 9013 7a5a d23f 27d7 2684 fa35 d13f
00000170: 6130 a9e7 9234 d23f 1030 a242 a561 c73f

running_mean_std.count f8 []
24576001.0
00000000: 0000 0010 0070 7741

a2c_network.sigma f4 [12]
-0.62297714 -0.60877806 -0.4666104 -0.58741325 -0.401855 -0.390941 -0.8296815 -0.62391686
-0.47674882 -0.6931634 -0.5478446 -0.9278252
00000000: 6e7b 1fbf e1d8 1bbf 8fe7 eebe b760 16bf
00000010: f0bf cdbe 6b29 c8be 0266 54bf 04b9 1fbf
00000020: 6c18 f4be 2873 31bf 8b3f 0cbf f485 6dbf

a2c_network.actor_mlp.0.weight f4 [256, 48]
0.009555244 0.15931591 -0.06482587 -0.100486636 -0.054040242 -0.016476564 0.031634767 0.10173373
-0.027028026 -0.10493034 0.03603256 0.0612387 -0.17494898 0.050919786 -0.029744588 -0.0071854233
0.0009768838 -0.027963752 0.042586926 0.11774668 -0.11118837 0.06682707 -0.14643751 0.103170365
0.110667 0.1743877 0.043464735 0.041018087 -0.0033542148 -0.04842385 0.07932621 -0.16094618
-0.1226458 -0.1780469 -0.020644912 0.04861645 -0.019853652 -0.07175797 -0.0012881749 0.059123833
0.103177525 0.345887 0.029865572 0.15454024 -0.0053084013 -0.098032996 -0.105371594 -0.12078741
-0.041623134 0.013607596 -0.01132912 0.05010908 -0.03797778 0.11720449 -0.11391881 -0.061420653
0.14991459 -0.28845707 -0.07174991 0.15569821 0.11635523 -0.07272884 0.039465196 0.027361635
0.016852135 0.15029183 -0.0012204234 0.19215496 0.12962382 0.05068087 0.121880956 0.10687236
-0.0915161 -0.06539452 0.026961306 -0.07142725 -0.020293416 0.020834602 -0.086667396 0.07440407
-0.0213042 -0.09002608 -0.015601055 -0.09766352 -0.036887717 -0.045534518 -0.035563465 0.14444299
0.1089999 -0.20508985 0.043245286 -0.10518418 0.094866276 0.057964705 -0.10509864 -0.03730178
0.016823055 0.10600885 -0.04744808 -0.0037730937 0.012790626 0.015620018 -0.037480734 -0.0032767216
-0.08889467 -0.00799632 -0.1136213 -0.66032165 0.1891309 0.053639293 -0.09768679 -0.037568886
-0.092877395 -0.124987066 -0.01667054 0.059497166 0.09961496 -0.10806034 0.14328769 -0.06240019
-0.07274188 0.029455157 0.054790057 0.078663774 -0.010229092 -0.058108684 0.046129074 -0.07748703
0.03770235 0.03099198 0.0023888939 -0.013645968 0.0306965 0.016821593 0.017737703 0.079385936
0.056062672 -0.011622338 0.044934917 -0.09770736 0.0102152545 -0.034121178 -0.058696628 0.025533283
0.024901245 0.088224754 0.05219207 -0.009046742 0.17667346 0.21308997 -0.11697461 0.11953722
0.14830863 -0.22611213 -0.091149226 0.1523839 -0.029886361 -0.08477615 0.24383016 -0.05627046
0.06953883 -0.1484721 0.03275559 0.05867885 0.04891039 0.12955388 0.021181993 -0.11463149
0.11368127 0.040323086 0.04573593 -0.048943155 0.005725008 0.063819386 -0.07721863 -0.07666506
-0.053378914 0.08747343 0.009000319 0.14997499 -0.07011564 0.065080196 0.08145318 0.08040038
0.0044048144 -0.07539415 0.22041798 -0.14586501 -0.062984034 -0.1498099 -0.14741811 0.04850101
-0.05863678 0.023901444 -0.20936716 0.17757331 0.013738517 0.13424042 0.09194492 -0.1270197
-0.17905255 -0.15303248 0.15445721 -0.24243738 0.08150709 0.062334806 0.10834378 0.16353169
-0.029423065 -0.034376267 0.1001666 0.1523844 0.16826981 -0.043290492 0.150455 -0.013840496
0.07219854 -0.026405696 0.076131724 -0.10460856 0.08575005 0.041507203 -0.10615638 0.08747552
-0.031143166 -0.16777778 -0.036357395 0.11564915 0.09095675 0.034365367 0.17824312 -0.16840462
-0.11422838 0.039574597 0.045459595 0.07411073 0.10989257 -0.016820243 0.085273765 0.0005393351
-0.084390365 0.120935604 0.26123217 -0.0014629913 -0.064315654 0.1341023 0.10549508 0.12680596
-0.03560858 -0.18261938 0.03212347 0.018947825 -0.04142591 -0.04296259 0.014066786 -0.025700383
00000000: 998d 1c3c b623 233e 6dc3 84bd f0cb cdbd
00000010: 4d59 5dbd dcf9 86bc 7593 013d c659 d03d
00000020: e169 ddbc b8e5 d6bd e196 133d 6ed5 7a3d
00000030: d325 33be 4491 503d ecaa f3bc b373 ebbb
00000040: c80a 803a 3d14 e5bc a16f 2e3d 2c25 f13d
00000050: bab6 e3bd a2dc 883d b7f3 15be fc4a d33d
00000060: 61a5 e23d b092 323e 1408 323d 9502 283d
00000070: 63d2 5bbb 1658 46bd c875 a23d 13cf 24be
00000080: b92d fbbd ed51 36be 851f a9bc 0b22 473d
00000090: 20a4 a2bc d8f5 92bd fad7 a8ba d52b 723d
000000a0: bd4e d33d 1a18 b13e a5a8 f43c cc3f 1e3e
000000b0: 19f2 adbb 86c5 c8bd 10cd d7bd 645f f7bd
000000c0: 057d 2abd 65f2 5e3c c69d 39bc 2e3f 4d3d
000000d0: 978e 1bbd e808 f03d 444e e9bd 3994 7bbd
000000e0: 3683 193e a5b0 93be 9ef1 92bd 5a6f 1f3e
000000f0: a74b ee3d dcf2 94bd 42a6 213d 8225 e03c
00000100: 7d0d 8a3c 1ae6 193e 9df6 9fba 45c4 443e
00000110: 1bbc 043e be96 4f3d b99c f93d e5df da3d
00000120: cb6c bbbd 90ed 85bd f5dd dc3c 7348 92bd
00000130: 613e a6bc 54ad aa3c ad7e b1bd 2961 983d
00000140: 2586 aebc 985f b8bd 919b 7fbc d003 c8bd
00000150: 9317 17bd 6782 3abd ffaa 11bd dde8 133e
00000160: 573b df3d 1303 52be f821 313d ce6a d7bd
00000170: 4049 c23d 666c 6d3d f53d d7bd c0c9 18bd
00000180: 81d0 893c 2b1b d93d eb58 42bd 0246 77bb
00000190: c68f 513c 1beb 7f3c 6685 19bd 44be 56bb
000001a0: 690e b6bd ff02 03bc 49b2 e8bd d70a 29bf
000001b0: 88ab 413e e0b4 5b3d 0310 c8bd d5e1 19bd
000001c0: 8136 bebd 38f9 ffbd a890 88bc 4db3 733d
000001d0: ee02 cc3d bd4e ddbd 02ba 123e 5797 7fbd
000001e0: b2f9 94bd f14b f13c 8a6b 603d 791a a13d
000001f0: ec97 27bc 5f03 6ebd d7f1 3c3d 85b1 9ebd
00000200: c86d 1a3d e5e2 fd3c fd8e 1c3b 5793 5fbc
00000210: 3a77 fb3c 70cd 893c a94e 913c 1895 a23d
00000220: f9a1 653d 9e6b 3ebc ad0d 383d cc1a c8bd
00000230: e25d 273c a6c2 0bbd e06b 70bd 2d2b d13c
00000240: b2fd cb3c 2eaf b43d 5ac7 553d c938 14bc
00000250: e3e9 343e 4234 5a3e 6290 efbd eecf f43d
00000260: 38de 173e f089 67be 72ac babd 860a 1c3e
00000270: 3ed4 f4bc 1e9f adbd 9dae 793e db7b 66bd
00000280: 606a 8e3d 1209 18be ba2a 063d 3c59 703d
00000290: 4356 483d c6a9 043e dc85 ad3c eac3 eabd
000002a0: bad1 e83d d229 253d 9955 3b3d 9e78 48bd
000002b0: d998 bb3b bdb3 823d cd24 9ebd 9202 9dbd
000002c0: d9a3 5abd 4525 b33d 1376 133c 0b93 193e
000002d0: ca98 8fbd c448 853d edd0 a63d f4a8 a43d
000002e0: 4356 903b 4068 9abd 40b5 613e a35d 15be
000002f0: c6fd 80bd c467 19be c6f4 16be ffa8 463d
00000300: 1f2d 70bd f6cc c33c 5864 56be c7d5 353e
00000310: 8417 613c 5276 093e 9e4d bc3d 7411 02be
00000320: 8d59 37be 8cb4 1cbe 082a 1e3e 8141 78be
00000330: 30ed a63d c852 7f3d 58e3 dd3d da74 273e
00000340: a408 f1bc 21ce 0cbd 2524 cd3d a80a 1c3e
00000350: ec4e 2c3e 5f51 31bd e010 1a3e 3fc3 62bc
00000360: d4dc 933d c250 d8bc f3ea 9b3d 033d d6bd
00000370: b99d af3d 7503 2a3d 8468 d9bd 5e26 b33d
00000380: f41f ffbc f0cd 2bbe 7eeb 14bd 76d9 ec3d
00000390: 8847 ba3d b3c2 0c3d 5d85 363e 4372 2cbe
000003a0: 92f0 e9bd f918 223d d733 3a3d 5ec7 973d
000003b0: 5b0f e13d 9bca 89bc 03a4 ae3d 2a62 0d3a
000003c0: dbd4 acbd 16ad f73d 39c0 853e d8c1 bfba
000003d0: edb7 83bd 1d52 093e ce0d d83d 6cd9 013e
000003e0: 4dda 11bd 9300 3bbe e693 033d 7838 9b3c
000003f0: 37ae 29bd 8af9 2fbd 6078 663c 9c89 d2bc

a2c_network.actor_mlp.0.bias f4 [256]
0.160196 0.29932594 -0.025341306 0.22262074 0.10164125 0.17151746 0.033608377 -0.0041273693
-0.12843822 -0.13427211 0.27593735 -0.031986836 -0.26651135 0.06925024 0.20586866 0.21696544
0.36428115 0.15545227 -0.08383496 -0.0034178703 0.04203015 0.3320968 -0.28740895 -0.21582815
-0.14035052 0.014575911 0.263539 0.1875338 0.29428884 0.06266156 -0.11507661 0.08755085
0.052052565 -0.15450184 -0.15463628 -0.17197105 0.10183574 -0.216471 0.19829917 0.1872486
0.10433422 -0.16103731 -0.033985402 0.2643237 -0.085149884 0.34782982 0.0906669 0.23063642
0.19595237 0.112045564 0.12100241 0.21840368 0.1482416 0.14102846 0.031534657 -0.22821349
0.21819676 -0.32644364 0.1957111 -0.115926385 -0.310156 0.00433926 0.22943671 -0.04456318
0.053766858 0.08287843 0.17988835 -0.03753205 -0.02267237 0.11897206 0.042472716 0.06470297
0.06731957 0.16170451 0.20564438 0.21417809 0.20845407 -0.033998072 0.28630453 -0.20044927
-0.07921976 -0.2701266 0.26267084 0.38708338 0.24310198 0.13674799 0.08497483 0.016642015
-0.05146867 0.010911531 -0.1742161 -0.099056244 -0.067365386 0.11979863 -0.019350857 0.28538755
-0.06671892 0.20945358 -0.004229023 -0.23252432 -0.0797161 -0.03575007 0.3150293 -0.0830839
0.3401941 0.06602791 0.03448786 0.19717622 0.08876051 0.08018534 -0.29249793 0.016146364
-0.24339485 0.18321241 0.30755043 0.07423171 0.033623267 -0.112820424 -0.010199072 0.07218834
-0.11463519 0.32184985 -0.081179865 0.25391582 -0.0053788815 -0.08382884 -0.08153856 0.05196549
0.33409992 -0.16239244 0.011974511 -0.28248015 -0.05315875 -0.057319745 0.10607167 0.23613414
0.13585211 0.1576535 0.01291355 -0.17148755 -0.10884306 -0.040011536 0.20609154 -0.05919076
-0.19862182 -0.07639101 -0.06622513 0.11844348 -0.13055703 -0.062374983 0.3872418 0.26760644
0.26264983 0.036706608 0.17355548 -0.20535187 -0.179591 0.20939443 0.1319245 -0.10744437
0.1363742 -0.02350339 -0.001183734 0.014291706 -0.18738012 0.29661185 -0.10096147 0.027927622
-0.06860917 0.10088617 0.10131201 0.30300882 0.023373034 0.2677578 0.19196987 0.17356521
0.21102993 0.19420944 0.20553672 0.29647803 0.014515328 0.22792092 0.1004192 0.20705308
0.21652722 -0.11906564 -0.15569268 -0.14422166 0.14251032 -0.04085833 -0.058417458 0.16693999
0.058530595 0.22791237 -0.14349876 -0.108807705 -0.2031521 0.122957766 -0.0698708 0.26734594
-0.058656804 -0.22783242 0.20969823 -0.022667464 0.14684835 -0.111599565 -0.07842086 -0.04283634
-0.019463345 -0.03449912 -0.035718944 0.35599548 -0.02103369 0.2338028 0.092329025 0.3221562
-0.010084303 0.1317504 0.06361816 0.091732115 0.0043921755 -0.16712625 0.2796951 -0.06764039
-0.020782903 0.17904508 0.13449289 -0.11697318 -0.12865047 0.2597075 -0.016371781 0.136404
0.22105037 0.028190138 0.24281463 0.2317337 -0.14437157 0.060019225 0.22247694 0.30233142
-0.13721277 0.20453246 0.25064337 0.30019635 0.009879697 -0.0023731634 -0.069549344 0.23872708
0.111415125 -0.19482026 0.042209487 -0.16276634 -0.23755324 0.2060852 0.19051827 -0.0681158
00000000: 6c0a 243e 4041 993e 9298 cfbc b1f6 633e
00000010: 4a29 d03d 46a2 2f3e f0a8 093d e23e 87bb
00000020: 4f85 03be a17e 09be a947 8d3e a104 03bd
00000030: 2d74 88be 12d3 8d3d 3ccf 523e 302c 5e3e
00000040: 0f83 ba3e e12e 1f3e aab1 abbd 59fe 5fbb
00000050: ce27 2c3d 9708 aa3e 4427 93be 0e02 5dbe
00000060: 0cb8 0fbe cdcf 6e3c 95ee 863e dc08 403e
00000070: 07ad 963e b454 803d 49ad ebbd dc4d b33d
00000080: 1235 553d bb35 1ebe f958 1ebe 2e19 30be
00000090: 428f d03d 93aa 5dbe f00e 4b3e 19be 3f3e
000000a0: 2ead d53d f7e6 24be 4734 0bbd 7055 873e
000000b0: 1063 aebd c016 b23e 91af b93d f42b 6c3e
000000c0: bda7 483e 2578 e53d 1dd0 f73d 37a5 5f3e
000000d0: a5cc 173e c469 103e 7c2a 013d ccb0 69be
000000e0: f96e 5f3e 9f23 a7be 7e68 483e d06a edbd
000000f0: c4cc 9ebe 5a30 8e3b 75f1 6a3e e287 36bd
00000100: a33a 5c3d 2bbc a93d a734 383e 35bb 19bd
00000110: 68bb b9bc a0a7 f33d dff7 2d3d fe82 843d
00000120: d8de 893d de95 253e 7194 523e 8051 5b3e
00000130: fc74 553e 9041 0bbd 8296 923e 9342 4dbe
00000140: f83d a2bd 094e 8abe cb7c 863e cb2f c63e
00000150: baef 783e aa07 0c3e 4907 ae3d d654 883c
00000160: d0d0 52bd 47c6 323c b565 32be 00de cabd
00000170: ddf6 89bd fc58 f53d b085 9ebc 511e 923e
00000180: eea3 88bd 007b 563e 9e93 8abb db1a 6ebe
00000190: 3242 a3bd aa6e 12bd 854b a13e e427 aabd
000001a0: ec2d ae3e a439 873d 2443 0d3d 90e8 493e
000001b0: 12c8 b53d 3638 a43d 4ac2 95be 6145 843c
000001c0: 803c 79be 099c 3b3e 4077 9d3e cb06 983d
000001d0: 8db8 093d 650e e7bd 021a 27bc 7bd7 933d
000001e0: dbc5 eabd 81c9 a43e a141 a6bd 4101 823e
000001f0: 5441 b0bb 74ae abbd b0fd a6bd c4d9 543d
00000200: 250f ab3e 344a 26be bd30 443c 3da1 90be
00000210: fdbc 59bd 1cc8 6abd 1b3c d93d 26cd 713e
00000220: d11c 0b3e eb6f 213e 5b93 533c 6f9a 2fbe
00000230: 1ce9 debd 23e3 23bd a909 533e 0372 72bd
00000240: 8563 4bbe e472 9cbd 0aa1 87bd 7f92 f23d
00000250: beb0 05be e97c 7fbd 8f44 c63e b603 893e
00000260: 0a7a 863e ab59 163d 87b8 313e c347 52be
00000270: b4e6 37be 7e6b 563e 3717 073e cb0b dcbd
00000280: aea5 0b3e 2e8a c0bc 8627 9bba c227 6a3c
00000290: 93e0 3fbe 82dd 973e e3c4 cebd 78c8 e43c
000002a0: f782 8cbd 699d ce3d ac7c cf3d f923 9b3e
000002b0: ce78 bf3c 8d17 893e c093 443e 14bb 313e
000002c0: 3b18 583e d7de 463e 3878 523e f8cb 973e
000002d0: b3d1 6d3c 1a64 693e 95a8 cd3d b905 543e
000002e0: 50b9 5d3e b0d8 f3bd e76d 1fbe d8ae 13be
000002f0: 3aee 113e 105b 27bd 2547 6fbd 51f2 2a3e
00000300: c7bd 6f3d dc61 693e 57f1 12be 93d6 debd
00000310: 1b07 50be 48d1 fb3d 6c18 8fbd 91e1 883e
00000320: 1e42 70bd e74c 69be 22bb 563e 1eb1 b9bc
00000330: 6a5f 163e 508e e4bd 1e9b a0bd 2875 2fbd
00000340: 9871 9fbc f34e 0dbd 074e 12bd 0a45 b63e
00000350: d84e acbc 006a 6f3e 0017 bd3d a8f1 a43e
00000360: a238 25bc 94e9 063e 3d4a 823d 0cde bb3d
00000370: 3dec 8f3b 2523 2bbe 3234 8f3e 0b87 8abd
00000380: e840 aabc 9857 373e 81b8 093e a28f efbd
00000390: f3bc 03be 62f8 843e 1d1e 86bc 7dad 0b3e
000003a0: 075b 623e 01ef e63c 66a4 783e 994b 6d3e
000003b0: 24d6 13be b8d6 753d ffd0 633e 2fcb 9a3e
000003c0: 8181 0cbe f570 513e 5454 803e 56b3 993e
000003d0: 74de 213c 1387 1bbb e36f 8ebd df74 743e
000003e0: 9d2d e43d f67e 47be dbe3 2c3d 38ac 26be
000003f0: 2841 73be 0008 533e 3917 433e 4c80 8bbd

a2c_network.actor_mlp.2.weight f4 [128, 256]
0.0035342257 0.05940272 -0.15143009 -0.012814958 0.021393863 -0.014602784 -0.04288646 -0.04497401
0.04411639 0.026849201 -0.029171195 -0.055771723 0.08992322 -0.0017131849 0.06939558 0.031848256
0.023756608 0.061625503 0.07534913 -0.02134196 0.016207308 -0.09601771 0.05568168 0.012562758
-0.04918097 -0.09174081 0.028368544 -0.016842369 -0.07029362 0.0032584537 0.05443874 -0.053306676
0.11985001 0.030882563 -0.03458532 -0.06717631 -0.14187936 0.036205113 0.09554719 -0.10115991
0.0010543359 -0.08511063 -0.07369842 -0.018734464 0.076665364 -0.052705206 -0.041527435 -0.15044655
-0.06631152 -0.06102849 -0.046855576 -0.015026785 -0.06674061 0.014273414 -0.08615857 -0.03094703
-0.09714392 0.09191627 -0.035881057 0.043352377 0.07605044 -0.000184722 -0.06276492 0.06521219
-0.00274139 -0.07808494 0.015984735 -0.143222 -0.20256063 -0.11621113 0.011578233 -0.060424566
-0.08576826 0.058744896 0.034347866 -0.04971206 -0.10927838 -0.08449497 0.017028688 -0.051415343
0.0045280843 0.23811066 0.11578671 -0.037972607 -0.014250349 -0.0005796389 -0.016061125 -0.0969065
0.089783505 -0.02038282 0.07421272 0.1136249 -0.11352342 -0.12072532 -0.034522843 0.1830693
-0.038533375 0.03421247 0.08389496 0.16825867 -0.07287902 -0.009909555 -0.10904979 0.048557006
-0.043466467 0.08238856 -0.003073023 -0.07020033 -0.008999641 -0.05809181 0.003417368 -0.047388297
0.16341762 -0.02529437 0.037069846 -0.093229376 -0.07695682 -0.008971909 0.106405124 0.08112219
-0.1363573 0.014779576 -0.018834101 -0.041669916 -0.13253437 0.053168125 0.0012797395 -0.09675591
-0.037306156 0.0034255027 -0.2430451 0.0984334 0.0031746712 -0.02529017 -0.031897202 0.06650593
0.005516923 0.026613468 0.11881864 -0.14407547 -0.12937947 -0.07072321 -0.049401812 0.14330079
-0.059630554 -0.03795749 -0.04170991 0.14666584 0.05437812 0.014530351 0.008330674 -0.011266487
-0.05386134 -0.058159925 0.011302773 -0.061971195 -0.09608282 0.038642798 -0.011857297 0.015906362
0.05589503 0.070461795 -0.13717814 -0.0029130692 5.1820916e-05 -0.08149768 -0.014705398 -0.048897177
-0.037375785 0.0017927384 -0.10929112 0.19750027 -0.0542754 -0.0374705 0.04261744 0.015880788
0.041847266 -0.105037 0.07639439 0.13198733 -0.05733775 -0.04113025 -0.15829585 -0.03109619
-0.0011210258 0.07970964 -0.0021335003 0.024887403 -0.012694899 -0.06853171 -0.09305237 -0.0305521
-0.08230315 -0.056068163 -0.11391149 -0.0343897 0.02697765 -0.07639741 -0.13206969 0.027260117
0.02562567 -0.0891101 0.024699777 -0.10003456 -0.0009443152 -0.02175284 -0.092706114 0.07916954
-0.010001751 -0.04910133 0.0274352 0.11735697 -0.042064123 -0.0068851206 -0.017192405 -0.11854465
0.052836847 0.028839698 0.05496995 -0.13226213 0.01615637 0.006625859 0.033395134 -0.038265146
0.1277574 0.018375127 -0.14528227 0.114399865 0.06568687 -0.12854114 -0.039496597 0.13750508
-0.050740767 0.0071141785 0.10404096 -0.012524793 0.05621569 0.018466502 0.085843384 -0.09896466
-0.09202067 0.018066294 -0.15782563 0.0017545411 0.061977763 0.0006185838 0.0015275562 -0.1240145
0.13944179 -0.014427809 -0.027751934 0.047230337 0.067681886 0.014595224 0.056569055 0.09058044
00000000: 789e 673b 4450 733d 7d10 1bbe d4f5 51bc
00000010: 2f42 af3c 8440 6fbc b6a9 2fbd ab36 38bd
00000020: 63b3 343d dbf2 db3c 6ef8 eebc e470 64bd
00000030: aa29 b83d f28c e0ba 451f 8e3d 5173 023d
00000040: 389d c23c 066b 7c3d a550 9a3d 56d5 aebc
00000050: 30c5 843c efa4 c4bd 7912 643d 07d4 4d3c
00000060: fc71 49bd 9be2 bbbd 2665 e83c 02f9 89bc
00000070: 1af6 8fbd c88b 553b 28fb 5e3d 1a58 5abd
00000080: ec73 f53d 6efd fc3c 56a9 0dbd bc93 89bd
00000090: d348 11be d04b 143d 3fae c33d ed2c cfbd
000000a0: a431 8a3a 7b4e aebd 32ef 96bd 0579 99bc
000000b0: bb02 9d3d 6ae1 57bd ac18 2abd a90e 1abe
000000c0: 56ce 87bd 03f9 79bd a2eb 3fbd e832 76bc
000000d0: 4daf 88bd 0adb 693c e873 b0bd a084 fdbc
000000e0: 64f3 c6bd 993e bc3d 04f8 12bd 4392 313d
000000f0: 55c0 9b3d efb1 41b9 e58a 80bd f88d 853d
00000100: e4a8 33bb ffea 9fbd 6bf2 823c caa8 12be
00000110: 0e6c 4fbe 1a00 eebd a1b2 3d3c c07f 77bd
00000120: 45a7 afbd 7d9e 703d 59b0 0c3d df9e 4bbd
00000130: 58cd dfbd b30b adbd bf7f 8b3c e598 52bd
00000140: 5360 943b 48d3 733e 9521 ed3d 2a89 1bbd
00000150: 4c7a 69bc e8f2 17ba 9f92 83bc ea76 c6bd
00000160: 6ae0 b73d dff9 a6bc d7fc 973d 2cb4 e83d
00000170: f87e e8bd d63e f7bd d367 0dbd 8576 3b3e
00000180: 2cd5 1dbd 6022 0c3d 1fd1 ab3d 004c 2c3e
00000190: 9841 95bd b05b 22bc 7f55 dfbd b6e3 463d
000001a0: e509 32bd 55bb a83d c564 49bb 31c5 8fbd
000001b0: 3b73 13bc aef1 6dbd ecf5 5f3b 3b1a 42bd
000001c0: f356 273e 2336 cfbc 8dd6 173d 0bef bebd
000001d0: 8a9b 9dbd eafe 12bc eeea d93d 6423 a63d
000001e0: 40a1 0bbe 0926 723c f949 9abc 13ae 2abd
000001f0: 17b7 07be d2c6 593d efbc a73a f627 c6bd
00000200: 57ce 18bd 667e 603b d1e0 78be 7397 c93d
00000210: 250e 503b 552d cfbc a4a6 02bd 4334 883d
00000220: 4ec7 b43b 7d04 da3c 3057 f33d 8588 13be
00000230: 0d7c 04be 55d7 90bd 8e59 4abd 71bd 123e
00000240: 2b3f 74bd 5079 1bbd 03d8 2abd 922f 163e
00000250: 97bb 5e3d b610 6e3c 617d 083c 1297 38bc
00000260: b59d 5cbd 1a39 6ebd 442f 393c 82d5 7dbd
00000270: 12c7 c4bd e947 1e3d 1c45 42bc 0f4e 823c
00000280: 30f2 643d 464e 903d 6d78 0cbe 31e9 3ebb
00000290: 495a 5938 41e8 a6bd e9ee 70bc 6848 48bd
000002a0: 5a17 19bd 52fa ea3a 06d4 dfbd 833d 4a3e
000002b0: e24f 5ebd ab7a 19bd a08f 2e3d 6d18 823c
000002c0: 0a68 2b3d a31d d7bd a974 9c3d b027 073e
000002d0: fdda 6abd 3178 28bd 4f18 22be 70bd febc
000002e0: 62ef 92ba cf3e a33d 32d2 0bbb abe0 cb3c
000002f0: 44fe 4fbc 5a5a 8cbd 3e92 bebd 6648 fabc
00000300: 8e8e a8bd bba7 65bd 6d4a e9bd 37dc 0cbd
00000310: 3c00 dd3c 3f76 9cbd 473d 07be 9c50 df3c
00000320: edec d13c 5b7f b6bd 3057 ca3c ebde ccbd
00000330: ec8b 77ba 0333 b2bc b4dc bdbd a423 a23d
00000340: 62de 23bc 7a1e 49bd c9bf e03c da58 f03d
00000350: 6e4b 2cbd 949c e1bb 16d7 8cbc 8ac7 f2bd
00000360: 736b 583d 3b41 ec3c 2c28 613d b96f 07be
00000370: 5d5a 843c bc1d d93b 56c9 083d eabb 1cbd
00000380: d6d2 023e 6f87 963c e0c4 14be 7a4a ea3d
00000390: d686 863d 4aa0 03be 2fc7 21bd 22ce 0c3e
000003a0: 8dd5 4fbd 0e1e e93b 6d13 d53d ca34 4dbc
000003b0: 6c42 663d 1047 973c a8ce af3d fcad cabd
000003c0: 5575 bcbd c4ff 933c 0b9d 21be a1f8 e53a
000003d0: 65dc 7d3d 7528 223a 4838 c83a 50fb fdbd
000003e0: d4c9 0e3e 9e62 6cbc 0658 e3bc 9974 413d
000003f0: cd9c 8a3d ce20 6f3c f4b4 673d 3d82 b93d

a2c_network.actor_mlp.2.bias f4 [128]
-0.11783655 -0.1365892 -0.17309082 -0.075186305 0.061794568 -0.13957557 -0.06467918 -0.11064183
-0.32889804 -0.20756729 -0.11466333 0.013932194 -0.21774952 -0.064171806 -0.046751786 -0.045987792
0.015772268 -0.18958329 -0.0007192153 -0.082828246 -0.10804303 -0.29911882 0.06817277 -0.036356203
0.06361828 -0.1498164 -0.092017256 0.060135342 -0.1384155 -0.09678445 -0.010947369 0.16663982
-0.11330969 0.011728014 0.14468697 -0.11693901 0.14185083 0.04860599 -0.019222882 0.20647044
0.07490072 0.0735128 -0.20195915 -0.08279707 -0.15425225 -0.0066238362 -0.035795033 0.013885143
-0.16275112 -0.09078398 -0.12519631 -0.11472211 -0.1771626 -0.33206317 -0.010845676 -0.11166386
-0.2264626 0.14021143 -0.043756038 0.12055306 -0.24167262 0.018612621 -0.04991524 0.12143647
-0.118288726 -0.030633682 -0.038110312 -0.14903101 -0.20925266 0.0926306 -0.023546945 -0.05267344
-0.09562108 -0.18282333 -0.06362648 0.070268326 -0.04073226 -0.2011152 -0.15817957 0.039357357
0.059920993 -0.05988726 -0.33046013 -0.07754664 -0.012797042 0.060917605 -0.12318671 -0.109422386
-0.0716807 -0.076372035 -0.05523111 0.031403422 0.02636427 -0.18877889 -0.050990157 -0.20104751
0.11550391 -0.042389315 0.07655784 -0.33524817 -0.12232587 -0.0286855 -0.17168419 -0.044069026
-0.14939964 -0.037387393 -0.20263164 0.07648343 -0.043811966 -0.1136804 -0.17738338 0.0073443986
-0.022580473 0.02839171 0.08272909 -0.19518116 -0.2260067 -0.031434156 -0.080148436 -0.044697467
0.06348627 -0.2015491 -0.046755537 0.07073072 -0.075384244 -0.1522971 0.07946908 -0.084482476
00000000: 4a54 f1bd 0ade 0bbe b83e 31be 47fb 99bd
00000010: 4d1c 7d3d e6ec 0ebe 8576 84bd 2f98 e2bd
00000020: 5365 a8be 858c 54be 9cd4 eabd db43 643c
00000030: bbf9 5ebe 826c 83bd cd7e 3fbd b25d 3cbd
00000040: d834 813c 1f22 42be b989 3cba dba1 a9bd
00000050: aa45 ddbd 1a26 99be 2a9e 8b3d 3eea 14bd
00000060: 4d4a 823d 7869 19be 8b73 bcbd 7a50 763d
00000070: cbbc 0dbe ed36 c6bd 985c 33bc a1a3 2a3e
00000080: e90e e8bd db26 403c d228 143e b87d efbd
00000090: 5841 113e 1317 473d 4e79 9dbc fd6c 533e
000000a0: 8c65 993d e18d 963d 61ce 4ebe 8391 a9bd
000000b0: 4df4 1dbe c40c d9bb d09d 12bd 837e 633c
000000c0: 3ba8 26be f4ec b9bd 7633 00be 6df3 eabd
000000d0: 1d6a 35be 2f04 aabe 10b2 31bc 06b0 e4bd
000000e0: d0e5 67be 9693 0f3e 8839 33bd 86e4 f63d
000000f0: 0779 77be 7f79 983c ec73 4cbd afb3 f83d
00000100: 5c41 f2bd 7df3 fabc 8f19 1cbd 969b 18be
00000110: 5446 56be 1db5 bd3d 86e5 c0bc 1bc0 57bd
00000120: fcd4 c3bd 0a36 3bbe 9a4e 82bd d7e8 8f3d
00000130: dfd6 26bd 25f1 4dbe d3f9 21be 2e35 213d
00000140: b76f 753d 584c 75bd 1232 a9be c6d0 9ebd
00000150: afaa 51bc bd84 793d 5049 fcbd d818 e0bd
00000160: 55cd 92bd f168 9cbd 043a 62bd e0a0 003d
00000170: e2f9 d73c 414f 41be 0edb 50bd 66df 4dbe
00000180: 508d ec3d 6ba0 2dbd 5bca 9c3d a6a5 abbe
00000190: fc85 fabd dbfd eabc fbcd 2fbe b981 34bd
000001a0: 38fc 18be 8623 19bd ab7e 4fbe 58a3 9c3d
000001b0: 2d74 33bd 45d1 e8bd fda3 35be 48a9 f03b
000001c0: affa b8bc bb95 e83c de6d a93d 92dd 47be
000001d0: 4d6e 67be 1ac1 00bd dd24 a4bd b114 37bd
000001e0: 1705 823d e362 4ebe bc82 3fbd 45db 903d
000001f0: 0e63 9abd c5f3 1bbe afc0 a23d 2605 adbd

a2c_network.actor_mlp.4.weight f4 [64, 128]
0.10474906 0.025385085 0.15716192 -0.027470564 -0.03512611 0.030938873 -0.020080574 0.019440612
0.12706499 0.09610907 -0.051543146 -0.08450302 -0.061359927 0.03218023 -0.11025923 0.003181159
0.0053692963 -0.019600615 0.02402804 -0.107491255 0.077406645 0.1319118 0.04233195 -0.0053332183
-0.09431782 -0.0742068 0.08350591 -0.097506456 -0.13916218 -0.09490064 -0.1101163 -0.014344843
0.023214769 -0.01689855 -0.08440126 0.08866423 -0.113080874 -0.18363944 -0.043012 -0.13818617
0.051584642 -0.14834988 0.1199651 -0.08475503 0.040241603 0.002618666 0.10171616 -0.074317165
-0.10155165 -0.087676644 0.103679284 0.096623085 0.091847666 0.10476473 -0.09620938 -0.1776451
-0.010281029 -0.092817314 -0.04422446 0.038377013 0.076245055 0.011551111 0.11036972 -0.050872426
-0.035347953 -0.08724954 -0.0046547838 0.05809 -0.055795673 -0.046766177 0.053572524 -0.10524287
-0.016589416 0.004684276 0.07631837 0.106518656 -0.01705614 0.14499268 0.10709185 0.01009978
-0.13014123 0.090284266 -0.04601019 -0.12897164 -0.13037258 -0.012920096 0.006794458 0.1177511
0.030248912 -0.13404626 -0.027648784 -0.18622796 0.10038554 -0.0755205 0.10860792 -0.068367235
-0.057412103 -0.06437017 -0.031378727 -0.043810252 -0.026021065 -0.1032555 0.07510064 0.041085023
0.045428418 -0.06291936 -0.0043689786 0.027449287 -0.0349138 -0.01004217 0.015364262 0.051855166
0.012627366 -0.066832796 0.042288456 -0.06014121 0.1273561 -0.10109779 -0.07523903 0.034318455
-0.15421878 0.016002063 0.026077032 -0.1101417 0.06843333 0.12438552 -0.009156747 -0.098163426
-0.1500534 0.02932664 0.016348155 0.025058603 -0.100665085 -0.073882714 0.04634741 -0.025595268
0.09330246 -0.09023114 0.21354063 0.062736236 -0.05087747 0.0749177 -0.15510997 -0.094996795
-0.018544195 0.0014208537 -0.0172756 0.006216717 0.101223364 0.0067537236 -0.13342193 0.066387266
0.03606967 -0.08129537 0.16531822 -0.08361989 -0.015964579 0.04022158 -0.034826938 -0.017824361
0.16782627 -0.019358706 0.08387699 -0.023534779 0.08916364 -0.06540877 -0.13332172 -0.089744516
-0.19569124 0.062805206 0.04452733 -0.07354909 0.04802103 -0.047176167 0.037666485 -0.0049274145
0.028305076 -0.020591224 0.0019618585 0.06802503 0.0670872 0.038025197 -0.15127008 -0.08475613
-0.014267162 0.037277274 -0.04812144 0.03278354 0.13215569 0.08858218 0.18903677 -0.0058284197
0.08339215 -0.019722637 -0.09274877 0.041950304 -0.00535624 0.122982 -0.03128505 -0.026527537
0.1258321 -0.054768767 0.039386407 0.20290847 -0.14065716 -0.06421616 0.090339534 -0.06403973
-0.12279564 -0.004654206 0.07809561 -0.14179194 -0.085816324 -0.023397014 0.05493271 -0.01722015
0.13995875 -0.059176818 -0.14100511 0.008448839 0.011438157 -0.06964879 0.06488698 -0.07240348
-0.1902473 -0.0150173055 0.041463707 -0.024179976 0.025321335 -0.070044845 -0.017954404 0.018378474
-0.012238007 -0.123779155 -0.087882385 -0.1343615 0.03566174 0.027978059 -0.08607814 -0.0354151
-0.054135576 -0.2207969 -0.08467582 0.033730436 -0.020421308 -0.12291725 -0.071604975 0.029921692
-0.15816623 -0.17615426 0.026564155 0.09125421 0.028717004 -0.051570576 0.17766644 -0.02592097
00000000: ad86 d63d 62f4 cf3c 0eef 203e f309 e1bc
00000010: 65e0 0fbd 8573 fd3c 0480 a4bc eb41 9f3c
00000020: 531d 023e d5d4 c43d e81e 53bd eb0f adbd
00000030: 8c54 7bbd 6bcf 033d 97cf e1bd fe7a 503b
00000040: ecf0 af3b 7891 a0bc 74d6 c43c 6024 dcbd
00000050: 6087 9e3d e313 073e 4464 2d3d 47c2 aebb
00000060: b429 c1bd bcf9 97bd 2605 ab3d 77b1 c7bd
00000070: 8880 0ebe 445b c2bd a884 e1bd a206 6bbc
00000080: e62c be3c d46e 8abc 91da acbd 9895 b53d
00000090: f296 e7bd fa0b 3cbe 5a2d 30bd ad80 0dbe
000000a0: 6b4a 533d 08e9 17be 43b0 f53d 0c94 adbd
000000b0: 61d4 243d ed9d 2b3b 9050 d03d 9933 98bd
000000c0: 50fa cfbd d08f b3bd ce55 d43d 53e2 c53d
000000d0: a11a bc3d e48e d63d 6c09 c5bd 99e8 35be
000000e0: c371 28bc 0117 bebd b524 35bd 3731 1d3d
000000f0: 5e26 9c3d df40 3d3c 8509 e23d 9b5f 50bd
00000100: 04c9 10bd e3af b2bd 2887 98bb c8ef 6d3d
00000110: 018a 64bd e48d 3fbd dd6e 5b3d 9389 d7bd
00000120: 87e6 87bc 8e7e 993b ce4c 9c3d 7426 da3d
00000130: 51b9 8bbc f678 143e f952 db3d 8c79 253c
00000140: be43 05be f5e6 b83d 2e75 3cbd 2411 04be
00000150: 6480 05be cfae 53bc 0ba4 de3b 7d27 f13d
00000160: 91cc f73c 6c43 09be b47f e2bc 8bb2 3ebe
00000170: ef96 cd3d 7eaa 9abd d46d de3d 1f04 8cbd
00000180: f428 6bbd 82d4 83bd fb86 00bd 6172 33bd
00000190: 212a d5bc 9f77 d3bd 5dce 993d c548 283d
000001a0: 2613 3a3d dedb 80bd a629 8fbb 54dd e03c
000001b0: c601 0fbd ea87 24bc 63ba 7b3c 1566 543d
000001c0: 03e3 4e3c a2df 88bd a936 2d3d a156 76bd
000001d0: a369 023e 5c0c cfbd ec16 9abd 8291 0c3d
000001e0: 87eb 1dbe c216 833c 809f d53c f991 e1bd
000001f0: c626 8c3d d6bd fe3d 2e06 16bc e809 c9bd
00000200: 99a7 19be 6c3e f03c 91ec 853c b347 cd3c
00000210: 7f29 cebd d24f 97bd c8d6 3d3d 2bad d1bc
00000220: 5c15 bf3d 1bcb b8bd 65aa 5a3e db7b 803d
00000230: e564 50bd 736e 993d 26d5 1ebe ae8d c2bd
00000240: ffe9 97bc f03b ba3a 8f85 8dbc 9ab5 cb3b
00000250: 324e cf3d 574e dd3b c29f 08be 0cf6 873d
00000260: cabd 133d 307e a6bd 2e49 293e e840 abbd
00000270: 26c8 82bc 62bf 243d b1a6 0ebd 6504 92bc
00000280: a6da 2b3e 2696 9ebc b3c7 ab3d 02cc c0bc
00000290: 6d9b b63d 09f5 85bd 7d85 08be f9cb b7bd
000002a0: 4963 48be 04a0 803d 4a62 363d e8a0 96bd
000002b0: b3b1 443d cc3b 41bd 2c48 1a3d 2676 a1bb
000002c0: 0ce0 e73c edae a8bc 8692 003b b550 8b3d
000002d0: 0465 893d 4fc0 1b3d 8be6 1abe 9f94 adbd
000002e0: d1c0 69bc 0eb0 183d fd1a 45bd 0948 063d
000002f0: d253 073e 936a b53d db92 413e 54fc bebb
00000300: 81c9 aa3d 5e91 a1bc 11f3 bdbd 15d4 2b3d
00000310: 6683 afbb fddd fb3d c124 00bd 4750 d9bc
00000320: 21da 003e 3755 60bd a453 213d 3dc7 4f3e
00000330: 6e08 10be c383 83bd ef03 b93d 4327 83bd
00000340: 487c fbbd 4f82 98bb 97f0 9f3d e831 11be
00000350: 78c0 afbd 18ab bfbc 1f01 613d 4611 8dbc
00000360: 5951 0f3e 6463 72bd a563 10be 006d 0a3c
00000370: 1c67 3b3c 06a4 8ebd 77e3 843d 4748 94bd
00000380: 30d0 42be 250b 76bc d9d5 293d 1615 c6bc
00000390: b06e cf3c ac73 8fbd 1d15 93bc 748e 963c
000003a0: ec81 48bc ed7f fdbd aefb b3bd 1096 09be
000003b0: 0b12 123d 3e32 e53c bc49 b0bd 6d0f 11bd
000003c0: 44bd 5dbd 9518 62be 846a adbd ed28 0a3d
000003d0: 964a a7bc 0abc fbbd a1a5 92bd 561e f53c
000003e0: 54f6 21be c861 34be 129d d93c 7de3 ba3d
000003f0: ec3f eb3c ab3b 53bd 31ee 353e 3758 d4bc

a2c_network.actor_mlp.4.bias f4 [64]
-0.070548594 0.0082333 0.057262704 0.10642872 -0.04763335 0.010656108 -0.16093236 -0.06040216
-0.030240037 -0.23406583 -0.02765698 -0.0844801 -0.043336228 0.02508608 -0.204842 0.11567386
0.044593852 0.07244188 -0.15683316 -0.07239867 0.15654188 -0.15108639 0.05251112 0.049542926
-0.11297954 -0.08929094 -0.05244838 -0.049791187 -0.035389595 0.12595752 -0.0044625523 -0.16862251
0.106586695 0.10651371 -0.15006794 -0.07829719 -0.099909455 0.061233044 0.026657643 -0.08367769
0.10038904 -0.12940699 -0.009099986 -0.11748818 0.090435795 -0.120400324 0.009967835 -0.04722536
-0.03140281 0.02430819 -0.09210453 -0.22721694 -0.0779958 0.06265907 0.029746082 0.0046707485
0.020214887 -0.21123664 0.05342675 -0.08591011 -0.19610558 -0.111083254 -0.2175934 -0.07822113
00000000: c87b 90bd f7e4 063c 4c8c 6a3d 4df7 d93d
00000010: 301b 43bd f596 2e3c 74cb 24be 4168 77bd
00000020: f4b9 f7bc f4ae 6fbe e490 e2bc e703 adbd
00000030: 5481 31bd 5381 cd3c 1ac2 51be 6be6 ec3d
00000040: 0ba8 363d 695c 943d df98 20be c145 94bd
00000050: 844c 203e 64b6 1abe e615 573d 86ed 4a3d
00000060: d161 e7bd 2bde b6bd 1dd4 56bd d8f1 4bbd
00000070: aef4 10bd 02fb 003e 9a3a 92bb 61ab 2cbe
00000080: 204a da3d dc23 da3d 69ab 19be 475a a0bd
00000090: 549d ccbd 80cf 7a3d 2161 da3c 355f abbd
000000a0: c598 cd3d 4483 04be 1c18 15bc a59d f0bd
000000b0: 6736 b93d 7294 f6bd 2150 233c 616f 41bd
000000c0: 3ca0 00bd f821 c73c 4da1 bcbd 8fab 68be
000000d0: 43bc 9fbd 6653 803d 0eae f33c 140d 993b
000000e0: b199 a53c 6b4e 58be 02d6 5a3d a4f1 afbd
000000f0: e7cf 48be 9e7f e3bd ced0 5ebe 6632 a0bd

a2c_network.value.weight f4 [1, 64]
-0.09747123 -0.012706378 0.00989926 0.26974645 -0.016837008 -0.023153089 -0.12968497 -0.031590972
-0.07570056 -0.011121424 0.06640509 -0.021368103 0.0056939325 0.024124006 0.0210685 0.18955782
0.2856403 0.027631504 -0.020571997 0.0058113243 0.059792235 -0.010298703 0.010128202 0.13253823
0.007952724 0.043636996 -0.052199006 -0.103918605 -0.008108617 0.40332615 0.010550936 -0.07680168
0.2534436 0.24079145 -0.0041065756 0.005199687 -0.25528595 0.002617445 0.0013698194 0.0028792114
0.11411608 -0.008518193 -0.068871625 -0.011288616 0.027791997 -0.088285804 0.009574477 -0.034836814
-0.0530091 0.01681137 0.0071902215 -0.017082807 -0.002365343 0.023096515 -0.0026770462 0.0035429846
0.0048357537 0.02863526 0.039062418 0.08766177 0.018673232 -0.044913515 0.024591707 0.0026720893
00000000: ff9e c7bd 692e 50bc 8130 223c 351c 8a3e
00000010: c4ed 89bc 8cab bdbc 23cc 04be 8965 01bd
00000020: e508 9bbd a236 36bc 64ff 873d 290c afbc
00000030: 2b94 ba3b b59f c53c d997 ac3c 721b 423e
00000040: 723f 923e 775b e23c 9b86 a8bc ec6c be3b
00000050: b4e8 743d e4bb 28bc c2f0 253c 1ab8 073e
00000060: 244c 023c b5bc 323d a0ce 55bd 47d3 d4bd
00000070: 01da 04bc c480 ce3e d5dd 2c3c 334a 9dbd
00000080: 5cc3 813e 0992 763e 7490 86bb 2362 aa3b
00000090: d7b4 82be 7189 2b3b 838b b33a 27b1 3c3b
000000a0: b1b5 e93d e48f 0bbc 910c 8dbd e3f3 38bc
000000b0: 0bac e33c 30cf b4bd 44de 1c3c 0cb1 0ebd
000000c0: 1220 59bd 00b8 893c f39b eb3b 3ef1 8bbc
000000d0: df03 1bbb e734 bd3c 6271 2fbb 6b31 683b
000000e0: 3e75 9e3b 7e94 ea3c eaff 1f3d 0488 b33d
000000f0: 9bf8 983c 3cf7 37bd 8c74 c93c 381e 2f3b

a2c_network.mu.weight f4 [12, 64]
0.05550742 -0.050046545 0.13906465 0.14122237 -0.12538433 0.118499696 -0.059508562 -0.07343312
-0.04244758 -0.043962922 0.04461335 -0.15903708 -0.013222261 -0.03128207 -0.05933331 0.080791876
0.06238923 -0.038085032 -0.07541931 -0.09059725 0.11109278 -0.019887768 0.014205626 -0.028044583
-0.0035719117 -0.07908323 0.11227526 -0.081272155 0.036448095 0.042508923 -0.040155917 -0.027167585
0.05875056 -0.026728848 -0.06928071 0.033310995 0.08348879 -0.015564034 0.021071179 -0.0031414793
0.022721402 0.022264997 0.03858963 -0.032953873 0.010627606 -0.016361164 0.10183871 0.022566462
0.085598074 -0.027063122 -0.04503189 0.06208868 0.093616486 0.03453793 -0.16680984 0.051039178
0.03472069 -0.14075276 0.069234125 -0.035537347 -0.17120543 -0.037995785 -0.16770296 -0.026213313
-0.018787572 -0.092416696 0.10685884 0.10565395 -0.05246025 -0.1180253 0.009976025 -0.062871106
0.05057397 -0.03982721 -0.068252295 -0.06579261 -0.07773231 0.075137965 0.051041927 -0.061224535
-0.047392234 0.0043807174 0.005518062 -0.12668748 0.18330993 0.023908878 -0.031128932 -0.049349833
0.0069583477 -0.018472403 0.0070178863 -0.028005196 0.060358834 -0.083168305 0.13082501 0.030704768
-0.068875 0.08960741 -0.11596234 0.010794124 0.032597423 -0.04553108 0.10141595 -0.01243934
-0.012894644 -0.010201792 0.04083464 -0.071628176 -0.059962213 0.020954065 -0.1654322 0.10825528
0.051115718 -0.13479397 -0.1303865 0.008720749 -0.13546465 0.00739063 -0.017324291 0.18899317
-0.11233934 -0.022477996 0.005869052 0.01453677 -0.07333512 0.042636245 -0.0609126 0.06624297
0.035346016 0.029232439 -0.018256407 -0.20867954 0.043158017 0.04724375 -0.002700403 0.027343959
-0.1077446 0.14935723 -0.0033994173 0.047705993 0.19172096 -0.018497843 0.20179443 -0.07255324
-0.13691978 0.09291896 0.15232131 0.1182865 -0.103803046 0.03156271 0.08428412 -0.081950024
0.092509486 0.065386616 -0.05701233 -0.020700492 0.010092896 -0.054120187 0.019516004 -0.0021684144
0.030930454 0.12722026 0.057977673 0.0060594776 -0.039222974 -0.084060974 -0.093938366 -0.09581659
-0.00036975797 -0.06876994 -0.013733252 0.07073021 0.074384205 -0.036862977 -0.043146726 -0.07133125
-0.02662422 0.09737688 0.13214682 0.1018624 0.21930845 0.056846365 0.102593355 -0.105475195
-0.0121674435 0.060625564 0.04540523 -0.026889175 0.011373223 0.023499664 0.08011792 -0.0550395
0.0036104133 0.009933094 -0.10246248 0.24649383 0.10617723 0.021031752 -0.081673376 0.023993274
0.06409899 -0.07898731 0.012051606 0.03534602 -0.07373315 -0.0078070704 -0.037394892 -0.043340217
0.081808604 0.037786927 0.034670312 -0.023835745 0.09200753 -0.11232166 -0.061927825 0.047524124
-0.18145542 0.0048615313 0.027483512 0.075296275 0.038235653 -0.06785666 0.04881618 -0.02369807
0.035604276 0.045043223 -0.018493587 0.11620737 0.002014144 0.03874598 -0.1562034 -0.0042943326
0.080863394 -0.2980358 0.0024119753 -0.0802442 0.054472737 -0.12568429 0.122532256 0.01000291
-0.0552606 0.114241764 0.023780774 -0.052509252 -0.01985985 -0.08892735 -0.12588102 -0.13134524
0.034994386 -0.13735873 -0.035460155 0.06189038 -0.069168106 -0.010759036 -0.050239913 -0.14754708
00000000: c05b 633d 9bfd 4cbd f766 0e3e 999c 103e
00000010: c064 00be f8af f23d 40bf 73bd 1b64 96bd
00000020: 83dd 2dbd 7712 34bd 7dbc 363d 9eda 22be
00000030: 2fa2 58bc a121 00bd 7c07 73bd 3676 a53d
00000040: d98b 7f3d 0dff 1bbd 7075 9abd 0d8b b9bd
00000050: 9d84 e33d aceb a2bc b7be 683c c1bd e5bc
00000060: bc16 6abb 63f6 a1bd 92f0 e53d 0472 a6bd
00000070: 994a 153d d61d 2e3d 887a 24bd 8e8e debc
00000080: 6da4 703d 75f6 dabc 0be3 8dbd 1c71 083d
00000090: 2cfc aa3d 4a00 7fbc 779d ac3c 47e1 4dbb
000000a0: 3c22 ba3c 1565 b63c 2910 1e3d a4fa 06bd
000000b0: 691f 2e3c d907 86bc d090 d03d 4ddd b83c
000000c0: 0b4e af3d 7bb3 ddbc 5c73 38bd b350 7e3d
000000d0: 00ba bf3d a577 0d3d 33d0 2abe 750e 513d
000000e0: 4837 0e3d 7e21 10be 9fca 8d3d 9c8f 11bd
000000f0: 7a50 2fbe 78a1 1bbd 53ba 2bbe 4dbd d6bc
00000100: 65e8 99bc f744 bdbd cfd8 da3d 1961 d83d
00000110: 8fe0 56bd 40b7 f1bd 7b72 233c 91c2 80bd
00000120: a726 4f3d db21 23bd dcc7 8bbd 47be 86bd
00000130: 1e32 9fbd efe1 993d 5711 513d 94c6 7abd
00000140: 5c1e 42bd 1f8c 8f3b dcd0 b43b 5dba 01be
00000150: 99b5 3b3e 8ddc c33c 1a02 ffbc 0d23 4abd
00000160: da02 e43b 7053 97bc 4cf6 e53b 276b e5bc
00000170: d33a 773d 2554 aabd fef6 053e 9188 fb3c
00000180: 560e 8dbd 1784 b73d aa7d edbd d6d9 303c
00000190: e084 053d cc7e 3abd 2ab3 cf3d 60ce 4bbc
000001a0: 0f44 53bc 6b25 27bc 3942 273d cbb1 92bd
000001b0: f09a 75bd dca7 ab3c 0f67 29be f2b4 dd3d
000001c0: b75e 513d 6e07 0abe 0a84 05be 79e1 0e3c
000001d0: 3fb7 0abe 192d f23b aceb 8dbc 6d87 413e
000001e0: 2b12 e6bd c623 b8bc 2d51 c03b a22b 6e3c
000001f0: b930 96bd 58a3 2e3d 7e7f 79bd 65aa 873d
00000200: fcc6 103d de78 ef3c 768e 95bc 17b0 55be
00000210: 76c6 303d aa82 413d 3ff9 30bb 7000 e03c
00000220: 33a9 dcbd 1af1 183e c2c8 5ebb 5c67 433d
00000230: 8052 443e ca88 97bc 33a3 4e3e cb96 94bd
00000240: b334 0cbe 4c4c be3d 1efa 1b3e 3140 f23d
00000250: b196 d4bd e647 013d 279d ac3d 6ad5 a7bd
00000260: 9d75 bd3d 6be9 853d c385 69bd 1494 a9bc
00000270: ad5c 253c 21ad 5dbd 07e0 9f3c f51b 0ebb
00000280: dd61 fd3c 0746 023e ff79 6d3d 958e c63b
00000290: 45a8 20bd 2928 acbd c262 c0bd 7d3b c4bd
000002a0: 13dc c1b9 41d7 8cbd 6f01 61bc 00db 903d
000002b0: bf56 983d a2fd 16bd 9fba 30bd 1e16 92bd
000002c0: 091b dabc 886d c73d 7f51 073e 3c9d d03d
000002d0: 6592 603e bcd7 683d 771c d23d 6103 d8bd
000002e0: f559 47bc 8352 783d d6fa 393d b046 dcbc
000002f0: c156 3a3c 5e82 c03c dd14 a43d 1971 61bd
00000300: af9c 6c3b 6abe 223c d9d7 d1bd e168 7c3e
00000310: 7373 d93d c84a ac3c 5f44 a7bd 8b8d c43c
00000320: 5546 833d 19c4 a1bd 1974 453c fdc6 103d
00000330: 6801 97bd 74d2 ffbb 632b 19bd 8385 31bd
00000340: 458b a73d 77c6 1a3d 7502 0e3d 2e43 c3bc
00000350: 726e bc3d e608 e6bd 08a8 7dbd a8a8 423d
00000360: 73cf 39be 7b4d 9f3b 1a25 e13c ef34 9a3d
00000370: fd9c 1c3d 6ff8 8abd 7af3 473d 7422 c2bc
00000380: cad5 113d 3e7f 383d dd7f 97bc 21fe ed3d
00000390: bbff 033b 1bb4 1e3d c9f3 1fbe 79b7 8cbb
000003a0: b59b a53d 2698 98be 3b12 1e3b 1257 a4bd
000003b0: ce1e 5f3d 62b3 00be 31f2 fa3d 3fe3 233c
000003c0: f058 62bd 96f7 e93d e6cf c23c f113 57bd
000003d0: 20b1 a2bc 8b1f b6bd f4e6 00be 5e7f 06be
000003e0: 4656 0f3d c4a7 0cbe ab3e 11bd c480 7d3d
000003f0: 02a8 8dbd ab46 30bc 5ec8 4dbd 9516 17be

a2c_network.mu.bias f4 [12]
0.052991077 -0.039198242 -0.10427153 0.14253433 -0.052390475 -0.020888535 0.15223403 -0.07890821
0.115843326 -0.10942623 -0.15155342 0.18644708
00000000: 2c0d 593d 568e 20bd 508c d5bd 85f4 113e
00000010: 6597 56bd 6f1e abbc 3de3 1b3e a19a a1bd
00000020: 443f ed3d dc1a e0bd d230 1bbe fceb 3e3e

exp_avg f4 [12]
-0.0022990475 0.0011147732 0.00034805844 0.0014690587 -0.002668605 0.0011316176 -0.0020988958 -0.0030047505
0.0016511518 0.0003584993 0.003373321 -8.5686595e-05
00000000: 9eab 16bb 951d 923a 9d7b b639 6e8d c03a
00000010: c3e3 2ebb c952 943a a18d 09bb 59eb 44bb
00000020: 766b d83a f6f4 bb39 ef12 5d3b a4b2 b3b8

exp_avg_sq f4 [12]
5.8379883e-05 6.413934e-05 6.26504e-05 5.984777e-05 6.620209e-05 6.810158e-05 6.148549e-05 6.4231484e-05
7.036415e-05 6.843002e-05 7.2573224e-05 6.807147e-05
00000000: ecdc 7438 8c82 8638 2d63 8338 0e05 7b38
00000010: fad5 8a38 c2d1 8e38 c5f1 8038 04b4 8638
00000020: 7790 9338 1682 8f38 7432 9838 98c1 8e38
