OmniIsaacGymEnvs/omniisaacgymenvs/runs/Naranjelio/nn/last_Naranjelio_ep_5150_rew_12.298973.pth (torch, 672807 bytes, 36 tensors)

value_mean_std.running_mean f8 [1]
0.63691654390523
00000000: 8456 cbcd 9e61 e43f

value_mean_std.running_var f8 [1]
0.20449487950128648
00000000: 8228 d461 e32c ca3f

value_mean_std.count f8 []
506265601.0
00000000: 0000 0001 002d be41

running_mean_std.running_mean f8 [48]
0.041977023942709274 -0.017104358740137337 0.035459752985596504 -0.01481574043789247 -0.01169552012101459 -0.0007576879532120282 0.06703842090004661 -0.07127886342437352
-0.9333171595658397 -0.004276025268991568 -0.009417123078648263 0.0017301583628191316 0.19947691197480463 -0.17898828608787606 5.986530554181508e-06 -0.022239874258382912
0.22663431341179952 -0.08671075476050667 -0.2656755963727788 -0.35037141916327175 0.3267533412157337 -0.5158580383807495 -0.2894000358864506 0.4256722470854645
-0.00371772512075434 0.00024347037552907035 0.0002867964288884388 -7.90781460410979e-05 -0.006576907552225671 0.007827852269913803 0.005467502868582039 -0.005648652816181371
0.006108603571806121 -0.005332380707467789 -0.0025060013577381064 0.011608633670929779 0.08346713771975164 -0.005298514264488332 -0.1939603182733051 -0.49027344671018946
-0.23216565418016064 -0.612507111967713 0.892375067544872 0.2514632713690629 0.43749832493672625 -0.7256160727387178 -0.4558406020134725 0.5825601181186192
00000000: 7ce1 0832 037e a53f 73bb a115 ce83 91bf
00000010: c874 cbde c727 a23f 4297 2c05 b757 8ebf
00000020: b98c 6f23 d2f3 87bf 6f26 647d f2d3 48bf
00000030: c657 5711 6e29 b13f 91c1 4de3 543f b2bf
00000040: 4b30 a4f2 bbdd edbf 40b9 feca bc83 71bf
00000050: 355f 29dd 4849 83bf c110 7465 cf58 5c3f
00000060: db92 9e9e 7588 c93f 93a8 8e91 16e9 c6bf
00000070: 3937 14fd fc1b d93e fe78 6db2 0cc6 96bf
00000080: e4a6 206a 5a02 cd3f 0569 e80f ad32 b6bf
00000090: 640c 7137 d400 d1bf 5a99 b03e 7c6c d6bf
000000a0: eb56 98d8 86e9 d43f 452b 87b7 e881 e0bf
000000b0: 6cfc 65ba 8785 d2bf 6e00 03cf 363e db3f
000000c0: 5b9e e479 a274 6ebf 3b8f d399 82e9 2f3f
000000d0: 9712 5e48 a5cb 323f a5f5 4c34 d8ba 14bf
000000e0: bcad 872d 63f0 7abf 8c43 fa8b 0c08 803f
000000f0: 3079 2ea0 1765 763f ba93 cab1 0a23 77bf
00000100: 21cc 0ac9 5505 793f 8e6d f90b 68d7 75bf
00000110: 96c6 013c 7787 64bf f93b be6f 44c6 873f
00000120: 360c cc32 1a5e b53f e9de bb17 e5b3 75bf
00000130: fd50 da13 b1d3 c8bf e8ea ede0 a360 dfbf
00000140: 77a7 faa9 9ab7 cdbf e6ff ce83 a899 e3bf
00000150: 5ddf 5b28 568e ec3f 1638 ab67 f917 d03f
00000160: 021d 6af9 f8ff db3f 08ac bb32 3f38 e7bf
00000170: 658e 750f 7e2c ddbf 6bbf e81d 55a4 e23f

running_mean_std.running_var f8 [48]
0.15614125294687306 0.26543840850946937 0.040723406034760205 0.03200255276339246 0.010620320733613867 0.0024434439154324243 0.042253741734711525 0.06530350681377531
0.01179375386483289 5.35269583047407 1.3251084122358014 0.020596162900156582 0.06449942947950782 0.06041727644649942 5.897130577133575e-08 0.06902843332781133
1.0034391400643644e-06 0.08307124170043202 0.09883200742686084 0.30306427656516843 0.12259829398923747 0.10782235197611484 0.40395805689551184 0.14365629808217617
0.006778358588086922 0.005099939529397867 0.00039726587782217687 1.2272937564150411e-05 0.001664745769758488 0.004913057004278843 0.0017333330529668283 0.007541850765375062
0.02142403258908659 0.004977563663329438 0.004883570499086649 0.00437721477369213 0.6791167075342868 0.6618694755982787 0.6853644826763271 0.5474543472566565
0.7094475223813265 0.39801967918657827 0.06574980008912497 0.5078982527636656 0.45515953650049074 0.2986644055745775 0.5626416798969078 0.4478232107618991
00000000: df4c 7bc3 6ffc c33f 1fa1 e960 f1fc d03f
00000010: 6fb9 33c2 b2d9 a43f ddba 037b a362 a03f
00000020: 488d ca51 1bc0 853f 58c4 9af6 4504 643f
00000030: 00b8 c44d 48a2 a53f 924b 140a bbb7 b03f
00000040: 6018 2cd9 5227 883f 6949 8518 2969 1540
00000050: e950 e3e0 a433 f53f ce29 5118 2917 953f
00000060: 10a3 39dc 0883 b03f 61f7 e664 03ef ae3f
00000070: a709 655d f4a8 6f3e c416 a3ef d8ab b13f
00000080: 8686 9400 bdd5 b03e 616a 572a 2844 b53f
00000090: 0947 b2ef 0d4d b93f 26bb 1bb5 6765 d33f
000000a0: c6aa 3a0f 9a62 bf3f 14e5 83e3 3e9a bb3f
000000b0: 839a d4e4 72da d93f cc4d 105f 5463 c23f
000000c0: dd63 4dc7 9fc3 7b3f 4c70 d897 ace3 743f
000000d0: 80ef fbf3 0309 3a3f 5e4c e1b1 fbbc e93e
000000e0: bffb c828 7346 5b3f 3418 82b2 b61f 743f
000000f0: 7de9 a231 2066 5c3f 05b3 3726 34e4 7e3f
00000100: ef35 467d 2ef0 953f 6137 5d92 5a63 743f
00000110: 2ef4 4c79 cb00 743f 8228 cfa4 d7ed 713f
00000120: d8dc 20f6 52bb e53f f349 fde4 082e e53f
00000130: bfe9 dd7e 81ee e53f d9a6 b0fa be84 e13f
00000140: 8f64 5b4a cbb3 e63f 3954 5188 2779 d93f
00000150: bdf0 1999 fad4 b03f 7518 2ad6 b340 e03f
00000160: 27db ee76 5521 dd3f 8803 9b4f 511d d33f
00000170: 50c2 d01f 2901 e23f 302c 27af 22a9 dc3f

running_mean_std.count f8 []
253132801.0
00000000: 0000 0002 002d ae41

a2c_network.sigma f4 [12]
-1.414893 -1.5358931 -1.0490171 -1.1921655 -1.1833838 -1.7436806 -1.3151846 -1.8202496
-1.7490971 -1.2708054 -1.3740993 -1.2393099
00000000: 371b b5bf 2598 c4bf 3146 86bf e198 98bf
00000010: 1f79 97bf ed30 dfbf f857 a8bf f0fd e8bf
00000020: 6ae2 dfbf c0a9 a2bf 7ce2 afbf b5a1 9ebf

a2c_network.actor_mlp.0.weight f4 [256, 48]
-0.008570621 -0.05127382 -0.011656826 -0.08517903 -0.06244305 -0.059840105 -0.048162755 0.07218401
-0.14214836 -0.40943703 0.088313304 0.232012 -0.08404464 0.07254112 -0.020786712 -0.13479568
0.16040143 0.018345512 -0.23535489 0.12828366 -0.22963507 -0.10219657 -0.15755396 0.12043777
0.038293574 0.06693546 -0.02929984 0.028035235 -0.00017055325 -0.1855473 0.073731035 -0.08333027
-0.10924775 0.0010571674 -0.022607101 0.07447474 0.06791106 -0.0016440775 0.026071189 -0.07734592
-0.008911446 0.03859682 0.04718764 -0.016397908 0.06761272 -0.012676555 -0.06144948 -0.07650324
-0.1407242 -0.0090615805 0.16871798 -0.06335402 -0.084625416 -0.063310884 -0.049948268 -0.2367241
0.48007816 -0.561403 0.18387952 0.35317332 0.045128036 0.08919354 -0.098727584 -0.065237455
0.055465784 0.113903396 -0.024505692 0.11609171 0.26065347 -0.203024 0.05741552 0.12080577
-0.058636624 0.0019104601 0.019038225 0.050929476 -0.04960416 0.039720587 -0.009263925 -0.0045782835
-0.17396091 0.0339325 0.007742569 -0.12140838 0.09735203 -0.13513033 -0.05986205 -0.1442702
0.05290458 -0.045073546 -0.016096588 -0.061422907 0.09614342 0.035360333 -0.10776846 0.0066651795
-0.034612138 0.16080922 -0.030729646 -0.054946277 0.04376288 -0.15988722 -0.101707965 -0.4409875
0.046802882 -0.23939322 -0.17900513 -0.17134176 0.1810284 0.1862742 0.05380535 0.12275378
-0.14581965 -0.09578928 -0.15802029 -0.16264798 0.0529304 -0.08173923 0.059362195 -0.13548018
-0.0039241654 -0.032417335 -0.038048096 -0.015034866 -0.040735196 -0.08859638 -0.14658888 0.057455342
0.021580867 0.022994956 0.025874455 0.003117011 0.058522537 -0.035016518 -0.01631543 0.22004578
-0.03636978 0.1543477 -0.0060663507 0.04208382 -0.07345276 -0.035440754 -0.066424094 -0.14861307
-0.02516875 0.12731269 0.14091334 3.22995e-05 0.00477189 0.020334033 -0.05663352 -0.080206074
0.3275896 -0.25415966 -0.030446136 0.5398626 0.054412227 -0.26614588 0.090192005 -0.028225236
0.08668506 -0.32018614 0.02963468 0.06534201 -0.06590615 0.113799416 0.00040196461 -0.047574885
0.014056754 -0.08978086 0.05674606 -0.02051491 0.05577099 0.07488862 -0.053279128 -0.03965328
-0.041421242 0.023166401 0.015762925 0.02770069 -0.028335273 -0.03861165 0.14727515 -0.02989872
0.012100695 0.017004116 -0.030750267 0.17977074 -0.060795497 0.07497251 0.030059539 0.08712102
-0.08136955 0.08666814 -0.094051525 0.0030261397 -0.06427169 0.071472265 -0.029562956 -0.15851977
-0.17646466 -0.27285463 0.22537366 -0.08047436 0.0118967 0.25187412 0.23410621 0.1399178
0.0121510755 -0.032887444 0.09415961 -0.08535475 0.12257851 -0.0012204077 0.16676441 0.028613927
-0.046060357 0.0016093443 0.01581456 0.08335724 -0.02882565 0.01734849 -0.051256992 -0.036817215
-0.029401196 0.010866747 0.0693272 0.036797483 0.08216015 -0.025778979 0.0936271 -0.036325615
0.047542006 -0.0011230484 0.0005890224 0.017098082 0.090777114 -0.097281404 0.06570497 -0.03545655
-0.11281268 0.011442493 0.16268215 0.021576054 -0.043653034 0.06008419 -0.026140433 -0.07169456
-0.15073714 -0.12234818 -0.1503156 -0.39948875 0.052812457 -0.032513645 -0.05261291 -0.039676555
00000000: ca6b 0cbc 7f04 52bd 46fc 3ebc 5872 aebd
00000010: 49c4 7fbd e61a 75bd 4f46 45bd 36d5 933d
00000020: 578f 11be bba1 d1be 9bdd b43d 8e94 6d3e
00000030: 991f acbd 7090 943d e548 aabc e107 0abe
00000040: 4640 243e 5449 963c df00 71be cb5c 033e
00000050: 7525 6bbe 6f4c d1bd d355 21be 14a8 f63d
00000060: b9d9 1c3d 7515 893d 3806 f0bc 26aa e53c
00000070: 8ad6 32b9 1d00 3ebe 4c00 973d 10a9 aabd
00000080: 49bd dfbd a790 8a3a 8732 b9bc 3686 983d
00000090: f414 8b3d 167e d7ba 3f93 d53c 8a67 9ebd
000000a0: 5001 12bc b317 1e3d d447 413d e854 86bc
000000b0: 8a78 8a3d 53b1 4fbc 73b2 7bbd bbad 9cbd
000000c0: 011a 10be 0677 14bc 68c4 2c3e c1bf 81bd
000000d0: 1750 adbd 23a9 81bd 8e96 4cbd cd67 72be
000000e0: cecc f53e 1bb8 0fbf ea4a 3c3e 22d3 b43e
000000f0: 2dd8 383d 1aab b63d b031 cabd 379b 85bd
00000100: 1730 633d 2f46 e93d 29c0 c8bc 7ec1 ed3d
00000110: 5f74 853e 86e5 4fbe 892c 6b3d 0469 f73d
00000120: f52c 70bd 6768 fa3a 0df6 9b3c 6d9b 503d
00000130: bb2d 4bbd 0eb2 223d b8c7 17bc 6d05 96bb
00000140: cf22 32be cefc 0a3d 60b5 fd3b f5a4 f8bd
00000150: 8060 c73d 9b5f 0abe e931 75bd 91bb 13be
00000160: 79b2 583d 0a9f 38bd fedc 83bc 9696 7bbd
00000170: d7e6 c43d ffd5 103d b6b5 dcbd 9467 da3b
00000180: 75c5 0dbd 2cab 243e bdbc fbbc 590f 61bd
00000190: b540 333d 7ab9 23be 444c d0bd 1dc9 e1be
000001a0: 61b4 3f3d 7f23 75be 1f4d 37be 3774 2fbe
000001b0: 825f 393e aabe 3e3e 0063 5c3d 5566 fb3d
000001c0: bf51 15be 2c2d c4bd 12d0 21be 318d 26be
000001d0: 8ccd 583d e666 a7bd c625 733d 51bb 0abe
000001e0: 4996 80bb 0ac8 04bd 52d8 1bbd cc54 76bc
000001f0: f3d9 26bd 0572 b5bd 651b 16be 4b56 6b3d
00000200: 5cca b03c eb5f bc3c aaf6 d33c c446 4c3b
00000210: 54b5 6f3d 7b6d 0fbd f0a7 85bc ae53 613e
00000220: 7af8 14bd 530d 1e3e 3dc8 c6bb 1560 2c3d
00000230: 676e 96bd 532a 11bd 5b09 88bd 062e 18be
00000240: b22e cebc 425e 023e 964b 103e 5379 0738
00000250: 845d 9c3b 8f93 a63c 8df8 67bd 1543 a4bd
00000260: d3b9 a73e 3721 82be 2d6a f9bc 6f34 0a3f
00000270: 5bdf 5e3d 4644 88be 96b6 b83d 9c38 e7bc
00000280: f087 b13d 70ef a3be 6ec4 f23c 08d2 853d
00000290: cef9 86bd ab0f e93d c7be d239 e2dd 42bd
000002a0: 4d4e 663c 07df b7bd 8e6e 683d e20e a8bc
000002b0: 1f70 643d 345f 993d 373b 5abd 7a6b 22bd
000002c0: 52a9 29bd 77c7 bd3c 4021 813c 8fec e23c
000002d0: 601f e8bc 4027 1ebd 4ccf 163e 29ee f4bc
000002e0: fe41 463c 374c 8b3c fce7 fbbc d215 383e
000002f0: b304 79bd 308b 993d 6c3f f63c 816c b23d
00000300: 14a5 a6bd 117f b13d 169e c0bd 3352 463b
00000310: e0a0 83bd 0d60 923d 032e f2bc 0253 22be
00000320: 27b3 34be 9ab3 8bbe 5ac8 663e becf a4bd
00000330: 60ea 423c a5f5 803e 8ab9 6f3e 9d46 0f3e
00000340: 4e15 473c fcb4 06bd c1d6 c03d 79ce aebd
00000350: 710a fb3d 16f6 9fba 4ac4 2a3e c167 ea3c
00000360: c9a9 3cbd a2f0 d23a 898d 813c 33b7 aa3d
00000370: c523 ecbc 6c1e 8e3c daf2 51bd a6cd 16bd
00000380: c7da f0bc 710a 323c 6bfb 8d3d f5b8 163d
00000390: 9543 a83d 702e d3bc 91bf bf3d 2bca 14bd
000003a0: 68bb 423d 4033 93ba a068 1a3a 4711 8c3c
000003b0: 5ae9 b93d 793b c7bd 5490 863d e33a 11bd
000003c0: 560a e7bd 4b79 3b3c 2696 263e 44c0 b03c
000003d0: 86cd 32bd d71a 763d 7624 d6bc 99d4 92bd
000003e0: d65a 1abe af91 fabd 55ec 19be ca89 ccbe
000003f0: e051 583d 072d 05bd a280 57bd e283 22bd

a2c_network.actor_mlp.0.bias f4 [256]
-0.17293194 -0.10137141 0.018091828 0.01724482 0.19901896 0.003053606 -0.23542896 -0.08888309
-0.15990297 0.22282116 -0.04274532 -0.018511405 0.110694 -0.2541927 0.20405352 0.17818142
0.29950568 -0.24154294 0.21174648 -0.22106087 -0.057630908 0.00885934 0.20110026 -0.21536829
0.16934222 -0.2823784 -0.1744084 -0.019128295 0.030371366 0.13675967 0.201856 -0.014788953
-0.11842363 0.10852609 -0.10760973 -0.09130058 0.31868502 -0.1923378 0.11459931 0.32949647
0.20208521 0.25203863 0.3174841 0.1390106 -0.1713819 0.25372586 -0.15373306 0.25390887
0.27971825 -0.15071987 0.2440393 -0.12320974 -0.008839759 -0.12029346 0.2105146 -0.2610015
0.3255806 -0.22624473 0.19932207 -0.20671879 0.039208654 -0.00832758 0.22344305 -0.12898064
0.04400906 -0.04719603 -0.21831481 -0.01873052 0.1291326 -0.18196276 0.24860905 -0.025835505
0.0021436051 0.11300514 0.044879183 0.07759276 0.32916847 0.1554324 0.20106839 -0.056691617
0.10785574 -0.2010063 0.016706478 0.18035918 0.28395605 -0.1283074 0.14301218 0.21252581
0.17047994 -0.09098952 -0.10372676 0.23307526 0.15515903 -0.14023533 0.25795776 0.16128695
-0.031450335 0.31848636 0.08814697 0.079863764 -0.010735901 0.1415977 0.3080462 0.013512226
0.28888813 0.18242435 0.23531985 0.26080707 0.07501901 -0.028033761 -0.25553164 0.32877797
-0.29063293 0.275073 0.32369265 0.24318765 -0.058752872 -0.16033508 0.22188279 0.16234799
-0.19657803 0.25670233 -0.108371526 0.2246198 0.2629971 0.05622145 -0.021268636 0.08662206
-0.14820531 0.2857674 0.017156037 -0.14944385 0.062409393 -0.08393571 0.3207293 0.19575597
0.08588033 -0.17933834 0.19375332 0.08901194 -0.059304167 0.22165017 0.17310004 0.065008216
-0.13978879 0.20993464 0.08919708 0.20893198 -0.1590612 0.05137061 -0.0352347 0.27670327
0.30375051 0.16350938 -0.045216106 -0.22288382 -0.23519309 0.29118124 -0.10355666 -0.041306134
-0.048701245 -0.022292567 -0.09850253 -0.28387198 0.022742013 0.21808675 -0.20037097 -0.014826268
-0.114015214 0.14182603 -0.061397262 0.10678119 0.26633874 0.0056460886 -0.15173987 0.21711507
0.22522385 0.354128 0.28190374 0.029987326 0.008506369 0.37859854 -0.10609098 0.24816331
0.23417474 -0.1665937 0.19226956 -0.10485634 -0.26867932 0.079238966 -0.17467192 0.1370305
-0.09939347 0.04204737 0.15582906 -0.06642567 0.022558952 0.18970247 0.24331938 -0.084509835
-0.018607901 -0.17863443 0.24781528 -0.064822294 0.44726667 -0.055570927 -0.25178203 0.17328691
-0.06611895 0.18112442 0.065086976 0.2470378 0.21072 0.13370223 0.15446046 0.14182924
0.0046513565 0.16732149 0.23307067 0.08834911 0.13885881 -0.19411513 0.28936857 -0.23022941
-0.14710149 0.41055188 0.3167417 -0.17068018 0.054560483 0.2511934 0.060182177 -0.009101123
0.31228462 0.31119335 0.29425597 0.013173663 -0.07348972 0.16045952 0.16481553 0.08862877
0.076246805 0.2532754 0.22838795 0.3289254 -0.13999768 0.21754855 -0.109773494 0.061628167
0.086837806 -0.14496484 0.021380043 -0.17755544 0.14283423 -0.018053079 0.034569427 0.17529012
00000000: 1215 31be d09b cfbd 5035 943c 0245 8d3c
00000010: a0cb 4b3e 021f 483b 4a14 71be 5608 b6bd
00000020: 9bbd 23be 3b2b 643e b715 2fbd 3ba5 97bc
00000030: 89b3 e23d 8c25 82be 68f3 503e 3175 363e
00000040: cf58 993e 0857 77be 12d4 583e c85d 62be
00000050: 630e 6cbd c426 113c 3aed 4d3e 8189 5cbe
00000060: 0c68 2d3e e793 90be 1e98 32be f1b2 9cbc
00000070: 5fcd f83c ba0a 0c3e 57b3 4e3e 5d4d 72bc
00000080: 1788 f2bd ed42 de3d 7d62 dcbd ccfb babd
00000090: af2a a33e 33f4 44be 0bb3 ea3d c3b3 a83e
000000a0: 6def 4e3e 350b 813e 478d a23e cb58 0e3e
000000b0: bd7e 2fbe 5be8 813e 336c 1dbe 5800 823e
000000c0: 3b37 8f3e 4f56 1abe 70e5 793e 6355 fcbd
000000d0: a3d4 10bc 6b5c f6bd 2491 573e fda1 85be
000000e0: 80b2 a63e b3ac 67be 161b 4c3e 17ae 53be
000000f0: 4199 203d 6770 08bc 41ce 643e 8013 04be
00000100: d842 343d a050 41bd eb8d 5fbe bf70 99bc
00000110: 563b 043e 7254 3abe 5f93 7e3e fba4 d3bc
00000120: ba7b 0c3b 3d6f e73d 3cd3 373d f4e8 9e3d
00000130: c588 a83e ac29 1f3e dfe4 4d3e 7835 68bd
00000140: 78e3 dc3d 98d4 4dbe 06dc 883c 14b0 383e
00000150: b062 913e 0463 03be c971 123e 5ea0 593e
00000160: 4b92 2e3e b758 babd b26e d4bd 48ab 6e3e
00000170: 02e2 1e3e da99 0fbe 0a13 843e 6828 253e
00000180: 11d2 00bd a510 a33e 6686 b43d 9d8f a33d
00000190: a2e5 2fbc fdfe 103e 3bb8 9d3e 6262 5d3c
000001a0: 25e9 933e 73cd 3a3e b0f7 703e 8188 853e
000001b0: 91a3 993d 0fa7 e5bc 0bd5 82be 9655 a83e
000001c0: d7cd 94be 5ed6 8c3e 0bbb a53e 2f06 793e
000001d0: daa6 70bd e12e 24be 3e35 633e 8d3e 263e
000001e0: c04b 49be 7d6e 833e e4f1 ddbd bc02 663e
000001f0: 8ea7 863e 7748 663d 903b aebc e866 b13d
00000200: 22c3 17be 1b50 923e d18a 8c3c cf07 19be
00000210: fea0 7f3d 7ce6 abbd a136 a43e 4174 483e
00000220: 07e2 af3d 78a4 37be 4567 463e e44b b63d
00000230: ede8 72bd 43f8 623e 2341 313e 0723 853d
00000240: cb24 0fbe 1bf9 563e f5ac b63d 44f2 553e
00000250: f0e0 22be fd69 523d 4352 10bd 0dac 8d3e
00000260: 3085 9b3e 016f 273e 8634 39bd a83b 64be
00000270: 75d6 70be b515 953e 8415 d4bd 9f30 29bd
00000280: f57a 47bd e79e b6bc b2bb c9bd ab57 91be
00000290: 754d ba3c 2252 5f3e 0c2e 4dbe e0e9 72bc
000002a0: cf80 e9bd d83a 113e b27b 7bbd 19b0 da3d
000002b0: 8d5d 883e d302 b93b b261 1bbe 6a53 5e3e
000002c0: 15a1 663e 4450 b53e b055 903e fba7 f53c
000002d0: 4c5e 0b3c abd7 c13e 3a46 d9bd 861e 7e3e
000002e0: 81cb 6f3e 8a97 2abe 50e2 443e ecbe d6bd
000002f0: 5690 89be 0a48 a23d 32dd 32be b951 0c3e
00000300: ce8e cbbd dd39 2c3d a791 1f3e 2f0a 88bd
00000310: 8dcd b83c 5d41 423e b728 793e 7e13 adbd
00000320: 996f 98bc f2eb 36be 4ac3 7d3e 8dc1 84bd
00000330: 2300 e53e 579e 63bd 93e9 80be 2072 313e
00000340: 5f69 87bd ae78 393e 524c 853d 7af7 7c3e
00000350: fcc6 573e 3de9 083e e22a 1e3e af3b 113e
00000360: 686a 983b 5356 2b3e 14aa 6e3e 61f0 b43d
00000370: 0131 0e3e 1ec6 46be 1e28 943e 42c1 6bbe
00000380: c6a1 16be db33 d23e f82b a23e c9c6 2ebe
00000390: d07a 5f3d 6c9c 803e 9681 763d e01c 15bc
000003a0: c5e3 9f3e bc54 9f3e b8a8 963e 59d6 573c
000003b0: c781 96bd 804f 243e 67c5 283e 0083 b53d
000003c0: 4927 9c3d 50ad 813e 88de 693e e968 a83e
000003d0: 8d5b 0fbe 0cc5 5e3e edd0 e0bd d16d 7c3d
000003e0: 05d8 b13d aa71 14be 3325 af3c 18d1 35be
000003f0: 2343 123e 0de4 93bc ac98 0d3d 417f 333e

a2c_network.actor_mlp.2.weight f4 [128, 256]
-0.001710634 0.06746487 -0.11972598 -0.07336474 -0.10301598 0.035181474 -0.1218724 0.040344067
-0.017635688 0.12979688 -0.04710568 -0.031576708 0.083850265 -0.17412074 0.037288815 0.09139574
-0.0009485952 0.08508378 0.024919452 -0.06851366 -0.00068817433 -0.09163345 0.10291704 0.1623684
0.053342417 -0.06376092 -0.009898063 -0.09567066 -0.08236107 0.042058323 0.10800903 -0.057820212
0.04755649 0.049034756 -0.032627203 -0.063831 -0.13676295 -0.107398376 0.08598209 -0.0058443695
0.06536038 -0.026410714 -0.056899242 0.106407225 -0.052535925 -0.017787162 -0.1739071 0.012045586
0.064310715 -0.016563065 -0.10887967 0.047859482 -0.13098967 0.092408866 -0.2307299 0.04022091
-0.18951516 0.057896733 -0.0027179138 0.17330098 -0.020545978 0.13499723 -0.03624496 0.17232724
-0.049011562 0.06528554 -0.0051836334 0.045973517 -0.05753854 -0.14437585 -0.023978528 -0.013092936
-0.051026072 0.06954198 0.005123101 -0.063550785 -0.02549852 -0.08599152 -0.1418892 -0.10196241
0.024641886 0.14343314 -0.0029787729 -0.10862277 -0.13163477 -0.024119876 -0.15768185 -0.07149184
-0.07926199 -0.034266043 0.12372098 0.027031355 -0.17021173 0.011798355 0.08032951 0.07267557
-0.06745933 -0.055235077 -0.0890726 0.13234448 -0.0687842 -0.11390101 -0.13854453 0.13314193
-0.1264845 0.08045774 -0.05273526 -0.061191887 -0.0077162217 -0.13996027 -0.039622646 0.06922791
0.05540185 -0.005885534 -0.1626068 -0.050643288 -0.17707789 -0.036571063 0.077272914 -0.11490145
0.046233132 -0.091231346 0.009841792 -0.09296647 -0.029392976 0.06878352 -0.04134035 0.1712481
-0.018015487 -0.073206335 -0.25521922 0.03100489 -0.053713642 -0.18445948 0.054106258 0.10982776
-0.12274388 -0.045267805 -0.021702776 -0.072795324 -0.19301477 -0.130376 0.020978818 0.20578042
-0.044285096 -0.0874441 -0.07858184 0.12485293 -0.00706563 -0.066678315 0.04560541 -0.073871374
-0.07901604 -0.03487057 -0.055061273 -0.016623963 0.06146876 -0.005833959 0.21863684 -0.0034528947
0.034538414 -0.24656823 -0.11091537 0.016605858 -0.038859412 -0.052676313 0.06725675 0.0842637
-0.10903469 0.03027393 -0.11341544 0.082909614 -0.01213009 -0.14067432 -0.055877518 0.14143582
0.07352951 -0.08569017 0.086321756 -0.15180951 0.019866472 -0.027178438 -0.22020385 -0.08168055
0.03618346 0.049280353 0.09914665 0.031746604 0.18299623 -0.05716701 -0.08560585 0.1568206
-0.025233913 0.11383327 -0.10913606 -0.008478557 -0.016019369 -0.12519535 -0.12113846 -0.03570116
0.08402839 -0.0027392078 -0.16697648 -0.21188338 -0.15247104 0.027400741 -0.11612933 0.070470765
0.05611023 0.025968196 -0.11545315 0.054811988 -0.11238324 -0.04700337 0.11708539 0.033678617
0.11751303 0.08330517 -0.12817031 -0.07069777 -0.04434268 0.068484984 -0.04577279 -0.048209827
0.039430674 -0.123668395 0.065310106 -0.123825856 0.12906292 -0.053905543 -0.04218421 0.10414592
0.0019767585 0.11840438 -0.0061816256 0.046449497 -0.17591305 0.0020278064 0.22093827 -0.196821
0.035086233 0.14289923 -0.0865155 -0.09871928 -0.0656804 0.0103562735 0.14077032 -0.028521113
0.13995536 -0.011100704 -0.058600515 -0.06245753 0.10508507 0.045496695 0.025429146 0.15197937
00000000: 5a37 e0ba 062b 8a3d e532 f5bd 4140 96bd
00000010: 0bfa d2bd 731a 103d 3d98 f9bd d23f 253d
00000020: b878 90bc 79e9 043e e3f1 40bd 9456 01bd
00000030: b0b9 ab3d b54c 32be 28bc 183d b12d bb3d
00000040: 25ab 78ba 6840 ae3d e123 cc3c e450 8cbd
00000050: 9966 34ba 51aa bbbd 2bc6 d23d e743 263e
00000060: 947d 5a3d 1695 82bd 7c2b 22bc fbee c3bd
00000070: ecac a8bd 5945 2c3d d733 dd3d e3d4 6cbd
00000080: 98ca 423d abd8 483d 1aa4 05bd d4b9 82bd
00000090: 960b 0cbe aef3 dbbd 6117 b03d 2082 bfbb
000000a0: aadb 853d 485b d8bc 2e0f 69bd 08ec d93d
000000b0: e92f 57bd 62b6 91bc b414 32be d95a 453c
000000c0: 56b5 833d 44af 87bc 4efc debd 4e08 443d
000000d0: 2822 06be dc40 bd3d 7544 6cbe aebe 243d
000000e0: 4310 42be 2025 6d3d 071f 32bb d075 313e
000000f0: 0a50 a8bc b73c 0a3e 9875 14bd 8d76 303e
00000100: 59c0 48bd 6db4 853d 78db a9bb ba4e 3c3d
00000110: 88ad 6bbd 43d7 13be 9e6e c4bc c183 56bc
00000120: b700 51bd 076c 8e3d b0df a73b ea26 82bd
00000130: 46e2 d0bc 521c b0bd 674b 11be abd1 d0bd
00000140: c8dd c93c 23e0 123e 8437 43bb 9d75 debd
00000150: 44cb 06be 0c97 c5bc 5a77 21be 506a 92bd
00000160: 1c54 a2bd 8d5a 0cbd 6d61 fd3d dc70 dd3c
00000170: fc4b 2ebe e34d 413c cc83 a43d eed6 943d
00000180: 1e28 8abd 2d3e 62bd b26b b6bd 5085 073e
00000190: bbde 8cbd ef44 e9bd 9ede 0dbe 5c56 083e
000001a0: 2785 01be 07c7 a43d ee00 58bd 58a4 7abd
000001b0: 5cd8 fcbb bf51 0fbe 5b4b 22bd 5dc7 8d3d
000001c0: 0ded 623d 70db c0bb 6682 26be 566f 4fbd
000001d0: e853 35be 8acb 15bd 4341 9e3d 7451 ebbd
000001e0: f45e 3d3d 80d7 babd 783f 213c 3465 bebd
000001f0: 8ac9 f0bc 60de 8c3d 8054 29bd a95b 2f3e
00000200: 3795 93bc 34ed 95bd 18ac 82be f8fd fd3c
00000210: d602 5cbd f2e2 3cbe 869e 5d3d 60ed e03d
00000220: 2561 fbbd bc6a 39bd 05ca b1bc b715 95bd
00000230: aaa5 45be 4981 05be c5db ab3c 1ab8 523e
00000240: 4a64 35bd e415 b3bd 84ef a0bd e5b2 ff3d
00000250: cd86 e7bb a48e 88bd bdcc 3a3d e049 97bd
00000260: 29d3 a1bd 71d4 0ebd ee87 61bd fa2e 88bc
00000270: abc6 7b3d cc2a bfbb 56e2 5f3e f649 62bb
00000280: 2778 0d3d 627c 7cbe 9927 e3bd 0209 883c
00000290: 0c2b 1fbd 1ec3 57bd e8bd 893d 7292 ac3d
000002a0: 944d dfbd 0801 f83c 5b46 e8bd 84cc a93d
000002b0: 49bd 46bc ee0c 10be d3df 64bd 8dd4 103e
000002c0: a496 963d 547e afbd 76c9 b03d f473 1bbe
000002d0: 03bf a23c 51a5 debc 1e7d 61be 2248 a7bd
000002e0: 1c35 143d 32da 493d 660d cb3d ba08 023d
000002f0: 5d63 3b3e f427 6abd 1f52 afbd 9495 203e
00000300: 5ab7 cebc 6b21 e93d ba82 dfbd a5e9 0abc
00000310: 0d3b 83bc 3633 00be 7117 f8bd 613b 12bd
00000320: 1417 ac3d 4884 33bb e2fb 2abe f5f7 58be
00000330: 5e21 1cbe 8577 e03c 37d5 edbd fa52 903d
00000340: d7d3 653d 41bb d43c b372 ecbd 8982 603d
00000350: 2f29 e6bd 9b86 40bd 77ca ef3d 97f2 093d
00000360: acaa f03d e79b aa3d 143f 03be fec9 90bd
00000370: aca0 35bd db41 8c3d 407c 3bbd ab77 45bd
00000380: 0f82 213d db45 fdbd 4ec1 853d 6998 fdbd
00000390: 1229 043e 0fcc 5cbd 5ac9 2cbd 754a d53d
000003a0: 818c 013b ff7d f23d 3c8f cabb d441 3e3d
000003b0: 8d22 34be f2e4 043b a43d 623e 728b 49be
000003c0: 95b6 0f3d 2d54 123e 0a2f b1bd 552d cabd
000003d0: 7283 86bd 5cad 293c 1826 103e 1ca5 e9bc
000003e0: 7550 0f3e badf 35bc 1807 70bd 78d3 7fbd
000003f0: d736 d73d be5a 3a3d c950 d03c 7ba0 1b3e

a2c_network.actor_mlp.2.bias f4 [128]
-0.14846262 -0.05867282 -0.10239441 -0.07974889 -0.023414347 -0.11724547 -0.24739696 -0.18733226
-0.27952367 -0.33005914 -0.012966604 -0.12752289 -0.26298043 0.043265402 -0.045493893 0.05487164
-0.051450465 -0.1822649 -0.18626063 0.15126725 -0.07679458 -0.17961282 -0.05314234 -0.18650062
0.030954195 -0.18893202 -0.065671004 0.072145544 -0.07119109 -0.081003726 0.08951814 0.17608814
-0.3242409 -0.16069129 0.17912668 0.074112 -0.19021106 -0.0608879 0.09995233 0.07791057
0.0070360815 -0.02300463 -0.28538305 -0.24139518 -0.09130398 -0.036331497 -0.1095529 -0.19711052
-0.08911754 -0.016854126 -0.07756272 -0.09850234 -0.21954735 -0.28553206 0.05906732 0.015851453
0.04181239 0.01289047 -0.1151485 0.018593641 0.02154461 -0.042932544 -0.07458594 -0.11129052
0.04332011 0.016064992 -0.110272475 -0.1958555 -0.021997865 0.06572105 -0.108313166 0.0053632976
-0.16460897 0.026362337 -0.15762584 0.07462766 0.008838735 -0.082311876 -0.17844957 0.01495045
-0.20975609 -0.19877277 -0.27525288 -0.06613982 -0.043957926 0.0050067613 -0.07270858 -0.20682755
-0.10146073 -0.14582162 0.070824146 -0.11555589 -0.10275162 -0.14339244 -0.06617382 0.013499772
0.0048997044 -0.0866273 0.08093004 -0.31998116 -0.22081998 -0.116197884 -0.16154177 -0.18256429
-0.06796554 0.03149322 -0.1592688 0.15282123 -0.11708088 -0.092569634 -0.22435538 -0.08234455
-0.06488267 -0.016782016 0.08927386 -0.34001508 -0.20894526 -0.01731079 -0.011833299 0.15432534
-0.16556054 -0.051500812 -0.19874567 0.017553855 -0.121391505 -0.20017612 -0.098481715 -0.18659002
00000000: 9606 18be e952 70bd 29b4 d1bd 6353 a3bd
00000010: 72cf bfbc 651e f0bd a155 7dbe 07d4 3fbe
00000020: ba1d 8fbe 83fd a8be e171 54bc 5c95 02be
00000030: 5fa5 86be 1037 313d ce57 3abd 16c1 603d
00000040: b9bd 52bd a6a3 3abe 1bbb 3ebe cde5 1a3e
00000050: 7a46 9dbd 6cec 37be c8ab 59bd 05fa 3ebe
00000060: a793 fd3c 6577 41be 857e 86bd 0bc1 933d
00000070: a2cc 91bd 48e5 a5bd 4955 b73d 7350 343e
00000080: e702 a6be 428c 24be fc6c 373e 08c8 973d
00000090: b0c6 42be 9765 79bd cfb3 cc3d 948f 9f3d
000000a0: ee8e e63b 3574 bcbc ba1d 92be 4c30 77be
000000b0: 95fd babd 56d0 14bd 455d e0bd 57d7 49be
000000c0: 4283 b6bd aa11 8abc 34d9 9ebd 98bb c9bd
000000d0: 05d1 60be 4231 92be 93f0 713d e8da 813c
000000e0: 7843 2b3d 8d32 533c fad2 ebbd b151 983c
000000f0: 527e b03c 09da 2fbd 83c0 98bd 49ec e3bd
00000100: 6d70 313d bb9a 833c 89d6 e1bd 588e 48be
00000110: de34 b4bc c298 863d 4bd3 ddbd 9abe af3b
00000120: 418f 28be d4f5 d73c ab68 21be 63d6 983d
00000130: 57d0 103c 2193 a8bd 7cbb 36be bbf2 743c
00000140: 4dca 56be 178b 4bbe f2ed 8cbe 5074 87bd
00000150: 3a0d 34bd c20f a43b 3ce8 94bd 9aca 53be
00000160: a5ca cfbd 4352 15be 400c 913d 91a8 ecbd
00000170: 716f d2bd 78d5 12be 2486 87bd 262e 5d3c
00000180: b38d a03b a769 b1bd a6be a53d 92d4 a3be
00000190: a21e 62be 28f9 edbd 356b 25be 22f2 3abe
000001a0: 8431 8bbd 09ff 003d 5c17 23be 2b7d 1c3e
000001b0: 1ac8 efbd 2695 bdbd 6bbd 65be 42a4 a8bd
000001c0: 35e1 84bd 707a 89bc 37d5 b63d 7516 aebe
000001d0: bff5 55be 5ccf 8dbc 74e0 41bc 7607 1e3e
000001e0: b488 29be 84f2 52bd fc83 4bbe 1acd 8f3c
000001f0: 1c9c f8bd f8fa 4cbe c8b0 c9bd 7411 3fbe

a2c_network.actor_mlp.4.weight f4 [64, 128]
0.13057946 0.07473915 0.08024497 -0.02891688 0.07532699 -0.12667492 -0.04586606 -0.094876826
0.1833939 0.12622006 -0.27283114 -0.031012883 0.08799188 0.11682067 -0.06900547 0.06350157
-0.12737004 0.057639673 -0.013883597 -0.21820797 0.009621583 0.19938363 0.07007706 -0.03904559
-0.034518093 -0.06992107 0.0917 -0.07184125 -0.0701973 -0.09313368 -0.21041085 0.030292936
-0.060830757 -0.1297574 -0.0792758 -0.03841797 0.08151182 -0.07847903 -0.028150016 -0.16442469
-0.15339915 0.027571214 0.1584924 -0.037461836 -0.10470917 0.029829824 0.07790882 -0.05908775
-0.02701992 -0.2610673 0.01644404 0.09149593 0.008960009 0.15970476 -0.015147018 -0.10393307
0.06827262 -0.16535413 -0.00797787 0.082841374 -0.08681314 -0.00071628945 0.046099644 0.03718694
-0.095232144 -0.08993387 -0.075717874 0.014442274 -0.0889775 -0.25243527 -0.060214907 0.039723508
-0.048483454 0.08260864 0.075639024 -0.006699892 0.0029004377 -0.037697617 -0.052804276 0.023612633
-0.13140029 -0.06968766 -0.16926688 -0.043233134 -0.056745052 -0.042720787 0.055561382 0.14188261
-0.03039038 -0.06478841 -0.046479195 -0.09500306 0.13815111 0.03075084 0.09785621 -0.04331756
-0.26301137 -0.045927536 0.05487307 0.05151057 0.07546637 -0.058328502 0.11384704 -0.20660025
0.027049936 0.016333032 0.072531424 0.014621539 0.017288724 0.04414849 -0.06544661 0.013606708
0.014956107 0.020874074 -0.08274363 -0.032708373 -0.07571451 -0.12252503 -0.04932356 0.033228196
-0.051706716 0.05784297 0.028469607 -0.05315554 -0.108888954 0.08982725 -0.101050235 -0.12791272
-0.15254274 0.017402343 0.1111467 0.012721966 0.22988817 -0.1938231 0.010026665 0.12695566
0.042281277 -0.06523273 0.14700843 -0.13228963 0.053790744 0.038367223 -0.04994499 -0.11955224
-0.011855789 0.05856832 0.06825295 0.05248015 0.12087399 -0.057607807 -0.12087816 0.10763973
0.08109754 -0.102839895 0.0005702851 -0.12732084 0.011075545 0.15393901 -0.105217636 -0.014492623
0.09220102 0.011310523 -0.010742619 -0.2483702 0.059365425 -0.186353 -0.025891993 -0.05275424
-0.0554339 -0.027419748 0.11944902 -0.028839447 0.0052139387 -0.060947597 -0.007224147 -0.19372657
0.010774417 0.021781659 -0.02292652 0.00608893 0.19206063 0.11714357 -0.16273294 0.006176218
-0.06493448 -0.007954046 0.09384914 -0.07729825 0.01986404 -0.077458575 0.16526544 0.10312595
0.13242035 0.21102835 -0.12106653 -0.0052598948 -0.06062506 -0.009725476 -0.076249056 -0.10178456
0.06404256 0.09016216 -0.11107231 0.011110864 -0.0856158 0.0035866178 -0.044778492 -0.012604783
-0.11148316 -0.15163527 0.056508094 -0.0961281 -0.021123119 -0.00035061585 -0.110648416 -0.049306966
-0.0426326 -0.08315463 -0.02704625 0.07909175 0.09842092 -0.024195855 0.15510339 -0.10830999
-0.26592967 0.056003187 0.12316103 0.18305898 0.02355481 0.11155871 -0.109220035 -0.23472321
0.07791518 -0.16629206 -0.11214605 -0.14520311 0.26607662 0.12750944 -0.062174562 -0.121720314
-0.29627615 -0.16579977 0.08496477 0.07197767 0.07036806 -0.05512359 -0.034031026 -0.007360482
-0.12122221 -0.12831809 0.0012070002 -0.11345509 0.029008182 0.06326316 0.21542142 -0.08102755
00000000: 9fb6 053e d710 993d 7a57 a43d 18e3 ecbc
00000010: 0945 9a3d 12b7 01be 0dde 3bbd c84e c2bd
00000020: 9ccb 3b3e d53f 013e 86b0 8bbe bb0e febc
00000030: 1635 b43d ad3f ef3d bd52 8dbd 1c0d 823d
00000040: 4b6d 02be 9417 6c3d 0778 63bc e971 5fbe
00000050: d8a3 1d3c 392b 4c3e 9084 8f3d 45ee 1fbd
00000060: d862 0dbd c732 8fbd 36cd bb3d 8121 93bd
00000070: 9ac3 8fbd dfbc bebd f175 57be e428 f83c
00000080: ac29 79bd 20df 04be 5a5b a2bd 295c 1dbd
00000090: abef a63d 9db9 a0bd dd9a e6bc f25e 28be
000000a0: ab14 1dbe 07dd e13c d54b 223e 9571 19bd
000000b0: c371 d6bd ad5d f43c a98e 9f3d ff05 72bd
000000c0: e158 ddbc 9daa 85be a7b5 863c 3862 bb3d
000000d0: 00cd 123c a589 233e 332b 78bc ddda d4bd
000000e0: 84d2 8b3d 9852 29be 9db5 02bc bda8 a93d
000000f0: 16cb b1bd 5fc5 3bba fbd2 3c3d 5551 183d
00000100: 1209 c3bd 402f b8bd f911 9bbd 4a9f 6c3c
00000110: d639 b6bd 323f 81be e8a3 76bd 1eb5 223d
00000120: 9696 46bd b82e a93d a2e8 9a3d c58a dbbb
00000130: 4515 3e3b d168 1abd 4c49 58bd 486f c13c
00000140: cc8d 06be 67b8 8ebd 4c54 2dbe 3a15 31bd
00000150: 806d 68bd fefb 2ebd 5594 633d ad49 113e
00000160: 3ff5 f8bc c9af 84bd f860 3ebd f790 c2bd
00000170: 7c77 0d3e 30e9 fb3c d668 c83d c16d 31bd
00000180: 6da9 86be 831e 3cbd 96c2 603d bffc 523d
00000190: 1d8e 9a3d dee9 6ebd a328 e93d 048f 53be
000001a0: d497 dd3c dacc 853c 5b8b 943d 2e8f 6f3c
000001b0: 15a1 8d3c 0cd5 343d df08 86bd abee 5e3c
000001c0: 760a 753c 1b00 ab3c 7e75 a9bd 37f9 05bd
000001d0: 3610 9bbd 67ee fabd 8007 4abd 4a1a 083d
000001e0: 6cca 53bd c0ec 6c3d 1839 e93c a0b9 59bd
000001f0: 2c01 dfbd 59f7 b73d 6df3 cebd 8dfb 02be
00000200: 2a34 1cbe 5c8f 8e3c e2a0 e33d cb6f 503c
00000210: ce67 6b3e 9079 46be e246 243c aa00 023e
00000220: 222f 2d3d bd98 85bd 6189 163e ef76 07be
00000230: af53 5c3d f326 1d3d 1e93 4cbd ced7 f4bd
00000240: c93e 42bc 56e5 6f3d 34c8 8b3d 6df5 563d
00000250: c88c f73d 2af6 6bbd f88e f7bd 3872 dc3d
00000260: 7816 a63d b99d d2bd 2f7f 153a 6560 02be
00000270: 3476 353c 30a2 1d3e 587c d7bd 7772 6dbc
00000280: e3d3 bc3d c64f 393c cf01 30bc c254 7ebe
00000290: 2929 733d 52d3 3ebe 721b d4bc d414 58bd
000002a0: a80e 63bd 619f e0bc b0a1 f43d b440 ecbc
000002b0: b0d9 aa3b 30a4 79bd 8ab8 ecbb 4260 46be
000002c0: 2e87 303c 736f b23c 66d0 bbbc a685 c73b
000002d0: 8bab 443e f8e8 ef3d 77a3 26be df61 ca3b
000002e0: 5efc 84bd b051 02bc fa33 c03d 8b4e 9ebd
000002f0: e9b9 a23c 9aa2 9ebd 583b 293e b333 d33d
00000300: 3399 073e d117 583e bbf1 f7bd 325b acbb
00000310: fc51 78bd 9a57 1fbc 7728 9cbd 6c74 d0bd
00000320: bf28 833d f0a6 b83d e179 e3bd 570a 363c
00000330: 5657 afbd 760d 6b3b a769 37bd 4b84 4ebc
00000340: 4851 e4bd 4746 1bbe 0875 673d cfde c4bd
00000350: 640a adbc ddd2 b7b9 a39b e2bd 1af6 49bd
00000360: 859f 2ebd fa4c aabd 1990 ddbc dbfa a13d
00000370: e890 c93d 6336 c6bc 6cd3 1e3e a1d1 ddbd
00000380: ef27 88be 9963 653d da3b fc3d d073 3b3e
00000390: 04f6 c03c e578 e43d c1ae dfbd 485b 70be
000003a0: fe91 9f3d 7748 2abe d4ac e5bd 20b0 14be
000003b0: 323b 883e d691 023e c1aa 7ebd 8048 f9bd
000003c0: 82b1 97be 6ac7 29be 0202 ae3d 0769 933d
000003d0: 211d 903d 46c9 61bd 1e64 0bbd 3330 f1bb
000003e0: 5a43 f8bd d165 03be 3534 9e3a 245b e8bd
000003f0: 91a2 ed3c 1e90 813d 6f97 5c3e c6f1 a5bd

a2c_network.actor_mlp.4.bias f4 [64]
-0.072891034 -0.05037024 -0.013840023 0.081104204 -0.10155176 0.0021848076 0.024847815 -0.076891914
-0.09857204 -0.15070908 0.14461225 -0.14096454 -0.05709815 0.055101562 -0.04343693 0.043074876
-0.07240289 -0.045757454 -0.1478234 -0.11388827 0.035439614 -0.08360057 0.097508185 0.0074698324
-0.05884419 -0.15227042 -0.09408041 -0.10115315 -0.07570271 -0.025611928 0.061025035 -0.17385428
0.07386708 0.11447552 -0.2800908 -0.12327466 -0.09081614 0.104909 0.06968013 -0.20320219
0.14534377 -0.11037288 -0.08622998 -0.19194102 0.07773555 -0.10178858 -0.013652023 -0.098332725
-0.06454302 -0.023517987 -0.031715717 -0.09117719 -0.09287026 0.12968811 0.0018895076 -0.07646785
-0.040201966 -0.15908217 0.010840347 -0.18407543 -0.15239646 -0.11193484 -0.10604232 -0.060861066
00000000: e547 95bd 0651 4ebd 44c1 62bc f619 a63d
00000010: 5ffa cfbd fd2e 0f3b a58d cb3c 8279 9dbd
00000020: 23e0 c9bd 7b53 1abe 3c15 143e 0259 10be
00000030: c0df 69bd 2db2 613d ecea 31bd 486f 303d
00000040: f747 94bd 2b6c 3bbd 045f 17be 413e e9bd
00000050: 2129 113d c736 abbd 5fb2 c73d 7fc5 f43b
00000060: 9b06 71bd c7ec 1bbe 3bad c0bd 6229 cfbd
00000070: 060a 9bbd 1bd0 d1bc 63f5 793d db06 32be
00000080: a047 973d 2472 ea3d 1068 8fbe 6d77 fcbd
00000090: d0fd b9bd 88da d63d 75b4 8e3d 3c14 50be
000000a0: ffd4 143e 2d0b e2bd 5899 b0bd 308c 44be
000000b0: d133 9f3d 8876 d0bd bcac 5fbc ab62 c9bd
000000c0: 222f 84bd cba8 c0bc 57e8 01bd 1bbb babd
000000d0: c332 bebd f6cc 043e 5ba9 f73a 2d9b 9cbd
000000e0: d1aa 24bd 70e6 22be b69b 313c 457e 3cbe
000000f0: d10d 1cbe 183e e5bd b72c d9bd 7449 79bd

a2c_network.value.weight f4 [1, 64]
0.0034887767 0.00019546895 0.00012165512 0.0077976384 -0.006621304 0.01257755 -0.01233572 -0.0027491197
0.0059158206 -0.007576898 0.4440174 0.0031164004 0.0035159038 0.0034972166 0.00046680614 -0.01068596
0.010162473 0.004161159 -0.05632661 -0.0033257613 -0.003731982 0.0025569377 0.014559936 0.0039824233
0.0032271403 -0.0046421424 -0.006295561 0.0029038761 0.003920471 -0.0008131973 0.05036269 0.01161595
0.03344607 0.25046068 0.020514123 -0.008403945 0.004402971 0.0033992785 0.0072076847 -0.012182241
0.46383417 0.006677847 0.0018159015 0.004906658 0.000409762 0.0043757507 0.0016500693 -0.0017956883
-0.007407304 -0.006786346 -0.0045888564 0.0074349437 -0.004764336 0.033095304 0.007811803 0.002084456
0.008225673 -0.012268531 0.012646399 0.006589177 -0.003100176 0.010456997 0.0019762272 0.0022963206
00000000: f6a3 643b ccf6 4c39 1821 ff38 5583 ff3b
00000010: 86f7 d8bb 1112 4e3c c21b 4abc 932a 34bb
00000020: 80d9 c13b a147 f8bb 4056 e33e 863c 4c3b
00000030: 146b 663b 8f31 653b a9bd f439 2a14 2fbc
00000040: 8080 263c 555a 883b bbb6 66bd 04f5 59bb
00000050: 4594 74bb 4c92 273b cc8c 6e3c fd7e 823b
00000060: 6e7e 533b 1d1d 98bb fe4a cebb f54e 3e3b
00000070: 4b77 803b bf2c 55ba 1c49 4e3d d350 3e3c
00000080: bffe 083d 623c 803e 3c0d a83c b3b0 09bc
00000090: cc46 903b 6ec6 5e3b 712e ec3b 0698 47bc
000000a0: ac7b ed3e d7d1 da3b 8b03 ee3a 08c8 a03b
000000b0: 53d5 d639 7562 8f3b 2347 d83a 4d5d ebba
000000c0: f8b8 f2bb ff5f debb 1e5e 96bb d4a0 f33b
000000d0: 261e 9cbb f18e 073d 27fa ff3b 5e9b 083b
000000e0: f9c4 063c f301 49bc d832 4f3c 06ea d73b
000000f0: 532c 4bbb d353 2b3c 9783 013b de7d 163b

a2c_network.mu.weight f4 [12, 64]
-0.0018098222 -0.013130399 0.261306 -0.044418346 -0.019108428 -0.09044652 0.059421096 0.0306102
-0.018283565 0.08461741 0.23030713 -0.101935335 0.13218062 -0.17215517 0.052775692 -0.04736727
0.014038897 -0.15129851 -0.030869514 0.020149533 0.08710537 0.0074436734 -0.06793881 -0.32729155
0.048318487 -0.105656035 0.018167729 0.011814062 0.017701104 -0.09498074 -0.027744055 0.05339077
0.04794395 -0.10932027 -0.029382324 0.029966824 0.12969907 -0.043287683 -0.18234052 0.0930743
0.002217084 0.09511909 -0.0024005342 -0.07936967 0.017470524 -0.039453693 0.13973568 -0.0010565192
-0.036878765 0.19125207 0.025771542 0.065785766 0.12393672 -0.0058375876 -0.013396116 -0.05672783
-0.08122866 -0.06621055 0.05747541 -0.15573883 -0.2830442 0.001684571 -0.117866755 -0.18430345
0.0037518903 -0.08923646 0.22279216 0.1948766 -0.035645265 -0.10345666 0.100319 0.009844401
-0.025654636 -0.10537827 -0.04202377 -0.04239287 0.111008085 -0.021805571 0.08416659 -0.06657815
-0.12525582 0.05461927 -0.06892559 -0.08010772 0.08870788 -0.017505936 -0.04332717 0.022788942
0.016242195 0.057021342 0.11098494 -0.103618614 0.11777057 -0.014813601 0.10621266 0.06705765
-0.06670301 -0.0116361715 -0.09766382 -0.012268039 0.03467749 -0.053212218 0.14922535 0.02851422
-0.011263434 -0.012248512 0.11431979 -0.052843086 -0.097007394 0.008546964 -0.20198232 0.091286086
0.1376632 -0.08688999 -0.1261085 0.20385417 -0.06912833 -0.098056324 -0.022457859 0.1572236
-0.091096364 0.164595 -0.004973569 -0.11044565 -0.15390012 0.1992417 -0.1502722 0.06234608
0.1510607 -0.027340494 0.07141929 -0.01821823 0.012358357 0.06378723 0.021724392 0.1908478
-0.005199147 0.19183965 -0.13218507 0.14646943 0.086926535 0.14981471 0.22591288 -0.056595717
-0.008602925 0.024244254 0.11071378 0.043457087 -0.11751524 0.04996253 -0.14091705 0.051956516
0.12535217 -0.013249602 -0.021874199 0.03293367 -0.16269803 -0.21607883 -0.13426013 0.05581995
0.06750324 -0.06390176 0.114216395 0.07554766 0.011312528 -0.103984624 0.01774226 -0.2132907
0.05353185 -0.032960124 -0.008743158 0.035814464 0.03321373 -0.10061816 -0.15858513 -0.06767359
-0.008445728 0.17903596 0.08290418 0.05329455 -0.11103637 0.036364004 0.09808276 0.04462125
0.03848665 -0.17647296 0.045072984 0.03987677 -0.059456144 -0.004080635 0.028626468 -0.0586351
0.11347053 -0.004868765 0.040568672 0.30682176 0.019557947 0.073628 -0.11406268 0.07760965
0.021844978 -0.007185606 -0.12466253 -0.017520795 0.014503533 0.03625892 0.023411658 -0.16529767
0.1623455 -0.0065217996 -0.02723287 -0.02679712 0.01522253 -0.058158826 -0.0022758318 -0.033559572
-0.113097906 0.09167541 0.1463386 0.22504921 0.07202884 -0.014776519 -0.093742274 0.10977043
0.030745203 0.017003233 0.039385453 -0.039513577 0.16938005 -0.061097153 -0.03510571 0.09180286
0.10976998 -0.116874985 0.061971873 0.027879428 -0.02749123 -0.09619059 -0.0011542353 0.035919435
0.012983244 0.060019605 0.04618364 -0.008957058 -0.052871205 -0.05396572 -0.2381041 -0.050833255
0.0733621 0.03824715 0.068909846 -0.09269391 -0.076097906 0.09706318 0.028364383 -0.037592787
00000000: 8e37 edba e320 57bc e6c9 853e 03f0 35bd
00000010: 4789 9cbc 063c b9bd 8963 733d 3ec2 fa3c
00000020: 6ac7 95bc e54b ad3d a2d5 6b3e 79c3 d0bd
00000030: 5b5a 073e 7249 30be 532b 583d 2f04 42bd
00000040: 6703 663c ffed 1abe 10e2 fcbc a210 a53c
00000050: 4d64 b23d 0fea f33b 8123 8bbd c292 a7be
00000060: 9be9 453d 3162 d8bd 7dd4 943c c48f 413c
00000070: e801 913c 4385 c2bd 8047 e3bc 48b0 5a3d
00000080: e060 443d 4ee3 dfbd 33b3 f0bc fc7c f53c
00000090: d5cf 043e 6d4e 31bd 79b7 3abe bd9d be3d
000000a0: 7f4c 113b cccd c23d 4852 1dbb 918c a2bd
000000b0: 581e 8f3c 329a 21bd df16 0f3e e77a 8aba
000000c0: 300e 17bd 95d7 433e d71e d33c b0ba 863d
000000d0: 89d2 fd3d 3c49 bfbb 627b 5bbc 715b 68bd
000000e0: 365b a6bd 6699 87bd 566b 6b3d 007a 1fbe
000000f0: 2beb 90be d3cc dc3a 2064 f1bd 0bba 3cbe
00000100: 46e2 753b 9bc1 b6bd a123 643e bb8d 473e
00000110: c500 12bd 16e1 d3bd 0c74 cd3d 694a 213c
00000120: ac29 d2bc 90d0 d7bd 1e21 2cbd 25a4 2dbd
00000130: 3558 e33d 99a1 b2bc 885f ac3d 205a 88bd
00000140: 1043 00be 75b8 5f3d dc28 8dbd 840f a4bd
00000150: 7aac b53d 9c68 8fbc d577 31bd e0af ba3c
00000160: 5a0e 853c 368f 693d 124c e33d ff35 d4bd
00000170: b231 f13d bfb4 72bc 0686 d93d 8555 893d
00000180: 969b 88bd a4a5 3ebc f803 c8bd e3ff 48bc
00000190: fc09 0e3d 0ef5 59bd 88ce 183e a796 e93c
000001a0: 448a 38bc fcad 48bc 7e20 ea3d fe71 58bd
000001b0: d0ab c6bd 9108 0c3c 74d4 4ebe 33f4 ba3d
000001c0: 95f7 0c3e 61f3 b1bd 9622 01be 26bf 503e
000001d0: 2793 8dbd c1d1 c8bd 8bf9 b7bc 39ff 203e
000001e0: bb90 babd 978b 283e 52f9 a2bb 5431 e2bd
000001f0: fe97 1dbe 0406 4c3e f5e0 19be 9a5e 7f3d
00000200: a8af 1a3e 2cf9 dfbc 4744 923d 663e 95bc
00000210: b57a 4a3c e1a2 823d 5af7 b13c 9b6d 433e
00000220: 9b5d aabb 9d71 443e 865b 07be 15fc 153e
00000230: 8a06 b23d 0769 193e b555 673e e9d0 67bd
00000240: 48f3 0cbc e39b c63c e8bd e23d 0f00 323d
00000250: d5ab f0bd 83a5 4c3d 8f4c 10be 5bd0 543d
00000260: 525c 003e dc14 59bc 8531 b3bc 75e5 063d
00000270: 509a 26be c543 5dbe 7d7b 09be 76a3 643d
00000280: 243f 8a3d edde 82bd 49ea e93d bbb8 9a3d
00000290: 2e58 393c e4f5 d4bd 3758 913c e168 5abe
000002a0: 3744 5b3d 3201 07bd 763f 0fbc 30b2 123d
000002b0: 1f0b 083d e510 cebd 2464 22be 7398 8abd
000002c0: f35f 0abc 3455 373e abc9 a93d 634b 5a3d
000002d0: 0967 e3bd 6cf2 143d 9ddf c83d c6c4 363d
000002e0: 2da4 1d3d 54b5 34be 739e 383d d355 233d
000002f0: 4988 73bd d9b6 85bb 0e82 ea3c 5c2b 70bd
00000300: 3d63 e83d 298a 9fbb 562b 263d be17 9d3e
00000310: fd37 a03c 47ca 963d b299 e9bd cff1 9e3d
00000320: 3df4 b23c 3b75 ebbb 124f ffbd c587 8fbc
00000330: 3aa0 6d3c 3c84 143d cec9 bf3c cb43 29be
00000340: e63d 263e d2b4 d5bb 7817 dfbc a285 dbbc
00000350: eb67 793c f337 6ebd 1f26 15bb c375 09bd
00000360: e09f e7bd 51c0 bb3d c9d9 153e 4d73 663e
00000370: db83 933d 3619 72bc f3fb bfbd 52cf e03d
00000380: 5ddd fb3c 5d4a 8b3c a452 213d fdd8 21bd
00000390: f771 2d3e 0241 7abd 01cb 0fbd 2303 bc3d
000003a0: 15cf e03d 275c efbd 38d6 7d3d 6663 e43c
000003b0: 4a35 e1bc 92ff c4bd b649 97ba 4220 133d
000003c0: acb7 543c 1ed7 753d 0e2b 3d3d a0c0 12bc
000003d0: 7a8f 58bd 290b 5dbd 90d1 73be 8836 50bd
000003e0: de3e 963d 0ba9 1c3d 9b20 8d3d 4ed6 bdbd
000003f0: 38d9 9bbd 0fc9 c63d 6c5c e83c e5fa 19bd

a2c_network.mu.bias f4 [12]
0.048813105 -0.027619686 -0.07932437 -0.015839383 -0.011257086 -0.07422032 0.21632873 0.03932766
0.06548586 -0.1180385 -0.12568145 0.030918634
00000000: 40f0 473d ae42 e2bc d174 a2bd 98c1 81bc
00000010: a46f 38bc d300 98bd 4785 5d3e 0a16 213d
00000020: 731d 863d 2bbe f1bd a3b2 00be 1349 fd3c

exp_avg f4 [12]
-0.0034411245 -0.0019254388 -0.00046650614 0.002373176 -0.00014891643 -0.0021955087 0.0010219458 0.00012877787
-0.00065275555 -0.0018470994 -0.0007875921 0.0017091713
00000000: 7d84 61bb 015f fcba 6595 f4b9 4987 1b3b
00000010: 7326 1cb9 86e2 0fbb d0f2 853a 8c08 0739
00000020: af1d 2bba 5f1a f2ba 6976 4eba 4606 e03a

exp_avg_sq f4 [12]
3.3559387e-05 3.757661e-05 3.428764e-05 3.4974386e-05 3.283308e-05 3.3471057e-05 3.466044e-05 3.26127e-05
3.4354372e-05 3.3713783e-05 3.479351e-05 3.290645e-05
00000000: 1ec2 0c38 949b 1d38 13d0 0f38 76b1 1238
00000010: 40b6 0938 4663 0c38 5d60 1138 9fc9 0838
00000020: ba17 1038 e667 0d38 3fef 1138 0805 0a38
