OmniIsaacGymEnvs/omniisaacgymenvs/runs/Naranjelio/nn/last_Naranjelio_ep_50_rew_-0.86598396.pth (torch, 672615 bytes, 36 tensors)

value_mean_std.running_mean f8 [1]
0	0x3fb326141e5da125	0.07479978314734533

value_mean_std.running_var f8 [1]
0	0x3f7902b1cb05e6df	0.006106085304389912

value_mean_std.count f8 []
0	0x410d4c0800000000	240001.0

running_mean_std.running_mean f8 [48]
0	0xbfbd251c5cd34acb	-0.11384751573795453
1	0xbfaa17a4d2b49c66	-0.05096163818444026
2	0xbfc9032717beafb7	-0.1954087129537336
3	0xbfc840c82f520ed7	-0.18947698889325323
4	0x3fd14e29f7874f4f	0.2703957478781733
5	0x3fcb23e0d95df754	0.2120324193346571
6	0xbfb092530ef26671	-0.06473273386873203
7	0xbfa944adb0e739d1	-0.04935210022414405
8	0xbfd2283ee81a1098	-0.28370640436356487
9	0x3fcd7e97c8df067a	0.23042580898441029
10	0x3fc9c85637389841	0.2014262933382174
11	0xbf96077cea59d9db	-0.021512939265869818
12	0xbfe751187fcc4116	-0.728649377446376
13	0x3fb0ce26598a0c88	0.06564559637085854
14	0x3fb9976e8caf4820	0.09996691641507072
15	0x3fc8b074c33a6deb	0.19288501293782132
16	0x4013fff513d2151c	4.999958333680549
17	0xc013fff513d2151c	-4.999958333680549
18	0xc013fff513d2151c	-4.999958333680549
19	0x4013c2b279029beb	4.940133944305653
20	0x3ff2a90542281162	1.1662647804488064
21	0x3fcce83ce158234f	0.22583733561648464
22	0x3fec7a9e5057f5fc	0.8899680680476076
23	0xbfd213bf3901a73f	-0.28245525900875984
24	0x3f542223197952e2	0.0012288420456531492
25	0x3f70df0f97b1c230	0.004118977459356674
26	0xbfa2baeec2ccffab	-0.03658243301333582
27	0x3fa014e0ea4093dd	0.03140929088139164
28	0xbf10565441395718	-6.232156038640487e-05
29	0x3f5f1f5f72d94968	0.0018995697131641513
30	0x3f91edc444f58c86	0.01750857039349942
31	0xbfda0ef20cca45c0	-0.4071622013953764
32	0x3f941a19a7c1a7ec	0.019630814422647733
33	0x400753b80aa52ebf	2.91587837521169
34	0xbf7d13f7ed224f63	-0.007099121534469652
35	0x4004878b6b95d212	2.5661838917824378
36	0x3f946a7b64602950	0.01993744659561375
37	0xbfb3315124e6f3e9	-0.0749712672322428
38	0xbfbddfdc28c1b362	-0.1166970824721836
39	0x3fb73bab8cab49c9	0.09075424370101993
40	0x3f6398cecdb7a454	0.0023922003872383444
41	0xbf8934f494a712a7	-0.012308035646932792
42	0xbf984b83b89f59a0	-0.023725565093479895
43	0xbfd0a3cfadc7466d	-0.259998244958388
44	0x3f99377b0badb252	0.024625704372214514
45	0xbfbb4f0aad810bd7	-0.10667483077945349
46	0x3fab0f41227275ff	0.052850757079095693
47	0x3fb556cb70765f9e	0.08335563178695657

running_mean_std.running_var f8 [48]
0	0x4012b587e65fa65e	4.677276229465489
1	0x4017ed7a9fe17bc9	5.981913087975905
2	0x4015d84cbf71cb35	5.461230269737645
3	0x4019851c68262125	6.379991175963629
4	0x400ee0c7adb05023	3.8597558564597576
5	0x4011d8a53eee255b	4.461567862782739
6	0x3fd2440ace6da434	0.28540296706211454
7	0x3fd0f5199e598d47	0.2649597212204821
8	0x3fd756cd0a217b72	0.36467290868124913
9	0x4015f2c761fd7923	5.487088709922577
10	0x3ff77376eef08093	1.4656895955631952
11	0x3f9368117559dfbb	0.018951676166096592
12	0x3fce284e9488fdf8	0.2356050706166426
13	0x3f8723b161e94b2b	0.011298547554508062
14	0x4020cfc94f27db35	8.405832742324131
15	0x3f88e0d351ecfe43	0.012147570550609227
16	0x3f2c66021297a00a	0.00021666312504398127
17	0x3f2c66021297a00a	0.00021666312504398127
18	0x3f2c66021297a00a	0.00021666312504398127
19	0x3fac2d7c953fc7ff	0.055034535616769624
20	0x3fd47d5f742a45a6	0.3201521524834682
21	0x402721b306cbd904	11.565818989166026
22	0x3fd2073453122d5f	0.28168972122576535
23	0x40291ced59ddb4dc	12.55649834472063
24	0x3fc3d95fc7695c11	0.15507123219387656
25	0x3fa318443a662a13	0.03729451382522
26	0x4000a33d96f4c848	2.079707316727795
27	0x3fb056b4e6c83815	0.0638230384285808
28	0x3fc294868a7128d5	0.14515764007439338
29	0x3f95b1eadb22fd4d	0.021186513543168407
30	0x3fb2d23d38772938	0.07352049473334865
31	0x4000f5390a2edafe	2.119737700991549
32	0x3fdd71d27a630249	0.4600721545394078
33	0x400bef350eff2e50	3.4918004199624093
34	0x3fd74b5c6ee0696b	0.3639746744899159
35	0x400bbdaf3adc6f8c	3.467619380809941
36	0x3fe058243551bf3c	0.510759452952676
37	0x3fe202f98fc41d59	0.5628631408625707
38	0x3fdefa6c86b11bf3	0.4840346637105874
39	0x3fe0cfc400cd3ca6	0.5253620162638029
40	0x3fe17c70128b689f	0.546440159053663
41	0x3fdfe8007f38f6d2	0.4985352747352013
42	0x3fe2a15d9e3806bf	0.5821979608737918
43	0x3fdffae0892c34ab	0.499687322576231
44	0x3fe18ae7228a4cdb	0.5482059168447465
45	0x3fe0efbb26f86d88	0.5292640458241502
46	0x3fe0f75e2deb5ca5	0.530196275411886
47	0x3fe1a2866210859e	0.5510894694636368

running_mean_std.count f8 []
0	0x40fd4c1000000000	120001.0

a2c_network.sigma f4 [12]
0	0xbc2d8082	-0.010589721
1	0xbd442538	-0.047887057
2	0xbbcb97ce	-0.006213165
3	0xbccda373	-0.025102353
4	0xbcc8b0e3	-0.024498409
5	0x3d540715	0.051764566
6	0x3d9ddb2d	0.0770782
7	0x3d1ae47c	0.037815556
8	0xbd88c530	-0.066782355
9	0x3ab8e661	0.0014106744
10	0xbcef0073	-0.029175019
11	0xb9296fdd	-0.00016158768

a2c_network.actor_mlp.0.weight f4 [256, 48]
0	0x3da44036	0.0802006
1	0xbded97a8	-0.11601192
2	0xbdcf6536	-0.10126726
3	0xbdea7b5f	-0.114493124
4	0xbe0bb3b0	-0.13642764
5	0x3e00fbd8	0.12596071
6	0x3d82f2c7	0.06393962
7	0x3d961e90	0.07330048
8	0x3d186642	0.037206896
9	0xbca0e1d6	-0.019638937
10	0x3e0476a9	0.1293589
11	0xbd82e3e1	-0.06391121
12	0x3c4d8777	0.012544504
13	0xbe1ed2e1	-0.15510131
14	0x3d785037	0.060623374
15	0xbd530e3b	-0.051527243
16	0x3d783384	0.060596004
17	0xbd3e3806	-0.046440147
18	0x3dd3a5f2	0.10334386
19	0xbd87bf31	-0.06628264
20	0xbe02b88c	-0.12765712
21	0xbd8e27d6	-0.06941192
22	0x3e080454	0.13282901
23	0x3d82841d	0.06372855
24	0x3de6f54f	0.11277258
25	0xbe17f3f7	-0.14839159
26	0xbe1961de	-0.1497874
27	0xbe164f35	-0.14678653
28	0xbdd1c56c	-0.10242733
29	0x3db165f2	0.08662023
30	0x3dad515c	0.08462784
31	0x3db7bc26	0.08971433
32	0xbdfd7828	-0.123764336
33	0xbe13c4cd	-0.14430542
34	0x3d7ad3fb	0.061237317
35	0xbd846713	-0.06464972
36	0x3e194483	0.14967541
37	0xbd93a1ee	-0.0720862
38	0x3d1cfa6b	0.038324755
39	0xbe07a50f	-0.13246559
40	0xbd42be54	-0.047544792
41	0x3da28d6c	0.0793713
42	0xbd4a48e8	-0.049385935
43	0xbbca7a00	-0.0061790943
44	0x3e2787f5	0.16360457
45	0x3d8e4d53	0.06948342
46	0xbdd6dd43	-0.10491421
47	0xbc9e06d4	-0.019290365
48	0x3df7ef09	0.12106139
49	0xbd109421	-0.035297517
50	0xbdaf9a44	-0.08574346
51	0xbe4831d4	-0.19550258
52	0xbd879df2	-0.066219226
53	0x3d58b370	0.0529055
54	0xbc036f9b	-0.008022214
55	0xbdf64603	-0.120250724
56	0xbd0d6f6b	-0.034530085
57	0xbdf9ff8c	-0.12206945
58	0xbe0930b3	-0.13397484
59	0xbcac1d5b	-0.021010092
60	0xbdd54d5a	-0.10415144
61	0xbdedcd81	-0.116114624
62	0x3e107d3a	0.1411027
63	0xbd2057d1	-0.03914625
64	0x3d2e1e08	0.04250911
65	0xbe07d5c9	-0.13265146
66	0xbdbe1c31	-0.09282721
67	0xbc1f9434	-0.009739924
68	0xbcc67d69	-0.024229722
69	0xbdf973d0	-0.121802926
70	0xbd9b7672	-0.07590951
71	0xbd9bd44a	-0.0760885
72	0xbd8ffb20	-0.0703032
73	0xbd483756	-0.048880897
74	0x3b7d4a98	0.0038649198
75	0xbdcd62c1	-0.100286014
76	0xbe2ae061	-0.16687156
77	0xbd18dd5a	-0.037320472
78	0x3b804747	0.003914747
79	0xbdebbfe9	-0.11511213
80	0x3dcb0fa8	0.099150956
81	0xbd86f955	-0.06590525
82	0x3e1c0824	0.1523748
83	0x3d8b7157	0.06808727
84	0xbdaf75d5	-0.085673966
85	0x3dcb3ec1	0.09924079
86	0xbcca4aa0	-0.024693787
87	0xbd06c67e	-0.03290414
88	0xbdf8f69a	-0.121564105
89	0xbde2917a	-0.11062904
90	0x3b45a184	0.0030156085
91	0x3c993c21	0.01870543
92	0x3da2495f	0.07924151
93	0xbdae118e	-0.08499442
94	0x3dd00620	0.10157418
95	0xbda17d39	-0.078852125
96	0xbda1dc51	-0.0790335
97	0x3c77330f	0.015087857
98	0x3d37dab3	0.044886302
99	0x3e063278	0.1310519
100	0x3e126253	0.1429532
101	0xbdf41484	-0.119179755
102	0x3d0e3e67	0.03472748
103	0xbd25bb1f	-0.040461656
104	0xbd680958	-0.056649536
105	0xbe2225d2	-0.1583474
106	0x3e43f1a6	0.1913515
107	0xbd3753c8	-0.044757634
108	0x3dea61e3	0.11444452
109	0x3daa3e73	0.083126925
110	0x3d5c4e81	0.053785805
111	0xbdb27e81	-0.08715535
112	0x3e2586c5	0.16164692
113	0x3aa613ee	0.0012670734
114	0xbc42b348	-0.011883564
115	0xbe0053ff	-0.12532042
116	0x3d1f73d6	0.03892883
117	0x3c291e5c	0.01032218
118	0xbd8d98de	-0.06913923
119	0x3e04e37d	0.12977405
120	0x3d813825	0.06309537
121	0xbdfe0633	-0.12403526
122	0xbd1fe1f5	-0.03903385
123	0x3c13526c	0.008991819
124	0x3d7e8b13	0.06214435
125	0xbd2f9ca3	-0.04287399
126	0xbcdb3865	-0.02676029
127	0xbdbba143	-0.091616176
128	0xbe707478	-0.2348193
129	0x3c8d4a10	0.01724723
130	0x3dd5f57b	0.10447212
131	0xbdfb39b4	-0.122668654
132	0x3bfbfecd	0.0076902867
133	0x3ddeeae7	0.10884648
134	0x39cc648a	0.0003898482
135	0xbdc48a96	-0.09596746
136	0x3d98b8e0	0.07457137
137	0x3db96b36	0.09053652
138	0x3d8f9f22	0.07012774
139	0x3ccc8551	0.024965914
140	0xbd80f8c3	-0.062974475
141	0xbb801372	-0.003908568
142	0xbcd3fa65	-0.025876233
143	0xbc936e36	-0.017996889
144	0x3d937ea5	0.0720189
145	0x3dfd46bb	0.123670064
146	0x3b5a2b61	0.0033290016
147	0xbcd99cd4	-0.02656404
148	0xbb8e6d9b	-0.004346562
149	0x3b95f1d1	0.004575946
150	0x3bd587e1	0.006516442
151	0x3d19efd5	0.037582237
152	0xbe38219e	-0.17981574
153	0xbd6befdb	-0.05760179
154	0x3e03c1c3	0.12866883
155	0x3db9907f	0.090607636
156	0xbc804c04	-0.015661247
157	0xbdf94888	-0.12172037
158	0xbdfea457	-0.12433689
159	0xbde496ff	-0.11161613
160	0xbdbee911	-0.09321798
161	0x3dc2619c	0.09491274
162	0x3e0d84d5	0.13820203
163	0x3d802bbe	0.06258343
164	0xbdf2cdcd	-0.1185566
165	0xbdcb6ef3	-0.09933271
166	0xbd06f120	-0.0329448
167	0x3de5e223	0.11224773
168	0x3ced0073	0.028930878
169	0xbd0c071c	-0.034186468
170	0x3d871a78	0.065968454
171	0xbda17020	-0.07882714
172	0xbe07d200	-0.13263702
173	0x3e0a94c0	0.13533306
174	0x3b147d1d	0.002265758
175	0xbd29acff	-0.041424748
176	0xbe3c1cf9	-0.18370427
177	0x3e1f7f99	0.15576018
178	0x3e183f6c	0.14867944
179	0x3df3d41f	0.11905693
180	0xbda38f0d	-0.07986269
181	0xbde4a267	-0.11163788
182	0xbdf0af4a	-0.11752184
183	0x3dc5a208	0.09650046
184	0x3dbe3246	0.09286933
185	0x3decec65	0.11568526
186	0x3c9fff15	0.019530812
187	0x3dbe6776	0.09297077
188	0x3d6f9775	0.05849405
189	0xbe07a19a	-0.1324524
190	0xbd9cf907	-0.07664686
191	0xbd8e9b60	-0.06963229
192	0x3da31db8	0.07964653
193	0xbd31e707	-0.043433215
194	0xbc96d42b	-0.018411716
195	0xbd10dd33	-0.035367202
196	0x3b8b84a0	0.0042577535
197	0xbddf6164	-0.10907248
198	0xbdf21c26	-0.11821775
199	0x3d894f61	0.067045934
200	0xbd88a73e	-0.06672524
201	0x3dbbc992	0.09169306
202	0xbd60f0f7	-0.054917302
203	0xbe19be11	-0.15013911
204	0xbc46d2b1	-0.012135194
205	0xbdacc6cf	-0.08436357
206	0xbca43534	-0.0200449
207	0xbdef4c2d	-0.11684451
208	0xbbee0406	-0.007263663
209	0xbc4c4bbe	-0.01246923
210	0x3e246b78	0.16056621
211	0x3d69d7cb	0.05709056
212	0x3e0f2d5c	0.13982147
213	0xbda980c3	-0.082765125
214	0x3de458f1	0.11149777
215	0xbdbd2d26	-0.09237127
216	0x3da0597e	0.07829569
217	0x3e270334	0.16309816
218	0xbc2835f0	-0.010266766
219	0xbcf1736f	-0.029473988
220	0x3bab708c	0.0052319225
221	0xbe37bef8	-0.17943943
222	0x3cfa0604	0.030520447
223	0xbda2bbf1	-0.07946003
224	0x3e1fd294	0.15607673
225	0x3e494c56	0.19658026
226	0x3de54838	0.11195415
227	0x3c5b9c36	0.013403943
228	0xbdef8fbe	-0.116973385
229	0x3b91ba44	0.0044472534
230	0x3db36ba7	0.087607674
231	0xbdb5e1fd	-0.088809945
232	0xbdaf1db5	-0.08550588
233	0xbd0ec9d4	-0.034860447
234	0x3cd1e5c7	0.025622262
235	0xbde98632	-0.11402549
236	0xbd4ea681	-0.05045176
237	0xbd460474	-0.04834409
238	0xbe2bc9e0	-0.16776228
239	0x3d8c7884	0.06858924
240	0x3dd0d8c5	0.101975955
241	0x3c75bdf9	0.014998906
242	0xbd72ac63	-0.059246432
243	0xbd491324	-0.04909052
244	0xbe03519c	-0.128241
245	0xbdf80fef	-0.12112414
246	0x3dad8adb	0.0847375
247	0xbda4c369	-0.08045084
248	0xbe02dfb1	-0.12780644
249	0xbc9d081f	-0.019168912
250	0xbd2795de	-0.04091441
251	0x3c9c1e77	0.019057496
252	0x3cb95e1f	0.022627888
253	0xbd365d87	-0.04452279
254	0xbd9c7c9d	-0.076409556
255	0xbdd2a227	-0.10284834

a2c_network.actor_mlp.0.bias f4 [256]
0	0x3cda76bf	0.02666795
1	0xbbc28a27	-0.005936879
2	0x3d546965	0.051858325
3	0xbd8cad6f	-0.06869017
4	0xbdf197a9	-0.11796505
5	0x3baff727	0.005370039
6	0x3c497d26	0.012297904
7	0x3da788d2	0.08180393
8	0x3d43950f	0.047749575
9	0x3dad5c7a	0.08464904
10	0xbc61429f	-0.013748794
11	0x3c9cfe70	0.019164294
12	0x3d965112	0.07339682
13	0x3dabfccd	0.08397827
14	0xbd1e4e79	-0.038649056
15	0xbcc74e7d	-0.024329418
16	0xbd1457b2	-0.036216445
17	0x3cec7f67	0.028869344
18	0xbb79c66f	-0.003811266
19	0x3dcaff12	0.09911932
20	0xbda4099e	-0.08009647
21	0x3d6e7e23	0.058225762
22	0xbb73e236	-0.003721369
23	0x3d39b606	0.045339607
24	0x3cc4dc83	0.02403093
25	0x3d8327f1	0.064041026
26	0x3d1df3c8	0.038562566
27	0x3ba87904	0.0051413793
28	0x3d90d7ca	0.070724085
29	0xbcce5036	-0.025184732
30	0xbcc85a56	-0.024457138
31	0x3cff9867	0.0312006
32	0x3c5d656a	0.0135129485
33	0xbd4e5ff3	-0.050384473
34	0xbcf27b32	-0.02959976
35	0x3d46d91f	0.048546907
36	0x3d9a063a	0.07520719
37	0x3d8078d0	0.06273043
38	0x3bb2b2ea	0.005453457
39	0x3d45a81c	0.048256025
40	0x3c2c821b	0.010529066
41	0x39b1674d	0.00033837036
42	0x3d04020e	0.032228522
43	0xbc290868	-0.010316946
44	0x3ddb3bc2	0.10704757
45	0x3c878b43	0.016545897
46	0xbc54583b	-0.012960489
47	0x3dab4459	0.08362646
48	0x3d9187b7	0.07105964
49	0xbd4e6ed4	-0.050398663
50	0x3d545de4	0.051847354
51	0xbd99c954	-0.075091034
52	0x3dc561c1	0.09637786
53	0xbbd06ab2	-0.0063603753
54	0x3dd0e5b5	0.10200063
55	0x3c620160	0.013794273
56	0x3cdbc080	0.02682519
57	0x3c6caa8e	0.01444496
58	0xbd1fe037	-0.039032187
59	0x3d7ad9a7	0.061242726
60	0x3d44cac5	0.04804494
61	0x3d2a50b1	0.04158086
62	0x3d03bcd3	0.0321625
63	0xbcaac37e	-0.020845171
64	0xbdb49ab3	-0.08818569
65	0xbd668405	-0.056278247
66	0x3dad3e64	0.08459166
67	0xbd2e97f0	-0.042625368
68	0x3dde9edd	0.108701445
69	0x3d40a491	0.047031943
70	0x3bd05552	0.006357827
71	0x3dc06591	0.09394372
72	0x3d888dfa	0.06667705
73	0x3db0ef3c	0.0863938
74	0x3cc97cdc	0.02459567
75	0x3bc833f6	0.00610971
76	0x3d52fee1	0.051512603
77	0xbd2ebab2	-0.042658515
78	0xbcf60f8d	-0.030036712
79	0x3c4f1cf2	0.012641178
80	0xbd20e9d3	-0.039285492
81	0x3d81553b	0.063150845
82	0x3d4b8394	0.04968603
83	0x3d964e20	0.0733912
84	0xbcb8936f	-0.02253124
85	0xbdb0dc24	-0.086357385
86	0x3db05d28	0.08611518
87	0xbd2e9a8d	-0.04262786
88	0xbd279f1e	-0.04092323
89	0x3d88a121	0.06671358
90	0x3d46274a	0.048377313
91	0x3cc1b8d1	0.023647698
92	0xbc03beb9	-0.008041077
93	0xbda314ab	-0.079629265
94	0x3d87a0c5	0.06622461
95	0x3d34ceb0	0.044142425
96	0xbb28ef76	-0.0025777495
97	0x3ce2b178	0.027672514
98	0x3d1d4cc7	0.0384033
99	0x3d8a5154	0.06753793
100	0x3dc27bd8	0.094962776
101	0x3d4c20b7	0.049835887
102	0x3da68e48	0.08132607
103	0xbc1675aa	-0.009183327
104	0x3d93ac63	0.072106145
105	0x3d5c30b8	0.0537574
106	0xbd0c3824	-0.034233227
107	0x3db2caed	0.08730111
108	0x3d67b3ab	0.05656783
109	0x3d4935b3	0.049123477
110	0x3ca2c0ee	0.019867387
111	0x3c81748c	0.015802644
112	0x3d3cd23d	0.046098936
113	0x3dbda317	0.092596225
114	0x3d246e4f	0.04014426
115	0x3c121792	0.008916752
116	0xbb9dd72a	-0.0048169093
117	0xbd4e3647	-0.05034473
118	0x3d84e899	0.06489677
119	0x3da44a23	0.08021953
120	0x3e016e12	0.12639645
121	0xbd2f2327	-0.042758133
122	0x3d7d30c9	0.061814103
123	0xbd9e67e1	-0.07734657
124	0xbce56bba	-0.02800547
125	0x3e020e3e	0.12700745
126	0x3d07a5f3	0.033117246
127	0xbd95399d	-0.072863795
128	0x3d075c5e	0.033047073
129	0xbd902ed1	-0.070401795
130	0xbd477222	-0.04869283
131	0x3cb637aa	0.02224334
132	0x3d494aa4	0.04914345
133	0xbd4994b8	-0.049214095
134	0x3d8e3650	0.06943953
135	0x3da074c4	0.07834771
136	0xbbb09501	-0.0053888564
137	0x3d803eea	0.06262
138	0xbc7899e0	-0.015173405
139	0x3d10a627	0.035314705
140	0x3d1ed0e4	0.038773432
141	0xbcaa4c48	-0.020788327
142	0x3d4ebf9f	0.050475713
143	0xbcb36c7e	-0.021902319
144	0xbdc46188	-0.09588915
145	0x3da4c1fb	0.08044811
146	0x3d159bab	0.03652541
147	0x3c155af7	0.009115926
148	0x3d91f434	0.07126656
149	0x3c850474	0.016237475
150	0x3d941d7a	0.07232185
151	0x3cfd1b0d	0.030896688
152	0xbd152d32	-0.036420055
153	0xbcc9a1c1	-0.024613263
154	0xbd5a57a4	-0.053306237
155	0x3c76a4e2	0.01505396
156	0xbcf55c09	-0.029951112
157	0xbd14cacf	-0.036326226
158	0x3d524e68	0.051344305
159	0xbdb10b8f	-0.08644783
160	0xbd262a15	-0.040567476
161	0x3d5cfc06	0.053951286
162	0xbde60a05	-0.1123238
163	0x3d44b980	0.04802847
164	0x3c533feb	0.012893657
165	0x3d175e9e	0.03695547
166	0x3da5e9dd	0.081012465
167	0x3d6cf6a2	0.057852395
168	0xbcbba7da	-0.022907186
169	0x3d2e5927	0.04256549
170	0x3d31d7af	0.043418583
171	0xbd3a169f	-0.04543173
172	0x3d4087dd	0.04700457
173	0x3cbd4bd4	0.023107447
174	0xbd6aa734	-0.057288364
175	0xbd8944c8	-0.06702572
176	0x3d1f8891	0.0389486
177	0x3d08abd1	0.033366982
178	0xbd8d8183	-0.06909468
179	0xbd0d7d0c	-0.034543082
180	0xbd653760	-0.055961013
181	0x3c17e9d6	0.009272059
182	0x3dbb8269	0.09155733
183	0xbcb0e0e6	-0.021591615
184	0xbcb41f84	-0.021987684
185	0xbd89f664	-0.067364484
186	0x3d9e83b4	0.07739964
187	0xbd0340b7	-0.03204414
188	0x3cb8095f	0.022465406
189	0xbd5120e7	-0.05105677
190	0x3cbce368	0.023057655
191	0x3d2eee64	0.042707816
192	0xbc90b11f	-0.017662583
193	0xbcf54a1b	-0.029942563
194	0x3d3f12d0	0.0466488
195	0x3d304e34	0.04304333
196	0x3d0eec05	0.034893055
197	0xbcaed368	-0.02134104
198	0x3cc03952	0.023464832
199	0xbd52d837	-0.05147573
200	0x3ce29c6f	0.027662484
201	0xbb8d79eb	-0.0043175123
202	0x3c7b8f72	0.015354024
203	0x3c2909dc	0.010317292
204	0x3d1228ff	0.03568363
205	0xbd63b34d	-0.055590916
206	0xbd349e59	-0.044096325
207	0x3cdc3ae6	0.026883554
208	0xbc0918fa	-0.008367771
209	0x3d437f9b	0.047729116
210	0x3d8d0a7d	0.06886766
211	0x3d0ae042	0.033905275
212	0x3ceb127e	0.028695341
213	0xbd904e6e	-0.07046209
214	0x3dac33b0	0.08408296
215	0x3b2ef4e4	0.002669626
216	0x3d54ff91	0.05200154
217	0xbd37be36	-0.044859134
218	0x3d518850	0.05115539
219	0x3da141a3	0.07873847
220	0xbdb41199	-0.08792419
221	0xbcdc16ea	-0.026866395
222	0x3c9b275d	0.018939668
223	0x3d94708a	0.072480276
224	0xbc75519a	-0.014973069
225	0x3d488958	0.048959106
226	0xbd7c801f	-0.061645623
227	0x3dbba2b6	0.09161894
228	0xbd1a0341	-0.03760076
229	0x3d8ecac9	0.06972272
230	0x3ba2aa7f	0.0049641724
231	0x3d1093d1	0.03529722
232	0xbb6ef07f	-0.0036459265
233	0x3da0d8ea	0.07853873
234	0x3d2c1829	0.04201523
235	0x3dafa40f	0.085762136
236	0x3d5e3ca8	0.054257065
237	0x3cfa5143	0.030556327
238	0x3be7c93c	0.0070735496
239	0x3d9950ae	0.074860916
240	0xbd1f0fb5	-0.03883334
241	0x3d2da117	0.042389955
242	0x3d8e87d4	0.06959501
243	0x3c847a54	0.016171612
244	0x3d6f69d6	0.058450542
245	0x3d929ba2	0.07158591
246	0x3cd83be2	0.026395742
247	0x3d07bb3e	0.033137552
248	0xbd006bcb	-0.0313528
249	0x3c9184cc	0.017763518
250	0x3d8d381f	0.0689547
251	0x3b79b235	0.0038100604
252	0x3cac2539	0.021013843
253	0xbd178639	-0.03699324
254	0xbb8b57c7	-0.0042524072
255	0x3d22e199	0.039765928

a2c_network.actor_mlp.2.weight f4 [128, 256]
0	0x3d123c59	0.035702083
1	0xbc0efa65	-0.008726691
2	0xbda53e75	-0.08068553
3	0x3c9ef123	0.019402092
4	0x3d1ad1e2	0.037797816
5	0xbd194974	-0.037423566
6	0x3cc83b9a	0.024442483
7	0xba002cdd	-0.00048894976
8	0xbcb830ad	-0.022484148
9	0xbd1d9ba7	-0.03847852
10	0xbb876c1c	-0.0041327607
11	0xbd00b60d	-0.031423617
12	0x3c5d6171	0.013512001
13	0xbc11a863	-0.008890244
14	0xbdb6947a	-0.089150384
15	0x3d7dd4b1	0.061970416
16	0x3b1d0fda	0.0023965747
17	0x3c516253	0.01277979
18	0x3c4d0705	0.012513881
19	0xbdb8e39c	-0.09027788
20	0x3c876156	0.016525906
21	0xbcaaaaa8	-0.020833328
22	0xbda485ee	-0.080333576
23	0x3bff9d85	0.00780076
24	0xbc9616f9	-0.018321501
25	0x3d87455b	0.066050254
26	0xbd80d3a4	-0.06290367
27	0xbce8f658	-0.028437778
28	0x3d02160c	0.031759307
29	0xbceba510	-0.028765231
30	0xbd94aa91	-0.072590955
31	0x3d584a56	0.052805267
32	0x3cfc360b	0.030787488
33	0x3c3feeaf	0.011714621
34	0x3d6efbb4	0.05834551
35	0xbdee9933	-0.11650314
36	0xbd91e633	-0.07123985
37	0xbce3e9b6	-0.027821403
38	0x3d0afa30	0.033930004
39	0x3d6bface	0.057612233
40	0xbd6e77f9	-0.058219884
41	0x3d83a0af	0.06427132
42	0x3d930bbf	0.07179975
43	0xbcdc8ae7	-0.026921703
44	0x3d714c1e	0.05891048
45	0x3c9570d3	0.018242275
46	0x3bf721f8	0.007541891
47	0x3d2f5a0a	0.042810477
48	0xbd8531b7	-0.06503623
49	0xbcfe36ad	-0.03103193
50	0xbb01b895	-0.0019793857
51	0xbc63e21d	-0.01390889
52	0xba8dd046	-0.0010819517
53	0xbc9a1830	-0.018810362
54	0xbcc3fdfa	-0.023924816
55	0xbdb8a572	-0.09015931
56	0x3d4620a5	0.048370976
57	0xbda41c57	-0.08013218
58	0xbb327049	-0.0027227572
59	0x3c1a8886	0.009431964
60	0xbb86ceaf	-0.004113994
61	0x3d4fb825	0.050712723
62	0xbce25337	-0.02762757
63	0x3d43a9a1	0.047769193
64	0xbc9a6a24	-0.01884944
65	0xbd8af863	-0.06785657
66	0x3cfa5650	0.030558735
67	0x3d944b02	0.07240869
68	0x3d86fab1	0.06590784
69	0x3d1a8191	0.03772122
70	0xbd2b984f	-0.0418933
71	0x3bc20f70	0.0059222504
72	0x3d827155	0.063692726
73	0x3cb7ff8e	0.022460725
74	0xbd33f3ee	-0.0439338
75	0x3d2bc172	0.04193253
76	0xbd5fbcfe	-0.054623596
77	0xbccabbd3	-0.024747765
78	0x3d53bade	0.051691882
79	0xbdce3d42	-0.10070278
80	0xbd6010b8	-0.054703444
81	0xbd961386	-0.073279426
82	0xbb963b01	-0.0045846705
83	0xbcf141fd	-0.029450411
84	0x3da117cf	0.07865869
85	0xbcce8f98	-0.025214955
86	0xbd53ca66	-0.051706694
87	0xbd4b12bf	-0.049578425
88	0xbbd88293	-0.0066073625
89	0x3d76af05	0.060225505
90	0xbc706847	-0.014673299
91	0xbd22fc38	-0.039791316
92	0x3ccf41a6	0.025299858
93	0x3d2e7829	0.042595062
94	0xbdef5404	-0.116859466
95	0xbd82347d	-0.063576676
96	0x3dc838ae	0.09776436
97	0xbc25f018	-0.010128044
98	0x3ccf9977	0.025341732
99	0xbc9fede3	-0.019522613
100	0xbdceee14	-0.101040035
101	0xbd68ca1c	-0.05683337
102	0x3d141977	0.036157098
103	0xbd8094f5	-0.06278411
104	0xbc904896	-0.017612737
105	0xbbe1d516	-0.006891857
106	0xbc9d5ab3	-0.019208288
107	0x3d688152	0.056763954
108	0x3d5604ca	0.05225066
109	0x3d32ff58	0.043700546
110	0x3d4a4bd2	0.049388714
111	0xbcd17f96	-0.025573533
112	0xbc5e13cb	-0.013554524
113	0xbd9bc4ab	-0.07605871
114	0xbd01d2b6	-0.03169509
115	0x3a4b20d4	0.0007748727
116	0xb7818ca4	-1.544349e-05
117	0xbd1f8dd0	-0.038953602
118	0x3d8e5371	0.06949509
119	0xbc8e75c3	-0.017390138
120	0xbd716c07	-0.058940914
121	0xbca4561c	-0.020060591
122	0xbd0ea4fd	-0.034825314
123	0x3d37100c	0.044693038
124	0x3db3c37b	0.08777519
125	0xbcd67a29	-0.026181297
126	0xbc573622	-0.013135465
127	0x3c471400	0.012150764
128	0x3d66613e	0.05624508
129	0xbd4b6bed	-0.049663473
130	0xbcfe8994	-0.031071462
131	0x3dbc6d89	0.0920058
132	0x3b901cac	0.004397949
133	0x3c910bba	0.017705787
134	0xbcf59f1a	-0.029983092
135	0xbd357054	-0.044296578
136	0x3b8067a5	0.0039186054
137	0x3c90a299	0.017655658
138	0xbda7cf6b	-0.08193859
139	0xbd827f65	-0.06371955
140	0xbc4aace5	-0.012370323
141	0xbc3cb6b0	-0.0115181655
142	0xbd110a23	-0.035410058
143	0xbbe904c5	-0.0071111643
144	0x3dc7cad3	0.097554825
145	0xbcda49e0	-0.026646554
146	0x3d6011b2	0.054704376
147	0xbcc3d238	-0.023903951
148	0x3d50c985	0.050973434
149	0x3d503162	0.050828345
150	0x3bc44e12	0.005990752
151	0x3c48869f	0.012239127
152	0x3ccd246e	0.025041785
153	0xbd841d7e	-0.06450938
154	0xb81ba162	-3.710518e-05
155	0xbdad7f09	-0.08471496
156	0xbc90b2bf	-0.017663358
157	0x3d51b7c4	0.051200643
158	0xbd7f68c3	-0.062355768
159	0x3d7512e3	0.059832465
160	0x3d32be59	0.04363856
161	0x3d9f3c0c	0.07775125
162	0x3e0b44d1	0.1360047
163	0xbd10246c	-0.035190985
164	0x3d50cb37	0.05097505
165	0x3d994d59	0.07485456
166	0x3b8a421d	0.004219307
167	0xbd86717a	-0.06564613
168	0x3cfd296c	0.03090354
169	0x3cae2ad0	0.021260649
170	0x3d755adf	0.059901115
171	0x3c4bba72	0.012434589
172	0xbda4ae7e	-0.08041094
173	0xbd82d782	-0.06388761
174	0xbcadb500	-0.021204472
175	0xbcaf7959	-0.021420168
176	0x3cbe7303	0.023248201
177	0x3c347e13	0.011016387
178	0x3d9d84de	0.07691358
179	0xbdb57d4a	-0.088617876
180	0x3c00d7ff	0.0078639975
181	0x3ce5d049	0.02805342
182	0xbd93e71c	-0.07221815
183	0xbd496355	-0.049166996
184	0x3d0cfb99	0.03441963
185	0xbd375c43	-0.044765722
186	0x3b7abad1	0.0038258324
187	0xbd9bca1e	-0.0760691
188	0x3d855aa2	0.065114275
189	0xbd643aaa	-0.05572001
190	0x3b759143	0.0037470616
191	0xbd471b36	-0.048609935
192	0xbd9c63c0	-0.07636213
193	0x3c3dec3b	0.011591966
194	0xbd0b79c6	-0.03405168
195	0x3da5c011	0.080932744
196	0x3ba2cfa3	0.0049686
197	0xbda7ecb1	-0.08199442
198	0xbe01c8de	-0.12674281
199	0x3cc53d4c	0.02407708
200	0xbc97b97a	-0.01852106
201	0xbc8a4984	-0.016880758
202	0xbd6ecb6e	-0.058299474
203	0xbb089e0e	-0.002084616
204	0x3d27952a	0.04091374
205	0xbd192898	-0.03739223
206	0x3d41ab0f	0.047282275
207	0xbc91d08a	-0.017799634
208	0xbd6f76b7	-0.058462825
209	0x3d706040	0.05868554
210	0x3da32d1e	0.0796759
211	0x3d64a93f	0.05582547
212	0xbd43625f	-0.047701236
213	0xbc9c335b	-0.019067457
214	0xbcb6ff67	-0.022338582
215	0x3d9cef7a	0.07662864
216	0xbd8cfe28	-0.06884414
217	0xbd0bfc35	-0.03417607
218	0xbcf2ab00	-0.029622555
219	0x3cfd6acf	0.03093472
220	0xbd4431aa	-0.047898926
221	0xbcc5043d	-0.024049873
222	0xbce91d8e	-0.028456476
223	0x3d983cf1	0.07433499
224	0xbd4e9390	-0.050433695
225	0x3d1987c5	0.037482996
226	0x3d38a564	0.045079604
227	0xbd3c296b	-0.045937937
228	0xbc3ad9f0	-0.011404499
229	0xbdabc44d	-0.08387051
230	0xbd0ec9fd	-0.0348606
231	0xbd07e89a	-0.03318081
232	0xbb7cd0f1	-0.0038576687
233	0xbcee1f28	-0.02906759
234	0xbcf88c2b	-0.030340275
235	0xbd65cbb4	-0.05610247
236	0x3d6d9b2f	0.058009323
237	0xbd511f2b	-0.051055115
238	0xbcd88d54	-0.026434578
239	0x3be5748b	0.0070024184
240	0x3c9208a4	0.017826386
241	0xbca60b84	-0.020269163
242	0xbd0fba50	-0.03508979
243	0xba2f06a3	-0.0006676709
244	0xbdabf17c	-0.08395669
245	0xbd25bf94	-0.040465906
246	0xbd8fac1c	-0.07015249
247	0x3d4cd6bc	0.050009474
248	0xbd9cc39e	-0.076544985
249	0xbd0d4e85	-0.03449871
250	0xbde9e7d7	-0.11421173
251	0xbdc15d0a	-0.09441574
252	0x3dac3010	0.08407605
253	0xbdc22d7b	-0.09481331
254	0x39607c8d	0.00021408703
255	0xbd1b9e20	-0.037992597

a2c_network.actor_mlp.2.bias f4 [128]
0	0xbbf337a7	-0.0074224058
1	0xbd311e46	-0.04324176
2	0xbbd014d8	-0.006350141
3	0xbd499467	-0.049213793
4	0xbc863277	-0.016381485
5	0x3bf147d0	0.007363297
6	0xbc8d71bb	-0.017266145
7	0x3d9db251	0.07700027
8	0xbd358e9b	-0.044325452
9	0xbd5e3a25	-0.05425467
10	0xbd031156	-0.031998955
11	0x3cacbf3f	0.021087287
12	0xbd003c3c	-0.031307444
13	0xbd697350	-0.056994736
14	0x3ba17fbf	0.0049285586
15	0x3c9b8d07	0.018988146
16	0xbd1d0e7f	-0.038343903
17	0xbd288bcf	-0.041148957
18	0xbcb53654	-0.022120632
19	0xbd67f69f	-0.05663168
20	0x3c8c3f3b	0.017119994
21	0xbd838efc	-0.064237565
22	0x3dc3f6ce	0.09568559
23	0xbcdf9eab	-0.027297338
24	0xbd53ce62	-0.051710494
25	0xbd55bb46	-0.05218055
26	0x3d0f2fc4	0.034957662
27	0xbd212041	-0.0393374
28	0xbc45b7ab	-0.012067716
29	0xbd10608a	-0.035248317
30	0xbcdd46df	-0.027011333
31	0xbd3af8db	-0.045647483
32	0xbd83595a	-0.06413527
33	0x3d742b49	0.059611592
34	0xbc1cdb97	-0.009573839
35	0xbd1808f8	-0.03711793
36	0xbd953017	-0.07284563
37	0xbd06e8e5	-0.03293695
38	0x3d9531fd	0.07284925
39	0xbcaa3396	-0.020776551
40	0xbcd32b33	-0.025777435
41	0xbc9cdf89	-0.019149559
42	0xbd7ee0fd	-0.062226284
43	0xbc7e2e98	-0.0155140385
44	0xbc90b409	-0.017663972
45	0xbd89a277	-0.06720441
46	0xbcbbfe4b	-0.022948405
47	0x3c185819	0.009298348
48	0x3d140286	0.03613522
49	0xbcea6a81	-0.028615238
50	0x39be8827	0.00036341065
51	0xbcfce2e8	-0.030869916
52	0x3cc9eb09	0.024648206
53	0xbd658f88	-0.056045085
54	0x3c7fed13	0.015620488
55	0xbd1ecb62	-0.03876818
56	0xbbb15c65	-0.0054126256
57	0xbce5a207	-0.028031362
58	0x3a4f1316	0.00078992674
59	0xbd9742c1	-0.07385779
60	0xbcaf8981	-0.021427872
61	0xbda854bf	-0.08219289
62	0xbcd0f115	-0.025505582
63	0xbd6671d4	-0.0562609
64	0xbd6ac9cb	-0.05732135
65	0x3b2b5641	0.002614394
66	0xbc941dc7	-0.018080605
67	0x3d6b8451	0.057499234
68	0xbd332067	-0.043732073
69	0xbd797951	-0.060906712
70	0x3a9c22a2	0.0011912177
71	0xbd28a25d	-0.041170467
72	0xbcb38bb9	-0.02191721
73	0x3d895094	0.06704822
74	0xbd2f893a	-0.04285548
75	0x3df28286	0.118413016
76	0xbd2f0b7f	-0.042735573
77	0xbd67c0f7	-0.05658051
78	0xbbd078c8	-0.0063620545
79	0x3d334bd9	0.043773506
80	0xbd41d314	-0.04732044
81	0xbdb725b0	-0.08942735
82	0xbc8ea6ce	-0.017413523
83	0xbc4614c7	-0.012089915
84	0xbcd04504	-0.025423534
85	0xba357037	-0.00069213234
86	0xbd192296	-0.0373865
87	0x3c4ae255	0.012383063
88	0xbd8795eb	-0.066203915
89	0xbca5d851	-0.02024475
90	0xbc056f63	-0.008144232
91	0xbcb34651	-0.021884115
92	0xbd719391	-0.05897862
93	0x3d274826	0.04084029
94	0x3c2bb1ee	0.010479433
95	0xbc3a250e	-0.011361374
96	0xbbead63e	-0.007166653
97	0xbc5f72f4	-0.013638247
98	0xbd129374	-0.035785154
99	0x3d3d8437	0.046268668
100	0x3ac74c44	0.0015205224
101	0xbd859b2a	-0.06523736
102	0x3b718324	0.0036851848
103	0x3bee65c3	0.0072753145
104	0xbc2daf54	-0.0106008835
105	0x3db0695d	0.086138465
106	0x3d341a79	0.04397056
107	0xbc3f3a9d	-0.011671689
108	0xbad79b53	-0.0016449488
109	0x3ba89fca	0.0051460015
110	0xbc893de0	-0.016753137
111	0xbce51383	-0.027963405
112	0xbd35b558	-0.044362396
113	0x3d47b39f	0.048755284
114	0x3c8881b7	0.016663415
115	0x3c55bc8a	0.0130454395
116	0x3d3e8c00	0.046520233
117	0xbd87f1cf	-0.06637918
118	0x3d0a3487	0.0337415
119	0xbd51bf5c	-0.051207885
120	0xbd3068a3	-0.04306854
121	0x3c998a7a	0.018742789
122	0xbd091608	-0.033468276
123	0x3d6c16bd	0.057638872
124	0xbc7c7c66	-0.015410518
125	0x3cee20f1	0.029068442
126	0xbc98b731	-0.01864204
127	0xbd5ad728	-0.053427845

a2c_network.actor_mlp.4.weight f4 [64, 128]
0	0xbd585bcc	-0.05282192
1	0xbbd4a442	-0.0064893076
2	0xbcaf500b	-0.021400472
3	0x3c8c5c2a	0.017133791
4	0xbd8f5b02	-0.0699978
5	0x3d646788	0.055762798
6	0x3d1a3bf2	0.037654825
7	0xbd90e3ca	-0.07074697
8	0x3d761270	0.060076177
9	0xbcf31c79	-0.029676663
10	0xbd658146	-0.056031488
11	0x3d3f63d3	0.04672606
12	0xbc9beb92	-0.019033227
13	0x3d633e8d	0.055479575
14	0x3bba9340	0.005693823
15	0x3ce8f13c	0.028435342
16	0x3d2c02c6	0.041994832
17	0x3d257cad	0.040402103
18	0xbcc761a6	-0.024338555
19	0xbd29d40d	-0.041461993
20	0xbc64039a	-0.013916874
21	0x3dca57b7	0.098800115
22	0xbc0b1e32	-0.008491086
23	0x3d862c09	0.06551368
24	0xbd01bea9	-0.03167597
25	0xbd1a8328	-0.037722737
26	0x3be6ac8f	0.0070396136
27	0x3d111633	0.03542156
28	0x3ca3d537	0.01999913
29	0xbc79ac56	-0.015238842
30	0xbcb9c1cd	-0.02267542
31	0xbda53f9d	-0.08068774
32	0xbdae589b	-0.08512994
33	0xbd1097bc	-0.035300955
34	0x3da8f163	0.08249166
35	0xbd88a596	-0.06672208
36	0xbd479e77	-0.04873511
37	0x3d3bcd6d	0.045850206
38	0x3c3cf5f3	0.011533248
39	0xbc7cdd7c	-0.015433665
40	0xbda8ab93	-0.0823585
41	0x3cdcaf9c	0.026939206
42	0xbb6a1e67	-0.0035723688
43	0xbdad71d2	-0.08468975
44	0x3cdb9842	0.026806
45	0x3d46f1c3	0.048570406
46	0x3d075688	0.033041507
47	0xbdb3adcc	-0.087733835
48	0xbcb31a19	-0.02186303
49	0xbda8ae28	-0.08236343
50	0x3bf918ee	0.007601849
51	0xbdb94bea	-0.090476826
52	0xbc939e78	-0.0180199
53	0x3b942255	0.0045206943
54	0x392eefa6	0.00016683209
55	0x3d435cd9	0.04769597
56	0x3db2ac67	0.087242894
57	0x3d62f990	0.055413783
58	0x3dc13b1f	0.094351046
59	0x3cdced27	0.026968552
60	0xbd2b7a44	-0.04186465
61	0x3cbdc14a	0.023163456
62	0xbd593f99	-0.053039167
63	0xb9d64463	-0.00040868213
64	0x3da35147	0.07974487
65	0xbc4fe70f	-0.012689366
66	0xbd1e3baa	-0.03863112
67	0xba7d36b5	-0.0009659336
68	0x3d860e50	0.06545699
69	0xbcb404bd	-0.021974916
70	0xbd3431a3	-0.04399265
71	0xb8e507c1	-0.00010921015
72	0xbda336f4	-0.07969466
73	0x3d811cad	0.063042976
74	0xbd4bae82	-0.04972697
75	0x3d210692	0.039312907
76	0x3d4227e9	0.047401343
77	0xbb212a0f	-0.002459172
78	0xbc62ec4d	-0.013850284
79	0x3c84c821	0.01620871
80	0xbb9be150	-0.004757084
81	0xbda1f0f6	-0.07907288
82	0xbdceb7e0	-0.10093665
83	0x3cb11bee	0.021619763
84	0xbd74d6c0	-0.059775114
85	0xbdd01922	-0.10161044
86	0xbd0343c1	-0.032047037
87	0xbd920d74	-0.07131472
88	0x3d1145e1	0.035467032
89	0x3b89fd7d	0.0042111264
90	0xbd2b2d3c	-0.041791186
91	0x3d559763	0.052146327
92	0x3c775d35	0.015097906
93	0x3d0b448f	0.03400093
94	0xbcb7f640	-0.022456288
95	0xbd4e6267	-0.050386813
96	0x3de9837a	0.1140203
97	0x3d9e3a82	0.07726003
98	0xbd630e35	-0.05543347
99	0x3d2fb4c0	0.042896986
100	0x3d1e2b36	0.038615428
101	0x3da417cf	0.08012354
102	0x3d970923	0.073747896
103	0x3b24260a	0.0025047087
104	0x3c81f426	0.01586349
105	0x3d84aa4e	0.064777955
106	0xbd179acc	-0.03701286
107	0x3cdeba5b	0.02718847
108	0x3d9627f3	0.073318385
109	0x3d09b642	0.03362108
110	0x3dbb98e7	0.09160023
111	0x3cb6bff0	0.02230832
112	0xbaa84050	-0.001283655
113	0x3dab8044	0.08374074
114	0xbd8270f5	-0.06369201
115	0x3d23c51b	0.039982896
116	0xbc8e2234	-0.017350294
117	0x3d04bbcb	0.032405656
118	0xbd1efb14	-0.038813666
119	0xbd8f31e8	-0.06991941
120	0xbd2cb6b2	-0.04216642
121	0xbd071188	-0.032975703
122	0x3bf9f5aa	0.0076281624
123	0xbda2fef7	-0.07958787
124	0x3d5e3e52	0.054258652
125	0xbd81cb31	-0.06337584
126	0x3a135ccd	0.00056214334
127	0xbddea6a9	-0.10871632
128	0xbd837cba	-0.06420274
129	0x3d6e6cd1	0.058209244
130	0x3d54de9a	0.051970102
131	0x3ce367e5	0.027759502
132	0x3dd4adf6	0.10384743
133	0x3dd52060	0.10406566
134	0x3cb38c65	0.021917531
135	0xbd9f2a18	-0.077717006
136	0xbd33aa4b	-0.043863576
137	0xbd402c37	-0.046917167
138	0xbda499a6	-0.080371186
139	0xbccb5fe2	-0.024825994
140	0xbd83ae26	-0.064297006
141	0xbc6def06	-0.01452232
142	0xbd7d910e	-0.061905913
143	0x3c927280	0.017876863
144	0x3cc30248	0.023804799
145	0x3dcd32dc	0.10019466
146	0x3ca72d7c	0.02040743
147	0xbd7854ee	-0.06062787
148	0x3d743380	0.059619427
149	0xbd96c616	-0.07362001
150	0xbd4ab85d	-0.04949223
151	0x3b224ec1	0.002476618
152	0x3d7ce81e	0.0617448
153	0xbd918af4	-0.07106581
154	0xbbecb4f1	-0.0072237183
155	0xbdb7217b	-0.08941933
156	0xbd94d7bc	-0.072677106
157	0xbd015ec1	-0.031584505
158	0x39c57d3b	0.00037668072
159	0x3da9fe8e	0.083005056
160	0xb79ae9e0	-1.8467137e-05
161	0xbd8d121c	-0.0688822
162	0xbdb25e3f	-0.08709382
163	0xbd96857d	-0.073496796
164	0x3d800de6	0.06252651
165	0xbc3a8009	-0.011383065
166	0x3d8b9f0e	0.06817447
167	0xbd5e9d81	-0.054349426
168	0xbd90a92a	-0.070635155
169	0x3d602aff	0.054728504
170	0xbd9b2c70	-0.07576835
171	0x3d0d45a0	0.034490228
172	0x3d943f8c	0.07238683
173	0xbd69608e	-0.056976847
174	0x3c8d83ab	0.017274698
175	0xbcdbe005	-0.02684022
176	0xbd49555e	-0.049153678
177	0x3cde9437	0.027170284
178	0xbd4589e3	-0.048227202
179	0x3d66c6f6	0.056342088
180	0x3d978a88	0.073994696
181	0x3d267d90	0.04064709
182	0xbd40fc2f	-0.0471155
183	0x3c7d53ad	0.015461844
184	0x3d8dd50f	0.06925403
185	0xbb936a7e	-0.004498779
186	0x3d0c2b8e	0.034221224
187	0x3dd3a223	0.103336595
188	0xbd9a5cb9	-0.07537217
189	0x3c55c6c2	0.013047876
190	0xbd7108f9	-0.058846448
191	0x3c98c9ce	0.018650915
192	0x3d1901e9	0.037355337
193	0xbd253879	-0.04033706
194	0xbcd51bee	-0.026014294
195	0x3d8dffc9	0.06933553
196	0xbb84dbbc	-0.0040545147
197	0x3c97db68	0.018537238
198	0x3b5b57da	0.0033469112
199	0xbd94ad2b	-0.07259592
200	0xbd56c5c5	-0.0524347
201	0xbdac5579	-0.0841474
202	0x3ba52955	0.0050403276
203	0xbdd8e955	-0.105913796
204	0x3ad13872	0.0015962257
205	0x3d1d44e5	0.03839578
206	0x3d56037c	0.052249417
207	0x3ca48024	0.020080633
208	0x3dc201b4	0.09472981
209	0xbb9ad7e9	-0.0047254455
210	0x3d13cce6	0.03608408
211	0xbd37e0a0	-0.044891953
212	0x3dc209fd	0.09474561
213	0x3cad493c	0.021153085
214	0x3da46d38	0.08028644
215	0xbd8e8505	-0.06958965
216	0x3b81bc6e	0.00395923
217	0xbb7cb531	-0.0038560147
218	0x3ddad938	0.106859624
219	0xbbf4ea63	-0.00747423
220	0xbc24da60	-0.01006183
221	0x3ceb5586	0.028727304
222	0x3c617bd2	0.013762431
223	0xbcfa35e2	-0.030543271
224	0x3d90b787	0.07066255
225	0xbda39928	-0.079881966
226	0xbdec416b	-0.11535915
227	0xbdda5e0f	-0.106624715
228	0xbc3e44b0	-0.011613056
229	0xbd950448	-0.07276207
230	0xbdcf1329	-0.101110764
231	0x3dac3888	0.0840922
232	0xbd5bd94e	-0.053674035
233	0xbd803fea	-0.06262191
234	0xbcdd68ae	-0.027027454
235	0x3de13dc7	0.10998111
236	0xbcd752a8	-0.02628453
237	0x3d867c6c	0.065667
238	0x3cb7e3e0	0.022447526
239	0x3da39ec0	0.079892635
240	0x3d192270	0.037386358
241	0x3d270a0b	0.040781062
242	0xbd91ded1	-0.07122577
243	0xbd8f75ec	-0.07004914
244	0xbb658ec4	-0.0035027722
245	0xbd63885d	-0.055549968
246	0xbd57fa74	-0.052729085
247	0xbd00d077	-0.031448808
248	0x3c70c2cf	0.0146948835
249	0x3d99c177	0.075076036
250	0x3d1062e5	0.035250563
251	0xbc896ee1	-0.016776504
252	0xbc66013e	-0.014038382
253	0x3cbf7834	0.023372747
254	0xbdc7a824	-0.09748867
255	0xbd2702e3	-0.040774237

a2c_network.actor_mlp.4.bias f4 [64]
0	0xbb6fc05a	-0.0036583156
1	0x3c1f091d	0.009706763
2	0xbd0ca64e	-0.034338288
3	0xbcfe493c	-0.03104078
4	0x3c157e6c	0.00912438
5	0xbb6e0c06	-0.0036323084
6	0xbd87f5a2	-0.066386476
7	0x3c6ce80a	0.014459619
8	0xbd367d99	-0.044553373
9	0x3c2e0f23	0.010623726
10	0x3c828ce1	0.015936317
11	0xbb57f129	-0.003295014
12	0xbbcfe395	-0.0063442686
13	0xbb6e03bf	-0.003631815
14	0x3c3b92fc	0.011448618
15	0xbcbc8676	-0.023013335
16	0xbc3feda0	-0.011714369
17	0xbcc4e170	-0.024033278
18	0x3bc510f8	0.0060139857
19	0xbd4a5e25	-0.04940619
20	0xbd5c9dd7	-0.053861465
21	0xba9cebff	-0.0011972188
22	0xbcff6f87	-0.03118111
23	0xbc53f841	-0.012937606
24	0xbd6b2fae	-0.057418518
25	0xbd86dd9d	-0.06585238
26	0x3c7e7622	0.015531095
27	0xbb9608fc	-0.0045787077
28	0x3c64c4f9	0.013962978
29	0x3c18c0d0	0.009323314
30	0xbcc7b680	-0.024379015
31	0xbd3b5f8d	-0.04574542
32	0xbc9957a0	-0.01871854
33	0x3bd48ac9	0.006486271
34	0x3c3a40d1	0.0113679925
35	0x3c287528	0.0102818385
36	0xbd520b04	-0.051280037
37	0x3c122ba2	0.008921536
38	0xbcdf7c4f	-0.027280955
39	0xbb346ae0	-0.0027529523
40	0xbb8af61d	-0.004240765
41	0xbd3b46e9	-0.045721922
42	0xbba2b8ae	-0.004965863
43	0xbc2e1bc3	-0.010626736
44	0x3bae0c93	0.0053115576
45	0xbb6adcc7	-0.003583716
46	0xbd5e203c	-0.05422996
47	0x3c662435	0.014046718
48	0xbd574eb7	-0.052565303
49	0xbd2e9c3b	-0.04262946
50	0x3d4b7e9d	0.049681295
51	0xba144678	-0.00056562526
52	0xbcfd4ceb	-0.030920466
53	0x3b897a7f	0.004195511
54	0x3ca169cb	0.019703766
55	0x3c0308c6	0.007997697
56	0xbce39c3f	-0.027784465
57	0xbd8f440e	-0.06995402
58	0xbcf8b578	-0.030359969
59	0xbcca448d	-0.02469089
60	0x3be69d6d	0.0070378096
61	0xbcbad88e	-0.02280834
62	0x3c4a7955	0.012358029
63	0x3cb66243	0.022263652

a2c_network.value.weight f4 [1, 64]
0	0x3c9eb6f5	0.01937435
1	0xbdc246d4	-0.09486166
2	0xbc5b5f6e	-0.013389451
3	0x3d81e09f	0.06341671
4	0xbba0fc4e	-0.0049128896
5	0xbd3945d6	-0.045232616
6	0x3e1a12f4	0.15046293
7	0xbda67057	-0.08126896
8	0x3cdb4319	0.026765393
9	0xbdf531fc	-0.119724244
10	0xbd81ee9b	-0.063443385
11	0x3c7b7781	0.015348316
12	0xbc23ac01	-0.009989739
13	0x3d370d05	0.04469015
14	0x3d2943de	0.04132449
15	0xbcfcce6d	-0.03086015
16	0xbd4ba125	-0.049714226
17	0xbdd3d285	-0.10342888
18	0xbd9f899b	-0.07789918
19	0x3e3351aa	0.17511621
20	0xbccc248e	-0.024919774
21	0xbdab6826	-0.08369474
22	0x3c042eca	0.008067796
23	0x3c95ffc3	0.018310433
24	0x3cd93715	0.026515523
25	0x3e058e73	0.13042621
26	0xbce5acbc	-0.028036468
27	0x3d8dbaa9	0.06920368
28	0xbd3dec6c	-0.046368048
29	0xbdd050e9	-0.101716824
30	0xbdb83889	-0.08995158
31	0x3cf8afec	0.030357324
32	0x3d936345	0.071966685
33	0xbcb3eb9c	-0.021962933
34	0x3cb6887a	0.022281874
35	0xbd43be17	-0.047788706
36	0xbd0232f2	-0.031786866
37	0xbd47a175	-0.04873796
38	0x3d9b7646	0.07590918
39	0x3da12ebe	0.078702435
40	0xbd722726	-0.059119366
41	0x3c761949	0.015020677
42	0xbd85db66	-0.065359876
43	0xbdae1f9a	-0.08502121
44	0xbddceb85	-0.10787109
45	0xbdbe7e88	-0.09301478
46	0x3e0f2c41	0.13981725
47	0x3df88a11	0.12135709
48	0x3df24385	0.118292846
49	0x3e3c9d75	0.1841944
50	0xbd183133	-0.037156295
51	0x3cc8522a	0.024453241
52	0x3d4048b0	0.04694432
53	0xbe09f8e6	-0.13473853
54	0xbd08d264	-0.03340377
55	0x3d938cb2	0.0720457
56	0xbd4d4eb4	-0.050123885
57	0x3e38d00e	0.18048117
58	0xbbe7465b	-0.0070579476
59	0xbc50f3c9	-0.012753435
60	0xbdb8fbe3	-0.090324186
61	0xbdbd4a74	-0.092427164
62	0xbd137c06	-0.03600695
63	0xbcea4e2c	-0.028601728

a2c_network.mu.weight f4 [12, 64]
0	0x3b29df74	0.0025920542
1	0x3d97fc03	0.07421114
2	0x3d67ad1e	0.05656158
3	0xbb4b1215	-0.003098612
4	0x3c7d5433	0.015461969
5	0x3c53deac	0.012931507
6	0xbcdc1d8e	-0.026869562
7	0x3dead90a	0.11467178
8	0x3c32c2e5	0.010910724
9	0x3d121cc7	0.035671975
10	0x3d9723e3	0.07379892
11	0x3d4bb05b	0.049728733
12	0x3c20c314	0.009812135
13	0xbc68d41a	-0.014210725
14	0x3b61afe6	0.003443712
15	0x3d61af0c	0.05509858
16	0xbd567782	-0.052360065
17	0xbd195a65	-0.037439723
18	0x3cd3984a	0.025829453
19	0x3a96eda5	0.0011514915
20	0xbd4a58ee	-0.049401216
21	0xbd8f4a88	-0.069966376
22	0xbdce7c54	-0.100823075
23	0xbda34528	-0.07972175
24	0xbda6533b	-0.08121344
25	0xbd0c675f	-0.03427827
26	0x3d8c7f20	0.06860185
27	0xbc18eea3	-0.009334239
28	0x3da64e5f	0.08120417
29	0x3d8b32bb	0.067967854
30	0xbd73d18b	-0.059526008
31	0x3da7ce5a	0.08193655
32	0xbda36ec2	-0.0798011
33	0x3d8bdf7d	0.068297364
34	0x3d316209	0.043306384
35	0x3d287826	0.041130207
36	0xbc991157	-0.018685026
37	0x3d9de732	0.07710113
38	0x3d4e586e	0.050377302
39	0xbdce4656	-0.10072009
40	0xbd3f5128	-0.046708256
41	0xbd9247d7	-0.071426086
42	0xbd66310f	-0.05619913
43	0xbab4b670	-0.0013787281
44	0xbc923e7d	-0.017852062
45	0x3c6cdc9d	0.014456895
46	0xbd46be18	-0.04852113
47	0x3dd0f22f	0.10202443
48	0xbd22eb8e	-0.039775424
49	0x3db5d961	0.08879352
50	0x3dd3f5f8	0.10349649
51	0x3d5f08e3	0.054451834
52	0xbdac156a	-0.08402522
53	0x3dd16c53	0.10225739
54	0xbbc20a3e	-0.005921631
55	0x3de7e72e	0.11323391
56	0xbdd1e7b7	-0.10249274
57	0xbdc2e0f1	-0.095155604
58	0xbda662cc	-0.08124313
59	0x3dde593c	0.10856864
60	0x3d033da4	0.032041207
61	0xbb93fc57	-0.0045161652
62	0x3daaeae0	0.0834558
63	0xbd3d98c5	-0.04628827
64	0x3d82ad4d	0.06380711
65	0xbd518e68	-0.0511612
66	0x3dba0121	0.090822466
67	0xbbd19f0c	-0.0063971337
68	0x3baa5656	0.0051982803
69	0xbd8f1000	-0.06985474
70	0x3dd702bb	0.10498568
71	0x3c7b60e0	0.015342921
72	0x3c994ee9	0.018714385
73	0x3da27cc7	0.07933956
74	0x3caa6f65	0.02080507
75	0xbc4dd3bd	-0.012562689
76	0xbc8ab410	-0.016931564
77	0xbda7b347	-0.08188491
78	0xbd75ec08	-0.06003955
79	0xbb983d42	-0.0046459744
80	0xbdd63fbe	-0.104613766
81	0x3d6ecdb7	0.058301654
82	0xbaf9df41	-0.0019063727
83	0x3b9c349f	0.004767015
84	0x3db0aa79	0.08626265
85	0x3d60f131	0.054917518
86	0x3ce1cc70	0.027563304
87	0x3cf73fd2	0.0301818
88	0x3ddd330b	0.10800751
89	0xbd2f4a3a	-0.042795397
90	0xbd2dd27a	-0.042437054
91	0xbdca4c6e	-0.09877859
92	0x3d8e036a	0.06934245
93	0xbd0dd45a	-0.034626342
94	0xbda75ea3	-0.081723474
95	0x3dc9886f	0.09840476
96	0xbd663bac	-0.05620925
97	0x3c8639d9	0.016385006
98	0xbd14529e	-0.036211602
99	0xbb02f74e	-0.001998383
100	0x3ddcaf4e	0.10775624
101	0xbbef0ca2	-0.007295207
102	0xbd9e2583	-0.077219985
103	0x3c9136bf	0.0177263
104	0x3d3d430c	0.04620652
105	0x3dc29cdb	0.09502574
106	0x3db70d1e	0.08938049
107	0x3d99ef59	0.07516355
108	0xbc3b6511	-0.01143767
109	0x3d85c099	0.06530876
110	0xbc54cd43	-0.012988391
111	0xbcf650b4	-0.03006778
112	0xbdeb5ee7	-0.114927106
113	0x3d7f2164	0.062287703
114	0xbe01b329	-0.12666
115	0x3cfd55cc	0.0309247
116	0x3a2ddd3b	0.0006632392
117	0x3dca5ddf	0.09881186
118	0xbd9dd81e	-0.07707237
119	0xbd4701d0	-0.048585713
120	0xbd686875	-0.056740243
121	0x3d8ccf5f	0.068754904
122	0xbc0959dd	-0.0083832415
123	0x3d88ebf1	0.06685627
124	0xbc90361d	-0.017603928
125	0x3c76e6b7	0.015069655
126	0xbdbac779	-0.09120078
127	0x3dd675e8	0.104717076
128	0xbc5ed810	-0.013601318
129	0xbda65dd7	-0.08123367
130	0x3d2898b8	0.04116127
131	0xbdc8e31c	-0.09808943
132	0x3d1b34cb	0.037892144
133	0xbd168a35	-0.0367529
134	0xbd8d86d6	-0.069104835
135	0xbca2a83e	-0.019855615
136	0x3d8ae53a	0.06782003
137	0xbd7a145a	-0.061054565
138	0x3dd90746	0.105970904
139	0xbd2ce1ee	-0.04220765
140	0xbd8565b4	-0.06513539
141	0x3d6d8ba4	0.0579945
142	0x3cf7150c	0.030161403
143	0x3dd6c2a8	0.104863465
144	0x3d65cc55	0.05610307
145	0x3dc79d33	0.0974678
146	0x3dd42e7f	0.10360431
147	0x3ceae06e	0.02867147
148	0x3cce09d9	0.02515118
149	0x3dd6fc38	0.10497326
150	0xbd981050	-0.07424986
151	0x3d41e9ba	0.04734204
152	0x3d16216b	0.036652964
153	0x3d173dff	0.03692436
154	0x3ceb3de6	0.028716039
155	0xbd30b3e4	-0.043140307
156	0x3cf8ab86	0.030355226
157	0x3d3f756c	0.04674284
158	0xbd398f6f	-0.045302805
159	0x3d3a8494	0.045536593
160	0xbce57ea3	-0.028014487
161	0xbd316a35	-0.043314178
162	0xbde16bd6	-0.11006896
163	0xbc4d4bd3	-0.012530285
164	0x3e0658d0	0.13119817
165	0xbd85bcb9	-0.065301366
166	0xbdddcf79	-0.10830588
167	0x3e049332	0.12946776
168	0x3d6161e7	0.055025008
169	0x3d7a8f48	0.0611718
170	0x3de51f0b	0.111875616
171	0xbd265cf6	-0.040616
172	0x3db04856	0.08607547
173	0x3d818804	0.06324771
174	0xbd0332ad	-0.03203075
175	0x3c8cfbb8	0.017209873
176	0x3dc58d03	0.096460365
177	0xbc82421b	-0.015900662
178	0xbd14ed6f	-0.036359247
179	0x3d4bc3bb	0.04974721
180	0x3de70634	0.1128048
181	0xbde7d815	-0.11320511
182	0x3c7bf8d8	0.015379153
183	0x3dbdcc6a	0.092675045
184	0x3dba4a12	0.09096159
185	0x3df1c17b	0.118044816
186	0x3d1f59a9	0.038903866
187	0x3b533812	0.0032229465
188	0xbcb05d19	-0.021528767
189	0x3d6e8e02	0.058240898
190	0x3da48839	0.08033795
191	0xbd1c5ee5	-0.038176436
192	0xbb109c2e	-0.0022065747
193	0x3d3da413	0.04629905
194	0xbcd5e5a7	-0.026110483
195	0xbd8d6e7d	-0.069058396
196	0xbcab682a	-0.020923693
197	0xbd665a99	-0.056238744
198	0xbc5e5554	-0.0135701485
199	0xbdb434fe	-0.0879917
200	0x3cc1db3a	0.023664106
201	0x3dcd3de6	0.10021572
202	0x3d27e664	0.040991202
203	0x3d8a9b3e	0.06767891
204	0xbdb288cc	-0.08717498
205	0x3dc957bf	0.09831189
206	0xbd3e5aad	-0.046473194
207	0x3b85907f	0.004076063
208	0xbd9e88be	-0.07740925
209	0x3dce4225	0.1007121
210	0x3db81846	0.08989005
211	0xbdab990e	-0.08378802
212	0xbdb1d922	-0.08683993
213	0x3dd13073	0.10214319
214	0xbdc1a4d7	-0.09455269
215	0x3d188b55	0.037242252
216	0xbc6b2eb6	-0.0143543985
217	0xbcb29b06	-0.021802437
218	0x3d9d3582	0.076762214
219	0xbd4fad05	-0.050702114
220	0x3c58219f	0.01319161
221	0xbd123a01	-0.035699848
222	0x3c9e400c	0.01931765
223	0x3dad2098	0.084534824
224	0x3cb5844a	0.022157807
225	0xbdb43ab4	-0.08800259
226	0x3de8019e	0.113284335
227	0xbd7db11f	-0.061936494
228	0xbd9861e3	-0.074405454
229	0x3dba1c1f	0.09087395
230	0xbdfd42f4	-0.12366286
231	0x3ce48cf8	0.02789925
232	0x3d39713c	0.045274004
233	0xbca4344b	-0.020044466
234	0x3e0f2556	0.13979086
235	0xbd9ab24f	-0.07553541
236	0x3de31965	0.11088828
237	0x3c2494fb	0.010045285
238	0x3cde4ed5	0.0271372
239	0x3dcba42a	0.09943421
240	0xbc89330e	-0.016747978
241	0x3cb00da3	0.021490877
242	0xbbaa5983	-0.005198659
243	0xbd7cf2ff	-0.061755177
244	0x3d03a603	0.032140743
245	0xbdd7d926	-0.10539465
246	0xbd09913f	-0.033585783
247	0x3d8dc2d2	0.06921925
248	0xbbab84a5	-0.0052343183
249	0x3d695002	0.056961067
250	0xbdd365ee	-0.10322176
251	0x394cdc81	0.000195371
252	0x3d121ced	0.035672117
253	0xbdc78ea1	-0.09744001
254	0x3d582cc6	0.052777074
255	0x3d8841cf	0.06653177

a2c_network.mu.bias f4 [12]
0	0x3d3d2ccc	0.0461853
1	0xbd11814f	-0.03552371
2	0xbcb92515	-0.02260069
3	0x3d0e0401	0.034671787
4	0xbc47546e	-0.012166126
5	0x3c85b586	0.016321909
6	0xbd14a4cc	-0.036289975
7	0xbd57ee31	-0.05271739
8	0x3d27d34c	0.040972993
9	0xbd0c7f8f	-0.034301337
10	0x3cb09c5e	0.021558937
11	0x3c85a9ce	0.01631632

exp_avg f4 [12]
0	0x3bec831e	0.007217779
1	0xbaefbe25	-0.001829092
2	0x3c0dab1d	0.008646754
3	0x3b87ba21	0.0041420613
4	0x3bd3b8bb	0.0064612306
5	0xbadb10b7	-0.0016713355
6	0xbbd260f1	-0.0064202477
7	0xbc199498	-0.009373806
8	0xba481a61	-0.00076333253
9	0xbbcc4a71	-0.00623446
10	0xbaf5cf03	-0.0018753711
11	0x3b91fc87	0.0044551524

exp_avg_sq f4 [12]
0	0x3a2c369d	0.00065694173
1	0x3a3dee0a	0.00072452484
2	0x3a0f4e4a	0.0005466683
3	0x3a155c5d	0.0005697662
4	0x3a326024	0.0006804487
5	0x3a263e63	0.0006341694
6	0x3a3e2423	0.00072533096
7	0x3a388c88	0.0007039984
8	0x3a17c48f	0.00057894824
9	0x3a4a46db	0.0007716247
10	0x3a336710	0.00068436656
11	0x3a22f660	0.00062165223
