OmniIsaacGymEnvs/omniisaacgymenvs/runs/Naranjelio/nn/last_Naranjelio_ep_1300_rew_10.188702.pth (torch, 672807 bytes, 36 tensors)

value_mean_std.running_mean f8 [1]
0.5140108978745686
00000000: 7215 85fb c672 e03f

value_mean_std.running_var f8 [1]
0.16226109334091066
00000000: 34fd a7b4 f8c4 c43f

value_mean_std.count f8 []
127795201.0
00000000: 0000 0004 0078 9e41

running_mean_std.running_mean f8 [48]
0.02901884393174795 0.032041238808489816 0.027403825491932564 -0.012309883133815017 -0.007404149701379079 0.0024045927878294064 0.09198639037358096 -0.09830790558216004
-0.9054361958814472 -0.022412673596642053 0.0018340453705640591 0.00037785399456358203 0.272251967158669 -0.22238269261488708 5.642344015605129e-06 -0.016455217656948927
0.2267149984392427 0.024545982600548938 -0.3422081113064727 -0.36093847190950235 0.35300641595967924 -0.4782837997352603 -0.37959251946982264 0.5511668620341496
-0.0033884523796411685 0.0006314985985630489 0.0005325618103976315 2.905642890915065e-05 -0.00897239163075819 0.006855984486024268 0.0060025331553079115 -0.005800913846294874
0.006930195785668057 -0.004742453458191016 -0.003299275493888225 0.008479026107802556 0.24118026562441294 -0.09148020135349315 0.0403100060664985 -0.4524981163333091
-0.07411225757402938 -0.5226017668445845 0.7954467550611656 0.1506447687827707 0.39928947604384657 -0.6055940598169091 -0.48218693821906505 0.6514543447582111
00000000: a94b 9ea6 1db7 9d3f 7a90 9c91 b567 a03f
00000010: 66b2 1799 bf0f 9c3f d58b d18b ec35 89bf
00000020: 305e 274d d053 7ebf 981c 49ec cbb2 633f
00000030: 03e5 548a 6b8c b73f dee3 69f7 b42a b9bf
00000040: 6a9d 3d54 55f9 ecbf 6d39 7410 59f3 96bf
00000050: 8573 b338 8b0c 5e3f 06d0 9f8c 56c3 383f
00000060: 29f6 cd83 936c d13f 281a fd3b 0977 ccbf
00000070: 9eb3 98b6 6baa d73e e699 bdf6 a2d9 90bf
00000080: 2095 e73f ff04 cd3f b8f6 1102 9522 993f
00000090: bf2e 9fd9 bce6 d5bf bc0c 2ead 9d19 d7bf
000000a0: b7cc f438 a897 d63f 9d73 84a7 339c debf
000000b0: e476 3b6c 3e4b d8bf 736b e2af 28a3 e13f
000000c0: 4695 f284 19c2 6bbf 4dac 05ea 64b1 443f
000000d0: 3d54 85c7 7373 413f daf7 2797 c677 fe3e
000000e0: 5fd4 f704 1e60 82bf cbc4 6352 0515 7c3f
000000f0: c2f3 85b9 1c96 783f f2a5 1bf4 b2c2 77bf
00000100: 3eb3 1144 d662 7c3f fb7a 17a8 d26c 73bf
00000110: 3d87 180b 1507 6bbf 26f6 ad9e 735d 813f
00000120: bb12 a6b4 fede ce3f 9b74 0b19 3f6b b7bf
00000130: 22ac 835b 83a3 a43f 79cd c9a8 baf5 dcbf
00000140: 0f60 835a 05f9 b2bf e3bc 2d57 27b9 e0bf
00000150: 0f4e d6c0 4c74 e93f 4524 9ee9 5348 c33f
00000160: f0b2 4f72 f58d d93f 8318 32cb 0661 e3bf
00000170: 7764 8d9a 26dc debf 245b 32c8 b6d8 e43f

running_mean_std.running_var f8 [48]
0.12534370904575992 0.2031451294759616 0.03377748203305544 0.02430973434106891 0.008261614321090542 0.0023235703719927704 0.04598956382070646 0.0896468401605045
0.026432018645681565 5.409491732190967 1.3276128397117166 0.02052799304888573 0.059932685172472085 0.05652661449193191 7.385051771580324e-08 0.06877390396568228
5.626423379844662e-07 0.2390061557893284 0.3784555233678083 0.28396995646242146 0.11663525874231813 0.16197682141873268 0.29680595864690573 0.07373970338446939
0.004849766041051697 0.004993518567742645 0.00044033588272535107 1.627093402419661e-05 0.0009986263591422856 0.00406484236018244 0.00215196840620001 0.008317548780677218
0.013275700512880913 0.0035848610230189964 0.006432297381256365 0.00305703065881637 0.6001799742473101 0.6272252006187159 0.6161218333117878 0.48845125022752006
0.6786025274678302 0.4667944857081729 0.15253297642493432 0.4506450998935468 0.44174118633896725 0.3483738403429583 0.43587054595068014 0.27263660315989263
00000000: 4231 8e3d 430b c03f bf70 b8db a800 ca3f
00000010: c3ad 5839 484b a13f 6c9a e0a7 a6e4 983f
00000020: 0feb 911a 77eb 803f 88c7 3e58 e108 633f
00000030: 286d 22b1 f18b a73f e8d9 ad66 18f3 b63f
00000040: 6013 9abe fe10 9b3f 6af8 f6cc 51a3 1540
00000050: f5fb 04f6 e63d f53f 7a9e 304b 4a05 953f
00000060: 51f1 8d35 7faf ae3f 8761 3171 0ef1 ac3f
00000070: 03e6 100c f8d2 733e 50d1 59a4 2a9b b13f
00000080: 1412 f695 0fe1 a23e 5134 54f3 c097 ce3f
00000090: 3ebd f683 9d38 d83f 855e 0353 902c d23f
000000a0: 55d7 dbed cedb bd3f ef0b 5a0f a8bb c43f
000000b0: 6e5e 696b defe d23f 34fa 73ee 9ae0 b23f
000000c0: 8212 a228 59dd 733f 6ef9 0b6f 1574 743f
000000d0: fefb 2e37 9cdb 3c3f 7f57 7812 b20f f13e
000000e0: 368e 6be3 8a5c 503f 728d 01d0 4ba6 703f
000000f0: e426 a73d 01a1 613f ec96 f77f ca08 813f
00000100: 6446 465c 4a30 8b3f bca6 589b ff5d 6d3f
00000110: 6212 40ae c058 7a3f 2cc3 7ad6 0e0b 693f
00000120: f766 23a2 ac34 e33f 334d 7c95 3a12 e43f
00000130: 459f 8d22 45b7 e33f 81b8 5a08 c942 df3f
00000140: faa1 cea5 1cb7 e53f a776 84fa f5df dd3f
00000150: b73f a758 3386 c33f d54e 898b 5ed7 dc3f
00000160: 97d0 27d3 7c45 dc3f ff83 c3ca c14b d63f
00000170: 2776 0993 4de5 db3f c9e9 90cb e072 d13f

running_mean_std.count f8 []
63897601.0
00000000: 0000 0008 0078 8e41

a2c_network.sigma f4 [12]
-1.1682129 -1.2025933 -0.8046676 -0.8701352 -0.880188 -1.0384691 -0.99292886 -1.5555155
-1.3933179 -0.99586785 -1.1538988 -1.0073155
00000000: 0088 95bf 94ee 99bf b2fe 4dbf 2ec1 5ebf
00000010: 0054 61bf 8eec 84bf 9630 7ebf 221b c7bf
00000020: 3e58 b2bf 32f1 7ebf f5b2 93bf b7ef 80bf

a2c_network.actor_mlp.0.weight f4 [256, 48]
-0.014463489 -0.05289796 -0.03432577 -0.09635103 -0.03340091 -0.087522045 -0.00894425 0.11628086
-0.13830692 -0.39873672 0.11401798 0.18654548 -0.07265304 0.057016365 -0.1489263 -0.08129982
0.17929499 0.06748734 -0.09210274 0.18216224 -0.21519877 -0.055918645 -0.15470192 0.07150651
0.050645452 0.08613956 -0.0239711 0.046914276 0.05216374 -0.12136723 0.05832477 -0.1054124
-0.066093124 -0.013518806 -0.031376496 0.05745563 0.06311276 -0.0051935273 0.0040252907 -0.035370104
0.047339123 0.05429562 0.023991557 0.04516289 0.10812397 -0.031280555 -0.056265175 -0.09329007
-0.1082318 0.042734854 0.04536326 -0.045177564 -0.04676002 -0.019695971 -0.09708732 -0.20334333
0.44200787 -0.49852556 0.19984712 0.38014907 0.08172798 0.016029188 0.008061384 0.022847135
0.00053142087 0.123905234 0.04015053 0.14122827 0.21155071 -0.14657252 0.12756269 0.10054795
-0.054587103 0.0057079727 0.01803657 -0.015258451 -0.10255879 -0.053021528 -0.040098194 0.15037404
-0.08545941 -0.07131287 0.037510492 -0.01937632 0.057522345 -0.11967471 0.005698838 -0.04957839
0.01317471 -0.10770776 -0.035934795 -0.013902844 0.10511865 -0.009916763 -0.06532361 0.07318261
-0.09700361 0.1357463 -0.099344015 -0.13206793 0.0410087 -0.13569985 -0.12857927 -0.37392846
0.002628991 -0.180854 -0.1513234 -0.18994766 0.14892893 0.020779932 0.054921564 0.104066424
0.0024326504 -0.08824187 -0.18013066 -0.17506295 0.0590256 0.012545554 0.08010547 -0.15813246
-0.0375381 0.043050867 -0.0013091656 0.0031017438 0.04525222 -0.09536844 -0.08251426 0.082984075
0.050411362 0.04827828 0.02453313 0.0009885387 0.013508338 -0.06565906 -0.017539969 0.16830324
-0.043260783 0.12201724 0.06283845 0.043291904 -0.059154164 -0.0028835195 -0.08485828 -0.10573807
-0.028735839 0.106913954 0.11791699 -0.0019393826 0.044893846 0.06168949 -0.010404344 -0.055234604
0.29467624 -0.23341833 -0.05383811 0.5718773 0.037470274 -0.18657494 0.025410213 -0.022585647
0.08865228 -0.2596425 0.04944812 0.07839342 -0.02346554 0.1198908 -0.0025808674 -0.08269518
0.056453057 -0.08865081 0.010289563 -0.0011615179 -0.029961655 0.08993431 -0.064699434 -0.027512072
-0.061231777 0.011528272 0.046447843 0.023229867 0.0021891613 -0.012166834 0.07970255 -0.04245334
-0.009513727 0.0035073287 0.013874708 0.124158084 -0.048338752 0.044235427 0.059152965 0.07433672
-0.07045237 0.12133973 -0.11051487 0.070376046 -0.056792386 0.06631167 0.037702426 -0.05678923
-0.16097121 -0.23147188 0.20152463 -0.13949423 0.030257948 0.16097394 0.16855507 0.14504835
0.049985096 0.05158967 0.057435665 -0.08319335 0.0430346 0.011410801 0.15667482 0.007441836
0.011184222 0.0357784 0.080662645 0.08030004 0.103883296 -0.021622205 -0.038768806 -0.056606747
-0.017861912 -0.0051581897 -0.013459837 0.05039536 0.108253315 -0.015558338 0.06798261 -0.0760289
0.016972931 0.0071284343 0.08377691 0.019693991 0.11441594 -0.1287799 0.024516307 -0.00827169
-0.08412123 0.06316151 0.15698822 0.06812123 -0.0339577 0.070725895 -0.030657455 0.062187277
-0.12786065 -0.07356701 -0.13678163 -0.39906934 0.018350808 -0.040465713 -0.024111899 -0.024007803
00000000: 45f8 6cbc 88ab 58bd 2e99 0cbd b053 c5bd
00000010: 65cf 08bd c23e b3bd e78a 12bc a924 ee3d
00000020: 54a0 0dbe 3827 ccbe 4282 e93d c705 3f3e
00000030: 1ecb 94bd fe89 693d 2380 18be 8580 a6bd
00000040: 1b99 373e cd36 8a3d 5da0 bcbd bd88 3a3e
00000050: 115d 5cbe f30a 65bd 2e6a 1ebe 0172 923d
00000060: 9b71 4f3d f069 b03d 0a5f c4bc 2f29 403d
00000070: a5a9 553d 628f f8bd f4e5 6e3d 75e2 d7bd
00000080: d55b 87bd fb7d 5dbc a484 00bd 9856 6b3d
00000090: 4341 813d 772e aabb 96e6 833b 3ee0 10bd
000000a0: abe6 413d 1665 5e3d f189 c43c b9fc 383d
000000b0: 1a70 dd3d 0a20 00bd 5076 66bd dd0e bfbd
000000c0: a2a8 ddbd be0a 2f3d d3ce 393d 1c0c 39bd
000000d0: 6f87 3fbd 7259 a1bc b8d5 c6bd 3c39 50be
000000e0: db4e e23e be3e ffbe b9a4 4c3e e6a2 c23e
000000f0: 0061 a73d a54f 833c e513 043c ea29 bb3c
00000100: 0d4f 0b3a 07c2 fd3d e274 243d 259e 103e
00000110: c0a0 583e 1b17 16be cb9f 023e 15ec cd3d
00000120: ba96 5fbd f209 bb3b 6ec1 933c 95fe 79bc
00000130: 580a d2bd 1a2d 59bd 013e 24bd a7fb 193e
00000140: 5805 afbd 7b0c 92bd 9aa4 193d 17bb 9ebc
00000150: 8d9c 6b3d 0418 f5bd 51bd ba3b b612 4bbd
00000160: bdda 573c e395 dcbd 5d30 13bd c1c8 63bc
00000170: 7248 d73d eb79 22bc 63c8 85bd c4e0 953d
00000180: d4a9 c6bd 1401 0b3e e074 cbbd d13c 07be
00000190: bdf8 273d e7f4 0abe 49aa 03be 8d73 bfbe
000001a0: 264b 2c3b ca31 39be 85f4 1abe a481 42be
000001b0: d380 183e ad3a aa3c 6ff5 603d c720 d53d
000001c0: 1a6d 1f3b 27b8 b4bd 2c74 38be b443 33be
000001d0: d4c4 713d de8b 4d3c 560e a43d 7aed 21be
000001e0: 8dc1 19bd 1b56 303d 4f98 abba a046 4b3b
000001f0: 645a 393d 8750 c3bd 3dfd a8bd 8ef3 a93d
00000200: 257c 4e3d 72bf 453d b4f9 c83c db91 813a
00000210: 1352 5d3c 4278 86bd fbaf 8fbc af57 2c3e
00000220: 3832 31bd 2de4 f93d 72b1 803d da52 313d
00000230: a34b 72bd 6ef9 3cbb 2eca adbd 348d d8bd
00000240: 6c67 ebbc b4f5 da3d 767e f13d e232 feba
00000250: 9ce2 373d 1eae 7c3d fb76 2abc ae3d 62bd
00000260: cedf 963e 3705 6fbe 5a85 5cbd 8d66 123f
00000270: 6e7a 193d 800d 3fbe 1429 d03c 8905 b9bc
00000280: 548f b53d ddef 84be 1d8a 4a3d bb8c a03d
00000290: ce3a c0bc 4f89 f53d c523 29bb 175c a9bd
000002a0: 523b 673d 8e8e b5bd 8e95 283c 133e 98ba
000002b0: 2572 f5bc 7b2f b83d 2381 84bd ff60 e1bc
000002c0: 2cce 7abd 14e1 3c3c 1840 3e3d 904c be3c
000002d0: 0878 0f3b 6757 47bc 173b a33d 8ee3 2dbd
000002e0: 77df 1bbc 36db 653b be52 633c 9846 fe3d
000002f0: dbfe 45bd 3530 353d 614a 723d da3d 983d
00000300: 5549 90bd f780 f83d 9f55 e2bd 5121 903d
00000310: 229f 68bd 6ace 873d dc6d 1a3d d39b 68bd
00000320: a3d5 24be f706 6dbe 795c 4e3e 93d7 0ebe
00000330: 84df f73c 5ad6 243e b399 2c3e 8e87 143e
00000340: 2cbd 4c3d b14f 533d a941 6b3d 4661 aabd
00000350: 0c45 303d 5ef4 3a3c 5d6f 203e a5da f33b
00000360: 073e 373c 5f8c 123d 7532 a53d 5974 a43d
00000370: c4c0 d43d 0d21 b1bc 0acc 1ebd 7adc 67bd
00000380: 2553 92bc 0806 a9bb a686 5cbc 5d6b 4e3d
00000390: eab3 dd3d 66e8 7ebc 773a 8b3d 0ab5 9bbd
000003a0: d10a 8b3c a495 e93b 3b93 ab3d 4b55 a13c
000003b0: e852 ea3d e1de 03be 6cd6 c83c fc85 07bc
000003c0: c047 acbd d25a 813d 85c1 203e 2583 8b3d
000003d0: 3b17 0bbd bdd8 903d 5825 fbbc 16b8 7e3d
000003e0: e7ed 02be 4daa 96bd 7c10 0cbe d152 ccbe
000003f0: 6f54 963c 60bf 25bd 5186 c5bc 03ac c4bc

a2c_network.actor_mlp.0.bias f4 [256]
-0.14560646 -0.098407984 0.07941457 0.030703474 0.18912299 -0.025854897 -0.17918779 -0.053338863
-0.15783462 0.17744064 -0.041335925 -0.017611234 0.064393476 -0.2214585 0.19385368 0.11777929
0.28280723 -0.16947483 0.18290289 -0.16315876 -0.051763974 0.049507048 0.16900711 -0.17238076
0.16192164 -0.23826495 -0.15240763 0.0072440617 0.026928548 0.12824583 0.19094816 -0.009816104
-0.12049165 0.09896474 -0.06593248 -0.07785006 0.27542394 -0.13301145 0.082666926 0.27213266
0.15836301 0.22983044 0.27840477 0.12016345 -0.1298475 0.2295833 -0.1463106 0.23584537
0.21818863 -0.11463512 0.19989343 -0.12153161 -0.003250172 -0.10252257 0.22482769 -0.21754205
0.29760855 -0.1897608 0.19972521 -0.18623917 0.042534795 -0.015356183 0.2009316 -0.091588095
0.037674006 -0.019612566 -0.20500526 -0.027848173 0.13714448 -0.0965936 0.22126794 0.003350906
0.004948305 0.067743026 0.07155748 0.09960899 0.27544177 0.14498939 0.19674304 -0.049128894
0.09506057 -0.22002397 0.041606817 0.19785239 0.2720046 -0.121872164 0.11861125 0.22709754
0.15507789 -0.062417645 -0.13274473 0.21196105 0.13887128 -0.093077324 0.21159764 0.14794713
-0.037313774 0.27335793 0.1170349 0.06734167 -0.008059381 0.12422099 0.28614852 0.012485793
0.2583352 0.16637534 0.22807501 0.18928824 0.0873381 0.0057625254 -0.22302489 0.28123158
-0.23051094 0.23819737 0.28850767 0.1948742 -0.05003036 -0.13211745 0.18600568 0.15207537
-0.18339616 0.22264408 -0.076163724 0.202446 0.2245695 0.018592775 0.00012907278 0.06120344
-0.092160895 0.2738364 0.013092187 -0.12910657 0.050361264 -0.06130938 0.26726168 0.17241676
0.06979776 -0.13244823 0.19319215 0.078516796 -0.022843419 0.22457983 0.16812253 0.068919264
-0.0889905 0.16609289 0.08995314 0.17216474 -0.13706599 0.03705961 -0.024845494 0.2626388
0.27727085 0.18896325 -0.037686314 -0.19850813 -0.18060884 0.24344118 -0.13522106 -0.043942623
-0.04958423 0.014989469 -0.075097874 -0.20423563 0.0012713636 0.18760194 -0.17377411 -0.006720039
-0.10194606 0.14666417 -0.03629526 0.08943171 0.2050576 0.0011370861 -0.16318287 0.21322168
0.22704165 0.3365677 0.23510563 0.05823035 0.009359133 0.32950947 -0.09020298 0.21103302
0.2482872 -0.14693305 0.1601518 -0.059406437 -0.2319864 0.0997481 -0.12564449 0.12780479
-0.105621055 0.040884 0.13382544 -0.056787796 0.027674152 0.14668234 0.21599235 -0.09649826
-0.03581137 -0.17932564 0.25952592 -0.06960089 0.3695782 -0.07914045 -0.18989138 0.12463493
-0.021124102 0.17643656 0.059766747 0.2548084 0.21701498 0.13042614 0.13329172 0.12515683
0.0041011376 0.13336785 0.17781234 0.074172966 0.12490413 -0.15774673 0.26098692 -0.1310748
-0.13027789 0.32323554 0.28012982 -0.16433957 0.01544686 0.20194376 0.11011864 -0.03516435
0.2706309 0.28196084 0.23684806 0.0025534679 -0.043277375 0.14757797 0.13970304 0.08505109
0.06094994 0.21828638 0.2077082 0.2859772 -0.11863548 0.20349868 -0.10448831 0.077611245
0.07869152 -0.09903111 -0.00064241345 -0.13933039 0.14747764 0.0049623717 0.039216813 0.15833682
00000000: dc19 15be 208a c9bd 1ba4 a23d da85 fb3c
00000010: 75a9 413e a6cd d3bc 017d 37be da79 5abd
00000020: 669f 21be 00b3 353e dc4f 29bd 6f45 90bc
00000030: bae0 833d 04c6 62be 9481 463e 4536 f13d
00000040: 1ccc 903e cf8a 2dbe e54a 3b3e 1713 27be
00000050: 7606 54bd e7c7 4a3d 3310 2d3e 9584 30be
00000060: c9ce 253e bafb 73be bf10 1cbe 985f ed3b
00000070: 4299 dc3c e052 033e ea87 433e b9d3 20bc
00000080: 54c4 f6bd 07ae ca3d 9c07 87bd da6f 9fbd
00000090: 5e04 8d3e 2734 08be 474d a93d f954 8b3e
000000a0: ea29 223e ac58 6b3e 128b 8e3e 4118 f63d
000000b0: bef6 04be e217 6b3e 72d2 15be 7381 713e
000000c0: d76c 5f3e d1c5 eabd ddb0 4c3e 91e5 f8bd
000000d0: d600 55bb 5af7 d1bd 3b39 663e 58c3 5ebe
000000e0: 2660 983e a850 42be c484 4c3e 7bb5 3ebe
000000f0: f738 2e3d 8098 7bbc 03c1 4d3e 8a92 bbbd
00000100: 0f50 1a3d 88aa a0bc e6ec 51be da21 e4bc
00000110: 9a6f 0c3e ded2 c5bd 1094 623e e09a 5b3b
00000120: 6425 a23b dbbc 8a3d ba8c 923d ccff cb3d
00000130: b406 8d3e 1978 143e 0277 493e 613b 49bd
00000140: 1eaf c23d f74d 61be e96b 2a3d d199 4a3e
00000150: 3044 8b3e 1d98 f9bd 74ea f23d 428c 683e
00000160: bdcc 1e3e a5a9 7fbd 3cee 07be 510c 593e
00000170: 4634 0e3e 539f bebd 0dad 583e 747f 173e
00000180: 54d6 18bd 92f5 8b3e feaf ef3d 6eea 893d
00000190: 7e0b 04bc 9367 fe3d 0f82 923e 3691 4c3c
000001a0: 8344 843e 4c5e 2a3e 7f8c 693e c7d4 413e
000001b0: 51de b23d 91d3 bc3b a360 64be 96fd 8f3e
000001c0: 0f0b 6cbe 03ea 733e 47b7 933e 1a8d 473e
000001d0: a3ec 4cbd cc49 07be 4678 3e3e a5b9 1b3e
000001e0: 34cc 3bbe cffc 633e bafb 9bbd 014e 4f3e
000001f0: 8cf5 653e e04f 983c b657 0739 75b0 7a3d
00000200: dabe bcbd 4934 8c3e 9d80 563c 8334 04be
00000210: 9d47 4e3d 8b1f 7bbd 86d6 883e 058e 303e
00000220: 21f2 8e3d 82a0 07be 2ad4 453e 6acd a03d
00000230: 1f22 bbbc 41f8 653e 5028 2c3e 8b25 8d3d
00000240: a740 b6bd 4114 2a3e 5a39 b83d f44b 303e
00000250: 075b 0cbe d1cb 173d c788 cbbc 9878 863e
00000260: 72f6 8d3e 957f 413e f75c 1abd b745 4bbe
00000270: 86f1 38be a548 793e 6477 0abe 2efd 33bd
00000280: d518 4bbd 6496 753c eacc 99bd 2523 51be
00000290: e2a3 a63a b91a 403e d7f1 31be c633 dcbb
000002a0: 19c9 d0bd 222f 163e 57aa 14bd f927 b73d
000002b0: 9ffa 513e 470a 953a 6919 27be c956 5a3e
000002c0: 9b7d 683e 9a52 ac3e 88bf 703e f382 6e3d
000002d0: 0d57 193c 77b5 a83e 57bc b8bd 0a19 583e
000002e0: 003f 7e3e 9e75 16be d5fe 233e 2a54 73bd
000002f0: d88d 6dbe bb48 cc3d f3a8 00be 42df 023e
00000300: da4f d8bd fb75 273d 8909 093e 529a 68bd
00000310: e7b4 e23c e533 163e 192d 5d3e e1a0 c5bd
00000320: f1ae 12bd 24a1 37be 95e0 843e e98a 8ebd
00000330: 5b39 bd3e 6314 a2bd e372 42be 9940 ff3d
00000340: 740c adbc c9ab 343e facd 743d 3f76 823e
00000350: 2d39 5e3e 6e8e 053e a07d 083e 1d29 003e
00000360: d662 863b 9591 083e 7014 363e ffe7 973d
00000370: bdcd ff3d 5c88 21be 14a0 853e 7938 06be
00000380: 9167 05be 217f a53e 2d6d 8f3e a248 28be
00000390: d414 7d3c 58ca 4e3e e285 e13d 7e08 10bd
000003a0: 2290 8a3e 2c5d 903e 4c88 723e 1558 273b
000003b0: 9e43 31bd ae1e 173e 500e 0f3e 442f ae3d
000003c0: a5a6 793d 7786 5f3e 75b1 543e 9b6b 923e
000003d0: 29f7 f2bd f561 503e f8fd d5bd a5f2 9e3d
000003e0: 0529 a13d d3d0 cabd a367 28ba a0ac 0ebe
000003f0: 6104 173e 649b a23b cfa1 203d 0c23 223e

a2c_network.actor_mlp.2.weight f4 [128, 256]
0.096587375 0.030205134 -0.07759587 -0.042465474 -0.0656188 0.014488191 -0.17110643 -0.034960758
-0.051441833 0.10685156 0.011568838 -0.056220725 0.12417368 -0.15163577 0.031834908 0.041543238
-0.0073046163 0.0773017 0.040851034 -0.034632515 0.036116466 -0.05468282 0.12533838 0.21134174
0.047025252 0.030532233 0.069162115 -0.0843968 -0.06480225 0.026045725 0.09142458 0.02692549
0.1164273 0.05606382 -0.028677644 -0.11979696 -0.11695197 -0.048692305 0.070611216 0.006667482
0.11282777 -0.113272935 -0.059032127 0.11400302 -0.012657332 -0.013918815 -0.1253961 0.020182917
0.052922912 0.0066577774 -0.106052525 0.06334097 -0.105076246 -0.00027111557 -0.10483989 0.015587347
-0.16755207 0.08737007 0.017720543 0.25060478 0.009219603 0.19790617 -0.013690336 0.20120929
0.01561029 -0.036807925 0.010042045 -0.014859311 -0.025297947 -0.13404183 -0.07527438 0.021605993
-0.05728793 0.07925261 0.02546719 -0.061657682 -0.022262437 -0.16325788 -0.11361058 -0.08139707
-0.01937847 0.0792716 -0.0029044035 -0.1363826 -0.14570393 0.013414013 -0.12283699 0.0033349567
-0.024063211 -0.009311902 0.07587296 -0.0030399717 -0.10907247 -0.014966444 0.1182409 0.03170842
-0.022472521 -0.04505453 -0.06819532 0.19385476 -0.0043330994 -0.071856774 -0.13771465 0.14792469
-0.0850377 0.0863467 -0.043553475 -0.06379368 0.035981312 -0.19868995 0.048552454 0.024730055
0.1374614 -0.05083113 -0.18851854 -0.045163568 -0.12575953 -0.07395422 0.052123223 -0.04760217
0.037296813 -0.046959195 -0.025706083 -0.15459165 -0.010492532 0.11727565 -0.023511332 0.16244115
-0.006933204 -0.07785138 -0.2530829 0.12530485 -0.04572953 -0.16580775 0.10809633 0.007693007
-0.10997056 -0.115955815 -0.08432636 -0.10473151 -0.16399962 -0.09150482 -0.026775446 0.11632185
-0.023733445 -0.073634245 -0.03960226 0.07063217 -0.09507048 -0.05985119 0.058431227 -0.07522189
-0.06809013 -0.023819027 -0.0718251 -0.026231674 0.08291965 0.03171904 0.18079889 0.035116218
0.09118463 -0.14730144 -0.09843033 -0.008669293 -0.0117013715 -0.11792398 0.05879242 0.04674047
-0.08326763 0.111512676 -0.13906021 0.08998095 0.018772481 -0.1639592 -0.061935592 0.10042637
0.046576153 -0.103193544 0.06852202 -0.13281053 0.020409396 0.04691735 -0.17308855 -0.044874202
0.057245225 0.051216025 0.06922528 0.035230506 0.115572855 -0.106012106 -0.10201448 0.14722306
-0.047577232 0.028933462 -0.13377465 -0.040054113 0.048437286 -0.11092347 -0.15689233 0.030715674
0.13370152 -0.02767728 -0.18997224 -0.16530381 -0.07422429 0.038215097 -0.16487853 0.09902212
0.08242756 0.041306954 -0.06408189 0.049539976 -0.097378425 -0.07618896 0.05988361 -0.018319946
0.055637848 0.0956639 -0.086069524 -0.05807659 -0.048367128 0.09581131 -0.022603044 -0.06690414
0.011750319 -0.12810883 0.017621009 -0.08524508 0.09921126 -0.13202642 -0.010865944 0.045106128
-0.010093126 0.12432533 0.054278955 0.13694017 -0.068038136 0.045159057 0.17228726 -0.14877437
0.02499022 0.0564277 -0.06572908 -0.050235253 -0.047489755 -0.014162103 0.19600745 0.0043780264
0.06600198 -0.0110084945 -0.004180017 0.011599693 0.041212194 0.029247057 0.026097298 0.22005838
00000000: 9acf c53d c270 f73c 95ea 9ebd 47f0 2dbd
00000010: 2663 86bd e15f 6d3c 8636 2fbe 0333 0fbd
00000020: acb4 52bd fed4 da3d 398b 3d3c b447 66bd
00000030: c54e fe3d 6846 1bbe 5265 023d 3e29 2a3d
00000040: 905b efbb 5b50 9e3d 6a53 273d d3da 0dbd
00000050: dcee 133d 18fb 5fbd b458 003e f869 583e
00000060: 8d9d 403d bc1e fa3c dea4 8d3d 3bd8 acbd
00000070: 0bb7 84bd d85d d53c cf3c bb3d d892 dc3c
00000080: 7071 ee3d 2da3 653d 61ed eabc 1c58 f5bd
00000090: 8484 efbd 9571 47bd 9d9c 903d e57a da3b
000000a0: 3f12 e73d a4fb e7bd accb 71bd 6a7a e93d
000000b0: b360 4fbc be0b 64bc d667 00be a556 a53c
000000c0: b2c5 583d 7c29 da3b 1132 d9bd e9b8 813d
000000d0: 3732 d7bd 8424 8eb9 4cb6 d6bd 1262 7f3c
000000e0: c592 2bbe 14ef b23d ac2a 913c 454f 803e
000000f0: d10d 173c eaa7 4a3e 6e4d 60bc cf09 4e3e
00000100: 4dc2 7f3c e8c3 16bd 6487 243c 7874 73bc
00000110: a43d cfbc 4342 09be 7429 9abd 0dff b03c
00000120: c0a6 6abd 314f a23d 92a0 d03c c48c 7cbd
00000130: b75f b6bc 132d 27be aaac e8bd 82b3 a6bd
00000140: 99bf 9ebc 2659 a23d ce57 3ebb e1a7 0bbe
00000150: 6933 15be 73c6 5b3c f691 fbbd 4a8f 5a3b
00000160: 3620 c5bc f390 18bc 4863 9b3d 433a 47bb
00000170: 6361 dfbd d135 75bc 4928 f23d b0e0 013d
00000180: 4b18 b8bc 198b 38bd fda9 8bbd dd81 463e
00000190: acfc 8dbb a529 93bd 1205 0dbe 9279 173e
000001a0: 3f28 aebd 8ad6 b03d 2165 32bd 43a6 82bd
000001b0: 2461 133d 6175 4bbe f0de 463d af96 ca3c
000001c0: aec2 0c3e 4e34 50bd 010b 41be 6ffd 38bd
000001d0: 1bc7 00be 4f75 97bd 297f 553d 7efa 42bd
000001e0: 8bc4 183d 4958 40bd 9095 d2bc 464d 1ebe
000001f0: dee8 2bbc 372e f03d d69a c0bc f956 263e
00000200: ee2f e3bb 8b70 9fbd 1594 81be ea4f 003e
00000210: e34e 3bbd 82c9 29be 9c61 dd3d 9f15 fc3b
00000220: 3f38 e1bd 3e7a edbd 4cb3 acbd 797d d6bd
00000230: 84ef 27be e166 bbbd 2e58 dbbc 263a ee3d
00000240: a46c c2bc 8dcd 96bd fb35 22bd 99a7 903d
00000250: 50b4 c2bd 8526 75bd 9555 6f3d ef0d 9abd
00000260: d772 8bbd 1f20 c3bc 0a19 93bd cfe3 d6bc
00000270: c7d1 a93d d3eb 013d 5823 393e 06d6 0f3d
00000280: 02bf ba3d 30d6 16be d795 c9bd a609 0ebc
00000290: 1cb7 3fbc 2182 f1bd 52d0 703d ef72 3f3d
000002a0: 3888 aabd c260 e43d cd65 0ebe ef47 b83d
000002b0: bfc8 993c ece4 27be 2db0 7dbd 57ac cd3d
000002c0: a3c6 3e3d 2357 d3bd 4655 8c3d 7cff 07be
000002d0: 9b31 a73c 682c 403d 203e 31be 03ce 37bd
000002e0: f879 6a3d e5c7 513d fcc5 8d3d dd4d 103d
000002f0: 76b1 ec3d e01c d9bd f8ec d0bd a4c1 163e
00000300: 58e0 42bd de05 ed3c 39fc 08be c80f 24bd
00000310: 2d66 463d d82b e3bd 62a8 20be 709f fb3c
00000320: 0de9 083e 77bb e2bc 1588 42be 6745 29be
00000330: e802 98bd 6f87 1c3d ebd5 28be 1ccc ca3d
00000340: c8cf a83d 7b31 293d 5e3d 83bd 6eea 4a3d
00000350: 576e c7bd f508 9cbd 8448 753d b613 96bc
00000360: 83e4 633d 6feb c33d 3845 b0bd b8e1 6dbd
00000370: 9c1c 46bd b838 c43d 052a b9bc 0a05 89bd
00000380: 6984 403c f62e 03be ef59 903c f994 aebd
00000390: 462f cb3d ef31 07be 1307 32bc 34c1 383d
000003a0: a45d 25bc 479e fe3d 9c53 5e3d 0b3a 0c3e
000003b0: 9457 8bbd b4f8 383d 126c 303e 4f58 18be
000003c0: 4ab8 cc3c bb20 673d f89c 86bd 7bc3 4dbd
000003d0: 9e84 42bd 2a08 68bc 2db6 483e 8c75 8f3b
000003e0: 0c2c 873d f95c 34bc 86f8 88bb a40c 3e3c
000003f0: 1ece 283d 8697 ef3c 00ca d53c fc56 613e

a2c_network.actor_mlp.2.bias f4 [128]
-0.14365856 -0.05916968 -0.0869495 -0.08801264 -0.011155391 -0.11190763 -0.24777949 -0.17548506
-0.2586828 -0.2694763 -0.028533176 -0.12457715 -0.22257936 0.06852476 -0.03633963 0.03743642
-0.014101042 -0.21702813 -0.13080645 0.1061484 -0.059166897 -0.19005167 -0.044221327 -0.17542939
0.03826082 -0.161625 -0.05252395 0.06945655 -0.03576703 -0.06872073 0.072563484 0.16446386
-0.25963968 -0.13864912 0.16162337 0.047167357 -0.16772631 -0.08824843 0.07590686 0.0830872
0.020793851 0.037289213 -0.26570588 -0.23131289 -0.16204402 -0.032486808 -0.0667595 -0.1808192
-0.11746988 -0.014541171 -0.06585184 -0.072217986 -0.15765789 -0.2734285 0.056523062 0.029448137
0.045398384 -0.004653343 -0.08248347 0.04534505 0.033121128 -0.03636574 -0.062036686 -0.1130841
0.0521883 0.055089053 -0.07507719 -0.20075314 -0.040243264 0.06367591 -0.06386431 -0.010816412
-0.13333592 0.0067586103 -0.112964794 0.09466336 -0.0058418023 -0.05489021 -0.226977 0.025335303
-0.18016188 -0.21277434 -0.24650778 -0.02683366 -0.01977913 0.011779566 -0.07466313 -0.17524543
-0.07967125 -0.1104016 0.07366688 -0.07773293 -0.041473553 -0.12394634 -0.041967798 0.03645365
0.036002066 -0.029849885 0.087004274 -0.24476857 -0.16282608 -0.09177278 -0.14848356 -0.12294507
-0.04437763 0.083481096 -0.17616077 0.11516308 -0.049959272 -0.052496776 -0.20933492 -0.06510317
-0.04612912 -0.00783834 0.11101323 -0.24665648 -0.1778878 0.030499142 -0.040861484 0.15249027
-0.13421291 -0.020104535 -0.1705713 0.02138583 -0.085102215 -0.16112222 -0.07189725 -0.18130918
00000000: 3b1b 13be e85b 72bd 9412 b2bd f93f b4bd
00000010: 1ac5 36bc d42f e5bd e8b9 7dbe 5bb2 33be
00000020: 1272 84be ccf8 89be 68be e9bc 4e22 ffbd
00000030: d8eb 63be b656 8c3d ddd8 14bd ee56 193d
00000040: 0f08 67bc 9f3c 5ebe 20f2 05be 5564 d93d
00000050: fd58 72bd e89c 42be 6c21 35bd c3a3 33be
00000060: 61b7 1c3d 0681 25be 5a23 57bd 3c3f 8e3d
00000070: 7380 12bd 74bd 8cbd 2a9c 943d 3769 283e
00000080: 7eef 84be 09fa 0dbe 9980 253e 8f32 413d
00000090: 72c0 2bbe 98bb b4bd 0e75 9b3d 9f29 aa3d
000000a0: de57 aa3c 93bc 183d 9a0a 88be 49dd 6cbe
000000b0: deee 25be e310 05bd 34b9 88bd ab28 39be
000000c0: 0c94 f0bd 173e 6ebc 54dd 86bd 06e7 93bd
000000d0: 1271 21be d2fe 8bbe ba84 673d 383d f13c
000000e0: a8f3 393d 127b 98bb 18ed a8bd bbbb 393d
000000f0: 05aa 073d 3ef4 14bd 2e1a 7ebd a398 e7bd
00000100: 66c3 553d 0fa5 613d 12c2 99bd 3b92 4dbe
00000110: 1fd6 24bd 8468 823d 4bcb 82bd 5237 31bc
00000120: 3689 08be 5577 dd3b 165a e7bd ddde c13d
00000130: 976c bfbb 8fd4 60bd a96c 68be fb8b cf3c
00000140: 5b7c 38be 84e1 59be 896c 7cbe 44d2 dbbc
00000150: d807 a2bc 15ff 403c fce8 98bd 8a73 33be
00000160: ae2a a3bd 3c1a e2bd a9de 963d 7132 9fbd
00000170: 2ce0 29bd 94d7 fdbd 6de6 2bbd 6c50 153d
00000180: e776 133d bf87 f4bc 4c2f b23d 9da4 7abe
00000190: e1bb 26be 5ef3 bbbd 130c 18be a0ca fbbd
000001a0: 51c5 35bd 23f8 aa3d 7d63 34be 9fda eb3d
000001b0: 18a2 4cbd dc06 57bd e55b 56be d054 85bd
000001c0: e3f1 3cbd 616c 00bc e85a e33d 8493 7cbe
000001d0: 3828 36be 56d9 f93c 5f5e 27bd 6926 1c3e
000001e0: 1c6f 09be 44b2 a4bc 3eaa 2ebe 5631 af3c
000001f0: 124a aebd 39fd 24be de3e 93bd 1da9 39be

a2c_network.actor_mlp.4.weight f4 [64, 128]
0.06334941 -0.017256653 0.06540696 -0.030035634 0.07314763 -0.082985155 0.0047897296 -0.014804514
0.16297622 0.11021436 -0.1626848 -0.011964039 0.10382008 0.065729044 -0.04189161 0.033478435
-0.12766135 0.038510833 -0.017999828 -0.16547756 0.0056499983 0.14764056 0.04438438 -0.029270101
-0.071704805 -0.07100424 0.08110173 -0.09650539 -0.04902047 -0.06476048 -0.1904275 0.026911033
-0.03404514 -0.12174708 -0.09325561 -0.0069704354 0.042893887 -0.110431366 -0.03205391 -0.13137448
-0.1256986 0.078356266 0.11732643 -0.027604098 -0.100338124 0.022980385 0.091157466 -0.054817796
-0.034784097 -0.21750198 0.06688989 -0.027139617 0.023839442 0.14521588 -0.042009126 -0.07534841
0.054750733 -0.15734892 -0.008415951 0.086197525 -0.0785719 -0.025429877 0.09074666 0.05113845
-0.07146814 -0.13306908 -0.059430137 0.065600365 -0.09954344 -0.16735275 -0.03292115 -0.0055736364
-0.05803116 0.03853954 0.052653845 -0.043748 -0.029380534 -0.01840685 -0.026389312 0.0039696875
-0.15687218 -0.04900981 -0.16178772 -0.04284634 -0.064627364 -0.01696316 0.0348246 0.13157146
-0.0053107245 -0.0906563 0.0016654643 -0.078536496 0.12641604 0.03548295 0.09125903 -0.06283654
-0.18279333 -0.09166677 0.053358972 -0.033531256 0.06608486 -0.089310855 0.05506971 -0.21790272
0.069259904 -0.024951749 0.08326963 -0.0011063182 -0.005656581 0.05670318 -0.05943167 -0.03375102
-0.0033026421 0.0102106305 -0.037496347 -0.040075283 -0.013974325 -0.11736255 -0.03506035 0.04648864
-0.037867364 0.040575147 0.016969169 0.015852451 -0.12235066 0.11621528 -0.03829706 -0.11872062
-0.055662636 -0.02285456 0.093225606 -0.004520366 0.17221394 -0.09573535 -0.03160568 0.107397735
0.0019715324 -0.10248309 0.15957049 -0.045951437 0.033115413 0.01873748 -0.06983736 -0.11653122
0.011482123 0.053104218 0.041646034 0.06956187 0.09745497 -0.031603273 -0.08819884 0.12267422
0.11361628 -0.097042084 -0.03748823 -0.119618624 0.060092136 0.16226263 -0.069154955 0.028707959
0.113725916 0.038722783 0.012205059 -0.12864274 0.043973997 -0.21582301 -0.002155445 -0.03452555
-0.028062444 -0.06715083 0.039769385 -0.011366416 0.055290245 -0.11571561 -0.031200208 -0.04610707
0.045415185 0.033728175 -0.053240664 0.02849726 0.12181722 0.07015312 -0.16556151 -0.029665159
-0.026909005 0.06865091 0.06596104 -0.10256946 0.13740858 -0.08048103 0.11120598 0.09804016
0.10976947 0.19560015 -0.11588831 0.016770393 -0.042800393 0.10103368 -0.08680132 -0.076279834
0.08476366 0.07103215 -0.05792834 0.008737305 -0.16991933 0.011517941 -0.01701183 -0.0048062243
-0.03796576 -0.06449038 0.078207105 -0.09813891 -0.04088564 -0.04248869 -0.066868186 -0.09722174
-0.052771777 -0.04327365 -0.04073592 0.11490386 0.018215254 -0.016868444 0.0948642 -0.14114247
-0.27954563 0.05547001 0.098858215 0.1394237 -0.02413087 0.060227066 -0.07056211 -0.129395
0.06694939 -0.0961203 -0.06484642 -0.14778233 0.19395103 0.1344469 -0.048637383 -0.019071223
-0.1324303 -0.11022296 0.012269536 0.060242 0.07158446 -0.029373875 -0.013940112 0.036428824
-0.15612265 -0.11792488 -0.040630743 -0.14902727 0.009655048 0.026103355 0.20676173 -0.06080789
00000000: 56bd 813d d35d 8dbc 16f4 853d 4a0d f6bc
00000010: 6dce 953d 1ff4 a9bd 2af3 9c3b a28e 72bc
00000020: 3de3 263e 11b8 e13d d896 26be d104 44bc
00000030: 9f9f d43d f39c 863d 8996 2bbd af20 093d
00000040: a8b9 02be 89bd 1d3d 6074 93bc f372 29be
00000050: 9f23 b93b 162f 173e 65cc 353d dac7 efbc
00000060: f8d9 92bd ac6a 91bd aa18 a63d 9ea4 c5bd
00000070: b0c9 48bd 24a1 84bd 6dff 42be 8774 dc3c
00000080: eb72 0bbd 8856 f9bd ccfc bebd 4068 e4bb
00000090: 80b1 2f3d d729 e2bd f64a 03bd 0887 06be
000000a0: 22b7 00be 4079 a03d d748 f03d fd21 e2bc
000000b0: 137e cdbd 5c41 bc3c c4b0 ba3d a088 60bd
000000c0: c579 0ebd d7b8 5ebe 91fd 883d e753 debc
000000d0: ef4a c33c 79b3 143e c311 2cbd 4450 9abd
000000e0: 4e42 603d 1320 21be 0fe3 09bc 5488 b03d
000000f0: 4eea a0bd 5152 d0bc 63d9 b93d 8d76 513d
00000100: e35d 92bd 4343 08be 046d 73bd 7c59 863d
00000110: 6edd cbbd 855e 2bbe 54d8 06bd 0da3 b6bb
00000120: 15b2 6dbd a3db 1d3d 8fab 573d 1a31 33bd
00000130: 72af f0bc f6c9 96bc 662e d8bc 2714 823b
00000140: 1aa3 20be 83be 48bd aeab 25be a57f 2fbd
00000150: 5a5b 84bd 53f6 8abc 3da4 0e3d abba 063e
00000160: 9605 aebb 03aa b9bd b54b da3a bed7 a0bd
00000170: 3573 013e 9256 113d 04e6 ba3d 72b0 80bd
00000180: 2d2e 3bbe cabb bbbd f08e 5a3d 1258 09bd
00000190: 8057 873d 9ce8 b6bd c790 613d e421 5fbe
000001a0: 23d8 8d3d 9c67 ccbc 4589 aa3d e101 91ba
000001b0: d75a b9bb 9841 683d 9f6e 73bd 823e 0abd
000001c0: 2471 58bb 7d4a 273c c595 19bd fb25 24bd
000001d0: 91f4 64bc c75b f0bd 719b 0fbd df6a 3e3d
000001e0: cf1a 1bbd 2032 263d ed02 8b3c 00dd 813c
000001f0: fc92 fabd 4702 ee3d 61dd 1cbd cc23 f3bd
00000200: 81fe 63bd 7c39 bbbc 11ed be3d 941f 94bb
00000210: da58 303e e510 c4bd f574 01bd 58f3 db3d
00000220: d334 013b a7e2 d1bd 7266 233e 9337 3cbd
00000230: 07a4 073d 587f 993c e406 8fbd eca7 eebd
00000240: 841f 3c3c cf83 593d 0895 2a3d 7476 8e3d
00000250: 7996 c73d 6f72 01bd 98a1 b4bd 9f3c fb3d
00000260: a7af e83d 00be c6bd 428d 19bd 9cfa f4bd
00000270: 2c23 763d 2d28 263e 1da1 8dbd f42c eb3c
00000280: 22e9 e83d c89b 1e3d baf7 473c ecba 03be
00000290: 141e 343d b500 5dbe 5e42 0dbb aa6a 0dbd
000002a0: 36e3 e5bc 6086 89bd 39e5 223d 343a 3abc
000002b0: 0678 623d 4efc ecbd 9497 ffbc c4da 3cbd
000002c0: 4605 3a3d 8e26 0a3d e212 5abd 1673 e93c
000002d0: 4e7b f93d 70ac 8f3d f588 29be 5904 f3bc
000002e0: 4670 dcbc d998 8c3d 9516 873d f00f d2bd
000002f0: d6b4 0c3e 3dd3 a4bd f6bf e33d 48c9 c83d
00000300: d1ce e03d 684b 483e da56 edbd 1062 893c
00000310: 774f 2fbd bfea ce3d e4c4 b1bd 9a38 9cbd
00000320: 9298 ad3d 4e79 913d 4446 6dbd ea26 0f3c
00000330: 55ff 2dbe bfb5 3c3c 655c 8bbc 887d 9dbb
00000340: fc81 1bbd 8813 84bd 0c2b a03d 0efd c8bd
00000350: b377 27bd 9f08 2ebd 30f2 88bd 311c c7bd
00000360: 3827 58bd b63f 31bd b5da 26bd b752 eb3d
00000370: 2838 953c b12f 8abc 2948 c23d a787 10be
00000380: 9b20 8fbe 8534 633d 2d76 ca3d 16c5 0e3e
00000390: 1aae c5bc a8b0 763d de82 90bd 1f80 04be
000003a0: c31c 893d b8da c4bd 33ce 84bd 4054 17be
000003b0: 199b 463e 73ac 093e fe37 47bd 413b 9cbc
000003c0: cf9b 07be 93bc e1bd 2a06 493c 51c0 763d
000003d0: e09a 923d 7ba1 f0bc 1165 64bc 6436 153d
000003e0: 9ede 1fbe 9982 f1bd 6c6c 26bd 9b9a 18be
000003f0: 3530 1e3c b4d6 d53c 59b9 533e b211 79bd

a2c_network.actor_mlp.4.bias f4 [64]
-0.056523122 -0.0077920216 0.019521058 0.073557355 -0.08223903 -0.0047022537 0.035341855 -0.06361123
-0.07526714 -0.119707026 0.074884854 -0.075023495 -0.014270721 0.055520207 -0.027318574 0.066683464
-0.04772787 -0.038581442 -0.12833148 -0.0642161 0.057307128 -0.066032276 0.064300574 0.033433992
-0.04047326 -0.116815686 -0.040531702 -0.11609547 -0.07841049 0.024324985 0.057276957 -0.13355769
0.07390672 0.10367918 -0.20571725 -0.11526176 -0.0703313 0.09791018 0.055569127 -0.1624194
0.098157644 -0.09668751 -0.056000557 -0.13687813 0.06816823 -0.080793686 -0.028617261 -0.06537241
-0.015555899 -0.002217263 0.001797399 -0.0892458 -0.04192387 0.11451026 0.030503329 -0.03400118
-0.048129816 -0.14758736 0.004555273 -0.14791812 -0.11474067 -0.08090037 -0.086357094 -0.043790683
00000000: ca84 67bd 3754 ffbb a0ea 9f3c 3da5 963d
00000010: f06c a8bd 5d15 9abb 9fc2 103d 9b46 82bd
00000020: a925 9abd f528 f5bd 3b5d 993d eba5 99bd
00000030: becf 69bc 2869 633d 34cb dfbc 5791 883d
00000040: 4d7e 43bd 9307 1ebd 5469 03be bb83 83bd
00000050: e1ba 6a3d ee3b 87bd 05b0 833d 15f2 083d
00000060: 4ac7 25bd 103d efbd 9204 26bd 76c3 edbd
00000070: ae95 a0bd 3145 c73c 3e9b 6a3d 59c3 08be
00000080: 685c 973d c055 d43d 8ba7 52be 5c0e ecbd
00000090: db09 90bd 2285 c83d 749c 633d 4551 26be
000000a0: e006 c93d 1a04 c6bd d760 65bd c829 0cbe
000000b0: c99b 8b3d 2977 a5bd bf6e eabc f8e1 85bd
000000c0: 2bde 7ebc 804f 11bb b496 eb3a 81c6 b6bd
000000d0: 5db8 2bbd 5b84 ea3d 1ee2 f93c d244 0bbd
000000e0: c523 45bd 2421 17be 6644 953b d977 17be
000000f0: 28fd eabd 18af a5bd fddb b0bd dc5d 33bd

a2c_network.value.weight f4 [1, 64]
-0.018769734 -0.010423856 0.021472497 0.0902408 -0.07144067 0.0025386708 0.006704677 -0.0033023362
-0.0093978625 -0.037424657 0.31582272 -0.03289827 0.01869674 0.006264918 0.017762573 0.14745884
0.0025985173 -0.0014018532 -0.13226807 -0.035122737 -7.63713e-05 -0.015388555 -0.002498143 0.0012133034
0.011346708 0.042176947 0.016214175 -0.057682853 -0.0038495618 0.0076331305 0.22931969 -0.0754258
0.1034511 0.22848026 -0.048555803 -0.075395964 -0.06662362 0.08886088 -0.0002382784 -0.020874895
0.2249288 -0.007603492 -0.056486893 0.038145438 0.069155484 -0.021240639 0.004598635 -0.013399372
-0.04422022 0.0009964469 0.009663298 -0.0035297885 -0.026121592 0.16811714 0.06550363 0.01701014
-0.023426946 -0.022357667 0.0279908 0.0215921 -0.013372371 -0.019823357 0.02009074 0.002637175
00000000: fcc2 99bc d2c8 2abc 17e7 af3c 2bd0 b83d
00000010: 7c4f 92bd d45f 263b e8b2 db3b 026c 58bb
00000020: 7ef9 19bc 994a 19bd 84b3 a13e 56c0 06bd
00000030: e829 993c f149 cd3b d182 913c 73ff 163e
00000040: e34b 2a3b 63be b7ba 4871 07be dcdc 0fbd
00000050: 8829 a0b8 4720 7cbc e2b7 23bb b507 9f3a
00000060: 8be7 393c bcc1 2c3d 97d3 843c db44 6cbd
00000070: ee48 7cbb 571f fa3b c8d2 6a3e d878 9abd
00000080: 2cde d33d bbf6 693e 73e2 46bd 3369 9abd
00000090: f771 88bd b1fc b53d 5fda 79b9 d401 abbc
000000a0: bc53 663e b726 f9bb cd5e 67bd 643e 1c3d
000000b0: 64a1 8d3d d900 aebc 25b0 963b 0a89 5bbc
000000c0: 4320 35bd 369b 823a cf52 1e3c 0654 67bb
000000d0: f3fc d5bc e626 2c3e c426 863d d958 8b3c
000000e0: dee9 bfbc 6d27 b7bc f64c e53c eae1 b03c
000000f0: ca17 5bbc 9864 a2bc 5695 a43c 74d4 2c3b

a2c_network.mu.weight f4 [12, 64]
-0.0026375873 -0.015575032 0.21920119 -0.12210108 -0.03179733 -0.0927565 0.06687099 0.003527776
-0.020434909 0.04519717 0.19055027 -0.08020779 0.14028433 -0.11329786 0.07441959 -0.019063069
0.07797631 -0.14179206 -0.06640005 0.034523197 0.11314292 0.0041658115 -0.04349237 -0.28424382
0.0478083 -0.045020394 0.023784647 -0.06876812 -0.010040104 -0.058183834 0.034663923 0.0155061865
0.0495193 -0.14448391 -0.02492764 0.035170496 0.061308917 0.012702574 -0.16076411 0.0642597
0.072402336 0.20423134 0.04220227 -0.019703038 0.011240444 -0.06082608 0.10206621 0.034115303
-0.047545798 0.15705621 0.04106219 0.09330635 0.112532154 0.00081788865 0.018668111 -0.05403962
-0.08858119 -0.12019595 -0.009722553 -0.09664102 -0.23967956 0.06280958 -0.08895076 -0.21707025
0.000857535 -0.10194782 0.20598978 0.18184318 -0.013107417 -0.09897861 0.08663806 0.0018686793
0.023779998 -0.12651703 -0.069933675 -0.022264 0.057160918 0.08748139 0.069806926 -0.008571672
-0.09645148 0.09439444 -0.045906365 -0.063742466 0.10263661 0.045515597 -0.009002647 0.06525993
0.021784717 0.0062781237 0.03291579 -0.08600183 0.14529033 -0.028486814 0.09856254 0.056957413
-0.033515234 -0.023391955 -0.11203558 0.022218212 0.07874426 -0.042064074 0.16982293 0.026324878
0.038765416 0.034087405 0.090597905 -0.051785585 -0.08026726 0.039902408 -0.19097187 0.15777916
0.15649328 -0.1447964 -0.13738321 0.22414634 -0.056072567 -0.11526947 -0.07689209 0.14237115
-0.07926718 0.15671253 -0.011595536 -0.072413124 -0.09834755 0.16734497 -0.113819905 0.028219605
0.14872679 0.015828757 0.034373876 -0.02066273 -0.003631584 0.056080837 0.0824705 0.19668719
-0.039902598 0.18319508 -0.15281998 0.057631243 0.05708825 0.1402369 0.17951035 -0.060974088
-0.072116524 0.056118406 0.042095203 0.053247076 -0.048526343 0.10404629 -0.09730214 0.050407246
0.059547953 -0.012733374 -0.07273707 0.016198017 -0.12409995 -0.24697655 -0.12539533 0.022603896
0.04355674 -0.053162932 0.09798937 0.054682888 -0.017477728 -0.18326771 -0.043069925 -0.15784214
0.062189486 -0.19035873 -0.0073879575 0.004177634 0.016925996 -0.10891179 -0.1974283 -0.117916256
0.023283767 0.14833876 0.09353542 0.054622453 -0.12621887 0.053750582 0.07928346 -0.0019964357
0.012579787 -0.17233123 0.08641957 -0.010628122 -0.12235299 -0.028573614 0.030756487 -0.07925844
0.13969931 -0.02004278 0.07051205 0.25402674 0.008604437 0.10310959 -0.085453816 0.042781323
0.05145261 -0.0045704274 -0.067268156 -0.034523975 0.029719397 0.022259597 0.03456773 -0.07337724
0.10662289 0.050276034 -0.042819716 0.02722552 0.075744264 -0.04770701 0.032797206 -0.052828
-0.09973048 0.12776768 0.13347319 0.16909853 0.055081535 -0.0054618227 -0.091308534 0.099507056
0.108085364 0.044654474 0.041378666 0.0032554278 0.12960185 -0.09743829 -0.09803277 0.17725244
0.12733728 -0.02619289 -0.035668816 0.014035795 -0.07432739 -0.10725653 -0.025662456 -0.041157026
0.041952085 0.049883984 0.053829838 0.03250233 -0.15373707 -0.13164365 -0.13576087 -0.035190545
0.09264714 0.0029040724 0.030357659 -0.06944908 -0.098453395 0.04090442 -0.013126467 -0.034767885
00000000: 5fdb 2cbb 6b2e 7fbc 4776 603e 2210 fabd
00000010: eb3d 02bd 1ff7 bdbd a8f3 883d 4332 673b
00000020: 1c67 a7bc ab20 393d 9c1f 433e fb43 a4bd
00000030: b2a6 0f3e b508 e8bd 4c69 983d 272a 9cbc
00000040: 0bb2 9f3d f031 11be c0fc 87bd 3268 0d3d
00000050: 7ab7 e73d 5c81 883b 0e25 32bd 6888 91be
00000060: a3d2 433d 4e67 38bd 05d8 c23c 4dd6 8cbd
00000070: 407f 24bc 2c52 6ebd c2fb 0d3d a90d 7e3c
00000080: c0d4 4a3d 97f3 13be 0d35 ccbc f00e 103d
00000090: 0f1f 7b3d 751e 503c 599f 24be 979a 833d
000000a0: ad47 943d 0522 513e 4adc 2c3d 4468 a1bc
000000b0: d729 383c c524 79bd 1708 d13d 7dbc 0b3d
000000c0: 62bf 42bd 58d3 203e d430 283d 6617 bf3d
000000d0: 4277 e63d 9467 563a deed 983c a658 5dbd
000000e0: 0e6a b5bd 4b29 f6bd 584b 1fbc baeb c5bd
000000f0: 8f6e 75be 4fa2 803d d12b b6bd aa47 5ebe
00000100: 33cc 603a 05ca d0bd fcee 523e 1935 3a3e
00000110: 7ec0 56bc 4cb5 cabd 4c6f b13d 79ee f43a
00000120: 45ce c23c ae8d 01be 6339 8fbd fe62 b6bc
00000130: 9121 6a3d 7129 b33d eff6 8e3d 3370 0cbc
00000140: 5b88 c5bd df51 c13d 5008 3cbd 698b 82bd
00000150: 2533 d23d 906e 3a3d d77f 13bc 00a7 853d
00000160: dd75 b23c b8b8 cd3b b5d2 063d ba21 b0bd
00000170: fdc6 143e 2e5d e9bc 28db c93d 2d4c 693d
00000180: 4547 09bd 7ca0 bfbc e972 e5bd f802 b63c
00000190: ac44 a13d 614b 2cbd 10e6 2d3e 45a7 d73c
000001a0: 7cc8 1e3d 3c9f 0b3d 658b b93d 1f1d 54bd
000001b0: 2963 a4bd b570 233d 218e 43be dc90 213e
000001c0: c63f 203e 8245 14be 2fae 0cbe 9e86 653e
000001d0: 59ac 65bd 6612 ecbd 9a79 9dbd bec9 113e
000001e0: d556 a2bd 4079 203e 34fb 3dbc 554d 94bd
000001f0: 716a c9bd 7b5c 2b3e 691a e9bd cd2c e73c
00000200: d64b 183e 4fab 813c 9fcb 0c3d e344 a9bc
00000210: dfff 6dbb 05b5 653d 4be6 a83d 5e68 493e
00000220: e870 23bd 7e97 3b3e d77c 1cbe bd0e 6c3d
00000230: 5ed5 693d 439a 0f3e 90d1 373e f7bf 79bd
00000240: d4b1 93bd 6adc 653d 056c 2c3d 9b19 5a3d
00000250: 8fc3 46bd 3916 d53d 5846 c7bd d477 4e3d
00000260: 8ee8 733d a49f 50bc 2cf7 94bd b4b1 843c
00000270: 1d28 febd 6ce7 7cbe a267 00be ce2b b93c
00000280: 8d68 323d 60c1 59bd a7ae c83d 2afb 5f3d
00000290: 742d 8fbc 88aa 3bbe 176a 30bd 5fa1 21be
000002a0: 67ba 7e3d 66ed 42be ae16 f2bb 89e4 883b
000002b0: 63a8 8a3c 250d dfbd a52a 4abe 147e f1bd
000002c0: 99bd be3c 1ee6 173e 808f bf3d cbbb 5f3d
000002d0: 853f 01be 9229 5c3d 5e5f a23d a2d6 02bb
000002e0: 731b 4e3c 9977 30be befc b03d 9321 2ebc
000002f0: 3494 fabd 3613 eabc 07f5 fb3c 4052 a2bd
00000300: 560d 0f3e c230 a4bc 9f68 903d cb0f 823e
00000310: a0f9 0c3c 1f2b d33d 6902 afbd 783b 2f3d
00000320: f9bf 523d 86c3 95bb e3c3 89bd 0369 0dbd
00000330: 1876 f33c c259 b63c e496 0d3d ce46 96bd
00000340: 1a5d da3d 3eee 4d3d ba63 2fbd 0e08 df3c
00000350: cf1f 9b3d 6d68 43bd 5d56 063d 2c62 58bd
00000360: 7e3f ccbd 88d5 023e 32ad 083e 2a28 2d3e
00000370: 2d9d 613d 17f9 b2bb f8ff babd 5bca cb3d
00000380: dc5b dd3d 9ce7 363d ad7c 293d 0459 553b
00000390: 59b6 043e ba8d c7bd 68c5 c8bd aa81 353e
000003a0: b464 023e 7992 d6bc 7719 12bd 64f6 653c
000003b0: f538 98bd 50a9 dbbd 123a d2bc 4594 28bd
000003c0: f3d5 2b3d 2653 4c3d ad7c 5c3d 2a21 053d
000003d0: 406d 1dbe 98cd 06be e604 0bbe f623 10bd
000003e0: c9bd bd3d 4052 3e3b a0b0 f83c 523b 8ebd
000003f0: efa1 c9bd 658b 273d 6510 57bc c568 0ebd

a2c_network.mu.bias f4 [12]
0.04511033 -0.0198728 -0.050645106 -0.015896725 -0.005640057 -0.06492239 0.14409913 0.02676379
0.051976472 -0.08610023 -0.12735051 0.04222084
00000000: 9cc5 383d 48cc a2bc 3e71 4fbd d939 82bc
00000010: 3ad0 b8bb 08f6 84bd b98e 133e bc3f db3c
00000020: 48e5 543d 5155 b0bd 2c68 02be c2ef 2c3d

exp_avg f4 [12]
0.0045268424 0.0012679693 -0.00029326932 0.0023434858 9.821475e-05 0.0020938395 0.0027671277 0.0050381566
0.002996376 -0.0016704008 -0.00022084203 0.0024108458
00000000: e855 943b fd31 a63a f1c1 99b9 2b95 193b
00000010: a4f8 cd38 cc38 093b b358 353b 1f17 a53b
00000020: d95e 443b 5af1 daba d591 67b9 48ff 1d3b

exp_avg_sq f4 [12]
5.0064475e-05 5.396734e-05 5.147547e-05 4.927575e-05 5.2004292e-05 5.1096325e-05 5.1115003e-05 4.9018676e-05
4.7444013e-05 5.3496882e-05 5.672674e-05 5.292387e-05
00000000: 52fc 5138 fd5a 6238 5de7 5738 6fad 4e38
00000010: 2f1f 5a38 4350 5638 5164 5638 6799 4d38
00000020: 9ffe 4638 d761 6038 e0ed 6d38 93fa 5d38
