OmniIsaacGymEnvs/omniisaacgymenvs/runs/Naranjelio/nn/last_Naranjelio_ep_50_rew_-1.0.pth (torch, 672251 bytes, 36 tensors)

value_mean_std.running_mean f8 [1]
0.08893415074361942
00000000: 3ffe f074 63c4 b63f

value_mean_std.running_var f8 [1]
0.002140665541807696
00000000: 00b4 cc0f 4d89 613f

value_mean_std.count f8 []
240001.0
00000000: 0000 0000 084c 0d41

running_mean_std.running_mean f8 [48]
-0.22071573495852576 -0.14193410485800795 -0.016724873208084894 -0.11475587732713487 0.15574892236593493 -0.10170781728394596 0.0327918148359511 -0.09025864077351622
-0.3030543834328695 0.26658101084967434 -0.033367813459156064 0.0008349463773383037 -0.5108867474112347 0.19076804227719024 -0.14581306323372628 0.14765005477363302
4.999958333680549 -4.999958333680549 -4.999958333680549 4.937493122921075 0.735240682417283 0.061363914228656134 0.8764230032572979 0.05422564430342961
-0.0062036763190080075 0.022810218028335286 -0.1247630714622953 0.02341779657029272 -0.018763953952839415 0.018887888404114112 0.03309745088579729 -0.5065351758004514
-0.049239393312437534 0.2324578352218186 -0.026509175642243293 -0.03939271389503291 0.18232255412691112 0.10209661971963413 -0.04456110168357669 0.0583316776013378
0.025261189825427025 0.03808800343101927 0.05188728956869595 -0.07164603802280385 -0.03570170955994402 0.0698654807155645 0.028493708949370034 -0.000646804085840711
00000000: 2e03 aec7 6940 ccbf ccad 4691 e52a c2bf
00000010: 7b79 d53d 5320 91bf 2fd2 2424 a460 bdbf
00000020: a776 f9a7 94ef c33f 586a fb04 8609 babf
00000030: f602 98b8 16ca a03f f2bc 4db6 301b b7bf
00000040: 4a3b 7036 3e65 d3bf ce5f d5cc a90f d13f
00000050: ef9a 1707 9615 a1bf 0af9 39b1 095c 4b3f
00000060: 03ea 022a 2f59 e0bf c8ea 5953 166b c83f
00000070: 428f f5a0 00aa c2bf b8af 406e 32e6 c23f
00000080: 1c15 d213 f5ff 1340 1c15 d213 f5ff 13c0
00000090: 1c15 d213 f5ff 13c0 07af 7c32 febf 1340
000000a0: 7278 b577 1787 e73f 5b83 8849 176b af3f
000000b0: 6478 0e41 a80b ec3f 5588 c6b1 76c3 ab3f
000000c0: a253 7bae 0669 79bf a40a c9d1 8f5b 973f
000000d0: 7bd7 adff 78f0 bfbf 18b8 a7b9 d5fa 973f
000000e0: 2fcd 48a2 db36 93bf f5d5 f1bb 5857 933f
000000f0: bf5b 452a 26f2 a03f 03c5 ca41 8935 e0bf
00000100: 5f52 e7df e735 a9bf 7303 fda7 2dc1 cd3f
00000110: 7b9c b5a9 3825 9bbf d97b c223 482b a4bf
00000120: d02d a66f 5856 c73f b85c ba0a 0123 ba3f
00000130: d833 cf74 b6d0 a6bf 1ab4 3c4f a6dd ad3f
00000140: 210e a2c0 11de 993f 125b 3652 4580 a33f
00000150: 831f 8d87 f890 aa3f 7d27 320e 6557 b2bf
00000160: b247 f195 7e47 a2bf 4eec ca42 b4e2 b13f
00000170: 9030 5170 742d 9d3f 862f a332 c931 45bf

running_mean_std.running_var f8 [48]
3.3681687261501776 4.119376742287465 4.067159281414625 7.8546547489994065 5.334032075543122 4.471234786714639 0.21880188759837552 0.18413209707469885
0.49812600555908204 5.10554938094882 1.1821041846586222 0.020704861956984125 0.26314783503112793 0.02962858409853333 10.818690120007552 0.02232701452454308
0.00021666312504398127 0.00021666312504398127 0.00021666312504398127 0.04971586375965369 0.3425267807844986 11.467816190573455 0.3560408731615909 11.943646507605953
0.6448741339930337 0.3246419412838978 5.797532155825495 0.26164388403967564 0.2724032081130506 0.24402884920745047 0.1700403940283284 4.243758703840431
0.48707996410021875 5.679686163145406 0.616030014076436 5.45352839079571 0.5423753579109875 0.5161571947709033 0.5258030319809456 0.5318311892427996
0.5510040969485203 0.5350005367261276 0.5313631547968982 0.53045251701216 0.5382585271993924 0.525663262419331 0.5280540770964561 0.5356349924926428
00000000: c9cc f171 02f2 0a40 591c 90e5 3d7a 1040
00000010: d831 1567 c544 1040 4e4b 519d 2a6b 1f40
00000020: 4117 2181 0c56 1540 28b5 365f 8be2 1140
00000030: 29e0 c443 b301 cc3f 8e34 8afb a391 c73f
00000040: ae74 cae5 4be1 df3f 2527 0d23 156c 1440
00000050: 2b2d d913 e6e9 f23f d1cd e4c3 a733 953f
00000060: 9233 5e04 6ad7 d03f 8781 eb9e f456 9e3f
00000070: 44fb f559 2ba3 2540 f708 cd94 e4dc 963f
00000080: 0aa0 9712 0266 2c3f 0aa0 9712 0266 2c3f
00000090: 0aa0 9712 0266 2c3f 5755 e191 5b74 a93f
000000a0: 2e4f 5e72 f5eb d53f c61a 8e9a 85ef 2640
000000b0: 1b2c 91a8 5fc9 d63f eb4d 92a2 25e3 2740
000000c0: 342a 7114 cfa2 e43f d25a 2efe eec6 d43f
000000d0: 921d fb44 ac30 1740 5286 49fd c5be d03f
000000e0: 39f2 8add 0d6f d13f a731 505b 563c cf3f
000000f0: 41e1 ac35 e2c3 c53f a470 b4e1 9bf9 1040
00000100: 0f3a 1671 512c df3f 5103 49a6 ffb7 1640
00000110: bd01 7a93 84b6 e33f af19 19bf 69d0 1540
00000120: 9d49 0c91 235b e13f 315b e417 5c84 e03f
00000130: 9fdd 4fe1 60d3 e03f b04c 99d7 c204 e13f
00000140: 9963 0b58 d3a1 e13f e798 1272 b91e e13f
00000150: b4dd 844d ed00 e13f 53bd 948e 77f9 e03f
00000160: 1faa 63f2 6939 e13f 1597 19c3 3bd2 e03f
00000170: 7ec2 f4a9 d1e5 e03f e12b ebfe eb23 e13f

running_mean_std.count f8 []
120001.0
00000000: 0000 0000 104c fd40

a2c_network.sigma f4 [12]
-0.016804341 -0.068218224 -0.043953884 -0.031127483 0.012143271 -0.009347675 -0.031797092 -0.0315967
0.023556424 -0.09719603 -0.0039482526 -0.062844805
00000000: 42a9 89bc ffb5 8bbd fd08 34bd 10ff febc
00000010: 92f4 463c fe26 19bc ab3d 02bd 8b6b 01bd
00000020: 67f9 c03c b60e c7bd 5860 81bb c7b4 80bd

a2c_network.actor_mlp.0.weight f4 [256, 48]
0.114480585 -0.076485336 -0.13133979 -0.036796883 -0.12304482 0.12845673 0.037278756 0.06403058
0.06562073 -0.07247688 0.17615277 -0.17203559 0.015782505 -0.12667122 0.034334052 -0.0073596197
0.04558889 -0.03143311 0.1183505 -0.058935948 -0.02243154 -0.09995004 0.1349028 0.03077939
0.15596502 -0.11459025 -0.15451612 -0.09298715 -0.027405202 0.119338736 0.020017982 0.1702437
-0.06529123 -0.08662635 0.12488624 -0.042543255 0.058369752 -0.07376879 0.058289833 -0.069509834
-0.07775634 0.0659782 0.040809594 -0.051404852 0.09274309 0.13147353 -0.060536902 -0.020028895
0.171396 -0.042078078 -0.0027819679 -0.14903626 -0.11591289 0.03502881 -0.0026329767 -0.10375716
-0.0025910942 -0.13350992 -0.2558249 -0.086225435 -0.17611891 -0.10935959 0.24289364 -0.0017991265
0.026400805 -0.11654303 -0.07671889 -0.06486518 0.012071387 -0.082824565 -0.07799035 -0.049168434
0.004637285 -0.03439958 -0.0016026266 -0.084324315 -0.06795592 -0.08954785 -0.03973734 -0.1984902
0.105043925 -0.043624714 0.07948438 -0.013297989 -0.09895324 0.115267165 0.038807422 -0.07216952
-0.02641136 -0.10705078 0.0090824235 -0.050582353 0.044495646 -0.10790834 0.04360108 -0.118666865
-0.050523996 -0.02014845 0.073728435 0.13309766 0.11344322 -0.1583065 0.033833206 -0.06380301
-0.030701967 -0.3155381 0.25225553 -0.11764858 0.036783416 -0.020430775 0.09980528 -0.11487859
0.092196554 0.0707178 0.057567123 -0.08793629 0.079853944 -0.050231885 -0.058752168 0.12471578
0.025838397 -0.097780704 -0.13168846 -0.017823476 0.10231917 -0.0021508702 -0.045111697 -0.030059163
-0.1274155 0.055837814 0.11608717 -0.1603331 0.041453283 -0.0011755863 0.0035733331 -0.036458515
0.041552704 0.0331058 0.055623252 -0.034555215 -0.011171716 0.021226399 0.010680409 -0.06085984
0.17812036 0.19376779 0.06298951 -0.00964673 -0.027301172 0.04564338 0.064153105 -0.0012872079
-0.097624116 -0.09488708 0.1892247 0.068148635 -0.07656198 -0.08609776 -0.13936563 -0.105299406
-0.1284146 0.13010941 0.1733988 0.016093465 -0.1269851 -0.085349 0.019420603 0.06041285
0.02734597 -0.031609043 0.14066035 -0.028423887 -0.103640065 0.05276515 -0.06961283 -0.056296933
-0.12385871 0.1541469 0.094280675 0.043959226 -0.04959756 -0.104158536 -0.08505165 0.06353702
0.10491922 0.04618131 0.044295933 0.02576951 0.010965733 -0.027242022 -0.117558226 -0.09046763
0.06530367 -0.12030872 0.050625805 -0.092603534 -0.06844103 -0.1840284 -0.0999655 0.08019429
-0.082047366 0.119999096 0.07267105 -0.08859494 -0.05523383 -0.07462788 -0.019446345 -0.11380701
0.0861571 -0.10589007 0.0671449 0.028331228 0.08448928 -0.12288135 0.1456014 -0.083972655
0.05294726 0.11015628 0.0633811 -0.019067714 -0.037672773 -0.131763 0.05018415 -0.12487675
0.12725882 0.24583746 0.12737182 -0.00892439 -0.061891347 -0.020454066 0.029613791 -0.11727556
-0.0031854203 -0.04381669 0.08146717 -0.06688619 -0.02116039 -0.045799196 -0.08374974 0.15039292
0.13796633 -0.037746802 0.03679091 -0.033911865 -0.16728294 -0.14761136 0.082391016 -0.084891394
-0.15416493 -0.032762293 -0.084109455 -0.008016002 -0.06866688 -0.0444844 -0.07405257 -0.10509997
00000000: cc74 ea3d 58a4 9cbd f07d 06be 54b8 16bd
00000010: ecfe fbbd 298a 033e 9cb1 183d 7722 833d
00000020: 2964 863d c26e 94bd 6461 343e 192a 30be
00000030: 504a 813c 1ab6 01be dda1 0c3d f728 f1bb
00000040: 6abb 3a3d 01c0 00bd bf61 f23d d266 71bd
00000050: 59c2 b7bc 9bb2 ccbd f623 0a3e 0f25 fc3c
00000060: 4bb5 1f3e 4bae eabd 7939 1ebe 0c70 bebd
00000070: e080 e0bc de67 f43d c0fc a33c 5d54 2e3e
00000080: 69b7 85bd 2869 b1bd 5bc4 ff3d d641 2ebd
00000090: 1f15 6f3d 1714 97bd 52c1 6e3d 2c5b 8ebd
000000a0: b73e 9fbd 941f 873d f627 273d e58d 52bd
000000b0: 17f0 bd3d ffa0 063e 8bf5 77bd a313 a4bc
000000c0: 6f82 2f3e 105a 2cbd ad51 36bb f69c 18be
000000d0: bd63 edbd 5f7a 0f3d 058e 2cbb a27e d4bd
000000e0: 59cf 29bb d3b6 08be 7bfb 82be f696 b0bd
000000f0: 8458 34be ecf7 dfbd 1cb9 783e abd0 ebba
00000100: 8046 d83c 1dae eebd cb1e 9dbd 09d8 84bd
00000110: 11c7 453c ed9f a9bd 68b9 9fbd d764 49bd
00000120: 5ef4 973b 93e6 0cbd 3a0f d2ba 3ab2 acbd
00000130: 792c 8bbd dd64 b7bd 9fc3 22bd 0441 4bbe
00000140: 4521 d73d d4af 32bd b5c8 a23d cfdf 59bc
00000150: ffa7 cabd 3111 ec3d 88f4 1e3d 9dcd 93bd
00000160: a35c d8bc 703d dbbd 72ce 143c 712f 4fbd
00000170: 1141 363d 0cff dcbd 0c97 323d 9d07 f3bd
00000180: 40f2 4ebd 5d0e a5bc effe 963d c14a 083e
00000190: eb54 e83d 191b 22be b094 0a3d 27ab 82bd
000001a0: b182 fbbc 368e a1be a327 813e bdf1 f0bd
000001b0: 35aa 163d 715e a7bc b666 cc3d 7745 ebbd
000001c0: 8cd1 bc3d 7ed4 903d 81cb 6b3d f117 b4bd
000001d0: 778a a33d f3bf 4dbd 1da6 70bd fd6a ff3d
000001e0: 0cab d33c 4041 c8bd 57d9 06be 8a02 92bc
000001f0: b78c d13d 9df5 0cbb 0bc7 38bd a23e f6bc
00000200: 3579 02be 31b6 643d 1cbf ed3d 5c2e 24be
00000210: ebca 293d 2116 9aba 952e 6a3b 8655 15bd
00000220: 2b33 2a3d f399 073d 35d5 633d c589 0dbd
00000230: 9309 37bc fce2 ad3c e2fc 2e3c 2b48 79bd
00000240: 2f65 363e 106b 463e a500 813d 510d 1ebc
00000250: b5a6 dfbc 8ef4 3a3d b462 833d 88b7 a8ba
00000260: 27ef c7bd 2854 c2bd 1fc4 413e 8391 8b3d
00000270: 87cc 9cbd 0654 b0bd ddb5 0ebe 37a7 d7bd
00000280: 1e7f 03be 673b 053e 748f 313e 71d6 833c
00000290: 6208 02be 75cb aebd f517 9f3c 7773 773d
000002a0: a804 e03c 7c78 01bd 4409 103e 36d9 e8bc
000002b0: 3e41 d4bd 4520 583d 2c91 8ebd 9d97 66bd
000002c0: a3a9 fdbd afd8 1d3e 3a16 c13d 970e 343d
000002d0: d026 4bbd 1251 d5bd 8f2f aebd b21f 823d
000002e0: e3df d63d 9d28 3d3d a76f 353d 941a d33c
000002f0: 9ea9 333c a92a dfbc 5ec2 f0bd 1847 b9bd
00000300: eebd 853d 6b64 f6bd 015d 4f3d eca6 bdbd
00000310: d02a 8cbd f171 3cbe b6ba ccbd e73c a43d
00000320: 7308 a8bd 16c2 f53d 8fd4 943d 4471 b5bd
00000330: de3c 62bd 80d6 98bd f14d 9fbc a613 e9bd
00000340: 2273 b03d e5dc d8bd 4483 893d e416 e83c
00000350: b708 ad3d 38a9 fbbd 8918 153e dbf9 abbd
00000360: 3adf 583d 9e99 e13d f3cd 813d e533 9cbc
00000370: c44e 1abd e1ec 06be e58d 4d3d 62bf ffbd
00000380: 2350 023e d1bc 7b3e c26d 023e 9b37 12bc
00000390: c881 7dbd 498f a7bc 9f98 f23c 2b2e f0bd
000003a0: 7cc2 50bb 2179 33bd 42d8 a63d a0fb 88bd
000003b0: 8e58 adbc f097 3bbd fc84 abbd 9a00 1a3e
000003c0: 0c47 0d3e 649c 1abd 11b2 163d 2be7 0abd
000003d0: 384c 2bbe 6f27 17be 9fbc a83d 8adb adbd
000003e0: 69dd 1dbe c131 06bd 9441 acbd 8d55 03bc
000003f0: 39a1 8cbd 4635 36bd e0a8 97bd a73e d7bd

a2c_network.actor_mlp.0.bias f4 [256]
0.009025361 -0.014219424 -0.0568117 -0.11034464 0.018938543 -0.005778803 -0.05540472 0.02109242
0.1161354 0.055514988 -0.087518774 -0.1144336 0.06603223 0.07050101 -0.09228442 -0.08385092
0.056908924 0.06471951 0.047892004 -0.097270794 -0.04047869 0.027455775 -0.08015204 0.016704882
0.07047502 0.09742639 -0.037521955 0.09255584 -0.0193731 -0.0672012 -0.039469868 -0.03098238
0.12189343 -0.0072683264 0.03313151 -0.025699941 -0.11042105 -0.036556225 0.086412765 0.013741198
-0.02581519 -0.124005936 0.04759182 -0.013159218 0.07559205 0.07783364 -0.032509364 0.09656447
0.02886128 -0.01177784 0.08935379 0.0031562662 0.043512512 -0.095253974 0.12294535 0.050430126
-0.03626636 0.07872797 -0.11434067 -0.028253796 0.07482832 0.07349007 -0.088469565 -0.07163186
-0.10420323 -0.18416725 -0.052931268 -0.10772624 0.08155569 0.0616387 0.041872986 0.08258313
0.06518998 -0.012275276 -0.01673254 0.025070423 -0.0586781 -0.09407916 0.084137455 -0.054725807
0.0028325731 -0.06896674 -0.005465439 0.014298725 -0.11447788 0.030362695 0.08433723 -0.1299738
0.02076512 0.055044007 0.12073067 -0.034405522 0.01699041 -0.051016323 0.052136384 -0.09207958
-0.07417884 -0.13082579 0.114748724 -0.10412793 -0.082990095 0.06412164 0.08338608 0.0742296
-0.0022853 -0.07429189 0.034755636 0.09309774 -0.039234083 0.07473302 0.07730148 -0.059379864
0.16261315 0.054901488 -0.019562874 0.03306137 -0.017832235 0.10249399 -0.1292859 0.09771035
0.07407171 -0.055621885 0.021910235 0.05120532 0.06237193 0.04485459 -0.13314329 -0.06666171
-0.03773846 -0.051993955 -0.120130144 0.03239403 0.021262862 -0.031635616 0.08183532 0.11093164
0.027964294 0.101147145 -0.028760908 0.012112326 -0.013292578 -0.01820876 0.008324213 0.05436198
0.036352843 0.13462073 0.043060463 -0.009630707 0.08420909 0.060919918 -0.09361983 0.030835172
0.077140115 -0.024420852 0.05450173 -0.07195286 -0.058290113 0.101235926 0.04160082 -0.12520218
-0.18103813 -0.0009705808 0.03661157 0.020570999 -0.006213114 0.08276556 -0.06500928 0.042109184
-0.03085921 0.023360835 0.044353545 0.024315415 -0.09128497 0.10864292 0.089594334 -0.020664947
-0.012125397 0.08142426 -0.06947604 0.077951886 0.011548891 0.09474564 0.053286806 -0.04568233
0.041425955 -0.04378547 0.06834769 -0.06096656 0.0988366 0.0678925 0.0348007 0.037345447
-0.13500836 0.14813235 -0.019490967 0.05895808 0.09515778 0.032833654 -0.09919284 0.11239937
0.098640986 -0.02900587 -0.025157029 -0.04815324 -0.014794173 -0.107922025 0.041055202 0.022001063
0.12186965 -0.051251642 -0.022088172 0.09849163 0.12471696 0.057809703 -0.054561123 0.023950726
-0.0061049033 0.066250786 -0.019355547 0.09767235 0.08796404 -0.0871413 -0.029842805 0.064271025
0.11601127 -0.017135793 -0.06301819 -0.14468542 -0.12898874 0.045971163 -0.020418614 -0.08170045
0.08843261 -0.06354953 0.11602356 0.10160738 0.082764626 0.015349873 -0.044041425 0.04756981
-0.014534899 -0.0002953335 0.08460621 0.13325703 0.13348253 -0.07449032 -0.032176953 -0.08927593
-0.07674537 -0.0045709834 -0.04679475 -0.086620316 0.027655033 0.003763309 -0.008251435 -0.07458143
00000000: 1cdf 133c 96f8 68bc 63b3 68bd 5ffc e1bd
00000010: 0125 9b3c 1d5c bdbb 0ff0 62bd 03ca ac3c
00000020: 66d8 ed3d af63 633d 0b3d b3bd 2a5c eabd
00000030: e83b 873d d562 903d 9dff bcbd 08ba abbd
00000040: 5519 693d aa8b 843d 682a 443d e935 c7bd
00000050: fccc 25bd efea e03c c126 a4bd add8 883c
00000060: 3555 903d 7d87 c73d 9fb0 19bd eb8d bd3d
00000070: 56b4 9ebc c8a0 89bd 28ab 21bd c3ce fdbc
00000080: 43a3 f93d 242b eebb e8b4 073d af88 d2bc
00000090: 6e24 e2bd fbbb 15bd 2df9 b03d c322 613c
000000a0: 617a d3bc d3f6 fdbd a4ef 423d c399 57bc
000000b0: 01d0 9a3d 3e67 9f3d 8a28 05bd 98c3 c53d
000000c0: 7e6e ec3c d7f7 40bc 1fff b63d 5cd9 4e3b
000000d0: 2d3a 323d 8414 c3bd c6ca fb3d d28f 4e3d
000000e0: 098c 14bd 213c a13d 712b eabd 8174 e7bc
000000f0: 973f 993d f681 963d 882f b5bd bab3 92bd
00000100: 8168 d5bd 5796 3cbe 75ce 58bd 939f dcbd
00000110: ab06 a73d dd78 7c3d 0283 2b3d 5821 a93d
00000120: 5382 853d 3d1e 49bc ae12 89bc 7d60 cd3c
00000130: 7358 70bd 93ac c0bd 4250 ac3d 2b28 60bd
00000140: b1a2 393b 6f3e 8dbd 6d17 b3bb 3345 6a3c
00000150: 6173 eabd 30bb f83c ffb8 ac3d da17 05be
00000160: 9d1b aa3c d375 613d a441 f73d ceec 0cbd
00000170: 792f 8b3c 7ef6 50bd f68c 553d 3894 bcbd
00000180: 13eb 97bd 32f7 05be 6101 eb3d 0641 d5bd
00000190: b6f6 a9bd 3552 833d 52c6 aa3d b005 983d
000001a0: f9c4 15bb 5926 98bd ed5b 0e3d 07aa be3d
000001b0: ebb3 20bd a00d 993d 3d50 9e3d 4d38 73bd
000001c0: 1084 263e 62e0 603d 5242 a0bc 5c6b 073d
000001d0: e814 92bc 5ee8 d13d 8663 04be 5d1c c83d
000001e0: e9b2 973d c6d3 63bd 187d b33c abbc 513d
000001f0: b579 7f3d 72b9 373d b756 08be ef85 88bd
00000200: a593 1abd 9df7 54bd cb06 f6bd 9aaf 043d
00000210: 742f ae3c 5994 01bd 4799 a73d 2130 e33d
00000220: 6015 e53c 3c26 cf3d ff9b ebbc c772 463c
00000230: 1dc9 59bc 8a2a 95bc 4862 083c abaa 5e3d
00000240: b8e6 143d 04da 093e 2b60 303d 1dca 1dbc
00000250: d175 ac3d 2a87 793d c1bb bfbd 0b9a fc3c
00000260: a3fb 9d3d 3d0e c8bc 353d 5f3d 055c 93bd
00000270: 9dc1 6ebd c854 cf3d 9f65 2a3d 0035 00be
00000280: 0f62 39be 936e 7eba 03f6 153d 8384 a83c
00000290: 6197 cbbb fd80 a93d 9623 85bd ae7a 2c3d
000002a0: 74cc fcbc 395f bf3c 10ac 353d 1f31 c73c
000002b0: 9df3 babd 2e80 de3d 3c7d b73d 8949 a9bc
000002c0: 9aa9 46bc c3c1 a63d 7449 8ebd 3da5 9f3d
000002d0: 8f37 3d3c 010a c23d 4443 5a3d 651d 3bbd
000002e0: 43ae 293d 6558 33bd e0f9 8b3d 12b8 79bd
000002f0: d86a ca3d 390b 8b3d 2e8b 0e3d 8af7 183d
00000300: a23f 0abe 02b0 173e 85ab 9fbc 077e 713d
00000310: 15e2 c23d 957c 063d 9e25 cbbd a431 e63d
00000320: 4904 ca3d b89d edbc 1d16 cebc 553c 45bd
00000330: 4263 72bc 3906 ddbd 8029 283d 933b b43c
00000340: cc96 f93d 3eed 51bd 41f2 b4bc fbb5 c93d
00000350: 9b6b ff3d dec9 6c3d 7c7b 5fbd 5034 c43c
00000360: a40b c8bb 7eae 873d 868f 9ebc 7108 c83d
00000370: 7e26 b43d 2377 b2bd e678 f4bc 87a0 833d
00000380: 5197 ed3d 5d60 8cbc ae0f 81bd 6a28 14be
00000390: a015 04be 424c 3c3d f044 a7bc 9152 a7bd
000003a0: 281c b53d 4226 82bd c39d ed3d 8817 d03d
000003b0: 8080 a93d 097e 7b3c c864 34bd 90d8 423d
000003c0: c923 6ebc fed6 9ab9 0546 ad3d 8874 083e
000003d0: a5af 083e 628e 98bd fbcb 03bd 4cd6 b6bd
000003e0: ad2c 9dbd 30c8 95bb daab 3fbd fe65 b1bd
000003f0: cf8c e23c d9a1 763b 0731 07bc 26be 98bd

a2c_network.actor_mlp.2.weight f4 [128, 256]
-0.0028268627 -0.07465394 -0.0142128775 0.06462539 0.00057980913 -0.05957244 0.054348964 0.0073561855
0.0031654274 -0.05401565 -0.02062443 -0.0018400954 -0.043932173 0.0068260664 -0.061344925 0.030194387
0.015596511 0.02549721 0.01576867 -0.03945872 -0.017095031 -0.0203752 -0.044168275 0.085932665
0.0035128824 0.035612606 -0.077391185 -0.014189868 0.014079257 0.0023086187 -0.029374829 0.058767635
0.03881211 -0.05135443 0.051217485 -0.08614208 -0.047864314 -0.026776144 0.073645994 0.03335407
-0.023528397 0.032319322 0.043218054 -0.015788114 0.028998794 0.08300947 0.011920108 -0.010636665
-0.026334524 -0.020754669 -0.0033764092 -0.03682012 0.021347964 0.03599951 -0.055887014 -0.037843313
0.026693122 -0.08179171 -0.009037083 -0.041805442 -0.022053504 0.040074185 -0.0075406414 0.01715868
0.004504247 -0.059222285 -0.007588094 0.030239867 0.010387258 -0.04060221 -0.017364247 0.06250133
0.017475443 0.00102597 -0.018548522 0.09072168 -0.026556151 -0.03523913 -0.00418119 -0.015141112
-0.06673789 -0.04708717 0.013059963 -0.03475732 0.0647803 -0.00014218768 -0.05595795 -0.04641839
-0.019570315 0.029586472 -0.05087426 -0.06785281 0.027041834 0.024006475 -0.06526359 -0.051019937
0.056512628 -0.00037039793 0.03807917 -0.027786443 -0.039295815 -0.050328746 0.041626155 0.012498801
0.06021102 0.014360132 0.027658466 0.037971463 0.018627413 0.081495106 0.040366706 0.0028348605
0.048271585 -0.052999187 0.012795388 0.019875968 0.027553167 -0.013824914 0.028986907 -0.019625187
0.0098346695 -0.014372068 -0.051312506 0.0085389465 0.05784969 0.057212494 0.0009150026 -0.011086773
0.028162502 -0.061428208 -0.04919888 -0.0067943092 0.019635914 -0.010478322 -0.05100585 -0.079848476
0.020478152 -0.0014952623 -0.07409788 -0.08845707 -0.051195823 -0.027452517 -0.0796738 0.038865935
0.07112456 0.010444451 0.017211946 0.01609172 0.07459794 -0.0048481324 -0.002711572 -0.01303497
-0.026148997 -0.017263643 0.0060765003 -0.061093308 0.011639176 0.017913923 -0.029631281 0.061763965
0.058220256 0.07912146 0.0670596 0.028816083 0.02019809 0.046430737 0.028604029 -0.0500735
0.039377548 0.038668603 0.04307963 0.03914526 -0.04222191 -0.050919086 -0.051278982 -0.038441237
0.0005847892 0.0052317893 0.07554773 -0.07913306 0.023525054 0.044833437 -0.039725553 -0.030549489
0.011448166 -0.03734866 0.0647234 -0.049892526 -0.0047401576 -0.06269708 0.0028553696 -0.024938988
-0.05586062 -0.04649945 0.012374204 0.058765035 -0.0045692855 -0.023931894 -0.066032626 0.023676392
0.035493564 0.002990307 -0.06529105 0.015677962 0.050717145 0.0035134938 -0.011405328 0.022425354
-0.031581007 0.026750708 0.053942345 0.056355536 -0.028225463 -0.030211704 0.004904288 0.038071007
-0.02660959 -0.059879467 0.014454318 0.019542955 -0.027339049 -0.054891188 0.020117182 0.023266036
-0.036713865 0.008809403 0.034261122 0.027473738 -0.040096052 -0.025413651 -0.054396614 -0.008381812
-0.036831345 -0.0034287027 0.0030557157 -0.036117636 0.061196435 -0.023994796 0.06513915 0.038770065
0.020982303 -0.00664507 -0.02619706 -0.030896608 -0.043725073 -0.05549373 -0.047097724 0.040145144
-0.04304795 -0.056258935 -0.027342508 -0.040111296 0.058756605 -0.06993731 -0.04697457 -0.030297726
00000000: e342 39bb 2ae4 98bd 21dd 68bc 515a 843d
00000010: 55fe 173a 3b02 74bd 059d 5e3d 280c f13b
00000020: 0f73 4f3b 843f 5dbd 91f4 a8bc 5b2f f1ba
00000030: 39f2 33bd 32ad df3b d144 7bbd 385a f73c
00000040: 8288 7f3c 86df d03c 4c2d 813c 779f 21bd
00000050: e10a 8cbc e4e9 a6bc cbe9 34bd 77fd af3d
00000060: 6338 663b 86de 113d 457f 9ebd 9f7c 68bc
00000070: afac 663c 324c 173b 7ba3 f0bc 55b6 703d
00000080: 72f9 1e3d 0659 52bd 6dc9 513d 426b b0bd
00000090: 5f0d 44bd a559 dbbc b6d3 963d 479e 083d
000000a0: a0be c0bc 4461 043d 6a05 313d 1356 81bc
000000b0: e18e ed3c de00 aa3d 8f4c 433c 6845 2ebc
000000c0: 80bb d7bc b205 aabc bf46 5dbb b2d0 16bd
000000d0: ede1 ae3c 3974 133d c8e9 64bd 9701 1bbd
000000e0: 89ab da3c 6982 a7bd 4610 14bc 2f3c 2bbd
000000f0: 8da9 b4bc d424 243d 7c17 f7bb 5c90 8c3c
00000100: 5d98 933b 1193 72bd 8ca5 f8bb 99b9 f73c
00000110: 512f 2a3c 814e 26bd 773f 8ebc b300 803d
00000120: a928 8f3c d779 863a 12f3 97bc 4acc b93d
00000130: 498c d9bc e856 10bd 5d02 89bb 6d12 78bc
00000140: e0ad 88bd 7ade 40bd 74f9 553c b15d 0ebd
00000150: 89ab 843d 3718 15b9 2a34 65bd 3621 3ebd
00000160: ed51 a0bc 545f f23c 8761 50bd 6af6 8abd
00000170: d686 dd3c 3aa9 c43c eba8 85bd 48fa 50bd
00000180: c979 673d f831 c2b9 e7f8 1b3d 65a0 e3bc
00000190: a6f4 20bd 8425 4ebd 3080 2a3d c5c7 4c3c
000001a0: d59f 763d c246 6b3c 0294 e23c f787 1b3d
000001b0: 8498 983c e8e6 a63d 8f57 253d 11c9 393b
000001c0: 6db8 453d ad15 59bd bfa3 513c edd2 a23c
000001d0: 2eb7 e13c e481 62bc f375 ed3c 00c5 a0bc
000001e0: 9821 213c d378 6bbc 102d 52bd f0e6 0b3c
000001f0: ccf3 6c3d a657 6a3d c9dc 6f3a 4ca5 35bc
00000200: 0cb5 e63c 259c 7bbd c484 49bd cca2 debb
00000210: 7fdb a03c 45ad 2bbc 83eb 50bd 9987 a3bd
00000220: ccc1 a73c adfc c3ba a1c0 97bd fb28 b5bd
00000230: b6b2 51bd 1ae4 e0bc 042c a3bd e331 1f3d
00000240: c1a9 913d 341f 2b3c 1100 8d3c c8d2 833c
00000250: cec6 983d 15dd 9ebb a1b4 31bb a090 55bc
00000260: 6c36 d6bc 7c6c 8dbc 611d c73b fa3c 7abd
00000270: 3eb2 3e3c 38c0 923c 4dbd f2bc 36fc 7c3d
00000280: 5d78 6e3d 6f0a a23d 8b56 893d b50f ec3c
00000290: 7776 a53c 282e 3e3d ff52 ea3c df19 4dbd
000002a0: 5a4a 213d f862 1e3d 4474 303d c856 203d
000002b0: e2f0 2cbd 8890 50bd e909 52bd 8f74 1dbd
000002c0: 8a4c 193a 6e6f ab3b c5b8 9a3d 8410 a2bd
000002d0: 9db7 c03c 44a3 373d 43b7 22bd ec42 fabc
000002e0: 1791 3b3c e9fa 18bd b48d 843d 1b5c 4cbd
000002f0: 5353 9bbb 5467 80bd 2721 3b3b d94c ccbc
00000300: 1bce 64bd 3576 3ebd 2cbd 4a3c 9bb3 703d
00000310: f2b9 95bb d20c c4bc 1d3c 87bd fef4 c13c
00000320: b361 113d 07f9 433b 50b7 85bd 126f 803c
00000330: c8bc 4f3d a542 663b 6add 3abc 60b5 b73c
00000340: 165b 01bd 4d24 db3c a6f2 5c3d 10d5 663d
00000350: 1639 e7bc 897e f7bc 26b4 a03b 58f0 1b3d
00000360: 5bfc d9bc 2c44 75bd ced1 6c3c 8c18 a03c
00000370: 24f6 dfbc 95d5 60bd cacc a43c 6a98 be3c
00000380: 4761 16bd 5055 103c 6455 0c3d 9b10 e13c
00000390: c23b 24bd 4a30 d0bc fcce 5ebd de53 09bc
000003a0: 77dc 16bd 16b4 60bb 6742 483b 16f0 13bd
000003b0: 1da9 7a3d bc90 c4bc ad67 853d 5ccd 1e3d
000003c0: 14e3 ab3c e3be d9bb 379b d6bc e21a fdbc
000003d0: 1019 33bd 654d 63bd 8be9 40bd 3c6f 243d
000003e0: 0c53 30bd c56f 66bd 65fd dfbc be4b 24bd
000003f0: c4aa 703d 4b3b 8fbd 6868 40bd f032 f8bc

a2c_network.actor_mlp.2.bias f4 [128]
0.010230238 -0.09044793 -0.051682696 0.002939321 -0.08704526 0.0044178576 0.033761263 0.023320705
-0.015078699 -0.059422705 -0.034867637 0.02991173 -0.09296974 -0.059359886 0.014503863 -0.08486757
-0.011840798 -0.06271443 -0.097887054 -0.04992023 0.054494217 -0.044951167 -0.053688563 -0.07598131
-0.03473804 -0.073139384 0.0066667376 -0.13774885 -0.06681176 0.02640729 0.043114502 -0.023618115
-0.05866611 -0.035855386 -0.02652171 -0.03060702 -0.012027377 -0.12542062 0.052872814 -0.054290917
-0.065925226 -0.022722758 -0.04216932 0.00450149 0.0060313595 -0.033971302 0.014767049 -0.018432982
-0.07121585 -0.04412093 -0.0038700725 0.03401132 -0.039163057 0.017703995 0.046960246 -0.10777977
-0.022261957 0.030848362 0.0017123687 -0.10037296 -0.04624471 -0.04328555 -0.018161127 -0.07876804
0.003675079 -0.034229886 -0.026043646 0.0088781165 -0.023345254 -0.010527489 -0.030884692 -0.06165737
-0.10424246 -0.13340218 0.06953319 0.079661444 -0.096845895 -0.044681836 0.05052018 -0.03310336
-0.06336608 -0.0042112432 0.049609467 -0.051207867 -0.03023201 -0.03961475 -0.09457274 -0.06411983
-0.099141486 0.01934013 -0.021618769 -0.034054246 -0.03145002 -0.040439896 -0.00034465676 0.0081491675
-0.03276403 -0.06933526 0.023183076 0.045726705 -0.107971415 -0.07881105 0.046226665 -0.026638186
0.009697654 0.017887482 0.012037914 -0.105602056 0.03517324 -0.022635374 -0.08371645 -0.08378994
-0.02324056 0.1295463 -0.097798884 -0.09833923 0.027262175 -0.056747966 0.074185476 -0.051232487
-0.056082867 -0.00086612365 -9.427564e-05 -0.019932458 0.055710975 0.0642711 0.025563864 -0.0822786
00000000: ba9c 273c c43c b9bd 3cb1 53bd a0a1 403b
00000010: c944 b2bd adc3 903b 4049 0a3d 100b bf3c
00000020: a60c 77bc 3965 73bd 5ed1 0ebd 7209 f53c
00000030: eb66 bebd 5a23 73bd 9ca1 6d3c 0ccf adbd
00000040: e8ff 41bc 6c70 80bd 0279 c8bd 2879 4cbd
00000050: 5435 5f3d b71e 38bd 8ae8 5bbd 179c 9bbd
00000060: 7a49 0ebd 1aca 95bd a674 da3b 090e 0dbe
00000070: 9bd4 88bd 1a54 d83c d598 303d c77a c1bc
00000080: e04b 70bd 19dd 12bd 0f44 d9bc 93bb fabc
00000090: 7a0e 45bc 436e 00be 2a91 583d 2760 5ebd
000000a0: ce03 87bd 1425 babc bdb9 2cbd 3c81 933b
000000b0: b6a2 c53b 7e25 0bbd 7ef1 713c c400 97bc
000000c0: 9ed9 91bd 26b8 34bd 0ba1 7dbb 744f 0b3d
000000d0: 7169 20bd f807 913c 6359 403d a4bb dcbd
000000e0: b55e b6bc b4b5 fc3c 8f71 e03a 5790 cdbd
000000f0: 186b 3dbd 304c 31bd a5c6 94bc 2351 a1bd
00000100: 98d9 703b a334 0cbd 7c59 d5bc 8575 113c
00000110: 8c3e bfbc 7d7b 2cbc e501 fdbc 708c 7cbd
00000120: 127d d5bd 959a 08be 6b67 8e3d 8a25 a33d
00000130: 2457 c6bd 4d04 37bd 40ee 4e3d 6497 07bd
00000140: 13c6 81bd 78fe 89bb 4c33 4b3d 57bf 51bd
00000150: 1fa9 f7bc 1343 22bd 5aaf c1bd 4251 83bd
00000160: b10a cbbd 316f 9e3c d819 b1bc 777c 0bbd
00000170: bcd1 00bd 4ea4 25bd 0cb3 b4b9 1684 053c
00000180: 9333 06bd a5ff 8dbd 6fea bd3c ed4b 3b3d
00000190: 1e20 ddbd b067 a1bd 2c58 3d3d 5338 dabc
000001a0: e9e2 1e3c c588 923c ac3a 453c e445 d8bd
000001b0: d111 103d d26d b9bc 8873 abbd 0f9a abbd
000001c0: fd62 bebc c9a7 043e c84a c8bd 1466 c9bd
000001d0: ed54 df3c 8e70 68bd 8eee 973d 28d9 51bd
000001e0: 26b7 65bd 930c 63ba d9b5 c5b8 6549 a3bc
000001f0: 3131 643d 91a0 833d 4f6b d13c af81 a8bd

a2c_network.actor_mlp.4.weight f4 [64, 128]
-0.05973241 0.045204014 -0.006033203 0.00064927473 -0.074687794 0.0586062 0.035894003 -0.085949
0.09627022 -0.014619241 -0.040402886 0.031833496 0.013825199 0.07739294 0.03830131 0.0264839
0.0037554456 0.013399722 -0.050885115 -0.05854904 0.012263391 0.07579739 0.01555939 0.04046344
-0.065455675 -0.01984855 0.05225252 0.061282393 0.05754732 -0.018176869 -0.03821066 -0.0958426
-0.048038412 -0.040042583 0.038898923 -0.014812262 -0.011601933 0.07433379 -0.04402016 -0.0130969575
-0.056073308 0.0350655 0.0033851925 -0.13414215 0.046564758 0.0055832197 0.04436493 -0.07325501
0.019958686 -0.040080518 0.009333957 -0.123920605 -0.022001017 -0.015594309 -0.024906168 0.09181515
0.082602784 0.062250867 0.09111439 0.0468993 -0.05746567 0.06955213 -0.08268921 -0.03244292
0.05992946 0.010859359 0.00730121 -0.005617907 0.1013878 -0.021008382 -0.048259974 0.01848583
-0.038136266 0.075698845 -0.031871967 0.06381188 0.07308892 -0.011469054 -0.020242434 -0.01588929
-0.01279689 -0.019255877 -0.06686881 -0.005543192 0.009142715 -0.10077498 0.006440265 -0.07537349
0.052059688 -0.0049886084 -0.07508819 0.08100867 0.041876756 0.07220252 -0.07199014 -0.046311095
0.079988964 0.10978665 -0.054761466 0.043144785 0.03991424 0.10788588 0.059448995 0.020524798
0.06853938 0.0838401 -0.03172758 0.06312426 0.07884068 0.04638025 0.06780304 0.0041850973
0.0021845612 0.10379216 -0.07201127 0.078068525 -0.027529314 0.058575545 -0.047018304 -0.038927395
-0.08081692 -0.044799127 -0.038979173 -0.089164004 0.039289586 -0.10706646 0.005001775 -0.09582743
-0.086272486 0.07495367 0.09977795 0.08407225 0.07441274 0.06271227 0.043546077 -0.07929995
-0.10655968 -0.04546505 -0.03691338 -0.022533553 -0.11901464 -0.026560353 -0.02076855 0.010254551
-0.036063887 0.112844706 0.07732552 -0.031426024 0.09241536 -0.055597782 -0.05052622 -0.0055264165
0.04198401 -0.037161015 -0.025616938 -0.08192806 -0.12065438 0.045296475 0.021458728 0.055536166
0.015370409 -0.04499569 -0.07363392 -0.09716565 0.09583698 -0.03124459 0.07261788 -0.06460525
-0.06371212 0.1013778 -0.07612049 0.054959793 0.109906904 -0.042697318 0.041459255 -0.031208206
-0.0657902 -0.058857158 0.009687733 0.048476975 0.06642342 0.067921646 -0.057504468 0.016116949
0.054581992 -0.0003819331 0.082357004 0.098748 -0.13636357 -0.046102773 -0.030253822 -0.025298141
0.054421116 -0.035822496 -0.023275409 0.114440806 -0.03002724 0.090501234 0.051572148 -0.05540486
-0.07482384 -0.057625525 -0.03798921 -0.059157047 -0.008382962 -0.00262547 0.059976805 0.04317405
0.10602941 0.06780944 0.093679726 -0.07967619 0.05258045 0.044858564 0.015795346 -0.06703704
0.03289058 0.025771068 0.03977914 -0.043166403 0.076273166 0.019686205 0.032134116 -0.11013665
0.08151453 -0.05350679 -0.135438 -0.09621718 -0.027814012 -0.020029336 -0.08309644 0.002940986
-0.015914747 -0.058371495 -0.022676628 0.07157561 0.010530207 0.024516156 0.043045174 -0.024802875
0.04462777 0.035882667 -0.10980361 -0.06313264 0.006653847 -0.034690782 -0.03283194 0.056048658
0.051873118 0.059537932 -0.034369785 -0.00022017768 -0.024038466 0.08334904 -0.040585488 -0.070729725
00000000: f9a9 74bd d827 393d 2db2 c5bb 1734 2a3a
00000010: eaf5 98bd 0e0d 703d 9705 133d 0806 b0bd
00000020: 5229 c53d 8a85 6fbc 7f7d 25bd d763 023d
00000030: 1683 623c 3180 9e3d d6e1 1c3d c4f4 d83c
00000040: ec1d 763b 828a 5b3c e96c 50bd 1ed1 6fbd
00000050: 64ec 483c a93b 9b3d d0ec 7e3c febc 253d
00000060: a00d 86bd 6d99 a2bc bd06 563d 3f03 7b3d
00000070: bdb6 6b3d a8e7 94bc c882 1cbd 2049 c4bd
00000080: edc3 44bd b103 24bd 7a54 1f3d 21af 72bc
00000090: 0916 3ebc 503c 983d 7c4e 34bd 9f94 56bc
000000a0: 20ad 65bd d7a0 0f3d 1bda 5d3b 8f5c 09be
000000b0: b0ba 3e3d 71f3 b63b 00b8 353d b906 96bd
000000c0: 6680 a33c 782b 24bd 74ed 183c 16ca fdbd
000000d0: 7a3b b4bc 467f 7fbc 0508 ccbc 9509 bc3d
000000e0: a62b a93d c4fa 7e3d 2e9a ba3d 7b19 403d
000000f0: 1f61 6bbd 5971 8e3d f658 a9bd dee2 04bd
00000100: 9878 753d 74eb 313c fd3e ef3b 6b16 b8bb
00000110: 68a4 cf3d c519 acbc 40ac 45bd 986f 973c
00000120: c634 1cbd ff07 9b3d 2e8c 02bd ceaf 823d
00000130: a5af 953d b3e8 3bbc 76d3 a5bc 422a 82bc
00000140: 0caa 51bc 80be 9dbc 84f2 88bd aaa3 b5bb
00000150: 53cb 153c 1d63 cebd dc08 d33b 6b5d 9abd
00000160: 8a3c 553d 7b77 a3bb d6c7 99bd e0e7 a53d
00000170: f686 2b3d eade 933d 916f 93bd b4b0 3dbd
00000180: 41d1 a33d d3d7 e03d 8f4d 60bd 96b8 303d
00000190: 1d7d 233d 46f3 dc3d ca80 733d 9f23 a83c
000001a0: 605e 8c3d 5cb4 ab3d c7f4 01bd 4b47 813d
000001b0: 3977 a13d 38f9 3d3d 52dc 8a3d 2423 893b
000001c0: db2a 0f3b fc90 d43d a57a 93bd 64e2 9f3d
000001d0: 2885 e1bc e9ec 6f3d 4496 40bd 5572 1fbd
000001e0: 5783 a5bd 4a7f 37bd a0a8 1fbd 9e9b b6bd
000001f0: 1eee 203d a945 dbbd eee5 a33b 2c41 c4bd
00000200: a1af b0bd 4f81 993d 6258 cc3d 122e ac3d
00000210: b565 983d 4a6f 803d 5f5d 323d 0368 a2bd
00000220: f63b dabd 8f39 3abd 7c32 17bd 4998 b8bc
00000230: f3bd f3bd 1995 d9bc ce22 aabc b402 283c
00000240: bab7 13bd 201b e73d d85c 9e3d 93b8 00bd
00000250: 4444 bd3d 80ba 63bd 95f4 4ebd f116 b5bb
00000260: 6df7 2b3d 2636 18bd 9dda d1bc e6c9 a7bd
00000270: a519 f7bd cc88 393d 37ca af3c e479 633d
00000280: 2bd4 7b3c 674d 38bd 61cd 96bd c9fe c6bd
00000290: 2e46 c43d a8f4 ffbc afb8 943d c24f 84bd
000002a0: 807b 82bd 2a9f cf3d 0fe5 9bbd 851d 613d
000002b0: df16 e13d 62e3 2ebd 2ed1 293d 5aa8 ffbc
000002c0: 03bd 86bd 3414 71bd 4cb9 1e3c cb8f 463d
000002d0: 0109 883d 811a 8b3d ce89 6bbd b107 843c
000002e0: 5e91 5f3d 313e c8b9 caaa a83d 643c ca3d
000002f0: e4a2 0bbe 43d6 3cbd ddd6 f7bc 0c3e cfbc
00000300: ade8 5e3d 9cba 12bd 12ac bebc f15f ea3d
00000310: b0fb f5bc b658 b93d 513d 533d 35f0 62bd
00000320: 3e3d 99bd be08 6cbd 939a 1bbd a94e 72bd
00000330: b158 09bc 1410 2cbb 3daa 753d 46d7 303d
00000340: f325 d93d addf 8a3d 28db bf3d 452d a3bd
00000350: 995e 573d 9dbd 373d 3e65 813c b74a 89bd
00000360: 46b8 063d d91d d33c 74ef 223d 41cf 30bd
00000370: 1b35 9c3d f744 a13c 109f 033d 538f e1bd
00000380: 17f1 a63d f029 5bbd 42b0 0abe 830d c5bd
00000390: 36da e3bc 9014 a4bc 772e aabd 8fbd 403b
000003a0: a55f 82bc f316 6fbd 56c4 b9bc 3c96 923d
000003b0: e486 2c3c 1bd6 c83c 2350 303d 662f cbbc
000003c0: 9ccb 363d b4f9 123d b7e0 e0bd b04b 81bd
000003d0: 8408 da3b ec17 0ebd c97a 06bd 4793 653d
000003e0: e878 543d 0cde 733d 55c7 0cbd 7fdf 66b9
000003f0: 51ec c4bc e7b2 aa3d f83c 26bd bfda 90bd

a2c_network.actor_mlp.4.bias f4 [64]
0.013725303 0.03494289 -0.015830988 -0.03314147 -0.053935643 -0.0148302065 -0.009655073 0.02440997
-0.002831199 0.013103231 0.019576963 0.018047608 -0.03361173 -0.0218243 -0.032307122 0.009268623
-0.051699676 0.0042111846 0.014112225 -0.058596343 -0.03232959 -0.013579277 -0.023956463 -0.027287342
0.002925305 -0.030427372 0.019537097 -0.03149012 0.032686587 -0.0060056527 0.0071718837 0.005094778
-0.05275919 0.03159738 -0.018056288 0.00095428363 -0.0010573423 0.006015619 -0.038715344 -0.06518964
0.011114963 -0.007029573 -0.006982986 -0.012500944 0.011809905 -0.00096171006 -0.0090786265 -0.022790723
-0.031185204 -0.03531785 0.047915623 0.00648751 -0.051240146 0.011332299 -0.01316084 -0.0099114
-0.052652914 -0.052927993 -0.06381728 0.024053475 -0.021235975 0.009764683 0.01112824 0.04912454
00000000: 18e0 603c 4720 0f3d fdaf 81bc 5abf 07bd
00000010: 9feb 5cbd 65fa 72bc 5030 1ebc 6bf7 c73c
00000020: a38b 39bb efae 563c de5f a03c 94d8 933c
00000030: 74ac 09bd e0c8 b2bc 7954 04bd 6cdb 173c
00000040: 0ac3 53bd fafd 893b f636 673c b802 70bd
00000050: 086c 04bd 9e7b 5ebc 5840 c4bc b489 dfbc
00000060: 79b6 3f3b d342 f9bc 430c a03c c9fb 00bd
00000070: 5fe2 053d 11cb c4bb 1f02 eb3b 18f2 a63b
00000080: 051a 58bd 416c 013d c8ea 93bc e428 7a3a
00000090: 8596 8aba ab1e c53b fb93 1ebd 2582 85bd
000000a0: 891b 363c 5558 e6bb 88d1 e4bb c2d0 4cbc
000000b0: 557e 413c 451b 7cba 85be 14bc 9cb3 babc
000000c0: 1d78 ffbc 73a9 10bd 2c43 443d 2e95 d43b
000000d0: 30e1 51bd 1bab 393c 90a0 57bc 6d63 22bc
000000e0: 95aa 57bd 06cb 58bd a2b2 82bd cb0b c53c
000000f0: 11f7 adbc 0dfc 1f3c 3953 363c d036 493d

a2c_network.value.weight f4 [1, 64]
0.0010427198 -0.09944221 0.11804817 0.088029444 -0.02777509 -0.07418074 0.060888633 -0.08374312
0.039039284 -0.12190548 -0.07304557 0.0566859 -0.00016269561 0.091356106 0.010619275 -0.054481808
-0.050872482 -0.071917824 -0.07288181 0.18270896 -0.031314485 -0.14450654 -0.0633443 -0.0383297
-0.00014234686 0.09260577 -0.035130642 0.061675705 -0.06182412 -0.1340944 -0.10682985 0.08281631
0.03344689 0.025700329 0.1264221 -0.08805468 0.038418643 -0.06806436 0.096922204 0.03050675
-0.08697879 0.08034237 -0.09007334 -0.093078695 -0.08358652 -0.08800825 0.10192262 0.065133356
0.069697075 0.16775388 -0.07309947 0.016488599 0.037695304 -0.10423384 -0.06426563 0.098203294
-0.14578196 0.19578324 -0.052680105 0.026341666 -0.1355429 -0.118134536 -0.010314908 -0.012225504
00000000: dfab 883a 5ba8 cbbd 3dc3 f13d c848 b43d
00000010: 9688 e3bc 12ec 97bd 5c66 793d 8381 abbd
00000020: a8e7 1f3d 95a9 f9bd ea98 95bd 792f 683d
00000030: 4599 2ab9 e918 bb3d 78fc 2d3c 5128 5fbd
00000040: aa5f 50bd a749 93bd 0f43 95bd 0f18 3b3e
00000050: 9e43 00bd 86f9 13be a8ba 81bd 9aff 1cbd
00000060: f242 15b9 18a8 bd3d 26e5 0fbd aa9f 7c3d
00000070: 4a3b 7dbd 0b50 09be 9cc9 dabd 999b a93d
00000080: 9bff 083d 7f89 d23c cc74 013e 0356 b4bd
00000090: de5c 1d3d 5465 8bbd 267f c63d 4be9 f93c
000000a0: f021 b2bd 8a8a a43d 5f78 b8bd 0ba0 bebd
000000b0: 692f abbd ab3d b4bd cebc d03d a364 853d
000000c0: 57bd 8e3d acc7 2b3e 2db5 95bd 1913 873c
000000d0: 6466 1a3d 8d78 d5bd b39d 83bd cf1e c93d
000000e0: de47 15be 677b 483e 18c7 57bd 7aca d73c
000000f0: c2cb 0abe 85f0 f1bd dcff 28bc 7b4d 48bc

a2c_network.mu.weight f4 [12, 64]
0.03387045 0.12588155 0.055523075 -0.038909987 -0.028812125 0.009240517 -0.017662222 0.09737999
0.07153016 0.013825151 0.0544306 0.09297875 -0.040490158 0.00036550814 -0.03237642 0.07733571
-0.050765745 0.021131052 0.05898155 0.018663239 -0.005748567 -0.07214863 -0.08156293 -0.10322377
0.019767333 0.020681994 0.025207264 -0.05044325 0.07777487 0.061453894 -0.097354285 0.108471274
-0.07198672 0.057379287 0.021850746 0.002282141 0.027182832 0.041606937 0.08186284 -0.12276609
-0.06039817 -0.02351302 -0.026550103 0.0018410184 -0.014641778 0.06360069 -0.021254243 0.005996458
-0.020367438 0.06602533 0.093930826 0.065492555 -0.10283028 0.12770675 -0.03987383 0.052773662
-0.08245855 -0.061714802 -0.14351407 0.094968654 0.040687267 0.0548377 0.050818846 -0.021607356
0.072644874 -0.0018913085 0.05934998 0.007934052 0.029028839 -0.05710817 0.10069123 0.08104397
0.035941225 0.10443633 0.050176058 0.009209244 -0.016560383 -0.044268925 -0.072318465 0.034656163
-0.1216287 0.0946948 0.023735378 -0.02709536 0.047340706 0.062243715 -0.0054237708 -0.009929963
0.04023499 -0.022124207 0.030721992 -0.1332747 0.035866722 0.028648915 -0.08343999 0.09329284
-0.028688086 0.023844179 0.0123969 0.007179451 0.079031564 0.028899595 -0.038026724 -0.05917319
0.04518743 0.056153826 0.09082914 0.046869196 0.02209858 0.091108784 -0.028161878 -0.034170423
-0.059175175 0.06435508 -0.07062646 0.011849074 -0.03418681 0.10589464 -0.087240115 0.014350837
-0.02464751 0.065669805 -0.012253542 0.12377743 0.0337581 0.005559397 -0.029747935 0.0999919
-0.021888774 -0.07309387 0.01616462 -0.1010959 0.081495136 -0.005792733 -0.06081792 -0.007314262
0.05756158 -0.07537487 0.07913751 0.0027850315 -0.025454732 0.047553465 0.04724095 0.06419024
0.03102435 0.120131396 0.09906557 0.05039189 0.040536854 0.0800292 -0.064446665 0.01185965
0.046516832 0.066834375 -0.009682398 -0.01366162 -0.004203703 0.004774008 -0.050574776 0.035979576
-0.021946356 0.010950382 -0.10532734 0.012037343 0.07705149 -0.024366697 -0.053482343 0.099584654
0.06232246 0.06057015 0.074171446 0.018029446 0.1091192 0.06396736 -0.042918846 -0.0015029592
0.03619169 -0.010731146 -0.033612516 0.058275055 0.10987179 -0.08223302 0.00574353 0.015245513
0.062139202 0.071873344 0.03110774 0.030088669 -0.0015782123 0.09481057 0.08962235 -0.027749013
-0.018086268 0.08055209 -0.05426187 -0.05994705 -0.034127682 -0.020040195 -0.045965247 -0.07463402
0.080571555 0.066829816 0.06186953 0.08530702 -0.110148005 0.08630101 -0.034469727 -0.0042386716
-0.044922896 0.073546864 0.08783044 -0.058520503 -0.105136916 0.09748683 -0.077094145 -0.012800797
-0.025639156 -0.0061936076 0.08615414 -0.037559897 -0.0054015345 -0.046379097 0.004536975 0.07525034
-0.013117727 -0.104246534 0.06507773 -0.070083864 -0.13337983 0.13229318 -0.10877176 -0.008231505
-0.0032399136 -0.023590364 0.079016626 -0.09001553 0.10790166 0.018592257 0.03866744 0.057177324
-0.020081002 0.04034174 -0.032457594 -0.0806372 0.04674735 -0.1158404 -0.036821857 0.050202407
0.019373082 0.06394175 -0.08704642 0.025044283 0.056566272 -0.08384777 0.037259635 0.031436104
00000000: bebb 0a3d 18e7 003e 2a6c 633d 1460 1fbd
00000010: 6807 ecbc 8a65 173c 5db0 90bc 296f c73d
00000020: 687e 923d e382 623c 9ff2 5e3d a56b be3d
00000030: 02d9 25bd aca1 bf39 239d 04bd 2f62 9e3d
00000040: beef 4fbd 071b ad3c a396 713d a6e3 983c
00000050: 7a5e bcbb a9c2 93bd 770a a7bd fc66 d3bd
00000060: 1aef a13c 496d a93c 777f ce3c 959d 4ebd
00000070: 6e48 9f3d 14b7 7b3d af61 c7bd 3026 de3d
00000080: c66d 93bd 8b06 6b3d 5600 b33c f98f 153b
00000090: 88ae de3c 096c 2a3d b4a7 a73d ca6c fbbd
000000a0: 1264 77bd 609e c0bc 9a7f d9bc 544e f13a
000000b0: 11e4 6fbc 1441 823d 611d aebc f07d c43b
000000c0: 9dd9 a6bc 4a38 873d ce5e c03d f620 863d
000000d0: af98 d2bd 8fc5 023e be52 23bd 3229 583d
000000e0: 07e0 a8bd a9c8 7cbd 5af5 12be ed7e c23d
000000f0: b1a7 263d 7f9d 603d 6c27 503d e901 b1bc
00000100: d6c6 943d c8e5 f7ba f718 733d d3fd 013c
00000110: e3cd ed3c 42ea 69bd 3437 ce3d 62fa a53d
00000120: 1b37 133d b7e2 d53d 6985 4d3d 5ee2 163c
00000130: a4a9 87bc 5553 35bd b41b 94bd 9ff3 0d3d
00000140: 7818 f9bd 59ef c13d b270 c23c 17f7 ddbc
00000150: 54e8 413d 44f3 7e3d e3b9 b1bb 49b1 22bc
00000160: 72cd 243d d33d b5bc b0ac fb3c 2a79 08be
00000170: fce8 123d 21b1 ea3c 96e2 aabd 5110 bf3d
00000180: 4703 ebbc de54 c33c 5e1c 4b3c 9a41 eb3b
00000190: 4ddb a13d d8be ec3c e9c1 1bbd 965f 72bd
000001a0: 7416 393d 8e01 663d a104 ba3d eaf9 3f3d
000001b0: 1508 b53c 3e97 ba3d bdb3 e6bc 49f6 0bbd
000001c0: ab61 72bd 99cc 833d 9ba4 90bd 9e22 423c
000001d0: 7807 0cbd 4adf d83d f2aa b2bd c61f 6b3c
000001e0: 93e9 c9bc e47d 863d 15c3 48bc 057f fd3d
000001f0: ef45 0a3d 9a2b b63b f1b1 f3bc 8ec8 cc3d
00000200: 1650 b3bc 3db2 95bd aa6b 843c 5e0b cfbd
00000210: ece6 a63d f7d0 bdbb 361c 79bd 7aac efbb
00000220: b1c5 6b3d 245e 9abd d912 a23d 1385 363b
00000230: 7186 d0bc 6cc7 423d ba7f 413d 2c76 833d
00000240: c726 fe3c 7307 f63d e4e2 ca3d ba67 4e3d
00000250: f909 263d 59e6 a33d 9dfc 83bd fa4e 423c
00000260: 6f88 3e3d 76e0 883d eca2 1ebc fdd4 5fbc
00000270: 37bf 89bb 486f 9c3b 7f27 4fbd 525f 133d
00000280: d8c8 b3bc 3b69 333c dcb5 d7bd 4738 453c
00000290: 2ccd 9d3d ab9c c7bc 4d10 5bbd 0af3 cb3d
000002a0: d645 7f3d 6818 783d 33e7 973d 7db2 933c
000002b0: e379 df3d 5201 833d accb 2fbd f1fe c4ba
000002c0: bd3d 143d b0d1 2fbc 47ad 09bd d3b1 6e3d
000002d0: 7604 e13d c969 a8bd 3934 bc3b 51c8 793c
000002e0: ad85 7e3d 5532 933d a9d5 fe3c 837c f63c
000002f0: 04dc ceba 0b2c c23d ec8b b73d e651 e3bc
00000300: a729 94bc 7ff8 a43d b241 5ebd 0a8b 75bd
00000310: 78c9 0bbd 562b a4bc 0e46 3cbd b9d9 98bd
00000320: b302 a53d 12de 883d e76a 7d3d 72b5 ae3d
00000330: 4795 e1bd 95be b03d 2130 0dbd 8ee4 8abb
00000340: 1201 38bd bd9f 963d 72e0 b33d 32b3 6fbd
00000350: 0652 d7bd 2da7 c73d 89e3 9dbd 6fba 51bc
00000360: 3509 d2bc bff3 cabb 9571 b03d 68d8 19bd
00000370: 5bff b0bb 02f8 3dbd e8aa 943b da1c 9a3d
00000380: bceb 56bc 357f d5bd 7947 853d 2188 8fbd
00000390: b994 08be dd77 073e bac3 debd 6fdd 06bc
000003a0: bb54 54bb 9440 c1bc 78d3 a13d 105a b8bd
000003b0: 8cfb dc3d ca4e 983c c061 1e3d c532 6a3d
000003c0: ea80 a4bc 613d 253d 41f2 04bd 1e25 a5bd
000003d0: 267a 3f3d bb3d edbd 84d2 16bd 0aa1 4d3d
000003e0: 4cb4 9e3c e4f3 823d 6545 b2bd ab29 cd3c
000003f0: 09b2 673d 61b8 abbd 8f9d 183d 25c3 003d

a2c_network.mu.bias f4 [12]
0.039735556 0.03935245 -0.027800849 -0.0056734444 0.01915625 0.02573578 0.023722643 -0.047636766
0.0045802174 0.014123054 -0.0018235687 -0.0072076316
00000000: c0c1 223d 0930 213d 9bbe e3bc 4de8 b9bb
00000010: 91ed 9c3c d8d3 d23c fd55 c23c c51e 43bd
00000020: a615 963b 6264 673c d004 efba ff2d ecbb

exp_avg f4 [12]
0.012191964 0.0007529519 0.0036056403 0.010551602 0.005641797 0.0034319293 0.0059934133 -0.00660553
0.024585675 -0.006902733 -0.003625882 0.007141588
00000000: cec0 473c bf61 453a 9b4c 6c3b a0e0 2c3c
00000010: d3de b83b 38ea 603b 6564 c43b 3473 d8bb
00000020: e667 c93c 5230 e2bb 35a0 6dbb fb03 ea3b

exp_avg_sq f4 [12]
0.0013277184 0.0011738983 0.0013230502 0.0012514194 0.001263636 0.0012183947 0.0013196162 0.0012645659
0.0012697098 0.001281916 0.0012703931 0.0012896641
00000000: d606 ae3a 7edd 993a 336a ad3a ab06 a43a
00000010: 97a0 a53a 8bb2 9f3a f9f6 ac3a cabf a53a
00000020: 646c a63a f705 a83a 5283 a63a f209 a93a
