OmniIsaacGymEnvs/omniisaacgymenvs/runs/Naranjelio/nn/last_Naranjelio_ep_8200_rew_11.718158.pth (torch, 672807 bytes, 36 tensors)

value_mean_std.running_mean f8 [1]
000000 58 37 c9 84 b0 3e e5 3f
       0.6639025300480439

value_mean_std.running_var f8 [1]
000000 c7 5d d9 02 70 c1 ca 3f
       0.2090282453452643

value_mean_std.count f8 []
000000 00 00 80 00 00 06 c8 41
       806092801.0

running_mean_std.running_mean f8 [48]
000000 32 42 37 3d dd 03 a5 3f b6 53 75 85 e4 04 84 bf
       0.04104510662330475 -0.009774957011055335
000010 09 70 52 5d 12 be a2 3f c2 52 e2 18 ec 63 8e bf
       0.036606382266853706 -0.01483902407589122
000020 d4 94 a9 b1 70 8a 8a bf 9c 98 bf 25 13 23 6c bf
       -0.01295936624701214 -0.003434693715450866
000030 d7 4b ca 9e e3 d9 b0 3f c3 eb d9 e9 cf b2 b0 bf
       0.06582472445215558 -0.06522845706233142
000040 e4 a4 34 ae 4d 1b ee bf a2 83 22 15 b0 04 48 bf
       -0.9408329393819739 -0.0007329807069887848
000050 42 30 43 fe e7 24 82 bf 5d f5 f7 0a ad 58 57 3f
       -0.008859455534910524 0.0014249505874198356
000060 fd bf fc ce 31 6f c1 3f 71 86 2f 27 4d e4 c6 bf
       0.13620588881303766 -0.17884220517503338
000070 19 c4 76 53 d4 9d db 3e 24 c2 81 b9 06 ac 8b bf
       6.5842917175577e-06 -0.013511707817287784
000080 79 80 87 10 cb 00 cd 3f 0b 94 0d 1e 8d 6c b6 bf
       0.22658670718283583 -0.08759386047093203
000090 46 ab 59 58 d2 3d d0 bf 64 c0 e8 63 7f 1e da bf
       -0.25377329471546195 -0.4081114268947259
0000a0 ad 6e 80 3f 9e 50 d4 3f ae 52 37 bb 9b f2 df bf
       0.31742054177605433 -0.499182637050846
0000b0 ce 5c ae 76 97 4b c6 bf 65 e4 bc d3 2a 21 dd 3f
       -0.17418187422729264 0.4551493709328212
0000c0 d7 08 5d 55 81 e2 6b bf 1d e1 7d da ee 67 32 3f
       -0.0034039045375787546 0.0002808530939471131
0000d0 e5 be 6a 1b dd 33 22 3f 3b c4 a1 06 d0 f4 20 bf
       0.0001388747602581931 -0.00012936629656537684
0000e0 2e a2 9f 9c 0a db 76 bf d0 52 d0 00 5d aa 7f 3f
       -0.005579987957368844 0.007730830472628639
0000f0 29 8e 62 aa a2 05 70 3f 2b 35 9c b1 5b 33 75 bf
       0.003911624348038192 -0.005175932101122253
000100 3b 3b 7b f5 cd 28 77 3f 17 ca c5 6b ab 58 78 bf
       0.005654148604391558 -0.005943936932782743
000110 36 6b 12 fe c6 7b 60 bf b4 a4 4a 75 d1 f2 86 3f
       -0.0020121466228152597 0.011205326454119514
000120 3d 7d c2 6e f4 b1 b1 bf 8c 50 1f 3f af 0d 81 bf
       -0.0691216249856454 -0.008326882470932405
000130 f7 73 52 46 c0 05 d5 bf 81 d3 8a 67 39 1d dd bf
       -0.32847601764097994 -0.4549087058215307
000140 67 96 74 af dc 88 c1 bf 67 9c 40 5f 28 ba e2 bf
       -0.1369891983714979 -0.5852243290327238
000150 23 40 b1 b8 57 2a ec 3f c2 49 67 81 47 32 cd 3f
       0.8801687819741385 0.22809690302399416
000160 1d 50 a4 74 21 68 db 3f ec fe 44 ee 4f 17 e7 bf
       0.428230632694296 -0.721595731134554
000170 32 08 6d fc 9a fe d4 bf 12 37 cd dc 88 3e e3 3f
       -0.3280398812386266 0.601383620503585

running_mean_std.running_var f8 [48]
000000 77 81 ff b7 15 50 c4 3f 03 75 8d 01 d0 f8 d1 3f
       0.15869399532585834 0.28081131126039355
000010 05 c0 4d 21 9b ac a4 3f 88 bc 0d 7b 50 ee a0 3f
       0.040379379096407354 0.033068194409559715
000020 49 89 85 6e a3 ff 85 3f 7c 64 4d 07 f2 ce 64 3f
       0.010741497812607153 0.0025400855178472886
000030 ad 82 ad 10 59 26 a4 3f 7c f3 71 7f 31 66 ad 3f
       0.03935507134042857 0.057420298392549335
000040 79 a5 af 24 59 68 83 3f 53 18 31 50 39 65 15 40
       0.009476372177192204 5.348851445194742
000050 5d 3b 5e 0b f0 21 f5 3f bf 9a 1e 50 ee 38 95 3f
       1.3207855648103852 0.02072498668681066
000060 08 20 ba 40 29 46 b0 3f 68 47 9f 05 c3 1f b0 3f
       0.0635705740952518 0.06298464667568526
000070 9f fd c4 8b d1 6f 6a 3e 98 57 2d a9 82 e9 b1 3f
       4.924236082998134e-08 0.06996933584500054
000080 5b 9e 20 9e 52 42 b3 3e 56 9a 8e 0e f0 75 b0 3f
       1.1479302135605576e-06 0.06429958682438416
000090 85 a3 0d cb 91 f1 af 3f 53 66 bf 50 cc 1f d5 3f
       0.06238990405728998 0.33006580243600075
0000a0 80 ac fe d1 5b db bf 3f 5f 38 cc 27 47 6a bd 3f
       0.12444089772059108 0.11490292283653634
0000b0 36 de 43 90 14 59 df 3f 9d 95 6b 1d 3d 79 be 3f
       0.48981203163518516 0.11903745620982993
0000c0 41 11 33 fb 2f 0c 7c 3f da cb 8a ba f8 f3 74 3f
       0.0068475603358744705 0.005115481945426626
0000d0 a4 14 74 85 7a 70 35 3f c9 bc 01 b2 cb 87 e6 3e
       0.0003271388172410661 1.0743356654267782e-05
0000e0 89 77 8a 22 ac 7a 60 3f 48 d7 2b 84 61 b8 73 3f
       0.002011619759584475 0.00481451122572258
0000f0 67 bf 58 ab e6 3a 54 3f ed 58 19 37 7d 01 7f 3f
       0.0012347462301356084 0.0075697795123998825
000100 dc 4a 31 54 7a 61 98 3f 4d 56 ff 80 75 35 77 3f
       0.02380934847708259 0.005666216849893835
000110 e9 72 01 68 a7 2b 71 3f 7b a4 7c b8 4b 65 70 3f
       0.004192022257566854 0.004002853187366924
000120 4d b3 8d 58 30 58 e6 3f ec f8 4d d6 8a 00 e6 3f
       0.6982652406273729 0.6875662027012175
000130 ae 9f f3 db 4d 31 e5 3f f4 40 83 60 2e 4a e2 3f
       0.6622685714655654 0.5715553174032082
000140 52 c6 b7 d2 0f 67 e8 3f a5 7c ac 9e c8 21 d9 3f
       0.7625807872374912 0.39268699164854076
000150 43 25 4f 93 a0 48 b0 3f f1 81 ca 23 3b 2b e1 3f
       0.06360820385375114 0.5365272234958508
000160 6c 97 8f 52 3b e3 dc 3f 9e 71 26 d2 2b 71 d4 3f
       0.4513691240557509 0.31940742037274983
000170 4c fa 1f 40 7e 0f e6 3f d3 76 5b ba d9 0c da 3f
       0.6893912556113917 0.4070343322654086

running_mean_std.count f8 []
000000 00 00 00 01 00 06 b8 41
       403046401.0

a2c_network.sigma f4 [12]
000000 de 71 bc bf 20 2f d5 bf 21 ad 8c bf 98 b5 af bf
       -1.472225 -1.6655006 -1.0990335 -1.3727293
000010 ec 60 bb bf c7 d9 03 c0 b4 b3 cc bf 5d da fe bf
       -1.4638953 -2.060167 -1.5992341 -1.9910389
000020 36 da eb bf df 5a a7 bf 8d 60 af bf 60 52 be bf
       -1.8425968 -1.3074607 -1.370134 -1.4868889

a2c_network.actor_mlp.0.weight f4 [256, 48]
000000 47 d0 2e bd 87 85 52 bd 33 23 c3 bc 48 67 8c bd
       -0.042679098 -0.051396873 -0.023820495 -0.06855637
000010 6a a0 96 bd 7e a9 16 bc 33 e5 a2 bd be 9a 97 3d
       -0.07354815 -0.0091956835 -0.079538725 0.074025616
000020 1e 2e 12 be 7b 82 ca be e4 5e c8 3d 7b bf 5a 3e
       -0.14275405 -0.39552674 0.09783724 0.21362107
000030 0b 4e 00 be 39 83 5a 3d 60 07 ce bd a7 b0 14 be
       -0.12529771 0.0533478 -0.100600004 -0.14520513
000040 92 5c d3 3d 59 bc 3d bc 12 e2 79 be 04 47 19 3e
       0.10320391 -0.01158055 -0.24402645 0.14968497
000050 19 b9 6b be ee b2 ee bd 30 c0 2c be c2 c0 d8 3d
       -0.23019828 -0.11655222 -0.16870189 0.10583641
000060 10 d4 0d 3d 3b a2 9e 3d 56 a7 7f bd 7e 92 00 3d
       0.034626067 0.07745787 -0.062415443 0.031389706
000070 3b 26 18 bc 7d 85 3b be f3 f3 01 bd d7 fa 81 bd
       -0.009286459 -0.1831264 -0.03172679 -0.06346672
000080 9f cc c2 bd 7f 09 cc 3b 0b d5 5b bc 97 42 93 3d
       -0.095116846 0.006226718 -0.013417493 0.071904354
000090 19 b2 b7 3d c2 9c 91 3c 5b 7f f6 3c 53 e0 8c bd
       0.08969516 0.017774943 0.030090025 -0.06878724
0000a0 bc 0b fc bb d8 73 82 3d e6 db 22 3d 1e 1b 64 bd
       -0.0076918285 0.06369752 0.039760493 -0.055689923
0000b0 1e 2f bf 3d 0f 06 b5 3b 6a d8 c0 bd ca 40 78 bd
       0.09335159 0.005524404 -0.09416278 -0.060608663
0000c0 da 78 27 be 95 fa bd bc fb 18 3e 3e cf a4 e5 bd
       -0.16354695 -0.023190776 0.18564217 -0.11213075
0000d0 bc b8 9f bd bd 27 b4 bd 93 48 68 3d 7f 42 92 be
       -0.07798907 -0.08796642 0.056709837 -0.28566357
0000e0 ea ab 04 3f b3 9a 18 bf 6a ec 41 3e 2a 16 99 3e
       0.5182482 -0.5961105 0.18937841 0.29899722
0000f0 dd 70 88 3c 8b 29 ee 3c c8 86 0b bd d1 29 19 be
       0.01665538 0.029072544 -0.034064084 -0.14957358
000100 83 f7 ed 3c 41 d3 5f 3d d5 e5 35 bd ce 71 dd 3d
       0.029048687 0.054644827 -0.044408638 0.10812722
000110 bb 08 95 3e 77 17 3f be a3 0c 0c 3d 42 0e 0d 3e
       0.29108223 -0.18661295 0.03419174 0.1377497
000120 5f df af bd fa ec 9e 3b fd 69 4d 3c 8c f0 e0 3c
       -0.085875265 0.004850027 0.012537477 0.027458452
000130 74 bf ed bc bd 3b 87 3a e3 fa 6f bd 49 ee 8c 39
       -0.029021956 0.0010317486 -0.058588874 0.00026880417
000140 30 0c 82 bd b6 75 87 bc 9c 2e 8d 3d ad 02 97 bd
       -0.06349981 -0.016535621 0.06893656 -0.07373557
000150 59 f2 e4 3d c2 c8 2a be d3 64 47 3b c7 18 28 be
       0.11179037 -0.16678146 0.0030425086 -0.16415702
000160 72 11 00 3d 6c e5 54 bd 5b cf 29 bd ae c3 fd bd
       0.031266637 -0.051976606 -0.041457515 -0.123908386
000170 f4 34 ae 3d 36 88 b0 3b bf 76 1a be 3c ef d0 bb
       0.08506194 0.0053873314 -0.1508436 -0.006376175
000180 a6 88 ff bc 72 7c 4d 3e 72 f3 81 bd 27 8b 5d bd
       -0.031193089 0.20067003 -0.06345262 -0.054087784
000190 92 30 9c 3c 14 19 49 be 04 65 26 be 9e b9 03 bf
       0.019066129 -0.19638473 -0.16249472 -0.51455104
0001a0 6d 45 3c 3d 1a 16 87 be c2 25 35 be db 1d da bd
       0.045964647 -0.2638405 -0.17690185 -0.10650226
0001b0 fe 71 8d 3e 14 60 7b 3e e2 0c 33 3d 58 83 0c 3e
       0.27626032 0.2454837 0.043713458 0.13721979
0001c0 6e bc d0 bd 18 ad 2e be fb 13 31 be 2a 16 6f be
       -0.1019219 -0.17058218 -0.17292778 -0.23348299
0001d0 e2 82 9a 3d bc df 21 bd bf 66 a4 3c 01 c9 b4 bd
       0.07544495 -0.03952001 0.020068524 -0.08827401
0001e0 b4 f4 23 bd 27 ca 54 3c 8d 92 3d bc b1 6c 54 3c
       -0.04002829 0.01298765 -0.011570585 0.012965367
0001f0 df 15 69 bd 3a 87 36 be 65 a7 ed bc a2 b1 e3 3d
       -0.056905624 -0.17825022 -0.029010484 0.11117865
000200 4b f9 83 bc 43 ad 0f bc dd e3 61 bc 8d 43 1d bd
       -0.016110083 -0.008769336 -0.013787237 -0.0383945
000210 5a 5c 9f 3d 4f 8c 5d 3b 28 dd e8 bc 95 c3 82 3e
       0.077812865 0.0033805554 -0.028425768 0.25539842
000220 65 57 a5 bc c3 6f 20 3e 6b 3f 78 3c b8 fd 22 3d
       -0.020183275 0.15667634 0.015151839 0.039792746
000230 4d f6 0c be 48 cc e3 bc 59 fd 1c bd 28 e9 ce bd
       -0.13765831 -0.02780737 -0.03832755 -0.10103065
000240 4b b0 1e bd 5c 08 fb 3d 6c f2 ce 3d 2a 4d 9d 3c
       -0.038742345 0.12257454 0.10104832 0.019201834
000250 06 c6 c2 3c 23 3a 73 3c 85 d6 a1 bd c3 dc 82 bd
       0.023776066 0.014845404 -0.079022445 -0.06389763
000260 eb fb b9 3e 0a 92 89 be f0 97 fa bc 82 f3 0e 3f
       0.3632501 -0.2686923 -0.030590028 0.55840313
000270 5d cd a5 3d 1d 3a 8b be b7 b5 03 3e 10 3d 91 bc
       0.080958106 -0.27192774 0.12862287 -0.017729312
000280 2a f6 a3 3d 01 df b1 be 40 e2 01 3e 04 12 a3 3d
       0.080059364 -0.3474045 0.12683964 0.079624206
000290 b8 be 54 bd 1f a6 ae 3d 87 41 58 bd bb 98 74 bd
       -0.051939696 0.08527779 -0.052796867 -0.059715968
0002a0 6a 13 93 3c 47 c1 aa bd 5a e1 67 bb 8b d2 42 bc
       0.017953593 -0.08337646 -0.0035382123 -0.011891018
0002b0 2e 68 48 3d d7 c4 77 3d 10 d9 54 bd e0 b9 9f bc
       0.04892748 0.060490455 -0.05196482 -0.019497812
0002c0 00 9a 58 bd a6 c1 c2 bc 93 0e 2e bd 01 3e e8 bc
       -0.05288124 -0.02377398 -0.042494368 -0.028349878
0002d0 41 54 2b 3c 0c 3c 75 bb da be 22 3e 73 63 14 bd
       0.010457099 -0.0037419824 0.15893117 -0.036227655
0002e0 4a d0 08 3b 30 43 14 3d b6 58 29 3c b4 37 49 3e
       0.0020876103 0.036196887 0.010336092 0.19650155
0002f0 32 98 8c bd 5d d0 5a 3d d6 d4 01 bd 18 0e 99 3d
       -0.068649665 0.053421367 -0.031697117 0.07473391
000300 17 af 96 bd 0d 7b 13 3e 91 9c b1 bd 68 aa e9 3b
       -0.073576145 0.14402409 -0.08672441 0.0071309097
000310 b3 80 0d bd f6 be b4 3d 2e 24 aa bd 21 a6 35 be
       -0.034546565 0.088254854 -0.08307682 -0.17739154
000320 46 93 5a be 9b 78 98 be c9 10 81 3e bc 86 e4 bc
       -0.21345243 -0.29779515 0.2520812 -0.027896278
000330 72 9e ad bc f5 89 66 3e 48 9c 16 3e 11 db 12 3e
       -0.021193717 0.22513564 0.14708054 0.1434138
000340 62 96 a6 3c ac 9a 56 bd 80 40 07 3e b4 0d 9f bd
       0.02033538 -0.0523936 0.13208199 -0.077662855
000350 7f 00 10 3e 81 4a 00 3d 71 ca 39 3e 80 1c 40 3d
       0.14062689 0.031321052 0.18143632 0.04690218
000360 3d e1 45 bd 75 cc 30 bb 39 27 d9 bb 50 8f 6e 3d
       -0.048310507 -0.0026977335 -0.00662699 0.058242142
000370 ba 8e 79 bd a6 5a 45 bc 74 0c f2 3c 1d ff 02 bd
       -0.06092713 -0.012045538 0.029546954 -0.031981576
000380 0a 68 49 bc 03 99 95 3c 2c 43 8a 3d c2 0d fb bc
       -0.012292871 0.018261438 0.06751093 -0.030646209
000390 b1 d6 08 3d e8 e0 83 3c 0b be 9b 3d b5 2b 08 bd
       0.03340787 0.016098455 0.07604607 -0.033244807
0003a0 bd 9c 8c 3d 52 59 9c bc bd 4b 84 bc 93 ad 53 3d
       0.06865833 -0.01908556 -0.016149396 0.051679205
0003b0 0c 93 f6 3d 23 4b a2 bd cc 86 de 3d 71 77 90 3c
       0.12039766 -0.079244874 0.10865554 0.01763508
0003c0 a5 29 2e be b2 60 d2 bc 54 9c 2b 3e 1a 67 47 3d
       -0.17008074 -0.025680874 0.16758853 0.04868231
0003d0 75 04 84 bd 6b a1 99 3d 11 b8 9c bd ae 11 fc bd
       -0.064461626 0.07501491 -0.076522954 -0.1230806
0003e0 d7 f8 24 be 06 53 9d bd 12 9a 2b be 41 27 cd be
       -0.1611055 -0.07681851 -0.16757992 -0.4006901
0003f0 15 9c c2 3d 01 dd 9c bd 1c 92 38 bd 25 a8 de ba
       0.095024265 -0.07659341 -0.045061216 -0.0016987367

a2c_network.actor_mlp.0.bias f4 [256]
000000 1d d9 3c be 47 cb e3 bd 06 cd aa bb ce 1d 17 bb
       -0.18442197 -0.111227565 -0.005212429 -0.0023058536
000010 79 de 60 3e 43 e7 94 3c e3 92 8d be 98 1b bf bd
       0.21959867 0.01817668 -0.27651128 -0.09331435
000020 67 f1 27 be 1b aa 80 3e 3e 2a 4d bd aa 71 ee bb
       -0.16400681 0.2512978 -0.050089113 -0.0072767334
000030 70 57 f9 3d 97 c4 89 be ae c3 5a 3e e4 8f 4a 3e
       0.121748805 -0.269078 0.21363708 0.19781452
000040 9c 70 9e 3e 10 80 83 be 25 03 79 3e b5 3d 7f be
       0.3094529 -0.2568364 0.24317606 -0.24925883
000050 47 4a 84 bd df 97 d1 3b c0 cf 56 3e ba bb 5d be
       -0.0645948 0.0063962783 0.20977688 -0.21653643
000060 2a f1 23 3e 5f df 93 be 5e d5 32 be 9d 36 2f bd
       0.16009966 -0.28881356 -0.17464206 -0.042776693
000070 6b 53 ea 3c 57 2e 1e 3e 48 80 58 3e e5 4b 48 bb
       0.02860423 0.15447365 0.21142685 -0.0030562815
000080 e6 b6 0b be e2 a9 fb 3d 84 4e de bd 8c 41 fb bd
       -0.13643989 0.12288262 -0.108548194 -0.122683614
000090 a9 15 ad 3e 4b 30 73 be 91 0b 06 3e 5b fd b0 3e
       0.33805588 -0.23748891 0.1309035 0.34568295
0000a0 cb c0 5f 3e 89 f0 86 3e f9 27 b0 3e 62 e1 09 3e
       0.21850888 0.2635539 0.34405497 0.13464883
0000b0 52 14 2d be be 99 8e 3e 51 e8 11 be 18 ce 88 3e
       -0.16902283 0.2785167 -0.14248778 0.26719737
0000c0 ba 40 90 3e 70 61 3a be e0 e2 6f 3e 28 5f 1a be
       0.28174382 -0.18201232 0.2342639 -0.15075362
0000d0 aa b3 1c bd a5 1b ff bd 19 4f 60 3e a2 dc 88 be
       -0.03825728 -0.12456445 0.21905173 -0.2673083
0000e0 bc 0b ae 3e 57 8b 7a be b5 99 57 3e 9d 4b 56 be
       0.33993328 -0.24467216 0.21054728 -0.20927282
0000f0 b6 55 c7 3c d0 81 bc bb ea 22 80 3e 40 89 1a be
       0.024332862 -0.0057527795 0.25026637 -0.15091419
000100 fb 2b 8a 3d ec 94 75 bd 0c 81 5d be 50 fc 90 bc
       0.0674667 -0.059956476 -0.21631259 -0.017698437
000110 4b 6b 03 3e cc 85 5d be ca 7e 80 3e 69 68 2b bd
       0.12833898 -0.2163307 0.25096732 -0.04184762
000120 45 1c e4 bc d9 9b f6 3d d9 98 fc 3c 04 e2 f3 3c
       -0.027845511 0.12041444 0.030834602 0.029770859
000130 e9 24 ad 3e 52 4e 1b 3e 2c 3a 50 3e 95 91 54 bd
       0.33817223 0.15166596 0.20334691 -0.05189665
000140 cb e9 d8 3d c2 f8 4e be 27 5a bb 3c 33 2f 43 3e
       0.105914675 -0.20212081 0.022870136 0.19060974
000150 f1 df 9c 3e d6 15 1c be 26 b6 07 3e ea e7 4b 3e
       0.30639604 -0.15242705 0.13253078 0.19912687
000160 d6 f1 3d 3e 5c 86 e1 bd 4a 09 01 be 87 bf 72 3e
       0.18549284 -0.11011955 -0.126012 0.23705874
000170 8d e1 05 3e 49 65 1c be 02 9f 8d 3e ca cb 3c 3e
       0.13074322 -0.15273012 0.27660376 0.18437114
000180 ce 22 38 bd 80 c6 b5 3e 84 78 a4 3d e3 eb b7 3d
       -0.044955067 0.35503006 0.08030799 0.08980539
000190 2a ca 08 bd 17 fb 11 3e 31 c3 ab 3e df 6b 12 3c
       -0.033395924 0.1425594 0.33547357 0.008936851
0001a0 2a 6d 9a 3e dc e5 4d 3e 75 fd 54 3e 13 39 92 3e
       0.3016141 0.20107216 0.20799811 0.2855917
0001b0 77 91 bc 3d 7e 82 02 bd f6 8b 74 be 9e 71 ae 3e
       0.09207433 -0.03186273 -0.23881516 0.34071058
0001c0 7a 3e a0 be 54 24 9d 3e 75 97 a6 3e b7 a1 7a 3e
       -0.31297666 0.3069178 0.32537428 0.24475752
0001d0 df 6b 5e bd ec 81 47 be 7b 34 5c 3e 65 c2 2e 3e
       -0.054302093 -0.19483155 0.21504395 0.17066343
0001e0 b2 ca 60 be 9d 4f 8e 3e 5c 94 c8 bd 62 47 73 3e
       -0.21952322 0.27795115 -0.09793922 0.23757699
0001f0 92 8c 8b 3e 6c 35 b2 3d 9a 75 ee bc b4 88 95 3d
       0.27255684 0.08701596 -0.029108811 0.07301465
000200 67 b5 3c be 18 cb 94 3e b8 23 06 3d 0b ff 31 be
       -0.18428575 0.29061198 0.032748908 -0.17382447
000210 22 0c 90 3d ce f7 d7 bd da b6 b0 3e d2 72 4a 3e
       0.07033564 -0.10545312 0.34514505 0.19770363
000220 ef 97 a8 3d 9b 4e 4d be 2e 96 49 3e fc 1f bd 3d
       0.08232104 -0.20049517 0.19686195 0.09234616
000230 f8 a2 67 bd e6 6a 5c 3e 71 6c 39 3e c8 18 6f 3d
       -0.056551903 0.21525154 0.18107773 0.058373243
000240 51 ee 2d be 74 2b 76 3e aa 58 c9 3d 01 17 52 3e
       -0.16985442 0.24040014 0.098313645 0.20516588
000250 e0 49 43 be 19 5f 9c 3d c6 93 60 bd a4 3e 94 3e
       -0.1907115 0.07635326 -0.054828428 0.2895404
000260 72 0b a7 3e b1 2e 26 3e 43 d0 a1 bd 8f 24 85 be
       0.3262592 0.16228749 -0.07901051 -0.26004454
000270 ad 5c 81 be 67 96 96 3e ab a9 f9 bd b4 bc 70 bd
       -0.25266019 0.29411623 -0.12190565 -0.05877371
000280 09 91 8d bd 86 65 28 bd 73 bb da bd e9 ae 9f be
       -0.06912429 -0.041112445 -0.10680284 -0.31188133
000290 bb 1c be 3c e5 c2 59 3e 04 f7 45 be 62 c2 4d bc
       0.02320706 0.21265753 -0.1933251 -0.0125585515
0002a0 6c 94 17 be 19 7d 1d 3e c1 7f cd bd 2d 55 e8 3d
       -0.14802712 0.15379752 -0.10034133 0.11344371
0002b0 32 17 96 3e 27 35 66 bc 12 41 25 be 20 5e 60 3e
       0.29314572 -0.014050758 -0.16138104 0.21910906
0002c0 6f bc 73 3e ef 0b bc 3e df 0c 9e 3e ad e5 83 3c
       0.2380235 0.36727855 0.30869195 0.016100729
0002d0 22 e7 25 3b 00 57 d2 3e 69 53 dd bd 95 e9 83 3e
       0.0025314768 0.41082 -0.10806925 0.25764146
0002e0 50 8e 7f 3e 90 0c 3b be 5c aa 3d 3e 96 62 0a be
       0.24956632 -0.18266511 0.18522018 -0.1351417
0002f0 0c 79 a3 be c3 1f a0 3d 1c f1 41 be 29 22 ff 3d
       -0.3192829 0.07818558 -0.18939632 0.124576874
000300 d4 d4 d7 bd 8e 81 34 3c 5e 7d 2b 3e 73 58 91 bd
       -0.105386406 0.011017216 0.16747043 -0.070969485
000310 e2 68 07 3d f2 7a 47 3e d4 26 74 3e af 74 bc bd
       0.03305901 0.19480494 0.23842937 -0.09201943
000320 3b cb 55 3c 6b f8 2b be df 77 85 3e a6 14 8c bd
       0.013048942 -0.16793983 0.26068017 -0.06839876
000330 86 de f4 3e 9d 88 5f bd ed 54 83 be 90 2e 3a 3e
       0.47826022 -0.054573644 -0.2565073 0.18181825
000340 e0 66 ba bd da 10 3f 3e 39 dc 70 3d c9 f7 7c 3e
       -0.09101653 0.18658772 0.05880377 0.24703898
000350 c4 66 60 3e 35 0c ff 3d 61 ad 2f 3e 8a 93 18 3e
       0.21914202 0.124535 0.17155983 0.14900032
000360 38 f3 18 bd 8e ae 1f 3e a8 51 81 3e 3b d7 b4 3d
       -0.037341326 0.15593931 0.2525761 0.088301145
000370 88 53 10 3e f5 df 4d be b8 a8 a0 3e 3d f6 79 be
       0.14094365 -0.20104964 0.31378722 -0.24410339
000380 32 83 3d be ed b0 e1 3e 9f 40 ab 3e 89 fe 39 be
       -0.18507078 0.44080296 0.3344774 -0.18163504
000390 62 ba 86 3d 8c ac 7e 3e 24 5b 1e 3d 39 ca 8d bc
       0.065785185 0.24870509 0.038661137 -0.017308341
0003a0 6c c6 9c 3e 15 a7 ae 3e 35 d5 a6 3e b4 6d 93 bc
       0.30620134 0.34111848 0.3258454 -0.017996646
0003b0 2f f6 8d bd 59 3e 28 3e 05 e1 45 3e e2 0a b4 3d
       -0.069317214 0.16430034 0.1932412 0.08791138
0003c0 01 ad 86 3d 73 71 7b 3e 04 2d 81 3e 03 14 b6 3e
       0.065759666 0.24554996 0.25229657 0.35562143
0003d0 4f 23 08 be 9d fe 68 3e 98 6a b9 bd ef 6d 97 3d
       -0.13294719 0.22753377 -0.09053534 0.07394015
0003e0 9f 52 a3 3d 69 e3 21 be 60 50 ba 3c c2 02 3d be
       0.07974743 -0.15809406 0.022743404 -0.18458083
0003f0 6e 4d 1f 3e 2d d8 1a bd 5f 09 bd 3c 83 2b 33 3e
       0.15556881 -0.037803818 0.023075758 0.17497067

a2c_network.actor_mlp.2.weight f4 [128, 256]
000000 9c e5 d4 bc ad 09 90 3d ac a7 02 be 77 07 71 bd
       -0.025988393 0.070330955 -0.12759274 -0.05884501
000010 56 31 13 be 7e 10 2b 3d 3a bf 82 bd 3d 74 2b 3d
       -0.14374289 0.041763775 -0.0638413 0.0418589
000020 57 33 fe bb 97 58 79 3d 70 3b 08 be 19 c9 dc bb
       -0.007757585 0.0608755 -0.13303924 -0.00673784
000030 68 25 bc 3d f9 c9 37 be d7 0f 32 3d 13 43 c6 3d
       0.09186822 -0.1794814 0.043472137 0.09680762
000040 28 0a 39 bc e0 f8 08 3e b2 8c cc bb ae 6b fb bd
       -0.011293925 0.13376188 -0.006242358 -0.12276398
000050 19 74 83 bd b9 41 d9 bd 68 0e 63 3d 9a 3b eb 3d
       -0.06418628 -0.10608239 0.05543366 0.114859775
000060 52 3f e4 3c 27 b0 08 be 59 2d a7 bd f8 17 df bd
       0.027862225 -0.13348447 -0.08162946 -0.108932436
000070 f6 38 65 bd b6 ae 45 3d 79 70 bb 3d e3 c0 b1 bd
       -0.055962525 0.04826232 0.09152312 -0.08679368
000080 dc 6a a2 3c ad 2e 6a 3d bc 98 3f bd 18 eb 8b bd
       0.019826345 0.05717342 -0.04677652 -0.0683195
000090 4d 9b 48 be 9e e5 d9 bd 58 cf 9c 3d b9 26 a8 bb
       -0.19590493 -0.10639499 0.07656735 -0.005131569
0000a0 ea 50 55 3d 6c 81 0b bd e0 9e a5 bd 42 bb 99 3d
       0.05207912 -0.034058973 -0.080869436 0.0750642
0000b0 4c e8 88 3a ce 97 aa bc 85 df 6e be 38 e5 88 bc
       0.0010445206 -0.02082434 -0.23327453 -0.016710863
0000c0 e9 a7 76 3d e6 d2 21 bd f7 64 ee bd 18 1a 96 3c
       0.060218725 -0.03950777 -0.11640351 0.01832299
0000d0 de e4 09 be b7 f3 19 3e 09 f9 57 be 69 f0 3c 3d
       -0.13466212 0.15034376 -0.21091093 0.04612771
0000e0 33 34 22 be 2c 5e a0 3b 05 52 3a bd 39 de 1c 3e
       -0.15840225 0.0048940387 -0.045488376 0.15319146
0000f0 50 c7 32 3c 5f e9 db 3d 23 64 43 bd 7b a8 42 3e
       0.010911778 0.107378714 -0.04770292 0.19009583
000100 4f 99 1a bd 0c ef c4 3d bc 97 a9 3c e7 2c b2 3d
       -0.037743863 0.09615907 0.020702235 0.08699971
000110 e5 7c 95 bd 1e 50 f4 bd 65 6f 68 bd a8 8f 85 bd
       -0.07299212 -0.11929344 -0.05674686 -0.06521541
000120 9f f5 fe bc 26 3e dc 3d ce 4e 06 3d 66 00 99 bd
       -0.03112298 0.107540414 0.032789998 -0.07470779
000130 ac cb b4 bc 26 37 85 bd 00 68 0f be 19 89 dc bd
       -0.022069775 -0.06504659 -0.14004517 -0.10768337
000140 04 d6 d4 3d e0 2e e7 3d b2 44 34 bd ed 14 d1 bd
       0.10392383 0.112882376 -0.044010825 -0.102090694
000150 f9 1d c9 bd 4d 35 cf bd bc 2f 66 be 65 d7 a5 bd
       -0.0982017 -0.10117588 -0.22479147 -0.08097724
000160 0f 23 1f be ac e3 a2 bd 1b 0f b7 3d 4c 2a 28 3d
       -0.15540718 -0.07953581 0.08938428 0.041055962
000170 14 f6 22 be 63 77 ce 3c 37 88 87 3d 0c ea 97 3d
       -0.15914184 0.025203412 0.06617778 0.07417688
000180 87 43 0f be 7b bd 70 bd 39 b0 33 bd b4 90 01 3e
       -0.13990603 -0.058774453 -0.04386923 0.12652856
000190 49 b6 b7 bc 9b 6c 15 be fe ee ff bd 78 14 07 3e
       -0.022425788 -0.14592211 -0.12496756 0.13191402
0001a0 35 da 0f be 41 20 ae 3d e4 22 fb bd cb 0b 3c bd
       -0.14048083 0.08502246 -0.12262514 -0.045909684
0001b0 2d ab 5c bd 55 e2 d1 bd 05 30 74 bd 42 29 bc 3d
       -0.053874183 -0.102482475 -0.059616107 0.09187557
0001c0 a1 0b ea 3c d4 f0 2a 3d 1b 25 65 be 23 a2 cd bd
       0.028569998 0.041733578 -0.22377436 -0.10040691
0001d0 b5 01 42 be 21 8d 9a bb 39 04 95 3d ac 98 07 be
       -0.18945964 -0.004716531 0.07276196 -0.13241833
0001e0 3e a4 8f 3d 71 21 dd bd d5 eb 66 3a 20 6b 8f bd
       0.070137486 -0.10797394 0.00088089454 -0.07002854
0001f0 2a 5d 9b bd 7e 4d 4f 3b f0 cd 65 3a 8b 4e 4b 3e
       -0.07586129 0.0031631882 0.0008766344 0.1985418
000200 40 a7 50 bd 65 15 38 be c1 8e 86 be ac 68 65 bc
       -0.050940752 -0.17976911 -0.26280788 -0.0140020065
000210 31 15 b0 bc 74 c0 42 be 40 89 43 3d ea 45 f0 3d
       -0.02149448 -0.19018728 0.047738314 0.11732085
000220 a4 65 55 be 34 67 b3 bd cf 9e a3 bc a6 9a d5 bc
       -0.20839554 -0.08759919 -0.019973187 -0.026074719
000230 53 9b 4d be 3d e9 1a be d6 fc 98 bc a9 91 53 3e
       -0.20078783 -0.15128036 -0.01867525 0.20661034
000240 12 27 92 bc 69 72 47 bd e9 6a a1 bd 22 df ed 3d
       -0.017840896 -0.048693094 -0.078817196 0.11614825
000250 fc cf 09 3d 17 70 56 bd 69 08 12 3d 97 d9 fc bd
       0.033645615 -0.05235299 0.03565255 -0.123461895
000260 14 8a cb bd 5e d7 86 bd 6b ac 37 bd df 0e 58 3c
       -0.09938446 -0.06584047 -0.044842165 0.013187139
000270 45 8e 09 3d 57 67 53 bd 9e 1e 6d 3e 74 33 6c bd
       0.033582944 -0.051612224 0.23156211 -0.057666257
000280 e5 cc 2f 3d 44 66 4f be 16 48 47 be 87 47 a1 bb
       0.042920012 -0.20253855 -0.19461092 -0.004921857
000290 e2 1e 17 bd 5c f0 c2 bd 48 5d 7d 3d 4d 5d aa 3d
       -0.036894687 -0.09518501 0.061856538 0.08318577
0002a0 d4 15 0a be ac a7 9f 3c cf b8 16 be 55 37 64 3d
       -0.1348489 0.019489132 -0.14718936 0.05571683
0002b0 34 07 ee bc 1d 09 0a be eb 61 a1 bd 71 c4 27 3e
       -0.02905617 -0.13480039 -0.078800045 0.1638353
0002c0 40 ed d0 3d 60 84 75 bd 69 eb b6 3d 69 7d 27 be
       0.10201502 -0.059940696 0.0893162 -0.16356434
0002d0 42 6c 2d 3c 6e a8 ac bd 6e 18 73 be d4 f1 c4 bd
       0.010584893 -0.08430563 -0.23739788 -0.096164376
0002e0 a2 ab f0 3b 9a 67 bb 3d 92 05 a8 3d 66 73 19 3d
       0.007344679 0.0915062 0.082041875 0.03746357
0002f0 30 92 5e 3e 91 cb 7e bd 91 6b ac bd 76 8e 3f 3e
       0.21735454 -0.062205855 -0.08418954 0.18706688
000300 e2 b2 e5 bb 44 19 bc 3d d7 f2 14 be 9a e0 94 bc
       -0.00700985 0.091845065 -0.14545761 -0.018173505
000310 cb 46 cb bd 89 04 f4 bd 71 50 ff bd 1a 9e 08 bb
       -0.09925612 -0.119149275 -0.12466515 -0.002084619
000320 73 e2 b4 3d 4b 54 e6 3c 6b 9f 3e be b8 b0 8e be
       0.08832254 0.028116366 -0.186155 -0.278692
000330 f9 7f 52 be eb e4 b0 3b c0 d3 ec bd 6a 77 6b 3d
       -0.2055663 0.005398383 -0.115638256 0.05748693
000340 22 98 0d 3d 95 58 9b 3d ad 73 20 be 2e 82 15 3c
       0.034568913 0.07585255 -0.15669127 0.009125276
000350 a9 b6 3e be e9 be 92 bd 10 38 0b 3e 9d 0e 1a 3d
       -0.18624367 -0.071653195 0.13595605 0.037611593
000360 2b 2a be 3d 06 3a c8 3d df b3 07 be 49 87 c9 bd
       0.09285387 0.09776692 -0.13252209 -0.09840257
000370 be d1 90 bd 9d 80 0d 3e d7 61 12 be c1 72 8b bd
       -0.07071255 0.13818593 -0.14295135 -0.06808997
000380 f1 bf a8 3c d5 d4 2e be 01 bb 84 3d 2f 7f 00 be
       0.020599337 -0.17073376 0.06480981 -0.12548517
000390 f8 8e 96 3d 78 d4 35 bd b8 0a 16 be 65 f9 21 3e
       0.07351488 -0.04439208 -0.14652526 0.15817793
0003a0 07 cf ed 3a 7b 58 16 3e 6b d4 f2 3b b2 08 84 3d
       0.0018143364 0.1468219 0.007410576 0.06446971
0003b0 bd e2 19 be 4d 49 d8 3c 6f 90 4c 3e a5 40 88 be
       -0.150279 0.02640214 0.19976972 -0.2661182
0003c0 30 a2 96 3b 05 ab 08 3e 81 f9 94 bd e9 2d de bd
       0.004596971 0.13346489 -0.072741516 -0.108486004
0003d0 8c 62 93 bd f8 6d 40 3a 50 39 03 3e dd c0 f2 bc
       -0.07196531 0.00073406054 0.12814832 -0.02963298
0003e0 3a 3d 14 3e 89 e2 e7 bc 37 b2 ef bd 03 c8 8d bd
       0.14476481 -0.028306263 -0.11703914 -0.06922915
0003f0 6a 40 f6 3d 1f 2f 3b 3d bf fa 67 3d 03 1b 04 3e
       0.12024005 0.045699235 0.056635614 0.12900929

a2c_network.actor_mlp.2.bias f4 [128]
000000 a8 c1 29 be 1f 78 8a bd 50 e1 13 be a6 04 94 bd
       -0.1657778 -0.067611925 -0.14441419 -0.07227449
000010 9d ba 0c bd 70 01 01 be 52 4a 8d be 70 63 55 be
       -0.034357656 -0.12598205 -0.27595764 -0.20838714
000020 eb c2 84 be 6b 27 b8 be fe 2c 2a bc dc 51 08 be
       -0.2592996 -0.35967574 -0.010386704 -0.13312477
000030 ab af 8b be 6f 4c fe 3c a3 5e a3 bd 93 eb 33 3d
       -0.27282462 0.031042306 -0.07977035 0.043925833
000040 c1 cf 84 bd 12 ed 36 be a1 70 50 be 2b af 13 3e
       -0.064849384 -0.17863873 -0.20355465 0.1442229
000050 7e c0 a6 bd fc 9c 57 be 24 fc 68 bd 56 c9 24 be
       -0.08142184 -0.21055979 -0.056881085 -0.16092429
000060 f5 12 ea 3c 06 d1 67 be 3d 06 8b bd 29 15 50 3d
       0.028573493 -0.2263833 -0.06788299 0.05080143
000070 64 f3 b1 bd 3f b0 8c bd 70 01 90 3d f7 95 34 3e
       -0.08689001 -0.06869554 0.07031524 0.17635332
000080 7f 98 a6 be f0 99 37 be 0d 8e 3d 3e 21 70 99 3d
       -0.3253822 -0.17929816 0.1851122 0.0749209
000090 69 39 4c be d6 bc 8a bd 64 8d fb 3d be 9b 9a 3d
       -0.19943775 -0.06774299 0.122828275 0.07549237
0000a0 b6 3f 8a bc 4e 71 32 bd bb c6 94 be 7b c5 73 be
       -0.016876083 -0.043565087 -0.2905787 -0.23805802
0000b0 02 b8 98 bd 1b d6 68 bd 60 eb d3 bd b7 23 6c be
       -0.07456972 -0.056844812 -0.103476286 -0.23060499
0000c0 ec 26 b8 bd db c5 29 bd b6 20 b2 bd 01 34 e0 bd
       -0.08991799 -0.041448455 -0.08697645 -0.10947419
0000d0 b2 d2 78 be 4c c1 91 be 41 e3 53 3d 25 43 af bc
       -0.24299124 -0.28467786 0.051730398 -0.021394322
0000e0 67 7b c9 3c c1 9c dd 38 16 3c 16 be ac 64 0e 3c
       0.024594976 0.00010567299 -0.14671358 0.008690994
0000f0 25 ba 78 3b 31 8d 7d bd 61 e2 53 bd d4 57 ec bd
       0.0037952748 -0.06190223 -0.051729564 -0.115401894
000100 a2 3e 75 3c 37 42 19 bd 52 a1 07 be b3 fd 45 be
       0.014968546 -0.037416663 -0.13245133 -0.1933506
000110 1d c0 8e bc 59 5b 0f 3d 18 07 ff bd 69 7c 44 bc
       -0.017425591 0.034999225 -0.12452525 -0.011992552
000120 4b 68 3d be 81 d9 1d bc 26 6e 18 be 9a 99 9c 3d
       -0.18496816 -0.0096343765 -0.14885768 0.07646485
000130 84 51 75 3b 44 2e d5 bd 82 bb 39 be 61 59 e0 bb
       0.003743262 -0.10409215 -0.18137935 -0.0068465923
000140 b2 f7 67 be 99 9a 3b be 72 ef 7a be 8a 1b 65 bd
       -0.22653082 -0.18320693 -0.24505404 -0.055934466
000150 3f 0f e2 bc b3 91 a7 bb 1b 2b ac bd ed f7 5f be
       -0.02759516 -0.0051138042 -0.08406659 -0.2187192
000160 16 83 fe bd 53 eb 44 be 0b d7 8c 3d 2e 49 eb bd
       -0.124273464 -0.19230394 0.06876954 -0.11488567
000170 bc 92 fc bd dd 71 0f be 32 27 b9 bd fe 84 59 3c
       -0.12332675 -0.14008279 -0.09040679 0.013276337
000180 d4 69 0f 3b 02 44 07 be e9 ca 2d 3d 92 02 ab be
       0.0021883147 -0.13209537 0.04242984 -0.33400398
000190 7f 63 89 be e4 1b 22 be bd 6e 29 be 0d e3 53 be
       -0.26833722 -0.15830952 -0.1654615 -0.20692082
0001a0 7c f3 ad bd 14 de 31 3c 4b f0 1f be a6 dc 31 3e
       -0.084937066 0.01085617 -0.15619008 0.17369327
0001b0 3d 58 e9 bd 7d fe ec bd 76 c3 52 be 29 70 c5 bd
       -0.11393783 -0.11571977 -0.20582375 -0.096405335
0001c0 7a 3e 83 bd 7c 13 09 bd 75 5e 9f 3d b5 84 aa be
       -0.06408401 -0.033465847 0.07781688 -0.33304372
0001d0 2e 55 70 be 6b 66 1c bd e0 df 00 bd 8f 8c 23 3e
       -0.23469993 -0.03818361 -0.031463504 0.15971588
0001e0 05 ce 31 be cb a1 c5 bd fc ad 4f be ba 8b 94 3c
       -0.17363746 -0.0965 -0.20281214 0.018133033
0001f0 50 9f 17 be f5 19 5d be 5e 4c cd bd 44 8b 41 be
       -0.14806867 -0.21591933 -0.100243315 -0.18900782

a2c_network.actor_mlp.4.weight f4 [64, 128]
000000 99 19 e1 3d 8f 3e ae 3d dc 8e c0 3d 2a 46 d0 3c
       0.109912105 0.08508026 0.09402248 0.025424082
000010 b3 28 bc 3c 92 d6 a6 bd c9 6f c4 bd a5 2e d8 bd
       0.022968626 -0.08146395 -0.09591634 -0.10555772
000020 1f 28 55 3e 63 cf 08 3e b6 06 76 be 82 2c 49 bc
       0.20816086 0.13360362 -0.24025998 -0.012278678
000030 ce a8 c8 3d f8 cb 05 3e af f8 ad bd 61 e4 a8 3d
       0.09797822 0.13066089 -0.08494698 0.08246685
000040 0a 03 c6 bd 9c 2d 59 3d 98 25 a2 bc f2 79 79 be
       -0.096685484 0.053022012 -0.019793317 -0.24362925
000050 10 e1 d8 bb 57 7c 36 3e d6 1b 48 3d 78 09 86 bd
       -0.0066186264 0.1782087 0.04885467 -0.06544775
000060 8a 4b 0c bd 62 16 44 bd a7 49 ee 3d a7 ce 58 bd
       -0.034251727 -0.04787291 0.11635142 -0.052931454
000070 0d 91 30 bc de d9 08 bd a4 f7 74 be 00 ec 12 3d
       -0.01077677 -0.0334109 -0.23922592 0.0358696
000080 fa b8 70 bd 16 f1 36 be 7d f0 b0 bd e5 e1 15 bd
       -0.058770157 -0.17865404 -0.086396195 -0.036592383
000090 46 7e c1 3d 95 f8 4c bd e9 2d 59 bc b2 fc 1d be
       0.09447913 -0.050041754 -0.013255575 -0.15428427
0000a0 4f b0 2c be 6c b4 41 3d 84 e2 25 3e 75 17 40 bd
       -0.16864131 0.047291204 0.1619969 -0.04689737
0000b0 1a fe e3 bd e8 5a cc bc 9f 7d c9 3d 64 fc 1c bd
       -0.111324504 -0.024945691 0.098384134 -0.038326636
0000c0 53 a3 d8 bc 33 e8 4e be a2 ee a3 3c 68 de a0 3d
       -0.026445067 -0.20205764 0.02001125 0.078549206
0000d0 a4 3b a3 3c a3 5d 29 3e e7 12 63 3c 3a 3c d0 bd
       0.0199259 0.16539626 0.013859487 -0.10167737
0000e0 c0 1e 54 3d 7c ce 31 be c4 f0 9a 3c 13 9f 01 3e
       0.051787138 -0.17363924 0.018913634 0.12658338
0000f0 38 a5 a2 bd 82 18 93 3b f0 0b 05 3d 92 c0 2a 3d
       -0.07941669 0.0044890055 0.032482088 0.041687556
000100 2c c9 00 be ab ab ae bd 88 a8 9d bd 36 9a 0b 3c
       -0.12576741 -0.08528837 -0.076981604 0.0085206535
000110 b0 3e 8b bd 48 09 66 be 4c de a1 bd 8a 4c 61 3d
       -0.06799066 -0.22464478 -0.07903728 0.055004634
000120 23 4e 01 bc 75 a2 8f 3d 50 b3 b1 3d a2 fb 19 bd
       -0.007892164 0.07013408 0.08676779 -0.03759349
000130 13 e5 0d 3d 4e c1 52 3c ed 94 3c bd b9 c7 8a 3c
       0.03464229 0.01286347 -0.046040464 0.016940938
000140 aa 2c 30 be 54 92 b5 bd 10 a8 46 be 58 3d 8a bc
       -0.17204538 -0.088658005 -0.19400048 -0.016874954
000150 76 d0 f3 bd de 13 ce bd 3b 73 90 3d 48 f5 36 3e
       -0.11904995 -0.10062383 0.070532285 0.17867005
000160 2b 68 61 bd 6c e5 70 bd 5f e7 8e bd c9 7e 7d bd
       -0.055030983 -0.058812544 -0.06977724 -0.06188849
000170 59 f1 0f 3e f7 22 5d 3d 69 3f 71 3d 62 0f 0e bd
       0.1405691 0.053988423 0.058898363 -0.03468264
000180 ad cc 9b be 69 95 a5 bd e8 66 03 3d c6 44 3a 3d
       -0.30429593 -0.08085138 0.03208056 0.045475744
000190 84 0e b1 3d 3d fd 87 bd aa 01 96 3d 0c e3 43 be
       0.08645347 -0.06640098 0.07324536 -0.1912958
0001a0 c2 f4 ee 3c cf 1b 89 3d 54 1c ba 3d 2c a0 e9 3c
       0.029169444 0.06694757 0.090874344 0.028518759
0001b0 ac 32 75 bc 91 b6 83 3d 91 ed 0b bd 67 69 80 3d
       -0.014965694 0.06431306 -0.034162108 0.06270104
0001c0 24 ef e0 3c 86 27 d5 3c 73 e9 dd bd 95 58 8a 3c
       0.027457781 0.026019823 -0.108355425 0.016887942
0001d0 bf 14 89 bd 5f 3b 04 be d0 e4 e3 bc 02 91 02 3d
       -0.0669341 -0.12913273 -0.027819067 0.03187657
0001e0 bb fb 63 bd a6 ff 62 3d 7c a2 11 3d e0 6b 40 bd
       -0.05565999 0.055419587 0.035555348 -0.046977878
0001f0 64 fa cf bd 20 ae 81 3d cd 5f a4 bd 28 9d 13 be
       -0.1015518 0.0633204 -0.08026085 -0.14415419
000200 33 27 11 be f4 a2 22 3c 46 0c de 3d 09 d1 13 3c
       -0.1417511 0.009926546 0.10842185 0.009022006
000210 c8 97 89 3e 72 6c 0d be 60 5f 10 3d a0 26 0c 3e
       0.26873612 -0.138109 0.035247207 0.1368661
000220 6c 1e 60 3d 74 94 83 bd 66 8f f6 3d af bf 26 be
       0.054716513 -0.064247996 0.1203907 -0.16284059
000230 04 18 45 3d 40 33 74 3d 60 bb 1c bd 43 0e fc bd
       0.048118606 0.05961919 -0.038264632 -0.12307408
000240 ac fc bb 3c 64 58 86 3d 83 02 a0 3d d5 56 67 3d
       0.022947632 0.06559828 0.07812979 0.056479294
000250 ea e2 21 3e 15 25 a3 bd 28 c3 15 be c4 ac f4 3d
       0.15809217 -0.07966057 -0.14625227 0.11947015
000260 4a fc ba 3d 29 5e 26 be af 3c cb bc 4a de e3 bd
       0.091301516 -0.16246857 -0.02480921 -0.11126383
000270 91 cc 1e 3d 93 e4 ea 3d 98 15 cf bd 76 94 c2 3c
       0.03876931 0.11469378 -0.101115406 0.023752432
000280 c7 aa b1 3d 8c fa c6 3c 37 e3 2d 3c c3 b0 79 be
       0.08675151 0.024289392 0.010613254 -0.24383835
000290 be ad b9 3d 6e 13 34 be 41 2b ec bc 6d 70 95 bd
       0.09066342 -0.17585537 -0.028829219 -0.07296834
0002a0 13 44 54 bd 0b 8c 51 bd 99 70 17 3e 65 69 07 3c
       -0.051822733 -0.051158946 0.14789046 0.008264874
0002b0 4e 8e 92 3b 0d 6f 95 bd ef 66 54 bc bf 7d 71 be
       0.0044725304 -0.07296572 -0.012963994 -0.23583125
0002c0 9c 0d 1e 3d bb ea 1c 3d 3d f0 e3 bc 29 c0 34 3d
       0.038587198 0.038309794 -0.027824515 0.04412857
0002d0 35 a6 39 3e 62 47 f6 3d b5 48 d6 bd af aa bc 3c
       0.18129809 0.12025334 -0.104630865 0.023030607
0002e0 15 76 93 bd 85 ae e9 bc 3b 6a e2 3d a5 8d 93 bd
       -0.07200257 -0.0285256 0.11055418 -0.07204751
0002f0 e2 32 9e 3b b5 ca 63 bd fe 94 66 3e 28 fd 92 3d
       0.004827843 -0.05561324 0.22517774 0.07177192
000300 11 71 30 3e 7a ce 3e 3e 27 f0 d9 bd b1 c5 24 bc
       0.17230631 0.18633452 -0.106415085 -0.010056899
000310 57 66 5d bd e1 4f 1c bd b4 b9 a4 bd 94 84 7b bd
       -0.054052677 -0.038162116 -0.080432326 -0.061405733
000320 dd 51 86 3d e8 2e b3 3d 71 fa c2 bd e8 90 bb bb
       0.06558583 0.08749181 -0.09520424 -0.0057240613
000330 8f 76 87 bd 6f 21 25 bd 25 cc 06 bd dd 9f 53 bd
       -0.0661441 -0.040315088 -0.03290953 -0.05166613
000340 e8 96 a9 bd 96 fd 28 be 2e d9 4b 3d 26 f8 8b bd
       -0.08280736 -0.16502985 0.049767666 -0.0683444
000350 a8 81 53 bd b3 79 17 bd 5a 35 02 be fe 1a 25 bd
       -0.05163732 -0.036981296 -0.12715665 -0.040308945
000360 ee e6 33 bd 7d 09 c4 bd 76 9b 03 bd 70 f0 a8 3d
       -0.043921404 -0.09572122 -0.03213068 0.08248985
000370 ee 85 bc 3d f3 01 6f bb f0 98 6a 3e 30 82 be bd
       0.092052326 -0.0036469668 0.22909904 -0.09302175
000380 43 cf 80 be fd af de 3c 8d 57 fb 3d 3f d7 5e 3e
       -0.25158128 0.027183527 0.12272558 0.21761797
000390 7e 17 26 3b 18 5a 09 3e 51 c2 1e be 32 e8 65 be
       0.0025343592 0.13413274 -0.15503813 -0.22451857
0003a0 ad ad c9 3d e4 38 15 be af 32 fc bd bc cc 30 be
       0.09847579 -0.14572483 -0.12314355 -0.172656
0003b0 82 6e 99 3e 0e 2d 08 3e 61 e4 82 bd 17 73 ab bd
       0.29967123 0.13298437 -0.06391216 -0.08371561
0003c0 6b 8e aa be 5e 19 27 be e7 3d b3 3d 9a cb c2 3d
       -0.3331178 -0.1631827 0.08752041 0.0951149
0003d0 ac 7c 03 3d 12 4c 3a bd e3 ab e9 bb b4 2e f2 bb
       0.03210132 -0.045482703 -0.007131086 -0.0073908214
0003e0 b2 96 af bd a4 5d c0 bd 64 b6 a2 bc ae 25 c3 bd
       -0.08573665 -0.093928605 -0.019862361 -0.09528671
0003f0 49 a0 96 3d 42 25 af 3d b6 a0 30 3e b9 1d 4d bc
       0.07354791 0.08552028 0.17248806 -0.012519293

a2c_network.actor_mlp.4.bias f4 [64]
000000 c4 b1 9f bd a4 6c 4c bd 49 98 41 bd e3 5a bd 3d
       -0.07797578 -0.049908295 -0.04726437 0.09245851
000010 d9 17 f0 bd ad 40 53 bc 46 71 31 bc ae d3 ca bd
       -0.117232986 -0.012893838 -0.010830229 -0.09903656
000020 de c4 e7 bd 38 ee 21 be f8 79 2c 3e 9d fd 10 be
       -0.11316846 -0.1581353 0.16843402 -0.14159246
000030 ae c6 75 bd 7f 55 85 3d 17 49 5e bd 54 c6 eb 3c
       -0.06000393 0.06510448 -0.054268923 0.028781094
000040 ef 8d 9d bd f4 5d 81 bd 76 60 2a be 31 e1 01 be
       -0.07693087 -0.06316748 -0.1663836 -0.1268356
000050 05 c8 23 3d af 4f b3 bd 7b 2b b4 3d 83 33 57 3b
       0.039985675 -0.08755433 0.08797356 0.00328371
000060 53 81 81 bd 81 da 1c be 80 12 d5 bd 82 5a f5 bd
       -0.06323495 -0.15317728 -0.10403919 -0.119801536
000070 5b fb c1 bd db de 31 bd ec d7 49 3d 87 59 4f be
       -0.094717704 -0.043425422 0.049278185 -0.20248996
000080 47 21 8c 3d 30 b1 02 3e 26 86 9c be b9 11 0d be
       0.06842285 0.12762904 -0.30571097 -0.13776292
000090 cd ff c5 bd a0 45 dd 3d d6 64 87 3d 8e 80 5c be
       -0.09667931 0.108042955 0.0661103 -0.21533415
0000a0 f0 cb 13 3e 4a 82 b2 bd 53 70 a6 bd ee 2e 64 be
       0.14433265 -0.08716257 -0.08126893 -0.22283527
0000b0 61 fe a2 3d f1 06 bf bd 49 8e c3 bc 81 17 e1 bd
       0.07958675 -0.09327496 -0.023871558 -0.10990811
0000c0 3a bf 7d bd c8 9c 43 bd 49 59 e3 bc 8b 43 c3 bd
       -0.061949946 -0.04775694 -0.027752535 -0.09534367
0000d0 fb ac d7 bd a3 a3 05 3e cf 39 97 bc b9 2a cd bd
       -0.1053104 0.13050704 -0.018460182 -0.10017914
0000e0 78 6c 2e bd cd 6c 30 be 3d 89 9c bc c7 b3 3a be
       -0.042583913 -0.17229004 -0.019108409 -0.18232642
0000f0 26 8e 27 be 14 ee e4 bd d4 4f f0 bd ef 49 2a bd
       -0.16362819 -0.11178222 -0.11733976 -0.041574415

a2c_network.value.weight f4 [1, 64]
000000 f2 90 d0 3b ca fd 08 3a 8f 34 03 3c 71 bd 72 3c
       0.006364935 0.0005225806 0.008008136 0.014815674
000010 07 f2 b1 bb 62 41 1b bc cb 10 8a bc 53 46 0c 3a
       -0.0054304632 -0.009476038 -0.01685371 0.00053510553
000020 6e 5e 05 3c 1e 4c 49 bc 8a a3 e1 3e 63 a0 6c 3b
       0.00814019 -0.012286214 0.44070083 0.003610634
000030 46 00 4d 3c fa 8b 82 3b 9f b3 24 ba d5 0c 5e bc
       0.012512272 0.0039839717 -0.0006282869 -0.013552864
000040 4c 84 d9 3b 49 fb 69 3b d0 85 b4 bc a2 44 a7 bb
       0.0066380855 0.0035702756 -0.022036463 -0.005104617
000050 6a a5 8c 3a 0d 9f 81 3a ec 96 c6 3b 18 18 51 bb
       0.001073045 0.000988932 0.0060604718 -0.003190523
000060 ea 73 2d bc a3 da ec 3a 30 ef bf bb b7 15 e7 b8
       -0.010586718 0.001807053 -0.005857371 -0.00011018983
000070 f6 5a 8f 3b e5 cd aa bb a5 ec c7 3c 45 bc ec 3b
       0.004374857 -0.005212533 0.024404833 0.007224592
000080 5d 48 ce 3b bf ca a1 3e 16 c4 af 3c 4b c0 e0 bb
       0.0062952475 0.31599995 0.021455806 -0.0068588606
000090 21 5d cd bb b6 ed b0 38 a1 fa b0 3b 3f 26 b4 ba
       -0.0062672053 8.436611e-05 0.005400971 -0.0013744308
0000a0 e2 fc fe 3e 7b bc 2b 3c 3a 34 e3 3a d3 c9 f7 ba
       0.4980231 0.010481949 0.001733429 -0.0018904753
0000b0 88 a4 00 3c 0f 36 6c 3b 90 f8 96 bb 02 d7 00 3a
       0.007851727 0.0036042964 -0.0046072677 0.0004914851
0000c0 54 61 7e ba e7 1f c6 3b 2f 9d 23 bc a9 4e 98 bb
       -0.0009703834 0.0060462835 -0.009986206 -0.004648049
0000d0 3c 5b 94 bb de dd 4c 3c 6a 3b 2c 3c ae 42 bf ba
       -0.0045274775 0.012504069 0.010512212 -0.0014592016
0000e0 87 62 90 3b 2c c0 1a b9 5f bf a0 37 f2 ad 87 3b
       0.0044062766 -0.00014758174 1.91626e-05 0.004140609
0000f0 d0 80 be 3b 0e 66 4c 3a 6b de 1d 3b c7 fa b5 bb
       0.0058136955 0.000779719 0.002408887 -0.0055535766

a2c_network.mu.weight f4 [12, 64]
000000 e1 75 b5 3b f8 1b 85 3c 54 e1 83 3e 92 12 c9 bc
       0.005537734 0.016248688 0.2575785 -0.024544988
000010 a4 ea 86 bd 8d 80 41 bd 30 5a 8e 3d 47 02 d3 3c
       -0.06587723 -0.047241736 0.06950796 0.025757922
000020 9a 06 d8 3c 4a eb a7 3d 04 ea 43 3e 17 00 f0 bd
       0.026370335 0.08199175 0.19132239 -0.11718767
000030 93 ce f5 3d dd 18 16 be 91 c8 96 bb e3 bb f6 bc
       0.120022915 -0.14657922 -0.004601546 -0.030118888
000040 42 d4 1d bc be f3 07 be 2a 81 06 bc 27 99 8e ba
       -0.009633126 -0.13276574 -0.008209506 -0.0010879383
000050 41 90 ce 3d 87 27 ce 3c cc 97 a4 bd 1c a4 90 be
       0.10086108 0.025165332 -0.080367655 -0.28250206
000060 f4 85 50 3d da 5d 15 be 34 b5 72 bc 0f 69 65 3d
       0.050908998 -0.14586583 -0.01481371 0.056008395
000070 b0 99 b6 bb fe 2b 07 be 82 85 fe bc 68 b7 e3 3c
       -0.00557252 -0.13200375 -0.03106952 0.027797416
000080 bd cb 1e 3d 3a 2e de bd 88 8d c7 bc 72 9a 43 3d
       0.03876852 -0.10848661 -0.02435948 0.047754712
000090 1f 88 12 3e b1 37 f8 bc 5f fc 2c be 23 1a b5 3d
       0.14309739 -0.030299993 -0.16893147 0.08842876
0000a0 5d ea b2 3b f9 b7 88 3d b5 9b b1 3b 46 7d ad bd
       0.005460067 0.06675715 0.005420173 -0.0847116
0000b0 81 d8 a5 3c bd 9b 80 bd 07 4e 3a 3e 94 d7 f8 3c
       0.020244839 -0.06279705 0.18193828 0.030376233
0000c0 5d 2b 85 bd bd de 16 3e 3d 81 6d 3b 80 59 8a 3d
       -0.065024115 0.14733405 0.0036240362 0.06755352
0000d0 1e d1 1e 3e be 96 cd bc 1a 6e 0e bd 3b b7 35 bc
       0.1550946 -0.025096294 -0.03477297 -0.011091049
0000e0 25 c0 8c bd 59 e7 86 bd c2 32 8a 3c 07 78 f3 bd
       -0.06872586 -0.06587095 0.016869906 -0.11888128
0000f0 5e dc 66 be 1b d9 92 3c 0f c2 02 be 7d c1 4f be
       -0.22545001 0.01792579 -0.1276934 -0.20288654
000100 d1 0f bc 3c 3f 21 78 bd c3 52 62 3e 13 5b 4f 3e
       0.02295676 -0.06057858 0.22101884 0.20249586
000110 80 36 e1 3c 17 74 c8 bd 98 a3 a4 3d 0c d8 9d bc
       0.027491808 -0.097877674 0.080390155 -0.019268058
000120 52 7d 15 bd 98 f1 e6 bd 93 fd 3d bd a4 b2 80 bc
       -0.036496468 -0.11276549 -0.046384405 -0.015710182
000130 e2 ff 13 3e 79 41 e8 bb af 2f d2 3d 88 75 0a bd
       0.1445308 -0.007087883 0.10263001 -0.033803493
000140 09 04 26 be 98 53 63 3d 60 75 74 bd 63 66 c0 bd
       -0.16212477 0.055499643 -0.05968225 -0.09394529
000150 96 1c a0 3d 7f 1a 79 bd 6a 14 3c bd f1 a6 82 bc
       0.07817952 -0.060816284 -0.045917906 -0.015948744
000160 7b 92 19 bb 20 31 ae 3d d4 72 f7 3d 4a db f8 bd
       -0.0023433256 0.085054636 0.120824486 -0.12151201
000170 a5 6c c7 3d fa 10 30 bd 65 ba 91 3d 6c 39 79 3d
       0.09737519 -0.04298494 0.0711563 0.060845777
000180 55 f9 dc bc 59 2e ac bc 14 f7 a4 bd af 46 95 bc
       -0.02697436 -0.021018194 -0.08054939 -0.018222181
000190 ab 4a 4e 3d 1d 45 1a bd c0 98 10 3e 88 7d 7d b9
       0.050364178 -0.037663568 0.1412077 -0.00024174724
0001a0 92 1f 36 bd d5 00 25 bd e4 02 ef 3d 49 b6 74 bd
       -0.0444637 -0.040283997 0.11670473 -0.059744153
0001b0 8f 5e 19 bd 87 54 fa bc 5d 16 5c be af 75 da 3d
       -0.037443694 -0.030557884 -0.21492906 0.106669776
0001c0 bf 8a 12 3e f5 a9 64 bd 1f 49 a1 bd d8 2d 3c 3e
       0.1431074 -0.055826146 -0.07875275 0.18376863
0001d0 78 3a c7 bd 61 7b b9 bd 74 77 16 bd ae a1 07 3e
       -0.09727949 -0.09056736 -0.036735013 0.1324527
0001e0 60 99 a2 bd 77 db 24 3e ce 2d 4d bb 55 78 04 be
       -0.0793941 0.16099344 -0.003130782 -0.12936528
0001f0 31 25 20 be 38 17 4d 3e 56 ee 19 be 1c a7 af 3d
       -0.15639187 0.20028389 -0.15032324 0.085767955
000200 e4 12 ec 3d 08 11 94 3d d5 63 a0 3d e3 07 c7 bc
       0.115270406 0.07229811 0.078315414 -0.024295753
000210 ed ea 05 3e a7 51 ff bb 57 3b 81 3d bb d2 1e 3e
       0.13077898 -0.007791716 0.06310146 0.15510075
000220 e1 99 b7 3b 27 64 e0 3d 18 3d 0d be cd d1 08 3e
       0.0056030606 0.109566025 -0.13792837 0.13361283
000230 e0 ee d3 3c 11 13 40 3e 29 af 2d 3e 34 c8 71 bb
       0.02587074 0.18757273 0.1696135 -0.0036893012
000240 80 78 02 bd f1 bc 2b bc 3e d1 0f 3e e5 c5 78 3d
       -0.0318532 -0.010482059 0.14044663 0.060735602
000250 ee e1 99 bd c0 d4 09 bb 67 24 5b bd ce d9 c3 3c
       -0.07513796 -0.002103135 -0.053501513 0.023907568
000260 24 27 9c 3c 8e 63 0b bd 7b f3 41 3d ca d5 f1 bc
       0.019061632 -0.03403049 0.04735134 -0.029520888
000270 9b ad 54 be 75 7b 64 be 7d e7 fe bd 53 bb 05 3d
       -0.2076935 -0.2231272 -0.12446497 0.03264935
000280 81 09 ae 3d f3 87 69 bd 1e f4 eb 3d af 0f a5 3d
       0.084979065 -0.057014417 0.11521171 0.08059632
000290 a7 d3 c5 bc 56 da e8 bd 54 68 bd 3b 5e 73 83 be
       -0.024148775 -0.11369769 0.005780259 -0.25673956
0002a0 a5 64 97 bc df a9 9d 3d 07 e4 9f 3c 28 26 89 3c
       -0.018480608 0.07698416 0.019517912 0.016741827
0002b0 8a 70 26 3d 3a e6 ea bd 78 c8 17 be 94 fd b6 bd
       0.04063467 -0.114696935 -0.14822567 -0.08935085
0002c0 35 4f 50 bc 8c 7f 21 3e 60 4d e1 3d 42 a1 40 3d
       -0.012714197 0.15771312 0.11001086 0.047028787
0002d0 27 02 9d bd 68 65 cd 3d 5e cf 1a 3d f9 24 1c 3d
       -0.07666426 0.10029107 0.037795417 0.038121197
0002e0 03 1b d4 3c d2 6b 3f be a7 6c 4b 3c a1 7e 54 3c
       0.025891786 -0.18693474 0.012416041 0.012969644
0002f0 3b c2 f2 3c f7 2d fe bb b4 61 91 3c 3e 2f a9 bd
       0.029633632 -0.0077569443 0.017746784 -0.08260964
000300 7f 36 04 3e 17 e6 1a 3d b8 3a 05 3d 4a 20 a3 3e
       0.12911414 0.037817087 0.0325267 0.31860572
000310 8c c0 63 bc d9 52 c6 3d fd 3e a2 bd 58 00 a7 3d
       -0.013900887 0.09683771 -0.0792217 0.081543624
000320 10 36 83 3d 46 39 ac 3c cd 03 d9 bd 05 79 4c bc
       0.06406796 0.021023404 -0.10596428 -0.012480025
000330 be 54 24 bd 3a 9c 1d bc a8 16 4f 3d 3d 28 2d be
       -0.04011988 -0.009619767 0.050558716 -0.16909881
000340 fb 94 05 3e ea 6e a4 3b 97 32 cc bb b9 b6 c0 bc
       0.13045113 0.005018105 -0.0062316167 -0.023524629
000350 15 bf 04 3d ab f2 35 bd 03 69 ef bc 3b 97 d6 bc
       0.032408793 -0.04442088 -0.029224878 -0.02619516
000360 13 89 9b bd b5 19 66 3d d8 86 1e 3e 2e 6b 70 3e
       -0.07594504 0.05617686 0.15481126 0.23478386
000370 9c 91 d0 3d 68 ca 0e bd c6 bb a7 bd 49 f2 13 3e
       0.10184023 -0.034861 -0.08190112 0.14447893
000380 3f d0 80 ba c3 4e f3 3c aa c7 1b 3d 2a 61 9f bd
       -0.0009827687 0.029700642 0.03803221 -0.077822044
000390 91 6b 05 3e 1c 2c 75 bd 2e 31 fd ba 60 95 c2 3d
       0.13029315 -0.05985652 -0.0019317025 0.09501147
0003a0 f0 45 9f 3d c1 fc e8 bd bc ea 9b 3d 00 e9 84 3d
       0.077770114 -0.11376334 0.076131314 0.06489754
0003b0 38 af 5d bd 3a 89 c8 bd e3 e5 c4 3c 14 64 5d 3d
       -0.05412218 -0.09791799 0.0240354 0.05405052
0003c0 eb 2b 8e 3a a7 d1 b7 3d a5 43 d1 3c 2e 57 d1 bb
       0.0010846829 0.08975535 0.02554495 -0.0063885665
0003d0 7a 1a a6 bc 6d d4 2d bd b4 05 8f be b7 50 14 bd
       -0.020276297 -0.042438913 -0.2793404 -0.03620979
0003e0 5b 03 1b 3c 6f 64 e8 3b d3 79 95 3d 17 df e9 bd
       0.009461249 0.0070920507 0.07298627 -0.11419504
0003f0 4e 02 e9 bc 56 0f a2 3d 2d b0 a7 ba c1 63 3c bd
       -0.028443482 0.07913081 -0.0012793593 -0.04599357

a2c_network.mu.bias f4 [12]
000000 ce 28 19 3d 12 45 29 bd d6 be 9c bd 85 6d a7 bc
       0.03739243 -0.041325636 -0.076535866 -0.020437965
000010 6f 13 8a bc 7b 8b 80 bd d6 6d 81 3e cd 63 2b 3d
       -0.01685497 -0.06276604 0.2527911 0.041843224
000020 af 52 8e 3d 58 a6 08 be 99 f0 f1 bd 25 73 10 3d
       0.069493644 -0.13344705 -0.118134685 0.03526606

exp_avg f4 [12]
000000 43 08 a5 ba cf 35 d2 ba dc 69 67 3a 9f 33 36 ba
       -0.0012590963 -0.0016037765 0.0008827725 -0.0006950441
000010 c5 4a 06 bb 1b b6 4d 38 b2 7a e8 ba 85 f7 18 3a
       -0.0020491343 4.9045408e-05 -0.0017736761 0.0005835223
000020 dc ef 14 3b 66 eb 3b bb 73 0f 07 3b b0 77 8a bb
       0.0022725975 -0.0028674244 0.0020608574 -0.0042256936

exp_avg_sq f4 [12]
000000 07 d3 f9 37 9c 0d cb 37 32 fc eb 37 e3 7d dd 37
       2.978138e-05 2.4205823e-05 2.813162e-05 2.6403874e-05
000010 04 0b ca 37 0f f2 d7 37 41 35 c8 37 d0 41 db 37
       2.4085406e-05 2.5742715e-05 2.3866656e-05 2.613748e-05
000020 5f 10 e8 37 bb 8f de 37 c5 8e e7 37 92 25 e0 37
       2.7664179e-05 2.6531392e-05 2.7603828e-05 2.6720376e-05
