OmniIsaacGymEnvs/omniisaacgymenvs/runs/Naranjelio/nn/last_Naranjelio_ep_1150_rew_7.229866.pth (torch, 672755 bytes, 36 tensors)

value_mean_std.running_mean f8 [1]
000000 82 46 6b 99 bd 42 d9 3f
       0.3946985243065698

value_mean_std.running_var f8 [1]
000000 72 79 4e ad 24 75 c4 3f
       0.15982492887719563

value_mean_std.count f8 []
000000 00 00 00 04 00 f4 9a 41
       113049601.0

running_mean_std.running_mean f8 [48]
000000 9b 75 4d 39 87 13 70 bf 00 d2 c1 15 fe a8 40 bf
       -0.003924873560064236 -0.000508426728187461
000010 a7 19 12 96 04 37 4b 3f 5f d2 d7 fe dd 7d 11 bf
       0.0008305332559224624 -6.672542050251963e-05
000020 63 e4 75 14 0e a9 6b bf 59 6c 92 12 ee 2b 70 3f
       -0.0033765101431382657 0.003948144884954174
000030 26 b2 b8 90 3b 83 d4 3f 93 b6 05 6a 48 02 af bf
       0.3205098069472875 -0.06056429189889658
000040 de 07 e3 1d 9a a6 ec bf 6b 55 7f a7 7e 33 a4 3f
       -0.8953371604659386 0.03945537371297799
000050 0d 08 c3 62 e9 e9 92 3f 87 b7 19 40 6b cc 91 3f
       0.01847042718214458 0.017381358897572887
000060 da 75 46 d3 9b 63 dc 3f e1 19 f8 94 1c 06 9b bf
       0.4435796321139073 -0.02639050158725265
000070 12 46 2a f2 92 48 dd be d7 04 d1 49 c9 6d c7 3f
       -6.981728605596966e-06 0.18303791145630185
000080 db d5 fe 75 ec c8 cc 3f 7d e7 07 bb 46 19 c0 3f
       0.22488170396324744 0.12577137119643203
000090 99 6b 4d b9 a8 d0 ce bf b1 79 9d b3 29 e3 cb bf
       -0.2407427696988094 -0.21786996145506302
0000a0 0c 61 dd 99 18 eb e1 bf 71 cc 4c 15 d1 53 de bf
       -0.5599482541247496 -0.47386576728894797
0000b0 46 4b 9e 67 cf 46 d0 3f 88 e9 c0 54 6d 92 dd 3f
       0.25432191008546956 0.46206219937052895
0000c0 93 ca f2 8d 50 c1 60 bf 1d 2d 43 67 2c 4e 57 3f
       -0.002045304615955709 0.0014224465967796536
0000d0 ef 43 1f 84 49 2e 55 bf d1 13 87 a2 07 08 57 bf
       -0.001292774003094129 -0.001405723052912967
0000e0 4f ff b6 be f4 62 88 bf 42 9f 7c 54 a1 cd 5e 3f
       -0.011907493658213445 0.0018800807465115398
0000f0 6c b5 8f 34 53 19 71 3f 50 38 23 eb 36 6d 66 bf
       0.004174542446873413 -0.00273762441893325
000100 ec fe bb d6 3d 7b 7a 3f 7e 76 1a ca b7 2d 62 bf
       0.006465188558422357 -0.0022190656316770077
000110 de ef cc d8 49 5d 60 bf b3 95 97 24 2a 6b 65 3f
       -0.0019976084062402885 0.0026145766357667743
000120 cc 69 7b 57 74 2b e4 3f f4 9d 0a f0 9a bc d8 3f
       0.6303044994959293 0.386511549392224
000130 4a ca a7 50 41 8f de bf 53 c9 0b 63 4a f7 a3 3f
       -0.47749359966761473 0.038996052351552145
000140 33 8c 95 0f 27 50 cc bf 8c db 6d e6 1f 49 c2 3f
       -0.2211960626692374 0.14285658599302697
000150 57 3f 3d 17 2e 09 ec 3f 5a 2e 10 4f fc f7 75 bf
       0.8761206106082494 -0.005363450604828646
000160 b3 ad af 6b e5 fb e7 3f 24 3a 8b a5 68 28 e5 bf
       0.7494990447279889 -0.6611827119139133
000170 3e 84 bf 00 cd 43 e7 bf 31 c6 74 6e 9a f7 e7 3f
       -0.7270264639483981 0.7489750058504737

running_mean_std.running_var f8 [48]
000000 56 6d a9 bc 25 cd 48 3f 08 4b 43 3d 73 f4 45 3f
       0.0007568773519994003 0.0006700098697599308
000010 b8 f6 69 28 c3 21 64 3f 16 26 25 55 5e 56 31 3f
       0.0024575053860747785 0.00026454737703271566
000020 9c d9 fc 6a 09 05 37 3f ba 82 a6 a0 c9 84 45 3f
       0.000351252364441912 0.0006566986569858859
000030 f0 1d 89 ff e6 b2 a8 3f 79 82 3f 3c b7 2f 9a 3f
       0.0482399165089723 0.02557264619088293
000040 0e 05 17 2d e1 9a 92 3f d4 01 f9 2d b6 10 15 40
       0.01816894376475369 5.266319959948721
000050 e7 d3 e4 cb fe 5f f5 3f 18 bc eb a1 33 7c 94 3f
       1.3359363522151797 0.020005041845191668
000060 63 58 40 19 d7 42 9e 3f ea 2b 0c a7 82 fd b3 3f
       0.02955185023900987 0.07808701113042074
000070 59 04 30 f2 23 21 5d 3e 78 63 ea 20 dc 52 b4 3f
       2.7128918788508557e-08 0.07938934138873133
000080 05 1f 84 ba 21 77 46 3f 6f 4b da 6b c1 96 ce 3f
       0.0006855883302998306 0.23897569433446672
000090 54 3c 1a 38 e5 7d 80 3f 2b c9 92 f1 91 27 c9 3f
       0.008052626394855412 0.19652008338523194
0000a0 09 5a 99 35 29 ff c3 3f 57 f9 62 e7 48 42 b8 3f
       0.15622439496173993 0.09476142548644383
0000b0 ff e9 a2 69 6a 7f e3 3f c4 35 47 94 51 fd af 3f
       0.6093036711893659 0.06247954306636985
0000c0 b4 c2 9f 8b cf 5e 13 3f be 28 61 bb 8f 09 12 3f
       7.389203793174253e-05 6.880702753267722e-05
0000d0 42 7f 23 ac 61 78 13 3f b8 63 a2 18 36 f4 20 3f
       7.427307267304526e-05 0.00012934837679237448
0000e0 66 4a 32 c4 8b 38 21 3f 85 c1 38 e6 95 c4 1a 3f
       0.00013138490803450974 0.000102111481788075
0000f0 fb c0 75 c1 c4 27 15 3f 7c 23 94 a1 48 ed 22 3f
       8.070124055392987e-05 0.00014440070734902586
000100 4b b0 06 64 a6 30 26 3f aa 5d c4 a6 d3 65 1a 3f
       0.00016929656159214915 0.00010069946592171941
000110 49 15 7b 34 c8 8d 22 3f 28 9d dc 04 63 ef 18 3f
       0.00014155453594903226 9.511987556419922e-05
000120 86 c0 03 9e ab 1d d6 3f 13 46 b4 f2 8a b0 e2 3f
       0.345560936270893 0.5840506305996221
000130 82 0a d0 33 87 47 df 3f 60 50 c1 f9 0a af e7 3f
       0.48874073085622893 0.7401175382642684
000140 d7 5e 1a 5c a7 1c e5 3f 63 d3 6b 16 d8 2d e5 3f
       0.6597477721106441 0.6618462026514006
000150 f5 60 25 d0 11 89 b6 3f 25 85 65 4a 9a fc e5 3f
       0.08802901584329333 0.6870852902467602
000160 99 80 49 c8 7c aa c8 3f 3d 65 57 14 cc d7 cc 3f
       0.19270286349911173 0.22533560746414052
000170 09 ca f9 f5 91 da c8 3f fc 34 69 fc 36 3e c2 3f
       0.19417023191961416 0.1425236446834005

running_mean_std.count f8 []
000000 00 00 00 08 00 f4 8a 41
       56524801.0

a2c_network.sigma f4 [12]
000000 5e 94 5b bf 8c 20 50 bf 10 c7 5a bf 8c 83 62 bf
       -0.85773265 -0.8129966 -0.85459995 -0.88481975
000010 84 4b 29 bf 9a 66 25 bf 9f 54 70 bf 42 a8 67 bf
       -0.6613085 -0.6460968 -0.9387912 -0.90491116
000020 f7 26 2a bf c4 0d 6a bf a0 7d 5b bf ca f6 9d bf
       -0.66465706 -0.91427255 -0.85738564 -1.2340939

a2c_network.actor_mlp.0.weight f4 [256, 48]
000000 84 6a 53 bd 38 5f 02 3e 7c c6 a9 bd 13 0f aa bd
       -0.051615253 0.12731636 -0.08289811 -0.083036564
000010 1d 67 b0 bd f6 92 f9 bd cb ff 2f 3d b2 de 0d 3e
       -0.08613417 -0.12186234 0.042968553 0.13854483
000020 2d e3 25 bd c4 7b ce bd 96 ae 17 3d d4 8a e7 3c
       -0.040499855 -0.100822 0.037031732 0.02826444
000030 d9 2b 3e be f4 64 4c 3d d1 00 25 bc d0 a7 8e 3b
       -0.18571414 0.049900964 -0.010070995 0.004353501
000040 72 97 83 bc 75 49 93 bc 62 dd d2 3a a9 3f 05 3e
       -0.016063426 -0.017979363 0.0016087706 0.13012566
000050 0e 89 0a be 1e 9e 47 3d e3 c5 ed bd 29 92 fc 3d
       -0.13528845 0.048734777 -0.116100095 0.12332565
000060 a1 68 ed 3d 3e b5 e3 3d 42 6a e2 3d 79 f9 8c bc
       0.11592222 0.111185536 0.11055423 -0.017208802
000070 30 61 3a 3d b0 dc 53 bc 2c a3 98 3b 1f 00 1e be
       0.04550284 -0.012931034 0.0046581235 -0.15429734
000080 f1 ad d7 bd 8d 0b 1f be 11 9f d0 bb 54 92 1f 3d
       -0.105312236 -0.1553175 -0.0063666184 0.03895791
000090 59 03 dc bd 7f e2 bc bd df 34 f9 3c 10 91 38 3d
       -0.10742826 -0.09222888 0.030420719 0.045060217
0000a0 f2 02 c9 3d 96 61 c6 3e f4 68 79 3d 90 e0 2e 3e
       0.09815015 0.38746327 0.060891107 0.17077851
0000b0 6c a0 be bc fc d9 32 be 2d 15 84 bd eb 76 f3 bd
       -0.023269854 -0.17465967 -0.064493515 -0.11887916
0000c0 bf f7 4c bd da 02 4e 3b 71 58 0d bb 49 c7 b0 3c
       -0.050040957 0.0031434805 -0.0021567608 0.021579402
0000d0 6a 81 f6 ba 9a 18 10 3e 30 8e c3 bd 2c 78 6d bd
       -0.0018806879 0.14071885 -0.095486045 -0.057975933
0000e0 2d e0 53 3e b5 c3 98 be 20 f2 d1 bd f5 f0 1a 3e
       0.20690985 -0.29836813 -0.1025126 0.1513098
0000f0 bf 7a ae 3d c6 34 04 be 11 5c fb 3d 46 33 5d 3c
       0.08519506 -0.12910756 0.1227342 0.013500994
000100 f0 a4 66 3d 52 1a 31 3e b3 b2 36 bd 4d 04 60 3e
       0.05630964 0.17295197 -0.044604015 0.2187664
000110 2b 7e f2 3d a2 4e d6 3c de 10 00 3e 4f c8 0f 3e
       0.11840471 0.026160542 0.12506434 0.14041255
000120 d4 22 8d bd 46 98 8b bc d9 fa 1f 3c a4 46 db bd
       -0.068914086 -0.017040383 0.009764397 -0.10706833
000130 0a eb 8d bd 51 8d e5 3c 9f 1f 89 bd 2a a4 b7 3d
       -0.06929596 0.028021486 -0.06695484 0.08966859
000140 8d 29 7f 3b ec 1c 9e bd 87 73 04 bd 52 9f c2 bd
       0.0038934678 -0.0772036 -0.032336738 -0.09503044
000150 73 76 84 bd 7d 4d 86 bd e3 1a 04 bd ee 1b 17 3e
       -0.06467905 -0.065577485 -0.032252204 0.14756748
000160 51 63 19 3e a3 b2 59 be 96 c3 1b 3d f5 78 d4 bd
       0.14979292 -0.21259551 0.038028322 -0.10374633
000170 77 83 ae 3d ae 8d ab 3d d4 08 18 be 41 d5 5a bd
       0.08521169 0.08376633 -0.14847118 -0.05342603
000180 2f dc 3c 3d d0 82 ff 3d 83 66 41 bc 97 f7 9b bc
       0.04610842 0.124761224 -0.011804226 -0.019038958
000190 f6 98 13 3d 61 6d ea 3b 97 b8 9b bd 11 85 74 bc
       0.036034547 0.0071541523 -0.07603567 -0.014924304
0001a0 6f f5 39 bd c0 7d de b9 16 32 e3 bd e1 26 31 bf
       -0.04540008 -0.0004243683 -0.110935375 -0.6919995
0001b0 5a 22 3a 3e 56 33 2e 3d f8 e2 7d bd a3 1a 03 bd
       0.18177167 0.042529427 -0.061984032 -0.032007825
0001c0 eb b0 41 be b6 10 ad bd 3e 23 81 3d 1f d1 ec 3d
       -0.18915145 -0.08450453 0.0630555 0.11563324
0001d0 ee b6 a6 3d fa 27 10 be 73 6c 70 3e c1 4d 27 bd
       0.0814036 -0.1407775 0.2347887 -0.040845636
0001e0 5b 3b 50 bd 85 49 07 ba 9b 0b 06 3d f9 84 53 3d
       -0.050837856 -0.00051607966 0.03272591 0.051640484
0001f0 a0 40 1b bd 58 23 d3 bc 3d 1a 85 3d 17 24 8c bd
       -0.037903428 -0.02577369 0.06499145 -0.06842821
000200 eb 91 c8 3c 49 c0 7a 3d f4 74 cc bc 58 84 38 3d
       0.024483642 0.061218534 -0.024958111 0.045048088
000210 1e 20 b1 3c f0 cb a2 3b 0c 77 88 3c c6 8f 9f 3d
       0.02162176 0.004968159 0.016658328 0.077910945
000220 e7 d2 29 3d 25 3c 18 3d 98 46 55 bc 69 f1 e1 bd
       0.041460898 0.037166733 -0.013017319 -0.110323735
000230 50 cb 50 bd 65 55 42 3c 28 72 8d bd 85 bb e7 3c
       -0.050975144 0.01186118 -0.06906539 0.028287658
000240 f8 cf 7b 3d 22 f9 61 3c f9 3c 5f 3c d9 7e 11 bd
       0.06147763 0.013792308 0.013625377 -0.035521362
000250 fb c3 55 3e 3a f6 44 3e ef e9 c2 bd 0d d8 e6 3d
       0.20875542 0.19234553 -0.095172755 0.11271677
000260 7e 3b 3a 3e fa 69 59 be c2 9f ac bd bb 83 33 3e
       0.18186757 -0.21231833 -0.08428909 0.1753072
000270 1b cf 76 ba 4c 3a 82 bd b3 eb 95 3e 1e 6c 94 bd
       -0.00094150164 -0.063587755 0.29281387 -0.07247184
000280 13 1f d1 3c 35 6f 2b be 87 2a 04 3d e3 5e a2 3d
       0.025527513 -0.16741641 0.03226712 0.079282545
000290 b2 fb 5f 3d 97 1f e4 3d f1 b9 ef bb 76 53 de bd
       0.054683395 0.11138838 -0.007315867 -0.10855763
0002a0 a4 cc be 3d a1 ca 8a 3d 63 ef 08 3d 60 d3 39 bd
       0.09316376 0.0677693 0.033431422 -0.0453676
0002b0 cc 60 94 bd d7 00 ec 3d 9c 90 d3 bd e4 14 98 bd
       -0.07245025 0.11523598 -0.103303164 -0.074258596
0002c0 26 8d bd bd 03 39 42 3d ae 90 d9 3d 14 43 f5 3d
       -0.092554376 0.04741765 0.106232986 0.11975685
0002d0 7a 58 f2 bd 79 8d 67 3d 41 06 53 3d 68 52 c8 3d
       -0.11833282 0.056531403 0.051519636 0.09781343
0002e0 f6 b6 92 3d 31 dd 7d bd dc b9 51 3e e9 b2 2b be
       0.07163803 -0.061978523 0.20481056 -0.16767468
0002f0 3e 41 00 be 2f 50 d4 bd 8c 06 01 be 29 ca 94 bc
       -0.12524888 -0.10366856 -0.12600154 -0.018162804
000300 8f 88 99 3c 9a a9 b8 3d 8d c0 7e be 93 7f 0c 3e
       0.018741874 0.09016724 -0.2487814 0.1372054
000310 f4 9e 7e 3d 0b d6 69 3c 88 4f 95 3d c3 3c 03 be
       0.06216331 0.014272223 0.0729056 -0.12816148
000320 bc c6 61 be d8 1d 14 be f4 a3 07 3e 73 05 73 be
       -0.22048467 -0.1446451 0.13246137 -0.23732547
000330 bb ae e7 3d fb cf 99 3d 35 5c dd 3d db 19 6b 3e
       0.11312624 0.07510372 0.10808603 0.22959082
000340 c5 7b 84 3d 51 d3 50 bd cc 65 f8 3c ff f7 2d 3e
       0.0646892 -0.050982777 0.030321978 0.16989134
000350 59 37 db 3d 26 74 9b bd a8 6d 85 3e 13 de 32 3d
       0.10703916 -0.07590513 0.26060224 0.043668818
000360 b5 b8 29 bb 7e 82 94 3c 93 7f 25 3e e5 5e 92 bd
       -0.0025897447 0.01812863 0.16161947 -0.07147006
000370 32 12 ac 3d bb ac 92 3d db 8c f2 bd 6e d2 b4 3d
       0.08401908 0.07161852 -0.11843272 0.08829199
000380 fb 0a 03 bc 7a a4 27 be b6 83 f3 bd 2d e8 53 3d
       -0.007998223 -0.16371337 -0.11890356 0.051735092
000390 5c 3f 9e 3c 20 99 95 3d 44 7e 38 3e 45 49 31 be
       0.019317321 0.07304597 0.18016917 -0.17313106
0003a0 a6 94 1e be 1f 4e ba 3d ae 20 54 bc b1 13 89 3d
       -0.15486392 0.09096932 -0.012947245 0.06693209
0003b0 08 8d bd 3d da 24 71 3c 71 24 2c 3e bf b2 da 3c
       0.09255415 0.014718259 0.16810776 0.02669656
0003c0 87 e6 07 be 09 95 94 3c 18 3b 91 3e 7e 5a c3 ba
       -0.13271533 0.018137472 0.28365397 -0.0014904288
0003d0 d1 20 c6 bd d5 73 3a 3d 51 5e f8 3d 49 76 63 3e
       -0.09674228 0.045520622 0.121273644 0.22213091
0003e0 9f e5 87 bc 43 d4 33 be d7 2d 88 3d 52 07 e5 3c
       -0.016588984 -0.1756144 0.06649368 0.027957592
0003f0 77 91 18 b8 e6 dd ca bb 1e e7 0a 3d 42 66 6c bd
       -3.63751e-05 -0.006191003 0.033911817 -0.05771471

a2c_network.actor_mlp.0.bias f4 [256]
000000 d6 0c 2f 3e fd 89 ab 3e 1b 43 37 bd 6a bf 75 3e
       0.1709474 0.33503714 -0.04474173 0.239988
000010 c1 a8 f9 3d c5 06 3d 3e 6d 22 7b 3d a4 4c b2 bc
       0.121903904 0.18459614 0.061312128 -0.02176506
000020 e6 76 1a be 9d 07 10 be 4e 2a a8 3e 5f 38 8d bd
       -0.15084419 -0.14065404 0.32844776 -0.068955176
000030 98 8c a0 be 7c 09 92 3d cf 0b 8e 3e d0 db 77 3e
       -0.31357265 0.07130715 0.27743384 0.24204946
000040 fb 9c d9 3e 48 21 27 3e 0f f7 d2 bd 44 46 47 bc
       0.4250258 0.1632129 -0.10301029 -0.012162749
000050 ef db 8b 3d 56 fd bc 3e af 6e 9e be 15 9f 68 be
       0.068290584 0.3691203 -0.3094382 -0.22716935
000060 d8 40 43 be 85 f8 0c 3c 60 00 9f 3e 61 88 7b 3e
       -0.19067705 0.008604174 0.31054974 0.24563743
000070 58 04 9e 3e 0e 26 0f 3c 00 b8 f4 bd 84 26 8a 3d
       0.3086269 0.0087371 -0.11949158 0.067456275
000080 9e 7d 51 3d 13 42 5f be 3d 9b 2f be 65 ec 56 be
       0.05114519 -0.21802549 -0.17149062 -0.20988615
000090 89 fb e4 3d 37 41 85 be 04 b0 45 3e 09 a8 55 3e
       0.11180789 -0.26026317 0.19305426 0.20864882
0000a0 7c 8b e6 3d b3 88 56 be d3 e5 1e bd 68 ba 9c 3e
       0.11257073 -0.20950584 -0.038793396 0.30610967
0000b0 07 fa f5 bd d7 0a c1 3e e9 c1 f1 3d 5e 12 81 3e
       -0.120105796 0.37703583 0.118045636 0.25209326
0000c0 1c 9e 59 3e 14 c9 05 3e ee ae 11 3e a6 2e 68 3e
       0.2125172 0.13064986 0.14226887 0.22674045
0000d0 2e 2e 36 3e 64 58 e4 3d b5 d0 b9 3b 21 95 84 be
       0.17791054 0.11149672 0.005670632 -0.25895026
0000e0 30 e7 6b 3e 0c b5 bb be c7 e2 73 3e b8 ab f3 bd
       0.2303741 -0.36661565 0.23816977 -0.11897987
0000f0 39 26 b3 be cd 10 b8 3c 89 a8 84 3e 38 51 61 bd
       -0.349901 0.022468949 0.25909832 -0.055009097
000100 d9 36 36 3d a1 9e 7c 3d 7c cd 4d 3e 37 8d 55 bd
       0.0444859 0.061674718 0.20097917 -0.052136626
000110 c6 54 3e bd e1 8d ef 3d a9 d2 c6 3c 3d fe 7e 3d
       -0.046467565 0.11696983 0.024270372 0.06225418
000120 7f e6 40 3d 3c f6 47 3e b1 fb 7a 3e 68 64 66 3e
       0.04709482 0.19527525 0.24510075 0.2249924
000130 69 7a 6c 3e e7 cd a7 bd 45 77 a3 3e bf b1 7c be
       0.23093571 -0.0819357 0.31926933 -0.2467718
000140 1a 44 b4 bd a7 b1 95 be b8 b7 93 3e bf b3 df 3e
       -0.08802052 -0.292371 0.28851104 0.43691823
000150 f8 cc 9f 3e 0c 82 3a 3e 09 e5 d5 3d 17 72 d4 b9
       0.31211066 0.18213671 0.104440756 -0.00040520795
000160 e2 4b 5a bd 88 52 ba bc 2f 1b 4a be c7 c2 97 bd
       -0.053295024 -0.022744432 -0.19736932 -0.07410198
000170 9a dd ab bd 7d ad 05 3e bc 18 29 bd 2f 5f ab 3e
       -0.083918765 0.13054462 -0.041283354 0.33471057
000180 fd d2 89 bd 86 18 9c 3e 18 7c 68 bb 74 d8 8b be
       -0.06729696 0.3048746 -0.0035474356 -0.27313578
000190 0b a7 8b bd ee 28 34 bd f6 10 b7 3e 7c 85 f1 bd
       -0.0681897 -0.043984346 0.35755128 -0.11793038
0001a0 3d 00 c0 3e 30 c0 1f 3d 83 6c 5d 3d a8 1b 4e 3e
       0.37500182 0.039001644 0.054058563 0.20127738
0001b0 59 6d ca 3d 49 ec a3 3d 45 2c ab be 82 ee 04 bb
       0.09884138 0.08004052 -0.33432212 -0.0020283763
0001c0 ce 7a 85 be 97 e0 55 3e e4 c2 ac 3e 45 da 30 3d
       -0.26070255 0.20886455 0.3374244 0.043176908
0001d0 e4 47 3b 3d 24 28 36 be c0 37 bc bc 01 0b ba 3d
       0.045722857 -0.1778875 -0.022975802 0.0908413
0001e0 dc 74 03 be 75 60 bc 3e 7a 77 b9 bd a7 08 8b 3e
       -0.12837547 0.3679234 -0.090559915 0.2715504
0001f0 96 d5 f3 3b aa 49 aa bd ff bf fd bd 53 bd 86 3d
       0.007441233 -0.083148316 -0.12390136 0.065790795
000200 d8 12 cb 3e e7 17 43 be 96 8c da ba 92 2e 9d be
       0.39662814 -0.19052087 -0.0016673978 -0.30699593
000210 da 6c 4d bd 05 43 b1 bd 0c ed fd 3d 33 a8 85 3e
       -0.050152637 -0.08655361 0.12398729 0.26104888
000220 81 a3 2d 3e 32 d6 37 3e 3f 9b 52 3d 93 5e 74 be
       0.16956903 0.17952803 0.051417585 -0.23864202
000230 33 bc da bd cf bb 72 bd f1 a0 5e 3e 89 51 89 bd
       -0.106804274 -0.05926114 0.21741082 -0.06705005
000240 6d 0f 78 be b5 52 e7 bd 34 b5 de bd 5e cc 0a 3e
       -0.24224634 -0.11295072 -0.108744055 0.13554522
000250 37 4f 33 be f9 93 ae bd 7b 32 d6 3e 8e 7a 95 3e
       -0.17510687 -0.08524317 0.4183539 0.29195064
000260 ab e1 a7 3e 07 2c ca 3b 9f 16 6c 3e e0 86 6d be
       0.32789358 0.0061697992 0.23055504 -0.23195982
000270 d0 df 4b be 40 63 63 3e be 06 34 3e f9 0c f2 bd
       -0.19909596 0.2220583 0.17580697 -0.118188806
000280 91 fe 25 3e fb 2b e9 3b 28 d6 82 bc 9c cf b7 3c
       0.1621039 0.0071158386 -0.015971258 0.022437863
000290 09 11 83 be 07 55 ab 3e f7 8e c7 bd aa 02 e8 3a
       -0.25598934 0.33463308 -0.09744065 0.0017700989
0002a0 c4 b8 89 bd c3 56 fd 3d e4 7a f4 3d 40 46 b6 3e
       -0.06724694 0.12370064 0.11937502 0.35600471
0002b0 c8 80 89 3b e2 e0 99 3e 69 a6 46 3e 90 64 35 3e
       0.00419626 0.30054384 0.19399418 0.17714143
0002c0 6d 6f 66 3e a1 24 55 3e 18 3c 78 3e ca 68 b5 3e
       0.22503443 0.20814754 0.24241674 0.3543151
0002d0 80 d1 1e 3d 27 d4 8d 3e b5 92 c1 3d fa 3c 67 3e
       0.038774014 0.27700922 0.0945181 0.22581854
0002e0 77 30 7f 3e f3 78 fb bd 62 49 30 be 86 7f 1a be
       0.24920832 -0.122789286 -0.17215493 -0.15087709
0002f0 a9 af 13 3e 9c 67 91 bd f0 ff 91 bd c6 c7 45 3e
       0.14422478 -0.0709984 -0.07128894 0.19314489
000300 71 0a 97 3d 9b 17 7e 3e f9 d4 50 be 0d b4 e5 bd
       0.073750384 0.24813692 -0.20393743 -0.112159826
000310 83 cc 7e be a9 2c 04 3e e0 39 ac bd 58 06 91 3e
       -0.24882703 0.12907661 -0.08409476 0.28325152
000320 cf 97 a3 bd c5 fb 76 be 6d a4 77 3e e0 c6 01 bd
       -0.079879396 -0.2411948 0.24183817 -0.031683803
000330 9e f5 2d 3e b9 a1 15 be 21 c3 97 bd 55 a0 3b bd
       0.16988227 -0.14612474 -0.07410265 -0.0458072
000340 c3 27 10 bd 74 56 7a bd 91 c7 c5 bd 73 20 d8 3e
       -0.03519417 -0.061117604 -0.09657205 0.42212257
000350 a8 6b 85 bc d5 0f 8e 3e f2 43 9d 3d dd d3 b3 3e
       -0.016286686 0.27746454 0.07678975 0.35122576
000360 03 28 9d 3c da b2 30 3e 2f c4 56 3d 9a 3e e3 3d
       0.019184118 0.17255726 0.05243319 0.11095925
000370 b2 72 2d bd 07 96 61 be 66 7a aa 3e a8 7c 0d bd
       -0.04234571 -0.22029887 0.33296508 -0.03454271
000380 f2 dd bc bc f9 70 53 3e 6a 4e 17 3e 59 80 1a be
       -0.02305505 0.20648564 0.14776006 -0.15088023
000390 44 85 05 be 69 7b 84 3e 97 06 92 39 08 b9 3e 3e
       -0.13039118 0.25875404 0.000278522 0.18625271
0003a0 7c 49 82 3e 36 b0 b5 3c 62 29 85 3e 42 a5 80 3e
       0.2544669 0.02217875 0.26008135 0.25126082
0003b0 6b 8f 50 be 9d 1d 6f 3d 81 ac 79 3e 8e f7 ae 3e
       -0.2036721 0.05837785 0.24382211 0.34173244
0003c0 34 68 12 be 70 4f 7b 3e 6e 41 8a 3e f4 a1 a8 3e
       -0.14297563 0.24542022 0.27003044 0.3293606
0003d0 b1 88 9b bb e2 f7 0e bc 74 fb a5 bd 42 33 94 3e
       -0.0047465195 -0.008726092 -0.081046015 0.28945357
0003e0 5c 58 0b 3e 06 d0 5d be 07 b6 1b 3d 67 e4 5b be
       0.13607925 -0.21661386 0.03801539 -0.21473847
0003f0 c8 61 6d be 41 47 79 3e c8 b6 71 3e e1 e1 e7 bd
       -0.23181832 0.24343587 0.23604882 -0.1132238

a2c_network.actor_mlp.2.weight f4 [128, 256]
000000 45 0a 0e bd 4c 0f 91 3d bd d2 07 be 89 3e 1e bd
       -0.034677763 0.07082996 -0.13263984 -0.038633857
000010 61 a0 24 3d 2d 38 6a bd 87 bf d3 bc bd 24 9c bd
       0.04019201 -0.05718248 -0.025848163 -0.07624195
000020 77 3a c8 3a 16 5f c2 bc 78 a9 97 bc 21 14 f4 bc
       0.0015276213 -0.023726981 -0.018513426 -0.029794754
000030 fd bc 99 3d 88 23 a8 bc e2 42 0f 3e 93 51 c3 3d
       0.0750675 -0.020524755 0.13990358 0.095370434
000040 1c db 1c 3d 24 11 a0 3d ef 1a 8b 3d 33 0f 65 bd
       0.038294896 0.07815769 0.067922466 -0.0559227
000050 be 19 4f 3c c1 76 e2 bd ac a4 1d bd 86 79 49 bc
       0.012640415 -0.11057807 -0.03848712 -0.01229704
000060 8f 75 ad 3c cf da cc bd 72 0c 52 3d 56 33 8f bd
       0.02117422 -0.10002672 0.0512814 -0.069922134
000070 96 e5 fd bd 92 a7 d0 ba f5 0a 42 3d 7d c7 f7 bc
       -0.12397306 -0.001591908 0.04737373 -0.03024649
000080 3b 3d 39 3d 03 3a 13 3d 1b cf 47 bd 62 06 21 bc
       0.04522441 0.035943996 -0.048781496 -0.009828182
000090 db 8a 8a bd 20 34 a3 3c 10 7b 08 3e 81 2c 35 be
       -0.06764766 0.019922316 0.13328195 -0.17692758
0000a0 ff 58 9f 3c 7f 07 c8 bb 68 a6 c6 bd 92 13 2e bc
       0.019451616 -0.006104409 -0.09699708 -0.010624783
0000b0 4b 66 fe 3d 60 0e c6 bc 28 40 b0 3c 09 66 49 be
       0.124218546 -0.024176776 0.021514967 -0.1966783
0000c0 f6 67 33 3b 4c 88 7a bd d3 20 24 bd 84 c2 60 bc
       0.0027375198 -0.06116514 -0.040070366 -0.013718251
0000d0 b3 e8 7d bd 1f 54 0f 3d 22 3c c4 bd 4d 24 1f bd
       -0.061989497 0.034992334 -0.09581782 -0.03885298
0000e0 98 92 c6 bd 8f f4 dc 3d a5 89 d7 bd ab 6b 63 bd
       -0.09695929 0.10788833 -0.105243005 -0.055522602
0000f0 e8 d0 14 3e ed 24 9f 3d 34 79 98 bc 98 bf 2d bd
       0.14532816 0.07770715 -0.018612482 -0.042419046
000100 02 9b 87 bb 43 59 50 bd 38 95 38 bd b3 12 33 be
       -0.0041383514 -0.050866377 -0.04506418 -0.17487602
000110 a3 9b 0e be 9c 93 c4 bd 1b 12 74 bc 1c cb ba bc
       -0.13926558 -0.09598467 -0.014896895 -0.022801928
000120 57 b4 0a be 11 3b b9 3d 42 66 a1 3d b5 7c df bd
       -0.13545357 0.09044469 0.07880832 -0.10912458
000130 25 92 d3 bd 28 e3 a4 bd e8 57 ec 3b f3 ae b6 3b
       -0.10330609 -0.08051139 0.0072126277 0.005575055
000140 e3 e2 84 bb aa f8 85 3e e9 71 19 3e ee 10 5a bc
       -0.0040553673 0.26166278 0.1498486 -0.0133097
000150 fb 13 5b bd de 45 12 3d 59 a0 12 bd 34 06 b5 bd
       -0.05348585 0.03571116 -0.03579745 -0.08839074
000160 4f 40 c2 3d fd b2 8e bd 60 27 78 3b 7d 1e 1f 3e
       0.09484922 -0.06967733 0.0037865266 0.15538974
000170 e9 ec 2b be 61 68 91 bd 17 71 43 bd e6 93 44 3e
       -0.16789593 -0.07099987 -0.047715273 0.19197044
000180 06 07 52 bd c2 bb 55 3c d4 cb bb 3d f3 b1 c5 3d
       -0.05127623 0.013045253 0.091697365 0.09653082
000190 e1 a1 65 bd 4e f8 13 3d a2 44 9f bd 40 d8 4e 3d
       -0.056062583 0.036125474 -0.077767625 0.0504992
0001a0 ca c9 e9 bd 39 be d5 3d a7 74 9c 3d 18 4d 2b bd
       -0.11415441 0.10436673 0.07639437 -0.04182157
0001b0 05 52 93 b9 be a0 be 3c 29 3f a5 bc b9 a8 1e bd
       -0.00028099134 0.023270007 -0.020171719 -0.038735125
0001c0 51 1c 7e 3d 57 a9 01 bc 21 74 f1 3d 50 56 25 be
       0.062038723 -0.007913909 0.11789728 -0.16146207
0001d0 1e b6 44 bd c3 ed 90 3c a4 03 a8 3d 26 35 1c 3d
       -0.048025243 0.017691499 0.082038194 0.038136624
0001e0 77 fb 30 be 02 ad 9b 3d f4 98 0e bd 90 ed 73 bd
       -0.17283426 0.07601358 -0.034813836 -0.05955273
0001f0 6d ba 28 be 88 4e 59 3c 6a f9 9b 3c f3 7b 24 bd
       -0.16477366 0.013263352 0.019039828 -0.04015727
000200 ac 56 df bc 70 73 81 bc 96 e1 7c be f7 91 44 3c
       -0.027263008 -0.015802115 -0.24695429 0.011997691
000210 65 90 a0 ba fc 69 6a bd 7e e9 25 bd 6c 0d e1 3d
       -0.0012250064 -0.05722998 -0.04050588 0.10988888
000220 6c fb ca 3c 59 ba 88 3d 69 b1 2c 3e 2f 81 50 be
       0.02477809 0.06676168 0.16864552 -0.2036178
000230 1c 60 55 be 87 d1 48 bc ee 76 a1 bb 9f 54 a1 3d
       -0.20837444 -0.012256986 -0.0049275076 0.07877468
000240 de 45 ad bc a3 8a f9 3b 15 53 96 bd 0f ef 4b 3e
       -0.02115148 0.0076154037 -0.073400654 0.19915412
000250 c3 d9 06 3e 2d 75 b6 bc 07 d3 36 3d f3 0b bd 3b
       0.13169007 -0.02227267 0.044634845 0.0057692467
000260 71 1d bb bd 24 69 24 bd 30 1f 06 3d 40 f2 43 bd
       -0.09136475 -0.040139332 0.032744586 -0.04783845
000270 41 9a 2a be 7a 05 9a 3d 1c 80 b6 3c e0 33 71 3d
       -0.16660406 0.07520576 0.022277884 0.058887362
000280 06 84 96 3d 01 14 8c 3d 21 10 1c be 51 24 0b bc
       0.073494 0.06839753 -0.15240528 -0.008492545
000290 46 07 62 3d f8 83 0f bc fc e2 88 bd c3 64 6b bd
       0.055182718 -0.008759491 -0.06683919 -0.05746914
0002a0 8a 58 20 3c c4 b6 86 bd b8 21 15 be 4b 8a 4f 3e
       0.009786734 -0.065778285 -0.14563644 0.20267598
0002b0 8c 40 a4 bb a2 7c bd 3a d2 3d 5e 3d 4f 67 b6 bc
       -0.0050125774 0.0014456699 0.054258175 -0.022266058
0002c0 d0 3f 8c 3c 62 29 15 be d5 5f 16 3d a2 92 24 3e
       0.017120272 -0.14566568 0.036712486 0.16071561
0002d0 75 36 ad bd 2b 25 4a bd fb 5a 01 be 93 c3 13 bd
       -0.084576525 -0.049351852 -0.12632363 -0.036075186
0002e0 7d 96 bc bc 58 e5 8e 3d 43 a4 d5 3c 86 3c 4f 3d
       -0.023020977 0.069773376 0.026079303 0.05059483
0002f0 e4 32 27 bc 94 8e c4 bc 8f 7d ce bd 4b 97 c6 3c
       -0.010205004 -0.023993768 -0.10082542 0.024242064
000300 a9 72 97 bd 16 3f 09 bd 42 ed 8d bd 11 5b 6a 3c
       -0.073949166 -0.03350743 -0.06930019 0.0143039385
000310 93 f3 cb 3d 16 d7 98 bd 14 0d 90 bd 34 5f 66 bb
       0.099585675 -0.074628994 -0.070337445 -0.003515196
000320 fd 3e 25 bc e9 05 fc bd 29 b1 4a 3d 56 07 d1 bd
       -0.010085818 -0.12305815 0.04948536 -0.10206477
000330 47 5f 0c bd 39 8c 62 3d 05 fd f0 bd d5 f7 20 3d
       -0.03427055 0.055309508 -0.1176701 0.03929885
000340 f9 2f 79 bd 4b e1 35 3d dc ed 9d 3d 54 11 ca 3d
       -0.060836766 0.04440431 0.07711384 0.09866586
000350 ac b1 85 bd 8f a9 4f 3b 96 2d 4f bd 4a a2 28 bd
       -0.06528029 0.0031686758 -0.050580584 -0.041170396
000360 d9 89 3c 3d 86 10 d6 3b f8 36 68 3d 25 82 72 bd
       0.0460299 0.0065327315 0.056693047 -0.059206147
000370 74 52 3c bb 08 8b 0d bd fb 45 21 3d 9e fb 96 bd
       -0.002873567 -0.03455642 0.03937338 -0.07372211
000380 a7 7d 03 3e 26 29 d5 bb 49 ab 16 be a0 5b 1a 3e
       0.12840901 -0.0065051494 -0.14713778 0.15074015
000390 9b 3d 8d 3d ed 01 c9 bd 9f b4 c0 bd 48 fa 2f 3e
       0.06896516 -0.098148204 -0.09409451 0.17185318
0003a0 75 60 b2 bd e0 45 38 bd 5a f5 1a 3e e9 7c 79 bd
       -0.08709804 -0.044988513 0.15132657 -0.06091014
0003b0 3c 04 e1 bb c5 86 e2 3c cc 5b 06 3e 0f c9 a7 bd
       -0.00686696 0.027652154 0.13120955 -0.08192646
0003c0 7a 30 e6 bd 75 40 16 3d f8 92 23 be 7d 01 ff bc
       -0.11239715 0.036682565 -0.15974033 -0.03112864
0003d0 57 d6 9a 3d 0e b4 84 3d 7a ca ad 3c 5e c1 c7 bd
       0.07560413 0.06479655 0.021214712 -0.09753679
0003e0 bd bb 33 3e 64 8c 10 bd 05 57 22 bd c1 b4 c4 3b
       0.17552085 -0.035290137 -0.03963377 0.006002993
0003f0 56 8a d8 3d 69 92 3a 3d d8 b6 94 3d bc e6 88 3d
       0.105732605 0.045549784 0.07261437 0.06684634

a2c_network.actor_mlp.2.bias f4 [128]
000000 a0 55 d1 bd 03 d1 41 be da a4 88 be 91 6d 89 bd
       -0.1022141 -0.18927388 -0.26688272 -0.06710351
000010 50 92 97 3d d7 2c 35 be 09 10 c5 bd df 5e 3c be
       0.07400954 -0.17692886 -0.09622199 -0.18395565
000020 75 42 a9 be cc 20 86 be 6a 23 12 be ae d0 87 bc
       -0.33058515 -0.26196897 -0.14271322 -0.016578998
000030 bf cf 81 be 09 bc dc bd 6a 0d da bc f1 92 92 bd
       -0.2535381 -0.10778052 -0.026617724 -0.07156933
000040 b2 f5 24 bc 0c 9e 4b be 08 c8 37 3c e5 02 d6 bd
       -0.010068344 -0.19884509 0.011217125 -0.10449771
000050 63 7f 69 bd e4 91 b9 be 78 8d 88 bc 5b a1 af bd
       -0.05700625 -0.36244118 -0.01666902 -0.08575698
000060 3b 63 96 3d d7 17 50 be 4e 6e 9c bd 10 5b 86 3d
       0.073431455 -0.20321594 -0.076382264 0.065603375
000070 1f 1d 0c be e6 0f f4 bd 00 56 c5 bc 27 74 22 3e
       -0.13682984 -0.11917095 -0.02408886 0.15864621
000080 31 a2 d7 bd e9 24 5b 3c 74 08 08 3e b5 da 15 be
       -0.105289824 0.013375499 0.13284475 -0.14634211
000090 02 ea 03 3e 7e 6f 31 3d 63 c4 39 bc 1f 27 3a 3e
       0.12882236 0.043319218 -0.011338326 0.18178986
0000a0 54 b7 7e 3d 6c 0d 75 3d 24 8d 9d be 3d fc d5 bd
       0.062186554 0.059827253 -0.30771744 -0.10448501
0000b0 21 c6 36 be 02 01 56 bd 4b 00 7a bd b1 10 10 bd
       -0.17849018 -0.052247055 -0.061035436 -0.03517217
0000c0 94 b9 32 be e5 06 be bd 4a 28 1b be 44 68 06 be
       -0.17453605 -0.09278659 -0.15152088 -0.13125712
0000d0 79 6d 4b be c9 55 ce be a4 cf 35 bc e3 b0 00 be
       -0.19865979 -0.40299824 -0.011096869 -0.12567477
0000e0 dc 62 54 be 8f 08 31 3e 69 ec cb bc f1 9d 12 3e
       -0.20740837 0.17288421 -0.024893003 0.14318062
0000f0 23 9a 84 be a1 50 dd bc 8c 7f 04 be e7 4e 0b 3e
       -0.25898847 -0.027015986 -0.1293928 0.13604318
000100 87 1d 29 be b7 30 aa bd 36 af ae bd 21 72 45 be
       -0.1651517 -0.08310073 -0.085295126 -0.19281818
000110 cc 09 68 be 27 68 b8 3d 91 2b 1d bb 78 6b a9 bd
       -0.22659987 0.090042405 -0.0023982266 -0.08272451
000120 fb 2c f0 bd f2 b1 39 be 9e 86 bd bd e4 cb 8f 3d
       -0.11727329 -0.18134287 -0.09254192 0.07021311
000130 54 d1 50 bd 1c d6 7c be 19 37 46 be 82 b1 3f 3c
       -0.05098088 -0.24691051 -0.19356956 0.011700036
000140 8a ea 8f 3d 35 cf 24 bd 8a 04 dd be f1 8c e0 bd
       0.07027157 -0.04023667 -0.43167526 -0.109643824
000150 fe a2 11 bd 23 15 3e 3d b0 cb 24 be 09 d2 e0 bd
       -0.035555832 0.046406876 -0.16093326 -0.10977561
000160 84 b7 d2 bd 4b 61 83 bd 7e b7 69 bd 92 75 84 3c
       -0.10288909 -0.064150415 -0.057059757 0.016169343
000170 1d 7a d3 bc 6d 91 81 be fc a8 b6 bc 87 14 62 be
       -0.025815064 -0.25306264 -0.022297375 -0.22078143
000180 dd 82 e8 3d 0c 9e 23 bd e3 73 86 3d 4b 50 bf be
       0.11353085 -0.039945647 0.065650724 -0.37365946
000190 e5 cb 05 be 9b 3b 72 bd 45 32 5f be 93 ee 8f bd
       -0.13066061 -0.059138875 -0.2179652 -0.07027926
0001a0 29 83 2c be f8 53 0c bd 9f 2d 15 be b9 95 00 3e
       -0.16846909 -0.034259766 -0.14568184 0.12557115
0001b0 c3 bd c5 bd ac 1a 18 be 31 06 48 be b7 50 87 3c
       -0.09655335 -0.14853925 -0.19533612 0.01651798
0001c0 fd ba 2e be 83 de 37 3c 7b c8 48 3d ab 9f 71 be
       -0.17063518 0.0112224845 0.049019318 -0.23596065
0001d0 91 8e 9a be c6 79 c9 bd 0b 9e 5a bd 7d 7e c6 bd
       -0.30186895 -0.098376796 -0.053373378 -0.096920945
0001e0 cf 9a a8 3d 23 11 87 be 7a a0 1c bd fc ac da 3c
       0.082326524 -0.26380262 -0.03823898 0.026693814
0001f0 d3 e1 d3 bd f7 7a 54 be 67 76 35 3d 87 85 e2 bd
       -0.10345807 -0.20750032 0.04430237 -0.110606246

a2c_network.actor_mlp.4.weight f4 [64, 128]
000000 76 8e 92 3c f4 91 b6 bc 6a 24 e3 3d 3f 07 82 bd
       0.017890196 -0.022286393 0.1109093 -0.06349038
000010 46 28 2e bd ac e8 15 3d 33 f4 10 be dc d1 59 3c
       -0.042518876 0.036598846 -0.14155655 0.013294663
000020 fc 8e 13 3e 83 cf 5d 3e 82 3e 6e bd 55 e6 1b bd
       0.14410013 0.2166119 -0.05816508 -0.03806146
000030 ae fb 36 bd 6d e5 9f 3d 1c 39 2e be 25 cc 24 3d
       -0.044673614 0.07807431 -0.17013973 0.04023375
000040 cd 86 0d 3d a4 ae 3d bd 3a 12 aa b8 3f 71 27 be
       0.034552384 -0.04630913 -8.109627e-05 -0.16351794
000050 2c 76 93 3c 63 15 2d 3e ed 9d f8 bb b0 1a 28 bd
       0.018000685 0.1690269 -0.0075871856 -0.041041076
000060 e7 84 91 bc ff 84 05 be fe 65 a3 3b 3a 08 bc bd
       -0.017763568 -0.13039015 0.0049865237 -0.091812566
000070 41 d4 0f be 35 e6 5a bd 6c 46 ed bd de 33 27 3c
       -0.14045812 -0.0534422 -0.115856975 0.010205237
000080 4e d9 47 3c cc de db bc 12 04 70 bd 53 fd 14 3d
       0.012197806 -0.026839636 -0.05859763 0.0363744
000090 6e bb 46 be 61 02 36 be b0 de 63 bd 6a ec 12 be
       -0.19407436 -0.17774345 -0.055632293 -0.14347997
0000a0 a3 fd 36 3d 1a 4d 3e be 5b 13 52 3d cc 97 86 bd
       0.04467548 -0.185841 0.05128799 -0.06571922
0000b0 a8 13 5a bc 74 f7 37 bc 18 2d f4 3c 67 5a 66 bd
       -0.0133103505 -0.011228431 0.029806659 -0.05623856
0000c0 99 8e 7d bd 3c 4f a7 bd fc 43 60 3d d8 07 bd 3c
       -0.06190357 -0.0816941 0.054752335 0.02307503
0000d0 35 a7 e3 3d 52 a5 ce 3d 29 5b c5 bd 64 84 29 be
       0.111158766 0.10090126 -0.09636528 -0.1655441
0000e0 56 b8 2b bd 7c 8c fb bd bf 03 21 bd f1 45 5c 3a
       -0.041923843 -0.12282655 -0.039310213 0.0008402756
0000f0 a1 27 ba 3d b0 6f 74 3d f7 2e 4a 3e 8a 8d e7 bc
       0.0908959 0.059676826 0.19744478 -0.028265733
000100 3c d4 75 bd a2 4e 80 bc b0 b9 4c bd 5e a3 80 bd
       -0.060016856 -0.015662495 -0.049981773 -0.0628116
000110 7e 85 55 bc 83 49 52 bd 28 d1 5d 3d 1d be c8 bd
       -0.013032315 -0.051339637 0.054154545 -0.09801886
000120 92 56 a3 bd 66 f9 01 be 32 0a 20 3e 04 14 ab 3d
       -0.07975496 -0.12692794 0.15628889 0.08353427
000130 a6 0c a8 bd b5 80 bb 3d d2 4b b9 3d 05 ba 7a bc
       -0.082055375 0.09155408 0.09047665 -0.01530314
000140 55 c0 00 be f5 b6 48 3c 7d 03 3a bd 74 59 14 be
       -0.12573369 0.012250652 -0.045413483 -0.14487249
000150 6e 4f 34 be ae d8 e9 bc 20 08 55 3b bf cd 11 3e
       -0.17608425 -0.028545704 0.0032506064 0.14238642
000160 8c 75 31 bd b9 3c 47 be dd 29 98 bd 7e 9d 64 be
       -0.043324992 -0.19456758 -0.0742986 -0.22325704
000170 22 bb b3 3d 3e 58 fc bd 2b 79 02 3e da 3f f9 bd
       0.08775927 -0.12321518 0.12741534 -0.12170382
000180 15 f7 d3 bd 2c 1b 54 3c d0 d5 0f bc 63 3c b0 bd
       -0.103498615 0.012945931 -0.008779004 -0.08605268
000190 41 de 29 bd 73 c8 c9 bd bf ec e9 3d 89 35 12 3b
       -0.041471723 -0.09852686 0.11422109 0.0022309741
0001a0 7d 4e 96 3d a0 99 54 bd 61 41 a1 bd 1a 4d db 3c
       0.07339189 -0.05190432 -0.07873798 0.026770163
0001b0 85 7d a6 bd 02 fa 8b 3c 89 c2 f5 3c 6a e8 aa bc
       -0.0812941 0.017086986 0.029999988 -0.020862777
0001c0 2b 27 89 bc 52 3b dc bd ec ac a4 3c 28 2b ae bd
       -0.01674231 -0.10753502 0.020101987 -0.08504325
0001d0 a5 cf de 3b 41 2a 73 bd 4c 62 2a bd a3 0c f3 3c
       0.0067996555 -0.05936647 -0.04159765 0.029669112
0001e0 e4 ee 2c be 08 2d 9e 3d cb 4e 8b bb d9 ca cd bd
       -0.16888005 0.07723433 -0.004251336 -0.10048456
0001f0 11 ed 74 3d 5c 15 85 3d f1 7e 2d bc 80 d4 25 be
       0.059796397 0.064982146 -0.010589347 -0.16194344
000200 10 b6 e4 bd cd bc 69 3c fd 5d cb 3d 76 f2 e5 3c
       -0.11167538 0.014266205 0.09930036 0.028069716
000210 c2 c3 a5 bd 5b 61 06 be d9 eb b5 3d d1 de ad 3c
       -0.080939785 -0.13123076 0.08882875 0.021224411
000220 07 51 0d 3e 35 51 94 bc 6b 1b 77 3e 74 5d b8 3b
       0.1380044 -0.018105129 0.24131553 0.005626375
000230 50 dd 75 bd 3e 8e 14 3e b2 cc e4 bd 91 e1 46 bd
       -0.060025513 0.14507386 -0.11171855 -0.04855496
000240 43 28 20 bd 08 e6 f1 3c 28 5b 7d 3a e1 3b c9 3c
       -0.039100897 0.029528633 0.00096647674 0.024564685
000250 19 71 86 3d 9f 8e 29 3d fd b2 ac bd 48 a0 88 3d
       0.065645404 0.04139578 -0.08432577 0.06671196
000260 d4 ed 38 3b 67 c9 8a bd 90 b6 14 3e a2 01 99 bd
       0.0028217928 -0.06776696 0.14522767 -0.074710146
000270 1e 3a b5 bd b4 28 c5 3c 72 83 16 bd f1 b2 60 bd
       -0.088489756 0.02406726 -0.03674645 -0.05485815
000280 b3 42 0b 3e 73 8c 7a 3d 71 69 1e 3d e7 31 33 bd
       0.13599662 0.0611691 0.038674776 -0.043748762
000290 70 f7 a6 3d 94 03 44 bd 24 43 03 be e2 5b f1 bc
       0.08152664 -0.047854975 -0.12818581 -0.029462758
0002a0 ed 45 6a be 11 d3 1d 3c fb 5d 0e 3e 72 50 30 bc
       -0.22878237 0.009632842 0.13903038 -0.010761367
0002b0 c6 49 5d 3d ae e2 4a bd be e5 c4 3d cd b7 96 3c
       0.054025434 -0.049532585 0.09614132 0.01839819
0002c0 20 07 02 3c c8 f0 d4 bc 1a c3 c9 3a 3f 4c 03 3d
       0.007936269 -0.02599372 0.0015393228 0.032055136
0002d0 dc f6 89 3d da e9 ad 3d 9b b5 1c be 38 33 fe bd
       0.06736538 0.08491869 -0.15303652 -0.12412113
0002e0 72 7c 88 bc c1 5e 5b 3d 15 5d 15 bc 0d 7d e3 3c
       -0.016660903 0.05355716 -0.009116431 0.02776959
0002f0 bb 37 02 3e e4 62 d1 3d 37 b7 3f 3e 30 17 59 bd
       0.12716572 0.1022394 0.18722235 -0.05300063
000300 34 5b c2 3d 68 68 85 bc e9 87 99 bd a6 77 1c 3d
       0.09490052 -0.016285136 -0.07496626 0.038200043
000310 7a f5 dd 3c ec 5a cb 3d cc 2a 4d bc 6e 0c aa bc
       0.027094591 0.09929451 -0.012522411 -0.02075788
000320 b4 0c 23 3e 1c d7 cc bc e3 20 3e 3c 80 07 5d 3e
       0.15922815 -0.025004916 0.0116045205 0.21584892
000330 2a 77 4d be 9e c6 57 3d ad cd c1 3d 37 b2 d7 bc
       -0.20064989 0.05267965 0.09463058 -0.026330097
000340 7d 12 f6 bd a0 be 07 bc e5 7c fe 3d 0a 5c 5e be
       -0.12015245 -0.008285195 0.124261655 -0.21714798
000350 45 53 d5 bd 1b 46 6a bb c3 e7 c5 bc 4d b5 8d bc
       -0.10416273 -0.0035747353 -0.024158364 -0.017298365
000360 7d 30 f6 3d 48 ed 97 bd a8 e7 94 bd 85 94 89 bd
       0.12020967 -0.07418305 -0.072707474 -0.06717781
000370 00 3f e9 3c 0b 94 b7 3b ae 20 8a 3d 03 f3 07 be
       0.028472424 0.005602365 0.067445144 -0.13276295
000380 4a 78 4d be 4a 87 6f bc 64 ff f8 bc 0e cc c7 bd
       -0.20065418 -0.014619658 -0.030395217 -0.09755717
000390 f8 c4 af 3b 06 0d 7a bd a6 17 65 3c 89 29 54 bc
       0.0053640567 -0.061047576 0.013982689 -0.012949356
0003a0 82 2b fc bc 6b 62 13 be de a3 ee bd a7 db 12 be
       -0.030782465 -0.14393012 -0.11652349 -0.14341603
0003b0 b4 ae b5 3d c6 ad db bc 43 ae 05 be 1a e4 c7 3b
       0.088712126 -0.02681626 -0.13054757 0.00610019
0003c0 f0 7d 90 3c 7e 3d 63 be 32 ec 59 bd fb 3b 83 3d
       0.017638177 -0.22191426 -0.05320377 0.06407925
0003d0 3e 75 be 3d 3e 0b f7 bd 86 ee d3 bd f1 be 45 3d
       0.09299706 -0.12062691 -0.10348229 0.0482778
0003e0 be 1f fb bd ec 20 20 be 90 47 92 bc 0b 47 ba 3d
       -0.12261914 -0.15637559 -0.01785639 0.090955816
0003f0 96 37 f6 3c b9 11 d1 3c ab 9d 81 3e ee 25 91 3d
       0.030055802 0.025521146 0.25315604 0.07087313

a2c_network.actor_mlp.4.bias f4 [64]
000000 73 c0 8d bd 3f 20 2b bd 59 45 71 3d b6 6e f9 3d
       -0.069214724 -0.0417788 0.058904026 0.121793196
000010 ee 36 39 bd b9 1e ab bb f1 fa 4f be 37 74 6c bd
       -0.0452184 -0.0052221683 -0.2031057 -0.05772802
000020 07 2a 8b bd 13 b6 94 be b9 a5 5c bd 4e d9 a5 bd
       -0.067951255 -0.29045162 -0.053868983 -0.08098088
000030 dc 02 2a bd 79 28 5b 3c b0 9f 90 be 1b 1c 8d 3d
       -0.041506633 0.013376349 -0.28246832 0.06890126
000040 6d 7e 26 3b 34 89 71 3d 1e bd 31 be eb 11 ab bd
       0.0025404945 0.058968738 -0.17357299 -0.08353027
000050 f0 ba 11 3e ba a6 03 be aa 9c 5b 3c 9d 78 d1 3c
       0.14231467 -0.1285657 0.013404051 0.025570208
000060 90 6e 05 be 7a 32 ff bd 5c 87 df bd bd 4a 00 bd
       -0.13030457 -0.124607995 -0.109144896 -0.031321276
000070 2c 10 8a bd b2 bc 1f 3e 0f c4 a4 bc a5 0f 53 be
       -0.06741366 0.15599325 -0.02011302 -0.20611437
000080 ca 13 09 3e 28 ac eb 3d 42 90 5d be da 25 f2 bd
       0.13386455 0.115074456 -0.21637061 -0.11823626
000090 d6 ee e1 bd af 15 aa 3d 92 68 f6 3c 53 01 f7 bd
       -0.110318825 0.08304917 0.03007916 -0.120607994
0000a0 c5 3d d3 3d b0 dc 09 be c8 9d fa 3b 52 f2 fb bd
       0.10314516 -0.13463092 0.0076482035 -0.12302078
0000b0 24 2f a5 3d 7e dd 0d be 81 a6 a4 3c eb bb 4a bd
       0.08065632 -0.13854024 0.020098926 -0.04949562
0000c0 84 e6 a5 bd eb 7e 4d 3c b1 b0 ed bd 48 8a 8e be
       -0.08100608 0.012542467 -0.11605967 -0.27839875
0000d0 69 98 d8 bd 78 a5 53 3d c7 73 c8 3c d1 19 23 bc
       -0.10575945 0.051671475 0.02446927 -0.009954886
0000e0 45 39 5a 3c 9d 4f 86 be 92 56 43 3d e5 16 cb bd
       0.013319318 -0.26232615 0.04768998 -0.09916476
0000f0 a6 2f 86 be 7e 15 58 be c4 f3 9f be c0 7d a1 bd
       -0.26208228 -0.21101949 -0.31240666 -0.07885313

a2c_network.value.weight f4 [1, 64]
000000 73 29 64 bd 6b cf 2b 3d 42 e3 7f 3c 4f d9 43 3e
       -0.05570359 0.041945856 0.015618147 0.19125865
000010 51 43 50 3a ae 47 d5 bc fb e9 07 be b5 c3 95 bb
       0.0007944601 -0.026035156 -0.1327285 -0.0045704492
000020 7d 5e 8e bb bf cf c0 3a 85 25 bb bb 21 67 1c 3d
       -0.00434476 0.0014710351 -0.00571126 0.03818429
000030 0d 40 d8 bb 14 b1 a4 3b 57 6b 78 3d e4 b4 1a 3e
       -0.0065994323 0.005025992 0.060649242 0.15108067
000040 53 03 a5 3e f0 c3 ce 3b b9 ff 1c bb 92 1c e8 3c
       0.322291 0.0063099787 -0.0023956134 0.028333936
000050 57 d3 0a 3d 53 d4 43 ba d6 6b 45 3b d9 86 af 3d
       0.033892956 -0.00074702984 0.003012409 0.08570642
000060 95 9c b4 ba fb e7 ad bb 63 f8 b2 bd bc c6 a2 bd
       -0.0013779575 -0.0053071952 -0.08738782 -0.07948062
000070 f2 b8 a6 3a c8 de d8 3e ad b6 5c 3c e4 fe 0e bd
       0.0012719913 0.4235747 0.013471288 -0.03491105
000080 c4 f4 88 3e 92 71 81 3e 33 29 55 3c 20 7d 55 bb
       0.2674924 0.2528196 0.013010311 -0.00325758
000090 f0 d0 91 be 58 99 cb bb 78 8d fa 3a c7 a2 e5 bb
       -0.2847972 -0.0062133484 0.0019115647 -0.00700793
0000a0 45 a5 10 3d b2 2d 72 3b cb d1 b8 bd d2 a6 14 ba
       0.035313863 0.0036953506 -0.0902439 -0.000567061
0000b0 fe 6f f8 39 6b e5 a7 bd 8c 35 08 bc a7 c0 17 bd
       0.00047385687 -0.08198055 -0.008313548 -0.037048962
0000c0 08 e2 7e bc 6a 37 4a bb 4a 10 ac 3c 76 d7 a9 3a
       -0.01555682 -0.0030855783 0.021003861 0.0012957889
0000d0 e5 d9 b7 3a 33 a9 9a bb 51 91 11 bc 82 55 f2 3b
       0.001402673 -0.004719877 -0.008884744 0.007395447
0000e0 95 0e e0 ba 5d e2 1c 3d 31 e8 2b 3c da 75 2c 3c
       -0.001709419 0.038301814 0.01049237 0.010526145
0000f0 ea a0 29 3d cd ac 60 3b 5f 80 66 3d 9d bf 79 ba
       0.041413225 0.0034282685 0.056274768 -0.0009527149

a2c_network.mu.weight f4 [12, 64]
000000 9e cc 87 3d dc e4 d3 bc 6e 72 97 3d 84 01 3d 3d
       0.066308245 -0.025865965 0.073948726 0.046144024
000010 e0 39 f8 bd 03 da 44 3e 57 f4 36 bd ce b9 c1 bd
       -0.12120414 0.1922379 -0.044666614 -0.094592676
000020 2f fc c9 bc e1 f0 fb bc 57 26 b8 3d 10 69 20 be
       -0.024656383 -0.030754508 0.08991688 -0.15665078
000030 56 cd 00 bc eb a8 e3 3b c6 42 21 bd 72 15 89 3d
       -0.007861456 0.006947627 -0.03937032 0.066935435
000040 f8 65 08 bc 89 e3 ac bd b4 1a 10 bd 02 1c d4 bd
       -0.0083250925 -0.084418364 -0.035181716 -0.103569046
000050 42 74 0e 3e 86 3f 3a bc b1 64 02 3c 53 a6 d9 bc
       0.13911536 -0.011367684 0.007958577 -0.026568567
000060 e9 8c b5 bd 9e fa fb bc 0c 56 0c 3e 0c a8 e6 bd
       -0.08864767 -0.030759152 0.137047 -0.11262521
000070 f2 fc 04 bd 27 fa a7 bd ee 67 cc bc 49 50 57 bb
       -0.03246779 -0.0820201 -0.024951901 -0.003285425
000080 11 e6 99 3d 2c 7b 01 bc b8 ad 58 bd ea 8f 42 3d
       0.07514585 -0.007902902 -0.052900046 0.04750053
000090 c9 93 a5 3d 86 02 b7 bc 1f 97 c5 bc 20 6a 94 3d
       0.080848284 -0.02234007 -0.024119912 0.07246804
0000a0 ff f8 70 3d 10 2e 57 bc 32 41 ab bb f0 5b ba bc
       0.05883121 -0.013133541 -0.0052262777 -0.022748917
0000b0 a5 49 3c 3c 48 92 83 bd b1 7d e5 3d 8e b7 00 3d
       0.011492168 -0.06424385 0.11205614 0.03142505
0000c0 47 ba 87 3d 6e f1 c5 bb 3c 80 03 3c 97 85 bc 3d
       0.066273265 -0.0060407436 0.008026179 0.09205168
0000d0 59 23 9b 3d 64 f7 fa 3c 8c c7 7d be 5a 0d a3 3d
       0.075751014 0.030635543 -0.24783152 0.07961531
0000e0 0a c5 6d 3d 22 58 f3 bd 8f c4 13 3e ba 51 45 3c
       0.05804924 -0.118820444 0.1443045 0.012043411
0000f0 b8 12 16 be d1 8e a7 bc 2f 47 17 be a4 8d 96 bc
       -0.14655578 -0.020453842 -0.14773248 -0.018378086
000100 9f 86 36 bc ea 7d ce bd d3 6d 0d 3e c0 9a 80 3d
       -0.011140495 -0.1008261 0.13811426 0.06279516
000110 38 e6 59 bd 91 dc b0 bd f0 2c 05 3d df ba a2 3a
       -0.05319807 -0.0863582 0.03251356 0.0012415311
000120 d9 ce 0b 3d 93 82 a3 bc 8e 18 91 bd 98 c8 51 bd
       0.034132812 -0.019959724 -0.070847616 -0.05121669
000130 5e ac 6a bd e7 d5 8e 3d ae 88 9e 3d 3f f8 74 bd
       -0.05729329 0.069743924 0.07740913 -0.05980706
000140 11 33 96 bc 72 0b eb bc 4d c3 1f 3d bd 47 7a bd
       -0.018334897 -0.028691981 0.039004613 -0.06110357
000150 c1 2f 31 3e f7 de 68 3d 71 97 81 bc e3 3b 78 bd
       0.17303373 0.05685326 -0.015819283 -0.060603987
000160 78 2d 22 3d f9 23 89 bc fc 35 6e bd db 4d 87 bd
       0.039594144 -0.016740786 -0.058156952 -0.066066466
000170 86 93 c5 3d d1 cd fa bd ae 0b 38 3e d5 b8 59 3d
       0.096472785 -0.122462876 0.17973205 0.053154785
000180 0d 14 aa bd bc 05 ea 3d d1 a7 c4 bd 75 f4 21 3b
       -0.08304606 0.11426875 -0.09602321 0.0024712358
000190 93 81 90 3d 3f 55 ec bc 33 91 96 bc 06 42 7a bd
       0.07055964 -0.028849242 -0.018379783 -0.06109812
0001a0 60 8e d0 bd 85 24 17 bd 45 54 33 3d 04 b9 13 bc
       -0.10183406 -0.036900062 0.043781538 -0.009016279
0001b0 84 ef 93 3b 6d da 18 3d 71 cd 10 be d9 dc b2 3d
       0.0045146365 0.037317682 -0.1414087 0.087335296
0001c0 5a 8d 88 3d 22 d5 bd bd 04 73 be bd e0 c0 c3 3c
       0.06667586 -0.092691675 -0.09299281 0.02389568
0001d0 8d 55 f0 bd b3 c4 3c 3c 02 8d 13 bd 56 0c 3a 3e
       -0.117350675 0.011521506 -0.036023147 0.18168768
0001e0 a8 e2 b3 bd 0c 7c e5 bb d7 83 18 3d 8d f8 79 3d
       -0.087834656 -0.007003313 0.037235107 0.061028052
0001f0 74 4e 44 bd 00 67 8e 3d a3 c4 14 bd 68 9d ab 3d
       -0.04792638 0.069532394 -0.03632034 0.08379632
000200 4d e0 8d 3b 9d d7 f7 bc fd d0 13 bd 8e 15 88 be
       0.0043297173 -0.03025418 -0.03608798 -0.26578945
000210 a1 77 9d 3d 42 c4 ba 3d 43 01 85 ba ba 6e 14 3d
       0.07688833 0.091194645 -0.0010147471 0.03623841
000220 03 64 0d be 01 44 05 3e 19 8f b3 3c 87 c2 dd bb
       -0.13807683 0.13014223 0.02191882 -0.006767574
000230 ea e7 7e 3e d8 21 64 3c d8 4d 38 3e 41 92 7a bd
       0.24893156 0.013924085 0.17998445 -0.061174635
000240 d8 f7 01 be 42 9e 91 3d 94 7b 1f 3e 03 2e c3 3d
       -0.12692201 0.071102634 0.15574485 0.095302604
000250 37 c4 21 be 53 08 b5 3d f0 95 7f 3d 99 1f 0a be
       -0.15797506 0.08839478 0.06239885 -0.13488616
000260 82 f4 ab 3d a1 3b e0 3c d9 10 0f be 32 9d 46 bd
       0.083962455 0.027372183 -0.1397127 -0.048489757
000270 a2 e6 c0 3b d0 b5 4b bd 8d 5e e7 bc 78 be b4 bc
       0.0058868686 -0.049733937 -0.028243328 -0.022063479
000280 09 e4 8e bb 88 e9 04 3e 67 f0 16 3d 83 ea 96 bd
       -0.00436068 0.1297971 0.03685036 -0.07368948
000290 97 65 8d bc bb e4 a4 bd 7a 9d c5 bd 21 26 bc bd
       -0.017260356 -0.080514394 -0.09649177 -0.0918696
0002a0 3d 1c 88 bd 6c 36 5b bd b8 08 2a bd d7 d1 ae 3d
       -0.06646011 -0.053518698 -0.04151222 0.085361175
0002b0 41 a2 ec 3d a1 9a cc bd 94 9e 71 bd 9e a3 0d bd
       0.11554385 -0.099904306 -0.058989123 -0.034579866
0002c0 10 7b 3c bd cd 86 53 3d 72 91 0f 3e 0d 28 0d 3e
       -0.0460158 0.051642228 0.14020327 0.1378481
0002d0 79 a0 5b 3e e4 af a0 3c 1b 12 f0 3d b1 0e f5 bd
       0.21447934 0.019615121 0.11722203 -0.11965693
0002e0 23 98 48 3b 0e 02 5e 3d 1e 49 c5 3c dc 03 13 bd
       0.0030608259 0.05420118 0.024082717 -0.035892352
0002f0 02 57 2b bc 0c 18 1d bb 14 45 72 3d 6e 74 17 bd
       -0.010457756 -0.0023970632 0.05914791 -0.03697627
000300 78 54 8f bc 13 7d bd 3c 50 e5 02 be 71 36 51 3e
       -0.017496333 0.02313093 -0.12782788 0.20430924
000310 42 f9 d3 3d 6c dd 8e 3d a7 36 8b bd f3 b5 47 3d
       0.103502765 0.069758266 -0.067975335 0.048757505
000320 77 b7 ab 3d 63 d2 b9 bd 11 e6 17 bc e1 28 c7 3c
       0.083846025 -0.09073331 -0.009271161 0.024311485
000330 ad 6f 99 bd c8 b2 a9 bc bc 8b 48 bd a7 74 2d bd
       -0.074920036 -0.020715132 -0.048961386 -0.042347576
000340 ee 82 4b 3d 00 ce 84 ba 62 94 26 3d 17 47 0a 3d
       0.04968541 -0.0010132194 0.040668853 0.033759203
000350 81 46 b8 3d dd 65 ef bd 3d 98 6c bd cf 98 39 3d
       0.089978226 -0.11689351 -0.057762373 0.045311745
000360 a0 00 23 be 23 04 d3 3b d9 22 3e 3d 91 9b a3 3d
       -0.15918207 0.006439702 0.046419952 0.07988656
000370 38 97 6d 3d e1 d2 cf bd eb f5 7c 3b 7a 06 0f bd
       0.05800554 -0.10147644 0.0038598727 -0.034918286
000380 c8 06 2f 3d 86 ce f2 3c 30 71 20 bc 74 aa ff 3d
       0.042731076 0.029639494 -0.009792611 0.12483683
000390 a8 55 a6 bb 8e 38 7f 3d eb d0 11 be 0b 25 19 3a
       -0.005076129 0.062309794 -0.14239852 0.00058420066
0003a0 a8 bf 25 3d 43 17 92 be 03 9a f6 3c 8d 12 9f bd
       0.04046598 -0.28533372 0.030102735 -0.0776721
0003b0 79 3a 99 3d 17 94 69 bd a7 ce bd 3d 7e a5 1c 3d
       0.07481856 -0.057025995 0.092679314 0.038243763
0003c0 b8 62 6c bd 28 80 10 3e bd 2b dd bc 6d 9e 5b bd
       -0.057711333 0.14111388 -0.026998395 -0.053617883
0003d0 d4 16 c9 bc ff f8 c6 bd 77 6d 7c bd 36 cc 14 be
       -0.024547018 -0.09715461 -0.06162783 -0.14531025
0003e0 4b 7d bc bb 39 95 10 be ac ef 59 bc 34 46 6b 3c
       -0.005752241 -0.14119424 -0.013301771 0.014359999
0003f0 22 52 a6 bd 57 86 b2 bc a2 7f 69 bd ea c3 1e be
       -0.08121134 -0.021792574 -0.057006486 -0.15504423

a2c_network.mu.bias f4 [12]
000000 a5 51 09 3d 8a fd 82 bd 69 19 b0 bd 31 d0 1b 3e
       0.033525128 -0.06396015 -0.085985966 0.15216137
000010 33 91 84 bd df 99 47 bc 79 de 39 3e 73 72 ad bd
       -0.06473007 -0.012182682 0.18151273 -0.08469095
000020 54 6a f2 3d f9 00 12 be dc 49 2e be 4b 54 60 3e
       0.11836687 -0.14258184 -0.17020363 0.21907155

exp_avg f4 [12]
000000 28 4d a6 3b d2 68 a9 ba e8 73 27 bb 18 69 0f 3b
       0.0050751157 -0.0012924916 -0.0025551263 0.002188271
000010 34 c0 f9 3a 42 c1 2e bb af 8f 54 3a c9 b5 29 37
       0.0019054473 -0.0026665484 0.0008108569 1.011551e-05
000020 72 07 fa b8 51 a8 b8 3b eb 18 14 3a 48 1c 40 ba
       -0.00011922316 0.0056352993 0.0005649465 -0.0007328433

exp_avg_sq f4 [12]
000000 a2 0d 7a 38 55 df 85 38 73 1d 6c 38 04 92 7c 38
       5.961734e-05 6.383533e-05 5.629421e-05 6.021747e-05
000010 7f 42 79 38 e8 ac 88 38 13 7c 6e 38 93 20 73 38
       5.9428156e-05 6.517192e-05 5.6859175e-05 5.7966052e-05
000020 cf 10 88 38 e4 4b 6e 38 bf 74 65 38 bd f8 85 38
       6.488116e-05 5.68143e-05 5.4706583e-05 6.388265e-05
