OmniIsaacGymEnvs/omniisaacgymenvs/runs/Naranjelio/nn/last_Naranjelio_ep_3200_rew_8.228796.pth (torch, 672755 bytes, 36 tensors)

value_mean_std.running_mean f8 [1]
000000 8b 5b a9 23 8a c7 e2 3f
       0.5868578621401509

value_mean_std.running_var f8 [1]
000000 58 44 93 70 13 9b db 3f
       0.4313400840156354

value_mean_std.count f8 []
000000 00 00 00 01 00 c0 b2 41
       314572801.0

running_mean_std.running_mean f8 [48]
000000 f1 39 87 55 b1 d6 7e bf c1 37 01 2a 15 14 74 bf
       -0.007528965674693287 -0.0049019648286740556
000010 47 f4 52 b0 4e 0f a4 3f 8c b0 03 a0 69 bd 56 bf
       0.03917928602593484 -0.001387932919949572
000020 bf 86 c7 c3 70 b7 4b 3f f4 39 33 d6 3f 50 3a 3f
       0.0008458424195476251 0.0004015117503514403
000030 5e 1a c0 2a 88 53 c2 bf e0 53 e1 7b ee 4c ab bf
       -0.1431741913549613 -0.053321316358655
000040 4c 29 16 cc 3c 50 ee bf 5c 08 c8 d5 6f 36 c5 3f
       -0.9472946153703474 0.1657237809996016
000050 16 e7 90 ba 8a 71 51 3f 63 f9 e8 1a 9e 9f 71 bf
       0.0010646681569270225 -0.004302613828768595
000060 41 cb bc 98 8e 35 a3 bf 18 9f 7e f1 ec c5 cd 3f
       -0.037517982620917774 0.23260270873765232
000070 7d 2a 3e 85 42 56 79 3f c0 b9 cd bb d2 1b b9 bf
       0.006185779424309088 -0.09808079800652703
000080 b6 13 30 ec 06 9e c2 bf 51 74 79 39 6d 76 e6 be
       -0.14544760258300266 -1.071100432097953e-05
000090 d2 67 87 cd 12 64 b8 3e 5b 4b 5e 2e c3 9d 01 40
       1.4538116400648275e-06 2.202032434704433
0000a0 69 a9 d9 3e ea 69 e0 3f 2a 19 d3 56 06 c6 8f 3f
       0.5129290797752165 0.015514421009708974
0000b0 bc c2 59 52 6e 0c 03 c0 2e 6e 22 83 d8 18 3d bf
       -2.381069796909598 -0.00044398580497226586
0000c0 31 32 35 64 09 d4 3c 3f ae 19 33 be 0e 3f 33 3f
       0.00043988446505663625 0.0002936755174228989
0000d0 97 16 32 62 ac 40 17 bf db 0e c6 18 74 bd 41 bf
       -8.870174547056586e-05 -0.000541383445622458
0000e0 fa dd 7c df 1d 4e 45 bf b2 70 1f fe 2e 6b 4b bf
       -0.0006501813759091639 -0.0008367518860228544
0000f0 aa 07 b5 a7 17 a1 6c 3f dd 23 ca 72 c0 80 77 3f
       0.0034947835935392373 0.005738021613645975
000100 c2 64 56 9f 8f 37 69 bf 05 87 51 67 6d a1 17 bf
       -0.003078251373790226 -9.01434921885235e-05
000110 e6 c6 ef 16 38 5f 78 bf dd 5f 84 b9 7c 14 21 bf
       -0.005950183010087184 -0.00013031027334231465
000120 c5 b7 43 db cd 24 eb 3f a0 29 09 4e aa 53 c0 3f
       0.8482426912794315 0.1275532609018457
000130 82 2b 44 e6 68 14 d5 bf 5c 05 fa f3 80 6c e7 bf
       -0.32937071310941957 -0.731995083348163
000140 43 29 ee ef 46 a9 7a 3f 96 95 13 31 96 1d c8 3f
       0.006509091471239184 0.18840291401208437
000150 4c b5 e8 65 fe 84 b6 3f fa 7f 20 0b 10 0d bc bf
       0.08796682346356482 -0.10957432052282448
000160 e0 3f 20 a5 c9 d3 d1 bf fb 13 e8 14 66 a0 bb bf
       -0.27855149388869727 -0.10791624079145372
000170 74 df 77 b3 e0 86 ce bf 53 d7 e2 c8 d6 20 d2 3f
       -0.23849114192102727 0.2832543336656858

running_mean_std.running_var f8 [48]
000000 95 3b df 95 15 ba a1 3f 04 0e 4e 18 ad 1f 9f 3f
       0.03462283567898009 0.030394272430852368
000010 f4 55 7f ac b6 8b ab 3f 0d a1 f7 b5 43 a0 71 3f
       0.05380030494385926 0.004303230758047738
000020 6c 98 2b 19 4e 4f 69 3f 2f a7 47 29 5c 52 46 3f
       0.003089573417457683 0.0006812047964192875
000030 6d 6c 6e 66 50 ce 94 3f c1 96 03 d3 c5 26 a0 3f
       0.020318275691903077 0.031545812614962816
000040 14 28 41 50 df 16 9c 3f 95 14 44 df 68 93 15 40
       0.027431000970217737 5.393954742937372
000050 e4 7b a2 1d 9d 55 f5 3f 8d 85 fb 67 0a da 94 3f
       1.333401790390547 0.020363009068096672
000060 f8 d2 cf c4 f1 87 a9 3f 3d 15 dd e0 09 f1 9c 3f
       0.04986529853332472 0.02826323924025086
000070 15 80 4e 7f b0 41 1e 3f 37 7b 32 59 24 51 a4 3f
       0.00011541976694084994 0.03968156422455709
000080 2a 80 32 82 f0 35 bd 3f b2 af f4 ec 47 82 de 3e
       0.11410430124897233 7.273890971586722e-06
000090 41 8f d4 11 dc 57 4f 3e ac c6 b8 b3 fa 93 fe 3f
       1.459531567355762e-08 1.9111277599699106
0000a0 e2 a4 f6 b3 05 7b e0 3f f6 27 8e 93 c8 29 9a 3f
       0.5150173678313446 0.025550016408978103
0000b0 44 f4 33 10 b4 e9 10 40 7a df 00 41 9b 20 83 3f
       4.228225949450522 0.009339535638090746
0000c0 58 9b 42 0b 1a a8 15 3f 41 73 44 df fd 02 19 3f
       8.261355361814432e-05 9.541201126634943e-05
0000d0 9d fe 92 af dc ee e8 3e 5f bb b9 bf 4d e1 f7 3e
       1.1889007043185916e-05 2.2773830990304038e-05
0000e0 27 0f 9a 3f 2c 25 01 3f 9c 91 f7 33 5e 5c f9 3e
       3.270188603912558e-05 2.4185955451631888e-05
0000f0 35 4a 79 c3 ad 11 0e 3f 29 ff 66 0a 39 b7 79 3f
       5.73521760399886e-05 0.006278250517823194
000100 0b a1 50 fd cf b1 1d 3f 6a aa f1 d3 ff d5 20 3f
       0.00011327583281739801 0.0001284479894566205
000110 80 68 1c 63 58 83 1b 3f 03 00 e8 ac 9d 2f 30 3f
       0.00010495402309765485 0.00024697875497281546
000120 77 1d d0 7f 23 28 c1 3f d5 34 15 67 5b f2 da 3f
       0.13403743496767692 0.42104229990657177
000130 df 04 ab c5 93 5a e7 3f 01 1e 39 4a ee ee d1 3f
       0.7298067913726775 0.28020817993498787
000140 f0 c0 ce a1 27 74 e9 3f 53 1f cd 5b fb eb e8 3f
       0.7954290542893698 0.7788063805573792
000150 38 58 a6 56 ce 7f e9 3f 6e bf ad e1 0d 94 e7 3f
       0.796851319539889 0.7368230254923966
000160 c2 df d6 79 2a bf e9 3f d9 17 22 f9 ac 31 e8 3f
       0.8045856837916221 0.7560639253504134
000170 32 60 d1 1d 50 99 e9 3f 8a 83 69 6d a8 4b e7 3f
       0.7999649603252748 0.7279855858761135

running_mean_std.count f8 []
000000 00 00 00 02 00 c0 a2 41
       157286401.0

a2c_network.sigma f4 [12]
000000 e1 40 f3 bf af d2 bd bf db dd bd bf 65 55 d0 bf
       -1.9004174 -1.482992 -1.483333 -1.627606
000010 71 a3 b8 bf ab 1d a5 bf c7 60 ac bf ca e3 a4 bf
       -1.4424878 -1.2899679 -1.3467034 -1.2882016
000020 0d 9f b6 bf cc d0 a6 bf d8 f8 a9 bf e1 52 ac bf
       -1.4267288 -1.303247 -1.3279066 -1.3462793

a2c_network.actor_mlp.0.weight f4 [256, 48]
000000 95 85 b4 bc a0 55 a0 3c dc 99 f8 bd d2 12 4e bd
       -0.022036353 0.01957208 -0.12138721 -0.050310917
000010 63 02 ad bc 34 3d f7 bb 35 50 30 bc a3 0a 2a 3e
       -0.021119302 -0.007545138 -0.01076131 0.1660562
000020 a3 b2 ab bd ba 7b 7a 3d 8c 12 1d be ae 55 05 3e
       -0.083836816 0.06115315 -0.15339106 0.13020965
000030 93 0f f2 ba 84 f9 d3 3d f6 24 c7 bd 5d 70 52 bb
       -0.0018467776 0.10350326 -0.097238466 -0.003211043
000040 0d 06 9f 3d 9b 60 04 3e 8a e9 d2 bd 38 32 0c 3d
       0.07764826 0.12927477 -0.1029845 0.03422758
000050 ed 1b cd bd 6e 66 84 bd 5a 6f 1e bc 8a 08 28 3d
       -0.10015092 -0.064648494 -0.009670103 0.04102377
000060 d6 60 af 3c fc 7c f8 3d 6c e4 bc 3d 40 4e d9 3d
       0.02140848 0.12133214 0.092232555 0.10610628
000070 95 b0 40 bd 08 19 ea bc 90 a0 78 3d 0a a5 57 be
       -0.0470434 -0.028576389 0.0607 -0.21059051
000080 a0 71 03 be b3 37 9d 3c b8 ff 7b bd 6c 4c 45 bd
       -0.12836313 0.019191599 -0.06152317 -0.048168585
000090 16 0a d7 3c 89 76 6f bd e9 6c 3b be 46 1e f1 bc
       0.026249927 -0.058462653 -0.18303265 -0.02943338
0000a0 7d a0 a9 3c 9f 9c 13 3d 8d e9 81 3d 7b da 14 3d
       0.02070641 0.036038037 0.063433744 0.03634117
0000b0 6c 07 55 3e 9a 30 14 be aa 87 40 bc 9a 3f bb bd
       0.20803612 -0.14471665 -0.011751095 -0.091429904
0000c0 bd 61 fd bd ea cc 35 3e 3f a3 39 3d 69 ce 27 3d
       -0.12372158 0.1775395 0.0453217 0.040968332
0000d0 6a da 66 3d b9 a9 d3 3d 8a 13 70 be e4 61 b5 bd
       0.05636064 0.103351064 -0.23444954 -0.08856562
0000e0 bc 7b 43 3e e8 93 8f be 37 88 5e 3e 57 4a b1 3e
       0.1909017 -0.2804253 0.2173165 0.3462703
0000f0 5a 76 ea bc 38 57 a7 3d e4 f8 de 3c 82 b8 f2 bd
       -0.028620888 0.081709325 0.02721829 -0.11851598
000100 34 e5 f6 3d 50 6d 33 bc 91 30 45 3e 66 a9 06 3e
       0.12055436 -0.010951355 0.19256808 0.13150558
000110 4a 23 ca 3d 1a a1 f5 3d ac 52 e4 3d 90 24 4c 3e
       0.09870012 0.11993618 0.11148581 0.19935822
000120 a9 90 9d bc 34 72 01 bd 0a 33 e4 bd 04 fb 17 bd
       -0.019234018 -0.031603053 -0.111425474 -0.03710462
000130 62 22 90 bb 51 f1 d3 3c 67 37 94 bd 42 38 0b 3d
       -0.00439863 0.025871905 -0.0723713 0.0339892
000140 11 03 f2 3b 84 ae dd bd 1b db 8b 3c 76 67 af bd
       0.0073856195 -0.10824302 0.017072251 -0.085646555
000150 e8 1f a5 3b 39 60 19 3c c1 e7 84 bc 53 04 f3 3d
       0.005039204 0.00936132 -0.01622379 0.11866059
000160 08 26 e7 3d a0 59 ce bd d3 4d 6d bd 14 ef f6 bd
       0.11286551 -0.10075688 -0.057935547 -0.12057319
000170 b7 73 49 3d 08 8d 21 3e 49 f0 cc bd 57 c4 3d 3d
       0.04918262 0.15776455 -0.10006768 0.046329822
000180 63 10 10 bd f5 f4 0f 3d fa 82 8d bd 1a bb bb 3d
       -0.035171878 0.03514572 -0.069097474 0.09166546
000190 5a 35 88 bc a9 6c a4 3c 79 63 39 be 75 5c 37 bd
       -0.016627003 0.020071344 -0.18104352 -0.04476591
0001a0 67 7a 97 bd e4 ea 84 3e 81 13 0d be 2c f4 e7 be
       -0.07396393 0.25960457 -0.13776971 -0.45303476
0001b0 d9 fb db 3d 58 73 48 3d 6d f7 13 3c 01 d1 ed 3d
       0.107413955 0.048938125 0.009031159 0.1161213
0001c0 a0 cc 0e be 8e 50 85 3b 49 7b 4b be 90 ae 02 bd
       -0.13945246 0.0040684408 -0.19871248 -0.031904757
0001d0 e5 30 50 3e 96 8b cc 3c 07 56 e7 3d 4c 5b 06 be
       0.20331152 0.024968904 0.11295705 -0.13120764
0001e0 dd f0 83 bd 2e 5e 80 3d 2c 9d db 3d a9 57 0f 3c
       -0.064424254 0.06267963 0.107233375 0.008748927
0001f0 0e 76 28 3d 55 8f bb bb 9d df f9 ba 51 90 76 3c
       0.04112821 -0.0057238736 -0.0019063834 0.015049056
000200 0f 2f 1d 3d 54 4e 03 bd 66 1a 5a bc 07 e8 62 3d
       0.038374957 -0.03205712 -0.013311958 0.05539706
000210 10 5d b9 3c a3 b2 45 bd 02 c3 e4 bd e2 b3 c4 3d
       0.022627383 -0.048266064 -0.11170007 0.096046224
000220 e2 51 ed bd e7 6f a5 3d 6e b2 e6 3d 66 bd 08 bd
       -0.115878835 0.08077984 0.112645015 -0.03338375
000230 e3 ea 03 3d c7 15 a7 bc 47 79 f8 bc 1d db 1f bb
       0.032206427 -0.020396126 -0.030331267 -0.0024392076
000240 96 1d 70 ba 90 40 9a 3d 82 23 15 3e e1 ee 81 bc
       -0.0009159682 0.075318456 0.14564326 -0.015860977
000250 ac fa 0f 3e 0a a2 e1 3d f3 92 26 be 11 16 c1 3d
       0.14060467 0.110172346 -0.16266994 0.09428037
000260 f5 20 31 3e ac 1b 99 be 3e 5c 0c 3e a5 ac d2 3e
       0.17297728 -0.29903924 0.13707063 0.41147342
000270 92 c8 4c 3d 70 b2 8d 3c b5 e3 f7 3d 19 6c 29 be
       0.049995966 0.017297 0.121039785 -0.16545142
000280 07 bc 0e 3e 7c 14 8f bd 1e f0 b2 3d da 0b 85 3d
       0.13938914 -0.06986329 0.08737205 0.06496401
000290 14 59 26 3d fe 27 14 3c 72 5b a4 3c 66 41 47 be
       0.040612295 0.009042738 0.020063136 -0.19458541
0002a0 aa 27 b9 3d 1f f6 a2 bd df 32 16 be 9a 50 97 bb
       0.090407684 -0.079571 -0.14667843 -0.0046177628
0002b0 63 07 c2 3d 00 83 fc 3c b3 82 83 bd a9 77 dc bd
       0.09474065 0.030824184 -0.06421413 -0.10765011
0002c0 c1 94 a5 3d e1 7a 63 3e 09 30 51 3d 34 15 98 3d
       0.08085013 0.22214843 0.0510712 0.07425919
0002d0 24 c8 74 bd bd 0a 01 be 37 b0 b0 3d 25 a6 b6 3b
       -0.05976118 -0.12601753 0.0862736 0.005574005
0002e0 40 80 98 3d 97 54 71 3e d0 e9 d2 3d 46 8d 5e 3d
       0.07446337 0.23567425 0.102985024 0.054333948
0002f0 2d ae 1d be 19 3f 3a bd 75 0a 27 be 46 bb 79 bd
       -0.15398474 -0.04547033 -0.16312583 -0.060969613
000300 be c7 36 be 51 ab c6 3c 8e 47 ff bd 76 92 54 3d
       -0.17849633 0.024251612 -0.1246482 0.05189749
000310 a6 cd fa 3c 1a 63 22 3d 9a 7e a2 3d af b1 00 be
       0.030615639 0.039645292 0.079343036 -0.12567781
000320 89 02 2d be 66 33 42 be 4e c2 21 3e 90 11 3b be
       -0.16895498 -0.1896492 0.15796778 -0.18268418
000330 08 47 23 3d f7 dd 5d 3c 06 43 3b bd c8 04 39 3e
       0.039862663 0.01354169 -0.045718215 0.1806823
000340 c0 dc 5d 3c 57 61 2d 3e c1 1c 38 be b8 d5 9a 3c
       0.0135414 0.16931663 -0.17979719 0.018900737
000350 e2 83 ce 3d d9 35 1f bc 49 39 51 3d 34 7f 1a bc
       0.100837484 -0.009717428 0.051080022 -0.009429742
000360 5d 61 17 3e 06 91 9a 3b ce 24 c3 3d d1 ad 0e 3d
       0.14783235 0.004716995 0.09528504 0.034833733
000370 03 eb 9d 3d 30 1a a6 3d c6 01 40 bd 23 b8 18 bd
       0.077108406 0.081104636 -0.04687669 -0.03728498
000380 f3 6d 8c bc 07 69 02 be c4 39 46 bd 92 ab 1b bc
       -0.017142272 -0.12735377 -0.048394933 -0.009501355
000390 de a7 41 3d 3b dc 07 be 10 67 d5 bc 20 48 f1 bd
       0.04727923 -0.13267605 -0.02605012 -0.11781335
0003a0 4c de d1 bd 2f c3 ce 3d 7e a5 42 3e 88 50 85 3d
       -0.10247478 0.10095822 0.19008443 0.06509501
0003b0 88 e3 0e 3e 05 fa da bd bb 4d 5b 3d 87 4f af 3d
       0.13953984 -0.10692219 0.053540926 0.085600905
0003c0 05 1d 14 be ea 86 3e 3e ea 8c c6 3d c2 63 8d bd
       -0.14464195 0.18606153 0.09694846 -0.06903793
0003d0 4e b4 64 bd 71 bc 96 3d f0 d7 07 3e 87 f9 e7 3d
       -0.055836014 0.07360161 0.13265967 0.113268904
0003e0 e9 0d a1 bd 7a 82 5c be 19 38 36 be 91 d9 33 be
       -0.07863981 -0.21534148 -0.17794837 -0.17563464
0003f0 c5 d4 7f bc 44 3a d8 bc a5 fa 8b bd ff f1 8f bc
       -0.015614693 -0.02639497 -0.06834916 -0.017571447

a2c_network.actor_mlp.0.bias f4 [256]
000000 d7 41 b5 bd 01 93 6e bd 00 74 cf 3d a4 15 98 3d
       -0.088504486 -0.058245663 0.10129547 0.074260026
000010 4f c7 35 be 4b bd 5e 3e 3c 13 70 3e 9b a2 fd bd
       -0.17751811 0.21751897 0.23444837 -0.1238453
000020 ac 39 74 3d 73 b8 04 3e bb cf 10 3e 40 cb dc bd
       0.059625313 0.12960987 0.14141743 -0.10780954
000030 ef 2f 8f 3c fe cc 03 be b4 b8 b8 bd b3 ae 6c 3e
       0.017478911 -0.12871167 -0.09019604 0.23113517
000040 68 7e 90 3e 30 98 ac bd ce 45 a8 be 25 98 a9 be
       0.2822144 -0.08427465 -0.32865757 -0.3312389
000050 0d a3 7c 3e aa a2 41 3d ed e2 f7 bd f2 86 3f bd
       0.24671574 0.04727427 -0.121038295 -0.046759553
000060 c9 f0 67 bc 2a ff 5b 3e 9b 64 05 3e 74 d4 3a 3c
       -0.014156529 0.21484056 0.13026659 0.011403192
000070 84 a1 88 be 34 59 9a 3b 1c 79 69 3e d7 79 b4 3c
       -0.26685727 0.004710341 0.22800106 0.022030754
000080 12 46 6d 3d ba c7 39 bc 27 a1 84 3e 4d a3 8c 3d
       0.057928152 -0.011339122 0.259042 0.06867085
000090 66 a7 ee bd 55 85 34 3e 8b 99 5b 3d 9d 7d 39 3d
       -0.116530225 0.17628987 0.053613227 0.04528581
0000a0 7b 48 be bc 1f 5a 3c 3e 8f 8a 95 3e 68 c0 4f be
       -0.02322792 0.18393753 0.29207274 -0.20288241
0000b0 c3 07 32 bd 12 36 b7 3d 58 19 08 3a e6 c5 0a 3e
       -0.043464433 0.0894586 0.0005191765 0.13552055
0000c0 ed de 3a 3e d2 d3 03 3d 9e 4a 36 3e b9 77 1a 3e
       0.18249102 0.03218443 0.17801902 0.15084733
0000d0 71 b9 d5 3d 23 86 52 3d 2c cf 0a be e2 ba a7 bc
       0.10435761 0.051397454 -0.13555592 -0.020474855
0000e0 d7 5b bb 3d f2 f7 c6 3d fa f1 4c be 71 a9 e3 bc
       0.091483764 0.097152606 -0.20014182 -0.027790757
0000f0 63 24 1a be 37 7f 46 3e a5 6d a8 3d 92 7c 94 bc
       -0.15052943 0.19384466 0.08224038 -0.018125806
000100 ee ed 18 be 67 34 df 3d f3 5c 34 bd d8 65 15 be
       -0.14934513 0.10898667 -0.044033956 -0.14589632
000110 eb 6c bf 3d eb 98 af 3b c9 40 45 bc 3c d3 df 3d
       0.09346946 0.0053588054 -0.012039372 0.10928962
000120 ba 10 97 bd 63 3c 13 3e 21 f9 93 3d 43 ca d4 3d
       -0.07376237 0.14378504 0.07225252 0.10390141
000130 fd 62 d4 3d 98 02 16 3e 97 45 80 bc 87 fb e5 bc
       0.10370443 0.14649427 -0.015658183 -0.02807404
000140 61 b9 a7 3c 21 92 bc bd 19 63 f1 3d 37 93 d1 bd
       0.020474138 -0.092075594 0.117864795 -0.10233157
000150 5b dc fa 3d 9f 7e 99 3e c9 5e 1c 3e 9a 00 92 bd
       0.12249061 0.29979417 0.15270533 -0.07129021
000160 e9 c8 ba 3d 83 d4 11 be ca 45 43 3e c8 0e 7e 3e
       0.09120352 -0.14241223 0.19069591 0.24810326
000170 58 46 93 3e 1d 7e 9b bc 14 70 88 3d a4 9a 43 3e
       0.28764606 -0.018981034 0.06662002 0.1910196
000180 57 9d 1d be ca 75 89 be 60 71 a4 be 81 d0 3b 3c
       -0.15392052 -0.26847678 -0.32117748 0.011463285
000190 46 7d 35 3e 76 c4 2a bc 04 aa f9 bc 62 4a 99 be
       0.1772357 -0.0104228165 -0.030476578 -0.29939562
0001a0 7f 88 f2 3d a3 1a 66 3d f9 43 a9 3d fd af 81 3d
       0.11842441 0.056177747 0.08264918 0.06332395
0001b0 8d 28 fc 3d 91 64 70 ba 5b 89 5e be 2e 4a 98 3d
       0.12312422 -0.0009170259 -0.21732084 0.07436024
0001c0 ff 3b 86 3d 85 a6 82 3e 54 01 db bb e7 31 7d be
       0.06554412 0.2551767 -0.006683508 -0.24726067
0001d0 28 57 30 be 16 6c 5d bd 0a e7 fb 3d 2c 76 5b bd
       -0.17220747 -0.054058157 0.122999266 -0.053579494
0001e0 12 ba f4 3d 51 7d 80 bc e8 b4 18 be b1 87 a8 3c
       0.119495526 -0.015684756 -0.1491276 0.020572515
0001f0 ac 92 3a 3e cd ee 34 bc 77 63 14 3e fb c3 87 3d
       0.18220013 -0.011043263 0.14491068 0.06629177
000200 66 3b e9 3b b3 32 5b 3c fa 14 df 3c 72 70 d9 3c
       0.0071176765 0.013378787 0.027231682 0.026542876
000210 a9 c0 27 bd a4 d3 61 be 05 89 3b be 5c fd 14 3e
       -0.04095522 -0.2205339 -0.18313988 0.14549774
000220 7e 79 85 3e 33 2d 1b bd 32 37 31 3e 2f 3c 8c 3d
       0.26069254 -0.037884902 0.17306212 0.068474166
000230 43 ce 86 be 8e 33 4e be 2a 14 e1 3d b0 ad e2 3d
       -0.2632924 -0.20136854 0.10990174 0.110682845
000240 91 49 50 bd b7 32 ec bd 63 78 6f bd 11 a0 8d 3e
       -0.05085141 -0.115331106 -0.05846442 0.27661183
000250 cb 56 6c be 46 54 fc 3d 13 47 9d bd 8c 17 34 bd
       -0.23079984 0.123207614 -0.07679572 -0.04396777
000260 4d 5a 11 3e fc 2a c4 3d a0 e9 07 3e 68 fd 58 be
       0.14194603 0.09578511 0.13272715 -0.21190417
000270 6a 63 cb bd 30 75 f7 3d 1a 5e e6 3d ec e8 a1 3d
       -0.09931071 0.120828986 0.11248417 0.079057544
000280 aa 8f 10 be 1b 48 3a 3e 9d b0 8b be 84 f9 84 be
       -0.14117303 0.18191569 -0.27283183 -0.25971615
000290 0e 14 22 bd 0c 53 11 bd 82 e6 b5 3d 48 7c 83 3c
       -0.039569907 -0.03547959 0.088818565 0.016050473
0002a0 e5 85 c2 bd 06 59 00 be bb 6a 3d 3e f4 71 06 be
       -0.094981946 -0.1253396 0.18497746 -0.13129407
0002b0 84 fd 82 3e 9a 47 41 bd 53 ef a7 3d ab dd 03 bd
       0.25584042 -0.047187425 0.08199944 -0.03219382
0002c0 75 f0 0a bd f6 e7 ee bd d7 3a 13 3e 2d 3e cc 3b
       -0.033920724 -0.11665337 0.14377914 0.006232998
0002d0 7f 8b 38 3e 59 16 48 3e ed 59 4e be cd 96 47 3e
       0.18021964 0.19539775 -0.20151491 0.1949112
0002e0 5f 59 0f 3e b6 28 3a 3e 21 95 e7 3d fd 68 26 3e
       0.13998936 0.18179592 0.11307741 0.16250987
0002f0 4a 09 36 3e 1f 53 db bc 75 f6 15 be 46 dc c7 3b
       0.17776981 -0.026773034 -0.14644797 0.0060992567
000300 2d 26 10 be e2 d4 84 3e 16 7f b0 bd bf d0 60 3e
       -0.14077063 0.25943667 -0.0861799 0.2195463
000310 1f 57 08 3e 4c 7f 23 3c 4a 38 9a 3e 48 ff 0f 3d
       0.13314484 0.00997908 0.3012107 0.035155565
000320 66 f3 d0 bc 30 fd dd 3d 33 67 7c 3e 39 33 48 be
       -0.025506686 0.10839307 0.24648742 -0.1955079
000330 b7 a2 e4 bb f4 86 f3 3d ab 74 e4 3d 60 09 27 3e
       -0.006977405 0.11890975 0.11155065 0.1631217
000340 a9 b3 e9 3d af a8 4e bc a2 5a 74 3d ce 9e 70 3d
       0.114112206 -0.0126134595 0.059656747 0.058745198
000350 a7 89 28 3e 7b 0f 48 bd f7 00 f4 bc a8 be 22 3e
       0.1645876 -0.04884289 -0.029785616 0.15893042
000360 b7 d6 02 3e a3 e5 13 3e ae c9 31 bd e4 a1 5d 3c
       0.1277722 0.14443068 -0.043405227 0.013527367
000370 32 ab aa be db 7d 84 bd f9 a9 40 3e fb b5 b0 bc
       -0.33333737 -0.064693175 0.1881484 -0.02157115
000380 db dd 4b 3c 8b f9 08 3e da fb 55 bd 66 9d 2d be
       0.012443031 0.13376443 -0.052242137 -0.16954574
000390 85 e9 d9 3d 4f cc 0e bd ca 8f b5 bd 72 54 16 3e
       0.106402434 -0.034862813 -0.08865316 0.14680651
0003a0 60 c1 42 be 81 4b 57 3d 87 2e f9 3d 61 02 92 bb
       -0.19019079 0.05256224 0.121670775 -0.00445585
0003b0 07 07 f6 bd 1a 5f 3e 3e df 3e 25 3e 75 da be 3b
       -0.12013059 0.18590966 0.16137265 0.005824382
0003c0 70 ff 46 3e a0 54 64 3e 11 48 c1 3d 66 13 2d be
       0.19433379 0.22297907 0.09437574 -0.16901931
0003d0 3c e2 9a 3c 12 c2 29 3e b1 60 da 3d 4e 87 8c 3e
       0.018906705 0.16577938 0.10662974 0.2744698
0003e0 23 b0 70 3d 61 d3 81 3d a0 3f 93 bd d6 8e 38 3d
       0.058761727 0.063391455 -0.0718987 0.045058094
0003f0 d0 36 ee 3d e2 62 6c 3e 91 cd 21 3e 5e 5a 5c 3c
       0.116315484 0.23084596 0.15801074 0.01344928

a2c_network.actor_mlp.2.weight f4 [128, 256]
000000 e3 71 09 bd d0 bb 39 3e 85 c9 cd bd bf 68 8c 3d
       -0.033555876 0.18138051 -0.100482024 0.06855916
000010 30 e4 98 bd 49 69 08 3c c1 62 f6 bd 92 9d a8 bd
       -0.07465398 0.008325883 -0.120305546 -0.08233179
000020 78 90 f9 bd 79 5e c8 3c e3 c4 3b 3d 3d 2b 41 3d
       -0.12185758 0.02445911 0.045842063 0.047160376
000030 0a 10 97 3d 9a 0c 3b 3d b3 8d 80 3c be 29 ae 3c
       0.07376106 0.045666315 0.015692567 0.021260139
000040 cc 6c 87 bd d1 06 f0 3d e0 fa f7 bc 57 b6 09 3e
       -0.06612548 0.1172005 -0.030270994 0.13448463
000050 60 cf 11 be 90 b1 77 bd cd b3 a4 3d 8b 2a 14 3e
       -0.14239264 -0.06047207 0.08042107 0.14469354
000060 48 f9 22 3e 62 7e aa bc 9c 23 fb bb ac 6b a9 3d
       0.15915406 -0.020812217 -0.007664157 0.0827249
000070 2f b4 2a bc 4e 81 28 3c b7 b2 b3 bd a2 9a 42 3d
       -0.010418936 0.010284735 -0.087743215 0.04751075
000080 4d 20 18 3e eb 74 0c 3d a9 41 dc 3d 51 8d a1 bd
       0.14856072 0.03429119 0.10754711 -0.07888282
000090 75 ce c3 bc f4 b3 2a be ed a1 dd 3d 28 6d ab 3b
       -0.023902157 -0.16670209 0.108219005 0.0052315183
0000a0 48 8d 23 3e 89 c4 a5 bd 65 e9 c4 3c 08 ce e2 bd
       0.15971863 -0.08094127 0.024037072 -0.110744536
0000b0 cd 96 ab 3c 46 fa 18 bc 86 6b d8 bd be 91 d1 3c
       0.02094593 -0.009337014 -0.105673835 0.02558219
0000c0 d3 23 da 3d 1c f9 8d 3d c1 dd 53 be 2f de d0 bd
       0.10651364 0.069322795 -0.20690061 -0.10198628
0000d0 c9 1c 9a bd 05 d5 49 bd 91 37 ac 3d 38 0d 99 3d
       -0.075250216 -0.049275417 0.08409036 0.074732244
0000e0 db 9b 3d be 1a ec da 3d 05 b8 dc 3c 17 e7 d8 3d
       -0.18516485 0.10689564 0.026943216 0.10590952
0000f0 0c 70 a3 3d 4e 21 83 bd 4a b4 6d 3c b6 c8 27 3e
       0.079803556 -0.06402837 0.014508316 0.16385159
000100 e1 a6 8c 3d 44 49 79 bc 68 6b ea bd e1 74 0e be
       0.06867767 -0.015215222 -0.11446267 -0.13911773
000110 38 73 43 3c 3f 30 e4 bd 6a 36 f3 bd 80 b3 cc bc
       0.011929326 -0.11142015 -0.11875613 -0.024987936
000120 71 9d 94 bd 98 bf 98 bd c0 e9 ab 3d de 52 98 bd
       -0.07256592 -0.074584186 0.08394194 -0.07437681
000130 5c 94 b8 bd 61 33 62 be a7 a0 dc bc 31 b8 21 be
       -0.09012672 -0.22089912 -0.026932074 -0.1579292
000140 e1 99 ed 3c d1 f4 f3 3c 91 fa 0a 3e ad bb 67 3a
       0.02900404 0.029779823 0.13572146 0.00088399166
000150 3b 4a 23 be ce 86 9a bd e9 1b ee bd 32 45 d4 3d
       -0.15946285 -0.07545243 -0.11626417 0.103647605
000160 25 a5 da 3c a4 50 aa bc 34 66 72 bd f5 d2 92 bd
       0.026690075 -0.020790406 -0.0591795 -0.07169143
000170 82 3c 34 3d 14 05 2e 3d b3 4d 0b 3c 2d 1a 7f 3d
       0.044003017 0.04248531 0.008502412 0.062280823
000180 0f de 3b bd b1 46 9e bd b2 f3 a0 3c 51 85 4d 3e
       -0.04586607 -0.07728327 0.019647453 0.20070387
000190 21 74 36 bd a5 dc cd 3d 36 4c 83 3d 71 d1 b1 3d
       -0.044544343 0.1005185 0.064110205 0.08682526
0001a0 67 ec 4c bd 3e 82 50 bd 63 9c 23 3d 3e 0d a2 bd
       -0.05003014 -0.05090546 0.039944064 -0.07912682
0001b0 52 a5 ae bd 7c c0 0f bc 22 d8 4c bd 67 02 c9 3d
       -0.08527626 -0.008773919 -0.050010808 0.09814911
0001c0 6d bd 14 3d f5 71 80 3d 62 b2 1b be fc a4 20 3d
       0.036313463 0.062717356 -0.15204766 0.03921984
0001d0 c9 a1 24 bd 26 6d 80 3a d6 5b 04 bb 71 b5 1b be
       -0.040193353 0.0009798154 -0.002019634 -0.15205933
0001e0 b2 15 4a bd 1e 76 88 3d 00 8a ee 3d c3 3e 4b bd
       -0.049337097 0.06663154 0.11647415 -0.0496204
0001f0 b2 30 2d bd f5 59 7a bc 23 86 93 bd 12 04 2c 3d
       -0.042282768 -0.0152802365 -0.07203319 0.04199607
000200 83 fb ec bc 46 b8 1b 3b 28 49 24 bc 55 e5 f1 3c
       -0.028928524 0.0023760959 -0.010027207 0.0295283
000210 2d a8 37 bb 3c 74 88 3d 92 ce bb 3b fc 67 8b bc
       -0.0028023825 0.06662795 0.005731412 -0.017017357
000220 58 43 e4 bd 67 58 83 bd a7 ac fe ba 4e 39 84 3c
       -0.11145657 -0.06413346 -0.0019430117 0.016140606
000230 f2 90 74 bd 51 86 89 bd 55 1b d3 bd 0a b4 bf bd
       -0.059708543 -0.06715072 -0.103079475 -0.093605116
000240 f7 7e 2c 3d df 6c a5 bd 1b 93 9c 3c 5b 3d b0 bd
       0.04211327 -0.08077406 0.019113114 -0.086054526
000250 9d cc 51 3d 59 05 fb bd 86 b9 2c 3e 00 1a b5 bc
       0.051220525 -0.12256879 0.16867647 -0.022107124
000260 b6 24 d3 bd c8 95 5e bc 02 57 b8 bd ef b7 ae 3d
       -0.103097364 -0.013585515 -0.090009704 0.08531176
000270 52 6c b5 3d 6b 65 55 3d 8e f8 05 be 8b 8f e8 bc
       0.08858551 0.052098673 -0.13083097 -0.02838876
000280 10 18 7f 3b 0d 62 31 be 96 41 66 3b 2b e3 87 3c
       0.0038924254 -0.1732256 0.0035134307 0.016587814
000290 c6 d0 de 3c 1f 35 b6 bd 40 7e c8 bc 70 12 80 bd
       0.02719916 -0.08896851 -0.024474263 -0.06253517
0002a0 4d 04 90 3d 71 d7 a4 3d b4 78 14 be 02 d8 45 3e
       0.0703207 0.08048905 -0.1449917 0.19320682
0002b0 e1 65 9d bd f9 e7 f6 bc ef 23 e5 3c 3e 10 26 3d
       -0.076854475 -0.03013991 0.027971236 0.040542834
0002c0 25 1e f5 3d f5 3c 36 be d6 18 cc bb 5a a5 82 3c
       0.1196864 -0.17796691 -0.0062285466 0.015947986
0002d0 22 fa f2 bc e9 7e 50 bc d6 b7 3b 3c c2 3e 66 bd
       -0.029660288 -0.01272557 0.011457404 -0.056212194
0002e0 08 44 11 3d 20 f1 8e 3b 72 b4 98 3d 7b db 36 bd
       0.03546527 0.0043622404 0.07456292 -0.044642907
0002f0 e7 42 67 3d 1c 4d b7 bd 70 de 25 3e e8 c6 11 3d
       0.056460287 -0.08950254 0.16198134 0.035590082
000300 40 f5 6d bd 43 56 21 3d a3 a3 61 3d 6c ed 94 3d
       -0.058095217 0.039388906 0.055087697 0.07271847
000310 e3 37 19 be fb 5d ea bd b1 6d ca bd aa a5 8d 3d
       -0.14962725 -0.114437066 -0.09884203 0.069163635
000320 9a d1 dc 3d 53 29 8b bd 8a 61 e9 bb 05 00 83 bd
       0.10782166 -0.06794991 -0.0071222233 -0.06396488
000330 ba 21 1d bc c2 08 de 3d 1d e9 95 bd 69 6d 6a bd
       -0.009590561 0.10841514 -0.073198535 -0.057233248
000340 4a 3f ea 3c c6 07 8e 3d a7 76 ec 3d 7a 3f ce bd
       0.028594632 0.069350764 0.11546069 -0.10070701
000350 e2 be f1 bd b8 49 58 3d ff a1 2d bd 31 a8 62 be
       -0.11803986 0.05280468 -0.04239082 -0.22134472
000360 de 3f ac bd c3 52 0b 3e 61 49 36 bc 14 2d 8f 3d
       -0.08410619 0.1360579 -0.011125893 0.0699102
000370 51 07 57 3d 14 95 d0 3c 79 15 d3 3d be de af 3c
       0.05249721 0.025461711 0.1030683 0.021468516
000380 d4 8f 4d bc 12 bd e9 bd db 97 98 3d 68 44 68 3d
       -0.012546498 -0.114130154 0.07450839 0.056705862
000390 5d e8 64 bd 61 8a da bd 62 0c ec 3d ac 3d 04 bb
       -0.05588566 -0.10670925 0.11525799 -0.002017836
0003a0 22 4e 98 bd 2d 48 d0 3d e9 7f 9a bc 7d 46 0a 3e
       -0.07436778 0.101700164 -0.01885982 0.13503452
0003b0 67 35 8c 3d 4c 8b d1 bc a5 28 73 3d c9 cc 8f bc
       0.06846123 -0.025579117 0.059364934 -0.017553704
0003c0 77 87 96 bd 8e f3 4a 3d 14 3b a0 bd f0 2b 83 3c
       -0.073500566 0.049548678 -0.07823768 0.016012162
0003d0 87 e4 fb 3d c7 cc 0a bd 62 61 ee 3d 8d 6f a5 bc
       0.122994475 -0.033886697 0.11639668 -0.020194793
0003e0 c9 73 61 bd 0b 18 24 bc c4 8a bc bd 8c 9d 12 ba
       -0.055042062 -0.010015498 -0.09206155 -0.00055929343
0003f0 cd 87 19 be 17 fd ec 3c 15 c4 02 3d 9c 2b 21 3e
       -0.1499321 0.028929276 0.03192528 0.15739292

a2c_network.actor_mlp.2.bias f4 [128]
000000 79 26 8c bd 00 7a b1 bc 30 6b 29 be c0 70 39 be
       -0.068432756 -0.02166462 -0.16544795 -0.18109417
000010 bd 41 1c 3d 70 32 84 be de 06 11 be d7 38 7e bd
       0.03814863 -0.2581973 -0.14162776 -0.062065925
000020 21 32 68 be de bb 84 be 06 9b 15 be 5a 3f a2 bd
       -0.22675373 -0.2592458 -0.14609918 -0.079222396
000030 7b 73 4e bd e3 45 4d 3d 43 aa 6c bd bf d9 14 be
       -0.0504031 0.050115477 -0.05777956 -0.14536189
000040 4f 41 8a bd 2f 84 82 3b bb d6 df bc 5e b9 bd bd
       -0.06750738 0.0039830427 -0.027324071 -0.092638716
000050 e6 34 bf bd 13 cb 81 be 0d e0 fb bd 20 fe ae bb
       -0.093362615 -0.25350246 -0.12298594 -0.0053403527
000060 67 13 b1 bd 20 68 8b be 9d c3 54 be 89 5b 41 bd
       -0.08646279 -0.2722788 -0.20777746 -0.047206435
000070 bf e7 ab bd 84 ed 1a bd ae 21 c1 bc 5b aa 5e bd
       -0.083938114 -0.03782417 -0.02357563 -0.054361682
000080 75 10 cc bd 68 de a0 bc e8 c5 d0 bd aa a7 2d bd
       -0.099640764 -0.019637302 -0.101939976 -0.042396225
000090 f1 07 8e bd a8 43 93 bd a5 ef 97 bd c6 83 4e be
       -0.069351085 -0.07190639 -0.074187554 -0.20167455
0000a0 da 0b e1 bb 65 8b 26 3e e5 51 87 be fa 0e d3 3b
       -0.006867868 0.16264112 -0.26429668 0.0064409943
0000b0 67 70 85 be 03 48 03 bd d0 16 55 3d 9f e8 3f be
       -0.2606232 -0.032051098 0.05202371 -0.18741082
0000c0 d7 67 8e 3b 2e 03 9f bc de ce 34 be 30 f4 00 bd
       0.004345875 -0.019410696 -0.17657039 -0.031482875
0000d0 29 bc f8 bd db a5 3a bd 0f 40 94 3c 08 c5 a9 3d
       -0.12145264 -0.04556833 0.018096952 0.08289534
0000e0 65 87 b7 3d a3 9b 16 bc 8e 32 33 bc de 92 c8 bd
       0.08961371 -0.00919238 -0.010937346 -0.09793638
0000f0 20 52 a3 bd 31 b5 4d be ed 7f 38 bc 4f f1 3f 3c
       -0.079746485 -0.2008865 -0.011260969 0.011715247
000100 1e d7 8d 3c ac 30 43 3e c5 bf 29 be 77 e1 51 be
       0.01731449 0.19061536 -0.1657706 -0.20496164
000110 36 b2 14 3c d4 d8 f1 bb 47 e6 40 be 81 74 0a 3e
       0.009075692 -0.0073805843 -0.18837844 0.13521005
000120 45 f7 52 bd 1e 37 93 bd 79 ca bb bd c0 9b d6 3d
       -0.051505346 -0.07188247 -0.09169478 0.10478926
000130 72 90 20 be 97 27 5c be 99 5f 17 be b3 a7 81 3c
       -0.15680102 -0.21499477 -0.14782561 0.015827036
000140 a7 b2 73 be 4b 15 37 bd 4a 5f 08 3e db 3a 3d 3d
       -0.23798619 -0.04469804 0.133176 0.046198707
000150 48 0e ad 3d 72 c4 5c 3d 6b 3e 79 be 18 cd 8d be
       0.084499896 0.053898282 -0.24340217 -0.27695537
000160 2f ed 45 3d 46 db c8 3c ee f7 ce 3d 62 5a c4 3d
       0.0483219 0.02451862 0.101058826 0.09587552
000170 bb c9 7a bd 53 7d 5b bd b1 9e a0 3d 84 f4 53 bd
       -0.06122754 -0.053586315 0.07842768 -0.05174686
000180 68 f4 55 3c 48 4f 1e 3b 2d 6f 80 3d 49 28 3d be
       0.013058759 0.0024156142 0.06271205 -0.18472399
000190 0e 3f 0a 3e 9c 33 bf bb 2b f6 08 bd 2d d2 5a bd
       0.13500616 -0.0058350097 -0.03343789 -0.053423095
0001a0 4a b4 9f bd c3 1e b6 bc 02 f0 8b bc 0d 9e cf 3d
       -0.07798059 -0.022231465 -0.017082218 0.10137568
0001b0 95 50 e6 bd 10 2b 9d 3d a5 70 e9 bd 10 88 8d be
       -0.112458386 0.07674229 -0.11398438 -0.2764287
0001c0 ca f8 08 bc 14 d0 99 3d ba 42 d8 bd 04 54 ba bd
       -0.008360097 0.07510391 -0.10559602 -0.09098056
0001d0 ca dc 27 be 13 30 83 bc c8 41 df 3d 9a 12 01 3c
       -0.16392818 -0.016014135 0.10901219 0.00787797
0001e0 5f 31 f5 3b f4 36 3b 3d a0 d7 5f 3c c3 ff 72 be
       0.007482692 0.045706704 0.013662249 -0.23730378
0001f0 21 ca 50 3d 11 0b 1c be c5 11 55 be 80 36 6e 3d
       0.050974015 -0.15238596 -0.2080756 0.058157444

a2c_network.actor_mlp.4.weight f4 [64, 128]
000000 41 d9 e0 bc 26 55 e4 3d dc f2 89 3c 0f 7a fc bd
       -0.027447345 0.11149053 0.016839437 -0.12327968
000010 41 33 0c 3d 28 ec 04 3e eb 14 fb bc a1 b3 90 bd
       0.034228567 0.12980711 -0.030649623 -0.070655115
000020 2d 56 35 3e 22 88 94 3d 6c ac 4e be 41 3b 52 3c
       0.17708655 0.07252528 -0.20182961 0.01283151
000030 cb 6b f7 3d 01 96 3b bb 27 65 1f bd 3a 8e 0a 3c
       0.12081107 -0.0028623345 -0.038914826 0.008456761
000040 cf 9e 9d 3d 40 7e 72 bd 5d b7 f7 bc a6 0f 3d 3d
       0.07696306 -0.059202433 -0.030238802 0.0461575
000050 3a 22 de 3b 01 b9 43 3e 8f 35 1b 3c 5a 0d bc 3c
       0.0067789825 0.19113542 0.009473219 0.022955585
000060 b5 f2 be bd 4c c6 4d be 0c ef ab 3d 90 70 93 bd
       -0.093236364 -0.20095176 0.08395204 -0.07199204
000070 57 64 d4 bd 0a 78 9b bd 6b 32 ef bd 29 10 4c 3d
       -0.10370701 -0.07591255 -0.11679538 0.0498201
000080 74 0f 8f bc 43 f2 d6 bd 84 ec 13 3d 1d d1 79 3d
       -0.017463423 -0.104954265 0.03611423 0.06099044
000090 f5 c2 94 3d 26 fa 6b bd bb b9 63 3d b3 90 a5 bd
       0.072637476 -0.057611607 0.05559705 -0.0808424
0000a0 62 3a e4 bc 72 fc eb 3c 5c c7 80 bb ab d3 a4 bd
       -0.02785987 0.028806899 -0.0039300155 -0.08048185
0000b0 5d ab 2b be a7 1f 4b bd 50 ab f5 3d 12 72 a8 bd
       -0.16764589 -0.049590733 0.11995566 -0.08224882
0000c0 bc 95 ea bd e9 be a8 bb b1 01 c6 3c e3 72 81 3d
       -0.11454341 -0.0051497114 0.024170728 0.06320741
0000d0 44 e5 3c bd c2 d2 66 3d 6f ed e0 bd 64 30 f7 bd
       -0.046117082 0.056353338 -0.10982787 -0.12069777
0000e0 63 f6 b5 bd 2c a9 6e bd 05 be 91 bd 78 e0 1c bd
       -0.08884885 -0.058266804 -0.071163215 -0.038300008
0000f0 99 3d 4e bb eb fc bc 3c 4d 9b 93 3d 99 a7 84 3d
       -0.003146982 0.02306982 0.07207356 0.06477279
000100 cc 1f fd bd 6f 78 85 be a7 7d 28 bd 84 4b cf 3d
       -0.123595804 -0.26068446 -0.041135456 0.10121825
000110 79 2a 22 be da 46 72 be 79 49 a6 3d bb e3 65 bd
       -0.15836515 -0.2365984 0.081194825 -0.056125384
000120 a2 3c e9 bc 4e d4 e5 3d bb 1b 49 3c 2b 89 b9 bd
       -0.028471295 0.112221345 0.012274678 -0.09059366
000130 34 7e d6 3c 37 71 a2 3c 2b aa 32 3e 77 d8 0e 3d
       0.026183225 0.019829376 0.17447726 0.034874406
000140 53 ad 1c 3d 13 dc 2d be 87 a8 32 be 62 4b 13 be
       0.038251232 -0.16978483 -0.174471 -0.14384225
000150 4a fa 37 be 54 ba e2 3c cd b9 ae bb 4b b1 a0 3d
       -0.17966571 0.027676739 -0.005332208 0.07846316
000160 47 2c f5 3c 96 95 d0 bd 66 ab 86 bc 31 95 a5 bd
       0.02992834 -0.10184781 -0.016439151 -0.08085097
000170 e9 3f 25 3e 33 90 9c 3d 2b 76 f6 3d 4d 21 99 3d
       0.16137661 0.07644691 0.120342575 0.07477055
000180 81 2d 66 3d e0 ef 3e bd fe 62 a5 bd 8c d9 0c be
       0.05619574 -0.04661548 -0.08075522 -0.13754863
000190 30 c2 90 bc b2 6e ab bd 9d bb 84 bd 56 56 0d 3d
       -0.01767072 -0.08370723 -0.06481097 0.034506164
0001a0 cb db 16 bd f6 d7 15 be 33 eb 3a 3c 62 52 a4 bd
       -0.036830705 -0.14633164 0.011408615 -0.08023526
0001b0 88 ea ef 3c 29 e2 23 be 63 16 3b bc 85 d7 e2 bc
       0.029286638 -0.16004242 -0.011418912 -0.027690658
0001c0 9c 66 0d 3c 61 df 02 3c 3a 61 2a be 15 56 ba bd
       0.008630421 0.007987828 -0.16638651 -0.0909845
0001d0 24 35 3c 3c 18 bd 2a 3d 1c 59 b4 bc c9 49 9d bd
       0.011487279 0.04168424 -0.022015147 -0.07680089
0001e0 94 7f 4d bd ab 41 9d bd 1b 6e 7c bd 43 20 33 3d
       -0.050170496 -0.07678541 -0.061628442 0.04373194
0001f0 c6 41 f7 bd 4e b4 e4 bb 4c 04 8f 3d c7 d4 4f be
       -0.12073092 -0.006979502 0.069832414 -0.20296012
000200 1b 64 70 bc 89 05 c9 b9 a7 f1 44 bc ca 4e 8c 3d
       -0.0146723045 -0.00038341832 -0.012020505 0.06850965
000210 cf 61 ea 3c d8 c6 e7 bd ab 53 aa bc e5 64 a5 bc
       0.028611092 -0.11317223 -0.02079185 -0.020189712
000220 2c e6 ac bc a9 8d c7 bd a4 a8 84 3d 62 52 b0 bd
       -0.021105848 -0.097438164 0.06477478 -0.08609463
000230 09 66 3b 3c 9d 7c 16 3d 4e f8 83 bd 10 e8 cc bd
       0.011437901 0.036739934 -0.06443845 -0.100052
000240 e1 fd 3b bc a0 1b c9 bc af fe a9 bb f0 93 f1 3c
       -0.011474104 -0.024549305 -0.0051878314 0.029489487
000250 08 2f aa 3d 52 5d a2 bd 2e f5 0c be 2f 8e 85 bd
       0.08309752 -0.07927956 -0.13765404 -0.0652126
000260 f1 14 e6 3d 89 1e f7 bc 1d 0c b0 3d 71 cb b4 bd
       0.11234463 -0.030165927 0.085960604 -0.08827866
000270 53 ea 02 3c 3a a4 f2 3d c2 f3 63 3d e5 8b cc 3d
       0.007990438 0.1184773 0.055652387 0.0998762
000280 f3 d0 65 3d 24 46 cd 3c 10 eb 66 3c 78 2b 84 bc
       0.056107473 0.02505786 0.014094129 -0.016134009
000290 ee 83 d0 bd 7b 65 c9 bd 58 48 92 bd ba b9 51 bd
       -0.101814136 -0.09833809 -0.07142705 -0.051202513
0002a0 2a f1 1b be f9 e4 a0 bd 22 80 a9 3d b5 ba a6 bd
       -0.15228716 -0.07856173 0.082763925 -0.0814108
0002b0 b5 d5 d4 3b 0e 3f 81 bc 3f 49 9d 3d 3f 62 51 3d
       0.0064952024 -0.015777137 0.07679986 0.051119085
0002c0 a3 8b 47 3d f8 82 7d bc c6 5d 03 3d 22 ff 9f bd
       0.048717152 -0.01547312 0.03207185 -0.078123346
0002d0 22 b0 08 3e 23 27 eb 3d e1 78 cf bd 43 72 54 bd
       0.1334844 0.11482074 -0.10130478 -0.05186678
0002e0 fe 89 88 3c 8f 34 cd 3d b2 ce 5c bd 1c cc fe 3c
       0.016667362 0.100197904 -0.053908058 0.031103186
0002f0 4c 17 c1 3d 0b b1 3c 3d 10 d1 3d 3d 43 06 5a 3d
       0.09428272 0.04606728 0.046341956 0.053228628
000300 52 04 c4 3d b9 80 c2 3d cf 12 54 bd 58 53 b2 bc
       0.095711365 0.09497208 -0.05177575 -0.021768257
000310 d1 4f ab 3d 5b 9b fa 3c 6f 87 29 bd de 77 a9 bc
       0.08364833 0.030591657 -0.041388925 -0.02068704
000320 c3 0c ed 3d 09 56 0e bb 0e 2a 25 bd ec a2 ce 3c
       0.115747 -0.0021718761 -0.04032331 0.025224172
000330 79 a0 bb bd 63 9b 8f bc 71 a9 0d 3e 73 c5 8f bd
       -0.09161467 -0.017530149 0.13834168 -0.07020082
000340 52 2f c3 3c 19 b5 2e 3d db eb 25 3d 2d 06 96 bd
       0.023826275 0.042653177 0.040508132 -0.07325397
000350 f3 2b 0e bd 1b 92 c4 bc d8 f7 48 3d 16 4b c4 bd
       -0.034709882 -0.02399545 0.049064487 -0.09584634
000360 65 a6 79 3d a5 5a 45 bd cb 86 90 bd 28 3e 23 3c
       0.0609497 -0.04818215 -0.0705696 0.00996355
000370 ac fd b8 36 4a c8 85 bd e0 b2 26 3d 94 ae 9c bc
       5.5131586e-06 -0.06532343 0.040697932 -0.019126214
000380 4d 6e d0 bc 89 ff 9c 3d de 3b d2 3c 4e 1c f7 3d
       -0.02544322 0.07665927 0.025663313 0.120659456
000390 d2 8b 30 bc b4 42 d2 bd 65 2f 75 bd e1 0f ac bd
       -0.010775523 -0.10266629 -0.059859652 -0.08401466
0003a0 33 1d 4e 3d 43 9e d0 3c d6 b5 de bd 63 4c 49 bd
       0.050320815 0.02546609 -0.10874526 -0.049145114
0003b0 45 ad 9b 3b c1 37 e0 3d c0 cc eb bc 8c cc f5 3c
       0.00475088 0.10948134 -0.028784156 0.030004762
0003c0 c9 59 dd bd fc 3b 43 bd 1a fe 01 3d 54 01 a8 bd
       -0.10808141 -0.047664627 0.03173647 -0.08203378
0003d0 b6 1d b3 3c 23 cf 53 bc db 48 4d bd 5e 20 c9 3c
       0.021864753 -0.012927803 -0.05011831 0.024551567
0003e0 5f b2 fa bd c7 77 70 bd f5 37 29 bc 17 7e 9d bd
       -0.12241053 -0.05870798 -0.010328283 -0.07690065
0003f0 5c e7 e3 3d cd 2b c4 bc 8f 41 a3 3c d5 54 b1 bd
       0.11128113 -0.023946667 0.019928722 -0.086587586

a2c_network.actor_mlp.4.bias f4 [64]
000000 a2 f2 0c be 1b 9d ae 3c 3c 61 77 3d 54 5a 8a 3d
       -0.13764432 0.021315148 0.060395464 0.0675551
000010 57 c0 18 bd a3 41 a7 bd 2d 9a 68 3c 81 20 4e 3d
       -0.037292805 -0.08166816 0.014196915 0.050323967
000020 6a 41 d3 bd 24 fb c9 3b 9b 45 12 3e 48 53 52 be
       -0.10315211 0.0061639715 0.14284365 -0.20539582
000030 44 6a 45 3d e1 4d 7d bd a5 e1 b3 3c 7e f5 c1 3d
       0.048197046 -0.06184185 0.021958182 0.09470652
000040 f0 ca 11 3d e9 dc 0f bd 29 f4 f6 bd 17 3d a6 bc
       0.035593927 -0.035122786 -0.120582886 -0.020292802
000050 25 39 94 3d ad ce 5b bd 88 07 4f 3e 0b 19 0b 3b
       0.07237462 -0.0536639 0.20217717 0.0021224644
000060 08 f0 da 3d 64 68 0b 3e 74 cb 7b 3c e2 74 33 be
       0.106903136 0.1361404 0.015368331 -0.17525056
000070 f0 21 0e be b5 1f 17 bd 05 ec 5e bd a5 a6 09 be
       -0.13880134 -0.036895473 -0.054424305 -0.13442476
000080 a2 1b 40 3d 4e 07 14 3d d2 cc 66 bd 5f 09 49 bd
       0.046901353 0.03613978 -0.056347676 -0.049081203
000090 01 2a c4 bc 3c f0 a0 3d 92 e8 43 3d 46 0c ba bd
       -0.02394581 0.07858321 0.04782922 -0.09084372
0000a0 d7 a8 90 3d 0b 3c b1 3d e0 8e 03 bd 00 cf 95 3b
       0.07063454 0.086540304 -0.032118678 0.0045717955
0000b0 f0 e8 d3 bd cc 31 ab bd a3 09 3b bd 4e 4a 92 ba
       -0.10347164 -0.083591074 -0.045663487 -0.001116106
0000c0 64 37 ee bc 8e 27 ff 3c a7 99 21 be c1 05 d4 3c
       -0.029079147 0.03114679 -0.1578127 0.02588165
0000d0 4f f8 ac 3d 06 16 6e 3d 2d 1b 06 3e 08 5e b0 3d
       0.084457986 0.058126472 0.13096304 0.08611685
0000e0 60 e5 b7 bd a4 c7 39 3c 18 97 a9 3d 01 56 ac bd
       -0.08979297 0.011339102 0.08280772 -0.084148414
0000f0 3b 78 09 be 32 da d6 bd ec 48 e7 bb 8f 3d a8 bc
       -0.1342477 -0.10490836 -0.0070582535 -0.020537166

a2c_network.value.weight f4 [1, 64]
000000 33 53 c1 bc e2 6a a0 bc da 98 2e 3c c2 cb e0 3d
       -0.023599243 -0.019582216 0.01065656 0.10976364
000010 88 d7 8a ba 6d 93 ce bc fe a7 c1 3a 25 fb c9 3c
       -0.0010592798 -0.025216782 0.0014774797 0.024655888
000020 26 5f a6 bd 65 4b 11 bd 1c 55 8a 3d b7 fa 05 be
       -0.08123617 -0.035472292 0.067545146 -0.13083921
000030 59 ac 8c bc 6e 5e eb bc b5 3e 45 3c c5 8e ee bc
       -0.017172026 -0.028731551 0.012038876 -0.029120812
000040 46 6a b8 3c 4d b9 7d 3c 5e 85 d3 ba a2 bb 45 bb
       0.022511613 0.015486074 -0.0016137769 -0.0030171652
000050 f5 f5 8c 3d 78 11 5a bd dc 9e 79 3d 95 9c 93 3c
       0.0688285 -0.053239316 0.060942516 0.018019
000060 3e 1c a7 b9 c0 4b 2e 3e 65 99 52 bd ce 0d 29 3c
       -0.00031873764 0.17021084 -0.05141582 0.010318233
000070 d5 ee 22 bd 80 1f 0c bc 69 3d ee 3c d7 d8 66 3b
       -0.03977855 -0.008552432 0.029082017 0.0035224461
000080 a0 90 26 3e 0a cd 6d 3e f8 6b b3 bb 81 9a 8a bc
       0.16266108 0.23222747 -0.0054755174 -0.016919376
000090 54 e3 f1 bc 3f 9a 7d 3d f0 09 25 3d 2c 1e ad bc
       -0.029527344 0.06191468 0.04029268 -0.021132551
0000a0 8c 34 d0 3c 3f 28 d0 3c 69 b4 2b 3c 54 04 05 3f
       0.025415681 0.025409816 0.010480025 0.5195973
0000b0 76 9c b5 bb 9c 06 ff bb c8 43 55 bc d7 1f 9a bd
       -0.0055423332 -0.0077827703 -0.013016649 -0.07525604
0000c0 9b cf 07 bd 9f 2f 42 3d b8 54 aa bd ab d9 a3 bc
       -0.033156972 0.047408696 -0.0831694 -0.020001253
0000d0 39 cc ad 3b e0 73 3c 3d e7 b6 a7 3d 4e 34 70 3d
       0.0053038863 0.046008945 0.08189183 0.05864363
0000e0 ad 2a 02 bb d3 e4 e8 3b d2 24 b3 3c b3 10 35 3c
       -0.0019861863 0.007107356 0.021868143 0.011051345
0000f0 cc e7 15 3b c4 70 b9 3b 93 64 21 3e 46 ec e8 bb
       0.0022873757 0.0056591947 0.15761022 -0.007108244

a2c_network.mu.weight f4 [12, 64]
000000 9f 3f 13 3d 95 80 59 bd c1 7d df 3c aa 86 3c 3d
       0.035949346 -0.05310114 0.027281644 0.046026863
000010 47 6d f8 3c 77 98 2c 3c 86 35 82 b9 0d 84 63 bd
       0.030325545 0.010534397 -0.0002483541 -0.055545855
000020 95 1c 07 bd 8e 4b 81 3d 52 53 5a 3d b3 09 15 be
       -0.032986242 0.06313239 0.053302117 -0.14554481
000030 3d 7f 85 3d a1 8a f3 bd fa e0 35 3d 3b 88 f8 ba
       0.065184094 -0.11891676 0.044404007 -0.0018961498
000040 0f 3f 82 3d 7b d2 05 be f9 a6 0c 3d 69 a3 85 3b
       0.06359684 -0.13068573 0.034338925 0.004078318
000050 c0 cf 8d 3d 4c 37 46 bb 68 67 8b 3c b4 b6 3c bc
       0.06924391 -0.0030245362 0.017017081 -0.011518169
000060 c9 af 9d 3d ff 38 1c 3d ec 87 dc 3d 87 56 e9 bc
       0.07699544 0.038140293 0.107681125 -0.028483642
000070 3d 8a a7 bc 09 c2 51 bd 14 4b 11 bb 2c 9f 1b bd
       -0.02045166 -0.051210437 -0.0022169994 -0.037993595
000080 13 39 80 3d 9d 1b fc bd cc 29 70 bd 58 89 d3 3d
       0.06260886 -0.12309954 -0.05863361 0.103289306
000090 40 ad 1a 3d 81 63 83 bd b0 92 f3 3b 04 81 c8 bc
       0.03776288 -0.06415463 0.007433258 -0.024475582
0000a0 b4 af 96 3d 9d 5b 85 3d 9d bc d6 3c ff b8 4f 3c
       0.073577315 0.065116145 0.026212985 0.012678384
0000b0 19 b1 2c bd 03 5d 0b bd a1 27 28 3d 4f cf 90 3a
       -0.04216108 -0.03402425 0.041053418 0.0011048111
0000c0 fc 06 54 3c 8f d8 87 3c 3e 6d 44 bd 54 80 b9 3b
       0.012941118 0.016582755 -0.047955744 0.00566105
0000d0 52 74 9b 3d 3c 17 60 3d 6a c0 ce ba 23 1c 9b 3c
       0.07590546 0.054709658 -0.0015773897 0.018934315
0000e0 16 19 12 3d 94 36 89 bd 61 8c ba bc 33 7c cc bd
       0.035668455 -0.06699863 -0.022772016 -0.099846266
0000f0 dd eb 2c be 07 3c 00 3c 62 04 0a be 73 e9 4a bd
       -0.1688685 0.007826812 -0.13478234 -0.04953904
000100 76 c6 b1 bc b0 66 d4 bd c5 c9 38 bc 39 15 7b 3e
       -0.021701079 -0.103711486 -0.011278574 0.24519815
000110 ec 36 ac bc e6 a1 e9 bd a2 79 fe 3d be e6 f3 bc
       -0.021022283 -0.11407833 0.12425543 -0.029773112
000120 62 ff 19 3d 1e 19 08 bd de 97 8c bc bc 72 b2 bd
       0.037597068 -0.03322708 -0.01716226 -0.0871329
000130 7d 6a 3e bd 09 a1 80 3d d4 91 54 3d 63 1c ce 3a
       -0.046488274 0.06280715 0.051896885 0.0015725013
000140 4f c6 9a bd 22 55 1c 3e ea 68 12 3c ed 7a 0c bd
       -0.075573556 0.1526685 0.008936146 -0.03429692
000150 9a d7 66 3d 1d fe aa bb 84 6c 87 3c 6d 32 9e 3d
       0.056357957 -0.005218281 0.016531236 0.07724462
000160 15 17 91 3b 3d e6 a9 3c ab ec 51 3d 1a 85 b1 3c
       0.0044278004 0.020739669 0.051251095 0.021669913
000170 3e 3f a3 3d 07 68 0e be 99 40 7f 3d d9 78 91 3d
       0.07971047 -0.13906871 0.062317465 0.07103128
000180 51 26 12 be 04 49 63 bd 77 32 50 be b8 8b 00 3d
       -0.14272429 -0.055489555 -0.20331751 0.031383246
000190 11 9d a3 3d 45 00 f1 bd 00 9f 34 3e 8b 68 76 3d
       0.079889424 -0.117676295 0.17638779 0.060158294
0001a0 ec 61 ab 3c 56 d1 97 bd f1 e3 84 3d d6 33 df bd
       0.020920716 -0.074129745 0.06488789 -0.10898559
0001b0 f7 7c ca bd 43 9a 4d 3d d2 72 23 be bf 3a 25 3e
       -0.098871164 0.050195944 -0.15961769 0.16135691
0001c0 f5 51 03 3e 9b b9 d5 bc 52 78 03 be 77 26 11 3e
       0.12824233 -0.02608948 -0.12838867 0.1417483
0001d0 3a 6a 39 bd 4d 5d 0d be b2 75 55 3c 63 c4 2b 3e
       -0.04526732 -0.13805123 0.013028549 0.16774134
0001e0 f6 ec 63 be 24 08 b9 3d 3f 73 f0 bd 61 ec 24 bd
       -0.22258362 0.09034756 -0.117407314 -0.04026449
0001f0 87 e6 39 bc 4c 17 0e 3e 90 56 0f bd 9b 50 d3 3c
       -0.011346466 0.13876075 -0.03499466 0.025795272
000200 b6 61 b4 3b 8e 8d 8e bb 77 4d 80 be 86 29 5a bd
       0.005504812 -0.0043503707 -0.250591 -0.053262256
000210 84 bc 01 3e e6 28 bb bd e5 b2 3a 3d 35 af cf 3d
       0.12669569 -0.0913866 0.045580763 0.1014084
000220 ad 0c 80 bd 49 ec 84 3d 9c 3e d0 bd ab 8d a8 3d
       -0.06252418 0.0649038 -0.10168192 0.08230146
000230 87 c2 a0 3d 78 4f d4 3d ac 6a ee 3d 12 b0 f1 bc
       0.07849603 0.1036672 0.1164144 -0.029502902
000240 57 f0 f2 bd c7 08 3f bd 03 bd ce 3d 1d b0 46 3d
       -0.118622474 -0.04663923 0.10094645 0.0485078
000250 e2 12 5a be b9 45 a3 bc 75 82 19 bd 9f 21 8e 3d
       -0.21296266 -0.019930707 -0.03747793 0.069400065
000260 40 f1 58 3c d1 49 cd 3c da 05 ff bc 17 e4 91 3c
       0.013241112 0.025059612 -0.03113072 0.017808957
000270 99 bb 89 bd da e3 9c 3c 1e 68 b7 3c 99 1a d7 3c
       -0.067252345 0.019151617 0.022388514 0.0262578
000280 cb 0e 8b 3d 42 87 f9 3c f9 a0 ce 3d 2a 56 1f 3d
       0.06789931 0.030460004 0.10089297 0.03890053
000290 f9 ac 3b bc a3 9f 13 be 6e 82 d4 bd 88 72 1f 3b
       -0.011454814 -0.14416365 -0.1037644 0.002432974
0002a0 8b 1f a0 bc 82 ff b2 bd a5 b2 0d 3c e6 95 ce 3c
       -0.01954629 -0.087401405 0.008648549 0.025217962
0002b0 d6 3e c5 bc ef d0 0b be 97 13 45 be b5 62 58 bd
       -0.024077814 -0.1365392 -0.19245754 -0.05282851
0002c0 a3 72 a5 bd d1 58 82 3e 06 64 b3 3d e3 a2 79 3d
       -0.08078506 0.25458387 0.08759312 0.060946357
0002d0 76 fe 44 bd 83 c5 b5 3d be 17 87 3c 84 a9 e6 3c
       -0.048094235 0.08875563 0.016490813 0.028157003
0002e0 9d 70 12 3e 66 f9 9d bd 30 06 91 bd b9 aa 95 bd
       0.14300771 -0.077135846 -0.07081258 -0.073079534
0002f0 16 f8 3c bc ba e8 86 bd 54 9c 92 3d d1 76 d6 bd
       -0.011533758 -0.06587358 0.071587235 -0.10471881
000300 6f 22 0a 3e d8 28 85 bd d3 6a d4 3c 7c 98 80 3e
       0.13489698 -0.06501931 0.025929844 0.25116336
000310 9b c2 33 3d ed 71 10 bc ee 90 47 bd 40 9a 22 3c
       0.043886762 -0.0088162245 -0.0487222 0.009924471
000320 1d 8a 28 ba b9 7e e9 bd 71 a1 09 bd bb c8 01 3e
       -0.0006429272 -0.114011236 -0.03360123 0.12674229
000330 38 4d d2 bd 76 13 ef bd 25 07 87 bd 4b 5e 80 3c
       -0.102686346 -0.11673634 -0.065931596 0.015669962
000340 9a 24 9e 3d d9 e7 53 3e ee 9c 33 3d b7 3f cc 3b
       0.07721825 0.20693912 0.04385083 0.0062331813
000350 ab d4 81 3d 90 ec 9c bd 50 19 b7 bc 3e 23 fe 3b
       0.06339391 -0.07662308 -0.022350937 0.007755666
000360 af 82 e4 bd 4a b0 65 bd d3 dc 31 3d 4c 99 14 3e
       -0.111577384 -0.056076325 0.043423485 0.14511603
000370 8c 4c 8c 3d c7 04 b4 bc 5a 55 fd b9 b5 0a 0f 3d
       0.06850538 -0.021974934 -0.00048319512 0.03492232
000380 09 a9 13 3e e4 36 e5 bd 60 e7 95 3d 7c 81 9c bc
       0.1441995 -0.1119211 0.07319522 -0.019104712
000390 b1 7b 46 bd cf a0 32 bd 1e f5 f1 bd 26 8f 09 3e
       -0.048457805 -0.04361039 -0.118143305 0.13433513
0003a0 e3 55 cf 3c a9 66 44 bd 0f 8a dd bc f8 a2 36 be
       0.025309509 -0.047949467 -0.02704337 -0.17835605
0003b0 64 8d c8 3c 32 56 61 be 4e a0 33 bb 8d a6 19 be
       0.024481483 -0.22005537 -0.0027408781 -0.1500494
0003c0 f6 e7 7d bc 21 dc a7 3c bd 4f 11 3d bb cf 9f bc
       -0.015497198 0.020490708 0.035476435 -0.019508233
0003d0 d5 3f ea bd a8 ed c0 3b 51 c1 d1 bd de 97 bc bd
       -0.11437956 0.005887706 -0.1024195 -0.09208654
0003e0 87 c7 a1 bc 6c 50 9d bd b4 2e d1 bc 8e d0 09 bd
       -0.019748462 -0.07681355 -0.025534965 -0.03364616
0003f0 38 2d b2 3b 83 45 0c 3d fa 6f ed bb 22 f4 25 be
       0.0054375194 0.03424598 -0.0072460147 -0.1620641

a2c_network.mu.bias f4 [12]
000000 e5 f8 db 3d 9e 98 ec 3c 04 0f f5 3c 46 7e 09 be
       0.10740832 0.028881367 0.029914387 -0.13427076
000010 33 bf a4 bd ed 58 67 3d 45 50 d9 3b cc 54 44 bc
       -0.08044281 0.05648129 0.0066318833 -0.011983108
000020 19 32 f4 bc 83 8a 96 3d f4 43 9b 3c 73 4b 4b 3d
       -0.029809045 0.07350638 0.018953301 0.0496325

exp_avg f4 [12]
000000 4e 40 5b bb b8 ff 88 3b 60 6a a6 bb a3 d1 52 ba
       -0.0033455077 0.0041808747 -0.005078599 -0.00080421026
000010 13 91 59 3b 99 ff d7 3a 8f a4 67 b9 ac 26 07 3b
       0.0033198043 0.0016479372 -0.0002209118 0.0020622415
000020 24 e7 03 3b 02 e3 45 3b 8b 5e 1e bb 66 12 bb 3a
       0.0020126784 0.0030195122 -0.0024165239 0.0014272451

exp_avg_sq f4 [12]
000000 9e 8f f4 37 41 9a fb 37 aa aa 01 38 89 b1 e1 37
       2.9153944e-05 2.9993362e-05 3.091494e-05 2.6904761e-05
000010 04 6f f6 37 47 85 01 38 6b 56 f6 37 72 aa ea 37
       2.937718e-05 3.088012e-05 2.9365727e-05 2.7974344e-05
000020 83 9b f3 37 d1 2d f2 37 2b 25 f3 37 31 56 f4 37
       2.9040273e-05 2.8869983e-05 2.8985165e-05 2.9127203e-05
