OmniIsaacGymEnvs/omniisaacgymenvs/runs/Naranjelio/nn/last_Naranjelio_ep_5250_rew_-0.97424436.pth (torch, 672911 bytes, 36 tensors)

value_mean_std.running_mean f8 [1]
000000 9e 85 9e aa ef c6 eb bf
       -0.8680342037588848

value_mean_std.running_var f8 [1]
000000 ca f4 71 a6 1b c8 7b 3f
       0.006782634743214897

value_mean_std.count f8 []
000000 00 00 80 00 00 c3 ce 41
       1032192001.0

running_mean_std.running_mean f8 [48]
000000 65 da 51 da 0c 8c a0 bf e6 7b af 07 cf e4 c4 bf
       -0.03231849827800629 -0.16323268771426952
000010 5b 30 e7 c2 3c c2 e0 bf be c4 a0 c4 77 66 c0 3f
       -0.5237106138897717 0.1281270704362551
000020 b9 a1 35 49 33 fb ab bf 7e e5 7e 10 b4 e5 81 bf
       -0.0546508814684929 -0.008738905671509253
000030 2a 29 ac 45 89 ad af 3f 6b 7b 32 5b 86 dc 95 3f
       0.06187085128302024 0.02134904796241292
000040 cc b9 52 be 3a e5 ef bf 76 07 14 c4 d4 4b 16 3f
       -0.9967321126221633 8.505331154043207e-05
000050 75 60 50 9b 77 86 39 bf e3 0b f2 c4 39 1e fc be
       -0.00038948459706623163 -2.6815480222552076e-05
000060 34 9c 65 eb 49 d1 8e bf 77 7f 28 9f b7 f1 a6 bf
       -0.015047624107593284 -0.044812906435480686
000070 e1 66 93 a0 ac 99 23 3f 4c ff ac c2 ed 43 a7 bf
       0.00014953834787583608 -0.04544013024724211
000080 d7 eb 3f fe 28 1b a7 bf 0d e2 32 69 c0 27 aa bf
       -0.04512909034379902 -0.051084530679364894
000090 08 0d 2d 20 26 b6 a9 bf 63 0b f0 77 ce 14 a0 bf
       -0.05021781103871531 -0.031408741131619754
0000a0 e3 24 d5 78 55 22 97 3f cb 8a de 4e 39 98 66 3f
       0.02259191083911539 0.0027581328676701037
0000b0 af 1c 0a 26 ec 56 ac 3f 3e f9 76 0a 2c 6e 61 bf
       0.05535066570615165 -0.002127729432429919
0000c0 32 58 93 a9 6e 5a 46 bf 2f 62 01 71 6f 08 44 bf
       -0.0006821670860073291 -0.0006113571307749306
0000d0 26 7c 09 ee 39 8e 08 bf bb a3 ab 1d 52 bd 4f bf
       -4.683603561227876e-05 -0.0009686137157959221
0000e0 4d f6 33 9a 8f ea 4e bf 3f f3 e9 04 45 97 3f bf
       -0.000943489187562549 -0.0004820388320821329
0000f0 56 a1 3d 77 23 bb 42 bf 8b 5a 57 e4 d9 fc 96 bf
       -0.0005716250584386999 -0.02244892555412518
000100 24 bb d6 f9 7c 2d 54 3f 3e 04 9d 93 e3 a8 44 3f
       0.001231548353967057 0.0006304846967638623
000110 fe b5 be 09 66 3a 51 3f 2c 31 4f 6d ea b4 db 3e
       0.0010515209641924757 6.6057925395930404e-06
000120 58 9c 2e 7e cd 96 c1 3f a8 90 95 67 00 38 ea bf
       0.1374146333812145 -0.8193361304406794
000130 d5 6f d3 b0 fa b6 de 3f cc b0 fd 5c fb eb ec bf
       0.4799181677642513 -0.9038063827734049
000140 72 50 5d 8b 78 6a eb bf 97 8a ab 7d 91 c3 e3 bf
       -0.8567469331706106 -0.6176230864042108
000150 c0 97 11 f2 28 36 d4 3f e6 f9 c1 78 16 f0 bf 3f
       0.31580566062472926 0.12475719879328259
000160 82 0f 01 e3 ac 29 e4 3f 37 b0 b6 d8 a3 0c d2 bf
       0.6300873216318765 -0.282021485933686
000170 b5 44 99 e1 32 19 e1 bf c6 a5 95 79 20 2c c5 3f
       -0.534326019880743 0.1654091447519887

running_mean_std.running_var f8 [48]
000000 6b c5 07 ba b6 d8 83 3f 22 a7 44 7c 47 b9 af 3f
       0.009690692474552084 0.06196044341989039
000010 a3 a0 73 68 47 be d8 3f 56 d5 67 fd c2 75 9f 3f
       0.3866137046848143 0.03072266265549691
000020 31 4d 55 41 3b fd 73 3f 9c 07 70 98 64 8c 31 3f
       0.004880172219901711 0.0002677674860366243
000030 6a 12 c6 71 23 42 5b 3f 6b 20 77 2b 92 90 42 3f
       0.0016637178551671913 0.0005665506095562494
000040 fe 7e b5 bb 30 8f e6 3e fb e4 21 a1 69 54 15 40
       1.0757130317784032e-05 5.33243419427276
000050 55 0d 1b 4e 4c 55 f5 3f 1a 03 ee 61 7a 57 95 3f
       1.3333247233393497 0.020841514804035823
000060 ad fb bc c1 12 44 33 3f 0a 07 52 30 4b d0 47 3f
       0.00029397447518769265 0.0007267348415924424
000070 2c 4a fc 76 f0 9a 74 3e 21 bc 11 fe 26 e3 48 3f
       7.676046975502321e-08 0.0007595005410062674
000080 b8 14 e9 04 14 e9 47 3f 2e 08 cd ad 7e 48 4a 3f
       0.0007296893834981754 0.0008020990895618635
000090 76 4b 56 8e 3b 62 49 3f 77 80 7b c7 ee 51 51 3f
       0.0007746496964265842 0.001057131941642834
0000a0 4c 1b 76 51 db 43 42 3f a9 e8 53 4d 59 69 c5 3e
       0.0005574055566491625 2.552451955237479e-06
0000b0 38 e7 9b 58 a5 f8 4e 3f 61 39 5c 03 80 7e b6 3e
       0.0009451682428498259 1.3407552734188163e-06
0000c0 f4 1f 17 bb ae 1b e0 3e da 95 3b be bb 7c ec 3e
       7.680957284331138e-06 1.3583774439006086e-05
0000d0 cf 4f 70 60 f7 02 a0 3e 2a cd 6d b5 c7 e5 e2 3e
       4.771824827520237e-07 9.011067658915175e-06
0000e0 51 7a 45 05 e7 31 e6 3e 5b 30 2a 08 0b 1c d1 3e
       1.0583367988812076e-05 4.079233010611465e-06
0000f0 0f 74 18 e4 50 aa c5 3e 8c 9c 6f 9b 8a d9 52 3f
       2.58270463927716e-06 0.001150498732153146
000100 4c 59 fd 90 84 77 f6 3e df 28 37 3b e2 5e 9f 3e
       2.1426073600971666e-05 4.674589561796937e-07
000110 fc 51 5b 79 48 b3 e8 3e f8 9b dc ef 39 2d ae 3e
       1.1778032596700988e-05 8.993347077921408e-07
000120 57 da 92 a8 7f c5 e6 3f eb 5c ba a1 6c d6 b8 3f
       0.7116087238744723 0.0970218558162405
000130 bd 60 98 2b f8 b7 dd 3f 27 3b 9c b2 5b 6f b4 3f
       0.4643536020025854 0.07982419119455796
000140 32 ef 41 22 f8 f2 b5 3f e1 d8 99 6e 3b 13 d5 3f
       0.08573866688123813 0.329298837670093
000150 64 1a 81 3b 0e d8 d8 3f 42 4c a3 ed 58 26 e6 3f
       0.3881869870278136 0.6921810761799707
000160 6a 4c dc cc 9d 41 d4 3f bc da 91 cc bc d3 e0 3f
       0.3165049076644154 0.5258468623640833
000170 c4 e2 35 6b 65 e7 db 3f 48 86 6c 23 63 e2 e0 3f
       0.43599830121779015 0.5276351634858623

running_mean_std.count f8 []
000000 00 00 00 01 00 c3 be 41
       516096001.0

a2c_network.sigma f4 [12]
000000 88 5d 34 c0 a6 1b 39 c0 74 40 0d c0 72 25 26 c0
       -2.8182087 -2.8923125 -2.207059 -2.5960355
000010 09 88 2b c0 05 c5 36 c0 15 9c 39 c0 c8 a2 2a c0
       -2.680178 -2.855775 -2.9001515 -2.6661854
000020 27 67 38 c0 4d 8e 23 c0 d2 f6 2e c0 dd 3c 40 c0
       -2.881296 -2.5555604 -2.7338147 -3.0037148

a2c_network.actor_mlp.0.weight f4 [256, 48]
000000 6b 82 11 bd 19 ff 74 3d 5e 36 12 be a4 b4 e2 bd
       -0.035524767 0.059813593 -0.14278552 -0.11069611
000010 69 73 2c 3c 1f 5c 0a bc aa f4 08 be 36 a6 0a 3e
       0.010525563 -0.008444815 -0.13374582 0.13539967
000020 0a bc e2 3b 74 6a 24 bf 74 33 a2 be 0a cf b4 bd
       0.0069193887 -0.64224935 -0.3167988 -0.08828552
000030 6a 33 d8 bd b3 7f c2 3d 5b 66 9a 3d 80 cf e0 bc
       -0.105566815 0.09497013 0.07539054 -0.027442694
000040 82 8e 16 3e 75 b8 0d 3e f5 79 e3 bc 53 55 94 3d
       0.147028 0.13839896 -0.027768115 0.07242837
000050 6d e3 ab be 38 41 15 bd 35 e8 00 be 1e 2b 22 3e
       -0.3357195 -0.03643915 -0.1258858 0.1583676
000060 5e aa 8a 3c 09 c7 b7 3c 09 ac 23 bd f3 ef e9 bc
       0.01692694 0.022433775 -0.039958987 -0.0285568
000070 11 86 9b bb fe 6e 49 bd 65 77 f3 bb 0c 8e 2f be
       -0.0047462066 -0.049178116 -0.0074300044 -0.1714403
000080 6d e9 e0 bd 8b 1e 80 bd 69 4a 23 be e2 c4 81 3d
       -0.109820224 -0.062558256 -0.15946354 0.063363805
000090 a0 8a 28 3e c1 8a aa 3d 85 66 97 ba 61 7b 17 bc
       0.16459131 0.083272465 -0.0011550939 -0.009245724
0000a0 eb bd 17 3e 8a a1 9d 3d 17 e4 23 3c 1b da 1e 3e
       0.14818542 0.07696827 0.010003111 0.15512888
0000b0 4a dc 4f 3e 20 3f 2d bd b7 a7 31 3d 4f 75 ab bd
       0.20298877 -0.04229653 0.043372836 -0.08371984
0000c0 8e d6 e3 bd 28 f2 a7 3d 3b 44 43 3e 49 6a 83 bd
       -0.111249074 0.082004845 0.19068997 -0.06416757
0000d0 09 a5 01 be 69 2e 0a 3e 48 c5 1a bd 2e 98 36 be
       -0.12660612 0.13494267 -0.0377858 -0.1783149
0000e0 a7 75 92 bc f1 5e 3c be 30 63 df bb bf d0 d7 3d
       -0.017878367 -0.18395592 -0.006817244 0.10537862
0000f0 a9 48 18 3d 81 82 54 39 01 af 00 be a3 34 6d 3c
       0.03717867 0.00020266512 -0.12566759 0.014477882
000100 98 fb 10 3d 86 ea a6 3c 19 b0 28 3c 6b a1 c6 3d
       0.03539619 0.020375501 0.010295891 0.09698757
000110 42 34 53 3e fa 4c 8a 3d 68 a0 25 3e 73 2a 30 3d
       0.20625404 0.06752963 0.16174471 0.043009233
000120 f6 32 8f bb 06 a9 31 be b5 50 14 3e 38 c8 2b be
       -0.0043700887 -0.17349634 0.14483912 -0.16775596
000130 6f e7 c0 bd 34 bb f6 3d 7e 9f af bd 57 0b 36 3e
       -0.094191425 0.12047425 -0.085753426 0.17777763
000140 4f 6c a5 bd 15 0b 17 bd 14 86 06 3c 51 a0 db bc
       -0.08077299 -0.036875803 0.008210678 -0.026809843
000150 ed a2 47 bd bc 20 cf bc 9f 29 f4 3d 2a ed 74 3d
       -0.048739363 -0.025284164 0.11922001 0.05979649
000160 d2 f6 9b 3d 72 33 c6 bc 8b d1 a4 3c 06 06 e4 bd
       0.076154366 -0.024194453 0.02011945 -0.111339614
000170 be a0 d3 3d 80 4f c9 3d 09 84 89 be 33 7f a1 bd
       0.103333935 0.098296165 -0.26858547 -0.078855895
000180 51 ed 14 be 4b 24 37 3e 62 7c 4f be ac 3e 01 bd
       -0.14543654 0.17884938 -0.20262292 -0.03155391
000190 0b 42 31 3d 4b 55 86 bd 7e b2 27 3d 37 8d 2a be
       0.043275874 -0.06559237 0.040941708 -0.16655432
0001a0 95 63 8d bd 90 57 ac bd 32 e2 e7 bd d6 9d ad bd
       -0.069037594 -0.08415139 -0.1132244 -0.084773704
0001b0 e2 ab 34 3d e5 9a 84 bc a1 12 86 3e e5 72 03 3e
       0.044109233 -0.01618714 0.26186088 0.12836798
0001c0 5a d9 31 3d 17 b4 f1 bd 03 b2 09 be 43 03 15 bd
       0.043420173 -0.118019275 -0.13446812 -0.036380064
0001d0 7d 7b ab 3d 61 31 8e bc ca 1d 04 3e a8 22 25 be
       0.08373163 -0.01735753 0.12901989 -0.16126502
0001e0 58 57 5e bd 25 aa 7c 3d 28 b9 e9 bd ff 61 2f bd
       -0.054282516 0.0616857 -0.11412269 -0.042818066
0001f0 51 09 52 3d 89 e7 b2 bb 5f 4d 71 bd cb 1e 18 3e
       0.051278416 -0.00545973 -0.058911677 0.14855497
000200 d2 d5 85 bd 67 80 3a bd dd be bb bc fb 35 13 be
       -0.065349236 -0.04553261 -0.02291816 -0.1437606
000210 2d 33 0c bd cb 57 db bc b6 c3 d1 bc c7 d6 f4 3c
       -0.034228493 -0.026775261 -0.025606018 0.02988757
000220 3b f4 b5 bd a7 12 28 bc 7b 1d 09 3e 83 a6 8a 3c
       -0.08884474 -0.010258353 0.13390152 0.016925102
000230 26 c1 7f bd d6 27 89 bd 9d 76 4b bd 85 96 1c 3d
       -0.06244006 -0.06697051 -0.049673665 0.038229484
000240 7d 65 5f be 15 7c 5c 3d fb a9 6c 3e 39 9b 86 bd
       -0.21816058 0.05382927 0.23111717 -0.06572575
000250 a8 d8 07 3e 11 2e 21 3e c5 79 8a bd 51 6c a0 3c
       0.13266242 0.15740229 -0.06761507 0.0195829
000260 9f 77 91 3e ff 84 d0 bd ce 77 46 3d 55 44 3f 3e
       0.28411576 -0.10181617 0.0484541 0.1867841
000270 3b 6d 19 3e 3f cb f0 bd 93 6b df 3e ec ee 04 3e
       0.14983074 -0.11757516 0.4363676 0.12981766
000280 71 96 bf 3d 1c 36 9e bd a6 56 01 3e 7f bd 1c 3e
       0.09354866 -0.07725164 0.1263071 0.15306662
000290 31 97 13 3d 96 23 1e 3d d9 67 83 bc fe 74 1e bd
       0.03603286 0.038608156 -0.01604073 -0.03868579
0002a0 fd 24 95 3d 2e 93 59 bd 2b d1 76 be 05 22 36 3d
       0.072824456 -0.053118877 -0.24103229 0.044466037
0002b0 02 be 4a 3d 94 03 f8 3c 03 d3 94 be b5 3c 17 be
       0.04949761 0.030275144 -0.2906724 -0.14769252
0002c0 0f db 3d 3e 86 a1 f4 3d 2e 4a 9c 3a a8 da a3 3c
       0.18540595 0.11944871 0.0011923963 0.020001724
0002d0 7b 4e a1 bd 16 ae be 3d cf 1e a8 bd 86 95 78 3d
       -0.07876297 0.09310548 -0.08209001 0.06068947
0002e0 75 ea 61 3d cb e4 a8 3d 50 e4 9b 3c 47 f8 bb 3d
       0.055155236 0.08246764 0.019029766 0.091782145
0002f0 53 6a e2 bd f1 f3 a5 bc 70 0a fc bd 39 f7 97 3e
       -0.11055436 -0.020257922 -0.12306678 0.29680803
000300 11 bf e1 bd 24 9e 7c 3d 80 3f ee bb 45 c4 81 3d
       -0.11022771 0.061674252 -0.0072707534 0.063362636
000310 1d ed 90 bd 6e 62 ed 3d 70 c1 86 3e 06 2b 68 be
       -0.07076476 0.115910396 0.26319456 -0.22672662
000320 2f 2a a4 bd 96 3e 61 bc cc 41 e0 3d ff 47 15 bd
       -0.080158584 -0.013747832 0.1095005 -0.036445614
000330 3b 3d f3 3d 3c 19 7e 3d b8 1b d0 bd 4c 7e 02 3e
       0.11876913 0.062035784 -0.10161537 0.12743491
000340 38 05 31 3b 0b a2 42 bd f9 89 51 3a 89 d8 79 bd
       0.0027011167 -0.047517817 0.0007993277 -0.06099752
000350 c3 2e e8 3d 04 d1 2d bd 68 2f 36 3e 7d 84 46 bd
       0.11337044 -0.04243566 0.17791522 -0.048466194
000360 83 92 f4 3d 81 34 b7 bc 18 40 1d bd 69 fe 76 bd
       0.119420074 -0.022363903 -0.038391203 -0.06030122
000370 c5 dd 05 3e 2d 95 f1 3d 00 f0 ea bd 36 a7 e4 3d
       0.1307288 0.11796031 -0.114715576 0.111647055
000380 58 57 21 bd 1e 9c 2c be b3 13 2a be 4f 3f 91 3d
       -0.039389938 -0.16856429 -0.16609077 0.07092153
000390 14 f2 cd 3d cf 6d 7c 3d 00 60 41 3d 71 5e 9c bd
       0.10055938 0.06162816 0.047210693 -0.07635201
0003a0 be a7 8a bd 85 c3 33 3c ef bc b8 3d 5c 02 d4 3c
       -0.067702755 0.010971908 0.09020411 0.025880031
0003b0 82 bc 9b 3d f1 4f ac bd 5e 75 20 ba 8d f8 be 3d
       0.076043144 -0.08413685 -0.00061210047 0.09324751
0003c0 65 97 52 be 3a 8b 93 3d c4 b3 ea 3e 03 e4 fc 3d
       -0.20565565 0.0720429 0.45840275 0.12348177
0003d0 23 31 34 be ba 68 f6 3d ca 20 1e 3e 08 d8 73 3c
       -0.17596869 0.12031694 0.15442196 0.014883049
0003e0 d8 78 49 be e3 04 ce bd 27 b2 a4 bd a7 65 f0 3c
       -0.19675004 -0.10059526 -0.08041792 0.029345347
0003f0 db d0 0d 3e 00 a2 75 bd d4 6a 0d bf cd ec d4 bc
       0.13849203 -0.05996895 -0.5524113 -0.025991822

a2c_network.actor_mlp.0.bias f4 [256]
000000 fa d9 dd bd 9e b7 6e 3e 62 d9 8b 3e 8c b9 36 3e
       -0.10832591 0.23312232 0.27314287 0.17844218
000010 71 fb 97 3e cf 83 7e 3e b5 5b 7b 3d 1c c5 8c 3e
       0.29684022 0.24854968 0.061366756 0.27494133
000020 b3 1b 6f 3e fa 04 58 3e a2 a0 21 3d 2c b5 7d 3e
       0.2335041 0.21095648 0.039459832 0.24776143
000030 03 89 ba be 62 98 82 3d e6 9f 7e 3e f9 10 9d 3e
       -0.36432657 0.06376721 0.24865684 0.30677012
000040 ac 6b 8f 3e c4 0c 11 3e ac 81 94 3e e9 42 8e be
       0.28011835 0.14165026 0.29005182 -0.27785423
000050 a4 fe 00 3e ef a2 b6 3e b1 4d 3b be e4 1d 4d bd
       0.12597138 0.35671183 -0.18291356 -0.050077334
000060 1a c2 90 3e 25 77 ae 3d f5 ab 92 3e 03 80 67 3e
       0.28273088 0.08518819 0.28646818 0.22607426
000070 11 e7 32 3e 96 80 58 bd cc 37 05 3c e0 55 6a 3c
       0.17470957 -0.052857004 0.008130979 0.014302701
000080 d9 53 57 3e 03 3d 3c be fb 35 6c bd bb 0f 08 3e
       0.21028079 -0.18382649 -0.057668667 0.1328725
000090 b0 53 9c 3d df f3 64 3d ca ec f2 bc 3f bc 06 bc
       0.076331496 0.055896636 -0.029653925 -0.008223592
0000a0 94 00 3f 3d 19 12 56 3e 2f f5 b4 3d e0 0d 93 3e
       0.04663141 0.20905341 0.088358276 0.28721523
0000b0 8a de e9 bd de 77 89 3d 94 e2 78 3d cf 1d 94 bd
       -0.11419399 0.06712316 0.060762957 -0.07232248
0000c0 f6 e7 a7 3e f5 ff a7 3e b9 b7 83 3e 18 6f e1 bd
       0.3279416 0.32812467 0.25726107 -0.110075176
0000d0 63 09 73 3e eb ba c9 bd 3b 89 58 be 79 b8 8d 3e
       0.2373405 -0.09850105 -0.211461 0.27679804
0000e0 b0 87 95 3e 74 5b 95 3c 8f 0f 02 3e 6b ee 96 3e
       0.29205084 0.018232085 0.12701248 0.29478773
0000f0 41 13 fd bb 11 3b 37 3e 3b 72 fe 3d b7 41 22 be
       -0.0077232425 0.17893626 0.124241315 -0.1584538
000100 ea b1 ef bd 85 91 4c be 93 29 37 3e e6 3c 92 be
       -0.11703856 -0.19977386 0.17886953 -0.28562087
000110 15 7f 19 3e fe fe 75 3e 8d c5 98 3e 0c 6b 2a be
       0.14989884 0.24023053 0.2983822 -0.16642398
000120 f5 d7 86 bd f6 27 a5 bd bb 74 43 3c 3e c4 01 3c
       -0.06584159 -0.080642626 0.011929686 0.007920323
000130 62 d0 71 3e a9 89 72 3e cc 3b fb 3d 20 9b 57 3d
       0.23614648 0.23685326 0.12267265 0.052638173
000140 fd b2 96 3e 7b 81 b2 3d d1 92 59 3e b1 00 70 3e
       0.29433432 0.08716103 0.21247412 0.23437764
000150 dc 47 bd bd 29 19 1a 3d e3 94 54 3e 64 a9 83 3e
       -0.09242222 0.03762165 0.20759921 0.25715172
000160 16 1d b3 3e 79 3a c6 3d f1 d9 8a 3d 20 f8 6d 3d
       0.34983128 0.096791215 0.0677985 0.05809796
000170 fd 0f 7c 3e f6 7f a4 3e ba 68 f0 3d f5 da 78 bd
       0.24615474 0.32128876 0.11738725 -0.06075569
000180 bc 9c 80 3e e6 29 92 3e 5e ad 84 3e 66 bb 12 be
       0.2511958 0.2854759 0.2591352 -0.143293
000190 40 17 80 3e c5 58 8c 3d dd 87 ab 3d 18 86 60 3e
       0.25017738 0.06852869 0.08375523 0.21926153
0001a0 71 56 b4 3e 69 85 14 3e c8 86 a9 3e dd 7c b5 3d
       0.352222 0.14504017 0.33110642 0.088617064
0001b0 cc b4 7c 3e 46 ee 45 bc 9d a4 eb bc dd 99 ba be
       0.24678344 -0.012080735 -0.028765017 -0.36445513
0001c0 6c 5d 2d bd ed 27 96 3e bc a4 87 3d d6 ad 5b 3e
       -0.042325422 0.29327336 0.066232175 0.21453032
0001d0 dc 46 b2 bd cf 57 b3 3d 25 79 74 3e 31 27 aa 3e
       -0.087049216 0.087569825 0.23874338 0.33233026
0001e0 15 52 07 3e a3 cd aa 3c 75 6d 7d 3e d0 e5 08 be
       0.13214906 0.020850008 0.24748786 -0.13368917
0001f0 c0 bf 83 3e 77 14 ff 3d 75 de 1e bc 76 8d f0 3d
       0.2573223 0.12455075 -0.009696593 0.117457315
000200 d5 df c1 3d 61 87 6a 3e b8 8c 51 3e 13 e8 a7 3e
       0.09466521 0.22903205 0.20463836 0.32794246
000210 ea 88 92 3e e9 50 72 3c 94 32 14 be a0 90 0d be
       0.28620082 0.014789798 -0.14472419 -0.13824701
000220 ba a7 a8 3e 82 08 b4 3c 2e 95 a2 3e 0b ff f8 bd
       0.32940465 0.021976713 0.3175444 -0.121580206
000230 51 78 8d 3e 03 2b 37 3e f9 e5 bb 3e 6b 8e 8e 3d
       0.27630857 0.17887501 0.36698893 0.06960758
000240 99 22 1a be 0c 01 78 3d 3f 00 59 3d c9 b1 dd 3e
       -0.1505226 0.060547873 0.05297875 0.43299702
000250 28 b5 44 3d 6f 88 a1 3e 98 6f 9a bc b5 df 0b 3e
       0.048024327 0.31549403 -0.01885204 0.13659556
000260 08 b7 28 3e 67 1d bf 3c 25 7a cc 3e fb 3a 0d 3e
       0.16476071 0.02332945 0.3993694 0.1379203
000270 cd d2 74 3e 2d e3 d4 bd db d0 30 3e 65 57 dc 3d
       0.23908539 -0.10394893 0.17267172 0.10758857
000280 ed f9 71 bd 87 9d 4d 3e 8b b1 81 be 21 5c 50 3e
       -0.05907624 0.20079623 -0.25330767 0.20347644
000290 46 a9 59 3d 67 59 88 3e ce bb 90 bd 46 2a 86 3e
       0.053139947 0.2663071 -0.07067071 0.26204127
0002a0 20 7e 2a 3e eb a8 f1 3d 3e 9c 6d 3c 9c 31 81 be
       0.16649675 0.11799797 0.014502583 -0.2523316
0002b0 61 43 88 3e e8 41 ab 3e d9 cb 9e 3e e4 11 70 3e
       0.26613906 0.3344872 0.31014898 0.23444325
0002c0 03 f9 ac 3e c1 1b 01 be ed c1 51 be ef e3 85 3e
       0.3378373 -0.12608244 -0.20484133 0.26150462
0002d0 fa 2d 10 3d 68 4a 06 3e 44 97 a4 be da 88 5b 3e
       0.035200097 0.13114321 -0.32146657 0.21438923
0002e0 cb 6a 95 3e 17 87 06 3e 48 95 a6 be e0 1c a3 be
       0.2918304 0.1313747 -0.32535768 -0.31857967
0002f0 28 89 1e 3e 73 73 5f 3d 86 36 af bd 6e 8b f2 3d
       0.15482008 0.05455346 -0.085553214 0.11843
000300 85 8c 86 3d 7e 7f c7 3e 6a d2 60 3e 3e 9f c4 3d
       0.06569771 0.38964456 0.21955267 0.096006855
000310 63 fb c6 3e ed 5f 90 be 95 fd a8 3d 31 aa c7 3d
       0.38863668 -0.28198186 0.08251492 0.09749258
000320 08 b9 98 3e b5 a8 8a 3e 62 cf 09 3e 13 e7 8c 3d
       0.29828668 0.27081838 0.13458017 0.068800114
000330 eb ec 05 ba 98 76 00 3e 73 c7 85 3c dd e1 e1 be
       -0.0005108851 0.1254524 0.016330456 -0.44117633
000340 3b 96 95 3d f6 af 9d be f5 55 0a 3d d1 f8 bc 3e
       0.07304045 -0.3079831 0.03377338 0.36908582
000350 a4 a0 59 3e 3a 0f 8e be 49 5d 9d bc 18 66 86 3e
       0.21252686 -0.27745992 -0.01920952 0.26249766
000360 9f b2 21 bd 8d 19 d7 3d 89 86 35 bb d7 8f 8e 3e
       -0.039476987 0.1050292 -0.0027698597 0.27844116
000370 b0 23 2d 3e ea 28 3f bd b7 b1 8c 3e 07 6c a0 3e
       0.16908145 -0.046669878 0.27479336 0.31332418
000380 a1 42 b3 3e e5 3d 8e 3e 99 e9 a9 3e 5c 29 03 be
       0.3501177 0.27781597 0.33186033 -0.12808746
000390 4b bc 8a 3e a6 bf 2a 3e cd 17 ad 3e 89 51 b0 3e
       0.2709678 0.1667467 0.3380722 0.34437206
0003a0 01 e1 e7 3d 68 cd 03 3d 44 22 64 3e d5 35 8a be
       0.11322213 0.032178313 0.22278696 -0.26994196
0003b0 9d 6b 26 be 8f a2 db bd c0 ab 74 3e c6 6c 99 3e
       -0.16251989 -0.10724365 0.23893642 0.299658
0003c0 7d 14 92 3d 69 fc 06 3e bc e1 68 3d 24 2e a9 3e
       0.07132814 0.13182224 0.056855902 0.33043015
0003d0 f6 d5 6a 3e 22 c3 a0 3e 37 d3 00 3d d5 d8 06 3e
       0.22933182 0.31398875 0.03145143 0.13168652
0003e0 e3 6d 68 be 72 b2 8d 3c 03 64 8a bd f9 6e 1d be
       -0.22698168 0.017297003 -0.06757357 -0.15374364
0003f0 b1 b3 6f 3e 15 77 44 3e 0b 95 cb bd 98 90 12 3c
       0.2340839 0.19186051 -0.09940537 0.008945607

a2c_network.actor_mlp.2.weight f4 [128, 256]
000000 e4 9c 1e bd 9b 8e 49 bd d9 ab 00 be 24 e2 79 bd
       -0.03872384 -0.049208265 -0.12565555 -0.06100668
000010 88 36 e4 bd 97 5a b6 bd 31 88 88 bd 54 2b 5c be
       -0.111432135 -0.089039974 -0.066666014 -0.21500903
000020 eb 0d c8 bd 58 0a 52 be 03 f2 99 3d 62 6d 4d be
       -0.0976828 -0.20511758 0.07516863 -0.20061257
000030 95 5c b7 3d 86 f2 12 3e aa 14 10 3d 52 eb 94 bc
       0.089532055 0.14350328 0.035175957 -0.018178616
000040 17 a5 01 be 57 43 a9 bc f3 68 ec bd 77 10 95 bb
       -0.12660633 -0.020661993 -0.11543455 -0.004549082
000050 60 fa 34 3d 87 5c 1e be 9f 50 09 3c 7d 25 a5 bd
       0.04418409 -0.15464984 0.008381038 -0.08063791
000060 13 d6 eb 3c dc 37 56 bd 12 25 38 be 0b 2c 98 bb
       0.028788602 -0.052299365 -0.17982891 -0.004643922
000070 d9 99 df bd a0 34 8c bd 21 b1 12 3d c5 5a 9a bd
       -0.10918016 -0.06845975 0.035813455 -0.07536844
000080 3e 58 08 3e d3 cf 25 3d 27 da 33 3d 8f 78 dc bd
       0.13314912 0.0404814 0.04390922 -0.10765182
000090 3b 6f 39 bd bc 25 d9 bd 14 30 9b 3d 77 60 d9 bd
       -0.045272093 -0.106029004 0.075775295 -0.10614102
0000a0 04 94 0c 3e b5 e0 d5 3d 58 b1 0f 3d 8f c0 9d be
       0.13728338 0.1044325 0.035081238 -0.30810973
0000b0 c6 3c 09 3d 6c d1 a1 bd e7 4e 50 bc ba fe c6 3d
       0.033505224 -0.07901272 -0.012714124 0.09716554
0000c0 5a 01 19 bd a7 2a ea bc 3f a6 12 bd 95 b1 12 be
       -0.037354805 -0.028584791 -0.035803076 -0.14325555
0000d0 6a 64 4c be dc fa 24 3e 67 6e cd bc ba 83 43 be
       -0.1996018 0.1611132 -0.025077058 -0.19093218
0000e0 d0 84 11 be 31 3a 81 bd 99 33 28 3e a6 e0 e1 bc
       -0.1421082 -0.06309927 0.16425933 -0.027572941
0000f0 e4 0f 07 be 03 56 7f 3d db a6 6c 3d 15 c3 87 bd
       -0.13189656 0.062337887 0.057776313 -0.06629006
000100 7c 3b e8 bd 78 7c 85 3d d7 47 9c bd 9d 10 11 bd
       -0.11339471 0.06517881 -0.0763089 -0.035416234
000110 77 78 f5 bd 7a 04 32 be 52 c8 90 bd c7 62 58 3d
       -0.119858675 -0.1738452 -0.07069458 0.052828576
000120 b6 5d 12 bd 46 82 cb 3d 7a d0 18 3e 22 ec 5a be
       -0.0357339 0.09936957 0.14923277 -0.2137914
000130 76 cf b3 bc 7a 89 52 bd 94 e7 7a bc b4 1a ea bd
       -0.021949511 -0.05140064 -0.015314002 -0.114308745
000140 8c 08 0d be 10 d4 1c 3d e3 f0 df 3d 8d dd c5 3c
       -0.13772792 0.038288176 0.10934617 0.024153495
000150 9a 7f 64 3c 38 6b a0 bd e3 3a 11 3e 4d 6c 25 bc
       0.013946438 -0.0783295 0.1418262 -0.010096622
000160 0d f9 0f be 0e bd b1 bd 83 a0 3c be 9a f1 3c 3d
       -0.14059849 -0.086786374 -0.18420605 0.046128847
000170 c1 b2 f0 bd 09 16 c0 bd ab df 18 3c 53 a2 3e 3d
       -0.117528446 -0.09379203 0.00933067 0.046541523
000180 85 53 cf bd 9b 17 20 be d7 df a2 3d dd 21 dd 3d
       -0.10123352 -0.15634005 0.0795285 0.107974745
000190 b0 c1 23 be 52 1d 6c 3d 8b 20 94 bd 06 39 12 be
       -0.15991855 0.05764515 -0.072327696 -0.14279565
0001a0 c7 88 06 3d d4 e2 38 be 52 c8 a5 bc 92 05 8d bc
       0.032845285 -0.18055278 -0.020237122 -0.01721457
0001b0 49 3e c1 bd 6a 10 2e bd 52 a9 70 be 23 e5 be bd
       -0.09435708 -0.042496122 -0.2350209 -0.09321048
0001c0 64 76 22 3e 95 25 88 3d fa 73 0a 3d 8f aa 51 be
       0.15865475 0.06647793 0.03380201 -0.20475219
0001d0 9b 5d 11 be 36 e9 0a bc 3a e0 cd bd 06 28 0c be
       -0.14195864 -0.008478453 -0.100525334 -0.13687143
0001e0 4c 40 0c be 45 b8 48 3e a5 d2 7a be fd b9 08 3d
       -0.13696402 0.19601543 -0.24494417 0.033380497
0001f0 f6 9f 04 bd a7 c0 d6 bd 89 89 33 be 5e e9 34 bc
       -0.032379113 -0.10485964 -0.17532934 -0.011041967
000200 e1 7c 8c bd 2d c4 b3 bc 9a a2 ee bd bb 6b f1 3c
       -0.06859756 -0.02194413 -0.116521075 0.029470315
000210 6c 01 ae be c5 06 b3 3d ab 01 4c bc 0d a0 2d bb
       -0.3398546 0.087415256 -0.01245157 -0.0026493103
000220 68 a3 91 bd 4e a7 99 bd 91 be 77 3d 21 3c eb bd
       -0.071112454 -0.07502614 0.060484473 -0.11486078
000230 cc b2 b8 bd ab 65 db bd 17 4b ad 3b 03 cd ba 3c
       -0.09018478 -0.10712751 0.0052884924 0.022802835
000240 fd 82 5a bd 6f 2b 2e be a8 5f 76 be 5e bd ac 3c
       -0.053347576 -0.17008756 -0.24059927 0.021086391
000250 a5 a8 c4 3c 46 39 ac be 44 7d 00 3e d1 53 38 be
       0.024006197 -0.33637446 0.12547785 -0.18000723
000260 40 c1 ac bd 3c d9 35 3d 6f 95 25 3d d7 5b c5 bd
       -0.08435297 0.044396624 0.040425714 -0.09636658
000270 55 e3 38 3d 49 02 ad 3d 99 7d b7 bd 69 c2 16 be
       0.045138676 0.084477015 -0.08959503 -0.14722599
000280 71 df c8 ba 91 86 c0 bd 74 b3 d2 bd be dd b6 bd
       -0.001532538 -0.094006665 -0.10288134 -0.08929013
000290 12 59 09 3e 84 6f 21 be cc 41 ed bd 2f fe 1b bd
       0.13412884 -0.15765196 -0.115848154 -0.038084205
0002a0 83 4f 1e 3e ec 3d 03 be f1 d2 9b bb bc 94 a4 3d
       0.15460019 -0.1281659 -0.004755371 0.08036181
0002b0 63 e1 10 be db 5d 61 be b6 4d 17 be 8c 7e 53 be
       -0.14148478 -0.2200846 -0.14775738 -0.20653743
0002c0 4a e5 f4 bc f0 0b 2b be 86 ce 6e 3d 68 6e 01 3d
       -0.02989449 -0.16703773 0.058302425 0.031599432
0002d0 9d 3d 3d be be 4e 05 bd d5 75 bc bd 26 04 25 bd
       -0.18480535 -0.032545798 -0.09202162 -0.04028716
0002e0 a6 9b 73 bc 7b 60 16 3d aa a5 22 3d 43 e3 cd 3d
       -0.014868652 0.036713105 0.03970877 0.10053112
0002f0 8f 21 ce 3d 0d 25 cd bc 50 eb 78 bd 9c a8 54 bd
       0.100649945 -0.025042081 -0.060771286 -0.05191861
000300 c0 bf eb bd 45 fd 04 3e 79 8e fa bd 16 53 87 be
       -0.11511183 0.1298724 -0.12234206 -0.26430577
000310 d3 e3 ef bb eb 2d 66 be aa b7 81 bd 3f 0e 9f bc
       -0.00732086 -0.22478454 -0.06333859 -0.019415973
000320 b3 83 11 be 1c f0 bf bd ae 10 b4 bd b5 ba 90 be
       -0.14210396 -0.09371969 -0.08792244 -0.28267446
000330 4d f0 c0 bd b4 30 84 3c d3 49 30 3d ce a6 99 bc
       -0.09420834 0.016136505 0.043039154 -0.018756296
000340 26 aa b8 3d 69 8b e7 bc c4 ab 13 3d 11 45 48 be
       0.09016828 -0.028264718 0.03605248 -0.19557597
000350 fd ab 69 be 1c 87 32 3c 1b 5c 60 3d c8 6d f2 bd
       -0.22819515 0.01089647 0.05477534 -0.11837345
000360 97 26 6c bd 4b cf 89 bd f3 87 b6 bd 65 b9 71 be
       -0.05765399 -0.06728991 -0.08912649 -0.23605879
000370 5d cd 08 3e ea 34 57 bd ed 51 8e 3d 87 e5 2e bd
       0.1335959 -0.052540697 0.0694922 -0.042699363
000380 d3 2a e0 3d a7 33 aa 3d 3a 43 6c be ae e3 3a bd
       0.10945668 0.08310633 -0.2307252 -0.04562729
000390 95 7f 20 be aa 44 30 be 27 02 10 be 34 b1 df 3d
       -0.15673669 -0.17213693 -0.14063321 0.10922471
0003a0 78 0f a4 3d 87 9b 20 3e b3 87 51 3d d7 d3 d8 bc
       0.08010763 0.15684329 0.051154803 -0.0264682
0003b0 6d 9b b8 3d a4 62 86 3d 36 f2 a5 bd 88 bd 4d 3b
       0.0901402 0.06561783 -0.08102839 0.0031393487
0003c0 79 0e 92 be f8 1a 0d be ca b5 35 be 04 5e cc bd
       -0.28526667 -0.13779819 -0.17745128 -0.099788696
0003d0 ce 5b ca 3d a9 00 d9 bd 22 b3 9e bd 3f 0e 04 be
       0.098807916 -0.10595829 -0.077490106 -0.1289606
0003e0 9d d7 9e 3d 9d 0a 8b bc ed 2f 0d be 2a 1f 91 bd
       0.07755969 -0.016972834 -0.13787813 -0.07086022
0003f0 4d 24 6d bd c7 40 a9 bb 5e 02 c2 3c 23 e5 17 3e
       -0.057895947 -0.0051651928 0.02368277 0.14833502

a2c_network.actor_mlp.2.bias f4 [128]
000000 53 fc 00 bd d7 1d ce 3d fc bd 44 3d 6e c2 39 3e
       -0.031490635 0.10064285 0.048032746 0.18140575
000010 21 02 87 be df 90 c9 bd f5 4d 27 3e 90 4d 4d 3d
       -0.26368812 -0.09842085 0.16338332 0.050122797
000020 f2 55 af bb 64 86 3b 3d 12 4f 12 3d 8c c9 1e bd
       -0.0053508217 0.04578246 0.03571994 -0.03876643
000030 0a cb 69 be 54 0a 47 be 7b d7 0a be 4a 4b 99 bd
       -0.2283136 -0.19437534 -0.13558762 -0.074850634
000040 13 12 05 be ba 0f 08 be 83 3f 5d 3d 45 43 12 3d
       -0.12995176 -0.13287249 0.054015648 0.035708684
000050 9d 32 66 3e 24 05 34 be f7 af b1 bd 2a 72 0c be
       0.22480245 -0.17580086 -0.08676141 -0.13715425
000060 17 86 fe bd 1c 37 bf bd 61 d3 05 3e 2d b1 2c be
       -0.12427919 -0.09336683 0.13068916 -0.16864462
000070 89 22 c7 3d 45 99 06 be ab 0b 02 be f5 44 08 3e
       0.09723384 -0.13144405 -0.12699763 0.13307555
000080 94 a1 7e 3d 47 9e 82 be 2a bd 0a 3e 6d 46 b8 3d
       0.06216581 -0.2551138 0.13548723 0.08997808
000090 2c ff 23 3e 05 73 15 3d d1 21 68 be e8 d0 f5 3c
       0.16015309 0.036486644 -0.2266915 0.03000684
0000a0 cd 71 a0 bd 21 81 61 be 1e b2 11 3b f0 29 82 be
       -0.07834206 -0.22021915 0.002223141 -0.2542262
0000b0 b4 25 5f be cf b7 b9 be 15 b7 26 be 1e 34 ba 3d
       -0.21791726 -0.36273047 -0.16280778 0.09091972
0000c0 4f d4 22 be d6 7e 21 bd 43 58 df 3d 69 ec b3 bc
       -0.15901302 -0.0394276 0.109055065 -0.021963315
0000d0 16 39 ab 3d 4b 1d 70 be bf ba fe bd 1b 2a fc bd
       0.08360498 -0.23448674 -0.12437963 -0.123127185
0000e0 a8 37 c8 bd 62 44 e2 bd d6 69 a0 be 57 e1 74 3e
       -0.097762406 -0.11048199 -0.31330746 0.23914085
0000f0 e7 8e 42 be ac 1c ff 3d 1d dc 30 3d 4d b5 86 3d
       -0.18999825 0.124566406 0.043178666 0.06577549
000100 11 1e 64 3d 31 1c 81 be da 88 17 3d 8d 89 19 3d
       0.055692736 -0.2521682 0.036995746 0.037484694
000110 4f 27 9b 3d 39 10 73 3e e7 cf b0 3c 34 8f 80 be
       0.07575857 0.23736657 0.02158351 -0.25109255
000120 19 d1 8b 3d d5 09 50 be 6b 75 97 be 71 e5 95 bd
       0.068269916 -0.2031625 -0.2958177 -0.07319153
000130 e5 04 bd bd 0c 5c e9 3d 06 51 d7 3d 5a db 9d bd
       -0.09229449 0.1139451 0.10513501 -0.077078536
000140 41 b3 ee 3d d2 75 47 3e 39 5c 92 bd 2d 69 54 bc
       0.11655284 0.19478539 -0.07146496 -0.012964529
000150 9e a1 17 3d a4 f0 cd bd 55 55 42 3d f9 be 8e 3c
       0.037019365 -0.10055664 0.04744466 0.017425047
000160 28 2e 6e 3d c6 7d 83 bd 5c c5 b8 be 0d 2e b5 bd
       0.058149487 -0.06420474 -0.36088073 -0.08846674
000170 66 a8 7f 3d 31 84 95 3d 7a ae 78 be c2 57 0f be
       0.062416457 0.07300604 -0.24285308 -0.1399832
000180 b3 f0 5a 3c 22 78 60 bd 82 67 31 be 20 20 60 be
       0.013363051 -0.054802068 -0.17324641 -0.21887255
000190 7c bb 30 be f9 68 ff bd d4 7f 05 3d ee 26 03 3e
       -0.1725902 -0.12471194 0.03259261 0.12807819
0001a0 97 64 47 bd 9d 75 13 be af 91 c8 3d 19 df 5e bd
       -0.048679914 -0.14400335 0.09793412 -0.05441198
0001b0 69 11 a9 be 26 b7 28 be f6 ae f3 3c af fb 32 3d
       -0.33021095 -0.16476116 0.029746514 0.043697055
0001c0 16 18 09 be ea 35 31 be 0b 83 a2 be a8 e5 51 be
       -0.13388094 -0.17305723 -0.31740603 -0.20497763
0001d0 82 80 b0 3d 9b e4 3f be e0 09 87 be 13 d1 6f be
       0.08618261 -0.1873955 -0.26374722 -0.23419599
0001e0 e6 5e 5e be d7 7c 30 be 24 c6 1c 3e 06 ca 85 bc
       -0.21715888 -0.17235123 0.1530996 -0.016331684
0001f0 c9 ae 06 be 1b 26 a0 3d 96 a6 06 3e 2e 4e 8a be
       -0.13152613 0.07819768 0.13149485 -0.2701277

a2c_network.actor_mlp.4.weight f4 [64, 128]
000000 fc 9f 03 3e 01 95 66 bc 95 a3 39 3d d4 46 19 bd
       0.12853998 -0.014073611 0.04532202 -0.037421063
000010 b6 aa c3 3c 9c 0f 86 3d e2 3a 43 bd c0 68 af bd
       0.023885112 0.06545946 -0.047663577 -0.08564901
000020 82 40 e6 bd b4 af e8 bd 66 be 6a be 5e be b2 3d
       -0.11242773 -0.11361638 -0.22924194 0.08727716
000030 64 05 83 3d ab 4b 82 3d d0 15 23 bd 35 07 55 bd
       0.063975126 0.06362089 -0.039815724 -0.052008826
000040 06 19 11 be 7c 28 da 3d f0 c3 55 3d 1a 81 4c bd
       -0.14169702 0.10652253 0.052188814 -0.04992781
000050 7f 6f 75 bd 7e 5c d7 3d 42 73 b8 bd 27 ad 3b 3e
       -0.059920784 0.10515688 -0.09006359 0.18327771
000060 6c 69 98 3c a0 36 99 bb 15 98 5b bd 09 03 1a bd
       0.018604957 -0.0046757013 -0.053611834 -0.03760055
000070 55 10 23 bd 7e 73 98 b8 be 86 1b bd 60 75 0d 3e
       -0.039810497 -7.269437e-05 -0.037970297 0.13814306
000080 ec af 58 be 4a 5c 5c 3d 6a e7 f0 bd 5d 4e 8b bd
       -0.21160859 0.05379895 -0.11762889 -0.06802056
000090 ab ff 18 bd 77 61 97 bd ba 81 37 bd c7 a0 e5 bb
       -0.0373532 -0.07391637 -0.04480145 -0.0070076915
0000a0 f6 73 2d 3d 5c 4c b3 3d 02 c9 20 be be 0d 94 3c
       0.042346917 0.08754799 -0.15701678 0.018072959
0000b0 db a6 a6 3d 23 02 29 3d 21 14 82 3e f5 3a 89 be
       0.08137294 0.041261803 0.25405982 -0.26802793
0000c0 88 54 5a be 9f f0 4b be f7 06 ff 3c b5 03 03 be
       -0.21321309 -0.19916008 0.03113125 -0.12794383
0000d0 93 a8 50 be a0 78 9b 3c dd e0 ce bc 69 11 86 bc
       -0.20376806 0.018978417 -0.025253708 -0.016365724
0000e0 2e 47 55 3d 79 c4 ef bd c1 bb ed 3b 29 08 18 bd
       0.052069835 -0.11707396 0.007255048 -0.037117157
0000f0 48 51 0b bd 40 cb e2 bd c0 bc 9b bd 6a ca d0 bd
       -0.034013063 -0.11073923 -0.076043606 -0.101948574
000100 2e 50 ae be 60 dd c8 bd 0a bd 23 be e3 0c b8 bd
       -0.34045547 -0.09807849 -0.15990081 -0.08986833
000110 22 1f 82 be f0 21 39 bd 75 7b 2a bd 01 02 49 bd
       -0.25414377 -0.04519838 -0.041621644 -0.049074177
000120 76 e8 95 be 8d e0 99 3d 99 c2 8c 3d 9b e5 9a 3d
       -0.29278916 0.07513533 0.06873054 0.07563325
000130 6c c9 b5 3c 94 06 63 3d 74 24 99 be 36 88 8b 3d
       0.022190772 0.055426195 -0.29910624 0.068130895
000140 19 4f 2d 3e d4 85 af 3d e2 29 0a be c6 d3 2c 3c
       0.16924705 0.085704476 -0.1349254 0.010548538
000150 7f 41 41 be e5 10 07 be 90 41 79 bd f4 5b 2c 3e
       -0.18872641 -0.13190039 -0.06085354 0.16831952
000160 59 4b 65 bd b1 29 bd bd be 8a cc 3d 5c 40 09 be
       -0.05598006 -0.09236468 0.099874005 -0.13403457
000170 c2 28 06 3d b7 24 2a 3e ef 58 86 3d e2 60 60 bd
       0.032753713 0.16615568 0.065599315 -0.054779895
000180 40 08 9e 3d 79 76 41 be 80 1c e0 3d b3 e9 36 bd
       0.07716417 -0.1889285 0.10942936 -0.044656467
000190 ea 09 5a bd 4a 3a 9f bd 67 29 f6 bd 4c ad d8 3d
       -0.05323211 -0.0777479 -0.120196156 0.10579929
0001a0 2a c4 80 bd e5 3a 15 bd bb 38 79 3d 21 1c 5e bd
       -0.06287415 -0.03643312 0.060845118 -0.054226045
0001b0 8e 4a ad 3d e6 26 04 bd d5 43 13 be b5 69 ce bb
       0.08461486 -0.03226366 -0.14381345 -0.0062992224
0001c0 f2 88 89 3d 1b 75 4a 3e 7a 5f ad bd 66 7a 66 3d
       0.06715573 0.19771235 -0.08465476 0.056269072
0001d0 5d b6 74 3d 18 7a 6f 3c 8d 61 ea bd 05 c5 92 3e
       0.059744228 0.014616512 -0.114443876 0.2866594
0001e0 bb 2b ed bc 26 22 11 bd b9 19 c5 bd 57 5b a7 3d
       -0.028951516 -0.035432957 -0.09624047 0.081717186
0001f0 66 0e 26 bd 0f 9d ac 3c 2a c9 e7 3d 10 1d 52 3d
       -0.040541075 0.021070985 0.11317666 0.051297247
000200 0a e6 08 be f3 37 e1 bd 47 83 91 bd 45 e8 d0 3a
       -0.13369003 -0.109969996 -0.07105117 0.0015938362
000210 54 35 3b 3e b9 7a 91 bd d7 ef 79 bd 84 2d 24 be
       0.18282062 -0.071034856 -0.061019745 -0.16032988
000220 fe ab 09 be 38 6e b4 bd a7 ce c9 3b 2b 06 bd 3d
       -0.13444516 -0.08810085 0.006158668 0.09229692
000230 88 bd c1 3b 4b 0a 9c 3d 77 ee dd bc 11 fe e8 bc
       0.0059124865 0.07619151 -0.027091248 -0.02844146
000240 c9 2a de 3c fb 8b 20 be 96 62 ac bd 20 08 67 bd
       0.02712001 -0.15678398 -0.08417241 -0.056404233
000250 ca b7 04 3e 95 35 d5 3c 3c b0 6a bd be d1 1b 3d
       0.12960735 0.026026526 -0.057296976 0.038041823
000260 19 c2 22 bd 60 22 83 bd 1c 4a 5f 3d 2a a8 30 bd
       -0.039735887 -0.06403041 0.054514036 -0.043129124
000270 1a c1 a4 bc 75 87 a4 3d 80 33 51 bc fe 4f fd 3c
       -0.02011161 0.08033649 -0.012768626 0.030921932
000280 e5 a8 4b 3d 4c 8d 08 3d 38 42 ec bd 09 a0 ae bd
       0.049721617 0.033337876 -0.11536068 -0.08526618
000290 7b 6c 02 3d f8 0a 03 be 14 14 98 bd f8 83 44 bd
       0.031841736 -0.12797153 -0.074257046 -0.047977418
0002a0 0f 33 a4 3c 1f 4b 03 3e be b3 f3 bc 76 97 96 3c
       0.020043878 0.12821625 -0.029748794 0.01838277
0002b0 a9 53 43 3e 20 5d 27 3e db 9d a6 3d 1d 31 75 bd
       0.19074883 0.16344118 0.08135577 -0.05986129
0002c0 8d 01 f4 bd 78 97 0a 3e d5 68 a5 bd 6a 5d 9a 3c
       -0.11914358 0.13534343 -0.08076636 0.018843371
0002d0 6c 42 0e 3e 3a fd 8c bc 58 85 5c be 6a cc 89 3d
       0.13892525 -0.017210592 -0.21535242 0.06728442
0002e0 01 21 8f 3d 0d 25 2b 3e f0 ce 7f bc e1 48 4a bd
       0.06988717 0.16713353 -0.015613303 -0.04938591
0002f0 86 e2 97 3a 53 91 06 be 7a 95 d4 3b 75 ce 8c bd
       0.0011587895 -0.13141374 0.0064875456 -0.06875316
000300 aa 95 f4 3c f7 ba e8 3c 4a 33 23 bd 82 34 43 bd
       0.029856522 0.028409464 -0.039843835 -0.047657497
000310 24 0c f7 bc a2 8e a8 bd a0 f2 06 3d c6 3e 50 bc
       -0.030157156 -0.0823033 0.03294623 -0.012710279
000320 09 4f 25 3d 9d 20 13 3e 34 64 f1 bc 4e 2d 84 3e
       0.040358577 0.1436791 -0.029466726 0.25815815
000330 4a fe d7 bd 87 6f b6 bd 15 c6 09 3d 15 e0 f8 bd
       -0.10546549 -0.08907991 0.03363617 -0.12152115
000340 f3 c5 7e 3d fe f1 56 be 0a 7e b3 bd 98 d1 76 be
       0.062200498 -0.2099075 -0.087642744 -0.24103391
000350 a7 01 a8 3d d3 93 99 3c 26 ee 01 be 30 20 6c bd
       0.0820344 0.018747246 -0.12688503 -0.057647884
000360 3f 3a 91 3d 5f 1e 1b bd fc 39 c2 3d 88 89 c5 bd
       0.07091188 -0.03787076 0.09483716 -0.09645373
000370 68 91 45 bd ec fe a7 bd cb 2a 31 3c 6b 3c ba bd
       -0.048234373 -0.08202919 0.010813425 -0.09093555
000380 b6 ba 91 bd 24 30 96 3d 89 72 c4 3d 91 d5 96 3d
       -0.071156904 0.07333401 0.09592158 0.07364953
000390 2e 73 b4 bd 49 32 ce bd dd 0f c0 bd e4 ca 66 bd
       -0.08811031 -0.10068185 -0.09378026 -0.056345835
0003a0 52 56 0e 3e 80 2c 19 bd 12 61 82 bd 91 01 a6 bd
       0.13900116 -0.037395954 -0.06366171 -0.081057675
0003b0 67 b3 d8 3d 64 e0 37 3e fa e6 81 bd 54 45 b4 bd
       0.10581093 0.17956692 -0.063428834 -0.08802286
0003c0 e3 fc d0 bc 4d 51 fa bd 24 da 59 3d e6 b3 df 3d
       -0.02551121 -0.12222538 0.05318655 0.10922985
0003d0 27 5d 29 bd 39 c6 67 bc 54 89 9c bd 6e f6 38 bd
       -0.041348603 -0.014146381 -0.07643381 -0.04515689
0003e0 5a f4 74 3d 8a 03 46 be 48 59 e6 bd 06 9f e7 3c
       0.059803344 -0.19337288 -0.11247498 0.02827407
0003f0 c4 1e 89 3c fd 2e de 3b c7 e1 9f 3d 21 31 78 bd
       0.016738303 0.006780504 0.078067355 -0.060593728

a2c_network.actor_mlp.4.bias f4 [64]
000000 2b da 5d bd c3 ab 8a bc d3 0d 0d 3c 44 5f e5 bd
       -0.05416314 -0.016927605 0.008609253 -0.11199811
000010 4b 34 4c bb 4d 65 78 3d ea 2f e1 3a 0b 85 09 bc
       -0.0031159099 0.060643483 0.0017180417 -0.008393536
000020 a8 c5 df 3c b9 cb fe bb f5 3b be bd 26 05 c2 3c
       0.02731593 -0.0077757505 -0.0928878 0.023684096
000030 e9 4f 8a bd 94 72 91 3c 50 78 98 bd 0f 15 ee bd
       -0.06753523 0.01775483 -0.07444823 -0.1162511
000040 8f 01 49 be d7 bc 91 be 2d 55 46 bd f4 58 1c bd
       -0.19629501 -0.28464386 -0.048421074 -0.03817077
000050 8f 94 8b bd 4f 83 47 3b 30 38 98 bd c5 8b f6 bc
       -0.06815445 0.0030443256 -0.07432592 -0.030095944
000060 52 95 af bd 74 b1 12 be 19 6d 82 3c f8 00 1b bd
       -0.085734025 -0.14325505 0.015921162 -0.03784272
000070 01 ef 45 3c 08 9a b0 bd b5 aa 08 be b0 83 32 be
       0.012080909 -0.08623129 -0.1334637 -0.17433047
000080 5a 0c 1b 3d cb 64 be bd d4 63 a9 3c 49 cb 01 bd
       0.037853576 -0.092965685 0.020677485 -0.03168801
000090 15 74 52 3c eb eb e3 bd 22 7d 5b be ef fd 1f be
       0.012845059 -0.11128982 -0.21434453 -0.15624212
0000a0 f7 0f 84 bd e0 1c 72 bd 5d 52 11 3c 4f be d5 bd
       -0.064483576 -0.05910957 0.008869735 -0.10436689
0000b0 7c bc 07 be e9 cd e1 3c d1 92 ca 3c ec 79 c7 bb
       -0.13255495 0.027564006 0.02472821 -0.0060875323
0000c0 07 74 f0 bc ba 8c 39 bd 5f c8 e9 3c 77 7f 2a be
       -0.029352201 -0.045300223 0.028537927 -0.16650186
0000d0 77 5a c3 bd 25 bd 44 3c 93 00 4d be 33 5d 04 be
       -0.09538739 0.012007986 -0.2001975 -0.12926178
0000e0 ec 87 da bb 20 43 81 bd f4 fd 70 be dd a3 1e be
       -0.006669035 -0.06311631 -0.23534375 -0.15492196
0000f0 53 2e 82 bd 89 92 cb bc 00 1d 36 be 4a 28 44 bc
       -0.06356492 -0.024850147 -0.177845 -0.011972496

a2c_network.value.weight f4 [1, 64]
000000 55 a2 bb 3a 75 59 99 3a 8c 70 2d bb 2c 1e bc 38
       0.0014315346 0.0011699634 -0.0026464788 8.9701585e-05
000010 29 51 20 3c 1c 80 ce 3a 50 8f f8 3b 39 85 e2 3c
       0.009784975 0.0015754732 0.0075854436 0.027651416
000020 ed 82 48 bc d5 a5 c0 bb 72 23 38 3f e2 0f 4e bd
       -0.012238246 -0.0058791437 0.71929085 -0.050308116
000030 55 b6 83 3b b6 3d 0e 3d 9e fb b6 bc b0 e5 10 3d
       0.0040195384 0.03472682 -0.022336777 0.035375297
000040 f6 3d d6 3e a2 1d 8e 3d a3 72 2e 3b 0f c4 c3 bc
       0.41844147 0.06939246 0.0026618622 -0.023897199
000050 ec 30 26 3b 90 ff 22 bb f8 4f 2e 3c 57 71 c7 bc
       0.002535875 -0.0024871565 0.010639183 -0.024346037
000060 c3 e5 fc 3b 6f 69 15 3f ae 34 1b bc 95 6b de bb
       0.0077178194 0.58364004 -0.009473009 -0.006787727
000070 49 b7 8f bc 74 25 b0 ba 39 5f 35 3b 66 d9 9b bf
       -0.017543452 -0.0013438896 0.0027675165 -1.217572
000080 71 51 8e 3e 5d 2e d0 3b 27 b0 7e be 5b cb 2e 3c
       0.2779651 0.006353183 -0.24871884 0.010668601
000090 36 b0 00 3c dc c6 a0 3b da 01 b2 3c db be 52 3d
       0.007854512 0.0049065184 0.021729399 0.051451545
0000a0 7d ed 82 3f 6d bd ad bc b5 08 1b 3c e2 ac fc 3b
       1.0228726 -0.02120849 0.009462525 0.007711039
0000b0 1d 12 1a 3c fb b0 a7 3b 60 c1 62 3b 5e c3 56 bc
       0.009403733 0.0051175333 0.0034600124 -0.013108103
0000c0 af b4 95 bb 4a 55 11 3a 26 b2 ee 3a f4 fb f8 3a
       -0.0045686583 0.000554402 0.0018211051 0.0018995986
0000d0 32 84 21 bc 7e 18 be 3a fc 4b 23 3c 48 3b 34 bc
       -0.009858178 0.0014503149 0.009966847 -0.011000462
0000e0 d0 8a 49 bd 41 66 1b 3c a6 21 9c 3c 5b 84 39 bc
       -0.049204648 0.009484828 0.019059014 -0.01132306
0000f0 30 93 8b 3a 87 ff 17 3b 67 2d 7a ba e1 6a 98 bb
       0.0010648724 0.0023193078 -0.00095435086 -0.004651413

a2c_network.mu.weight f4 [12, 64]
000000 d5 9c 98 bd 1f 3b 5a 3d 2a e5 1f bd a2 bd f0 3c
       -0.07451788 0.05327904 -0.039036907 0.029387299
000010 d7 b9 f4 3b 2a 3d 5a 3d 9d 37 39 3c 1f b9 a4 bd
       0.007468443 0.053280987 0.011304763 -0.080431215
000020 41 73 4c 3c 2e bd aa 3d f1 37 75 bc 09 ab c9 bd
       0.012478651 0.083368644 -0.014966951 -0.098470755
000030 e5 fa ec 3d 3a 41 1e 3c 1f a5 07 3d 5e 71 ff bc
       0.11571292 0.009659106 0.033116456 -0.031181987
000040 f3 b9 32 bd eb 4f ef bd 8d c8 29 bd c9 ba 2f 3d
       -0.043634366 -0.11685165 -0.041451026 0.04290274
000050 06 01 fb 3c 12 49 c7 3c 30 bc f0 bc 67 ac 0a bd
       0.030640136 0.024326835 -0.02938661 -0.033855822
000060 73 7b 23 3d f7 4f 9f 3b 1e 39 20 3b 08 c6 a9 bb
       0.039912652 0.0048618275 0.0024448107 -0.005181078
000070 aa d5 0a bc 02 1d 16 bc 3f db 53 bd 12 23 66 3b
       -0.008473793 -0.009162189 -0.05172276 0.0035116118
000080 55 2f 2d 3c c7 91 54 bc fb 81 66 bd 00 ac a8 bc
       0.010570367 -0.012974209 -0.056276303 -0.020589828
000090 c9 91 ef 3b 86 00 c4 bd 28 82 4a bd d5 8e f0 bd
       0.00731108 -0.09570412 -0.049440533 -0.11745993
0000a0 5b f8 8c bc c3 cc ce 3d 17 d4 11 bd 9e 2d 95 bc
       -0.017208269 0.10097649 -0.035602655 -0.018210229
0000b0 2c 56 4b bd 6f 7f 4b 3b d4 04 78 3c f0 7a 19 bb
       -0.049642727 0.0031051298 0.01513787 -0.0023419224
0000c0 a3 29 0d bd ba d5 54 bd 48 31 c2 3c e0 07 d6 bc
       -0.034463536 -0.051961638 0.02370514 -0.026126802
0000d0 f2 c6 7d bc 5f 80 ac 3c 9c 77 5d bd 58 30 92 3c
       -0.015489327 0.021057306 -0.054069147 0.017845318
0000e0 0d 95 ac 3b d2 1f 02 bd 35 d2 99 bd 98 54 a8 3d
       0.0052667917 -0.031768627 -0.07510797 0.0821926
0000f0 99 45 cb bc b1 85 40 be e5 cc b1 bd e4 ec c3 bd
       -0.02481346 -0.18800999 -0.08681659 -0.09566668
000100 90 8a 56 3c 82 02 fd bc 22 39 f7 bc ba 97 b2 3d
       0.013094559 -0.030884985 -0.03017861 0.08720346
000110 ba 61 69 3d bc 2a f3 3a dc 16 7b 3c 3e 6e 91 bd
       0.056977965 0.0018552165 0.015325274 -0.07101105
000120 1f 8f f9 3d b9 9d da 3c a4 1f ff bc bb 03 33 3c
       0.12185501 0.026686536 -0.031143017 0.010926182
000130 4b 33 48 3d 08 e0 ca 3c 6d f0 8c bd ca c4 68 3c
       0.04887704 0.02476503 -0.06881795 0.014207074
000140 49 8c 76 3b d7 d4 5b ba de 56 09 3d 7e c8 7e 3b
       0.0037620238 -0.00083859026 0.03353011 0.0038876827
000150 f2 75 21 3d 8a d8 08 3d 08 01 3e bd 6d 63 79 bc
       0.039419122 0.033409633 -0.046387702 -0.015221459
000160 cf f1 1d bd 87 c2 aa 3c 45 28 88 bb e5 85 19 bd
       -0.038560685 0.020844711 -0.004155191 -0.037481207
000170 df 44 85 bc d6 a0 12 3b 67 5c 10 bd f5 a4 c7 3b
       -0.016268192 0.0022373698 -0.03524437 0.0060926625
000180 87 b1 89 bd 63 73 45 3c 4f ae 53 3c 00 81 ff ba
       -0.06723314 0.012051436 0.012919976 -0.0019493401
000190 77 38 02 3c a9 32 7a 3a 03 b3 36 3e ec 9d f9 3c
       0.007948033 0.0009544292 0.17841725 0.03047081
0001a0 7a 85 7f 3b 63 15 bb 3c 0b 21 e4 bc 70 65 a1 3c
       0.003898947 0.022837346 -0.027847787 0.01970169
0001b0 0a b1 0b 3d f9 ad c9 3c 6e ba 07 bd 21 07 39 3d
       0.034104384 0.02461909 -0.033136778 0.045172814
0001c0 94 0b 64 bd 29 07 b6 bd e3 7b e0 bd eb bd e9 3c
       -0.055675104 -0.088880844 -0.109611295 0.028532943
0001d0 17 88 59 3d 22 a6 a8 bd e0 8f 7d bc 4b 2d 9c 3d
       0.0531083 -0.08234812 -0.015476197 0.076258264
0001e0 50 53 7d bb a4 ac 3a 3a 75 3b 38 bd 74 3e e0 ba
       -0.0038654394 0.00071210624 -0.044978578 -0.0017108456
0001f0 8a ba b5 bc f5 3c 6b bc 70 a6 67 bd c3 0e 50 bd
       -0.022183675 -0.014357795 -0.05655521 -0.050795328
000200 ca 28 26 3c 6d ef aa bd ef 3b 12 be d0 38 00 bd
       0.010141561 -0.08346448 -0.14280675 -0.03130418
000210 42 29 dc bd 1b 46 a4 bd 84 07 33 3d 2a 0b 83 bd
       -0.10750057 -0.08021184 0.04370834 -0.06398614
000220 e3 34 d2 3c 49 1f 85 3d be df d7 bc 97 be 98 3c
       0.025659984 0.06500108 -0.026351806 0.018645568
000230 95 ad 53 3d 55 51 d7 3b cd 5e b5 bb 4d 26 ce bc
       0.051679213 0.006570975 -0.005534983 -0.025164748
000240 b4 58 0c be 58 eb 6c bd a7 cd 31 3d 29 38 16 3c
       -0.13705713 -0.05784163 0.043409016 0.009168663
000250 b3 76 88 3c 9b 24 9d 3c 79 43 94 bb ee f3 3c bd
       0.016658163 0.019182494 -0.004524645 -0.046131067
000260 4f 06 c3 bd b5 05 d1 3d 16 cc 9e bc 29 19 84 3d
       -0.09522688 0.10206167 -0.019384425 0.064501114
000270 e7 71 f1 bb 47 74 4c 3c 6a 47 10 3c 4e 4b 6a bc
       -0.0073683145 0.012478895 0.008806089 -0.014300181
000280 31 e3 cb 3a 88 20 a7 bc 16 dd 67 3a e5 57 10 be
       0.0015555379 -0.020401254 0.0008844895 -0.14096029
000290 0c 6e 1a 3d 7e 12 2d be b3 9c 09 bd 07 d6 d7 bd
       0.037702605 -0.16901585 -0.033596706 -0.10538869
0002a0 98 26 c6 3c e6 e9 a6 3d 35 d1 0b bd b2 6c 1e be
       0.024188325 0.08150081 -0.034135062 -0.15471151
0002b0 d1 ba 3d 3d 67 ee a4 3d 16 35 0a be 7e 78 b9 bd
       0.04632074 0.08053284 -0.13496813 -0.09056185
0002c0 00 39 59 3d 4a 66 50 bb 6d ec ab 3d 04 9c d6 bd
       0.053032875 -0.003179925 0.08394704 -0.10478976
0002d0 b7 37 af 3d 78 4a 82 3d 35 86 fe bb 1d 36 38 3d
       0.08555549 0.0636186 -0.0077674636 0.04497348
0002e0 ae 9c 8b ba de 77 81 3c 89 b5 71 3c 21 ee 54 be
       -0.0010651553 0.015804227 0.014752754 -0.20793964
0002f0 85 73 96 3c 83 55 83 bc 28 69 97 3d 60 b0 a1 3d
       0.01836563 -0.016031986 0.07393104 0.07894969
000300 2c 0e e5 bc 1d 0f 84 bc 4a 5e 10 bc a8 ab d3 bc
       -0.02796086 -0.016120488 -0.008811543 -0.025838688
000310 ca 27 bf bd 2c 8e ad 3d 6c f9 ea 3c 5a a4 23 39
       -0.09333761 0.08474383 0.028683387 0.00015606117
000320 04 a4 22 bd 65 f4 58 3b 4d 4f 0c bd 94 6d 13 3d
       -0.0397072 0.0033104655 -0.034255315 0.035993174
000330 67 c2 12 3d 71 6b 82 bd e0 1f 05 3c 25 45 5a bc
       0.035829928 -0.06368149 0.008125275 -0.013322149
000340 ae a5 b1 3d 6c 8d 11 bc 0f f7 cc 3d d8 00 37 bd
       0.08674179 -0.008883815 0.1000806 -0.04467854
000350 a1 16 17 3c a1 81 f7 3c fc c9 e5 3b d5 15 b2 bc
       0.009221704 0.030213179 0.007012604 -0.021738926
000360 b0 63 9a bb 77 b5 a5 bc e7 fe 0e 3d a3 ee 14 3d
       -0.0047115907 -0.02022813 0.034911063 0.036360394
000370 5d e6 12 ba ae f1 d6 bc 79 66 9b 3b cd 8c f3 39
       -0.0005603785 -0.026238289 0.0047424403 0.00046453477
000380 44 56 b2 bd 61 a6 26 3c ca 4a c5 3c 55 4d a5 3d
       -0.0870786 0.010171504 0.024083514 0.080713905
000390 4b 5c ab bb 07 82 85 bd d0 99 62 bd 5a 4b ab 3d
       -0.005229508 -0.065189414 -0.05532247 0.083639815
0003a0 ef ea ad 3c 95 a7 0b bd 9b 93 82 bd 17 0f 21 3d
       0.02123019 -0.034095366 -0.0637581 0.03932103
0003b0 0a 16 8d 3c d3 54 03 bd 1c 7f 97 bb d2 5f 7c 3b
       0.017222423 -0.032063317 -0.004623307 0.0038509262
0003c0 8c 45 95 3c 35 83 ee bc 44 a2 a4 bb c4 3c 4a bd
       0.01822164 -0.029115299 -0.0050242264 -0.049374357
0003d0 9a 17 a3 3d ae 99 eb bd 00 dc 52 bd 24 72 f2 3d
       0.07963486 -0.115039214 -0.05147934 0.11838177
0003e0 3c 23 05 bd 74 9e aa bc 88 59 67 bc 47 24 08 bd
       -0.032504305 -0.02082751 -0.014120467 -0.03323772
0003f0 a8 84 a5 bb e5 d4 12 3a 7b a8 af bc f9 3b d8 3b
       -0.0050512142 0.0005601182 -0.021442642 0.006598946

a2c_network.mu.bias f4 [12]
000000 0b 35 44 3e 4c 89 3e be 74 64 e4 3d 92 d2 6c bd
       0.1916086 -0.18607062 0.111519724 -0.057818003
000010 7e 72 53 be 56 18 2a 3b d3 73 33 bd 05 53 a0 bd
       -0.20649144 0.0025954447 -0.04381163 -0.07828335
000020 aa b0 d4 3d 50 35 e3 3d a7 ef 88 bd 4f e0 54 bc
       0.103852585 0.11094153 -0.06686335 -0.012992932

exp_avg f4 [12]
000000 43 90 2f 38 56 da fc 39 c0 07 87 b7 a0 e8 32 38
       4.1857606e-05 0.00048227858 -1.6096863e-05 4.2655156e-05
000010 63 e8 da b8 a8 3e 35 37 65 9f bf b8 ff cc 9e b9
       -0.000104383354 1.0803029e-05 -9.137279e-05 -0.00030288842
000020 e3 69 47 39 30 a7 c5 38 6a 1d 01 ba 38 9a 20 39
       0.00019017565 9.424833e-05 -0.00049253425 0.0001531624

exp_avg_sq f4 [12]
000000 c7 a7 54 35 29 e6 42 35 4f 4e 48 35 45 83 71 35
       7.92203e-07 7.260556e-07 7.461976e-07 8.997052e-07
000010 fb 23 48 35 bd 11 3f 35 ab a8 41 35 6e 28 54 35
       7.4558164e-07 7.117886e-07 7.2143547e-07 7.903499e-07
000020 e4 a4 4f 35 e1 06 53 35 43 50 50 35 fe 07 62 35
       7.7353457e-07 7.8613635e-07 7.7602834e-07 8.420319e-07
