OmniIsaacGymEnvs/omniisaacgymenvs/runs/Naranjelio/nn/last_Naranjelio_ep_200_rew_-0.9808863.pth (torch, 672807 bytes, 36 tensors)

value_mean_std.running_mean f8 [1]
00000000: f83a 6cc9 1586 ebbf
-0.8601178106344767

value_mean_std.running_var f8 [1]
00000000: 771a cb08 1e98 863f
0.011032328265526232

value_mean_std.count f8 []
00000000: 0000 0008 00c0 8241
39321601.0

running_mean_std.running_mean f8 [48]
00000000: c19e edf0 89f1 a2bf e138 8e5a 55c1 c4bf
00000010: cd56 a541 3e32 e1bf af46 772d 399c c03f
00000020: cb5b 866a 8c12 abbf 6da5 5f20 6a9a 7cbf
00000030: a5cf 1aac 14fd aa3f b476 d1df f854 993f
00000040: 607d 120f 55e6 efbf 5d39 94c7 4c7e 53bf
00000050: ae5e 9913 4548 4fbf bed7 2a3a cb35 243f
00000060: e25f 2aa2 578e 85bf 96df bff9 a51f a3bf
00000070: a418 fc17 9334 283f 77d0 fbb5 87e0 a0bf
00000080: 1954 6772 6932 a4bf 5cd2 e77d 5584 a9bf
00000090: 2920 de52 b213 a9bf 2393 c791 1fbe 9fbf
000000a0: d8fb 3bdc b400 9e3f 34e0 4645 f1f0 653f
000000b0: 0801 45d1 22a3 ab3f 9f47 450d d00a 61bf
000000c0: 6dd3 c948 7c23 3abf aefc 6ce3 47f2 41bf
000000d0: 4045 eed0 c6e8 c3be ee73 c724 849a 40bf
000000e0: 62a5 2c3a ae6a 4abf 82d0 5ba6 6764 4cbf
000000f0: 28df 8f7f 6643 4dbf 00be d158 3562 97bf
00000100: 2a9c 1cfc 783a 4f3f 5773 77d5 0498 443f
00000110: 54fe 46fd cd80 553f 9932 e098 4411 c83e
00000120: 9cb6 2605 d2fc d83f 58ca 29e4 e6c4 e3bf
00000130: 6ccd 2a49 1720 c33f 913c e505 4d23 e0bf
00000140: 8053 ec20 0e0f debf 4c59 f858 7726 a5bf
00000150: fa7c 0697 a5d1 b5bf 0385 6a1c fcc3 c0bf
00000160: cd52 8efd d683 d83f 9280 f055 2922 b53f
00000170: f25b 7442 a4ab cbbf 330d 8a89 98c9 b4bf
-0.03699904504793273 -0.16215006753595332 -0.5373832018037433 0.1297675582887243 -0.05287588882782009 -0.0069831986965963435 0.05271210289848164 0.024738205586223486
-0.9968667311076551 -0.001189780216296641 -0.0009546601570020374 0.00015419107247332907 -0.010525402676009269 -0.03735083268833177 0.0001846723134734707 -0.03296302887420748
-0.03944711228874826 -0.049837752932863494 -0.04897839795654619 -0.030998700401954637 0.029299570028339023 0.0026783668820052012 0.05397900394973659 -0.0020803512108295698
-0.00039884361539259985 -0.0005476809518326819 -2.373371564564367e-06 -0.0005067010147815612 -0.0008061743468249889 -0.000866461382172293 -0.0008930445175101319 -0.022835572763538536
0.0009530153986120383 0.0006284736254503581 0.0013124477019203122 2.8690639686301158e-06 0.39043093207406243 -0.617785878783546 0.1494168383847908 -0.5043091883798231
-0.4696688958659294 -0.04130909882603592 -0.0852302068437786 -0.13098098170761582 0.3830468631870588 0.082552512627901 -0.21617558712816237 -0.0812011085309237

running_mean_std.running_var f8 [48]
00000000: 62ea 093c 6fa4 863f 66ce fcbd ce1e b03f
00000010: 20d9 051d 20d8 d83f b76c 7fe3 b821 a03f
00000020: 323a 84a8 99b3 753f 98ba 5a42 9ffa 303f
00000030: 4d03 ca63 8f6b 5c3f 6380 7523 4253 523f
00000040: 8cfe 2053 9501 eb3e d90d 5b2e 074f 1540
00000050: af69 2bae 4c58 f53f f27a eb82 e956 953f
00000060: 9218 fcc3 eac6 283f 3a91 3de8 9230 4d3f
00000070: b879 c05a eaea 833e cc87 a04e 93b1 4e3f
00000080: f852 5c79 c4fd 483f 1943 3657 9f3e 493f
00000090: 5bf8 6116 e35d 483f fbc7 6336 45aa 513f
000000a0: 0bfb 281f d71c 4c3f a03b a4e6 49bc c43e
000000b0: 0839 1090 06bb 4d3f 7309 e28f e0b5 b63e
000000c0: d295 0645 de88 d83e 3f06 7bd2 0956 f03e
000000d0: 01b6 f0ba 072b a13e a159 fa18 f5be e83e
000000e0: 4a32 c9cc e467 eb3e 8f6f b456 35d6 e13e
000000f0: cf56 b2b1 21fc d73e 98aa a66a 1a7b 533f
00000100: 4cfe 4851 7773 fb3e 3285 9801 9f7b 9f3e
00000110: c66e ea82 ae5a f03e 39f6 c65e 2002 af3e
00000120: ac1e d52a 46a5 db3f 6134 89b0 1bf2 d03f
00000130: d58e cbc2 a430 dd3f 506d 1a8c 722a d63f
00000140: baf7 11cb c7d1 d33f f3ed 7d71 8135 db3f
00000150: 9e2a 1bbb be0a db3f 8b63 10bf 7553 dc3f
00000160: 30b2 5469 24a5 d73f acc5 7b26 f39e dc3f
00000170: 4b9b 3274 5f80 dc3f 7056 d446 7a76 db3f
0.011055821437584604 0.06297008646361632 0.38819125017416134 0.03150728013107467 0.005298233249290395 0.0002590788666151727 0.001734628705122715 0.0011184831508544095
1.2877552396983108e-05 5.32717583113432 1.3340575030802986 0.020839356055939846 0.000189033658891617 0.000890800220514388 1.4839797069037587e-07 0.0009366959832315335
0.00076267331562238 0.0007704046278594639 0.0007436140847543281 0.0010781932738237454 0.0008579302214640495 2.47186453806261e-06 0.0009073049587884638 1.3536487695480896e-06
5.849514380794909e-06 1.5579306959839645e-05 5.116488547334746e-07 1.1799777694759829e-05 1.3068120460557213e-05 8.505225841441508e-06 5.718443186660765e-06 0.0011890180563606575
2.6179351225728752e-05 4.691316931333688e-07 1.5596604664310278e-05 9.241195449355547e-07 0.4319625299726606 0.2647771095260563 0.4560939695640916 0.3463407867618189
0.3096789820773399 0.42514072497553385 0.4225308253486818 0.4425939908847389 0.3694544819470904 0.44720152624276 0.4453352579825391 0.42910630146921047

running_mean_std.count f8 []
00000000: 0000 0010 00c0 7241
19660801.0

a2c_network.sigma f4 [12]
00000000: 13d9 3ebf 0e35 7ebf 840d babe 70ad 64bf
00000010: 52c0 36bf dd48 fabe cc20 13bf 3043 e6be
00000020: e51f 32bf f4f1 c9be e3c7 fbbe 105e 19bf
-0.7454998 -0.99299705 -0.36338437 -0.89327145 -0.7138721 -0.48883715 -0.5747192 -0.44973135
-0.6957992 -0.39442408 -0.4917594 -0.59909153

a2c_network.actor_mlp.0.weight f4 [256, 48]
00000000: 185b edbd cb80 0abd 1338 dbbd 9c0d 9fbd
00000010: 63cb 3cbd 8505 db3b b4d7 debd 7cb4 dd3d
00000020: fdd6 4fbc 882a 1fbf 3926 7bbe 7022 e0bc
00000030: 7df6 a7bd 3560 f63d 0974 903d 59cc d6bc
00000040: 5989 1a3e 55fa fa3d 9a10 35bd fb45 9e3d
00000050: 1ca2 9dbe 974d f4bc 8224 dfbd edcb ff3d
00000060: 2e3a 9abd 4f4f 6e3d 60e8 833c 031c 6f3c
00000070: ea5f 343c 6fde 43bd a473 673d 58a7 48be
00000080: c272 e7bd eea6 2dbe 266a fdbd d751 d13c
00000090: c235 1c3e 0ad8 323c a623 d6bc 0137 0abd
000000a0: 29a7 c73d 3bef ee3d 62bc 6f3c 08fb 403e
000000b0: 8a18 273e 1378 3ebe 7e72 5fbd 33de e9bd
000000c0: 4401 d0bd c146 ab3d 5ddf 353e eae3 68bb
000000d0: 63b2 2cbe 0465 e73d 8edf 85bd 119c 24be
000000e0: ed26 f6bc 2c8c 37be 948c 8abb e6a2 0c3e
000000f0: c408 a53c a480 b3bc 353f 01be 663f 7e3c
00000100: d2e6 0f3d 0f85 d53c 1921 873c f563 c23d
00000110: 4e02 413e d00b 903d f6b6 1e3e 20b3 863d
00000120: c805 ff3c 5bd7 16be f609 ab3d 5949 1abe
00000130: 2c19 d7bd 9af1 aa3d 38c8 f3bd a27c a43d
00000140: 17d0 e0bc bc2c eabc d72f 9c3c 9362 f1bb
00000150: 04b1 4d3d 9283 c93a 2831 9a3c e703 813d
00000160: acf8 033e 3568 9bbd 10f6 f4ba 52e4 b4bd
00000170: 12f9 3c3d 946e c73d 6f82 65be 5978 73bd
00000180: b6c8 00be fb15 353e aed4 63be b9ae b43a
00000190: f914 be3b fdfc 5dbd ac7a 093c e533 16be
000001a0: 2f53 c0bd c70e e0bd 9c16 1fbe 005d 98bd
000001b0: 39b5 a53c 9f87 31bd 9d98 613e 5214 ef3d
000001c0: 5666 3a3d 8ca5 dbbd e5f5 fbbd 352e febc
000001d0: 4826 a53d 030d 82bc 8d86 ef3d 7b24 03be
000001e0: eede cdbd d581 833c 7933 5dbd a619 69bd
000001f0: 9a07 053d e384 fdbc 28b4 f7bc 8654 b83d
00000200: 0334 4abd 54ce e3bc be52 9739 9483 1dbe
00000210: 300e 52bd e95d 073b 80e7 a2bc 6cad 033d
00000220: 58d9 b9bd 9d31 28bd 0cb5 273e 9311 6dbd
00000230: 0b05 4abd 77d2 603c 0ab8 e13a 00f5 c73c
00000240: a3d4 3ebe 9852 af3d 554f 463e 0554 a0bd
00000250: 4f6a 083e 812e 173e 5b44 85bd 09d0 bdbc
00000260: 1703 863e 3dfe 1abe 19af 883d 1b0d 403e
00000270: 9844 f53d 810f ebbd c261 bb3e 9593 013e
00000280: 651b b53d 0f8c a5bd 2376 fa3d 9cb5 0d3e
00000290: cd40 a53d c8cb 0b3d 0c1f 43bc 480d 5ebd
000002a0: 6310 18bc 85ac eebd ea2d 73be a4fb dfbb
000002b0: 37f2 3b3c 48b8 37bd fa6d a3be 675d d5bd
000002c0: 5b1c 203e 4027 e63d 11bf ee3c 5822 883d
000002d0: 699a f3bd faba 593d 83bd a0bd 8e8f 233d
000002e0: 44c2 ac3d 7bf5 f13d d928 c13c ebd1 663d
000002f0: f03c 88bd 83a5 52bc a190 ebbd ca86 8e3e
00000300: 00b1 fabd 091c 593d 47d4 d2bc f495 9c3d
00000310: 5f79 ecbc dbb8 d73d 6168 623e 280d 3ebe
00000320: 7205 b9bd e75b 70bd 133a 1c3e f699 77bd
00000330: fc8f 9d3d ce47 b93c 850b adbd 5391 063e
00000340: 70e7 e5bb 20a3 04bd a83b 8b3c 48b4 52bd
00000350: 1a9f cb3d 2687 25bd 2fbc 243e 6661 0dba
00000360: 3c13 ea3d be49 25bd e007 07bc b29d 7cbd
00000370: 2789 123e 69ac c13d 4d79 d3bd 2205 a43d
00000380: 8279 5cbc 321c 1bbe 7f50 17be 7150 623d
00000390: 441d bf3d 9d7f 873d a460 9d3d 3bcf babd
000003a0: d79c 80bd 12d6 833a c082 fc3d f5b5 ecbb
000003b0: 27ec c43d d95b 89bd 2720 a8bc 9cbc c53d
000003c0: f660 48be b828 273e 9a9d d03e 6051 e93d
000003d0: 2d93 e9bd 6446 f03d 21a2 d93d 5cba 413d
000003e0: 9265 5ebe 7238 38bd ad27 34be 323a 87bb
000003f0: d8d9 b33d ee6b b2bd 3d54 08bf 6fec b6bc
-0.115896404 -0.033814233 -0.10704055 -0.07766268 -0.046092402 0.0066840076 -0.10880986 0.1082544
-0.012685535 -0.6217427 -0.245263 -0.027360171 -0.08201311 0.12030069 0.07053382 -0.026220487
0.15091456 0.12254778 -0.044205286 0.077281915 -0.30787742 -0.029822154 -0.10895635 0.12490068
-0.07530628 0.058181103 0.016102016 0.014594081 0.011009196 -0.04781955 0.056506768 -0.19595087
-0.11301185 -0.1695821 -0.12373762 0.02555172 0.15254882 0.010915766 -0.026140045 -0.033743862
0.0974868 0.11666723 0.014632316 0.18845761 0.16317955 -0.18600492 -0.054552548 -0.11419334
-0.101564914 0.083631046 0.17760988 -0.0035536238 -0.16864924 0.11298564 -0.0653678 -0.1607516
-0.030047858 -0.17924565 -0.004228184 0.13734016 0.020145781 -0.021911927 -0.12621768 0.015518045
0.035132237 0.026064424 0.016495274 0.094917215 0.18848535 0.07033503 0.15499482 0.06577134
0.031130686 -0.14730589 0.08351509 -0.15067042 -0.10502848 0.08346863 -0.11903423 0.08031584
-0.027442975 -0.028585784 0.01906578 -0.0073664873 0.050217643 0.0015374294 0.018822268 0.062995724
0.1288783 -0.07588235 -0.0018689055 -0.08832611 0.04613597 0.09737888 -0.22413038 -0.059440944
-0.12576565 0.17684166 -0.222491 0.0013784982 0.00580084 -0.054196347 0.008391064 -0.14668234
-0.09390866 -0.109403186 -0.15535969 -0.07439613 0.020228015 -0.04334223 0.22030874 0.11673798
0.04550775 -0.10724935 -0.1230276 -0.031027893 0.08063942 -0.015875345 0.116955854 -0.12806885
-0.10052286 0.01605312 -0.054004166 -0.056909226 0.032477953 -0.030947154 -0.030237272 0.090004966
-0.04936601 -0.027808346 0.00028862612 -0.15382224 -0.05128306 0.002065534 -0.019885778 0.03214781
-0.09074658 -0.04106294 0.16377658 -0.05787809 -0.049321216 0.013722054 0.0017220986 0.024408817
-0.18635802 0.085606754 0.193662 -0.078285255 0.13321804 0.14763834 -0.065071784 -0.023170488
0.26174232 -0.15136047 0.06674022 0.18755 0.11975974 -0.114775665 0.3659802 0.12653954
0.08843116 -0.08083355 0.12229564 0.1383881 0.080690004 0.034129888 -0.011909258 -0.054211885
-0.009281251 -0.11653999 -0.23747984 -0.006835418 0.011471323 -0.04485348 -0.31919843 -0.10418206
0.15635817 0.11237955 0.029143842 0.066471756 -0.11894686 0.05315683 -0.078486465 0.039931826
0.08435491 0.118144 0.023579048 0.056352537 -0.06652248 -0.012856844 -0.11502195 0.2783721
-0.12240791 0.053005252 -0.025735987 0.07645789 -0.028866468 0.10533305 0.2211013 -0.18559706
-0.09034242 -0.058681395 0.15256529 -0.060449563 0.076934785 0.022617247 -0.08449463 0.13141374
-0.007016115 -0.03238213 0.01699622 -0.05144146 0.099424556 -0.04041209 0.16087411 -0.00053932366
0.1142945 -0.04035353 -0.008241624 -0.061673827 0.14310132 0.09456713 -0.10325871 0.080087915
-0.013456704 -0.15147474 -0.147768 0.055252496 0.09331754 0.06616137 0.07684448 -0.09121557
-0.06279915 0.0010058305 0.12329626 -0.0072238394 0.09615355 -0.06706972 -0.020523144 0.09655115
-0.19568238 0.16324127 0.4074524 0.11392474 -0.11405025 0.11732176 0.10626627 0.047296867
-0.21718433 -0.044975705 -0.1759326 -0.0041268105 0.08781785 -0.08711992 -0.5325354 -0.022329537

a2c_network.actor_mlp.0.bias f4 [256]
00000000: a6cf d1bd 9d81 433e f708 483e e9a9 2d3e
00000010: 9637 783e 3307 4b3e d31e 433d 4f2e 473e
00000020: 1622 343e 5a79 243e fe42 883d 1751 503e
00000030: 1625 a5be ace2 cf3d 1777 543e c9ab 8b3e
00000040: d7ef 613e e78f b93d 2530 573e b92c 73be
00000050: 7c75 013e 96b9 9e3e 061a 06be 03c9 2e3b
00000060: 40bf 663e 4564 bb3d d6ed 583e c178 3b3e
00000070: 8def 273e a244 0bbd 8384 023c a5c6 4f3c
00000080: ae1b 523e bdb3 26be 97c6 67bd 373d d73d
00000090: c3a0 c83d 5ab0 ee3c 04e8 a83c 9ac3 a03c
000000a0: 6cdf f73c 48f8 383e 5f8a 543d e8f5 523e
000000b0: 989d aebd a7a0 6d3d d4ab 9d3d 36f8 44bd
000000c0: 163c 823e 72f6 903e c04b 283e be55 9ebd
000000d0: 22e1 1e3e ec10 8abd 6e2b 2dbe 884d 6f3e
000000e0: f6f7 553e a15e 913d 89be d43d 09df 5c3e
000000f0: 065a 1e3c b0dd ed3d c823 be3d ec4e b9bd
00000100: 6930 efbd 574e 2dbe f0b7 333e eb1f 81be
00000110: 6dff d33d 7ed7 293e 9d11 823e 7e8b e9bc
00000120: b033 22bd 409e 89bd c6ce 8f3c 0174 d43b
00000130: b426 4b3e 94e2 3f3e a514 2d3e 3dc5 863d
00000140: 642f 7b3e ce9b df3d f252 633e be78 533e
00000150: 8f16 5bbd 77a9 7d3d e78b fe3d d0fb 5b3e
00000160: 24ef 873e c513 3c3d 4499 523d eeb1 443d
00000170: a213 473e ca4f 943e 8f34 bb3d dc03 72bd
00000180: 0078 453e a2ce 683e ac60 573e 6440 babd
00000190: 8ede 4a3e cc0e f83d 44b5 b23d c080 293e
000001a0: ccc3 953e c50e c93d 1efa 823e 54fa 883d
000001b0: 0921 643e ed2c cd3a b53d b2bc 66e5 a8be
000001c0: 7d0e 4abc 15a1 663e 3780 b63d 7ef4 313e
000001d0: 5dfc 47bd 60fc 733d 8302 473e ad5c 883e
000001e0: 9c8d ae3d cf19 933d c06e 533e 6e44 c7bd
000001f0: f188 4e3e 216b b73d c9e1 70bc a5ac a33d
00000200: a6e3 6f3d 5355 423e 0d1e 2b3e 4ea6 8b3e
00000210: af2a 593e d2c9 5d3d 407a 03be 5aba 3abe
00000220: 16ae 8a3e e64c c83d 1167 6a3e 0fe6 bfbd
00000230: 8050 663e 49c8 fb3d e2a7 893e 3988 943d
00000240: 4131 f6bd f751 943d 6956 1c3d 779c b83e
00000250: ec20 953d 4f11 883e e14b f43c e530 043e
00000260: dc27 f43d 608d 4f3d 2489 9c3e 14f5 e23d
00000270: c91b 823e fc7e 2abe 4557 e83d b11a bf3d
00000280: 6c59 29bc 7519 023e 34e3 5bbe 76af 393e
00000290: fc78 1b3d c432 4a3e 7820 42bd 0fee 203e
000002a0: 8af1 203e 4c1b bc3d 3fcb da3c 3651 69be
000002b0: a406 453e d109 8e3e e604 7b3e 4bc4 5d3e
000002c0: 5e04 983e 0bba febd 3f80 4ebe 7b0c 673e
000002d0: 9dfd f9ba 7589 ed3d 7230 90be d264 2f3e
000002e0: e58f 673e edee c73d b936 8dbe 1920 84be
000002f0: 1dbf 203e 3405 743d d8dc dcbc 1043 9c3d
00000300: 91f5 033d 096b b13e a8de 3a3e 4002 8f3d
00000310: f2dd a63e f8a0 78be afa8 b23d f49f 903d
00000320: d624 663e 8e02 843e 897b 9b3d c26b 8c3d
00000330: df01 243d 2b29 f83d f461 f53c eaac cdbe
00000340: 06e1 053e a4c4 8cbe 26b7 d03c 26ba 9f3e
00000350: 5f92 173e 7cd4 58be 4d21 80bb 1c3e 533e
00000360: 6439 0abd 6cdb 5b3d 6b11 5fbc 2dc0 733e
00000370: 755c 003e 54a7 67bd 94ca 673e 118c 8f3e
00000380: 1de5 863e f1eb 3a3e 0004 953e d152 d3bd
00000390: 7719 3d3e 71a2 203e ac80 963e e352 953e
000003a0: 8e45 8a3d 2d77 433d 0ece 3b3e 2976 6cbe
000003b0: c48d debd 2ee8 25bd bd5f 233e d4f8 6b3e
000003c0: 32d7 d03d c9f5 c43d 179e f73c 1d3d 803e
000003d0: 4df4 433e 2a43 823e c93c 743d 7c45 b23d
000003e0: c63a 41be 54ef fd39 9cc9 66bd f293 aebd
000003f0: 039e 193e e5e1 183e 5c46 a3bd febb 263d
-0.10244684 0.19092412 0.1953467 0.16959347 0.24239954 0.19826965 0.04763682 0.19451259
0.17591128 0.16061917 0.06653403 0.20343433 -0.32254857 0.10150656 0.20748554 0.272795
0.22064148 0.0906065 0.2101446 -0.23747529 0.12642473 0.31000966 -0.13095865 0.0026670105
0.22533894 0.09149984 0.21184477 0.18307783 0.16399975 -0.034001 0.007966164 0.012681638
0.20518371 -0.16279502 -0.056585874 0.10509723 0.09796288 0.029136825 0.020618446 0.01962452
0.030257903 0.18063462 0.051889773 0.20601618 -0.08526152 0.05801454 0.07698789 -0.048088275
0.25436467 0.28313023 0.16435146 -0.07731198 0.15515569 -0.06741509 -0.16911098 0.2336942
0.20895371 0.07098127 0.10387904 0.21569456 0.009665018 0.11614549 0.092841685 -0.09048256
-0.116791554 -0.16924416 0.17550635 -0.25219664 0.10351453 0.1658611 0.25404063 -0.028508898
-0.039600074 -0.06719637 0.017554652 0.0064835553 0.19838983 0.18738776 0.16902407 0.06580589
0.24529797 0.10918389 0.2219961 0.20651528 -0.05348831 0.061929192 0.12429028 0.21482778
0.26549637 0.04591729 0.051415697 0.04802125 0.19441083 0.28967124 0.09140884 -0.05908571
0.19284058 0.22735074 0.21032971 -0.09094313 0.1981146 0.12112197 0.0872598 0.1655302
0.29250944 0.0981727 0.2558145 0.06688371 0.22278227 0.0015653648 -0.02175794 -0.32987517
-0.012332556 0.22522385 0.08911174 0.17378423 -0.048824657 0.059566855 0.19434552 0.26633206
0.085231036 0.07182657 0.20647717 -0.09729849 0.20169427 0.0895598 -0.014702269 0.07991914
0.05856671 0.18977861 0.16710682 0.27275318 0.21207689 0.05414755 -0.12839603 -0.1823515
0.27085942 0.09780292 0.22890879 -0.09370052 0.22491646 0.12294061 0.26885897 0.07252545
-0.12021113 0.07242196 0.038168345 0.36056873 0.0728167 0.26575705 0.029821338 0.12909277
0.11921665 0.050671935 0.3057338 0.11081901 0.25411823 -0.16650003 0.1134477 0.09331263
-0.010336261 0.12705024 -0.2147339 0.1813334 0.037957177 0.19745928 -0.047394246 0.15715812
0.1571714 0.09184894 0.026708243 -0.22784886 0.19240814 0.27741864 0.24513587 0.21656911
0.29690832 -0.12437829 -0.2016611 0.22563355 -0.0019072775 0.115984835 -0.2816196 0.17128304
0.22613485 0.09762368 -0.27580813 -0.2580574 0.15697904 0.059575275 -0.026960775 0.07629979
0.032216612 0.34651974 0.18248999 0.06982851 0.32591206 -0.24280155 0.0872358 0.07061759
0.2247499 0.257832 0.07591922 0.06856491 0.040040847 0.12117227 0.029953934 -0.40170985
0.13074121 -0.27493775 0.025477957 0.31196707 0.1480193 -0.21174806 -0.0039102198 0.20629162
-0.03374614 0.053676054 -0.013614993 0.23803778 0.1253527 -0.05655606 0.22635871 0.2803655
0.26346675 0.18254067 0.29104614 -0.1031853 0.18466745 0.15686966 0.29395044 0.291648
0.06751548 0.047721077 0.18340322 -0.2309195 -0.108668834 -0.040504627 0.1595449 0.23044139
0.10197295 0.09617192 0.03022675 0.25046626 0.19136162 0.25441867 0.05962828 0.08704659
-0.18870077 0.00048434234 -0.056344613 -0.08524312 0.15001683 0.14929922 -0.07972404 0.040706627

a2c_network.actor_mlp.2.weight f4 [128, 256]
00000000: 86ea 9e3b c62b 7dbd 8327 eebd 5503 26bd
00000010: ffb6 36be 68b1 963d 0a46 803d ec5d 74bd
00000020: 5042 b3bd c327 cabd 0547 243e 4956 d1bd
00000030: d6d8 0a3e 53c6 223e 4f06 453d 1993 3b3e
00000040: 2826 1fbe 3ceb 823d c954 1bbe fc15 573c
00000050: 1751 103d 0800 21be 8653 b33b c2b8 7cbd
00000060: 4518 3b3c be16 b63c ee44 d0bd 3b6e e93d
00000070: e3cf 81bd 202d 75bd b523 a13d 6e6b 98bd
00000080: f923 4f3e 3c43 b2bd cc22 793c 63ee 10be
00000090: eeb2 d7bc 251c 3cbd 8b49 3a3d 23ef fcbd
000000a0: fde3 d13d 2dc0 f83d 98c9 593d 6325 54be
000000b0: d520 553d 23a9 84bb b4b2 fdb9 eeef b23d
000000c0: 522f 2e3d d6d1 e0bb 0947 643c 190e 4cbe
000000d0: 2cbb 17be 4639 3c3e 41df 12bd d39c febd
000000e0: 63a8 24bd 6d28 d5bb b191 753d 6fff ec3c
000000f0: 9e1b 7bbc cc64 fc3d 1909 af3d de76 363d
00000100: 67a4 a4bd aec6 883d 3ceb 3bbd 6c85 20bd
00000110: 8352 63bd d269 0abe 6d7d 913c 8bb0 093e
00000120: c61a 213c cee3 be3c a2d8 0b3e b360 83be
00000130: 7cc4 f33c f1e7 a3bc e70d c1bc 9b73 e8b9
00000140: 5aae a9bb 0e05 363d 8646 cc3d 91c7 6abb
00000150: 2da0 3b3d 850b d8bc 0095 913d 9c70 123d
00000160: 2d49 f7bc b76e 8abd 80ef 1dbe 4a78 883c
00000170: d909 7e3d d605 8dbd 03ce 853c 4dd2 883d
00000180: 080a 3ebc 3649 2bbd 71a1 ca3d 27bc 2e3e
00000190: 2e70 0bbe a244 2c3d 116d d53c 1dad 13bd
000001a0: f956 fe3d e49e 16be cf9f c7bc cc48 3e3c
000001b0: 4c45 7abd 9e2d b1bd a070 26be 86db d4bd
000001c0: 7f03 1c3e 607b 2a3e 5f7c 163d d5fa 34be
000001d0: dd60 0dbe e702 b73c a0f0 12bd d5f3 c2bd
000001e0: 1bd7 bebd ed1d 8b3e 1baa 89bd 9f36 9fbd
000001f0: 08d7 b0bd 05f6 1dbd 020d 12bd 154e e83c
00000200: c8b2 1abd 4e7f 35bd bed7 02be de8d f03c
00000210: b9f7 46be 6f0c 333d 8a82 2fbd 882d 433c
00000220: 98f7 4cbd 9030 36be 7969 4f3d e086 a53c
00000230: 8d68 1bbe c3a2 99bd 0ff0 0cbc 52f5 993d
00000240: ac25 a4bd 9946 a2bd 5a65 b6bd e30d 4c3d
00000250: 3561 b3bb 2ac2 8abe a097 a63d 0b04 0abe
00000260: ba35 a5bd 8622 92bd 4324 de3d c61e 87bc
00000270: 50d5 6a3d c2c9 b63d 7d6f d6bd 857c 82bc
00000280: 938c bebd 7e41 fc3b ad0a f1bd 8beb 11bc
00000290: ab5d 1c3e 997b ffbd cf49 71bd d50a 2ebd
000002a0: 0a5d 453e 57c9 f3bc 3ef7 debc 3000 883d
000002b0: b368 f4bd c99a 44be fcef e4bd 0f0f c5bd
000002c0: 92d9 a5bd f20b 38be 4cfe 513d e354 50bd
000002d0: 70dc 00be 7488 26bd 54a4 a5bd 63b2 363d
000002e0: 663a c73c 50fa 2e3e e380 fa3c 549c bb3d
000002f0: be71 1b3e 282f 8b3d 72c6 bebc ae2c f93c
00000300: a699 023d 4390 443e 01a9 91bd 4dbd 17be
00000310: 4ac2 693c 40fc 63be 0209 49bd 1994 4b3d
00000320: ff8e e3bd 3872 9dbd e76b 73bd a975 0fbe
00000330: 038a b8bc 730a de3c 70b5 61bc 7d3a 913a
00000340: 1ddc 953d 3c92 ddbc 0b52 9b3d bd0b 6abd
00000350: 4b63 1ebe 8aeb d63c 3a64 833d 3261 46be
00000360: c6a4 c83c c14c a83d 1a2f e7bd cade 99bd
00000370: bb1a ca3c fa7f 313d c7bb cc3d f22b 303d
00000380: f8f8 703d 6e1d 913d 6c8d 2abe e2cc 833d
00000390: 9d3a aebd eebc 28be 724b bdbd 86d7 8e3e
000003a0: a290 423d 4ca0 723e bbe9 d43c bd86 fabc
000003b0: 71a3 c93d 5260 ce3d c5c9 01be b919 173d
000003c0: 23c5 85be 8b44 b7bd d31d e6bd c03a 913c
000003d0: 33a6 243e 3771 91bd d83d 4c3d afa1 8ebd
000003e0: dd31 ae3d 8a31 813c 7162 1cbe 50c2 683d
000003f0: b817 a6bc d089 e13c 678a c53d 7b91 233e
0.0048497347 -0.061809324 -0.1162863 -0.04053052 -0.17843245 0.07358056 0.06263359 -0.059659883
-0.087528825 -0.09870865 0.16042717 -0.10221536 0.13559279 0.15895967 0.04810172 0.18317832
-0.15541899 0.06392524 -0.15169062 0.0131278 0.035233583 -0.15722668 0.0054726033 -0.061699636
0.0114193605 0.022227641 -0.10169397 0.11397978 -0.06338479 -0.059857488 0.07868139 -0.074423656
0.20228566 -0.0870423 0.01520605 -0.14153437 -0.026330438 -0.04592528 0.045480292 -0.12350299
0.102485634 0.121460296 0.05317077 -0.20717387 0.052033264 -0.004048483 -0.00048389065 0.08737169
0.042525597 -0.006860952 0.013932952 -0.19927253 -0.14817494 0.18381223 -0.035857443 -0.124322556
-0.04019965 -0.0065050633 0.059953395 0.028930394 -0.015326409 0.12323913 0.08546657 0.044546954
-0.0803917 0.0667852 -0.045878634 -0.03918974 -0.05549861 -0.1351693 0.017760003 0.13446252
0.009833043 0.023301985 0.13656858 -0.25659713 0.029756777 -0.02000806 -0.0235662 -0.0004433662
-0.005178255 0.044438414 0.09974389 -0.0035824517 0.045807052 -0.02637268 0.071084976 0.035751924
-0.03018626 -0.067593984 -0.15423393 0.01665892 0.06202111 -0.06885879 0.016333586 0.06680737
-0.011599071 -0.041817866 0.09894074 0.17063962 -0.13617012 0.04205764 0.026052983 -0.036053766
0.124189325 -0.1470905 -0.024368195 0.011614036 -0.061101243 -0.08651279 -0.162539 -0.10393433
0.15235709 0.16648626 0.036739703 -0.1767381 -0.13806482 0.022340251 -0.03587401 -0.095191635
-0.09318372 0.2717127 -0.06721898 -0.0777409 -0.08634764 -0.0385647 -0.035656936 0.028357545
-0.037768155 -0.04431086 -0.12777612 0.029364523 -0.19430436 0.04371303 -0.0428491 0.011912711
-0.05004081 -0.17791963 0.050637696 0.020205915 -0.15176602 -0.075017475 -0.008602156 0.07517494
-0.08014998 -0.07923622 -0.0890605 0.04981793 -0.0054742345 -0.2710126 0.08134389 -0.13478105
-0.08066888 -0.07135491 0.1084676 -0.016494166 0.057332337 0.08925201 -0.104704835 -0.015928516
-0.09304156 0.007698237 -0.11769614 -0.0089062555 0.15270106 -0.12474746 -0.05890828 -0.0424908
0.19273773 -0.029759092 -0.027217504 0.06640661 -0.11934032 -0.19199671 -0.11178586 -0.09622013
-0.08098139 -0.17973307 0.051267907 -0.050862204 -0.1258409 -0.040657476 -0.08087984 0.044603717
0.024319839 0.17087674 0.030579036 0.091606766 0.15180108 0.06796104 -0.023287985 0.030416813
0.03188481 0.19195656 -0.07112313 -0.14818306 0.0142675135 -0.22264194 -0.049080856 0.049701784
-0.11111259 -0.07687801 -0.059429076 -0.14009728 -0.022526747 0.027104592 -0.013776168 0.0011080053
0.07317374 -0.027047269 0.07584008 -0.0571401 -0.15467565 0.02623536 0.06415601 -0.19373015
0.024492633 0.08217765 -0.11288281 -0.07513197 0.02467095 0.04333494 0.09996753 0.04301066
0.058831185 0.070856914 -0.1665551 0.06435563 -0.08507273 -0.16478321 -0.09242906 0.27898806
0.047501214 0.23693961 0.025990358 -0.030581826 0.09845627 0.100769654 -0.12674625 0.036889765
-0.26126966 -0.089486204 -0.11236157 0.01772821 0.16079025 -0.07101672 0.049863666 -0.069644324
0.085056044 0.015770692 -0.15271927 0.056825936 -0.020274982 0.027531534 0.09645539 0.15973465

a2c_network.actor_mlp.2.bias f4 [128]
00000000: 5274 d43c 3742 8d3d 2960 8b3d a855 143e
00000010: 5d5b 0ebe 666c 913c baeb 193e 8a4a d5bb
00000020: a280 843c 6899 453d 6263 393d 0681 d03b
00000030: ae53 36be dcb9 9ebd a924 cdbd 6c17 8cbc
00000040: c60c e3bd d4bf 6abd 6c6d 0c3d 1561 7e3c
00000050: 8eae 243e aa59 a4bd cf4b 2bbd b01d 5fbd
00000060: 65d1 4fbd 6cbb c7bd 5a11 f03d a86c d1bd
00000070: 2785 623d 2a87 75bd c4d5 86bd 5c81 043e
00000080: 9bde 67bb 8458 e4bd 9fcb cd3d 8214 703d
00000090: 0835 223e 723b 163d f6b9 fcbd f9c8 893b
000000a0: eed3 cb3d 0831 29be 0f06 7e3c 0ab4 25be
000000b0: b5b0 f8bd ea4b 21be beba b9bd d9b6 473d
000000c0: aeee 26be 22ac fdbc 7483 ae3d 4e96 44bd
000000d0: a8f0 913d 2c84 4fbe 1638 97bd 5f6a 5bbd
000000e0: 71a6 3dbd 61c1 e7bc 0ece 9dbe cc68 253e
000000f0: 79b1 28be 8f02 bc3d 6765 643d 7fdc 6d3d
00000100: 0955 403d a9af 80be 4bda 653d 2b05 183c
00000110: ddd6 d03d fc4d 4c3e f8a7 323d 8250 82be
00000120: a4d1 033d 074c 35be 7f94 81be 7163 01bd
00000130: e37e 6abd 10a2 fb3d 1750 673d 4d1a a1bd
00000140: 5186 213e 9ad6 313e c1f7 03bd 40cc 1c3b
00000150: eccd 01bd 1f71 83bd 91a6 b73d fc2e b43d
00000160: 4b3e 073d 38c0 823b fc5a 74be 60f5 a8bd
00000170: a182 9e3d 6201 1d3e 7e26 7cbe 4a0e c6bd
00000180: 654d bf3b 67df 63bc 3806 efbd e613 14be
00000190: 1af5 39be a8bf e2bd f0f9 dc3c 89b0 c43d
000001a0: d062 11bc db38 a2bd a7c6 803d 33c1 d2bc
000001b0: 1b35 24be 7e56 3bbe 601e b73b 0e86 b8bb
000001c0: f173 b2bd b89c cabd 4153 a2be 0be1 40be
000001d0: e826 963d 3763 0cbe 1df3 7fbe ee87 12be
000001e0: 4584 aebd f2e7 09be 393d d23d 4e20 32bb
000001f0: 927d 133d 2818 d43d b1a1 c83d 30e2 7bbe
0.025934372 0.06897395 0.068054505 0.144858 -0.1390204 0.017751884 0.15031329 -0.00650913
0.016174618 0.048242003 0.045260794 0.006363037 -0.17805359 -0.077502936 -0.10016758 -0.017101012
-0.11086421 -0.057311848 0.03428404 0.015526076 0.16082212 -0.080249146 -0.041820344 -0.05447167
-0.050736804 -0.09752545 0.117220595 -0.10225803 0.055302765 -0.059943356 -0.06583741 0.12939972
-0.0035380486 -0.111496955 0.10048603 0.058613308 0.15840542 0.036677785 -0.12340157 0.004204866
0.09952532 -0.1652261 0.015504374 -0.1618196 -0.12143079 -0.15751615 -0.09068821 0.04875836
-0.16301987 -0.030965868 0.085211664 -0.047994904 0.0712598 -0.20265263 -0.073837444 -0.05356824
-0.04630131 -0.028290452 -0.3082127 0.16153258 -0.1647395 0.091801755 0.055760767 0.05807161
0.046956096 -0.25134018 0.056116384 0.009278576 0.10197232 0.19951624 0.04361722 -0.25452048
0.03218235 -0.17704783 -0.25308606 -0.031588975 -0.057249915 0.1228677 0.056472864 -0.078663446
0.15773894 0.1736702 -0.0322187 0.0023925453 -0.031690523 -0.064180605 0.08967317 0.08798024
0.03301839 0.0039901994 -0.23862833 -0.082499266 0.07739759 0.15332559 -0.24624059 -0.09670694
0.0058380836 -0.013908244 -0.11671108 -0.14460716 -0.18159905 -0.11071712 0.026974648 0.09603984
-0.008873656 -0.079210006 0.0628789 -0.02572689 -0.16035883 -0.18294713 0.005588338 -0.005631215
-0.0871352 -0.09893173 -0.31704143 -0.18835847 0.073316395 -0.13709722 -0.24995084 -0.14309666
-0.08521322 -0.13467386 0.102655835 -0.00271799 0.036008425 0.1035617 0.09796465 -0.24598002

a2c_network.actor_mlp.4.weight f4 [64, 128]
00000000: 6dee f13d 959d 503c 20a4 023c c5e8 43bd
00000010: d8af a43d d09b 87bb 04fa 21bc 4a67 303d
00000020: 57e5 303d 5560 7bbd 311e dbbd c33c 4e3d
00000030: aa51 853c 7b3e 913c 9e00 0bbc a45c e63c
00000040: 4a02 36bd d135 7a3d 2be7 423d 9b12 75bd
00000050: 9dd4 5fbd e3ef d43d b4b0 97ba 1b6e e43d
00000060: 6456 ccbd 6d9e bd3c e6f9 4e3c f8c7 35bd
00000070: c5f5 14bd dbc0 d23c 15af 08bd 856e af3d
00000080: 97c1 4abd 842c 0abd be08 2abd 804f 8d3d
00000090: e4be 4c3b 28fb 6abd aa7a 1fbb 83c1 28bc
000000a0: cc71 40bd 5d5f 8f3d 9a59 1b3c 9fc3 41bd
000000b0: 41c5 433d e500 a5bc 4691 e93d 877a 3ebd
000000c0: 6f1a b0bd 5ee0 a9bd 770a 223d d9d9 d7bd
000000d0: 0f99 a7bc 8832 b43b a1cd cbbd f2e9 dcbc
000000e0: 07bf 463d 4691 04bd 793a 6ebc 06cd b73b
000000f0: 15a4 953c bf27 98bd a6a3 823d 51b3 053d
00000100: a1ba f0bd 771f 05be 314c 39bd c1bd ca3d
00000110: f45b 37be f9a6 a4bd 5a9d 3b3c e245 18bd
00000120: 5ba5 2abe 83dd 363d 5da2 763d 4ce6 983c
00000130: 7e80 043d 716f f63c 718f 343c c005 df3c
00000140: 9799 c03d f80a 3f3d 6f9d f2bd e394 efbb
00000150: 96c8 2ebe 73e1 113c b3d9 96bd 8215 023d
00000160: ffb6 963d a738 febd 168b 713d 1845 a9bc
00000170: 0a4f b23d 488d 1a3d 8a6a a93d cf06 9d3c
00000180: e34d 4cbd 788c e9bd 3bf3 123d c5a1 493d
00000190: 89b0 413d e522 e4bd 3b53 5e3d 52a9 843d
000001a0: 99b5 703d 24a5 c93a e88c 2c3d 7c24 433c
000001b0: f84f 6a3d 755a f8bc e688 2ebd 1caa dd3c
000001c0: ade1 8d3d a543 923d 2ad7 dabd a6cb c9bd
000001d0: cb33 273d 178e 30bd 17c3 efbd 7e97 ad3d
000001e0: 8547 bc3c 42ac 6dbd 0caa 4fbd 9a52 16bd
000001f0: 24b4 13bd 2efa 94bb dd07 873d 7371 aa3c
00000200: 8e89 02be 541a d63c a389 adbc 36cd 9abc
00000210: 6833 c33d f399 92bd 2887 0bbd 2155 35be
00000220: 2748 83bd daff a1bd ddb7 1a3d 38af 2d3d
00000230: 23f0 c2bc 8baa 853d e941 64bd 64e9 45bd
00000240: cc6e ba3c b67d 2dbe e963 523c 970c c8bd
00000250: d696 1a3e 4a56 2e3a 6691 bdbd 1148 043d
00000260: d572 543c 8f78 3abd 34b6 9cbc 95f6 c5bd
00000270: 1741 e6bb 74c4 283d 304f 80bd 6eba 963d
00000280: a185 983d 4603 b93b a6a1 43be ce3a f03a
00000290: 9c36 da3c ffe2 d3bd f50d 97bd ee84 afbd
000002a0: 4478 f8bc 8884 b83c 0c2e c5bc ee82 e53b
000002b0: 489a 213e 43f1 663d 38fa 443d 7c83 abbd
000002c0: 6bcc cabb 0f18 003e 4e3b 57bc 4c39 d03c
000002d0: 8a3e 733d f589 903c 1520 23be a104 3c3d
000002e0: 2b61 8f3d f42e 183e 1569 8739 3e27 21bd
000002f0: 4a53 fcbc 20e0 9fbd 3f7c 693c 983a 77bc
00000300: 5508 3b3d dc97 2b3d 208a a6bd dfc7 83bd
00000310: eeb7 24bd 75f3 aebc 9c6e 1abc 96fe 05bc
00000320: 0eb5 4d3d e79a 073e b2dc d9bc b22c 593e
00000330: b427 c5bd 877c 49bd 0a32 343d 1976 98bd
00000340: 15a8 dc3d d8b4 17be 92d1 efbd a762 0fbe
00000350: 855e fe3c 51ec 6fbd a901 b5bc 1e1c 5bbd
00000360: 2960 8dbc 0d1a 98bd 2a1e ae3d 1afe cbbc
00000370: f311 a8bd 2a32 4ebd 9002 e13c f10e 19be
00000380: 825c b139 f9d8 693d 9f8a 243d 51a3 313d
00000390: ecab cebd 0333 a1bd 3e2b aabd ad78 b5bd
000003a0: b1f0 183e 8c55 babc 81a2 93bd b924 5cbd
000003b0: 9645 bb3d a841 073e 0c86 87bd 02cd 99bd
000003c0: 7ba8 f1bc cf2d ccbd b0df 943d ab5c 843d
000003d0: e3c6 ddbc 6271 1bbd fa27 63bd db28 30bd
000003e0: e0fe 3cbd 9e92 14be 96a9 02be 1df4 ea3b
000003f0: f38c 503c 3f09 a9bc e438 b73d bd03 39bd
0.11813054 0.012732883 0.007973701 -0.04782941 0.08041352 -0.0041384473 -0.0098862685 0.043067254
0.043187466 -0.061371166 -0.10699118 0.050350916 0.016274292 0.017729988 -0.008484034 0.028120346
-0.044435777 0.06108648 0.04758374 -0.059832197 -0.054646123 0.10397317 -0.0011573047 0.111538135
-0.09977415 0.023146832 0.012632823 -0.04438016 -0.036367197 0.025726726 -0.033370096 0.08566002
-0.049501028 -0.03373386 -0.041512243 0.06899929 0.003124171 -0.057368428 -0.0024334588 -0.010300043
-0.046983525 0.07000611 0.009481812 -0.0473057 0.047795538 -0.020142028 0.11404662 -0.04650357
-0.08598792 -0.08294748 0.03956076 -0.10539598 -0.020458726 0.005499188 -0.0995133 -0.026967023
0.04852202 -0.032365106 -0.014540308 0.0056091575 0.018266717 -0.07429456 0.0637887 0.032641713
-0.11754347 -0.13000284 -0.045238677 0.09899474 -0.17906171 -0.0803966 0.01145109 -0.03717602
-0.1666464 0.044644844 0.060213435 0.018664502 0.032349102 0.030082436 0.011020527 0.027224422
0.09404295 0.04664132 -0.11846434 -0.00731145 -0.17068705 0.008903849 -0.073657416 0.031758793
0.073591225 -0.12413149 0.058970533 -0.02066283 0.08706482 0.037732393 0.08272274 0.019168286
-0.049878966 -0.114037454 0.035876494 0.04922654 0.047287498 -0.11139468 0.054278594 0.06477608
0.058766935 0.0015384299 0.042126566 0.011910554 0.05720517 -0.03031657 -0.042611025 0.027058654
0.0692781 0.071418084 -0.106855705 -0.09853296 0.040820878 -0.043104257 -0.11707132 0.084761605
0.022983322 -0.058025606 -0.05069928 -0.03669987 -0.036060467 -0.0045464253 0.06593297 0.02080605
-0.12747785 0.026135601 -0.021183794 -0.01889668 0.09531289 -0.0715827 -0.034064442 -0.17708255
-0.06410246 -0.07910128 0.037773002 0.04240343 -0.023796147 0.06526669 -0.05572692 -0.04831828
0.02275791 -0.16942486 0.012841203 -0.09768026 0.15096602 0.00066504313 -0.09256248 0.03229529
0.012966831 -0.04552513 -0.01912985 -0.096661724 -0.0070268023 0.041202977 -0.06265104 0.073597774
0.07447363 0.005646142 -0.19104633 0.0018328072 0.026637368 -0.103460304 -0.07375709 -0.08570276
-0.030330785 0.022524133 -0.024069808 0.0070041334 0.1578151 0.05638243 0.04809019 -0.08374688
-0.0061889193 0.12509178 -0.013136698 0.025417946 0.059385814 0.017643908 -0.15930207 0.045902852
0.07000955 0.14861661 0.000258275 -0.039344065 -0.030801434 -0.0780642 0.014250814 -0.015089653
0.045662243 0.04189287 -0.08131814 -0.06434607 -0.04021447 -0.021356324 -0.009425785 -0.008178374
0.050221495 0.13242684 -0.026594494 0.21208456 -0.096267134 -0.049191024 0.043993033 -0.074444
0.107742466 -0.1481508 -0.11709894 -0.14002477 0.03105093 -0.05857498 -0.022095518 -0.05349361
-0.017257767 -0.07426844 0.08501847 -0.024901439 -0.082065485 -0.05034081 0.027467042 -0.14947106
0.00033828994 0.057091687 0.040171262 0.04336864 -0.10091385 -0.07871058 -0.08309029 -0.08860908
0.14935566 -0.02274587 -0.072087295 -0.05374596 0.09144132 0.1320864 -0.06617364 -0.07509805
-0.029499283 -0.09969675 0.072692275 0.064629875 -0.027072376 -0.037949927 -0.055458046 -0.043007713
-0.046141505 -0.14509055 -0.12760004 0.007170214 0.012728917 -0.020634292 0.08946398 -0.04516958

a2c_network.actor_mlp.4.bias f4 [64]
00000000: 093c 113d c2f5 4c3c 34b9 b33d b86e c5bd
00000010: 740a f13a 25d9 5d3d 29ba e63c dca5 863d
00000020: 3da0 353d 90eb 0e3d ae90 1abe 3587 203d
00000030: fa6d 69bd 5ee0 173d 8ed0 14bd 66eb 45bd
00000040: 8f41 09be 9b12 48be 55e2 143d bfc7 21bd
00000050: 9319 8cbd a03e 073d 1f2c c9bc bcb1 493c
00000060: e738 79bd d40c f7bd 53b4 483d 04fd ab3a
00000070: b04e 533d cca9 98bd 9245 abbd d400 443a
00000080: 79e2 1a3c 4afd d7bd 1f32 863d 95cf 5d3c
00000090: 2f41 413d 5a64 90bd b649 2ebe 3875 24bc
000000a0: bdcc 09be b565 7ebd 0f1c 243d 0b4b 6dbd
000000b0: 8ab2 a1bd 453a 063d 3f47 153d d44d 19bc
000000c0: 15ad a33c d49a 89bd cb6a 223d c51b bbbd
000000d0: 3dc8 b8bd 5eaa ecbc 7f76 ecbd 6326 00be
000000e0: 2a93 cb3c ee62 623c da91 0bbe 77a0 02be
000000f0: 7c49 38bc 9b22 2a3b 08a2 03be 33f1 c83c
0.035457645 0.012509765 0.08775559 -0.096402586 0.0018389956 0.054162163 0.02816494 0.06574604
0.04434227 0.03489262 -0.15094253 0.039191443 -0.056989647 0.037079208 -0.036331706 -0.048320197
-0.13403915 -0.19538347 0.03634866 -0.039497133 -0.068408154 0.03301871 -0.024557171 0.012310442
-0.060845282 -0.12062994 0.049000096 0.0013121669 0.051588714 -0.07454261 -0.08362879 0.000747693
0.009453409 -0.10546358 0.065525286 0.013538261 0.047181305 -0.070503905 -0.17020306 -0.010037713
-0.13457008 -0.062108714 0.04006582 -0.057932895 -0.07895382 0.032770414 0.0364449 -0.009356935
0.019979993 -0.06718984 0.039652627 -0.09136156 -0.090225674 -0.028889831 -0.11546039 -0.12514643
0.024850447 0.013817532 -0.13629857 -0.12756525 -0.011247989 0.0025960568 -0.12854779 0.024529075

a2c_network.value.weight f4 [1, 64]
00000000: faf4 503a d9bb c2bb 11c9 463b 0d7e 0f3c
00000010: e79d 163b f149 233c 7565 0b3d 85ee 513c
00000020: 8146 07bd 0f11 183d 7ba7 853e 843f ecbd
00000030: 83ce c83b 6a74 4f3d 65c2 a53b 5c1f bc3c
00000040: a858 8e3e 756a 153c 8aa6 7bbc a7c6 38ba
00000050: f8fe a23d f36c 0dbd 1352 4b3b c019 893c
00000060: df83 0d3d f0b0 8f3e 3569 2b3c f916 14bd
00000070: afde 3f3c 8209 0a3b 1ceb 163c d596 0cbe
00000080: 4649 3e3e 73f6 9c3d 4f40 edbd fa0c 673a
00000090: 1d0d c83b 5e07 333c 97cc 0fbc 1261 d13c
000000a0: 3aec 973e 5a99 1fbd 92bf cabd 1eaf f03b
000000b0: 16cd ca3a 3dfa cb3b cb77 4f37 5bc7 013c
000000c0: c366 3cbd a9a4 93bb 30aa 5fbb b940 fbba
000000d0: e259 62bb 930f 553d edd0 e33c e2ab a3b9
000000e0: 209e 83bc 0bd5 49bd 67cc 893d 77d8 b6bb
000000f0: b9e9 49bd 968b 843c e92c 1a3c 0371 d93b
0.00079710747 -0.0059428033 0.0030332247 0.00875808 0.00229823 0.0099663595 0.034032304 0.012813215
-0.033026222 0.037125643 0.2610434 -0.11535552 0.0061281337 0.05064813 0.005058574 0.022964172
0.27802014 0.00911962 -0.01535953 -0.00070486445 0.07958788 -0.03452773 0.0031024262 0.016735911
0.03454959 0.2806468 0.010462095 -0.03615472 0.011710807 0.0021062796 0.009211328 -0.13729413
0.18582639 0.07664194 -0.115845315 0.00088138843 0.006105079 0.010927049 -0.008776805 0.025558982
0.29672414 -0.038964607 -0.098998204 0.0073450943 0.0015472497 0.006224899 1.2366053e-05 0.007921065
-0.04599644 -0.004505713 -0.003412854 -0.0019169069 -0.0034538438 0.052016806 0.027809585 -0.00031217845
-0.01606661 -0.04927544 0.0672844 -0.005580004 -0.04929516 0.016179841 0.0094101215 0.0066357865

a2c_network.mu.weight f4 [12, 64]
00000000: a5a5 ecbd 8120 4e3c ce16 9bbc 3dc7 063d
00000010: 4b44 cc3b 9a11 943d 205e b7bc 5070 703a
00000020: 6745 e0bb cbb2 d3bb a34a 9abc 854e 22be
00000030: 156f 823d 360b 87bb b17c bb3c 261d b93c
00000040: b9f3 853c 892b ccbd af7d e23c 7d2a ef3c
00000050: af13 e83c 56ab 12bc 2898 c0bc 9fa7 7cbd
00000060: 4e96 6c3d 2950 45bd b2e0 adbc 113b 50bd
00000070: 46cc ca3c b37a d3bb 7e0a b2bc 5cdc e2bb
00000080: 5c44 623d aabf a4bc 7e3a 9fbd 8b16 88bc
00000090: 92d4 4c3d 6ef9 c5bd 9034 dabd f054 28bd
000000a0: 5a0b a8bc ece8 4c3d 4fe6 8cbd d5f8 2fbc
000000b0: 34d4 8238 3265 8dbc ba0b d73c 8052 553c
000000c0: 9c50 41bb 2dd4 18bd d484 613d beae b4bc
000000d0: 2afd 2b3b a897 9d3d 5718 ffbc 6872 333d
000000e0: bd60 03bd ae2e 7abb 965a 3fbd af85 e53c
000000f0: c533 08bc 0c00 11be 4e98 d5bc 8526 3dbd
00000100: 102f 89bc 85bb 02bd 9e23 8b3b b5c5 ac3d
00000110: 37ec 063d cec4 66bd 85f2 253c d522 483a
00000120: 1d0f 393b 78fc 3c3c 0cbe d3bc 4361 95ba
00000130: ed31 883c 8273 bcbc ac41 473b dc2f 763a
00000140: f557 123c 7cfb 743c 34c4 a43d 7ba5 af3b
00000150: 9a47 3e3d 0978 323c 8474 57bd 7663 95b9
00000160: eb65 9a3b c453 d43c 5ed0 123c bfb8 9bbc
00000170: fa3d a33c af37 6ebc 2c16 0cba 4522 473c
00000180: 0cf2 adbd f45f 6e3c b62c f8ba 0818 0a38
00000190: f9ea 743a eeda d6bc 88e5 0d3e 7031 083d
000001a0: d949 f63b fa74 af3c 3e25 ab3c 58aa 1a3c
000001b0: a170 973c d49a d0ba 004d 2bbd 7119 333d
000001c0: 0198 bebc 0072 adbd 1f7b 92bd 6b4b a1bc
000001d0: 849f b33c a2e3 d8bd 08c3 86bc a855 f73d
000001e0: f18c 2c3c 11a8 413b 3289 84bd 8d95 17bc
000001f0: 9c92 0cbd 61c8 0a3d 6379 afbd 8439 ffbc
00000200: ad11 fe3c e359 17bd 0617 06bd 7e58 76bc
00000210: f4e1 edbc 4cf0 7abc 9104 54ba 4ab3 d5bb
00000220: fe77 323d c668 8f3c 6365 00bd 9078 9c3c
00000230: ce98 843d 7d13 033c 2a42 40bc aaa0 a03c
00000240: 6eb3 9abd 6f70 6c3d 3e76 2a3d 7a87 513b
00000250: 005e a4bd a910 bdbc 58b4 a93a 5faf 9bbc
00000260: 22ca 87bd 6031 9c3d 47e1 753c 5ebb 1f3d
00000270: 570e 59bd d8e6 623c cec7 023d 0abb 8cbb
00000280: ffe4 103c b9bb 1dbd 6a2d 233d 521f e0bd
00000290: 52f3 a2bc ab30 01be 61d1 2bbd 1e35 2b3a
000002a0: 5933 d63c 2b5c 2f3d 0121 babb 9ea8 44bd
000002b0: 1771 093d 338d 5cbd d17e b6bd be94 28bd
000002c0: 4212 96bc 3951 d33c c240 b63d 332e 8ebd
000002d0: 1d00 6f3d cb64 9c3d b2be 72bb 6a1d 4a3d
000002e0: ced8 49bc e2c7 813d 96d5 963d 511d d7bd
000002f0: ce12 443d 0bf5 e9bc 5e08 ab3d 38b8 963d
00000300: 1d03 0bbc 0e13 173d 7872 3b3d e23a 873d
00000310: 4c63 71bd 1aeb 3e3c 3dcb 07bc 5667 44bb
00000320: 26a9 beb9 8525 533c 99ef 15bd 11c2 ae3c
00000330: 1405 5a3c 634b 6dbc 9c16 b6bc b0d3 20bc
00000340: 5cf3 943d 7925 853d d833 a83c 4887 b3bc
00000350: cf26 f43b 45f0 0ebc 2073 463c d0ce ccbc
00000360: d6b4 a0bb 82c3 c1ba 7fe1 4cbb ad9e 233c
00000370: 72f7 3c3c dbe4 11bd 273c b23b f165 06ba
00000380: d3c7 c5bd ffb7 0b3c 03a8 8b3c b75f c03d
00000390: f5b9 03bd 1d16 93bd 3795 89bd eeec 9e3d
000003a0: 9723 143d 9a1e bebc 35f5 9f3b 6084 463d
000003b0: 71a8 813c 060e 86bc a25a 363c 7b35 25bd
000003c0: 6162 41bd 3fad d3bc 341d 0e3d d146 fc3c
000003d0: f042 da3c b416 debd 5ace 92bd 12a5 453d
000003e0: 4de7 9fbc b86a 7a3b 7af7 43bd 1dd7 5b3d
000003f0: 14e8 07bd 3bd7 a0bc 77b8 2bbc 5bfb 30bd
-0.11555032 0.012580992 -0.018931773 0.032904852 0.006233727 0.0722992 -0.02238375 0.00091720093
-0.006844211 -0.0064605228 -0.018834418 -0.15850265 0.063688435 -0.0041212095 0.022886606 0.022596907
0.016351568 -0.09969241 0.027647821 0.029195065 0.028329698 -0.0089519825 -0.023510054 -0.061683293
0.05776053 -0.04817215 -0.021225307 -0.05083758 0.024755608 -0.006453836 -0.021733519 -0.0069232415
0.055240974 -0.020110924 -0.077748284 -0.016612312 0.05000741 -0.096667156 -0.10654557 -0.041096628
-0.020513225 0.05002682 -0.068798654 -0.0107404785 6.238409e-05 -0.017260168 0.026250709 0.013020158
-0.002949751 -0.03731172 0.055058315 -0.02205598 0.0026243427 0.07694942 -0.031139536 0.04381028
-0.03207468 -0.0038174796 -0.04671725 0.028017847 -0.008313124 -0.14160174 -0.026073601 -0.046179313
-0.016746074 -0.031917114 0.0042461893 0.08436147 0.032940116 -0.05634003 0.010128622 0.0007634585
0.0028237768 0.011534803 -0.025847457 -0.0011396784 0.016625369 -0.023004297 0.0030404134 0.0009391287
0.008932103 0.014952537 0.08045235 0.005360303 0.046455003 0.010892876 -0.052601352 -0.000284936
0.0047118566 0.025918849 0.008960811 -0.019008992 0.019927014 -0.014539643 -0.000534388 0.012154167
-0.084934324 0.014549244 -0.0018934223 3.2924145e-05 0.0009342875 -0.02622744 0.1385709 0.033250272
0.0075161275 0.021418083 0.020891782 0.009440027 0.018486323 -0.0015915283 -0.04182148 0.043725435
-0.02326584 -0.084690094 -0.0715239 -0.019689282 0.021926649 -0.105902925 -0.01645042 0.120768845
0.01053165 0.0029549638 -0.064714804 -0.009251964 -0.034319505 0.033882502 -0.085680746 -0.031155355
0.031014288 -0.036950957 -0.0327368 -0.015035747 -0.029038407 -0.01531608 -0.00080878387 -0.006521617
0.043571465 0.017506015 -0.03134669 0.019100457 0.06474458 0.008000252 -0.011734525 0.01960786
-0.07553755 0.057724413 0.04161667 0.003197162 -0.080257416 -0.023079233 0.0012947423 -0.019004522
-0.06630351 0.07626605 0.015007324 0.038997047 -0.05299219 0.013848983 0.03192883 -0.0042947577
0.008843659 -0.038509104 0.039838232 -0.10943474 -0.019891415 -0.12616222 -0.041947726 0.00065310474
0.026147531 0.042812508 -0.005680204 -0.04801237 0.033555117 -0.053845596 -0.08910907 -0.041157477
-0.018319253 0.025795566 0.0889907 -0.069424056 0.058349717 0.07636412 -0.0037039933 0.049344458
-0.012319757 0.06336953 0.07364957 -0.105036385 0.047869496 -0.028559228 0.08351205 0.07359356
-0.008484629 0.036883406 0.045763463 0.06603028 -0.058932588 0.011652732 -0.008288202 -0.002996882
-0.0003636565 0.012887363 -0.03660545 0.021332772 0.013306875 -0.014483306 -0.022227578 -0.009816095
0.072729796 0.06501288 0.020532534 -0.021915093 0.0074509154 -0.008724277 0.012112409 -0.02500096
-0.00490437 -0.0014782997 -0.0031262336 0.009986562 0.011533605 -0.035618644 0.0054392996 -0.0005126885
-0.09657254 0.008527755 0.017047888 0.09393256 -0.032159764 -0.07181952 -0.067179136 0.077600345
0.036166754 -0.023207951 0.004881526 0.048466086 0.01582739 -0.016364109 0.011130007 -0.040334206
-0.047212962 -0.025839446 0.03469582 0.030795487 0.026643246 -0.10844174 -0.07168265 0.048253126
-0.019519472 0.0038210582 -0.047843434 0.053671945 -0.03318031 -0.01963388 -0.010480992 -0.04320846

a2c_network.mu.bias f4 [12]
00000000: 0bc1 f93d 4141 37be f1fa a23d 0f23 32bd
00000010: e773 64be 8211 333d 4545 b3bd 0bab 93bd
00000020: efa6 df3d 8585 963d a6bb 8ebd 7746 eabb
0.12195023 -0.17895986 0.079580195 -0.043490466 -0.22309838 0.04371787 -0.087534465 -0.07210358
0.10920512 0.073496856 -0.06969385 -0.0071495133

exp_avg f4 [12]
00000000: fddf 1cb8 0920 f13a 6d76 023b d7ab bdba
00000010: d3ca 8bba cf84 8b39 54f7 8039 95ce 94b9
00000020: 4f74 0f3a 0416 a6b6 681d 12ba 859a f7ba
-3.7401904e-05 0.0018396388 0.0019907013 -0.0014470768 -0.0010665305 0.00026611096 0.00024598336 -0.00028382675
0.00054723484 -4.9497485e-06 -0.000557384 -0.0018890655

exp_avg_sq f4 [12]
00000000: 1794 0a38 c805 3538 0184 2438 f84b 2438
00000010: a479 3538 bd27 2338 472f 2338 30ff 3a38
00000020: 0cc8 2e38 aaaa 3338 7511 3f38 3787 2a38
3.3039683e-05 4.3159147e-05 3.9223585e-05 3.91714e-05 4.326705e-05 3.8899238e-05 3.890626e-05 4.4583518e-05
4.167114e-05 4.283587e-05 4.5554207e-05 4.0657087e-05
