OmniIsaacGymEnvs/omniisaacgymenvs/runs/Naranjelio/nn/last_Naranjelio_ep_3700_rew_-0.97328514.pth (torch, 672911 bytes, 36 tensors)

value_mean_std.running_mean f8 [1]
0	0xbfebc5abfe046245	-0.8678798638603175

value_mean_std.running_var f8 [1]
0	0x3f7c0dedd3b2eedb	0.006849221240539295

value_mean_std.count f8 []
0	0x41c5ae0000800000	727449601.0

running_mean_std.running_mean f8 [48]
0	0xbfa09ffbcb5f1cdd	-0.03247057778895066
1	0xbfc4e39fd9ef0b02	-0.1631965459947296
2	0xbfe0c2537dd36d5c	-0.5237214524781098
3	0x3fc07598b62ef988	0.12858876128843755
4	0xbfabf483e2443e3c	-0.05459987771075389
5	0xbf81c8d7d57ff90c	-0.008683859065055553
6	0x3fafb0deb83a1a2e	0.061896285999911135
7	0x3f96b466620d31a4	0.02217254613360499
8	0xbfefe4e004f179f0	-0.9966888519809896
9	0xbf030328773c47f6	-3.6263153473950415e-05
10	0xbf416a27eb9c4492	-0.0005314536021804475
11	0x3ecca925cdc8c84a	3.416625629770253e-06
12	0xbf8d28107647667f	-0.014236572846971328
13	0xbfa6fb8f0871b2d2	-0.044887990742471864
14	0x3f23ec8426c449ff	0.00015200722862880597
15	0xbfa6d92b43939fe4	-0.04462561798010237
16	0xbfa6c9052b755ddc	-0.044502412371624195
17	0xbfaa24a841424c9b	-0.051060922590431455
18	0xbfa9b30c9127110b	-0.05019416114694949
19	0xbfa01bc0b61ce2da	-0.031461736898966655
20	0x3f976e42fe1c4373	0.022881552467029786
21	0x3f66922292f8cc4f	0.0027552294993938085
22	0x3fac539d73bd0ada	0.055325432184437154
23	0xbf616fa1c09f0f59	-0.0021284255244341907
24	0xbf43ebc1194fb78b	-0.0006079380860890422
25	0xbf43ace6f1b0e604	-0.0006004455239072008
26	0xbf07612e7ef2626f	-4.459307808097202e-05
27	0xbf4df5e0f6590a64	-0.000914320797797363
28	0xbf4e90a84f331fb0	-0.0009327718566049994
29	0xbf3f9de99a20c0e2	-0.0004824347798857554
30	0xbf43259a647b5c00	-0.0005843166227020857
31	0xbf970539373a56e3	-0.02248086356720237
32	0x3f53a41504365527	0.0011987881888207515
33	0x3f44b602c0970425	0.0006320489348398168
34	0x3f5134c2a1e9d311	0.0010501766879801903
35	0x3ee05e027e147ad1	7.804501310602036e-06
36	0x3fc76491fdbcbd39	0.18275666131510507
37	0xbfea3fe51a50e760	-0.8202996744141551
38	0x3fdb529030937200	0.42691426032777713
39	0xbfec169e57cb1baa	-0.8777610506739297
40	0xbfea641edd992206	-0.8247217491235126
41	0xbfe2670e4b852386	-0.575080058574813
42	0x3fce65e67fe197cf	0.23748475307655645
43	0x3f9d14b16a4c8f97	0.0283992501382638
44	0x3fe3e5f23d7a1cc4	0.6218196106646237
45	0xbfcf529ccc057460	-0.24470863306024437
46	0xbfde98ea2ad96575	-0.4780831736039411
47	0x3fbf7173736dac2b	0.12282487457348228

running_mean_std.running_var f8 [48]
0	0x3f83daf872c0a861	0.009694996835680482
1	0x3fafb2b9413328ac	0.061910428246464505
2	0x3fd8bc583c4ed24d	0.3864956463760663
3	0x3f9f94def530b090	0.030841335025045213
4	0x3f740def8155062c	0.004896102492524739
5	0x3f317d465a25c9e4	0.00026686637479325496
6	0x3f5b4cc505af7651	0.0016662525219922795
7	0x3f4404fdb599a857	0.0006109465422927768
8	0x3ee73b63a1d73790	1.1077875622069415e-05
9	0x401553ac4db5a0f6	5.331711973391284
10	0x3ff5554cdb78bcca	1.3333252499685835
11	0x3f95580bbe722cac	0.02084368085756398
12	0x3f3210abf224ccd9	0.0002756519117099294
13	0x3f47edd8c69c3de1	0.0007302578426066597
14	0x3e75500dda46c1f7	7.939603691751111e-08
15	0x3f4905d138aa935a	0.0007636329258572203
16	0x3f47f7c5000b9887	0.0007314407267500358
17	0x3f4a4316ea337ef6	0.0008014547242076442
18	0x3f495d4bf4e70eec	0.0007740612871249531
19	0x3f515e3c1d3d4440	0.00106006498841206
20	0x3f42e2fb368481fb	0.0005763746858385427
21	0x3ec5611172f9192c	2.5485959651877035e-06
22	0x3f4ef2e0af1070f0	0.0009444806183896131
23	0x3eb689891d938590	1.3433246890892887e-06
24	0x3edcb9f52b7ade65	6.848906813842688e-06
25	0x3eeb6d06dea69e2f	1.3077681576614031e-05
26	0x3e9fdf8dffc23732	4.7494859224053584e-07
27	0x3ee2620266c7c95a	8.765625545391235e-06
28	0x3ee65d2ee64e731e	1.0663984719100314e-05
29	0x3ed1856d44d31088	4.177379264894952e-06
30	0x3ec5c8b554e83fff	2.596857178412126e-06
31	0x3f52f076eff8fae1	0.001155964040563333
32	0x3ef6460b2c6d05be	2.124176787821562e-05
33	0x3e9f2358db23116d	4.6399346865742843e-07
34	0x3ee8af816bb6a3d8	1.1770996357922671e-05
35	0x3eae224f36ecd03e	8.980638151801879e-07
36	0x3fe56f7b668bed80	0.6698586466658725
37	0x3fb9b5513ed6a249	0.10042293342724763
38	0x3fde73e8329c5620	0.4758244032139789
39	0x3fb9c5ceae26d137	0.1006745505499723
40	0x3fba8d5c57044d1d	0.10371949314530977
41	0x3fd5edc1fdb2fa01	0.342636583092741
42	0x3fd8d411f7191ae9	0.38794373636885254
43	0x3fe4b0cd095c321c	0.6465821440520503
44	0x3fd412988a83258b	0.3136350014361475
45	0x3fdf3543ead3be83	0.4876260560258531
46	0x3fdd4594de91fc36	0.45737191901565966
47	0x3fe0729488083f98	0.5139868409041695

running_mean_std.count f8 []
0	0x41b5ae0001000000	363724801.0

a2c_network.sigma f4 [12]
0	0xc0290fcf	-2.6415899
1	0xc02fb645	-2.7454998
2	0xc007513d	-2.1143334
3	0xc01b6e52	-2.4286084
4	0xc028ad55	-2.6355793
5	0xc027a2be	-2.619308
6	0xc02e6075	-2.7246373
7	0xc022743e	-2.5383449
8	0xc02e7a3b	-2.7262104
9	0xc016df51	-2.3573802
10	0xc023bf32	-2.5585446
11	0xc03beaee	-2.936214

a2c_network.actor_mlp.0.weight f4 [256, 48]
0	0xbd3443d9	-0.044010017
1	0x3d5dc441	0.05414224
2	0xbe0a2909	-0.13492216
3	0xbdc21f06	-0.094785735
4	0xba89af34	-0.0010504485
5	0xbc44e7a6	-0.01201812
6	0xbe0368a0	-0.1283288
7	0x3e1248ad	0.14285536
8	0x3c0df051	0.008663253
9	0xbf24fed6	-0.6445135
10	0xbe97f324	-0.2967769
11	0xbd8a76d9	-0.0676095
12	0xbdcd5b5e	-0.100271925
13	0x3db5ff1b	0.08886548
14	0x3dc8fadb	0.09813472
15	0xbcfdc3d6	-0.03097717
16	0x3e12dcdd	0.14342065
17	0x3e09c0f5	0.13452514
18	0xbd01c602	-0.031682976
19	0x3d8b693e	0.06807183
20	0xbea5f7a4	-0.32415497
21	0xbd08f2dd	-0.033434737
22	0xbdf9bec4	-0.12194589
23	0x3e1cc62a	0.15309969
24	0x3d1b3d43	0.03790022
25	0x3d08eb80	0.033427715
26	0xbd0e10cf	-0.034684
27	0x3ba2d982	0.0049697766
28	0xbc157075	-0.00912105
29	0xbca5e24e	-0.020249512
30	0x3c71ff13	0.014770287
31	0xbe3f7fd0	-0.187011
32	0xbdffd7ae	-0.124923095
33	0xbd9111bf	-0.07083463
34	0xbe281003	-0.16412358
35	0x3d866226	0.06561689
36	0x3e1c0e93	0.15239935
37	0x3dc5c7c5	0.09657244
38	0x3ca60219	0.020264672
39	0xbc2eea5b	-0.010675992
40	0x3e1341b8	0.14380538
41	0x3dc5aa73	0.09651651
42	0x3d1b563a	0.03792403
43	0x3e1680ea	0.14697614
44	0x3e3c023f	0.18360232
45	0xbd3a3f94	-0.04547079
46	0x3b777838	0.0037760865
47	0xbdaf5b1b	-0.08562299
48	0xbdd23f45	-0.10265974
49	0x3dc45911	0.095873006
50	0x3e415b8a	0.18882576
51	0xbd8a64db	-0.06757518
52	0xbdea940f	-0.11454021
53	0x3e0fd2a4	0.14045197
54	0xbd1a34e4	-0.037648097
55	0xbe383633	-0.17989425
56	0xbc97fe7b	-0.018553963
57	0xbe3a4742	-0.18191245
58	0xbc41162d	-0.011785072
59	0x3e00329a	0.12519303
60	0x3d00d77d	0.031455506
61	0xb9a12d35	-0.00030741995
62	0xbe0f503f	-0.13995455
63	0x3c805f66	0.01567049
64	0x3d191d57	0.037381496
65	0x3c99b783	0.018764263
66	0x3c0e976a	0.008703092
67	0x3dc59dfc	0.09649274
68	0x3e4ecc0a	0.20195022
69	0x3d8f26c5	0.069898166
70	0x3e273c3b	0.1633157
71	0x3d2e43ee	0.04254525
72	0xbc34171a	-0.010991836
73	0xbe300066	-0.17187652
74	0x3e2927cf	0.16519092
75	0xbe348c14	-0.1763156
76	0xbdc8a522	-0.097971216
77	0x3dd2fad5	0.10301749
78	0xbdb7a9a2	-0.08967902
79	0x3e3afefd	0.18261333
80	0xbdb96d1d	-0.09054015
81	0xbcf0c8f7	-0.029392703
82	0x3c29f5ab	0.010373513
83	0xbcb2242d	-0.021745766
84	0xbd0540e9	-0.032532606
85	0xbd14f6d5	-0.03636821
86	0x3dea3afe	0.11437033
87	0x3cfb570f	0.030681161
88	0x3d8f58f2	0.06999387
89	0xbd3c4954	-0.04596837
90	0x3caecac0	0.021336913
91	0xbde925cf	-0.113841645
92	0x3df50fc7	0.119659
93	0x3dc82ac5	0.09773783
94	0xbe8235c4	-0.25431645
95	0xbda1391f	-0.07872223
96	0xbe1b6867	-0.15176545
97	0x3e3b3548	0.18282044
98	0xbe583036	-0.21112141
99	0xbd05d4fb	-0.032673817
100	0x3d1aa0db	0.03775106
101	0xbd8484e5	-0.0647066
102	0x3d2019a6	0.03908696
103	0xbe30f451	-0.172807
104	0xbd90af40	-0.07064676
105	0xbdb250da	-0.087068275
106	0xbdf9f96a	-0.12205775
107	0xbdbadfa8	-0.0912469
108	0x3d351877	0.044212785
109	0xbc7ae641	-0.015313686
110	0x3e8bcdd9	0.27305487
111	0x3e0536e3	0.13009219
112	0x3d39b618	0.045339674
113	0xbdec8e8b	-0.115506254
114	0xbe07171b	-0.13192408
115	0xbd095f50	-0.033538163
116	0x3da54e35	0.080715574
117	0xbc9d20d8	-0.0191807
118	0x3e017dc2	0.12645629
119	0xbe213324	-0.15742165
120	0xbd744d69	-0.059644137
121	0x3d795846	0.0608752
122	0xbde667a6	-0.11250238
123	0xbd39f067	-0.04539528
124	0x3d740df6	0.059583627
125	0xbc132f39	-0.008983427
126	0xbd6bdd64	-0.05758418
127	0x3e12f0af	0.14349626
128	0xbd719213	-0.058977198
129	0xbd58bf5e	-0.052916877
130	0xbc93bd20	-0.018034518
131	0xbe18f2e7	-0.1493641
132	0xbd047f03	-0.03234769
133	0xbccd5b28	-0.02506788
134	0xbca09563	-0.019602483
135	0x3c944abb	0.01810204
136	0xbdb4a043	-0.0881963
137	0xbcbb8bd2	-0.02289382
138	0x3e0d6e02	0.13811496
139	0x3c114e17	0.008868716
140	0xbd6532ff	-0.055956837
141	0xbd816efc	-0.06319997
142	0xbd3264fd	-0.04355334
143	0x3d1cfa55	0.038324673
144	0xbe6749d4	-0.22586757
145	0x3d59f71c	0.053214177
146	0x3e66c119	0.22534598
147	0xbd91ee27	-0.07125502
148	0x3e0b41fa	0.13599387
149	0x3e1ea314	0.15491897
150	0xbd8b9c86	-0.06816964
151	0x3c76bcf7	0.015059701
152	0x3e8f793f	0.2802219
153	0xbddc35cd	-0.10752449
154	0x3d324349	0.0435212
155	0x3e3dc758	0.18533075
156	0x3e19dbd3	0.15025263
157	0xbdf282f6	-0.11841385
158	0x3ee284c8	0.4424193
159	0x3e039dfb	0.12853234
160	0x3dbf55c7	0.093425326
161	0xbd979fdd	-0.074035384
162	0x3e04a7db	0.12954657
163	0x3e1f2f38	0.15545356
164	0x3d32258a	0.04349283
165	0x3d107cf6	0.035275422
166	0xbc9e176e	-0.019298282
167	0xbd11021f	-0.035402413
168	0x3d7eb0d1	0.062180344
169	0xbd54d315	-0.051959116
170	0xbe7aae17	-0.24480473
171	0x3d7ae258	0.061251014
172	0x3d478abe	0.0487163
173	0x3d0e81c1	0.03479171
174	0xbe8d080c	-0.27545202
175	0xbe0e5fbe	-0.1390371
176	0x3e39a29e	0.1812844
177	0x3dd4f4cb	0.10398253
178	0x3bcbcb75	0.0062193223
179	0x3c9ab7a9	0.018886404
180	0xbdc3b4f7	-0.09556001
181	0x3db46280	0.0880785
182	0xbd910f8f	-0.07083046
183	0x3db1909c	0.0867016
184	0x3daf4ac3	0.085591815
185	0x3d94e858	0.072708786
186	0x3c960c69	0.018316464
187	0x3dc1b625	0.094585694
188	0xbdef7964	-0.11693075
189	0xbcaa25dd	-0.020770008
190	0xbdf58f0d	-0.119901754
191	0x3ea1c567	0.3159592
192	0xbde8dccb	-0.11370238
193	0x3d7da5bb	0.06192563
194	0xbc10fedd	-0.008849827
195	0x3d80e7ea	0.06294234
196	0xbd93102a	-0.071808174
197	0x3deda384	0.11603454
198	0x3e86cf0c	0.2632984
199	0xbe6b5267	-0.22980653
200	0xbda1da09	-0.07902915
201	0xbc436935	-0.011926939
202	0x3de817e8	0.11332685
203	0xbd1ad0c4	-0.03779675
204	0x3dea628f	0.1144458
205	0x3d79e1ec	0.06100647
206	0xbdcb7b82	-0.099356666
207	0x3e0226f6	0.12710175
208	0x3b314ef2	0.0027055112
209	0xbd4374e5	-0.0477189
210	0x3a308472	0.0006733603
211	0xbd7c5b0c	-0.061610267
212	0x3de85784	0.11344817
213	0xbd283a06	-0.04107096
214	0x3e364a7b	0.1780185
215	0xbd3e3871	-0.046440545
216	0x3df560d6	0.119813606
217	0xbcbf8462	-0.023378555
218	0xbcba6aa9	-0.022755938
219	0xbd7a93a2	-0.06117595
220	0x3e0ad67b	0.1355838
221	0x3df0e055	0.11761538
222	0xbdd63296	-0.10458867
223	0x3de09a48	0.10966927
224	0xbd16596b	-0.03670637
225	0xbe2a005b	-0.16601698
226	0xbe28856d	-0.16457148
227	0x3d915309	0.07095916
228	0x3dd67b39	0.104727216
229	0x3d80ed87	0.06295305
230	0x3d4e953d	0.050435293
231	0xbdaf30e0	-0.08554244
232	0xbd8fca80	-0.07021046
233	0x3bf91980	0.007601917
234	0x3dbe3a4d	0.09288464
235	0x3cbe2128	0.02320917
236	0x3d9d0402	0.0766678
237	0xbdaa3c58	-0.08312291
238	0x3af2a7a1	0.0018513092
239	0x3db13508	0.08652693
240	0xbe5223c4	-0.20521456
241	0x3d9ccf9d	0.076567866
242	0x3ee73b27	0.45162317
243	0x3e0385e2	0.12844041
244	0xbe470784	-0.1943646
245	0x3e002d1e	0.12517211
246	0x3e1b9bfa	0.15196219
247	0x3c5ae250	0.013359621
248	0xbe4d5bad	-0.20054503
249	0xbdc9fd8b	-0.098628126
250	0xbdcc51e0	-0.09976554
251	0x3cff9317	0.031198068
252	0x3e0a4e4a	0.13506427
253	0xbd6d4011	-0.057922427
254	0xbf0c8721	-0.5489369
255	0xbcc4213f	-0.023941634

a2c_network.actor_mlp.0.bias f4 [256]
0	0xbdd6083e	-0.10450791
1	0x3e6ce115	0.23132737
2	0x3e85fdba	0.2617014
3	0x3e3687b6	0.17825207
4	0x3e958b34	0.29207766
5	0x3e7bf916	0.24606737
6	0x3d73c13a	0.059510447
7	0x3e88f917	0.2675254
8	0x3e6b8b6d	0.23002405
9	0x3e51857b	0.20461075
10	0x3d2b27ce	0.041786008
11	0x3e7aa0cd	0.24475403
12	0xbeb8cdca	-0.36094505
13	0x3d8e63bf	0.06952619
14	0x3e807801	0.25091556
15	0x3e9d84f0	0.30765486
16	0x3e8b8b91	0.27254918
17	0x3e0b615a	0.13611355
18	0x3e907d01	0.2822037
19	0xbe8c60a9	-0.27417496
20	0x3dfdd91e	0.123949274
21	0x3eb41bdc	0.35177505
22	0xbe2e68d0	-0.1703217
23	0xbd4f10bc	-0.05055307
24	0x3e8c87ae	0.27447265
25	0x3daf38d5	0.08555762
26	0x3e8ddac2	0.2770596
27	0x3e6585ad	0.22414275
28	0x3e2de5a4	0.16982132
29	0xbd4f8b2e	-0.05066984
30	0x3c35e74f	0.011102512
31	0x3c81750b	0.01580288
32	0x3e59ffa3	0.21288924
33	0xbe3c0997	-0.18363033
34	0xbd68d41f	-0.05684292
35	0x3e0a5e08	0.13512433
36	0x3d9340ec	0.07190117
37	0x3d536426	0.05160918
38	0xbcf23818	-0.029567763
39	0xbbd0741f	-0.006361499
40	0x3d1f5475	0.038898904
41	0x3e55114f	0.20807384
42	0x3db62e62	0.088955656
43	0x3e8fe2b5	0.2810265
44	0xbde9daa2	-0.11418654
45	0x3d840bbd	0.064475514
46	0x3d70f3a2	0.058826096
47	0xbd93cb06	-0.07216458
48	0x3ea3875b	0.31939206
49	0x3ea640b8	0.3247125
50	0x3e7e8738	0.2485627
51	0xbdd674fa	-0.1047153
52	0x3e6e4707	0.23269282
53	0xbdc7e9e8	-0.09761411
54	0xbe563820	-0.20919847
55	0x3e8cbc00	0.27487183
56	0x3e91525b	0.28383145
57	0x3c9f9d0d	0.019484067
58	0x3e0438d6	0.12912306
59	0x3e92601d	0.28588954
60	0xbc30ff34	-0.010803033
61	0x3e310b79	0.17289533
62	0x3e0100e7	0.12598
63	0xbe194fa3	-0.14971785
64	0xbdf79c9c	-0.12090418
65	0xbe4b0d10	-0.19829202
66	0x3e364035	0.1779793
67	0xbe90430f	-0.28176162
68	0x3e0eddfa	0.13951865
69	0x3e703204	0.2345658
70	0x3e9671b3	0.2938362
71	0xbe19ca08	-0.15018475
72	0xbd6b76a5	-0.057486195
73	0xbda770b0	-0.0817579
74	0x3c1be08d	0.009513986
75	0x3c004b5c	0.007830467
76	0x3e6ff909	0.23434843
77	0x3e6ede9f	0.2332711
78	0x3df24c0e	0.118309125
79	0x3d51dfc5	0.051238794
80	0x3e958de5	0.2920982
81	0x3daa2b22	0.08309008
82	0x3e5a8496	0.2133964
83	0x3e6d41ce	0.23169634
84	0xbdb2dd71	-0.08733643
85	0x3d0cc3de	0.03436648
86	0x3e53e461	0.20692588
87	0x3e82774b	0.25481638
88	0x3eaf1ffc	0.3420409
89	0x3db97d19	0.090570636
90	0x3d6fa37e	0.058505528
91	0x3d7bbaf7	0.0614576
92	0x3e78e6f4	0.24306852
93	0x3ea0f426	0.3143627
94	0x3defc890	0.11708176
95	0xbd6ad34e	-0.057330422
96	0x3e7ef12d	0.24896689
97	0x3e8f9722	0.28044993
98	0x3e857d6c	0.26072252
99	0xbe0f5d92	-0.14000538
100	0x3e787244	0.24262339
101	0x3da4b0ea	0.08041556
102	0x3da6226f	0.081120364
103	0x3e5eefff	0.21771239
104	0x3eb04c4e	0.34433216
105	0x3e111b8a	0.14170662
106	0x3ea5d409	0.32388332
107	0x3db1d3e6	0.086829945
108	0x3e75d2d8	0.24006212
109	0xbc023c8e	-0.007949008
110	0xbcf25ef9	-0.029586302
111	0xbeb978e7	-0.36225054
112	0xbd17440e	-0.036930136
113	0x3e948fa3	0.29015836
114	0x3d8b95d0	0.06815684
115	0x3e53083a	0.20608607
116	0xbdaa4b6e	-0.08315168
117	0x3db5630f	0.088567846
118	0x3e72c84d	0.23709221
119	0x3ea75285	0.32680145
120	0x3dffeeec	0.124967426
121	0x3cc63e50	0.024199635
122	0x3e7afff7	0.24511705
123	0xbe09029b	-0.133799
124	0x3e81d663	0.25358877
125	0x3deef5ae	0.116679534
126	0xbbe44ac0	-0.0069669187
127	0x3de40e63	0.111355565
128	0x3dc35bcf	0.095389955
129	0x3e66c1fb	0.22534935
130	0x3e4d3cd7	0.2004274
131	0x3ea1edee	0.31626838
132	0x3e8f74f4	0.28018916
133	0x3cb3eb8c	0.021962903
134	0xbe142f53	-0.14471178
135	0xbe111586	-0.14168367
136	0x3ea6b4df	0.3255987
137	0x3cd44b3e	0.025914785
138	0x3ea0fd2a	0.3144315
139	0xbdf211e5	-0.11819819
140	0x3e8bc535	0.27298895
141	0x3e31eb61	0.17374946
142	0x3eb85766	0.3600418
143	0x3d84ab40	0.06477976
144	0xbe1ab21e	-0.15107009
145	0x3d7d0857	0.06177553
146	0x3d458bae	0.048228912
147	0x3edb33fe	0.42813104
148	0x3d467ae0	0.048457026
149	0x3ea07739	0.3134096
150	0xbc1c2ce2	-0.009532185
151	0x3e056593	0.13027029
152	0x3e22d120	0.15900087
153	0x3cc3e0b6	0.023910861
154	0x3ec8d30a	0.3922351
155	0x3e0eb7ad	0.13937254
156	0x3e78a42a	0.24281374
157	0xbde27bf4	-0.110587984
158	0x3e298c14	0.16557342
159	0x3dcfaeca	0.1014076
160	0xbd5a3610	-0.053274214
161	0x3e47c346	0.19508085
162	0xbe8105c8	-0.25199723
163	0x3e4d9002	0.20074466
164	0x3d4d4fa2	0.050124772
165	0x3e855ed5	0.26048914
166	0xbd8e3bbd	-0.06944988
167	0x3e8348bf	0.25641438
168	0x3e2e98d6	0.1705049
169	0x3de82c24	0.11336544
170	0x3c988917	0.018620057
171	0xbe81cb86	-0.2535059
172	0x3e85473a	0.26030904
173	0x3ea7bcc4	0.32761204
174	0x3e9b4b69	0.3033097
175	0x3e703630	0.23458171
176	0x3eab5d98	0.33469844
177	0xbe09cbd0	-0.13456655
178	0xbe5390f5	-0.20660765
179	0x3e83cbee	0.25741524
180	0x3d068d86	0.03284981
181	0x3dfde119	0.123964496
182	0xbea36ef4	-0.31920588
183	0x3e5c1078	0.21490657
184	0x3e937e3e	0.28807253
185	0x3e0421cf	0.12903522
186	0xbea31083	-0.31848535
187	0xbea18d0a	-0.31552917
188	0x3e21ad5e	0.1578879
189	0x3d589015	0.052871782
190	0xbdaf29bb	-0.08552881
191	0x3debd5af	0.11515366
192	0x3d84727c	0.06467149
193	0x3ec6fa28	0.3886273
194	0x3e5c68dc	0.21524376
195	0x3dc52ae9	0.09627325
196	0x3ec2ffb9	0.38085726
197	0xbe8eb072	-0.27868992
198	0x3d9f5ed4	0.07781759
199	0x3dca0a31	0.09865225
200	0x3e961237	0.29310772
201	0x3e888796	0.26665944
202	0x3e064a37	0.13114248
203	0x3d831f46	0.06402449
204	0x39d1051b	0.0003986739
205	0x3e000c08	0.1250459
206	0x3cb067d7	0.02153389
207	0xbedffd31	-0.43747857
208	0x3d9d9ae7	0.07695561
209	0xbe9cad1f	-0.3060083
210	0x3cf647b3	0.030063486
211	0x3ebad534	0.36490786
212	0x3e530700	0.20608139
213	0xbe89e2dc	-0.26930892
214	0xbcae684f	-0.021289973
215	0x3e83df56	0.2575633
216	0xbd082fb9	-0.033248637
217	0x3dcd5cb6	0.10027449
218	0xbc0ecfc9	-0.008716532
219	0x3e8d4fda	0.27599984
220	0x3e2709ce	0.16312334
221	0xbd4f373f	-0.050589796
222	0x3e88c518	0.2671287
223	0x3e9dc9fd	0.30818167
224	0x3eae601a	0.34057695
225	0x3e8b88c6	0.27252787
226	0x3ea78ecb	0.3272613
227	0xbdff5c00	-0.124687195
228	0x3e8868eb	0.26642546
229	0x3e24b28f	0.1608374
230	0x3eab6459	0.33474997
231	0x3eaf210f	0.3420491
232	0x3ddc5f14	0.10760322
233	0x3d12ab94	0.03580816
234	0x3e5c133e	0.21491715
235	0xbe892dc8	-0.2679274
236	0xbe2039ce	-0.1564705
237	0xbdcdfd50	-0.10058081
238	0x3e7216fe	0.23641583
239	0x3e98e44e	0.29861683
240	0x3d973964	0.07383993
241	0x3e05da7b	0.13071625
242	0x3d599fce	0.053130917
243	0x3ea6ee1e	0.32603544
244	0x3e6929c3	0.22769837
245	0x3e9e4ceb	0.3091806
246	0x3cfe71b2	0.031060074
247	0x3e09ca6d	0.13456126
248	0xbe60d685	-0.21956833
249	0x3c64e291	0.013970033
250	0xbd93be61	-0.07214046
251	0xbe1aea34	-0.15128404
252	0x3e626471	0.22108628
253	0x3e40be5d	0.18822618
254	0xbdbed38b	-0.09317692
255	0x3c04ac0f	0.008097663

a2c_network.actor_mlp.2.weight f4 [128, 256]
0	0xbcaca686	-0.021075498
1	0xbd3c7424	-0.046009198
2	0xbde0e1da	-0.10980578
3	0xbd6999ec	-0.057031557
4	0xbde5f99e	-0.11229251
5	0xbd6c98a9	-0.057762776
6	0xbd65e59f	-0.056127187
7	0xbe4f122c	-0.20221776
8	0xbdbdbbbb	-0.09264322
9	0xbe319875	-0.17343314
10	0x3d8d9f9f	0.06915211
11	0xbe23693d	-0.15958114
12	0x3daffdb3	0.08593311
13	0x3e096fec	0.13421601
14	0x3d4a1aad	0.049341846
15	0xbb0c7165	-0.0021429893
16	0xbde49316	-0.11160867
17	0xbc575f38	-0.0131452605
18	0xbde2ced9	-0.11074609
19	0xbc1c2449	-0.009530135
20	0x3ccb08c8	0.02478446
21	0xbe235819	-0.15951575
22	0x3c7ed61c	0.015553977
23	0xbd9bcc8d	-0.07607374
24	0x3d07b428	0.033130795
25	0xbd4345d3	-0.04767401
26	0xbe368ae8	-0.17826426
27	0xbbb8fa34	-0.005645061
28	0xbddb67db	-0.10713168
29	0xbdaca535	-0.08429948
30	0x3cc79258	0.024361774
31	0xbd8b1207	-0.06790548
32	0x3e140bd1	0.14457633
33	0x3d24683d	0.040138472
34	0x3d24092c	0.04004781
35	0xbddcbb28	-0.10777885
36	0xbd18d944	-0.037316576
37	0xbdd5f893	-0.104478024
38	0x3dce4fe7	0.10073834
39	0xbdca336b	-0.098730884
40	0x3e156240	0.1458826
41	0x3df58f6a	0.11990245
42	0x3d2c99a3	0.042138707
43	0xbe9677d6	-0.29388303
44	0x3cd6a833	0.02620325
45	0xbd84c26a	-0.06482394
46	0xbd0e20c6	-0.034699224
47	0x3dd554cf	0.104165666
48	0xbcb1eaca	-0.021718401
49	0xbc8c1515	-0.017099896
50	0xbd5b3805	-0.05352022
51	0xbe10332a	-0.14082018
52	0xbe4b35cc	-0.1984474
53	0x3e23855a	0.15968838
54	0xbd2e2a42	-0.04252077
55	0xbe26c2b9	-0.16285218
56	0xbe22701e	-0.15863082
57	0xbd3306dc	-0.043707713
58	0x3e24bc55	0.16087468
59	0xbc25cc35	-0.0101194875
60	0xbdea7295	-0.11447636
61	0x3d994cf4	0.07485381
62	0x3d85b1bc	0.06528041
63	0xbd06be4e	-0.032896332
64	0xbddd3ded	-0.10802827
65	0x3d484366	0.0488924
66	0xbda24073	-0.07922449
67	0xbd14040d	-0.036136676
68	0xbde16bdf	-0.11006903
69	0xbe393da3	-0.18089919
70	0xbd79149c	-0.06081067
71	0x3d933053	0.071869515
72	0xbd231498	-0.03981456
73	0x3dc1081e	0.09425376
74	0x3e09d931	0.13461758
75	0xbe695f1a	-0.22790185
76	0xbb6277ef	-0.003455635
77	0xbd7151c8	-0.058915883
78	0xbc8a458c	-0.016878866
79	0xbe0292e1	-0.12751342
80	0xbdf13ec5	-0.117795505
81	0x3d2a5da5	0.041593213
82	0x3de26f1b	0.11056348
83	0x3cee8d36	0.029120069
84	0x3cc5c497	0.024141593
85	0xbda4a6d4	-0.080396324
86	0x3de2b0a2	0.11068846
87	0xbc0c9705	-0.008580928
88	0xbe294408	-0.16529858
89	0xbd8468cb	-0.064653
90	0xbe3fac87	-0.18718158
91	0x3d38bdea	0.04510299
92	0xbdc84e03	-0.097805046
93	0xbda11a98	-0.078664005
94	0x3c25c3f8	0.010117523
95	0x3d7b461d	0.061346162
96	0xbdc66747	-0.09687667
97	0xbe12f4a0	-0.1435113
98	0x3da7ed50	0.08199561
99	0x3e08954e	0.13338205
100	0xbe1ea0b6	-0.15490994
101	0x3d2d01c0	0.042237997
102	0xbd81fea3	-0.06347396
103	0xbe018f95	-0.12652428
104	0x3d29af75	0.041427094
105	0xbe32dad3	-0.17466287
106	0xbcbde1c5	-0.023178944
107	0xbbab12f6	-0.005220766
108	0xbdb4cb8c	-0.08827886
109	0xbd366309	-0.04452804
110	0xbe4ce5df	-0.20009564
111	0xbdcd5983	-0.10026839
112	0x3e30ad74	0.17253667
113	0x3dc52b8f	0.09627449
114	0x3cff2425	0.031145165
115	0xbe6d4dd0	-0.23174214
116	0xbe12a8f5	-0.14322264
117	0x3c00d8c0	0.007864177
118	0xbda178d7	-0.078843765
119	0xbde9f030	-0.11422765
120	0xbe0a5b62	-0.13511422
121	0x3e4dba81	0.20090677
122	0xbe7a1a02	-0.24423984
123	0x3cb66072	0.022262786
124	0xbd6e0da9	-0.058118496
125	0xbdb1642c	-0.086616844
126	0xbe1b4709	-0.15163817
127	0xbc93588f	-0.017986564
128	0xbd94cb2f	-0.07265317
129	0xbc96a9c1	-0.018391492
130	0xbe192af4	-0.14957792
131	0x3d0e781f	0.034782525
132	0xbeac2ec0	-0.33629417
133	0x3dc4e0c9	0.09613187
134	0xbc0b9379	-0.008519047
135	0x3c2a6f52	0.010402517
136	0xbdb5e09b	-0.08880731
137	0xbdd83613	-0.10557189
138	0x3d783cc7	0.060604837
139	0xbdcf4003	-0.10119631
140	0xbdb219e8	-0.086963475
141	0xbdaca668	-0.08430177
142	0x3b93ef91	0.0045146425
143	0x3ce04217	0.027375264
144	0xbd9dd3f5	-0.07706443
145	0xbe2d6f18	-0.1693691
146	0xbe5e11f1	-0.21686532
147	0x3d16d317	0.036822405
148	0x3d40b4fb	0.047047596
149	0xbe9b77d5	-0.30364862
150	0x3e016d5c	0.12639374
151	0xbe52f0f1	-0.20599724
152	0xbd81a0f9	-0.06329531
153	0x3d0b885a	0.03406558
154	0x3d2db0ca	0.042404927
155	0xbda9ac7f	-0.08284854
156	0x3d8b09a5	0.06788949
157	0x3dc41608	0.095745146
158	0xbddb87e8	-0.107192814
159	0xbdeb59a4	-0.11491707
160	0xba34dbeb	-0.00068992254
161	0xbdabc01c	-0.08386251
162	0xbdd76714	-0.105177075
163	0xbda705e7	-0.08155423
164	0x3de96705	0.113966025
165	0xbe1be862	-0.15225366
166	0xbdcc2bd7	-0.09969299
167	0xbd3f60fe	-0.04672336
168	0x3e1aa966	0.15103683
169	0xbdcee399	-0.101020046
170	0xbc078d82	-0.008273484
171	0x3db5799b	0.08861085
172	0xbe1c2980	-0.15250206
173	0xbe4bc8b7	-0.19900785
174	0xbe0a5438	-0.1350869
175	0xbe43438b	-0.19068734
176	0xbc31777f	-0.010831713
177	0xbe2139cb	-0.15744703
178	0x3d83f993	0.06444087
179	0x3d1816ff	0.037131306
180	0xbe45a224	-0.19300133
181	0xbcc1e8f1	-0.023670645
182	0xbdc43439	-0.09580273
183	0xbc4175c8	-0.011807866
184	0xbc6ab20d	-0.014324677
185	0x3d4004c6	0.046879552
186	0x3c69d702	0.014272453
187	0x3dc05652	0.09391464
188	0x3dfde26f	0.123967044
189	0xbca4a7a7	-0.020099474
190	0xbd8946e1	-0.06702972
191	0xbd1c5182	-0.03816367
192	0xbdcaedc8	-0.099086344
193	0x3e1005a3	0.1406465
194	0xbdf1a421	-0.11798883
195	0xbe897c13	-0.26852474
196	0xbb670fcb	-0.0035257216
197	0xbe675fe6	-0.22595176
198	0xbd8d0bea	-0.06887038
199	0xbba224aa	-0.0049482184
200	0xbdeccc42	-0.115623966
201	0xbdb3fb75	-0.08788196
202	0xbdc18851	-0.094498284
203	0xbe8c6a1d	-0.27424708
204	0xbdc2417d	-0.09485147
205	0x3c3fa5b8	0.011697225
206	0x3d3c267c	0.04593514
207	0xbcc261ce	-0.023728278
208	0x3dd3a985	0.10335068
209	0xbcf9d9d4	-0.030499376
210	0x3d6aa059	0.057281826
211	0xbe3ebcdc	-0.18626732
212	0xbe5403d8	-0.20704591
213	0xbc4a1033	-0.012332964
214	0x3d72e98f	0.05930477
215	0xbdc4c740	-0.096083164
216	0xbd19fe09	-0.037595782
217	0xbd62db69	-0.055385027
218	0xbde5d5e9	-0.11222441
219	0xbe4e05b4	-0.20119363
220	0x3e0eedf3	0.13957958
221	0xbcba68f0	-0.022755116
222	0x3d8f1958	0.06987256
223	0xbcf06ee7	-0.029349757
224	0x3dc00203	0.09375384
225	0x3dbc19e6	0.09184627
226	0xbe70409a	-0.23462144
227	0xbca8c67e	-0.020602461
228	0xbe19f184	-0.15033537
229	0xbe3475e9	-0.17623104
230	0xbe0772a5	-0.13227327
231	0x3e07f389	0.13276495
232	0x3d50343b	0.05083106
233	0x3e3b02aa	0.18262735
234	0x3d4ffcd1	0.050778214
235	0xbd07f30f	-0.033190783
236	0x3dbcc705	0.092176475
237	0x3da0354d	0.07822666
238	0xbd809540	-0.06278467
239	0x3bb1d324	0.0054267813
240	0xbe92ac21	-0.2864695
241	0xbdf64d5b	-0.12026473
242	0xbe2f23ea	-0.17103544
243	0xbdcc8e52	-0.09988083
244	0x3def9611	0.11698545
245	0xbdc279b5	-0.0949587
246	0xbd3db768	-0.046317488
247	0xbdf96df8	-0.12179178
248	0x3db319a2	0.087451234
249	0x3b2e7b6d	0.002662386
250	0xbe17ffa0	-0.14843607
251	0xbd70602f	-0.058685478
252	0xbd77fa42	-0.0605414
253	0x3ae3cfe0	0.0017380677
254	0x3d152523	0.03641237
255	0x3e2151e2	0.15753892

a2c_network.actor_mlp.2.bias f4 [128]
0	0xbcc5b7e8	-0.024135545
1	0x3dc1d8c1	0.09465171
2	0x3d4f2b93	0.050578665
3	0x3e3a269f	0.18178795
4	0xbe7cf327	-0.2470213
5	0xbd737600	-0.059438705
6	0x3e171166	0.1475273
7	0x3d49469d	0.049139608
8	0xbbb76176	-0.005596335
9	0x3d28a5f9	0.04117391
10	0x3cfafad2	0.030637179
11	0xbd159eef	-0.036528524
12	0xbe6503a7	-0.22364675
13	0xbe345742	-0.17611411
14	0xbe0ab583	-0.13545804
15	0xbd7972bd	-0.06090044
16	0xbe0136ff	-0.12618636
17	0xbde70836	-0.11280863
18	0x3d41e725	0.047339577
19	0x3d2cdcb0	0.04220265
20	0x3e6387e8	0.22219813
21	0xbe1d74ca	-0.15376583
22	0xbd9ee156	-0.07757823
23	0xbe0353e2	-0.12824968
24	0xbdcc266f	-0.09968268
25	0xbdb69446	-0.08915
26	0x3e066d3e	0.1312761
27	0xbe26570a	-0.1624414
28	0x3db6618d	0.08905325
29	0xbe07f229	-0.1327597
30	0xbe08a7f5	-0.1334532
31	0x3e084d83	0.13310818
32	0x3d51c8b8	0.05121681
33	0xbe583568	-0.21114123
34	0x3e0cd00d	0.1375124
35	0x3db66bc2	0.08907272
36	0x3e33ee42	0.17571357
37	0x3d2674ad	0.040638614
38	0xbe5d25fa	-0.21596518
39	0x3ce1c7c2	0.027561072
40	0xbd85c683	-0.06532004
41	0xbe524f73	-0.2053812
42	0x3c0358bf	0.008016764
43	0xbe7fbf78	-0.24975383
44	0xbe55eb08	-0.20890439
45	0xbe9e9e6c	-0.3098024
46	0xbe19339d	-0.14961095
47	0x3d9dabc3	0.076987766
48	0xbe1d2fd1	-0.15350272
49	0xbd369863	-0.04457892
50	0x3dda30c6	0.10653834
51	0xbcc674a0	-0.024225533
52	0x3da5b072	0.08090295
53	0xbe66fe34	-0.22557908
54	0xbe038304	-0.12842947
55	0xbde63de0	-0.112422705
56	0xbdad3787	-0.084578566
57	0xbdc42d7d	-0.09578989
58	0xbea29d86	-0.31760806
59	0x3e6e8da4	0.23296219
60	0xbe4b8d64	-0.19878155
61	0x3df07d6e	0.11742674
62	0x3d3e08fa	0.04639528
63	0x3d772a65	0.060343165
64	0x3d49008f	0.0490728
65	0xbe822c1e	-0.25424284
66	0x3d1fbfbf	0.039001223
67	0x3d11d0b8	0.03559944
68	0x3d9f9f9c	0.07794115
69	0x3e7771a5	0.24164446
70	0x3cba0ee7	0.022712184
71	0xbe83363b	-0.25627312
72	0x3d929fe3	0.07159402
73	0xbe517342	-0.20454124
74	0xbe9668bb	-0.29376778
75	0xbd8215ca	-0.06351812
76	0xbdac48c8	-0.084123194
77	0x3dfda471	0.1238488
78	0x3de391bf	0.11111783
79	0xbda3803c	-0.07983443
80	0x3dfd00d2	0.12353672
81	0x3e4737ac	0.19454831
82	0xbd59159a	-0.052999116
83	0xbbad92d7	-0.0052970457
84	0x3d0e07dd	0.034675468
85	0xbda7ed28	-0.08199531
86	0x3d5edf41	0.05441213
87	0x3cf82c7a	0.030294646
88	0x3d6c7704	0.05773069
89	0xbd6d568e	-0.057943873
90	0xbeb0bc3f	-0.3451862
91	0xbdac1786	-0.08402924
92	0x3d94b338	0.07260746
93	0x3dc4bcc4	0.09606317
94	0xbe7aa212	-0.24475887
95	0xbe1220cb	-0.14270322
96	0x3c5a1153	0.0133097945
97	0xbd4b3a40	-0.0496161
98	0xbe308809	-0.17239393
99	0xbe528500	-0.20558548
100	0xbe2a8bce	-0.16654894
101	0xbe04e092	-0.12976292
102	0x3d196ecb	0.037459176
103	0x3e0001c1	0.12500669
104	0xbd50d7cf	-0.05098706
105	0xbe0c131d	-0.13679166
106	0x3dc4a0bc	0.0960097
107	0xbd5877e6	-0.05284872
108	0xbe9a0006	-0.30078143
109	0xbe2cb00d	-0.16864033
110	0x3cc0a14f	0.023514418
111	0x3d1dd51b	0.03853331
112	0xbe07685b	-0.13223402
113	0xbe25b42c	-0.16182011
114	0xbea43e43	-0.32078752
115	0xbe44fe07	-0.19237529
116	0x3da8d9b8	0.082446516
117	0xbe3d1bd4	-0.18467647
118	0xbe85c0e6	-0.26123732
119	0xbe62d588	-0.22151768
120	0xbe540c81	-0.20707895
121	0xbe2a45fe	-0.16628262
122	0x3e17a69d	0.14809652
123	0xba95848a	-0.0011407298
124	0xbdb9c4ed	-0.09070764
125	0x3d8ac134	0.06775132
126	0x3e00a73c	0.12563795
127	0xbe89a7bc	-0.26885784

a2c_network.actor_mlp.4.weight f4 [64, 128]
0	0x3e0aa224	0.13538414
1	0xbcde11e8	-0.027108148
2	0x3d4d46e9	0.050116453
3	0xbd014198	-0.031556696
4	0x3d26e198	0.040742487
5	0x3d85b564	0.06528738
6	0xbd4a7acd	-0.04943352
7	0xbd95406c	-0.07287678
8	0xbdd71d06	-0.10503583
9	0xbd96ccf2	-0.07363309
10	0xbe5b8847	-0.21438704
11	0x3d95b1f2	0.07309331
12	0x3d70b71f	0.058768388
13	0x3d82f2fa	0.06394
14	0xbd290b2e	-0.041270427
15	0xbd5894c8	-0.052876264
16	0xbe047e2f	-0.1293876
17	0x3dccedc4	0.10006288
18	0x3d5cf90d	0.05394845
19	0xbd2a640f	-0.04159933
20	0xbd52e868	-0.05149117
21	0x3dd40c27	0.103538804
22	0xbdb15d92	-0.08660425
23	0x3e2b448d	0.16725369
24	0x3b99bbfa	0.004691598
25	0x3bb1506f	0.0054111998
26	0xbd1fd825	-0.03902449
27	0xbd0aa7f0	-0.033851564
28	0xbd2627a8	-0.040565163
29	0xbb8f0b8d	-0.0043653906
30	0xbd1b4654	-0.037908867
31	0x3e07d493	0.13264684
32	0xbe387728	-0.18014205
33	0x3d4dc2de	0.050234668
34	0xbde82123	-0.11334445
35	0xbd48c7de	-0.049018733
36	0xbce4bd25	-0.027922222
37	0xbd925d1b	-0.07146665
38	0xbd3dcf98	-0.046340555
39	0xbbe720f3	-0.0070534884
40	0x3d1885ce	0.03723698
41	0x3dc45f50	0.09588492
42	0xbe0f6bdd	-0.1400599
43	0x3c7b6001	0.015342713
44	0x3da68cbd	0.081323124
45	0x3d1b9cd0	0.037991345
46	0x3e7980cd	0.2436554
47	0xbe809f26	-0.2512142
48	0xbe5d70b3	-0.21625023
49	0xbe07708d	-0.13226528
50	0x3d175e54	0.036955193
51	0xbdc5f3fa	-0.096656755
52	0xbe32be23	-0.17455344
53	0x3c92211e	0.017838057
54	0xbcd97fbd	-0.026550168
55	0xbc36eb2b	-0.011164467
56	0x3d55d609	0.052206073
57	0xbd93e1e9	-0.07220823
58	0x3c2f2a96	0.010691306
59	0xbd015879	-0.031578515
60	0xbd0330ba	-0.03202889
61	0xbe0a9417	-0.13533054
62	0xbd8f77f8	-0.07005304
63	0xbddd05ef	-0.10792147
64	0xbe948ceb	-0.29013762
65	0xbdc8868a	-0.09791286
66	0xbe0f7a0e	-0.14011404
67	0xbd92cf71	-0.071684726
68	0xbe811c3e	-0.2521686
69	0xbd4eefc2	-0.05052162
70	0xbccc0c58	-0.02490823
71	0xbd0cb89a	-0.034355737
72	0xbe8dd64a	-0.27702552
73	0x3db3550c	0.08756456
74	0x3d8ace56	0.06777637
75	0x3db8525a	0.09000082
76	0x3c80a9e9	0.01570602
77	0x3d94a298	0.07257575
78	0xbe7e2fc0	-0.24822903
79	0x3d902ccf	0.070397966
80	0x3e1d5aec	0.15366715
81	0x3dafb2ad	0.085790016
82	0xbe279143	-0.16364007
83	0xbc8339c2	-0.016018752
84	0xbe378c00	-0.179245
85	0xbddca5a2	-0.107737795
86	0xbd93814e	-0.07202397
87	0x3e2a976a	0.16659322
88	0xbd515d30	-0.05111426
89	0xbdab0c49	-0.083519526
90	0x3dc9e7ff	0.09858703
91	0xbe027e24	-0.12743431
92	0x3d4625de	0.048375957
93	0x3e2b1c27	0.16709958
94	0x3d8a5260	0.06753993
95	0xbd5f0e03	-0.054456722
96	0x3d41caed	0.047312666
97	0xbe4272de	-0.18989131
98	0x3dd4fccd	0.103997804
99	0xbd20e00b	-0.039276164
100	0xbd59e15c	-0.053193435
101	0xbd97de03	-0.07415392
102	0xbdc22fb8	-0.09481758
103	0x3de485ac	0.111583084
104	0xbd202dfd	-0.039106358
105	0xbd174c2d	-0.03693788
106	0x3d73b18a	0.059495486
107	0xbd87ff5b	-0.06640502
108	0x3daa5893	0.083176754
109	0xbd21ecf2	-0.03953261
110	0xbdfa4a30	-0.122211814
111	0x3b28a79f	0.0025734676
112	0x3d945d28	0.07244331
113	0x3e48de18	0.19615972
114	0xbdaad2e9	-0.08341009
115	0x3d533902	0.05156804
116	0x3d5c15b8	0.05373165
117	0x3c8fe492	0.017565046
118	0xbdeeae96	-0.116543934
119	0x3e972954	0.29523718
120	0xbcd1a0a1	-0.02558929
121	0xbd3b3e65	-0.0457138
122	0xbdb06bc9	-0.086143084
123	0x3da69f74	0.08135882
124	0xbd1a2a5a	-0.037638046
125	0x3c46e6e7	0.012140012
126	0x3df4103a	0.119171575
127	0x3d43a32a	0.047763027
128	0xbe15abac	-0.14616269
129	0xbdc5d3e8	-0.096595585
130	0xbd829f01	-0.06377984
131	0xba8350d8	-0.00100186
132	0x3e2db2a1	0.16962673
133	0xbda0bf8a	-0.07849033
134	0xbd8582bb	-0.065190755
135	0xbe291943	-0.16513543
136	0xbe071e17	-0.13195072
137	0xbda591ba	-0.08084436
138	0x3c0572a5	0.008145009
139	0x3da4261a	0.0801508
140	0x3c0ec2e2	0.008713456
141	0x3d8979fc	0.0671272
142	0xbc93e620	-0.018054068
143	0xbd260383	-0.040530693
144	0x3cd4c8e6	0.025974702
145	0xbe0e1267	-0.13874207
146	0xbdad81ac	-0.084719986
147	0xbdb09127	-0.086214356
148	0x3e0a744a	0.13520923
149	0x3cdfe66e	0.027331557
150	0xbda788a2	-0.081803575
151	0x3cf1d611	0.02952102
152	0xbd1f7864	-0.038933173
153	0xbd7a0ebc	-0.061049208
154	0x3d45b85d	0.048271526
155	0xbd16fbd6	-0.036861263
156	0xbcd4305f	-0.025901971
157	0x3d98cedb	0.074613295
158	0xbca647b4	-0.020297863
159	0x3cf0756e	0.02935287
160	0x3cc899f3	0.024487471
161	0x3ce79dd6	0.028273504
162	0xbdff9945	-0.12480406
163	0xbd9a0b4e	-0.075216874
164	0x3b0e8bac	0.0021750731
165	0xbe158f06	-0.1460534
166	0xbd916ae3	-0.07100465
167	0xbd67050c	-0.056401297
168	0x3c833d61	0.016020479
169	0x3de1bc3a	0.110222295
170	0xbd1635b9	-0.036672328
171	0x3c87066e	0.016482558
172	0x3e42ef1d	0.19036527
173	0x3e21de21	0.15807392
174	0x3da444bb	0.08020922
175	0xbd882e83	-0.066494964
176	0xbdd7aaec	-0.10530648
177	0x3ddfdf5e	0.10931276
178	0xbda98a53	-0.082783364
179	0x3c8e5082	0.017372373
180	0x3e028766	0.12746963
181	0xbca044c1	-0.019564034
182	0xbe62b016	-0.22137484
183	0x3d6b5c7e	0.057461254
184	0x3da4c118	0.08044642
185	0x3e259f6a	0.16174093
186	0xbc7168ce	-0.01473446
187	0xbd52c4f3	-0.051457357
188	0x3c5c1073	0.013431656
189	0xbdfea9ed	-0.124347545
190	0x3c626ef1	0.013820396
191	0xbd7e937e	-0.06215238
192	0xbc470ad7	-0.0121485805
193	0x3cfc53b3	0.03080163
194	0xbd913155	-0.070894875
195	0xbd371520	-0.04469788
196	0xbd8ce846	-0.0688024
197	0xbd9b5631	-0.07584799
198	0x3b384c9a	0.002812183
199	0xbc1daa4f	-0.009623124
200	0x3d369a11	0.044580523
201	0x3e234b1a	0.15946618
202	0xbceee316	-0.029161017
203	0x3e82927b	0.2550238
204	0xbddd72b3	-0.10812893
205	0xbda80697	-0.08204382
206	0x3d2ec1e0	0.042665362
207	0xbde1d14d	-0.11026249
208	0x3da930c7	0.08261257
209	0xbe5da090	-0.21643281
210	0xbdcf364c	-0.10117778
211	0xbe5bfd84	-0.21483427
212	0x3d9c72e6	0.07639103
213	0xbc88ee1a	-0.016715098
214	0xbe04a4d3	-0.129535
215	0xbd6d534e	-0.057940774
216	0x3d94ddf4	0.07268897
217	0xbd4b91ae	-0.049699478
218	0x3db6da65	0.08928374
219	0xbe0137e1	-0.12618972
220	0xbd5b1bd2	-0.05349333
221	0xbda64a5f	-0.08119654
222	0x3961802b	0.00021505418
223	0xbddd83c9	-0.10816152
224	0xbd4e61a5	-0.05038609
225	0x3d9ed4a6	0.07755403
226	0x3de4b85c	0.11167976
227	0x3d88e843	0.066849254
228	0xbdb17097	-0.08664053
229	0xbdacb081	-0.08432103
230	0xbdb880f0	-0.09008968
231	0xbd59ddff	-0.053190228
232	0x3e14121f	0.14460038
233	0xbd2adc8b	-0.041714232
234	0xbd8076e0	-0.062726736
235	0xbd38e956	-0.0451444
236	0x3dc71a3f	0.09721803
237	0x3e38fc0a	0.18064895
238	0xbd956d47	-0.072962336
239	0xbdd64f3c	-0.104643315
240	0xbcb40a54	-0.021977581
241	0xbddc54cd	-0.10758362
242	0x3d430a4e	0.04761725
243	0x3dfd0477	0.12354367
244	0xbd05ce9c	-0.03266774
245	0xbcf9d12b	-0.030495247
246	0xbda28a47	-0.079365306
247	0xbd365d76	-0.044522725
248	0x3d21a454	0.039463356
249	0xbe3d3887	-0.18478595
250	0xbde16a42	-0.11006595
251	0x3ccdaa21	0.025105538
252	0x3c3dab08	0.011576422
253	0x3c20bae5	0.009810184
254	0x3dacfeaa	0.08447011
255	0xbd14c378	-0.036319226

a2c_network.actor_mlp.4.bias f4 [64]
0	0xbd4fc199	-0.05072174
1	0xbc425884	-0.011861924
2	0x3cb87e01	0.02252102
3	0xbdd85828	-0.105636895
4	0xbb38ac37	-0.002817882
5	0x3d81d953	0.063402794
6	0xbb27bf55	-0.002559622
7	0x3b8a9e91	0.0042303284
8	0x3cb9529c	0.022622399
9	0xba3a2a2e	-0.0007101622
10	0xbdd3f401	-0.103492744
11	0x3d1d2923	0.03836931
12	0xbd8b86f8	-0.068128526
13	0x3cb10f3f	0.021613715
14	0xbd963111	-0.073335774
15	0xbe00de53	-0.1258481
16	0xbe3fe06d	-0.18737955
17	0xbe8906ed	-0.26763096
18	0xbc9608e6	-0.01831479
19	0xbd015b52	-0.03158123
20	0xbda07c54	-0.07836214
21	0x3c224b00	0.009905577
22	0xbd89de7e	-0.0673189
23	0xbc64fde8	-0.013976552
24	0xbdaf8e05	-0.0857201
25	0xbe0f5bbe	-0.1399984
26	0x3c8746d5	0.016513268
27	0xbd020388	-0.03174165
28	0x3c8bb4b7	0.017053945
29	0xbdc16e94	-0.09444919
30	0xbe06fda8	-0.131827
31	0xbe36a08f	-0.17834686
32	0x3cb58769	0.022159295
33	0xbdc4a5bf	-0.09601926
34	0x3d1b4eef	0.037917074
35	0xbcb0b3fe	-0.021570202
36	0x3ca1219b	0.019669345
37	0xbde61269	-0.1123398
38	0xbe481536	-0.19539341
39	0xbde9e767	-0.114210896
40	0xbd9593ed	-0.07303605
41	0xbd550846	-0.052009843
42	0x3c7bef5e	0.015376894
43	0xbdc96a27	-0.098347
44	0xbe029844	-0.12753397
45	0x3ccaf93d	0.02477705
46	0x3d14d25d	0.03633343
47	0xbc685b54	-0.014181931
48	0xbcc1a20a	-0.023636837
49	0xbd3e16db	-0.046408515
50	0x3d1ae5c0	0.037816763
51	0xbe1573d5	-0.14594968
52	0xbdb8233c	-0.089910954
53	0x3b72c186	0.0037041618
54	0xbe4b646b	-0.19862525
55	0xbe00e4a1	-0.12587215
56	0xbab90003	-0.0014114383
57	0xbd7a6c07	-0.06113818
58	0xbe59a8fb	-0.21255867
59	0xbe1c93a9	-0.15290703
60	0xbd551d79	-0.05203006
61	0xbcd9cc9e	-0.026586827
62	0xbe2cab31	-0.1686218
63	0xbc6a8c1c	-0.014315631

a2c_network.value.weight f4 [1, 64]
0	0xba13ecfc	-0.00056429184
1	0xbb2946a7	-0.0025829466
2	0xbb542f05	-0.0032376659
3	0x3b27fea9	0.0025633967
4	0xbad485d6	-0.0016214203
5	0x3b217fd2	0.0024642837
6	0x3bf87ef1	0.007583492
7	0x3c4fc398	0.0126809105
8	0xbc0603b4	-0.008179594
9	0x3bbf3db3	0.0058362125
10	0x3f2fd8e7	0.6869034
11	0xbd5e780d	-0.054313708
12	0x3a1aeb9c	0.00059097423
13	0x3cb25af8	0.021771893
14	0xbb841902	-0.0040313015
15	0x3ca40e52	0.02002636
16	0x3ebff82a	0.37494022
17	0x3d428595	0.047490675
18	0xbc0b63d3	-0.008507687
19	0x395e052e	0.000211735
20	0x3bce3075	0.0062923976
21	0x3acce20d	0.0015631333
22	0x3b823d03	0.0039745583
23	0xbc98855c	-0.018618278
24	0x3b653414	0.0034973668
25	0x3f0b122c	0.54324603
26	0x3af59c1f	0.0018738544
27	0xba8a0f8d	-0.0010533199
28	0xbce0b1f5	-0.027428607
29	0x3b7655a9	0.0037587679
30	0x3bbc84f0	0.005753152
31	0xbf923606	-1.1422737
32	0x3e84a1bb	0.2590464
33	0x3bf41073	0.00744825
34	0xbe692817	-0.227692
35	0x3c3048c3	0.010759535
36	0xb993eed6	-0.00028215972
37	0x3be79919	0.007067811
38	0x3c5996e5	0.013280605
39	0x3d164921	0.036690835
40	0x3f701de7	0.9379563
41	0xbad536a6	-0.0016266897
42	0xba3934aa	-0.00070650375
43	0x3b464393	0.003025268
44	0x3c8ab0ad	0.016929949
45	0x3bb24939	0.0054408577
46	0x3a4cf8a7	0.00078190345
47	0x3bf72441	0.0075421636
48	0xbbda7d57	-0.0066677737
49	0x3a880f0b	0.001038046
50	0xba9bf516	-0.0011898603
51	0xbab06445	-0.0013457617
52	0xbbd0eeea	-0.006376137
53	0x3b877f92	0.0041350806
54	0x3c2eaabe	0.010660825
55	0xbc2e957c	-0.010655757
56	0xbd19af5a	-0.037520744
57	0x3abbfd23	0.0014342408
58	0x3d0fd7cb	0.035117906
59	0xbaf4b4ec	-0.0018669642
60	0xbcac1c0f	-0.021009473
61	0xb54d8d29	-7.6573866e-07
62	0x3a5f4131	0.0008516489
63	0xbbfa17fd	-0.007632254

a2c_network.mu.weight f4 [12, 64]
0	0xbdb05e1a	-0.086116984
1	0x3d077dab	0.03307883
2	0xbd543a51	-0.051813427
3	0x3d272211	0.040803973
4	0x3ab74003	0.0013980869
5	0x3d550af4	0.0520124
6	0x3bc32532	0.0059553618
7	0xbda3c000	-0.079956055
8	0x3d0255b9	0.031820033
9	0x3d9a9c67	0.07549363
10	0xbc9369a5	-0.017994711
11	0xbdc961f9	-0.0983314
12	0x3dc41dfc	0.095760316
13	0x3c02f288	0.007992394
14	0x3c70c5c7	0.014695591
15	0xbcf51bcb	-0.02992048
16	0xbd120ab8	-0.035654753
17	0xbdea9b72	-0.1145543
18	0xbce71fac	-0.028213345
19	0x3d7596be	0.059958212
20	0x3d0c3a3b	0.03423522
21	0x3c858eba	0.016303409
22	0xbce25559	-0.027628588
23	0xbcba49ef	-0.022740332
24	0x3d2475aa	0.040151276
25	0x3bcd5fb4	0.006267512
26	0x3c42bc7c	0.0118857585
27	0xbc6e6584	-0.01455057
28	0xbc0e6d75	-0.008693089
29	0xbc818230	-0.015809149
30	0xbd3d310f	-0.046189364
31	0xba151bab	-0.0005688022
32	0x3c6d3466	0.014477825
33	0xbb76c6ce	-0.0037655118
34	0xbd615aba	-0.055018164
35	0xbcb97109	-0.022636907
36	0x3caceacd	0.021108055
37	0xbdced255	-0.100987114
38	0xbd5b327a	-0.053514935
39	0xbdeb2c6b	-0.114830814
40	0xbcacac51	-0.02107826
41	0x3dd1ae45	0.102383174
42	0xbd384573	-0.044988107
43	0xbc47454d	-0.012162519
44	0xbd42c8b9	-0.047554705
45	0x3c699d68	0.01425872
46	0x3c4cca92	0.012499468
47	0xbb71ff7f	-0.003692597
48	0xbd049adc	-0.032374248
49	0xbd5f5845	-0.05452754
50	0x3ccac437	0.024751766
51	0xbccaf02b	-0.024772724
52	0xbc5e697d	-0.013574955
53	0x3cd7d88b	0.026348373
54	0xbd90135c	-0.070349425
55	0x3c8e0aa4	0.017339058
56	0x3cad5b14	0.021161593
57	0xbcfff174	-0.031243064
58	0xbd8f15b5	-0.06986562
59	0x3dafe0a2	0.08587767
60	0xbce32206	-0.027726185
61	0xbe462e85	-0.19353683
62	0xbdbe4a06	-0.092914626
63	0xbdd104dc	-0.10206005
64	0x3c33f3e2	0.010983439
65	0xbcd5fe1c	-0.026122145
66	0xbcd84810	-0.02640155
67	0x3d858bbf	0.06520795
68	0x3d4224f2	0.047398515
69	0xbcfd1e05	-0.030898103
70	0x3ccadde6	0.024764013
71	0xbd8eb0c2	-0.069673076
72	0x3dcd1e5e	0.10015558
73	0x3ced646e	0.028978553
74	0xbd178a82	-0.036997326
75	0x3ad103f6	0.0015946615
76	0x3d8ff0f9	0.07028384
77	0x3d331a85	0.043726463
78	0xbd8918e0	-0.06694198
79	0x3c30264b	0.010751317
80	0x3ba9fc9b	0.0051875836
81	0xbb91adcf	-0.0044457684
82	0x3d140622	0.03613866
83	0x3bd97022	0.0066356817
84	0x3d2cb6f6	0.042166673
85	0x3c8c61e3	0.01713652
86	0xbd5b3252	-0.053514786
87	0xbccd0917	-0.025028748
88	0xbca1757e	-0.019709345
89	0x3c16b784	0.009199027
90	0x3c95bf0f	0.01827958
91	0xbcece5ab	-0.028918108
92	0xbc429b49	-0.011877843
93	0x3c1edd48	0.009696312
94	0xbd4f40ca	-0.050598897
95	0xbb13e1dc	-0.0022565043
96	0xbd85ab55	-0.065268196
97	0x3cb11869	0.021618085
98	0x3c870db5	0.016486028
99	0xbc850707	-0.016238702
100	0xbacb2f52	-0.0015501773
101	0xbc16e77b	-0.009210463
102	0x3e3367eb	0.1752011
103	0x3cdcd50a	0.026957054
104	0xbb02734f	-0.0019905155
105	0x3cbf069d	0.023318583
106	0xbcee4deb	-0.029089889
107	0x3c79d509	0.015248545
108	0x3d2807a9	0.04102293
109	0x3cbe6d8d	0.023245597
110	0xbd11d264	-0.035601035
111	0x3d1f1da0	0.038846612
112	0xbd37d745	-0.04488303
113	0xbda9dde7	-0.08294278
114	0xbde56490	-0.112008214
115	0x3cf56b68	0.029958442
116	0x3d4c2223	0.049837243
117	0xbdbcc9ab	-0.092181526
118	0xbc876e55	-0.016532103
119	0x3db08e0e	0.08620845
120	0xba5b4f24	-0.000836598
121	0xba0a4492	-0.00052745
122	0xbd49cdbc	-0.04926847
123	0xbbacb7f2	-0.0052709514
124	0xbcd7df4c	-0.026351593
125	0xbc3deaef	-0.011591657
126	0xbd608ae9	-0.054819975
127	0xbd420395	-0.047366697
128	0xb9ba7755	-0.00035565594
129	0xbdbb4de8	-0.09145719
130	0xbe1ddc2f	-0.15416025
131	0xbc89022c	-0.016724668
132	0xbda8bee8	-0.082395375
133	0xbdc1eeff	-0.09469413
134	0x3d43d8f3	0.04781432
135	0xbd820b00	-0.06349754
136	0x3bcc08bc	0.006226627
137	0x3d6787e0	0.056526065
138	0xbcf4f48c	-0.029901765
139	0x3d4f1fc1	0.050567392
140	0x3d0493b9	0.03236744
141	0x3c80017f	0.015625713
142	0x3c1b5a0b	0.009481917
143	0xbc8921b8	-0.016739711
144	0xbe04bde1	-0.12963058
145	0xbd49d549	-0.04927567
146	0x3d5dbe4d	0.054136563
147	0x3c9aab57	0.01888053
148	0xbc601de1	-0.013678999
149	0xbb4bf7ed	-0.0031123117
150	0x3b7e3b9d	0.0038792857
151	0xbc986a26	-0.018605303
152	0xbdd314b6	-0.10306685
153	0x3d91e17d	0.071230866
154	0xbc87a969	-0.016560273
155	0x3d4b939a	0.04970131
156	0x3b563dd3	0.0032690659
157	0x3c5a3c2d	0.013320011
158	0x3d13f0f0	0.036118448
159	0xbc3d3f8c	-0.011550795
160	0x3c60e16f	0.013725623
161	0xbc33005c	-0.010925379
162	0x3ccfee1e	0.025382098
163	0xbe239013	-0.15972929
164	0x3cfb25d5	0.030657688
165	0xbe31425e	-0.17310473
166	0xbcdbfebd	-0.026854867
167	0xbdc609b0	-0.096698165
168	0x3cb6bfcc	0.022308253
169	0x3dc4e7f0	0.09614551
170	0xbcc74b68	-0.024327949
171	0xbe1b6a00	-0.15177155
172	0x3d6994fc	0.05702685
173	0x3d90466d	0.07044683
174	0xbe006e98	-0.12542188
175	0xbd9f076f	-0.0776509
176	0x3d670b51	0.056407277
177	0xbaa111dd	-0.0012288649
178	0x3dc724b5	0.09723798
179	0xbdd3dc2d	-0.103447296
180	0x3ddf36f7	0.108991556
181	0x3d7eed51	0.06223804
182	0xbab14dc7	-0.0013527208
183	0x3d9aaff3	0.07553091
184	0x3bb5ca76	0.005547817
185	0x3cd269f1	0.025685282
186	0x3cfc8cd5	0.030828873
187	0xbe520fab	-0.2051379
188	0x3d09e13b	0.033662062
189	0xbc9a2a75	-0.018819073
190	0x3dab1073	0.08352747
191	0x3db0e5d0	0.08637583
192	0xbcb6d4e8	-0.022318318
193	0xbcfcac2b	-0.030843815
194	0xbc44efb9	-0.012020045
195	0x3a1952de	0.0005848835
196	0xbdbbcce0	-0.09169936
197	0x3da916e7	0.082563214
198	0x3d10be26	0.03533759
199	0xbaa3c303	-0.0012494031
200	0xbd4144e8	-0.047184855
201	0xbc95f048	-0.018303052
202	0xbd152315	-0.03641041
203	0x3d5f25c8	0.05447939
204	0x3c0bb3db	0.008526768
205	0xbd53a626	-0.051672123
206	0x3c6bed74	0.014399875
207	0xbc55b086	-0.013042575
208	0x3dafb63e	0.08579682
209	0xbc13b4e5	-0.009015297
210	0x3dc68628	0.09693557
211	0xbd470e4a	-0.04859761
212	0x3b02a1cc	0.0019932864
213	0x3ccca4a8	0.024980858
214	0x3a3ad565	0.0007127135
215	0xbbc42a1a	-0.005986464
216	0xbc7d60e2	-0.015464993
217	0xbcaab53a	-0.020838369
218	0x3d044a89	0.032297645
219	0x3cc9d593	0.024637973
220	0xbbd557d6	-0.006510715
221	0xbcae04b3	-0.021242475
222	0x3cb4949b	0.022043517
223	0xba8d1515	-0.0010763729
224	0xbdb56bf7	-0.08858483
225	0x3bcfca8c	0.006341284
226	0x3cdf784d	0.027279044
227	0x3dea94a6	0.11454134
228	0xbb616cef	-0.0034397205
229	0xbd84cb7d	-0.06484125
230	0xbd60f0f9	-0.05491731
231	0x3daa87aa	0.08326657
232	0x3cb1eda6	0.021719765
233	0xbcb53527	-0.022120072
234	0xbd613138	-0.05497858
235	0x3d1b3083	0.03788806
236	0x3c8ed3bc	0.017434947
237	0xbd247ffd	-0.04016112
238	0xbbd39f9f	-0.0064582373
239	0x3c1967b6	0.0093631055
240	0x3c356c68	0.011073209
241	0xbce9827d	-0.028504604
242	0x3b424566	0.0029643415
243	0xbd517fcf	-0.05114728
244	0x3db1ab13	0.08675208
245	0xbde60e65	-0.11233214
246	0xbd804a95	-0.062642254
247	0x3dffa063	0.12481763
248	0xbd25fcb2	-0.040524192
249	0xbc9d3694	-0.019191064
250	0xbc88bc4f	-0.016691355
251	0xbd0a76f5	-0.033804853
252	0xbac1b0eb	-0.0014777457
253	0xbb12b5dc	-0.0022386229
254	0xbc4c7421	-0.012478859
255	0x3be3226a	0.0069315927

a2c_network.mu.bias f4 [12]
0	0x3e41ad9b	0.18913881
1	0xbe3b07b1	-0.18264653
2	0x3dd2e353	0.10297265
3	0xbd6c1f96	-0.05764731
4	0xbe4c7aed	-0.19968767
5	0xbabf7281	-0.0014606268
6	0xbd52dd94	-0.051480845
7	0xbd9ab33d	-0.07553718
8	0x3dd73ab4	0.105092436
9	0x3def739c	0.116919726
10	0xbd950ab1	-0.0727743
11	0xbc8a83cd	-0.01690855

exp_avg f4 [12]
0	0xb9230a99	-0.0001554884
1	0x38d11459	9.969687e-05
2	0x3a7b87ba	0.0009595115
3	0xb8928be7	-6.987881e-05
4	0xb982a1b6	-0.00024916016
5	0x360dcc3a	2.1129513e-06
6	0xb98c3a9f	-0.00026746557
7	0x39a3ac0e	0.00031217973
8	0xb8687d37	-5.5429726e-05
9	0xb8c7c18f	-9.5251125e-05
10	0x39b58064	0.0003461867
11	0x3a0813b3	0.00051909237

exp_avg_sq f4 [12]
0	0x35a85a38	1.2543233e-06
1	0x35c9aa2c	1.5025194e-06
2	0x35cf57f7	1.5448303e-06
3	0x35b7ed8d	1.3703699e-06
4	0x35abe9d5	1.2808547e-06
5	0x35cb9619	1.5168363e-06
6	0x35bd40d0	1.410046e-06
7	0x35b6ab9c	1.3610002e-06
8	0x35b64828	1.3581057e-06
9	0x35b3cf6d	1.3396908e-06
10	0x35b0dff4	1.3178201e-06
11	0x35b62502	1.3570827e-06
