OmniIsaacGymEnvs/omniisaacgymenvs/runs/Naranjelio/nn/last_Naranjelio_ep_2100_rew_13.249371.pth (torch, 672807 bytes, 36 tensors)

value_mean_std.running_mean f8 [1]
0	0x3fe20a3be9e1ca0d	0.5637492721564868

value_mean_std.running_var f8 [1]
0	0x3fc760a8838d15ff	0.18263727591890697

value_mean_std.count f8 []
0	0x41a89c0002000000	206438401.0

running_mean_std.running_mean f8 [48]
0	0x3f9f8255f80e92de	0.03077062918204631
1	0x3f8fa3460d37b4de	0.015448138502473115
2	0x3fa054120412eca8	0.031891406056695104
3	0xbf8ae331618af0b7	-0.013128648556964924
4	0xbf82920fc95608d8	-0.009067653018750496
5	0x3f6497fe454cd773	0.0025138822769816215
6	0x3fb4759fb5787669	0.07991979771073833
7	0xbfb7933cd3d319c4	-0.09209041759013475
8	0xbfed5bba4e95e7e0	-0.9174472365259554
9	0xbf8523d145b108ff	-0.010322222651784061
10	0xbf698e630305f377	-0.003119653112831629
11	0x3f5c09f250ae4049	0.0017113558157895328
12	0x3fd0e5722fb745a6	0.26400427493816847
13	0xbfcbd129a3415080	-0.2173206374305927
14	0x3ed2c89034c4566d	4.478323557562813e-06
15	0xbfa2edcf6ff66bb6	-0.03697059861880041
16	0x3fcd04752b993354	0.22669853810148288
17	0xbfa38e1150ae2685	-0.0381932650553383
18	0xbfd38b598b2b80ee	-0.3053802355843932
19	0xbfd60e32af9310e8	-0.3446165766329288
20	0x3fd614608e5aa2c8	0.3449937238861307
21	0xbfdfc2df2ad607a4	-0.4962690275498238
22	0xbfd985a7dd002c45	-0.39878269750687806
23	0x3fe08f72a3043c08	0.5175107177655045
24	0xbf6a545fe09d089a	-0.0032140610318559084
25	0x3f41125276901edd	0.0005209829952272611
26	0x3f40fa1061ec1e7a	0.0005180912010879911
27	0x3ef1ed03c3c62225	1.7095411963848534e-05
28	0xbf8125f6e684a361	-0.008373192701201128
29	0x3f7f5f7ceb8b8ad2	0.007659423798687741
30	0x3f7c23e21ae66221	0.006870158408127242
31	0xbf79d6f95facf24b	-0.006308530918258069
32	0x3f7e69e4b088974c	0.007425206488312085
33	0xbf75951abda816ff	-0.00526915021555907
34	0xbf694cad337e0551	-0.0030883200487898184
35	0x3f8438a7c418ecc1	0.00987368647758158
36	0x3fcd505f8cd3cf53	0.22901529671036744
37	0xbfb7d4c23b5cba3e	-0.09309019040367958
38	0x3f9948c34e2a9f9d	0.02469163097944681
39	0xbfe0abae3bd79ae4	-0.5209571045678243
40	0xbfc48725a3c49929	-0.1603743600509884
41	0xbfe2d1db0af48a49	-0.5881171430558619
42	0x3feaea023ca4e50a	0.8410655197577921
43	0x3fc94e0cf1c130b2	0.1976944141810058
44	0x3fda163e3d6ee4c5	0.40760761260351003
45	0xbfe4d4317bfb8d06	-0.6509025022063788
46	0xbfe1052a58396734	-0.5318805430535805
47	0x3fe4f6e771b67779	0.6551396580650667

running_mean_std.running_var f8 [48]
0	0x3fc20155e1bc8299	0.14066575548442442
1	0x3fcd45fc55a69e01	0.22869829351587614
2	0x3fa27a151c56c5d7	0.03608766528067136
3	0x3f9b1c711f2fd9c2	0.026475684669969864
4	0x3f82adf7acea4f6b	0.00912087913938083
5	0x3f62ee07c8bc3648	0.002310767367709219
6	0x3fa5f953f44bbb9b	0.04291784627081726
7	0x3fb4c988a1dd1189	0.08120016052004621
8	0x3f93c6bd2b7abb7a	0.019312816408894908
9	0x40157d0623623a20	5.372093727941802
10	0x3ff545f9a91c2dcb	1.3295837980139023
11	0x3f94f57b9d01ffd4	0.020467692811962326
12	0x3faf1d519c2a2497	0.060770559609474244
13	0x3fabacc00b1b37b4	0.054052354198219105
14	0x3e73a0ae4897eee0	7.311872898118936e-08
15	0x3fb07f843d19d510	0.06444574825021143
16	0x3ea474ba7da7d013	6.096354313021356e-07
17	0x3fc50cf0c69053db	0.16445741363045738
18	0x3fce99b304f1e6b9	0.23906553021861557
19	0x3fd2cf4b2f2119cb	0.29390220262976346
20	0x3fbdf44367c4bcd9	0.11700841220293813
21	0x3fc16438dbb50ea9	0.135871035841878
22	0x3fd29ebcfeb4a3e6	0.29093861459347037
23	0x3fb77043cc910ed9	0.09155677551558074
24	0x3f75c50aa9684704	0.005314866683436174
25	0x3f7560653f23c8b5	0.00521888303249989
26	0x3f3f879e0ddb87a3	0.0004811058878272328
27	0x3eed4e11601a9ca4	1.3973690332248698e-05
28	0x3f50f90ae409b71c	0.0010359388690192655
29	0x3f72413b5a23fbb2	0.004456741184411793
30	0x3f6389fb8fc9a724	0.002385131198299544
31	0x3f7f218339d54dfd	0.007600319482054638
32	0x3f8d94786b5329ca	0.014443341040892305
33	0x3f70aade819ad9ff	0.004069203534234677
34	0x3f7998c83dec9727	0.006249220080268881
35	0x3f6bb3015894a5b0	0.0033812547959725867
36	0x3fe3fa06b642d79f	0.6242707786357079
37	0x3fe3c6329e4c9c2c	0.6179440585882552
38	0x3fe4da3e2b66034d	0.6516409728647915
39	0x3fdee5c93c3d9125	0.4827750290189832
40	0x3fe659efb7ce1e6e	0.698478564257085
41	0x3fdac0b2437f94e5	0.4180112513698318
42	0x3fbcdc18acfdbcf8	0.11273340438286883
43	0x3fdd9d25efdfbf71	0.4627165644187619
44	0x3fdc46168c565baa	0.4417778368455695
45	0x3fd4a474ac1d452e	0.3225375824741431
46	0x3fdb4a8120221aec	0.42642238748560035
47	0x3fd3fe9f1a83a556	0.3124158629348889

running_mean_std.count f8 []
0	0x41989c0004000000	103219201.0

a2c_network.sigma f4 [12]
0	0xbf9b2ab4	-1.2122407
1	0xbfad99f5	-1.3562609
2	0xbf598bde	-0.84979045
3	0xbf8951e6	-1.0728118
4	0xbf7321da	-0.9497353
5	0xbfa4e88d	-1.2883469
6	0xbf8d07e6	-1.1018035
7	0xbfdab5be	-1.7086713
8	0xbfcc8c09	-1.5980235
9	0xbf90e716	-1.1320522
10	0xbfae737d	-1.3628994
11	0xbf8f5ab5	-1.1199557

a2c_network.actor_mlp.0.weight f4 [256, 48]
0	0xbc83f423	-0.016107624
1	0xbd6035b3	-0.05473871
2	0xbcaef99a	-0.021359254
3	0xbdb27208	-0.08713156
4	0xbd69fc3f	-0.057125326
5	0xbdb34920	-0.08754182
6	0xbc3a1746	-0.011358088
7	0x3de32bee	0.11092363
8	0xbe19d2f5	-0.1502188
9	0xbed3ec05	-0.41391006
10	0x3e04989f	0.12948845
11	0x3e5203a6	0.20509204
12	0xbdc060a4	-0.09393433
13	0x3d91e5f1	0.07123936
14	0xbdd1ee7d	-0.10250566
15	0xbd9cd537	-0.07657855
16	0x3e39ee03	0.181572
17	0x3d44591f	0.047936555
18	0xbddc7431	-0.10764349
19	0x3e4a311f	0.197453
20	0xbe70fd9e	-0.23534247
21	0xbd747c32	-0.059688754
22	0xbe296371	-0.1654184
23	0x3d8a81cc	0.06763038
24	0x3bc902b8	0.0061343573
25	0x3d8dac59	0.06917638
26	0xbd2ecd53	-0.04267628
27	0x3d63ca92	0.055613108
28	0x3d104878	0.03522536
29	0xbe0d1247	-0.13776504
30	0x3d2d2df2	0.042280145
31	0xbdc097e9	-0.094039746
32	0xbd81b2c0	-0.06332922
33	0xbc9591bd	-0.01825797
34	0xbd10a24a	-0.03531102
35	0x3da328a0	0.07966733
36	0x3d529600	0.051412582
37	0x3bb1bf4e	0.0054244166
38	0x3c8a2042	0.016861085
39	0xbd450249	-0.048097882
40	0x3d3584e3	0.044316184
41	0x3d29e8eb	0.041481894
42	0x3cb2be3b	0.021819225
43	0x3d4e7a63	0.050409686
44	0x3dcdd190	0.100497365
45	0xbba0c8bb	-0.0049067414
46	0xbd461485	-0.048359413
47	0xbdb4d6fb	-0.08830067
48	0xbe133328	-0.14374983
49	0x3d03c6d0	0.032172024
50	0x3db18733	0.08668365
51	0xbd50336d	-0.050830293
52	0xbd2c42b4	-0.0420558
53	0xbccedf2e	-0.025252905
54	0xbd86f7cf	-0.065902345
55	0xbe4df71f	-0.201138
56	0x3eef6473	0.46756324
57	0xbf05ee0f	-0.52316374
58	0x3e3c95a3	0.18416457
59	0x3eb15721	0.34636787
60	0x3dcfc40c	0.10144815
61	0xba4b4a4f	-0.00077549083
62	0xbda041d2	-0.07825054
63	0x3d0c3c0f	0.034236964
64	0x3caac9df	0.020848213
65	0x3dd137b2	0.10215701
66	0x3cf808de	0.030277666
67	0x3e07a2df	0.13245724
68	0x3e64306e	0.222841
69	0xbe13f8f0	-0.14450431
70	0x3da0800f	0.07836925
71	0x3d841885	0.06449989
72	0xbd43a5cc	-0.047765538
73	0x3c22c892	0.009935515
74	0x3d074e12	0.033033438
75	0xbb6daca0	-0.0036266223
76	0xbdd0e140	-0.10199213
77	0xbc279b91	-0.010229961
78	0xbcb8b8f4	-0.02254913
79	0x3ddf42f1	0.1090144
80	0xbd955acb	-0.07292708
81	0xbcd664d2	-0.026171122
82	0x3cfb1c13	0.030653035
83	0xbd29b78a	-0.041434802
84	0x3dbf9d0a	0.09356125
85	0xbdd847c1	-0.10560561
86	0xbc24e7ab	-0.010065
87	0xbd9c6837	-0.07637065
88	0x3c83f03f	0.01610577
89	0xbdac2fde	-0.084075674
90	0xbc26f4b7	-0.0101901805
91	0x3cede79d	0.029041106
92	0x3e116c54	0.1420148
93	0xbc91c953	-0.017796194
94	0xbdd9ade3	-0.106288694
95	0x3d97fb18	0.07420939
96	0xbd982fce	-0.07430993
97	0x3e185245	0.14875133
98	0xbd4953d7	-0.04915222
99	0xbde6169b	-0.112347804
100	0x3d66dbdd	0.05636202
101	0xbe23cfad	-0.15997191
102	0xbdf685be	-0.12037228
103	0xbec3b559	-0.38224295
104	0x3b22e610	0.0024856366
105	0xbe3b0859	-0.18264903
106	0xbe4ad712	-0.19808605
107	0xbe312789	-0.17300238
108	0x3e1b246f	0.15150617
109	0x3d984481	0.07434941
110	0x3d42e70c	0.047583625
111	0x3dded719	0.1088087
112	0x3cb7e477	0.022447808
113	0xbd9560ed	-0.07293878
114	0xbe4d0ba1	-0.20023967
115	0xbe42191b	-0.1895489
116	0x3d97a1eb	0.0740393
117	0xbce130f6	-0.027489167
118	0x3d744ab0	0.05964154
119	0xbe2f034f	-0.17091106
120	0xbd10ab8f	-0.03531986
121	0x3cb9b557	0.022669477
122	0x3cb80060	0.022461116
123	0xbc8b5eca	-0.017012972
124	0x3ccc5db3	0.024947023
125	0xbdc69991	-0.09697259
126	0xbd9225bf	-0.07136106
127	0x3d3b3d81	0.04571295
128	0x3daa84f9	0.08326144
129	0x3d49c342	0.049258478
130	0x3cfb0e61	0.030646505
131	0xbbf4044e	-0.007446802
132	0x3cd63d74	0.02615235
133	0xbd40de96	-0.047087274
134	0xbd5ea280	-0.05435419
135	0x3e3a278b	0.18179147
136	0xbd3c7243	-0.046007406
137	0x3dfffb9a	0.12499161
138	0x3d2a433c	0.041568026
139	0x3d1051c8	0.035234243
140	0xbd3bbfac	-0.04583709
141	0xbc25e449	-0.010125228
142	0xbdc1d985	-0.09465317
143	0xbdc878eb	-0.09788688
144	0xbb95f774	-0.004576618
145	0x3e010352	0.12598923
146	0x3decb7da	0.115585044
147	0x3cdc7054	0.026909031
148	0x3cc06ffd	0.0234909
149	0x3d21d560	0.03951013
150	0xbca868f6	-0.020557862
151	0xbd901c29	-0.07036621
152	0x3e9e6254	0.30934393
153	0xbe5c830b	-0.21534364
154	0xbd613d0d	-0.054989863
155	0x3f0cf8ee	0.55067337
156	0x3cf3bc7b	0.02975296
157	0xbe55f038	-0.20892417
158	0x3b8f2568	0.004368473
159	0xbc057d42	-0.00814754
160	0x3d904a4a	0.070454195
161	0xbe86923c	-0.26283443
162	0x3d35fd12	0.0444308
163	0x3d801b1b	0.0625517
164	0xbd11fbe7	-0.035640623
165	0x3df2241d	0.11823294
166	0x3c8ceb27	0.017201973
167	0xbd74d488	-0.059772998
168	0x3d4d5f01	0.05013943
169	0xbdbc327d	-0.091893174
170	0x3bbf83ee	0.0058445847
171	0xbc1d9c1e	-0.009619741
172	0xbac0d14b	-0.0014710812
173	0x3df43483	0.11924078
174	0xbd93c0c2	-0.072145
175	0xbd29e19f	-0.041474935
176	0xbd8cfece	-0.06884538
177	0x399de382	0.0003011488
178	0x3d03cf9e	0.03218042
179	0x3c1c1c68	0.009528257
180	0xbbdfbb0c	-0.0068277176
181	0xbc45e7dd	-0.012079206
182	0x3dbecee2	0.093168035
183	0xbceb0144	-0.028687127
184	0xbc868a39	-0.016423332
185	0x3cc5d909	0.024151342
186	0x3caa51aa	0.020790894
187	0x3e07100f	0.1318972
188	0xbcfc9a34	-0.030835249
189	0x3d0f80bb	0.035034876
190	0x3d543a26	0.051813267
191	0x3d3f8539	0.04675791
192	0xbdb5cd4d	-0.08877049
193	0x3de243bb	0.11048075
194	0xbdd95862	-0.10612561
195	0x3d3f83a8	0.046756417
196	0xbdac3f7e	-0.08410548
197	0x3daae9d9	0.08345384
198	0x3d0554ad	0.032551456
199	0xbd87c77e	-0.06629847
200	0xbe36ee8f	-0.1786444
201	0xbe6bc095	-0.23022683
202	0x3e5b4bdb	0.21415655
203	0xbded5a14	-0.11589447
204	0x3c5dd3d5	0.013539274
205	0x3e380867	0.17971955
206	0x3e133f4d	0.14379616
207	0x3e2157a1	0.15756084
208	0x3e006fc7	0.1254264
209	0x3c11639a	0.0088738445
210	0x3d8d4f9d	0.06899951
211	0xbd89e6fd	-0.06733511
212	0x3d8a0588	0.06739336
213	0x3c2a4c97	0.010394237
214	0x3e109bab	0.14121883
215	0x3c89e22c	0.01683148
216	0xbcadad6c	-0.021200858
217	0x3cb2404c	0.021759175
218	0x3d298eaf	0.04139584
219	0x3d2efe55	0.04272302
220	0x3da695d6	0.08134048
221	0xbcaf29b2	-0.021382187
222	0xbd2f9d0d	-0.042874385
223	0xbd816ea0	-0.06319928
224	0x3c4d15cf	0.012517407
225	0x3b7f44fb	0.0038951028
226	0x3c29366a	0.010327915
227	0x3d3565c7	0.044286516
228	0x3db2d8be	0.087327465
229	0xbcf3480a	-0.029697437
230	0x3dbe6234	0.092960745
231	0xbd7482f3	-0.059695195
232	0x3c4f2391	0.012642757
233	0x3b2d4408	0.0026438255
234	0x3d8595e3	0.06522729
235	0x3d45c565	0.048283953
236	0x3dd707e7	0.10499554
237	0xbdc0f33b	-0.094213925
238	0x3cc61472	0.024179671
239	0xbcbd9818	-0.023143813
240	0xbdc14faa	-0.09439023
241	0x3d27755e	0.040883414
242	0x3e1735bd	0.14766593
243	0x3d701689	0.05861524
244	0xbc9af9ed	-0.018918002
245	0x3da848e4	0.08217028
246	0xbd0061f9	-0.031343434
247	0x3d39e9cf	0.045388993
248	0xbe05e806	-0.13076791
249	0xbdd5fb81	-0.10448361
250	0xbde20593	-0.110362194
251	0xbecbcecd	-0.39806214
252	0x3be2f19d	0.006925775
253	0xbce17694	-0.027522363
254	0xbd897ece	-0.06713639
255	0xbd60d931	-0.05489463

a2c_network.actor_mlp.0.bias f4 [256]
0	0xbe0f9c46	-0.14024457
1	0xbdaf6dfa	-0.08565898
2	0x3d83562a	0.06412919
3	0x3cff0afc	0.031133167
4	0x3e45ee50	0.1932919
5	0xbc0d82f6	-0.008637181
6	0xbe4de2e2	-0.2010608
7	0xbd3d4691	-0.046209875
8	0xbe194740	-0.14968586
9	0x3e4376a7	0.19088231
10	0xbd627b35	-0.05529328
11	0xbc2c5e26	-0.010520494
12	0x3dc3a19b	0.09552308
13	0xbe7a2c9f	-0.24431084
14	0x3e45585a	0.19271985
15	0x3e1accea	0.15117231
16	0x3e8fa383	0.28054437
17	0xbe467159	-0.19379176
18	0x3e3d561a	0.18489876
19	0xbe36029d	-0.17774434
20	0xbd515f7a	-0.051116444
21	0x3d217b88	0.03942445
22	0x3e49a986	0.19693574
23	0xbe3ac772	-0.18240145
24	0x3e30db0c	0.1727106
25	0xbe7f3af2	-0.2492483
26	0xbe1906da	-0.1494402
27	0x3bfc6fcf	0.0077037583
28	0x3d24189e	0.04006254
29	0x3e0fc1b7	0.1403874
30	0x3e4a2551	0.19740798
31	0x3a66e219	0.0008807495
32	0xbdd260d5	-0.102723755
33	0x3dfc4a48	0.123188555
34	0xbd8e299d	-0.06941531
35	0xbdb54570	-0.08851135
36	0x3e98dd8a	0.2985652
37	0xbe271aa8	-0.16318762
38	0x3dabeaee	0.08394419
39	0x3e97128d	0.2950634
40	0x3e4342b8	0.1906842
41	0x3e63e1aa	0.22254053
42	0x3e931331	0.2872558
43	0x3e0e3369	0.13886799
44	0xbe23f057	-0.16009651
45	0x3e72d5eb	0.23714416
46	0xbe1f44a3	-0.15553527
47	0x3e72e6ee	0.23720905
48	0x3e6fc3cf	0.23414539
49	0xbdf412c5	-0.119176425
50	0x3e51660c	0.20449084
51	0xbde9d31f	-0.11417221
52	0xbc0a7cb8	-0.008452587
53	0xbde745e2	-0.11292626
54	0x3e5b9d16	0.21446642
55	0xbe60da8f	-0.21958373
56	0x3e9b284b	0.3030418
57	0xbe48cb07	-0.19608699
58	0x3e3b8d63	0.18315654
59	0xbe324ffa	-0.17413321
60	0x3d6190a2	0.055069573
61	0xbb61b4eb	-0.003444011
62	0x3e4ee62e	0.20204994
63	0xbdc92222	-0.098209634
64	0x3cff687d	0.031177754
65	0xbd269c52	-0.040676422
66	0xbe6161ac	-0.22009915
67	0xbc33eff1	-0.010982499
68	0x3e0f9c7d	0.1402454
69	0xbe0865d5	-0.13320096
70	0x3e73f777	0.23824869
71	0xba6d4304	-0.00090508186
72	0xbc00875d	-0.007844773
73	0x3dad6cdd	0.0846803
74	0x3d8ca443	0.06867268
75	0x3db18220	0.086673975
76	0x3e95ade6	0.29234236
77	0x3e230833	0.15921097
78	0x3e3f2974	0.18668157
79	0xbd1b83a8	-0.037967354
80	0x3dcf7836	0.1013035
81	0xbe58e7f5	-0.21182235
82	0x3d4d3f58	0.050109237
83	0x3e42e45a	0.19032422
84	0x3e8d9671	0.2765384
85	0xbde9a269	-0.114079304
86	0x3e015473	0.12629871
87	0x3e60eeb7	0.21966062
88	0x3e2517f8	0.16122425
89	0xbda88a53	-0.08229508
90	0xbdfab920	-0.12242341
91	0x3e56b097	0.20965801
92	0x3e14b0dd	0.14520593
93	0xbde7306a	-0.11288531
94	0x3e7c1d8a	0.24620643
95	0x3e1aa84a	0.1510326
96	0xbce0bb1d	-0.027432973
97	0x3e955a2f	0.29170367
98	0x3dbce882	0.09224035
99	0x3db67e46	0.089108035
100	0xbc9d0501	-0.019167425
101	0x3df842db	0.12122127
102	0x3e9211ef	0.28529307
103	0x3cba59ea	0.022747952
104	0x3e828e84	0.25499356
105	0x3e34b6d7	0.17647873
106	0x3e79e4af	0.24403642
107	0x3e4e083f	0.20120333
108	0x3da606fc	0.08106801
109	0xbbf54d19	-0.0074859974
110	0xbe72a9f8	-0.2369765
111	0x3ea37651	0.31926206
112	0xbe6e8f10	-0.23296762
113	0x3e7deec0	0.24798107
114	0x3e95e700	0.29277802
115	0x3e5a6341	0.21326925
116	0xbd24ae7f	-0.040205475
117	0xbe18a6a2	-0.14907315
118	0x3e546ac3	0.20743851
119	0x3e1dc82f	0.15408395
120	0xbe384b9b	-0.17997591
121	0x3e84edbf	0.25962636
122	0xbda8babd	-0.082387425
123	0x3e5c7a77	0.21531092
124	0x3e71e95c	0.23624176
125	0x3d1af52d	0.037831474
126	0xbbc70b1b	-0.006074322
127	0x3da23971	0.07921112
128	0xbdd47527	-0.103739075
129	0x3e8b9542	0.27262312
130	0x3a92b940	0.0011194125
131	0xbdf37677	-0.1188783
132	0x3d835107	0.06411939
133	0xbda5035e	-0.08057283
134	0x3e9b16e6	0.30290908
135	0x3e2bab15	0.16764481
136	0x3d98f57f	0.074687
137	0xbe1d8a7c	-0.15384859
138	0x3e4a95f2	0.19783762
139	0x3da0fbbf	0.07860517
140	0xbd20ec0f	-0.039287623
141	0x3e688731	0.22707821
142	0x3e2385b9	0.1596898
143	0x3d9c5b5d	0.07634614
144	0xbdbf2169	-0.09332544
145	0x3e3620ad	0.17785902
146	0x3dbdbc6f	0.092644565
147	0x3e45e656	0.19326147
148	0xbe160042	-0.14648536
149	0x3d0f5c65	0.035000224
150	0xbc546bb2	-0.01296513
151	0x3e8f962a	0.28044254
152	0x3e9036ca	0.281668
153	0x3e43cbb9	0.19120683
154	0xbd260f32	-0.040541835
155	0xbe6f4b0a	-0.23368469
156	0xbe3a5544	-0.18196589
157	0x3e833cad	0.2563223
158	0xbdec7f6a	-0.1154774
159	0xbd36a8a2	-0.044594415
160	0xbcf246f5	-0.02957485
161	0x3caa9367	0.02082224
162	0xbda1b26f	-0.07895362
163	0xbe6637fc	-0.22482294
164	0x3c441b7e	0.011969445
165	0x3e482c17	0.19548069
166	0xbe36edd6	-0.17864165
167	0xbbfe70bd	-0.0077649043
168	0xbdfb1bd7	-0.122611694
169	0x3e29169a	0.16512528
170	0xbd5fcafc	-0.05463694
171	0x3dda87a6	0.10670404
172	0x3e6b3259	0.22968425
173	0xbc91792a	-0.01775797
174	0xbe2ba448	-0.16761887
175	0x3e60b3a7	0.21943532
176	0x3e579c8c	0.21055812
177	0x3eb1c7fc	0.34722888
178	0x3e84a256	0.25905102
179	0x3d37936a	0.04481832
180	0x3cebee99	0.028800296
181	0x3ebb8472	0.36624485
182	0xbdc1b13f	-0.09457635
183	0x3e6ebcd6	0.23314223
184	0x3e6765b0	0.22597384
185	0xbe23b6b9	-0.15987672
186	0x3e2315db	0.15926306
187	0xbd8f307e	-0.06991671
188	0xbe69cba6	-0.22831592
189	0x3dd4cc58	0.10390538
190	0xbe16a045	-0.14709575
191	0x3e145be4	0.14488178
192	0xbdd5064f	-0.10401594
193	0x3cf354c1	0.0297035
194	0x3e06ad1a	0.1315197
195	0xbd54264f	-0.051794346
196	0x3cc7b517	0.024378343
197	0x3e1afaba	0.15134707
198	0x3e6311ed	0.22174807
199	0xbdb04b26	-0.086080834
200	0xbd067c49	-0.03283337
201	0xbe39f69c	-0.1816048
202	0x3e798378	0.24366558
203	0xbd6e2917	-0.058144655
204	0x3ecb6e11	0.39732412
205	0xbdadb802	-0.08482362
206	0xbe57db81	-0.21079828
207	0x3e116a9d	0.14200826
208	0xbd13f43c	-0.036121592
209	0x3e465f25	0.19372232
210	0x3d855767	0.06510811
211	0x3e819b78	0.25313926
212	0x3e63d75d	0.22250123
213	0x3de7b754	0.11314264
214	0x3e19ddd3	0.15026025
215	0x3ded094d	0.115740396
216	0x3c2ea7f2	0.0106601585
217	0x3e1e6e56	0.15471777
218	0x3e46fb6e	0.1943185
219	0x3d9676de	0.07346891
220	0x3e14138a	0.14460579
221	0xbe1de301	-0.15418626
222	0x3e8dbd23	0.27683362
223	0xbe2533eb	-0.16133086
224	0xbe0b0a6b	-0.13578193
225	0x3eaf75d9	0.34269598
226	0x3e96b847	0.29437467
227	0xbe358f4c	-0.17730445
228	0x3cec5026	0.028846812
229	0x3e5360ce	0.20642397
230	0x3dc4def4	0.096128374
231	0xbc8883d8	-0.01666443
232	0x3e95531a	0.29164964
233	0x3e983ba8	0.29733014
234	0x3e852b52	0.26009613
235	0x3c85b244	0.016320355
236	0xbd71e39f	-0.059054967
237	0x3e14efee	0.14544651
238	0x3e0e7059	0.13910045
239	0x3dbf4062	0.09338452
240	0x3d778b40	0.060435534
241	0x3e64c227	0.22339688
242	0x3e5b985c	0.21444839
243	0x3e9db150	0.3079934
244	0xbdf77edc	-0.120847434
245	0x3e663a80	0.22483253
246	0xbd9b88cf	-0.075944535
247	0x3d84e326	0.064886376
248	0x3dcc0bf1	0.09963215
249	0xbdef7c8e	-0.11693679
250	0x3cba74c2	0.022760753
251	0xbe1a4dc6	-0.1506873
252	0x3e0a9931	0.13535
253	0xbc303106	-0.010753876
254	0x3d1c1a84	0.038111225
255	0x3e3c1b30	0.18369746

a2c_network.actor_mlp.2.weight f4 [128, 256]
0	0x3d6e33d5	0.0581549
1	0x3d290a65	0.04126968
2	0xbdd51a95	-0.10405461
3	0xbd047579	-0.032338593
4	0xbd947e2c	-0.07250628
5	0x3c721d19	0.014777445
6	0xbe055d21	-0.13023807
7	0xbb61c75e	-0.0034451107
8	0xbd2abafa	-0.04168222
9	0x3e106c0b	0.14103715
10	0xbbe51cf1	-0.0069919755
11	0xbd604057	-0.05474886
12	0x3deab7ef	0.11460864
13	0xbe279537	-0.16365515
14	0x3c5f485a	0.01362809
15	0x3da1fbd8	0.079093635
16	0x3c141333	0.009037781
17	0x3d8e7205	0.06955341
18	0x3d0ab15f	0.03386056
19	0xbd3ca58b	-0.04605631
20	0x3d40275d	0.04691254
21	0xbdc05595	-0.093913235
22	0x3de65033	0.112457655
23	0x3e5c9ba4	0.21543747
24	0x3d178921	0.03699601
25	0x3c14d880	0.009084821
26	0x3d1e60c4	0.0386665
27	0xbde14b01	-0.11000634
28	0xbda31108	-0.07962233
29	0x3cd05c57	0.025434656
30	0x3db8a644	0.09016088
31	0xb7e5d3c8	-2.7397546e-05
32	0x3dbe3b79	0.09288687
33	0x3d85808c	0.06518659
34	0xbca1b8b5	-0.019741395
35	0xbe1af7a4	-0.1513353
36	0xbe0065bb	-0.12538807
37	0xbda957bc	-0.08268687
38	0x3d84b631	0.06480063
39	0x3c8efd43	0.017454749
40	0x3dda2995	0.106524624
41	0xbdb7f326	-0.08981924
42	0xbd8b819a	-0.06811829
43	0x3e059231	0.13044049
44	0xbc9c6a4d	-0.019093657
45	0xbc64d919	-0.013967776
46	0xbe0e8139	-0.13916482
47	0x3cc4dce8	0.024031118
48	0x3d8200fc	0.06347844
49	0xbbd11af8	-0.0063813888
50	0xbd9b55b8	-0.07584709
51	0x3d495b06	0.049159072
52	0xbdc56a4f	-0.096394174
53	0xbb2860aa	-0.0025692382
54	0xbe1eda04	-0.15512854
55	0xb9e98563	-0.00044540604
56	0xbe313231	-0.17304303
57	0x3dab62c7	0.0836845
58	0x3ae34bda	0.0017341331
59	0x3e6fb4d0	0.23408818
60	0x3a323993	0.00067987404
61	0x3e3dd3c7	0.18537818
62	0xbd2d09f0	-0.042245805
63	0x3e4ca578	0.19984996
64	0x3c39fb39	0.0113514
65	0xbc59a515	-0.0132839875
66	0x3c6ad3f8	0.014332764
67	0xbbef25a2	-0.0072981874
68	0xbd484c6f	-0.048901018
69	0xbe1d8c15	-0.15385468
70	0xbda7a702	-0.08186151
71	0x3bd0e729	0.0063752127
72	0xbd54700f	-0.05186468
73	0x3dafcb27	0.0858367
74	0x3c65fc00	0.014037132
75	0xbd7124fb	-0.058873158
76	0xbc89a3c8	-0.01680173
77	0xbe07d8a6	-0.13266239
78	0xbdef5779	-0.11686606
79	0xbd8d33b0	-0.06894624
80	0x3ce4a0fd	0.027908796
81	0x3db40513	0.0879003
82	0xbd169648	-0.036764413
83	0xbe014a4b	-0.12625997
84	0xbe3090dd	-0.17242761
85	0xbc9f397a	-0.019436587
86	0xbdf56457	-0.11982029
87	0xbccafc1f	-0.024778424
88	0xbd26a279	-0.04068229
89	0xbca27e1c	-0.019835524
90	0x3dd2f090	0.1029979
91	0xbb121745	-0.0022291702
92	0xbdfe88b4	-0.12428418
93	0xbd367ea6	-0.044554375
94	0x3dd5f5c4	0.10447267
95	0x3d1a9328	0.037737995
96	0xbc96cadb	-0.018407276
97	0xbd086817	-0.033302393
98	0xbdafc110	-0.085817456
99	0x3e3342d8	0.17505968
100	0xbd310710	-0.043219626
101	0xbd6d6614	-0.057958677
102	0xbe093627	-0.13399564
103	0x3e07394a	0.13205448
104	0xbdd7d18e	-0.10538016
105	0x3d9cbe18	0.07653445
106	0xbd379478	-0.044819325
107	0xbd0eb342	-0.034838922
108	0xbbceef17	-0.006315123
109	0xbe45c9da	-0.19315282
110	0x3ce32b65	0.027730653
111	0x3d9fd82a	0.07804902
112	0x3debc5df	0.1151235
113	0xbc71939b	-0.014744665
114	0xbe336f5b	-0.17522947
115	0xbca3e8d5	-0.020008484
116	0xbe2a333f	-0.16621111
117	0xbd29d046	-0.04145839
118	0x3d12c1cb	0.035829347
119	0xbd3cc40f	-0.046085414
120	0x3d008401	0.03137589
121	0xbd4d3042	-0.05009485
122	0xbc4e6fe0	-0.012599915
123	0xbdf7f4d0	-0.12107241
124	0xbc532bbd	-0.012888846
125	0x3df46deb	0.11935028
126	0xbcc84fd6	-0.024452131
127	0x3e3029db	0.17203467
128	0xbb934fda	-0.004495603
129	0xbdb108ec	-0.0864428
130	0xbe87aa00	-0.26496887
131	0x3defb661	0.11704708
132	0xbd0b9896	-0.034081064
133	0xbe3dff4a	-0.18554416
134	0x3dd29d76	0.102839395
135	0x3c4dde52	0.012565212
136	0xbdf21eb0	-0.118222594
137	0xbdf4e626	-0.1195796
138	0xbd292abb	-0.041300517
139	0xbdc3011e	-0.095216975
140	0xbe30c26a	-0.17261663
141	0xbdba8cd6	-0.091088936
142	0xbd12f15e	-0.035874717
143	0x3e1fb940	0.15598011
144	0xbd223d9e	-0.039609544
145	0xbdb364c0	-0.08759451
146	0xbd37228e	-0.04471069
147	0x3db67858	0.089096725
148	0xbd9347ed	-0.07191453
149	0xbd69a45d	-0.057041515
150	0x3d1f1b35	0.038844306
151	0xbdb36409	-0.087593146
152	0xbd9e80d5	-0.077394165
153	0xbd110165	-0.03540172
154	0xbd8c3bb2	-0.068473235
155	0xbd1a67a6	-0.037696503
156	0x3d92a43d	0.07160232
157	0xbc304491	-0.010758535
158	0x3e3eca06	0.18631753
159	0x3cbc0e22	0.022955958
160	0x3d8345b6	0.06409781
161	0xbe3d6d24	-0.18498665
162	0xbdcdcf1b	-0.10049268
163	0xbb6e0454	-0.0036318498
164	0x3aa67fe0	0.0012702905
165	0xbdc5f569	-0.09665949
166	0x3da2244d	0.0791708
167	0x3d90dbf4	0.07073203
168	0xbd998643	-0.074963115
169	0x3dcd57b0	0.10026491
170	0xbe1d06f1	-0.15334679
171	0x3db0693a	0.086138204
172	0x3c989c2d	0.018629158
173	0xbe233e36	-0.159417
174	0xbd91edce	-0.07125436
175	0x3e03807b	0.1284198
176	0x3d598328	0.053103596
177	0xbda3e3b2	-0.08002414
178	0x3dbea1c5	0.09308199
179	0xbe1075e8	-0.14107478
180	0x3d298898	0.04139003
181	0x3d10422e	0.035219364
182	0xbe3d6511	-0.18495585
183	0xbc532c4c	-0.012888979
184	0x3d3f7e15	0.0467511
185	0x3d241210	0.04005629
186	0x3d8a395b	0.06749221
187	0x3d18a68c	0.037268206
188	0x3e021124	0.12701851
189	0xbd8c86e6	-0.06861667
190	0xbdda0f2a	-0.106474236
191	0x3e112124	0.14172798
192	0xbd54f6d0	-0.05199319
193	0x3d7c2473	0.0615582
194	0xbe020d95	-0.12700494
195	0xbd5e6295	-0.054293234
196	0x3d2a3e16	0.041563116
197	0xbdf56cda	-0.119836524
198	0xbe11ce81	-0.14238931
199	0x3d1724d0	0.03690034
200	0x3dd23b98	0.10265273
201	0xbb8e9760	-0.0043515414
202	0xbe300818	-0.17190588
203	0xbe3423ee	-0.17591831
204	0xbd9198bf	-0.07109212
205	0x3d46f126	0.04856982
206	0xbe115e75	-0.14196189
207	0x3d8837ae	0.06651245
208	0x3d0ea087	0.03482106
209	0x3d0592af	0.03261059
210	0xbd8896b5	-0.0666937
211	0x3cfee990	0.03111723
212	0xbdc53dbb	-0.09630915
213	0xbdc2d3a4	-0.095130235
214	0x3da956e0	0.08268523
215	0x3b74ca0f	0.0037351882
216	0x3d832a1f	0.06404518
217	0x3ddc7082	0.10763647
218	0xbe0389ce	-0.12845537
219	0xbd84fa11	-0.06493009
220	0xbcd35293	-0.02579621
221	0x3dc505e7	0.096202664
222	0xbca3c174	-0.019989707
223	0xbd886aa3	-0.06660964
224	0xbc213d15	-0.009841223
225	0xbe0150de	-0.12628505
226	0x3ba73255	0.0051024356
227	0xbdbbdf87	-0.09173494
228	0x3db733cc	0.08945426
229	0xbe1d02a2	-0.15333036
230	0xbcd2f77e	-0.02575278
231	0x3d65e0d3	0.056122612
232	0xbb3dca57	-0.0028959715
233	0x3de283d7	0.11060303
234	0x3cfe2333	0.031022644
235	0x3e05f0a3	0.13080077
236	0xbd5bd7a3	-0.053672444
237	0x3d26afbd	0.04069494
238	0x3e36c68a	0.17849174
239	0xbe0c9621	-0.13729145
240	0x3c02561e	0.007955102
241	0x3db18ea8	0.08669788
242	0xbd9354a0	-0.07193875
243	0xbcf945e7	-0.03042884
244	0xbd60038e	-0.05469089
245	0x3b9020b4	0.0043984298
246	0x3e3f9009	0.18707289
247	0x3bd1a280	0.0063975453
248	0x3d375cac	0.044766113
249	0xbc5a2f5a	-0.013316954
250	0x3a0809f9	0.00051894743
251	0xbca441b7	-0.020050867
252	0x3d80a065	0.06280593
253	0x3caf9257	0.021432085
254	0xbb6e1bf9	-0.003633259
255	0x3e56a24a	0.20960346

a2c_network.actor_mlp.2.bias f4 [128]
0	0xbe106565	-0.14101179
1	0xbd5017ff	-0.050804134
2	0xbdc654bb	-0.0968413
3	0xbda6d9a1	-0.08146978
4	0xbc592693	-0.013253826
5	0xbdeeffd1	-0.11669887
6	0xbe7a4fa7	-0.24444447
7	0xbe3133a1	-0.17304851
8	0xbe86b28d	-0.26308098
9	0xbe96b40c	-0.2943424
10	0xbcd19ab4	-0.025586464
11	0xbdec3167	-0.1153286
12	0xbe6ed96d	-0.23325129
13	0x3d5cac0d	0.053875018
14	0xbd0c3d99	-0.03423843
15	0x3d28791d	0.041131128
16	0xbcc2ca3e	-0.023778077
17	0xbe44b059	-0.19207896
18	0xbe260501	-0.16212846
19	0x3dfc128b	0.12308224
20	0xbd7618c2	-0.060082205
21	0xbe47a3bb	-0.19496052
22	0xbd4a0f25	-0.04933085
23	0xbe357897	-0.17721783
24	0x3d05843e	0.03259682
25	0xbe37315e	-0.17889926
26	0xbd5838ba	-0.052788474
27	0x3d97fcbe	0.074212536
28	0xbd40b3e4	-0.047046557
29	0xbd4e28c4	-0.050331846
30	0x3d9e18c8	0.077195704
31	0x3e316d8b	0.17326944
32	0xbe925288	-0.2857859
33	0xbe1dab45	-0.15397365
34	0x3e38b765	0.1803871
35	0x3d94bea2	0.07262923
36	0xbe3917c0	-0.18075466
37	0xbda6b33b	-0.08139654
38	0x3daae8f3	0.08345213
39	0x3db5dad8	0.08879632
40	0x3cf3da81	0.029767277
41	0x3b88206b	0.004154255
42	0xbe8e9faa	-0.2785619
43	0xbe6005ce	-0.21877214
44	0xbdede482	-0.1161585
45	0xbd35e1bb	-0.044404726
46	0xbda7c0d2	-0.081910744
47	0xbe3e8d1b	-0.18608515
48	0xbdceb94b	-0.100939356
49	0xbc0d54e5	-0.008626197
50	0xbd7ec456	-0.06219896
51	0xbd9ce690	-0.07661164
52	0xbe273f0c	-0.16332644
53	0xbe900819	-0.28131178
54	0x3d8ed658	0.069744766
55	0x3d1d211c	0.038361654
56	0x3d378f2a	0.044814266
57	0xbacf7d51	-0.0015830194
58	0xbdb29a16	-0.08720796
59	0x3d3f8a0a	0.046762504
60	0x3d435a23	0.047693383
61	0xbcee889a	-0.029117871
62	0xbd706916	-0.058693968
63	0xbddfaef0	-0.109220386
64	0x3d1e16d8	0.038596004
65	0x3d4a6b7a	0.049418904
66	0xbdaa1b8f	-0.08306038
67	0xbe53469b	-0.20632403
68	0xbd09cc80	-0.033642292
69	0x3d705aec	0.05868046
70	0xbda741dd	-0.08166859
71	0x3be7065b	0.007050318
72	0xbe1b90a6	-0.15191898
73	0x3c729935	0.014807035
74	0xbdf2c4d5	-0.11853949
75	0x3db3a927	0.087724976
76	0x3be851bf	0.007089823
77	0xbd6fdbf2	-0.058559366
78	0xbe591c05	-0.21202095
79	0x3ca7762c	0.02044209
80	0xbe35415d	-0.17700715
81	0xbe53537f	-0.2063732
82	0xbe8981cf	-0.2685685
83	0xbd1f6ecf	-0.038924035
84	0xbd124256	-0.035707794
85	0x3c5b625c	0.01339015
86	0xbd909819	-0.0706026
87	0xbe38eb57	-0.18058525
88	0xbda8c8c6	-0.082414195
89	0xbe02fbaf	-0.12791322
90	0x3d8292e3	0.06375673
91	0xbdb0426b	-0.08606418
92	0xbd774d0c	-0.060376212
93	0xbe05ccbe	-0.13066384
94	0xbd47571c	-0.04866706
95	0x3cddb0cf	0.027061848
96	0x3d30e7c5	0.043189783
97	0xbcd9eeab	-0.026603064
98	0x3dbb24ec	0.09137902
99	0xbe8d3c85	-0.27585235
100	0xbe42cfea	-0.19024625
101	0xbdd50fe2	-0.1040342
102	0xbe217cc0	-0.15770245
103	0xbe1c27ee	-0.15249607
104	0xbd4af8c1	-0.049553636
105	0x3d9d2740	0.07673502
106	0xbe275c74	-0.16343862
107	0x3e0389dd	0.1284556
108	0xbd91e1c9	-0.07123143
109	0xbd84db85	-0.064871825
110	0xbe626196	-0.22107539
111	0xbd87ef5b	-0.0663745
112	0xbd90afec	-0.070648044
113	0xbc58de86	-0.0132366475
114	0x3db1f48e	0.08689223
115	0xbe95e39e	-0.2927522
116	0xbe554035	-0.20825274
117	0xb9972e27	-0.0002883535
118	0xbd2b5e9d	-0.041838277
119	0x3e1b1a28	0.15146697
120	0xbe054d9c	-0.13017887
121	0xbd0205a8	-0.031743675
122	0xbe2b7390	-0.16743302
123	0x3cbda20f	0.023148565
124	0xbdceed44	-0.101038486
125	0xbe2e07ae	-0.16995117
126	0xbda5549c	-0.080727786
127	0xbe278fd8	-0.16363466

a2c_network.actor_mlp.4.weight f4 [64, 128]
0	0x3dc5c91e	0.09657501
1	0x3c38673b	0.011255081
2	0x3d751d58	0.059842438
3	0xbd3a8bd5	-0.04554351
4	0x3dab2560	0.08356738
5	0xbddc6282	-0.107609764
6	0xbc3471a3	-0.011013421
7	0xbd295627	-0.041341927
8	0x3e26e15f	0.1629691
9	0x3dd84550	0.10560095
10	0xbe480cf4	-0.19536191
11	0xbd0ea6ef	-0.03482717
12	0x3dc68e48	0.09695107
13	0x3da16fff	0.0788269
14	0xbd750d2a	-0.059827007
15	0x3d5e2cd4	0.05424197
16	0xbdf793a4	-0.12088707
17	0x3d04831d	0.032351602
18	0xbce4501f	-0.027870236
19	0xbe29d60a	-0.16585556
20	0xbd1663ce	-0.036716275
21	0x3e2d75b3	0.1693943
22	0x3d49451a	0.049138166
23	0xbc9738f0	-0.018459767
24	0xbd6d1b98	-0.057887644
25	0xbdb1fed4	-0.08691183
26	0x3db01fc5	0.085998096
27	0xbdad2f26	-0.084562585
28	0xbd8eba9c	-0.06969187
29	0xbdc014f2	-0.09378995
30	0xbe373328	-0.17890608
31	0x3ced27e3	0.028949684
32	0xbd325bc8	-0.04354456
33	0xbdef7e5d	-0.11694024
34	0xbd8e8958	-0.0695979
35	0xbbd05a5d	-0.0063584284
36	0x3d163047	0.036667135
37	0xbddf48f9	-0.1090259
38	0xbcef1a8d	-0.029187465
39	0xbe065ec1	-0.13122083
40	0xbe1e0d7c	-0.15434831
41	0x3d84a43d	0.064766385
42	0x3dfab443	0.122414134
43	0xbd10d543	-0.035359632
44	0xbdbd333f	-0.0923829
45	0x3d3e7f1a	0.046507932
46	0x3dd4902d	0.10379062
47	0xbd6c6850	-0.057716668
48	0xbcf7dd67	-0.03025694
49	0xbe6e1687	-0.23250781
50	0x3d85a585	0.06525711
51	0x3ce8473a	0.028354276
52	0x3c62de74	0.013846982
53	0x3e13de06	0.14440164
54	0xbd4d7d64	-0.05016841
55	0xbdcdc65c	-0.100476
56	0x3d8c221d	0.06842444
57	0xbe2a5978	-0.16635692
58	0xbb27f50f	-0.0025628244
59	0x3d8bffcd	0.068358995
60	0xbd78305c	-0.060592994
61	0xbc55f8bc	-0.013059791
62	0x3db31534	0.087442786
63	0x3d273170	0.04081863
64	0xbd8eb185	-0.06967453
65	0xbdfb6e08	-0.12276846
66	0xbd6a7d4b	-0.057248395
67	0x3d8f67b5	0.070022024
68	0xbdd01af1	-0.10161389
69	0xbe40b8df	-0.18820523
70	0xbd474e34	-0.048658565
71	0x3bd3aa0f	0.0064594815
72	0xbd9284af	-0.07154214
73	0x3d4ed784	0.0504985
74	0x3d8abe49	0.06774575
75	0xbcd2763b	-0.025691142
76	0xbcc91478	-0.024545893
77	0xbd911018	-0.07083148
78	0xba75f3a4	-0.00093823136
79	0xb94db915	-0.00019619272
80	0xbe40027d	-0.18750949
81	0xbd9a544b	-0.07535609
82	0xbe2885a6	-0.16457233
83	0xbd44456f	-0.04791778
84	0xbd9165f9	-0.07099528
85	0xbcfebfef	-0.03109738
86	0x3d176ff5	0.036972005
87	0x3e0600b6	0.13086209
88	0xbd1f8660	-0.03894651
89	0xbda8818b	-0.08227833
90	0xbb46974e	-0.0030302587
91	0xbdb6333e	-0.088964924
92	0x3de3e45e	0.11127542
93	0x3d178b90	0.03699833
94	0x3d936d61	0.07198597
95	0xbd6fdcbf	-0.05856013
96	0xbe6cedcd	-0.23137589
97	0xbd9614b6	-0.07328169
98	0x3d7d80e8	0.061890513
99	0xbd0431a0	-0.03227389
100	0x3db66a30	0.089069724
101	0xbdba6429	-0.09101135
102	0x3d9a75b8	0.07541984
103	0xbe5f0bec	-0.21781892
104	0x3dacc2a5	0.08435563
105	0xbb9d4fd1	-0.0048007746
106	0x3daa4d07	0.08315473
107	0x3b898c91	0.004197665
108	0xbb447a81	-0.0029980245
109	0x3d63f0bc	0.055649504
110	0xbd5d01c1	-0.05395675
111	0xb9a7d247	-0.0003200939
112	0xbb3c09a9	-0.0028692281
113	0x3cb302e2	0.02185196
114	0xbd1ab1ab	-0.037767094
115	0xbd239aa3	-0.039942395
116	0xbd279caa	-0.04092089
117	0xbded8a1b	-0.11598607
118	0xbd13fd72	-0.036130376
119	0x3d448f15	0.047988016
120	0xbd56b13c	-0.052415118
121	0x3d38fe75	0.045164544
122	0x3cbfe697	0.023425383
123	0xbcfa4384	-0.030549772
124	0xbdd47a22	-0.103748575
125	0x3e027b68	0.12742388
126	0xbd7970d3	-0.060898613
127	0xbde8f83a	-0.113754705
128	0xbdb07d7b	-0.086176835
129	0x3b8ff45e	0.0043931445
130	0x3df54df5	0.1197776
131	0xbd15dea9	-0.0365893
132	0x3e646c3e	0.22306916
133	0xbe315e69	-0.17321171
134	0xbb1a02a9	-0.002350012
135	0x3e016289	0.12635244
136	0x3c8d5674	0.017253138
137	0xbdbe2759	-0.09284849
138	0x3e1a81e8	0.15088618
139	0xbd69d1c9	-0.057084832
140	0x3d0e2f50	0.03471309
141	0x3d0cc453	0.034366917
142	0xbd6bb593	-0.05754621
143	0xbe17b35b	-0.14814512
144	0xbc5ed31c	-0.013600137
145	0x3d81e045	0.06341604
146	0x3d757633	0.059927177
147	0x3d881f1a	0.06646557
148	0x3db40ba3	0.08791282
149	0xbc271805	-0.010198598
150	0xbdd1c26b	-0.102421604
151	0x3de3b9ab	0.11119398
152	0x3ddd445e	0.10804056
153	0xbde2077e	-0.11036585
154	0x3c90d24f	0.017678408
155	0xbdf36c00	-0.11885834
156	0x3d8486ff	0.06471061
157	0x3e28018b	0.16406839
158	0xbda8926a	-0.08231051
159	0x3c95bfd8	0.018279955
160	0x3def0133	0.116701506
161	0x3d1679c8	0.036737233
162	0xbbb5ceb3	-0.005548322
163	0xbe308336	-0.17237553
164	0x3ce2407e	0.027618643
165	0xbe7b7c27	-0.24559079
166	0xbc3aae6e	-0.011394126
167	0xbd0117bf	-0.031516787
168	0xbd1ac3d9	-0.03778443
169	0xbd4b6c95	-0.0496641
170	0x3dac4f20	0.084135294
171	0x399cc928	0.00029904512
172	0x3d451871	0.048119012
173	0xbdbad3a6	-0.091224
174	0xbcb534ec	-0.022119962
175	0xbdb4f81f	-0.08836388
176	0x3d384cc7	0.044995096
177	0x3d263ed5	0.040587265
178	0xbd782d90	-0.060590327
179	0x3bb3e5b5	0.0054900297
180	0x3e1524c1	0.14564802
181	0x3daee10d	0.08539019
182	0xbe37549e	-0.17903373
183	0x3beb7d5c	0.007186575
184	0xbcf0a293	-0.029374396
185	0x3c9e1d8e	0.019301202
186	0x3da515e3	0.08060815
187	0xbe02510d	-0.12726231
188	0x3dea3e3a	0.1143765
189	0xbd984b77	-0.07436269
190	0x3df930cf	0.121675126
191	0x3dc62708	0.09675413
192	0x3dc0d39d	0.09415362
193	0x3e46844c	0.19386405
194	0xbde27cb6	-0.11058943
195	0x3d52b076	0.051437818
196	0xbd642d8a	-0.055707492
197	0x3d4d0be6	0.050060175
198	0xbd843478	-0.0645532
199	0xbdc24b08	-0.09486967
200	0x3d9899ac	0.074511856
201	0x3d97a484	0.07404426
202	0xbd922a1e	-0.071369395
203	0x3b92cd64	0.004480051
204	0xbe2b34cc	-0.16719359
205	0xbac93ad7	-0.0015352619
206	0xbcc49f63	-0.024001783
207	0xbc4c2033	-0.012458849
208	0xbd07c5ad	-0.033147503
209	0xbd94cc1b	-0.072654925
210	0x3d8c6545	0.06855253
211	0xbdb2b99e	-0.0872681
212	0xbcca7df8	-0.02471827
213	0xbd31b28e	-0.043383174
214	0xbda20bf0	-0.07912433
215	0xbd9d3b8a	-0.07677372
216	0xbd5c1a2e	-0.053735904
217	0xbd768a11	-0.060190264
218	0xbd57cbce	-0.052684598
219	0x3dfa67f6	0.1222686
220	0x3d492b45	0.04911353
221	0xbd491597	-0.049092855
222	0x3d7044ef	0.05865949
223	0xbe02e127	-0.12781201
224	0xbe8c44a9	-0.27396134
225	0x3c6101c6	0.013733333
226	0x3ddcca42	0.10780765
227	0x3e25598e	0.16147444
228	0xba6e88ba	-0.00090993533
229	0x3d7abf05	0.061217327
230	0xbdb9aa70	-0.090657115
231	0xbe2bb935	-0.1676987
232	0x3d8962ff	0.06708335
233	0xbdbcfbf5	-0.092277445
234	0xbe02a9cc	-0.12760085
235	0xbe27f926	-0.16403636
236	0x3e65e78f	0.22451614
237	0x3de78efa	0.113065675
238	0xbd8abe46	-0.06774573
239	0xbd2844d8	-0.04108128
240	0xbe37c804	-0.17947394
241	0xbe0ca346	-0.13734159
242	0x3ce6669d	0.028125102
243	0x3d6a36b8	0.05718109
244	0x3d8e69d0	0.06953776
245	0xbd48053d	-0.04883312
246	0xbca7c9c1	-0.020481946
247	0x3ce9a614	0.028521575
248	0xbe04bb99	-0.12962188
249	0xbde01ec6	-0.109433696
250	0xbd342af2	-0.04398627
251	0xbe0d9d92	-0.1382964
252	0x3cd93d87	0.026518596
253	0x3d44b8bc	0.04802774
254	0x3e648f7f	0.22320364
255	0xbdd90cd1	-0.10598148

a2c_network.actor_mlp.4.bias f4 [64]
0	0xbd6654cf	-0.056233224
1	0xbcbbaf6e	-0.0229108
2	0x3cb0ed4a	0.021597523
3	0x3da86837	0.082230024
4	0xbd9a7b3d	-0.07543037
5	0x3b37adb0	0.002802711
6	0x3d5bc513	0.05365474
7	0xbd99d767	-0.07511788
8	0xbdba4e3b	-0.090969525
9	0xbe044d80	-0.12920189
10	0x3dc958b1	0.0983137
11	0xbdb86e0e	-0.09005366
12	0xbce86b39	-0.02837144
13	0x3d3de490	0.046360552
14	0xbd1c5297	-0.0381647
15	0x3d6a14d9	0.057148788
16	0xbd4c33ab	-0.049853962
17	0xbd11d188	-0.035600215
18	0xbe068590	-0.13136888
19	0xbdab7072	-0.083710566
20	0x3d5ddd15	0.05416592
21	0xbd892adb	-0.06697627
22	0x3da90e76	0.08254711
23	0x3cccea19	0.02501397
24	0xbd0a8c62	-0.033825286
25	0xbe02cdd0	-0.12773824
26	0xbd8c316b	-0.06845363
27	0xbdfdebf7	-0.12398522
28	0xbda23423	-0.079201005
29	0x3bc4c1d0	0.0060045496
30	0x3d61a09a	0.055084802
31	0xbe0eae05	-0.1393357
32	0x3d680946	0.05664947
33	0x3df6fde0	0.120601416
34	0xbe81e0fd	-0.25366965
35	0xbdeeed82	-0.11666395
36	0xbd9fc9ca	-0.0780216
37	0x3ddf66b5	0.10908262
38	0x3d6ca3fa	0.057773568
39	0xbe39b370	-0.18134856
40	0x3dea5c89	0.11443431
41	0xbdd1e333	-0.10248413
42	0xbd8fb89a	-0.07017632
43	0xbe1ab4c3	-0.15108018
44	0x3da2156e	0.07914244
45	0xbdacd42d	-0.08438907
46	0xbcccfdbc	-0.025023334
47	0xbd677851	-0.056511227
48	0xbca0e0dd	-0.019638473
49	0xbc2e19de	-0.010626284
50	0x3be23aa9	0.0069039655
51	0xbdbbb268	-0.09164888
52	0xbd620e42	-0.05518938
53	0x3e024003	0.12719731
54	0x3ce9963d	0.028514022
55	0xbd6dd3a4	-0.058063164
56	0xbd2ac743	-0.041693937
57	0xbe1f3005	-0.15545662
58	0x3ac0efb5	0.0014719876
59	0xbe2a4a9b	-0.16630022
60	0xbe0455ed	-0.12923403
61	0xbda4ee8e	-0.08053313
62	0xbda73d9f	-0.0816605
63	0xbd6885eb	-0.05676834

a2c_network.value.weight f4 [1, 64]
0	0xbc218259	-0.009857737
1	0x39d34730	0.00040298095
2	0x3c422e78	0.011851899
3	0x3d6c6571	0.05771393
4	0xbd1d80e4	-0.038452998
5	0x3a61a077	0.000860698
6	0xbca585a3	-0.020205325
7	0xbbd7190b	-0.0065642647
8	0x39ff2708	0.0004866647
9	0xbc5c85b3	-0.013459611
10	0x3ec4e34f	0.38454673
11	0xbc5156e6	-0.012777066
12	0x3cb61ed5	0.022231499
13	0x3ca32a6d	0.019917691
14	0x3badb0a1	0.005300597
15	0x3dab7afb	0.08373066
16	0x3c2bb6ff	0.010480641
17	0x3b7a5e11	0.003820304
18	0xbe172a91	-0.14762332
19	0xbd3b65d4	-0.045751408
20	0x3ab60124	0.0013885838
21	0xbc8de6a2	-0.017321888
22	0x3c2288ed	0.009920341
23	0xbb89739c	-0.00419469
24	0x3c98246a	0.018572051
25	0x3c9d02d3	0.019166386
26	0x3b8fd940	0.004389912
27	0xbcd0cbc6	-0.025487792
28	0xbc98fa67	-0.018674089
29	0x3b67dac3	0.0035378195
30	0x3e60b9d6	0.21945891
31	0xbceee497	-0.029161735
32	0x3d62fdc8	0.055417806
33	0x3e59cd53	0.21269731
34	0xbcc28998	-0.02374725
35	0xbd93514e	-0.07193242
36	0xbccab4ca	-0.02474441
37	0x3d8384ac	0.064217895
38	0xbc9efb5b	-0.019406965
39	0x3ac4c1dd	0.0015011389
40	0x3e87639c	0.26443183
41	0x3b335324	0.0027362788
42	0xbcc7428e	-0.024323728
43	0x380b929a	3.3276716e-05
44	0x3d76ab8a	0.060222186
45	0xb920c721	-0.0001533297
46	0x3c1c17cc	0.009527158
47	0xbc542535	-0.012948324
48	0xbd3e78f4	-0.04650207
49	0xbb614bd8	-0.0034377482
50	0xbbefb89d	-0.007315709
51	0x3b674d5e	0.0035293917
52	0xbc1737a7	-0.009229577
53	0x3e36a8b1	0.17837788
54	0x3cd3c17f	0.025849102
55	0x3bbafdf9	0.0057065454
56	0xbca1b206	-0.019738209
57	0xbc9542f9	-0.018220412
58	0x3cb4ac7d	0.022054905
59	0x3bf91bd6	0.0076021953
60	0x3bbb40f7	0.0057145315
61	0xbb252432	-0.0025198576
62	0x3ba0c43e	0.0049062064
63	0x3c0cb082	0.008587005

a2c_network.mu.weight f4 [12, 64]
0	0xbb984401	-0.0046467786
1	0xbbec24e8	-0.007206548
2	0x3e5e4730	0.21706843
3	0xbdde68ce	-0.10859834
4	0xbca1aaba	-0.01973473
5	0xbd96c99f	-0.07362675
6	0x3d710201	0.0588398
7	0xb9645da1	-0.00021778654
8	0xbd295ab5	-0.04134627
9	0x3d0b5307	0.034014728
10	0x3e54f083	0.20794873
11	0xbd98ec68	-0.07466966
12	0x3e12354d	0.14278145
13	0xbdfd3fe6	-0.12365703
14	0x3d635a39	0.055505965
15	0x3a84fa28	0.0010145353
16	0x3d7a5160	0.06111276
17	0xbe1944a4	-0.1496759
18	0xbd43eb82	-0.04783202
19	0x3d093e8b	0.03350691
20	0x3e05a5ae	0.13051483
21	0x3c226b8a	0.009913335
22	0xbce13ecd	-0.027495766
23	0xbea7faed	-0.3280863
24	0x3d1c6573	0.038182687
25	0xbd35e28d	-0.04440551
26	0x3c9b40a0	0.018951714
27	0xbd543f70	-0.05181831
28	0xbc93d936	-0.01804791
29	0xbd579c6f	-0.05263942
30	0x3cccab87	0.024984134
31	0x3cde07a6	0.027103256
32	0x3d572c6c	0.0525326
33	0xbe174749	-0.14773287
34	0xbcb75d24	-0.02238328
35	0x3d0d07c8	0.03443125
36	0x3db3d441	0.087807186
37	0xbc3efef1	-0.011657462
38	0xbe344b31	-0.17606808
39	0x3d4200af	0.047363933
40	0x3d5fe943	0.054665815
41	0x3e3dbf60	0.18530035
42	0x3cac6670	0.02104494
43	0xbd4a6a8c	-0.049418017
44	0x3c063f1d	0.008193758
45	0xbd99c783	-0.07508757
46	0x3de03fd8	0.10949677
47	0x3d34edfa	0.044172265
48	0xbd1cef3d	-0.038314093
49	0x3e3153b4	0.17317086
50	0x3d5ee25d	0.054415096
51	0x3db7e5b5	0.0897936
52	0x3dc03e12	0.09386839
53	0x3c29a3fb	0.010354037
54	0x3c3a531c	0.011372354
55	0xbd897a8d	-0.06712828
56	0xbda5feef	-0.08105265
57	0xbdf5cfbb	-0.12002512
58	0x3b14e545	0.0022719663
59	0xbdf254bd	-0.11832569
60	0xbe838e1e	-0.25694364
61	0x3d387a08	0.045038253
62	0xbdf21b32	-0.11821593
63	0xbe56e94e	-0.20987436
64	0xbc242a1b	-0.010019804
65	0xbe01e6a1	-0.12685634
66	0x3e509872	0.20370653
67	0x3e3b710f	0.18304847
68	0xbc8839b0	-0.01662907
69	0xbdab96f2	-0.083784
70	0x3dbcbf8b	0.092162214
71	0x3b8291d3	0.0039846688
72	0xbbcbe12f	-0.0062219123
73	0xbe0757a3	-0.13217025
74	0xbd9aca96	-0.075581715
75	0xbd632dcd	-0.0554636
76	0x3cdc7a86	0.026913892
77	0x3d9f44a7	0.07776766
78	0x3d7e18af	0.06203526
79	0xbc46fe69	-0.012145617
80	0xbe0a10b5	-0.13482936
81	0x3da9f06d	0.08297811
82	0xbda53405	-0.080665626
83	0xbd82e6f3	-0.06391706
84	0x3dee389a	0.1163189
85	0x3c4f5e3b	0.012656744
86	0xbcdc94fe	-0.026926514
87	0x3d6f0f2e	0.058364086
88	0xbd14cedf	-0.0363301
89	0x3ce02fc4	0.027366526
90	0x3d818001	0.06323243
91	0xbdc81b72	-0.0977086
92	0x3dff2ae8	0.124593556
93	0xbd0c11b4	-0.03419657
94	0x3de32fc1	0.11093093
95	0x3d3db48a	0.046314754
96	0xbd3f1d0f	-0.04665857
97	0xbcd9d0bb	-0.026588788
98	0xbdf68495	-0.12037007
99	0x3ce299f2	0.027661297
100	0x3d6b8839	0.05750296
101	0xbd53adb9	-0.051679347
102	0x3e298caf	0.16557573
103	0x3cf87dfe	0.030333515
104	0x3d12be03	0.03582574
105	0x3d2eb5fb	0.04265402
106	0x3dd408df	0.103532545
107	0xbd9938f2	-0.074815646
108	0xbdd1e0b2	-0.10247935
109	0x3cea8eae	0.028632488
110	0xbe48d7b4	-0.19613534
111	0x3dd87283	0.105687164
112	0x3e1d3438	0.15351951
113	0xbde37027	-0.11105376
114	0xbdfe0a23	-0.12404277
115	0x3e4643a5	0.19361742
116	0xbd6720df	-0.056427833
117	0xbde083d0	-0.10962641
118	0xbdbb91d1	-0.09158672
119	0x3e1bd2af	0.15217088
120	0xbd935013	-0.07193007
121	0x3e22a687	0.15883838
122	0xbb9328b6	-0.004490937
123	0xbde080b5	-0.10962049
124	0xbddc3ec7	-0.10754161
125	0x3e250148	0.1611377
126	0xbdfa97c0	-0.12235975
127	0x3c71ea21	0.014765293
128	0x3e212a87	0.15738879
129	0x3ac0c0c9	0.0014705892
130	0x3d244098	0.040100664
131	0xbc76974b	-0.0150507195
132	0xbb4c52c8	-0.003117727
133	0x3d5cd676	0.053915463
134	0x3dab0d8f	0.083521955
135	0x3e48e1ca	0.19617382
136	0xbcafa28e	-0.021439817
137	0x3e4391ac	0.19098538
138	0xbe1761b1	-0.1478336
139	0x3dbddc2d	0.09270511
140	0x3d8e512e	0.069490775
141	0x3e129c39	0.14317407
142	0x3e4688a4	0.19388062
143	0xbd35e58a	-0.04440836
144	0xbd091370	-0.033465803
145	0x3d1675e0	0.036733508
146	0x3c8a5ed3	0.016890919
147	0x3d511989	0.051049743
148	0xbd2d8b3f	-0.042369124
149	0x3dc133df	0.09433722
150	0xbe1da494	-0.15394813
151	0x3d1a7b3b	0.037715178
152	0x3dab8f16	0.08376901
153	0x3bd77445	0.0065751397
154	0xbd82e07f	-0.063904755
155	0x3c536be3	0.01290414
156	0xbe183b23	-0.14866309
157	0xbe77ff8c	-0.24218577
158	0xbde1f9d6	-0.110339805
159	0x3c5205d9	0.012818777
160	0x3d272829	0.040809784
161	0xbd961662	-0.07328488
162	0x3db19c5d	0.08672402
163	0x3d8c22b1	0.06842554
164	0xbd134eb6	-0.035963736
165	0xbe3a07e3	-0.18167071
166	0xbd845e46	-0.06463294
167	0xbe15d522	-0.14632085
168	0x3dd4b33f	0.10385751
169	0xbe18abcb	-0.14909284
170	0xbcca5970	-0.02470085
171	0x3c9ba72f	0.019000618
172	0x3d6fc421	0.058536652
173	0xbdf47188	-0.11935717
174	0xbe367ca6	-0.17820987
175	0xbe054fb6	-0.13018689
176	0x3c8b37a9	0.016994314
177	0x3e2aa45c	0.1666426
178	0x3ddc7bee	0.10765825
179	0x3d66ad8f	0.056317862
180	0xbde35516	-0.11100213
181	0x3d86d234	0.06583062
182	0x3da12228	0.07867843
183	0x3cf601db	0.030030182
184	0xbbc4fe8a	-0.0060117887
185	0xbe2f4f81	-0.17120172
186	0x3dbf6f59	0.0934741
187	0xbc19467b	-0.009355183
188	0xbe232159	-0.1593069
189	0xbd24c774	-0.040229276
190	0x3c2d5032	0.010578202
191	0xbda7d99a	-0.08195801
192	0x3e17cf87	0.14825259
193	0xbc58ea01	-0.013239385
194	0x3d0ce570	0.034398496
195	0x3e80561a	0.2506569
196	0x3ca60a89	0.020268695
197	0x3df17c38	0.11791271
198	0xbdc91ab6	-0.09819548
199	0x3d5749ea	0.052560724
200	0x3d4643fd	0.048404682
201	0xbbfab100	-0.0076504946
202	0xbdc8534e	-0.09781514
203	0xbc66346c	-0.014050584
204	0x3ca392f9	0.019967543
205	0x3d0b1b70	0.033961713
206	0x3c641726	0.013921535
207	0xbe11861c	-0.14211315
208	0x3de311b1	0.11087359
209	0x3d48e32b	0.04904477
210	0xbc91dcad	-0.017805422
211	0xb88cfa85	-6.722383e-05
212	0x3d103b87	0.03521302
213	0xbd9a3f3e	-0.07531594
214	0x3d257614	0.04039581
215	0xbcfec2a0	-0.031098664
216	0xbdf34fd0	-0.118804574
217	0x3e0a832d	0.13526602
218	0x3e0887a2	0.1333299
219	0x3e4d75e9	0.2006451
220	0x3d88ddfa	0.06682964
221	0x3cc1e52d	0.02366885
222	0xbe17c3a1	-0.1482072
223	0x3dc4bb2d	0.096060134
224	0x3dbae51a	0.09125729
225	0x3d015d8c	0.031583354
226	0x3d3de070	0.04635662
227	0x3a98c4c8	0.0011655325
228	0x3e1b0c38	0.1514138
229	0xbd8bb48c	-0.06821546
230	0xbdafff0f	-0.085935704
231	0x3e551434	0.20808488
232	0x3dd1ecad	0.102502204
233	0xbd804a03	-0.062641166
234	0xbbce0b34	-0.0062879566
235	0xbc2b0ae7	-0.010439611
236	0xbda2bdb1	-0.07946337
237	0xbdd83e6a	-0.105587795
238	0xbc2890eb	-0.010288457
239	0xbd6a0bf8	-0.05714032
240	0x3cb77cb7	0.022398336
241	0x3d44a95d	0.04801308
242	0x3d052547	0.032506254
243	0x3c80cee5	0.015723655
244	0xbe07db1b	-0.13267176
245	0xbe07a26d	-0.13245554
246	0xbe411017	-0.18853794
247	0xbd38f8ce	-0.045159154
248	0x3dd02b0e	0.10164462
249	0x3d11cf93	0.03559835
250	0x3d840640	0.064465046
251	0xbdc3a461	-0.09552837
252	0xbd89acac	-0.06722388
253	0x3d2d8379	0.04236171
254	0x3c1452c4	0.009052936
255	0xbd01d404	-0.031696334

a2c_network.mu.bias f4 [12]
0	0x3d2dfebd	0.042479265
1	0xbc52a5b0	-0.012856886
2	0xbd3233f6	-0.043506585
3	0xbcbd97a5	-0.023143599
4	0xbc9ad4a7	-0.018900229
5	0xbd6ffa3c	-0.05858825
6	0x3e355d6e	0.17711422
7	0x3d08b2da	0.03337369
8	0x3d6c611c	0.0577098
9	0xbdd67f2a	-0.10473473
10	0xbe0a7dac	-0.13524503
11	0x3d19e0f8	0.037568063

exp_avg f4 [12]
0	0x37fec58a	3.0371146e-05
1	0x3a78e31c	0.0009494291
2	0xbb72e04e	-0.0037059966
3	0xbb8fdcc0	-0.004390329
4	0xbb84ca2a	-0.00405242
5	0xba60398d	-0.00085534976
6	0x3aba8957	0.0014231604
7	0xb9d85a57	-0.0004126604
8	0xb81a7815	-3.6828296e-05
9	0xbaafd5ca	-0.0013415155
10	0xba98f4cb	-0.0011669634
11	0xb90f6578	-0.00013675343

exp_avg_sq f4 [12]
0	0x382f728a	4.1829924e-05
1	0x383c59eb	4.4906436e-05
2	0x3836c94c	4.3579654e-05
3	0x38447519	4.6839097e-05
4	0x382ec872	4.1671512e-05
5	0x3838c09c	4.40484e-05
6	0x38423755	4.6304736e-05
7	0x383e69ad	4.539795e-05
8	0x3849bf97	4.8100566e-05
9	0x384739c1	4.7499085e-05
10	0x383b0133	4.458539e-05
11	0x3838643d	4.3962373e-05
