OmniIsaacGymEnvs/omniisaacgymenvs/runs/Naranjelio/nn/last_Naranjelio_ep_3900_rew_6.1919866.pth (torch, 672807 bytes, 36 tensors)

value_mean_std.running_mean f8 [1]
0	0x3fda889048263f8f	0.4145851807197624

value_mean_std.running_var f8 [1]
0	0x3fc447eb7409a84e	0.15844481626419554

value_mean_std.count f8 []
0	0x41b6da0001000000	383385601.0

running_mean_std.running_mean f8 [48]
0	0xbf667d0b41449fd2	-0.002745172483759697
1	0x3f3e9d63b11f1461	0.0004671448124294372
2	0x3f429015eb60ec2b	0.0005664927509835318
3	0xbf377724c3b35cc8	-0.0003580536610576332
4	0xbf6df585bf2c1648	-0.0036571132890255466
5	0x3f719ca2ca2cf96a	0.0042997702574310934
6	0x3fd25036044d7b4e	0.2861456911104384
7	0xbfb7080a7b796968	-0.08996644510754026
8	0xbfec68a8d36c8e65	-0.8877758149505551
9	0xbf946a238d496b11	-0.019936137674771596
10	0x3f864529dff15e95	0.010874106547063259
11	0x3f93a5583f399347	0.01918542753118693
12	0x3fd7d6e1d0dd0ba2	0.372490362137052
13	0xbfa8018e955a2897	-0.04688687871119262
14	0xbed8524c5a87fb70	-5.79869212247076e-06
15	0x3fc96199286a5473	0.1982909629192907
16	0x3fccd494df86d1fd	0.22523747362505722
17	0x3fb48ba7dbc1e803	0.0802559768216327
18	0xbfce798a569960a4	-0.23808411816094577
19	0xbfb6d8370dc86d78	-0.08923667990204887
20	0xbfe3e71946784911	-0.6219602943768071
21	0xbfdda97d0c997974	-0.4634697554628453
22	0x3fc3e0357fad543a	0.1552798150466133
23	0x3fdb0922069cc5a6	0.42243242879620835
24	0xbf639dafb33a09b0	-0.0023945266382849537
25	0x3f5beff30010fba2	0.001705157570782247
26	0xbf4de56299b102c3	-0.0009123546073014011
27	0xbf57946b5450e313	-0.0014391945017122084
28	0xbf87ecf6de3852b3	-0.011682442337624143
29	0x3f61854f66e53ef5	0.0021387625521710426
30	0x3f7118b51a20a0a1	0.004173953466342224
31	0xbf5fca235fdd9a8c	-0.0019402833417757918
32	0x3f7a05207f111c2d	0.0063525456799374104
33	0xbf6a4e109d05d8e8	-0.003211052368153767
34	0xbf5f9f724b156fc9	-0.0019301048417536984
35	0x3f64cb3c8cb23fc6	0.0025383169755243988
36	0x3fdda2be8b213cd1	0.4630581244172847
37	0x3fd6c7b7d840d2e4	0.3559398280952293
38	0xbfd45e45220b3a8d	-0.31825378727527537
39	0x3fbe2021e95e5081	0.11767780253859607
40	0xbfc6ec38dbce3973	-0.17908392651265678
41	0xbf941e913e5548ae	-0.01964785521460815
42	0x3fee1bb31aa69526	0.9408813019296403
43	0xbfc8017e479d5205	-0.18754557129672392
44	0x3fe81bb2d1e261aa	0.7533811663916385
45	0xbfe97e61aaddbea2	-0.7966774308424258
46	0xbfeab0ccbd608ed5	-0.8340820025227581
47	0x3fea0df90b6c71d6	0.814205667793028

running_mean_std.running_var f8 [48]
0	0x3f46037f8bf383fa	0.0006718037401719495
1	0x3f427050ccf82bc5	0.0005627054724198713
2	0x3f60b874fd1a861a	0.002041080945517815
3	0x3f304a1b1fa0f5ed	0.0002485576839069404
4	0x3f33763cb7de4c0c	0.00029696447733690355
5	0x3f45be174b36ee63	0.0006635297526637714
6	0x3fa73bba399e2049	0.04537755921688864
7	0x3fa47b42ecc0c039	0.040002910042290236
8	0x3fa2b10a8707dbda	0.03650696657489734
9	0x4015715df33f3fc7	5.360709954009457
10	0x3ff57cba62ed7298	1.3429511894566186
11	0x3f9470495f4a8ee0	0.019959589425197488
12	0x3fad78290a9d9894	0.05755737547478748
13	0x3fb6c1d01cab8dd6	0.0888948507304613
14	0x3e523158035d2a58	1.6943318046576526e-08
15	0x3fb39e5025c3fe8f	0.07663441583644669
16	0x3f482606c3ad0828	0.0007369549779030525
17	0x3fca2464986d787f	0.20423562472109677
18	0x3f6fbf4008599c4f	0.0038753748547608944
19	0x3fc2682ec01e5eb6	0.14380440121452914
20	0x3fc70b5eb6b41028	0.18003448411047995
21	0x3fc0dbbf07ef4d9e	0.13170612227859818
22	0x3fe3b7ad51decefd	0.6161715125112718
23	0x3fb3cef3b0726c4c	0.07737658555781585
24	0x3f13f974bd670fa5	7.619643233797034e-05
25	0x3f104d12644debb4	6.218361620639775e-05
26	0x3f141061fec6133d	7.65380679635498e-05
27	0x3f20537480af1cd2	0.00012455746795423398
28	0x3f226c57f2065789	0.0001405579905734945
29	0x3f1c48a2c01dcecb	0.00010789388036674533
30	0x3f150c335fb10fed	8.029044686091976e-05
31	0x3f228f40b4e0fadb	0.0001415983664987051
32	0x3f25b558466099d2	0.00016562178206065578
33	0x3f25335a730bc011	0.0001617477332938049
34	0x3f222b13f2deec91	0.00013861292376113725
35	0x3f1e6480b4318b9b	0.00011593852563999837
36	0x3fe1c44a063ed5fb	0.555211078832769
37	0x3fe51bf42ec8d3d9	0.659662333846991
38	0x3fe7c7575642161a	0.7430836376885879
39	0x3fe8f856e961c6f2	0.7803148802033475
40	0x3fe7d1807468608a	0.7443239472950307
41	0x3fe7b93246d0181b	0.7413569815696549
42	0x3fa3ab3326b93868	0.03841552589129621
43	0x3fe8956324c81307	0.7682357519521198
44	0x3fcf75a95849c26c	0.24577824412292004
45	0x3fc83dafcf442f20	0.18938253040720898
46	0x3fc26afce3aa9405	0.14389001003760896
47	0x3fc165dab0d7fe69	0.13592084536502405

running_mean_std.count f8 []
0	0x41a6da0002000000	191692801.0

a2c_network.sigma f4 [12]
0	0xbfbe7f85	-1.4882666
1	0xbfc7ae5a	-1.5600083
2	0xbfad9197	-1.3560055
3	0xbfc84bbf	-1.5648116
4	0xbfa9023d	-1.3203808
5	0xbfa08d9c	-1.2543216
6	0xbfa244d4	-1.2677255
7	0xbfa3a00a	-1.2783215
8	0xbfbad134	-1.4595094
9	0xbfc52a66	-1.5403564
10	0xbfad01db	-1.3516191
11	0xbfe57771	-1.7927076

a2c_network.actor_mlp.0.weight f4 [256, 48]
0	0xbd478a84	-0.048716083
1	0x3e026585	0.12734039
2	0xbbff26a2	-0.007786588
3	0xbd08bc90	-0.033382952
4	0xbe0010e0	-0.12506437
5	0xbdcf3ae0	-0.101186514
6	0x3d2ea3fa	0.04263685
7	0x3e06f67f	0.13179968
8	0xbded37cb	-0.11582907
9	0xbca2f3f1	-0.019891711
10	0x3d9ed60f	0.07755672
11	0x3d5cca34	0.053903773
12	0xbe56ad56	-0.2096456
13	0xbca9dc2f	-0.020734875
14	0x3d4499b4	0.047998145
15	0xbd68e2d9	-0.056856964
16	0xbd2b11f3	-0.041765165
17	0xbd131100	-0.035904884
18	0xbd9dd38e	-0.077063665
19	0x3e1ab08a	0.15106407
20	0xbe097703	-0.13424306
21	0x3d476f1d	0.04868995
22	0xbd9d2f00	-0.0767498
23	0x3e51100c	0.20416278
24	0x3e0c2378	0.13685405
25	0x3d88430e	0.06653415
26	0x3d39df99	0.045379255
27	0x3c9550b2	0.018226955
28	0x3d039e84	0.032133594
29	0x3d2fc21a	0.04290972
30	0x3d6adcff	0.057339665
31	0xbe5d968e	-0.21639463
32	0xbe091a64	-0.13388973
33	0xbe061e8d	-0.13097592
34	0x3bca1913	0.00616754
35	0x3d62543c	0.055256113
36	0xbdcfed3c	-0.10152671
37	0xbe04dc89	-0.12974752
38	0x3ce74a03	0.028233534
39	0x3d99d170	0.0751065
40	0x3e306503	0.17226033
41	0x3f0a9f96	0.5414976
42	0x3d52653a	0.05136607
43	0x3e1e4eb7	0.15459715
44	0xbb91c3ca	-0.0044483887
45	0xbe27e95c	-0.16397613
46	0xbd751ec4	-0.059843794
47	0xbe44b415	-0.19209321
48	0xbd4f7938	-0.050652713
49	0x3cd7aea1	0.026328387
50	0xbc11d474	-0.00890075
51	0x3d32d83f	0.04366326
52	0xbd486b7d	-0.048930634
53	0x3e27c8a7	0.16385137
54	0xbd947ee4	-0.07250765
55	0xbc06c720	-0.008226186
56	0x3e41769d	0.18892904
57	0xbe9272a3	-0.28603086
58	0xbd9e2c9c	-0.07723352
59	0x3e3e4c82	0.18583873
60	0x3e064c9b	0.1311516
61	0xbda76c79	-0.081749864
62	0x3e16c852	0.14724854
63	0x3d1ebde2	0.038755305
64	0x3dd8e46c	0.10590443
65	0x3e3f666f	0.18691419
66	0xbdc8c505	-0.098032035
67	0x3e703cbc	0.23460668
68	0x3e1ca7bb	0.15298359
69	0xbd186e75	-0.037214715
70	0x3e005402	0.12532046
71	0x3e09f340	0.13471699
72	0xbd9b100f	-0.07571422
73	0xbca05318	-0.019570872
74	0x3c1f2530	0.009713456
75	0xbe0037d5	-0.12521298
76	0xbd193ec5	-0.037413377
77	0x3d370e4a	0.04469136
78	0xbd94765b	-0.07249137
79	0x3dec5ede	0.11541532
80	0x3c61cd95	0.013781925
81	0xbd4fe22c	-0.050752804
82	0xbcb6dc35	-0.0223218
83	0xbd96b239	-0.07358212
84	0xbdf07421	-0.117409
85	0xbd78c866	-0.06073799
86	0xbd344185	-0.044007797
87	0x3e096eb4	0.13421136
88	0x3e33b1a1	0.17548229
89	0xbe7101c9	-0.23535837
90	0x3d54cb9c	0.05195199
91	0xbe0f2552	-0.1397908
92	0x3d8f78cf	0.07005464
93	0x3d2eff38	0.042723864
94	0xbda0823d	-0.07837341
95	0xbd21d7c2	-0.039512403
96	0x3d9dbe45	0.07702307
97	0x3e2230dd	0.15838952
98	0xbd2bfea6	-0.0419909
99	0xbba2a4fa	-0.0049635144
100	0x3da8d3e3	0.08243539
101	0x3cccfaf0	0.025022
102	0xbc587f42	-0.013213934
103	0xbc3dec31	-0.011591957
104	0xbd8ce14d	-0.0687891
105	0xbbc8094f	-0.0061046253
106	0xbd9f1631	-0.077679045
107	0xbf3ec3e7	-0.74517673
108	0x3e4b82ad	0.19874068
109	0x3c92491b	0.017857125
110	0xbe1e7e39	-0.15477838
111	0xbd5a20cd	-0.053253938
112	0xbe3e8823	-0.1860662
113	0xbdb69283	-0.08914664
114	0x3e10bdab	0.14134853
115	0x3e35ad76	0.17741951
116	0x3e178c5f	0.14799641
117	0xbe2c41e5	-0.16822012
118	0x3e5d409c	0.21606678
119	0xbcc030b3	-0.023460722
120	0x3c8b6789	0.017017143
121	0xbd8fb5df	-0.07017111
122	0x3da61e1a	0.0811121
123	0x3dbb9961	0.09160114
124	0xbb90e049	-0.004421268
125	0xbc2632a4	-0.01014391
126	0x3d88c978	0.06679052
127	0xbd0241ea	-0.03180114
128	0x3cbd9326	0.023141455
129	0x3d738a58	0.059458107
130	0xbd2f506d	-0.04280131
131	0xbccd0e85	-0.025031338
132	0x3daaf9f7	0.08348458
133	0xbcce67d9	-0.025196003
134	0x3c13d374	0.009022582
135	0x3d97a55f	0.07404589
136	0x3c84c2ad	0.01620611
137	0x3d3dd3cf	0.046344575
138	0xbd8c7f9f	-0.06860279
139	0xbd873117	-0.0660116
140	0xbd125cb9	-0.03573296
141	0x3cfb619b	0.03068619
142	0xbd3173fe	-0.04332351
143	0x3d5bcaa2	0.053660043
144	0x3df55605	0.119792975
145	0x3d9133f9	0.07089991
146	0x3d4027fc	0.046913132
147	0xbceafc7f	-0.028684853
148	0x3dabd4e8	0.08390218
149	0x3e4461d2	0.1917794
150	0xbe08eb16	-0.13370928
151	0x3dba2c96	0.09090535
152	0x3e2c178e	0.1680586
153	0xbe4fcab3	-0.20292167
154	0xbd94d0df	-0.072664015
155	0x3e739b76	0.23789772
156	0xbb34922b	-0.0027552943
157	0xbd14bc8e	-0.036312632
158	0x3ea8f189	0.32996777
159	0xbda25e2d	-0.07928119
160	0x3da9f438	0.08298534
161	0xbe3ccbc2	-0.18437102
162	0xbdaf3d2b	-0.08556589
163	0x3db33423	0.08750179
164	0x3d8bfad5	0.06834952
165	0x3df3d2a9	0.119054146
166	0xbdbecd03	-0.09316447
167	0xbe43803e	-0.1909189
168	0x3d3af241	0.045641188
169	0x3c909071	0.017647
170	0x3d4acd30	0.04951209
171	0xbd850d97	-0.06496733
172	0xbcbd4398	-0.02310352
173	0x3cb98a4d	0.022648955
174	0xbe023c30	-0.12718272
175	0xbd847d84	-0.06469253
176	0xbde0eb69	-0.10982401
177	0x3d9c2324	0.0762389
178	0x3dc28623	0.09498241
179	0x3dcf9278	0.101353586
180	0xbe01ead6	-0.12687239
181	0x3db3dd31	0.08782423
182	0x3d1f5653	0.038900685
183	0x3e0232e5	0.12714727
184	0x3dc92205	0.09820942
185	0xbd91a4be	-0.071115
186	0x3e19073d	0.14944167
187	0xbe5053e0	-0.20344496
188	0xbd9bc240	-0.076054096
189	0xbe19a67c	-0.15004915
190	0xbdb29908	-0.08720595
191	0xbc5a9fb7	-0.013343743
192	0x3d2b07d3	0.04175551
193	0x3e02e2c0	0.12781811
194	0xbe5b230b	-0.21400087
195	0x3e315225	0.17316492
196	0x3d2574dd	0.040394653
197	0x3d6a3cd2	0.05718691
198	0x3e0ba2a2	0.13636258
199	0x3c395337	0.011311344
200	0xbe769869	-0.24081577
201	0xbe22836f	-0.1587045
202	0x3dfffaec	0.124990314
203	0xbe84c72b	-0.25933203
204	0x3e309413	0.17243986
205	0x3d746730	0.05966872
206	0xbc7632c1	-0.015026749
207	0x3e95c7ec	0.2925409
208	0x3dbab4be	0.09116505
209	0xbd832726	-0.06403951
210	0x3d2d781d	0.042350877
211	0x3e9337fd	0.28753653
212	0x3e2f8c28	0.17143309
213	0xbd380cb9	-0.04493401
214	0x3ebc2d50	0.3675332
215	0xbc2c732c	-0.010525506
216	0xbd1995fb	-0.03749655
217	0xbc90416d	-0.017609322
218	0x3dc9c6e7	0.09852391
219	0xbc727379	-0.014798039
220	0x3d0904d6	0.033451878
221	0x3ca1eb29	0.019765453
222	0xbdd8e5ba	-0.10590692
223	0x3d175f84	0.036956325
224	0xbd2b3903	-0.041802417
225	0xbe0e8199	-0.13916625
226	0xbd372bc1	-0.04471946
227	0x3cc14f65	0.023597429
228	0x3d82e801	0.063919075
229	0x3dc6693d	0.09688041
230	0x3e26dfe5	0.16296346
231	0xbe6ec9bd	-0.23319145
232	0xbdf89c23	-0.12139156
233	0x3dda9251	0.10672439
234	0x3d0254ea	0.03181926
235	0x3e0ffe29	0.14061798
236	0x3e119369	0.14216389
237	0xbd5052c0	-0.050860167
238	0x3d3ba7aa	0.045814194
239	0x3d907adb	0.07054683
240	0xbe1b4186	-0.15161714
241	0x3d1f2258	0.038851112
242	0x3eb0dd67	0.34543917
243	0x3d86c6e2	0.06580903
244	0xbe397226	-0.1810995
245	0xbc1cd7ad	-0.0095729055
246	0x3d94fda4	0.072749406
247	0x3e84b35c	0.2591809
248	0xbd051df0	-0.032499254
249	0xbdfceb00	-0.1234951
250	0x3dafcbc0	0.08583784
251	0x3d08f8c0	0.03344035
252	0xbd6d9b3e	-0.05800938
253	0xbdc0d73a	-0.09416051
254	0x3dcce3ce	0.10004388
255	0x3c1d8559	0.009614312

a2c_network.actor_mlp.0.bias f4 [256]
0	0x3e18ef2e	0.1493499
1	0x3ec4147a	0.38296872
2	0xbdc64bbd	-0.09682415
3	0x3e775144	0.24152094
4	0x3dec0674	0.11524668
5	0x3e8546f7	0.26030704
6	0x3d50c887	0.050972488
7	0xbd8bb070	-0.06820762
8	0xbe3c6cd3	-0.18400888
9	0xbe706351	-0.23475386
10	0x3ed95270	0.42445707
11	0xbde6b2c8	-0.112645686
12	0xbec5bf08	-0.38622308
13	0x3c9acce7	0.018896533
14	0x3ec3f8c7	0.3827574
15	0x3e92020b	0.28517184
16	0x3f0aa95c	0.5416467
17	0x3e548967	0.2075554
18	0xbe09bdef	-0.1345136
19	0xbd2c078e	-0.041999392
20	0x3d9562f0	0.072942615
21	0x3ed7d132	0.4215179
22	0xbeb44a24	-0.35212815
23	0xbe89e87a	-0.26935178
24	0xbe8cd56a	-0.27506572
25	0xbcc3c572	-0.02389786
26	0x3ed4f592	0.41593605
27	0x3e8c1310	0.27358294
28	0x3ea51253	0.32240543
29	0xbbe07e59	-0.0068509993
30	0xbe18cedd	-0.14922662
31	0x3d79d251	0.06099159
32	0x3d2c972a	0.04213635
33	0xbe8db0ac	-0.27673852
34	0xbe3799f6	-0.17929825
35	0xbea8f63d	-0.33000365
36	0x3dd38760	0.10328555
37	0xbe94d098	-0.29065394
38	0x3e330f42	0.17486289
39	0x3e821591	0.2540708
40	0x3e01dd15	0.12681992
41	0xbe8c8f7a	-0.27453214
42	0xbdc5faa9	-0.0966695
43	0x3eae4cdd	0.34043017
44	0xbe27f476	-0.16401848
45	0x3ecf8fb0	0.40539312
46	0x3dfd3b2e	0.12364803
47	0x3e936e13	0.28794917
48	0x3e7bcbd8	0.24589479
49	0x3e13f0e9	0.14447369
50	0x3e0221ce	0.12708208
51	0x3e81cc80	0.25351334
52	0x3e62475b	0.22097532
53	0x3da3f37d	0.08005426
54	0xbd39ee62	-0.045393355
55	0xbebfa396	-0.37429494
56	0x3e878183	0.26465997
57	0xbed9a82d	-0.4251112
58	0x3e900aff	0.2813339
59	0xbe385430	-0.18000865
60	0xbed67ee4	-0.41893685
61	0x3ce79974	0.028271414
62	0x3e9e45db	0.3091267
63	0xbdb9b6c7	-0.09068065
64	0x3ce8e400	0.028429031
65	0x3d347106	0.0440531
66	0x3e7a4a76	0.24442467
67	0xbdcf85d2	-0.10132946
68	0xbd10ed33	-0.03538246
69	0x3e206c00	0.15666199
70	0xbd042f0f	-0.03227144
71	0x3d45b718	0.048270315
72	0x3ce0eeb4	0.027457573
73	0x3e7d2d2b	0.24724261
74	0x3e8c072d	0.27349225
75	0x3e803e63	0.25047597
76	0x3e7a47db	0.24441473
77	0xbdfa7504	-0.1222935
78	0x3eaf9c91	0.34299138
79	0xbea99cb3	-0.33127365
80	0xbe0752ab	-0.13215129
81	0xbeb89159	-0.3604839
82	0x3ead972d	0.339044
83	0x3f0745d5	0.5284093
84	0x3ec587ed	0.38580266
85	0x3e5c652e	0.21522972
86	0x3dfcb81d	0.12339804
87	0xbd34b243	-0.044115316
88	0xbd526a58	-0.05137095
89	0xbd8ff8e1	-0.07029892
90	0xbe8ebe7a	-0.27879697
91	0xbd414e88	-0.047194034
92	0xbe2855be	-0.16438958
93	0x3e03f3d5	0.12885983
94	0xbdba6b7e	-0.09102534
95	0x3ec20a43	0.37898454
96	0xbd84bbef	-0.06481158
97	0x3ebb763d	0.36613646
98	0xbdd81469	-0.10550768
99	0xbeb910d6	-0.36145657
100	0xbdcfd78e	-0.10148536
101	0xbdb3a87e	-0.08772372
102	0x3ed817a1	0.42205527
103	0xbe2ede7e	-0.17077062
104	0x3ed537bb	0.4164408
105	0x3d137a44	0.036005273
106	0x3daa1c8e	0.083062276
107	0x3e5f5c83	0.21812634
108	0x3d9d588f	0.07682907
109	0x3cf9ba24	0.030484267
110	0xbed3f870	-0.4140048
111	0x3c266e82	0.010158183
112	0xbe8f817f	-0.28028485
113	0x3e5b0394	0.21388084
114	0x3ebff42f	0.37490985
115	0x3cc2e63b	0.023791423
116	0x3ce13638	0.027491674
117	0xbe66074b	-0.2246372
118	0xbd99353c	-0.07480857
119	0x3e135eab	0.14391582
120	0xbe357342	-0.17719749
121	0x3ed8cadb	0.42342266
122	0xbe1fe89d	-0.15616079
123	0x3ea34189	0.31885937
124	0x3d044979	0.03229663
125	0xbdf59122	-0.119905725
126	0xbe1e1ab5	-0.15439875
127	0x3d9a7a0b	0.07542809
128	0x3edf888f	0.43658873
129	0xbe759f0a	-0.2398645
130	0xbca12bdc	-0.019674234
131	0xbedac2a6	-0.4272663
132	0xbda63b53	-0.08116784
133	0xbdf2a2e1	-0.11847473
134	0x3e2efa8c	0.17087764
135	0x3ea68595	0.3252379
136	0x3e5343ea	0.20631376
137	0x3e6efe9a	0.2333931
138	0x3d0730ff	0.03300571
139	0xbea10f37	-0.3145692
140	0xbe0eb4bd	-0.13936134
141	0xbdc9de6e	-0.09856878
142	0x3e881f15	0.26586214
143	0xbdd67d6a	-0.104731396
144	0xbea20661	-0.31645492
145	0xbe0ec429	-0.13942017
146	0xbe22bb2d	-0.15891714
147	0x3e05dc7e	0.13072392
148	0xbe70c62e	-0.235131
149	0xbe293733	-0.16524963
150	0x3ee1a350	0.4406991
151	0x3eac7918	0.33686137
152	0x3ec2aea9	0.3802388
153	0xbcac923e	-0.021065827
154	0x3e8460c3	0.25855073
155	0xbea25aae	-0.31709808
156	0xbe7796a9	-0.24178566
157	0x3e7f2154	0.24915057
158	0x3e6c1936	0.23056492
159	0xbe42cfbd	-0.19024558
160	0x3de25a03	0.110523246
161	0xbd1f4733	-0.03888626
162	0xbd425df7	-0.047452893
163	0x3d61f788	0.055167705
164	0xbec13689	-0.3773692
165	0x3ec08ac2	0.37605864
166	0xbe07e52d	-0.13271017
167	0xbd5b0229	-0.053468857
168	0xbdce18bb	-0.10063311
169	0x3e16ae80	0.14715004
170	0x3e30b87f	0.1725788
171	0x3edd3e8e	0.43211788
172	0xbcbe46a6	-0.023227047
173	0x3ea3034e	0.3183846
174	0x3e68a28d	0.22718258
175	0x3e4f403e	0.2023935
176	0x3e7b1c03	0.24522404
177	0x3e6623e9	0.22474636
178	0x3e8ba8ad	0.27277127
179	0x3edb6cff	0.42856595
180	0x3d963b2d	0.07335506
181	0x3e96e809	0.29473904
182	0x3dde80a2	0.108643785
183	0x3e70f7d3	0.23532037
184	0x3e9e5d7a	0.30930692
185	0xbe264906	-0.16238794
186	0xbe70f174	-0.23529607
187	0xbe6a3651	-0.22872283
188	0x3e260def	0.16216253
189	0xbde9ad57	-0.11410015
190	0xbda542b0	-0.0806936
191	0x3e2be77e	0.16787526
192	0x3dc418f1	0.0957507
193	0x3e9cec6e	0.30649132
194	0xbe95d5c3	-0.2926465
195	0xbe244016	-0.16040072
196	0xbea861fb	-0.32887253
197	0x3e3194a5	0.1734186
198	0xbdc1c576	-0.09461491
199	0x3e945a35	0.28975073
200	0xbe0f15e8	-0.139732
201	0xbe958dcb	-0.29209742
202	0x3e9b55b6	0.3033883
203	0xbcd70559	-0.026247667
204	0x3e88a1bd	0.26685897
205	0xbe486fa4	-0.19573838
206	0xbd786af4	-0.060648873
207	0xbd899ba7	-0.067191415
208	0xbd25e433	-0.04050083
209	0xbddc4e60	-0.10757136
210	0xbe060c5f	-0.13090657
211	0x3f0099d7	0.5023474
212	0xbd616427	-0.055027153
213	0x3eab0e10	0.33409166
214	0x3d992767	0.074782185
215	0x3ed4a9be	0.41535753
216	0x3d51452f	0.05109137
217	0x3e75e7de	0.24014232
218	0x3d0cfc6e	0.034420423
219	0x3df22151	0.11822761
220	0xbd3f0bdb	-0.046642166
221	0xbe9ba8cf	-0.30402228
222	0x3eb29880	0.34881973
223	0xbd52126a	-0.051287092
224	0xbd9249a4	-0.07142952
225	0x3e892454	0.2678553
226	0x3e32c065	0.17456205
227	0xbe0a97b5	-0.13534434
228	0xbe2f3181	-0.17108728
229	0x3e8cec7e	0.2752418
230	0x3ce7c966	0.028294276
231	0x3e5f01d7	0.21778046
232	0x3eae3968	0.34028172
233	0x3b82530f	0.0039771865
234	0x3e8c51bc	0.27406108
235	0x3e9e4b10	0.30916643
236	0xbe85336f	-0.26015803
237	0x3d588902	0.052865036
238	0x3e9e2c67	0.3089325
239	0x3ed94b93	0.4244047
240	0xbe27d7d7	-0.1639093
241	0x3ea21664	0.31657708
242	0x3e9c6679	0.3054693
243	0x3ebfe3e9	0.3747857
244	0xbd030fe0	-0.03199756
245	0x3ce3aa74	0.02779124
246	0xbdf5e1cd	-0.12005959
247	0x3eb43096	0.35193318
248	0x3df7ff6c	0.12109265
249	0xbe976049	-0.29565647
250	0x3c3068b0	0.010767147
251	0xbe76e2cf	-0.24109958
252	0xbe942a14	-0.28938353
253	0x3e9e0d9b	0.30869755
254	0x3e8d512c	0.27600992
255	0xbe6451dd	-0.22296853

a2c_network.actor_mlp.2.weight f4 [128, 256]
0	0xbd6ac525	-0.057316918
1	0xbd7978e4	-0.060906306
2	0xbe3c3c4e	-0.1838238
3	0xbd5793c8	-0.05263117
4	0x3d82c74d	0.0638567
5	0xbd8313a0	-0.064002275
6	0xbc84431d	-0.016145283
7	0xbdf4d4ca	-0.11954649
8	0xbd0ae45a	-0.03390918
9	0x3ddb48a3	0.10707214
10	0x39a46b8b	0.00031360643
11	0xbd673247	-0.056444433
12	0x3db4a966	0.08821373
13	0x3cbb609d	0.022873217
14	0x3e0e9da8	0.13927329
15	0xbb1ae39d	-0.0023634203
16	0xbd97f459	-0.074196525
17	0x3de9bee5	0.11413363
18	0x3ddf6bc5	0.10909227
19	0xbcc285a9	-0.023745375
20	0x3dc52325	0.09625844
21	0xbe05cc79	-0.13066281
22	0xbd88fa6b	-0.066883884
23	0x3d92b45f	0.07163309
24	0xbcf3244a	-0.02968039
25	0xbd9b17b4	-0.075728804
26	0x3de1c752	0.110243455
27	0xbd66274b	-0.056189816
28	0xbe3e43b7	-0.18580519
29	0xbc0dbdc8	-0.008651204
30	0x3d932d3f	0.071863644
31	0xbd63b155	-0.05558904
32	0x3d175ceb	0.036953848
33	0x3cfc0034	0.030761816
34	0xbd39fef2	-0.04540915
35	0x3ce62999	0.028096007
36	0xbd9e8aab	-0.077412926
37	0x3d7455e8	0.05965224
38	0x3df1a515	0.11799065
39	0xbe3c475b	-0.18386595
40	0xbdded058	-0.10879582
41	0xbd4f79ae	-0.050653152
42	0xbd28ccdd	-0.041210998
43	0xbc9d0b71	-0.019170495
44	0x3e8fde1a	0.28099138
45	0xbc5eef30	-0.013606831
46	0x3c26b338	0.010174565
47	0xbe930fc7	-0.28722975
48	0xbc04283c	-0.008066233
49	0x3b413631	0.0029481763
50	0xbc006b82	-0.007838132
51	0xbde445a1	-0.11146093
52	0xbd358704	-0.044318214
53	0x3d7f0159	0.062257145
54	0xbdee0f95	-0.11624066
55	0x3c6a3493	0.014294761
56	0xbe4d65d2	-0.20058373
57	0x3d9fc314	0.0780088
58	0xbe8b7b47	-0.2724249
59	0xbe173700	-0.14767075
60	0x3e05bdfe	0.13060758
61	0xbd1a0508	-0.037602454
62	0xbd0af1f1	-0.03392214
63	0xbdaf6fef	-0.085662715
64	0x3d3d0c16	0.046154104
65	0xbce6cc73	-0.02817366
66	0xbd815ec1	-0.06316901
67	0xbe271f48	-0.16320527
68	0xbe0c0317	-0.13673054
69	0xbe0570c2	-0.13031295
70	0x3d229a5d	0.039697994
71	0xbd66277d	-0.056190003
72	0xbe0b1456	-0.13581976
73	0x3db77cd2	0.089593545
74	0x3d190023	0.037353646
75	0xbdcb6125	-0.09930638
76	0xbe1de396	-0.15418848
77	0xbe2e1355	-0.16999562
78	0xbbe9658a	-0.0071227
79	0x3cf91612	0.030406032
80	0xbd583d52	-0.052792855
81	0x3e6fe235	0.23426135
82	0x3ddea877	0.10871976
83	0xbdc8f1f6	-0.098117754
84	0xbe601910	-0.2188456
85	0x3c8af45d	0.016962225
86	0xbdee48cf	-0.11634981
87	0xbde2c06b	-0.11071857
88	0x3e7f0359	0.24903621
89	0xbcbcab73	-0.023030972
90	0xbc825e61	-0.015914144
91	0x3e49152a	0.1963698
92	0xbe2df442	-0.16987708
93	0xbdae802c	-0.085205406
94	0xbe035147	-0.12823974
95	0x3e422183	0.18958096
96	0xbc855fcf	-0.016281037
97	0xbdb7eb83	-0.08980467
98	0xbcbcc5b5	-0.023043493
99	0x3d339ff2	0.043853708
100	0x3bc3aa21	0.0059712087
101	0x3df3894e	0.11891423
102	0xbdf4c738	-0.119520605
103	0x3d960a1d	0.07326148
104	0xbe4abde9	-0.19799007
105	0x3e024e9d	0.12725301
106	0x3dbe0a37	0.09279292
107	0xbd789b75	-0.06069513
108	0x3c74c837	0.014940313
109	0xbd0a204c	-0.033722207
110	0xbcbb2bd7	-0.022848053
111	0xbd722cec	-0.059124872
112	0x3b3c2855	0.0028710563
113	0xbd658153	-0.056031536
114	0x3da41e59	0.08013601
115	0xbe07ba99	-0.13254775
116	0xbc9209ff	-0.017827032
117	0xbd50427a	-0.050844647
118	0x3de35183	0.110995315
119	0x3d1f8a72	0.03895039
120	0xbe6a6b73	-0.22892551
121	0x3c976c88	0.018484369
122	0x3dcd279a	0.10017319
123	0xbe2a4767	-0.166288
124	0xbe6ccad5	-0.2312425
125	0x3c8bdca2	0.01707298
126	0x3d884792	0.06654276
127	0xbd97a809	-0.07405097
128	0xbdc9011e	-0.09814666
129	0xbc22b979	-0.009931915
130	0xbe60673b	-0.2191438
131	0x3dd7c6b5	0.10535947
132	0x3de621bb	0.11236902
133	0x3d2f73cf	0.042835053
134	0xbdee4a2a	-0.116352394
135	0x3c86f67b	0.016474953
136	0x3d50e0a6	0.05099549
137	0x3d0dcbf4	0.034618333
138	0x3e4cdba9	0.20005669
139	0xbe47aae6	-0.19498786
140	0xbe19282d	-0.14956732
141	0xbd0a7b9e	-0.033809297
142	0xbd569e7c	-0.052397236
143	0xbc5a2b93	-0.013316053
144	0x3c35a27d	0.0110861035
145	0x3da5e414	0.08100143
146	0xbdb26438	-0.087105215
147	0x3e3e4657	0.1858152
148	0x3e20c166	0.15698776
149	0x3d883387	0.06650453
150	0x3d416f58	0.047225326
151	0xbd7b779d	-0.06139337
152	0xbdce0689	-0.1005984
153	0xbe108154	-0.14111835
154	0x3d8ea69a	0.069653705
155	0xbc08d41c	-0.008351352
156	0xbe50ddc5	-0.20397098
157	0xbd44d1b6	-0.04805156
158	0x3d1607fa	0.0366287
159	0x3d9d9425	0.07694272
160	0x3b7b4077	0.0038337985
161	0x3e2c3b31	0.16819455
162	0xbe324ca8	-0.17412055
163	0xbcf7d8d9	-0.030254768
164	0x3e1e8f41	0.15484335
165	0xbd73d5ae	-0.059529953
166	0xbc9e1750	-0.019298226
167	0xbd66bda3	-0.056333195
168	0x39f77ee0	0.0004720604
169	0xbe06a913	-0.13150434
170	0xbda63cdf	-0.08117079
171	0x3e183a96	0.14866099
172	0xbaddf6fc	-0.0016934569
173	0xbca5979a	-0.02021389
174	0xbd656630	-0.056005657
175	0xbdbf42a6	-0.09338884
176	0xbcf85778	-0.030315146
177	0xbe437cfa	-0.19090644
178	0xbd72d736	-0.059287272
179	0x3e034b97	0.12821804
180	0xbdc945ce	-0.09827767
181	0xbd38f985	-0.045159835
182	0xbdae912e	-0.085237846
183	0xbdd783c4	-0.10523179
184	0xbe01105f	-0.12603901
185	0x3da11d12	0.07866873
186	0x3d80f5f3	0.06296911
187	0x3d51a073	0.051178407
188	0xbd4bf230	-0.049791515
189	0xbdcc42d0	-0.09973681
190	0xbd39dd25	-0.045376915
191	0xbe17f78b	-0.14840524
192	0xbd465f97	-0.048431005
193	0xbde5ce45	-0.112209834
194	0xbda558f5	-0.08073608
195	0x3d2aa1a1	0.041658048
196	0x3d47cbe8	0.048778445
197	0xbe110c6a	-0.14164892
198	0x3c245508	0.010030039
199	0xbc640f03	-0.013919595
200	0xbd9d81dd	-0.07690785
201	0xbd6cfda6	-0.057859086
202	0x3d3e6f48	0.046492845
203	0xbe0b7e93	-0.13622503
204	0xbb1de706	-0.0024094
205	0x3dc9671c	0.0983412
206	0xbe2f6c53	-0.17131166
207	0x3d8f048e	0.069832906
208	0xbe358dd6	-0.17729887
209	0x3d29b9b2	0.04143686
210	0x3db1c10f	0.08679401
211	0x3d842c6e	0.06453787
212	0x3adbf613	0.001678171
213	0x3b383408	0.0028107185
214	0xbdb0bcd4	-0.08629766
215	0xbd928862	-0.07154919
216	0x3d60acd4	0.05485232
217	0xbba2f68f	-0.0049732397
218	0x3dda6ce9	0.10665304
219	0xbce494cc	-0.027902983
220	0x3ca0859b	0.019594958
221	0xba7fa78e	-0.00097524456
222	0x3d6f2934	0.058388904
223	0xbcee72f7	-0.029107554
224	0x3dc35d62	0.09539296
225	0xbd55c610	-0.05219084
226	0xbe5eac20	-0.21745348
227	0x3e08313f	0.13300036
228	0x3dedac39	0.116051145
229	0xbd29784c	-0.04137449
230	0xbd92d8de	-0.071702704
231	0x3e18086d	0.14846964
232	0xbe3f1f09	-0.18664183
233	0xbd417122	-0.047227032
234	0x3df0b606	0.11753468
235	0xbda42454	-0.080147415
236	0x3d270606	0.04077723
237	0x3cb090a4	0.021553345
238	0x3d278df7	0.040906873
239	0xbe0e1fb4	-0.13879281
240	0xbd50157b	-0.050801735
241	0xbdcd1d13	-0.10015311
242	0xbe7de614	-0.24794799
243	0xbd8cb1f1	-0.06869877
244	0xbc0d2c38	-0.0086165
245	0x3d90a5f3	0.07062902
246	0xb92ce3f0	-0.00016488112
247	0xbdf4d5c7	-0.11954837
248	0x3dce40f3	0.10070982
249	0x3d5480bf	0.051880594
250	0xbdaef0ce	-0.085420236
251	0x3ce31f74	0.027724959
252	0x3e03406b	0.12817542
253	0xbc95e193	-0.018296039
254	0xbcb43fb3	-0.02200303
255	0xbd0da5aa	-0.034581818

a2c_network.actor_mlp.2.bias f4 [128]
0	0xbe18fb5d	-0.14939637
1	0xbe68c864	-0.22732693
2	0xbebdf0b2	-0.37097698
3	0xbdaddcec	-0.08489403
4	0x3d8bb6a7	0.068219475
5	0xbe73adf6	-0.2379683
6	0xbe0c7f8e	-0.13720533
7	0xbe33be79	-0.17553128
8	0xbea5bd7f	-0.32371137
9	0xbeba0a56	-0.3633601
10	0xbe1aefa8	-0.15130484
11	0xbce320b5	-0.027725557
12	0xbe8ed248	-0.27894807
13	0xbdd57811	-0.104232915
14	0xbc4de140	-0.012565911
15	0xbdf1a96e	-0.11799894
16	0xbdc50b50	-0.09621298
17	0xbe643740	-0.22286701
18	0x39d37d24	0.00040338293
19	0xbdcfb228	-0.101414025
20	0xbdf61a1e	-0.120167
21	0xbea988d5	-0.33112207
22	0xbdce6dc6	-0.10079531
23	0xbe0383a1	-0.12843181
24	0x3cefaa3e	0.029255982
25	0xbe8c1a34	-0.2736374
26	0xbdc4ed63	-0.096155904
27	0x3d2f5dd7	0.042814102
28	0xbe299323	-0.16560034
29	0xbe258b48	-0.16166413
30	0xbd8c5a25	-0.06853131
31	0x3e4504d6	0.19240126
32	0xbe3f331b	-0.18671839
33	0x3ce0e77c	0.02745413
34	0x3e00bb64	0.12571484
35	0xbe6a41d7	-0.22876678
36	0x3d8c3fe6	0.06848125
37	0x3d3ccf3c	0.04609607
38	0xbd91aefb	-0.07113453
39	0x3e573fac	0.21020383
40	0x3cbdfef1	0.023192855
41	0x3da6c7f0	0.08143604
42	0xbedf146c	-0.43570268
43	0xbe21f85d	-0.158174
44	0xbe373784	-0.17892271
45	0xbdcde952	-0.10054268
46	0xbd9bc477	-0.07605832
47	0xbde48df7	-0.1115989
48	0xbe5061f7	-0.2034987
49	0xbe0b9d46	-0.13634214
50	0xbe6d45e8	-0.23171198
51	0xbe1e16f7	-0.15438448
52	0xbe721979	-0.2364253
53	0xbee2a8c9	-0.44269398
54	0xbd57b78d	-0.052665282
55	0xbdde3c41	-0.10851336
56	0xbe35f09a	-0.17767563
57	0x3e2fda1d	0.17173047
58	0xbd4e5f7c	-0.05038403
59	0x3e281952	0.16415909
60	0xbe9ac547	-0.30228636
61	0xbd36204c	-0.044464394
62	0xbe3c6a8f	-0.18400024
63	0x3dbfb967	0.093615346
64	0xbe40522d	-0.18781348
65	0xbd99ab1b	-0.07503339
66	0xbd7d3162	-0.061814673
67	0xbe85873e	-0.26079744
68	0xbeae3503	-0.3402482
69	0x3d3a0a2b	0.045419853
70	0x3cbb6607	0.022875799
71	0xbe085417	-0.13313328
72	0xbe429108	-0.19000638
73	0xbe38ca6d	-0.1804597
74	0xbddb6bf9	-0.107139535
75	0x3d7f0da2	0.06226886
76	0xbdc8b270	-0.09799659
77	0xbe9c7e66	-0.30565184
78	0xbe716f33	-0.23577575
79	0xbccaade5	-0.024741122
80	0x3d325e08	0.043546706
81	0xbcbe0745	-0.023196826
82	0xbf0a2a41	-0.53970724
83	0xbe4485cf	-0.19191669
84	0x3bd4dba9	0.006495912
85	0x3d02990e	0.031884246
86	0xbe596969	-0.21231617
87	0xbe0d4295	-0.1379493
88	0xbe08e4ae	-0.13368484
89	0xbdd98b03	-0.106222175
90	0xbdcc605c	-0.099793166
91	0x3c245af5	0.0100314515
92	0xbc80d42e	-0.015726175
93	0xbebf1472	-0.37320286
94	0xbc7af0ee	-0.015316231
95	0xbe815292	-0.2525831
96	0x3dd57332	0.104223624
97	0xbd162c14	-0.03666313
98	0x3c99ca4e	0.018773224
99	0xbed38500	-0.41312408
100	0xbe603fe0	-0.21899366
101	0xbd913b0b	-0.0709134
102	0xbe9a97b7	-0.30193874
103	0xbd936f07	-0.07198911
104	0xbe67da18	-0.2264179
105	0xbd55c8c8	-0.052193433
106	0xbe4f3ef5	-0.2023886
107	0x3e1a7c92	0.15086582
108	0xbe2a6158	-0.16638696
109	0xbe48714f	-0.19574474
110	0xbe733792	-0.23751667
111	0x3c69aa46	0.014261788
112	0xbe5500f5	-0.20801146
113	0x3b5b4ca3	0.0033462427
114	0x3c67b2eb	0.014141778
115	0xbe9eeddf	-0.31040856
116	0xbebb58cd	-0.36591187
117	0xbe0598f6	-0.13046631
118	0xbd4d6563	-0.050145518
119	0xbdbe05b8	-0.092784345
120	0x3d32fe41	0.043699507
121	0xbe9b1852	-0.30291992
122	0xbd996acd	-0.07491074
123	0xbc9c0fba	-0.019050468
124	0xbdefa716	-0.11701791
125	0xbe9824b3	-0.297155
126	0x3d29a250	0.04141456
127	0xbe306131	-0.17224576

a2c_network.actor_mlp.4.weight f4 [64, 128]
0	0xbcb4d222	-0.022072855
1	0xbd883d57	-0.06652325
2	0x3dbae357	0.09125393
3	0xbcc526dd	-0.024066383
4	0xbd9996d8	-0.07499474
5	0xbba7c671	-0.0051200916
6	0xbe5633ce	-0.209182
7	0xbcea4bd5	-0.028600613
8	0x3eab1749	0.33416203
9	0x3ed64172	0.41846806
10	0x3db85717	0.09000986
11	0xbd45d883	-0.048302185
12	0x3ccbf8a2	0.02489883
13	0x3d336588	0.043798
14	0xbe2df34d	-0.16987343
15	0x3d9ffd78	0.07812017
16	0x3e01f0fe	0.12689587
17	0xbdc5cf34	-0.096586615
18	0xbcb53bf0	-0.022123307
19	0x3bb69f94	0.0055732224
20	0x3d8c6255	0.06854693
21	0x3e6bbcc3	0.23021226
22	0x3dab6494	0.08368793
23	0xbe02abbf	-0.12760828
24	0x3d7fdc2d	0.062465835
25	0xbdf683e2	-0.120368734
26	0x3d26daa4	0.040735856
27	0xbde24daf	-0.11049973
28	0xbe21d2dc	-0.15803093
29	0xbe2f7a1d	-0.17136426
30	0xbdd2336d	-0.10263715
31	0xbb88ebee	-0.0041785156
32	0xbce1ecc9	-0.027578728
33	0x3d0f94da	0.035054065
34	0xbd9806fd	-0.07423208
35	0x3e67d9e2	0.2264171
36	0xbe2403af	-0.1601703
37	0xbe209f4c	-0.15685767
38	0xbdeebcb1	-0.11657084
39	0xbd8c4fd9	-0.06851167
40	0xbcdbc208	-0.02682592
41	0xbe594a29	-0.21219696
42	0x3c6c0273	0.014404881
43	0xbe256679	-0.16152371
44	0xbc1ef6c5	-0.009702389
45	0x3b3344f8	0.002735434
46	0x3c11b0ec	0.008892279
47	0x3dd168bb	0.10225054
48	0xbc831158	-0.015999481
49	0xbbc6f0ab	-0.0060711703
50	0x3e1ae53e	0.15126511
51	0xbd6e330f	-0.058154162
52	0x3dcb4c77	0.09926694
53	0x3dc96cfb	0.098352395
54	0xbe1b1fa4	-0.15148789
55	0xbea86ec8	-0.3289702
56	0x3d6520c6	0.05593946
57	0xbe3dcc5a	-0.18534985
58	0x3bdd3fcd	0.0067519904
59	0xbc547449	-0.012967178
60	0x3df9448e	0.12171279
61	0x3d930dd0	0.07180369
62	0x3e51de29	0.20494904
63	0xbd204af7	-0.039133992
64	0x3def3b2a	0.116812065
65	0x3c0dc331	0.008652494
66	0x3d1a5985	0.03768303
67	0xbd361c3e	-0.044460528
68	0x3b48b678	0.0030626338
69	0x3caab901	0.02084017
70	0x3e0ca3d8	0.13734376
71	0xbe2a5a76	-0.1663607
72	0x3e12855a	0.14308682
73	0xbdd77ac5	-0.10521463
74	0x3e1e7d3b	0.15477459
75	0x3e15f6b6	0.14644894
76	0xbdca368d	-0.09873686
77	0x3e08013e	0.13281724
78	0x3c10a6c8	0.008828826
79	0xbd050be1	-0.03248203
80	0xbe084958	-0.13309228
81	0xbd720c86	-0.059093975
82	0xbcd98fba	-0.026557792
83	0xbdc36c32	-0.09542121
84	0xbe0cdb08	-0.13755429
85	0xbd0d8691	-0.03455216
86	0x3e5dc63d	0.21657653
87	0x3e2a0303	0.16602711
88	0xbcbaaa30	-0.02278623
89	0xbe8b9272	-0.27260166
90	0xbdd46daa	-0.10372479
91	0xbe6d7716	-0.23189959
92	0x3d040ea0	0.03224051
93	0xbd4a161b	-0.049337488
94	0x3e5b8e82	0.21441081
95	0x3bab1122	0.0052205482
96	0xbd37c02b	-0.044861
97	0x3ab24b9b	0.0013602854
98	0xbe04087c	-0.12893862
99	0xba0ced47	-0.0005375933
100	0x3d0f5084	0.034988895
101	0xbe35df5a	-0.17760983
102	0x3e8761aa	0.264417
103	0xbc29ed8b	-0.010371576
104	0xbc8c971c	-0.017161898
105	0xbe15e628	-0.14638579
106	0xbd501e04	-0.050809875
107	0x3d307f69	0.043090258
108	0xbd20e22d	-0.039278198
109	0xbd8cb740	-0.0687089
110	0x3d27f84e	0.041008286
111	0x3b631fd9	0.0034656434
112	0x3b8efe37	0.004363801
113	0xbe80e6a6	-0.2517597
114	0xbd24c1a9	-0.04022375
115	0xbdecc992	-0.11561884
116	0xbd0f2b6a	-0.034953512
117	0xbdd59d63	-0.1043041
118	0x3def9bea	0.1169966
119	0xbccac013	-0.024749791
120	0xbe69a1eb	-0.22815673
121	0x3d97d184	0.07413009
122	0xbe10dc2a	-0.14146486
123	0xbe765f66	-0.24059829
124	0x3de14fe1	0.11001564
125	0x3d3f5e10	0.046720564
126	0x3e1cabd1	0.15299918
127	0xbe0357a6	-0.12826404
128	0xbddbf05b	-0.107392035
129	0x3d620976	0.055184804
130	0x3e0326c5	0.12807758
131	0x3d466eb3	0.048445415
132	0xbe290326	-0.16505107
133	0xbde40334	-0.111334234
134	0x3e18e04e	0.14929315
135	0xbd554cb4	-0.052075103
136	0x3e84878a	0.25884658
137	0xbd05df53	-0.03268368
138	0x3eab90fa	0.33509046
139	0x3c6dd8b7	0.014517001
140	0x3d4dc99b	0.050241094
141	0x3dd5a948	0.104326785
142	0xbcd8dd87	-0.02647282
143	0x3cef25d7	0.029192848
144	0xbd2da5f6	-0.0423946
145	0x3da492f5	0.08035842
146	0x3dc50701	0.096204765
147	0x3db48a0e	0.08815394
148	0x3d8bc2cd	0.06824265
149	0x3e0493f4	0.12947065
150	0xbd3efd3a	-0.046628214
151	0xba811017	-0.0009846714
152	0x3d006ad7	0.03135189
153	0xbd2019b8	-0.039087027
154	0x3e4abbb7	0.1979817
155	0xbcc1fa32	-0.023678873
156	0xbe295741	-0.16537191
157	0x3d84b560	0.06479907
158	0xbdf2806c	-0.11840901
159	0xbd7645ab	-0.060125034
160	0x3e201a6b	0.15635078
161	0x3e088a9e	0.13334128
162	0x3d414862	0.04718817
163	0x3d4aac4f	0.049480733
164	0x3e2639d5	0.16232999
165	0xbdd691b2	-0.10477008
166	0xbdb7d8b5	-0.089768805
167	0x3d3929df	0.045205947
168	0xbe543cab	-0.20726268
169	0xbcaaf203	-0.020867353
170	0x3e6bb919	0.23019828
171	0x3bc7103d	0.006074934
172	0x3d13e506	0.036107086
173	0x3ce1d1f7	0.02756594
174	0x3de2f06c	0.11081013
175	0xbc0a37da	-0.008436168
176	0x3da08f95	0.07839886
177	0x3c2084bb	0.00979727
178	0x3cb60495	0.022218982
179	0x3e133e1e	0.14379165
180	0x3db9dd9f	0.09075474
181	0x3de6fd2b	0.11278757
182	0xbe20c3eb	-0.15699737
183	0xbdc8e523	-0.09809329
184	0xbe052f6d	-0.13006373
185	0xbd3dd4c8	-0.046345502
186	0x3d61b3a5	0.055102963
187	0x3cfde7e0	0.030994356
188	0x3e3b31d1	0.18280722
189	0x3d9bfd53	0.07616677
190	0x3e3c2585	0.18373688
191	0xbc483c66	-0.012221431
192	0x3d8e4dd5	0.06948439
193	0x3ca014a7	0.019541098
194	0xbdc17ec3	-0.09448006
195	0x3d6e52f2	0.05818457
196	0x3da0bf9f	0.07849049
197	0x3da1bffb	0.078979455
198	0x3dbd87a2	0.092543855
199	0xbd61008e	-0.05493217
200	0x3dee95a6	0.11649637
201	0xbc9028f9	-0.017597662
202	0x3d801ef0	0.06255901
203	0x3e5c8b2a	0.21537462
204	0xbe467941	-0.19382192
205	0x3dce4015	0.100708164
206	0x3e4264a7	0.18983708
207	0xbcdc8a7c	-0.026921503
208	0xbd2366da	-0.03989301
209	0xbc68a001	-0.014198304
210	0x3e231a5c	0.15928024
211	0xbe07d69d	-0.13265462
212	0xbe241611	-0.16024043
213	0x3c073a9e	0.0082537215
214	0x3d0d148f	0.034443434
215	0x3d56542b	0.052326363
216	0x3e1e31f9	0.1544875
217	0xbd21f5dc	-0.03954111
218	0xbbc666f2	-0.0060547525
219	0xbdc2c709	-0.09510619
220	0x3a532ba2	0.0008055513
221	0x3df181d3	0.1179234
222	0x3d42dff3	0.047576856
223	0xbdc511d4	-0.09622541
224	0xbe733165	-0.23749311
225	0xbcacd530	-0.02109775
226	0xbd953189	-0.07284839
227	0xbe0770ee	-0.13226673
228	0xbd371a9a	-0.044703104
229	0xbdc0e7b2	-0.094191924
230	0xbd07936b	-0.033099573
231	0x3d960ed1	0.07327045
232	0xbc3fb5e2	-0.011701079
233	0xbd760c15	-0.060070116
234	0xbd246880	-0.04013872
235	0xbde3df11	-0.11126531
236	0x3dbd6b69	0.092490025
237	0xbbf252fe	-0.0073951473
238	0xbdb5ef05	-0.0888348
239	0xbd24c6e0	-0.040228724
240	0x3da364ba	0.079781964
241	0xbe818e50	-0.25303888
242	0xbd8ea4e6	-0.06965046
243	0x3d77ad5a	0.060468055
244	0x3dd981f8	0.10620493
245	0xbde3ca63	-0.111225866
246	0x3c0b4ac9	0.008501717
247	0x3dc0e36e	0.09418379
248	0xbdfe34fe	-0.12412451
249	0xbe1e5d57	-0.15465294
250	0xbce5c0b5	-0.028045991
251	0x3e195ab1	0.14976002
252	0xbc2047ab	-0.009782712
253	0x3dc12311	0.094305165
254	0x3e973874	0.29535258
255	0x3d063a40	0.032770395

a2c_network.actor_mlp.4.bias f4 [64]
0	0xbd93a4db	-0.07209178
1	0xbd9975b0	-0.0749315
2	0x3d8c03ed	0.06836686
3	0x3de260ba	0.110536054
4	0xbd783326	-0.060595654
5	0x3bee45d8	0.0072715096
6	0xbe198bc8	-0.14994729
7	0xbd920417	-0.07129686
8	0xbd5cee29	-0.053938065
9	0xbeb81a7c	-0.35957706
10	0xbd9bfe46	-0.07616858
11	0xbe04b7b4	-0.12960702
12	0xbda549a7	-0.08070689
13	0xbce4c840	-0.027927518
14	0xbe993e54	-0.29930365
15	0x3cc591d0	0.02411738
16	0xbcf94667	-0.030429078
17	0x3db565ce	0.08857308
18	0xbe49ceb6	-0.1970776
19	0xbdbb0b96	-0.09133069
20	0x3df194ab	0.11795934
21	0xbe1ab157	-0.15106712
22	0xbc4564bd	-0.012047944
23	0x3c25aa46	0.010111397
24	0xbe1790f1	-0.14801385
25	0xbe363e88	-0.17797291
26	0xbe312161	-0.1729789
27	0xbd19a914	-0.03751476
28	0xbdc1dcd4	-0.09465948
29	0x3e298525	0.16554697
30	0xbd21c30b	-0.039492648
31	0xbe820047	-0.25390837
32	0x3e366fcc	0.17816085
33	0x3e132bed	0.14372225
34	0xbeb715c5	-0.35758796
35	0xbe093809	-0.13400282
36	0xbde83f4a	-0.113401964
37	0x3d9d783c	0.076889485
38	0x3d3bdea1	0.045866612
39	0xbe4b670f	-0.19863532
40	0x3d874700	0.06605339
41	0xbe2180bc	-0.15771765
42	0x3b2355f7	0.0024923065
43	0xbe12c196	-0.1433166
44	0x3d84b33a	0.06479497
45	0xbe4c48f5	-0.19949706
46	0xbd9e220b	-0.07721337
47	0xbddaa4e4	-0.10675982
48	0xbe2ae9f6	-0.16690812
49	0x3bf15ec5	0.0073660337
50	0xbe539dd5	-0.20665677
51	0xbeae2ccb	-0.3401855
52	0xbdf8fda5	-0.12157754
53	0xbc69c3f3	-0.014267909
54	0x3c49b40a	0.012310991
55	0xbd35b243	-0.044359457
56	0xbb58b3e1	-0.00330662
57	0xbea7ac08	-0.32748437
58	0x3d1c32f5	0.038134534
59	0xbe092504	-0.13393027
60	0xbe8fd04c	-0.28088605
61	0xbe9d45cb	-0.3071731
62	0xbed8ef68	-0.42370152
63	0xbdd9dfee	-0.10638414

a2c_network.value.weight f4 [1, 64]
0	0x3c5b48ac	0.013384026
1	0x3dc2b6fd	0.095075585
2	0x3c0a22ae	0.00843112
3	0x3cdfb76e	0.027309146
4	0xbbd10d08	-0.0063797273
5	0xbc726977	-0.014795653
6	0xbe9dccaf	-0.30820224
7	0xba8ea7d7	-0.001088376
8	0x3ce02d10	0.027365237
9	0xbc25e0ca	-0.010124395
10	0x3b844963	0.0040370687
11	0x3cc1c523	0.023653572
12	0xba0de408	-0.00054127024
13	0x3c25c8ee	0.010118706
14	0xbbab451d	-0.005226745
15	0x3dabcfe5	0.08389262
16	0x3f00966a	0.50229514
17	0xbb5bd52c	-0.0033543808
18	0x3c5b7230	0.013393924
19	0xbb22aa7f	-0.0024820862
20	0x3afd885e	0.0019343009
21	0xbc67fb47	-0.01415903
22	0x3c59b7a9	0.013288417
23	0x3db79084	0.08963111
24	0xbb65d5a7	-0.0035069974
25	0x3b0185d5	0.0019763608
26	0xbd088593	-0.03333051
27	0xbe4af191	-0.19818713
28	0x3c32d953	0.010916072
29	0x3ec4d1d6	0.38441342
30	0x3b5833db	0.0032989893
31	0x3bb4e579	0.0055205193
32	0x3eb61567	0.35563204
33	0x3e1c4ca7	0.15263616
34	0x3dc8b2aa	0.097997025
35	0x3b8d5195	0.004312704
36	0xbeccbc1b	-0.39987263
37	0xbc316516	-0.010827323
38	0x3aa77d9d	0.0012778525
39	0xbc171521	-0.009221346
40	0x3cd14716	0.025546592
41	0x3c0e862d	0.008698982
42	0xbcc591c5	-0.02411736
43	0x3ad2ce8c	0.0016083284
44	0xbc4f9ba4	-0.012671385
45	0xbc52a9d6	-0.012857875
46	0xbd01e2f7	-0.03171059
47	0xbe34a591	-0.17641284
48	0xbbc28c57	-0.00593714
49	0xbbdc9844	-0.0067320187
50	0x3e0429e6	0.12906608
51	0xbb26ae7c	-0.002543359
52	0x3b161238	0.0022899043
53	0xbc67387b	-0.014112587
54	0xbc31139d	-0.010807899
55	0xb9aa038e	-0.00032427575
56	0x3b80de08	0.003932718
57	0x3d43e5ab	0.04782645
58	0xb9cb4790	-0.00038772495
59	0x3b84f6cc	0.004057741
60	0x3d655ee9	0.055998717
61	0x3df38c0b	0.118919455
62	0x3df49dbd	0.11944149
63	0xbc46e73d	-0.012140092

a2c_network.mu.weight f4 [12, 64]
0	0x3da3bdb9	0.07995171
1	0x3cc3829f	0.023865996
2	0x3d9905c1	0.074718006
3	0x3bb10717	0.0054024565
4	0xbde17bc8	-0.110099375
5	0x3e2390d8	0.15973222
6	0xbd5aa008	-0.053375274
7	0xbd98c93a	-0.07460256
8	0xbc7a98e5	-0.015295242
9	0xbbac3529	-0.0052553606
10	0x3d60fa55	0.054926235
11	0xbe24eab3	-0.16105156
12	0xbbbf17c9	-0.005831693
13	0x3cbbaf79	0.02291082
14	0x3c2f151a	0.010686183
15	0x3d597477	0.053089585
16	0x3d30486d	0.04303782
17	0xbdf39773	-0.11894121
18	0xbca34673	-0.019931054
19	0xbe05b57c	-0.13057512
20	0x3de7d796	0.11320417
21	0xbca49746	-0.020091664
22	0x3cff95c3	0.031199342
23	0xbd76262b	-0.060094994
24	0xbdbf1836	-0.0933079
25	0xbde304e7	-0.110849194
26	0x3e20a057	0.15686165
27	0xbe0b35aa	-0.1359469
28	0xbcace61b	-0.021105817
29	0xbba5c5db	-0.0050589866
30	0x3d168e05	0.036756534
31	0x3ca3cc28	0.01999481
32	0x3ca0e22d	0.019639099
33	0xbe1666eb	-0.14687698
34	0xbd310051	-0.043213192
35	0xbac274b8	-0.001483581
36	0x3d0a5b51	0.033778492
37	0xbd083e33	-0.033262443
38	0xbd519b84	-0.051173702
39	0x3c95c868	0.018284038
40	0x3d4d4b02	0.05012036
41	0x3c9b9a54	0.018994488
42	0xbdc38e59	-0.09548635
43	0x3b9e1db5	0.0048253187
44	0x3d44ad8e	0.048017077
45	0xbcaaaa62	-0.020833198
46	0x3dc6d6fc	0.09708974
47	0x3d7e011b	0.062012773
48	0x3d9cd027	0.076568894
49	0xbdf2f272	-0.11862649
50	0x3d024a45	0.03180911
51	0x3e1ef348	0.15522492
52	0x3e008e58	0.125543
53	0xbbc31f25	-0.0059546405
54	0xbe8d17d3	-0.2755724
55	0x3d5345a5	0.05158009
56	0x3cd6c3c6	0.026216399
57	0xbdd7fe76	-0.105465814
58	0x3db3073a	0.08741613
59	0x3aae2b43	0.001328804
60	0xbe00f17e	-0.12592122
61	0xbd24d86a	-0.04024545
62	0xbdfa8607	-0.12232595
63	0x3c8d21e0	0.017228067
64	0xbc3677f2	-0.011136996
65	0xbdfb220c	-0.12262353
66	0x3e14ecc7	0.14543448
67	0x3c8b4684	0.017001398
68	0xbb3ee351	-0.002912719
69	0xbdd90e12	-0.10598387
70	0xbc65c0df	-0.014023035
71	0x3da458e0	0.08024764
72	0x3cf9833c	0.030458085
73	0xbcde2834	-0.02711878
74	0xbd9746a9	-0.07386524
75	0xbd0d66bf	-0.034521814
76	0x3d17adbe	0.037030928
77	0x3d5cd0ac	0.053909943
78	0x3d83fc1d	0.06444571
79	0xbd2eb424	-0.042652264
80	0xbc9c6ff4	-0.019096352
81	0xbd8488b9	-0.0647139
82	0x3cc21237	0.023690326
83	0xbd4ab32b	-0.049487274
84	0x3dcbdb53	0.09953942
85	0x3e04eff9	0.12982167
86	0xbd1574f2	-0.03648848
87	0xbd21ccd4	-0.03950198
88	0x3d4af5ab	0.049550693
89	0x3d01b994	0.03167112
90	0xbd3b27c5	-0.045692224
91	0xbd78e8a2	-0.06076873
92	0x3cc6d273	0.024270272
93	0xbe14c96a	-0.14529958
94	0x3db377ca	0.08763082
95	0x3d4d74a0	0.05016005
96	0xbdac42e4	-0.08411196
97	0x3dd7c574	0.10535708
98	0xbdcf4588	-0.10120684
99	0x3cd1ccf7	0.02561043
100	0x3d0a29be	0.033731215
101	0xbd248000	-0.040161133
102	0xbd6f54fe	-0.058430664
103	0xbdedd241	-0.116123684
104	0xbdab8e7f	-0.08376788
105	0xbc96a114	-0.018387355
106	0x3d5d4f8a	0.054030932
107	0xbc163424	-0.009167705
108	0xbdceab85	-0.100913085
109	0x3d98120c	0.07425317
110	0xbdd77e1e	-0.10522102
111	0x3d33d4f9	0.04390428
112	0x3d4af831	0.0495531
113	0xbdf64f0f	-0.12026798
114	0xbd5fcb78	-0.054637402
115	0x3a4ddde5	0.0007853194
116	0xbdbe6459	-0.092964835
117	0x3d23e9cc	0.040017888
118	0xbdbc2f2c	-0.09188685
119	0x3dec6cea	0.11544211
120	0xbd9d65a7	-0.07685404
121	0xbab031d2	-0.0013442582
122	0x3d8010ac	0.0625318
123	0x3d59b3a1	0.053149823
124	0xbcdfe657	-0.027331514
125	0x3da04000	0.07824707
126	0xbca07838	-0.019588575
127	0x3ccde367	0.025132848
128	0x3c1040e1	0.008804531
129	0xbd31fd24	-0.043454304
130	0xbc9640f7	-0.018341525
131	0xbeb1fa3c	-0.34761226
132	0x3de39f59	0.111143775
133	0x3de4377c	0.11143395
134	0xbd1aaa2e	-0.037759952
135	0x3d79cc46	0.060985826
136	0xbdc026a6	-0.093823716
137	0x3dfec8de	0.12440656
138	0x3d740c57	0.05958208
139	0x3cbac4c9	0.022798913
140	0x3e6371ed	0.22211428
141	0x3be7e811	0.007077225
142	0x3e228a28	0.15873015
143	0xbc88d1be	-0.016701575
144	0xbcaaf557	-0.02086894
145	0x3d1822cc	0.03714256
146	0x3d7d22ee	0.06180089
147	0x3d22a161	0.039704684
148	0xbe283603	-0.16426854
149	0x3dff116f	0.12454497
150	0x3d5fee9d	0.05467092
151	0xbe39d859	-0.18148936
152	0x3c878190	0.016541272
153	0x3c6ca0a1	0.014442594
154	0xbde2ffd2	-0.1108395
155	0xbcc6ccc0	-0.024267554
156	0xbc95fbd2	-0.018308554
157	0xbdd649e9	-0.10463316
158	0x3d6df346	0.05809333
159	0xbce692b4	-0.028146125
160	0x3c76b68a	0.015058169
161	0x3dd6dbfc	0.104911774
162	0x3cc3d452	0.023904953
163	0xbd84ba6e	-0.06480871
164	0xbbc0453f	-0.00586763
165	0xbdd554c3	-0.10416558
166	0xbd9823e0	-0.074287176
167	0xbd956098	-0.072938144
168	0xbda1af3f	-0.07894754
169	0x3c1b4a67	0.009478188
170	0x3cc3f4f8	0.023920521
171	0x3c00a30f	0.007851376
172	0x3d2e68bc	0.04258035
173	0xbd850bfe	-0.06496428
174	0xbde7f18d	-0.11325369
175	0xbcb9cf6a	-0.02268191
176	0xbd86a9f4	-0.06575385
177	0x3c91946f	0.017770974
178	0x3e1fd728	0.1560942
179	0x3df7c82c	0.12098727
180	0x3e5fcb3c	0.21854872
181	0x3d8a542b	0.06754335
182	0x3d798548	0.060918123
183	0xbd82d56f	-0.063883655
184	0xbc838647	-0.01605524
185	0x3d30c88c	0.043160006
186	0x3d9356ee	0.07194315
187	0x3c092f1d	0.008373049
188	0xbbf4d3e2	-0.0074715475
189	0x3c6e0196	0.014526745
190	0x3d5c4206	0.053773902
191	0xbce7f33a	-0.028314222
192	0xbdae1749	-0.08500535
193	0x3c9b0766	0.018924426
194	0xbe0ceb90	-0.13761735
195	0x3e0df349	0.13862337
196	0x3d4952d6	0.049151264
197	0x3d09a7ad	0.033607174
198	0xbdadf92e	-0.08494793
199	0x3d0297fe	0.031883232
200	0x3d9143ae	0.07092987
201	0xbdb6a911	-0.089189656
202	0x3d9a57ec	0.07536301
203	0x3c9ba161	0.01899785
204	0xbd7f55cf	-0.062337693
205	0xbd6e8edc	-0.05824171
206	0xbc9f6252	-0.019456062
207	0xbd4134de	-0.04716956
208	0x3cc3f4a4	0.023920365
209	0x3d814a21	0.06312967
210	0xbbe5b978	-0.007010635
211	0x3aad1d29	0.0013207543
212	0x3d35d0a6	0.044388436
213	0xbdab5a75	-0.08366863
214	0xbd029cc7	-0.031887796
215	0x3caf7567	0.021418286
216	0xbe048c60	-0.12944174
217	0xbbf81c1f	-0.0075717117
218	0x3d8feb34	0.07027283
219	0x3da433aa	0.08017667
220	0x3d85667a	0.065136865
221	0xbe01680d	-0.12637348
222	0x3c2de5cf	0.010613873
223	0xbac7d694	-0.0015246444
224	0xbcc4afd7	-0.024009628
225	0x3cd50939	0.026005374
226	0xbc10e5c2	-0.008843841
227	0x3d74f900	0.059807777
228	0x3bc1d093	0.0059147566
229	0x3d193398	0.03740272
230	0xbe114b7a	-0.14188948
231	0xbc8e9fdf	-0.017410217
232	0x3cd03fb5	0.025421003
233	0xbe8546c4	-0.26030552
234	0x3d44931a	0.04799185
235	0xbd9ac668	-0.07557374
236	0x3d5920e3	0.05300988
237	0xbd26dbaa	-0.04073683
238	0x3d79d1ec	0.060991213
239	0xbb4f66e7	-0.0031647028
240	0x3c335edc	0.010947909
241	0x3d109e44	0.035307184
242	0xbcb3502b	-0.021888813
243	0xbcd50ad2	-0.026006136
244	0x3cf9b7f0	0.030483216
245	0xbde32f2b	-0.11092981
246	0xbcd67c7d	-0.026182408
247	0xbe2a07a5	-0.16604479
248	0xbcc4b194	-0.024010457
249	0xbe0bc784	-0.13650328
250	0xbcbd0e75	-0.023078183
251	0xbc09b267	-0.008404351
252	0xbdb1d29c	-0.08682749
253	0xbc3b7235	-0.011440803
254	0xbd46ef72	-0.048568197
255	0xbe69db4b	-0.2283756

a2c_network.mu.bias f4 [12]
0	0x3c76fee0	0.015075415
1	0xbd973025	-0.0738223
2	0xbd9b17fd	-0.07572935
3	0x3e1586db	0.14602225
4	0xbd397905	-0.04528143
5	0xbaa37224	-0.001246993
6	0x3e460beb	0.19340484
7	0xbdcfcd23	-0.101465486
8	0x3df7f995	0.12108151
9	0xbe2c488e	-0.16824552
10	0xbe52f7df	-0.20602368
11	0x3e6642c4	0.22486407

exp_avg f4 [12]
0	0x3ae36b8b	0.0017350776
1	0x3b0f2014	0.0021839188
2	0xb9cbfa57	-0.00038905695
3	0x3a5d9bff	0.0008453726
4	0x3b6405d7	0.003479352
5	0x3b85d35d	0.0040840344
6	0xba9e5757	-0.0012080473
7	0x3a48290a	0.000763551
8	0xbb74bca0	-0.0037343875
9	0xbae920f6	-0.0017786312
10	0x3add1a7a	0.0016868853
11	0x3ace1fdf	0.0015726051

exp_avg_sq f4 [12]
0	0x380628de	3.198615e-05
1	0x37fe1007	3.0286623e-05
2	0x37fb8ae9	2.9986217e-05
3	0x3800411e	3.0578223e-05
4	0x37facfd2	2.9899096e-05
5	0x37f536d2	2.9231804e-05
6	0x37f4a81d	2.916535e-05
7	0x37defb9e	2.658163e-05
8	0x3807bee0	3.2364274e-05
9	0x37ec4e7a	2.8169936e-05
10	0x38000a9e	3.0527466e-05
11	0x3807781e	3.2298376e-05
