OmniIsaacGymEnvs/omniisaacgymenvs/runs/Naranjelio/nn/last_Naranjelio_ep_50_rew_-0.6770797.pth (torch, 672563 bytes, 36 tensors)

value_mean_std.running_mean f8 [1]
00000000: 2b0b 1873 177a bd3f
0.1151442199698464

value_mean_std.running_var f8 [1]
00000000: da33 c53a 0a75 7e3f
0.007435836753143266

value_mean_std.count f8 []
00000000: 0000 0000 084c 0d41
240001.0

running_mean_std.running_mean f8 [48]
00000000: 7ee8 d605 8365 783f ca3c f534 f501 853f
00000010: 84a0 d307 eaca 8abf 2064 6bbc f655 a53f
00000020: f492 5612 c325 7c3f e93a 9a40 c3d4 923f
00000030: c19a a421 0452 bb3f 916f 3ead c92b e0bf
00000040: c8d3 f391 915a d9bf eb13 4b77 0e5d d03f
00000050: 4a85 39bd f850 be3f 83a3 e584 be2c 69bf
00000060: a1a3 5c9f d1f9 ecbf 3020 4d7f ad23 d13f
00000070: 6d4c 1068 37ad fcbf 239c dbf7 a7aa c23f
00000080: f7b9 7c62 da75 9abf dc8e a55a cd0a cdbf
00000090: cba2 e0ed be0a cdbf 05c6 6857 2fb0 fbbf
000000a0: 44f5 62c7 7503 c3bf 597c 0f15 7d3e 0240
000000b0: 9d93 f595 30de 0040 064d b37e 5640 0040
000000c0: 26d3 232f 1967 863f 6557 3921 1e99 593f
000000d0: ffc5 6c21 3a96 b0bf 1f8e fbbb 3e2c 863f
000000e0: 6734 8e99 bf2e 753f 2bfb 9af0 1b3d 53bf
000000f0: 9b8b a17b 3d1f 743f f541 34bc 9247 a8bf
00000100: 238b fb08 a1a1 67bf 1a3c c3e3 4ecf 85bf
00000110: 958e a374 9150 8a3f 491a e841 e061 793f
00000120: 0f28 b84c 1397 893f d7a0 0258 851e c63f
00000130: 8b63 b8ff e304 90bf d67f a31f 6c86 a0bf
00000140: b805 4705 45d3 b7bf a150 58fa 6f41 bf3f
00000150: e5ff 4b40 ab4b c23f 03b6 e999 69ef b33f
00000160: 4270 faf6 ae90 9bbf ddee e1bc 1326 bcbf
00000170: 972e f449 1ac6 c23f 61b1 75ef 44d4 a6bf
0.005956184203961821 0.010257640532158514 -0.013082340587473824 0.04167147684137995 0.00687195014817087 0.018389750307103468 0.10672021695482227 -0.5053451903981899
-0.3961528706852815 0.25567971849187526 0.11842302913421068 -0.0030730935169924214 -0.9054954636131819 0.2678025954414833 -1.7922891678797683 0.14583301165041104
-0.02584019876592866 -0.2268921558962721 -0.22689043631660008 -1.7305138983177824 -0.1485430930678523 2.2805120129919882 2.108491107518104 2.0314149759739193
0.01093883204564745 0.0015623850093979483 -0.06479228321111206 0.010826578246855565 0.005171535908528125 -0.0011742375231020379 0.004912605445585162 -0.04742106006063188
-0.0028846879211966866 -0.010649315191043885 0.01284898411945016 0.006196857457786261 0.012495184687413311 0.17280642316223435 -0.015643656237532205 -0.03227556120123125
-0.09306746844142466 0.12209224569261547 0.14293423308845302 0.0778718949092863 -0.026919111084325438 -0.10995601045027166 0.14667061434771675 -0.04458823607532981

running_mean_std.running_var f8 [48]
00000000: c23d 274d 43fb c33f e63d 1a65 aea2 c33f
00000010: ed0c 69aa d986 ca3f a193 dd69 1542 d13f
00000020: b84c d7ff 7db9 cd3f d556 d56e 5077 c23f
00000030: 5475 f3d5 e4f4 b03f c6b9 f2f1 73fe c73f
00000040: d58c cdde 6ab5 d43f 1c8f 6775 d0e9 1240
00000050: d7c8 3e2f 02ab f73f 4da1 785c fd4a 953f
00000060: 6c4b f6d3 1a61 e23f a576 bf79 244d ad3f
00000070: fee1 c9be ea31 1e40 5c1d 29f3 15ee a73f
00000080: 0236 b889 57a9 a13f fbc0 cd6e 5866 e23e
00000090: 8e2f 618f 5460 e23e 2d06 6f8c bc06 2040
000000a0: 633f e942 774e da3f 334e 3f79 1e5a 1440
000000b0: 7fba 629f 3438 e03f 65bb 76f6 75ce 1740
000000c0: 08a8 e44f f898 883f b552 cc82 8bf5 833f
000000d0: 4f00 cf1e 7f31 be3f a038 87e9 30c9 863f
000000e0: c3a6 a164 9354 863f 878d d5bf 1c6c 6b3f
000000f0: 6756 d4b3 82c8 6f3f 6116 3532 7c53 b03f
00000100: 5786 452d d98c 893f 318f 23f7 d2bb c63f
00000110: 4a8b 86be 7d87 8d3f e645 bd4f 73b5 db3f
00000120: 1f27 7599 3079 e23f 7fd3 cb12 d9da e03f
00000130: 4020 b070 1ee2 e03f 5ec9 3a11 368c e13f
00000140: 0d9a 4260 207f e03f 55a8 b7fe 4899 e03f
00000150: 4af6 7873 b0ab e03f eb3c 59da 74cf e03f
00000160: 097f fca0 7216 e13f cab1 f58a d06d e13f
00000170: e548 ae7f 1cae e03f 9fe4 509a b05b e13f
0.15610543505907343 0.1534021371521554 0.2072403032380871 0.2696584256976227 0.23222327224957495 0.1442661801508424 0.06623678420460993 0.18745278657793402
0.32357284315203333 4.728334268995038 1.479250130225912 0.020793875473971202 0.574353612888769 0.05722917543583365 7.548747044631908 0.04673832505482764
0.03449510151049752 8.773702086379157e-06 8.762498037516249e-06 8.013157261421918 0.41103917631425285 5.088006872643336 0.5068610299111497 5.951621867176844
0.012010517061373363 0.009745683602468838 0.11794275762713478 0.011125928999629331 0.010903502949264681 0.003347450400427557 0.003879790571441433 0.06377388215795456
0.012475678152159704 0.1776069361432007 0.014418585183027983 0.4329498556809014 0.5772936818332005 0.5267148367989732 0.527602405637488 0.5483656250492392
0.5155183677750884 0.5187115645360431 0.5209581618616508 0.5253242745037857 0.5339902061714109 0.5446551050240995 0.521253823639452 0.5424426092132711

running_mean_std.count f8 []
00000000: 0000 0000 104c fd40
120001.0

a2c_network.sigma f4 [12]
00000000: 111e 0cbd 6365 1bbe 3780 7fbd a1c4 5cbc
00000010: 1bb7 52bd b48e dbbc c297 2cbd 21ee d2bc
00000020: 7487 2fbc 0dda b3bd 9d6f cbbd 6159 51bd
-0.03420836 -0.15175395 -0.062378135 -0.013474614 -0.051444154 -0.026801445 -0.042136915 -0.025748314
-0.010713447 -0.08781824 -0.09933398 -0.05111063

a2c_network.actor_mlp.0.weight f4 [256, 48]
00000000: 2814 713d 5944 bcbd 37f0 23be 4638 c3bd
00000010: defc c8bd 4dcf 0b3e addd 153d 3144 9a3d
00000020: c92d 5d3d 87db 76bd 17e2 643e 7550 30be
00000030: 7d2d 97bb dcc1 ffbd 6e8c 8c3d 8e06 d3bc
00000040: 7cd1 213d c5c0 17bd 1f4b 4f3e a475 87bd
00000050: 27ee 25bd 1fe7 c7bd 06e3 dd3d f999 d83c
00000060: 0120 113e 3adb e3bd c299 50be a78b d8bd
00000070: f237 83bd f45f 06bb dc87 783d a33f e23d
00000080: 4e82 3dbd 3225 c2bd 9649 753d 82e2 55bd
00000090: 01f0 863d 2baf dcbc 0f83 8a3d fb0f 6bbd
000000a0: 6f87 50bd 105b 0d3d cb31 473d abc2 e0bc
000000b0: f69d a53d 9e8c ac3d c6a7 d8bd 7241 7ebd
000000c0: 1d7d 123e 7100 04bd 7cd5 aabc f53c 0fbe
000000d0: 0a52 91bd 3ed5 643d d043 46bd f408 a1bd
000000e0: 110b 80bc 2560 00be 55f2 8dbe c76c f5bd
000000f0: 012a f1bd 7227 dcbd 6751 fa3d 88e3 2d3c
00000100: 2aed 5f3d 7a62 25be 2c91 e3bc 562f abbc
00000110: cb61 403d 63b0 05be 0e6e debd cf11 95bd
00000120: 68f2 4d3c 47d0 8bbd b916 cebd e501 c0bd
00000130: d32f e4bd e91d ebbd 1256 7cbd 20fd 0cbe
00000140: 4ff0 fa3d a50b dabb 873e bb3d 8cce 173d
00000150: 6eb2 f8bd 7138 a33d e35b 88bd 506f 8ebc
00000160: 5a12 f3bd fc7c e0bd 78ba b43d 0492 fdbc
00000170: 147a 393d cad7 e8bd e7f4 c03d 8f9e d7bd
00000180: 2097 84ba 5af1 2dbb 55ab b93d f9c5 133e
00000190: 95d4 ff3d bcac e8bd 1079 4b3d 2116 a9bd
000001a0: 1798 92bb b144 69be fe53 653e 274e d6bd
000001b0: f6aa 7c3d d557 613d 58dc b53c 39a3 aebd
000001c0: 9302 ce3d 7251 83bc f1b8 17bc a243 0cbe
000001d0: 743a 9a3d 4230 9c3b 1421 3abd 8043 223e
000001e0: 4c1f 633d d498 83bd e2f5 18be 5798 2abd
000001f0: bbde bf3d 3f44 efbc 9d6f bbbd 39bb 7cbd
00000200: 7b39 acbd 8ee6 ba3d 7ab0 bc3d 8ad2 17be
00000210: 850b 3c3d 15b0 a73d c78a e63c e74a 83bd
00000220: 453f 993d 578f 5f3d aef9 223d 9919 5cbb
00000230: e9f9 39bd f50b d53c 8bdd c1bc 8d80 c1bc
00000240: 8ebe 8d3d 2d8d 5b3d 8c21 a9bc b012 84bd
00000250: d4a2 5fbc 2888 1bbd 6519 9e3d e4b3 423d
00000260: b9c0 cbbd 2871 2abe 4552 b13d d84f 833d
00000270: 17e2 b8bc 2955 3fbd a3b4 21bd 02b5 14be
00000280: 8867 eebc 3348 483e 5085 c63d 84ba 063d
00000290: efea 24be bdcb 02be 0884 03bd 7003 bd3d
000002a0: de8a af3c 6252 0bbd 6c40 113d 08bd f5bc
000002b0: 4478 18be 4d05 c33d 68a3 b1bd ff38 aebd
000002c0: 0f60 a1bd 42c4 cc3d 10b2 a33d 032b 163d
000002d0: ee35 16be 3778 82bd 0e1a 0fbe f9b0 d43d
000002e0: 32ff d73d 2ed8 013e ac49 a53d 5ddf 823d
000002f0: 1894 33bc 3245 c0bd b483 8ebd d4a7 12be
00000300: eb76 4cbb 1c70 17be 60d1 2b3c d0da 5abd
00000310: ac7b 1cbd a5d3 15be e385 3cbd 7699 7a3d
00000320: dd77 3cbd 5a3c b13e 927c 14be 6632 9cbd
00000330: 2140 02bd 7e78 c4bd 12e8 77bd cb1a 04be
00000340: 9946 483d 3d39 72be fef5 113d f219 a23d
00000350: 9d47 dc3d b853 f4bd 4276 d83d 2722 cdbc
00000360: 8812 8d3d 9c89 b23d dfba 0abd 0527 a3bc
00000370: 7f8e 1cbd e78e 0cbe b8ce 6e3d bf4e b9bd
00000380: 907d e13d b7aa e03d 48ef fc3d ec3f 4cbd
00000390: 0cb2 ddbd 8737 563c a9c7 a23d cf12 0dbe
000003a0: f278 643c 074e efbd d4b6 e5bc 6931 e7bc
000003b0: 8093 78bd 58be 6bbb 2322 39be f22a 053e
000003c0: 8d42 073e 635a 74bd 81d6 55bc 8d02 05bd
000003d0: c751 d6bd 91e0 54be f662 313d cb20 d2bd
000003e0: 0327 95bd 8dd4 dfbc eee5 47bc 1ad9 81bd
000003f0: edf3 bbbc f41d 4abc a22a ccbd f538 41bd
0.058857113 -0.09192724 -0.16009603 -0.09532218 -0.098138556 0.13653298 0.03658836 0.07532538
0.053998742 -0.06026795 0.22351871 -0.17218192 -0.004613577 -0.124881476 0.06862722 -0.025759961
0.03950642 -0.037049074 0.202435 -0.06614235 -0.040510323 -0.0976088 0.10834317 0.026440607
0.14172365 -0.111257985 -0.20371154 -0.105735116 -0.06407155 -0.002050397 0.06067644 0.11047294
-0.046266846 -0.09479751 0.05988463 -0.052217968 0.06588746 -0.026938995 0.06763279 -0.057388287
-0.05091041 0.034510672 0.04863147 -0.027436575 0.08086769 0.08425258 -0.10578875 -0.062074132
0.1430554 -0.032226983 -0.02085375 -0.13988097 -0.07095726 0.055867426 -0.048404515 -0.07863036
-0.015630277 -0.12536676 -0.27723947 -0.11983638 -0.1177559 -0.10749711 0.122225575 0.01061333
0.054669537 -0.16150847 -0.027779184 -0.020896595 0.046968263 -0.13055567 -0.10860835 -0.07278787
0.012570001 -0.06826835 -0.10062928 -0.09375361 -0.11141934 -0.11480314 -0.06160552 -0.13768435
0.122528665 -0.00665422 0.091427855 0.037062213 -0.12143408 0.0796975 -0.06658151 -0.017387062
-0.11868735 -0.10961339 0.088246286 -0.030953415 0.04528244 -0.113692835 0.094217114 -0.105282895
-0.001011584 -0.0026541562 0.09065882 0.1443099 0.12491719 -0.113610715 0.049676 -0.08256174
-0.004473697 -0.2278011 0.22395322 -0.10464125 0.06168648 0.055015404 0.022199795 -0.08527226
0.10059085 -0.016030047 -0.009260402 -0.13697675 0.0753068 0.004766495 -0.045441702 0.15846062
0.05544977 -0.06425634 -0.14937547 -0.04164919 0.09368654 -0.029207347 -0.09152148 -0.061701987
-0.08409401 0.09126006 0.09213348 -0.14826408 0.045909423 0.08187882 0.028142346 -0.06410771
0.07482771 0.05458006 0.039788894 -0.0033584593 -0.04540435 0.026006678 -0.02366521 -0.023620868
0.06921111 0.053601433 -0.02064588 -0.06448877 -0.013649661 -0.037971646 0.07719687 0.04753484
-0.09948868 -0.16644728 0.0865827 0.06411713 -0.022568746 -0.046712074 -0.03947891 -0.14522174
-0.029102102 0.19558792 0.09693396 0.03289272 -0.16105245 -0.12773032 -0.032108337 0.09229171
0.021428522 -0.034014113 0.035461828 -0.029997364 -0.14889628 0.095224954 -0.086737454 -0.08506965
-0.0787965 0.09998371 0.07992947 0.036662113 -0.1466901 -0.063705854 -0.13974783 0.10385317
0.105467215 0.12680122 0.080706924 0.063902594 -0.010960601 -0.09388198 -0.06958714 -0.14321834
-0.003119881 -0.1478886 0.010486931 -0.053431332 -0.03820388 -0.14631517 -0.04602612 0.061181508
-0.046012748 0.34616357 -0.14500645 -0.076268 -0.03179944 -0.095932946 -0.060524054 -0.12900846
0.048895452 -0.23654647 0.035634987 0.07915105 0.10755847 -0.119300306 0.10569431 -0.0250407
0.068883 0.08717653 -0.03386962 -0.019916067 -0.038221832 -0.13726388 0.05830261 -0.09048223
0.11010277 0.10970061 0.12350327 -0.04986565 -0.10824975 0.013074762 0.079482384 -0.13776706
0.013944851 -0.116848044 -0.02804128 -0.028221803 -0.060687542 -0.0035971608 -0.18079428 0.13004664
0.13208981 -0.059656512 -0.01305163 -0.032473136 -0.104648165 -0.2078879 0.043307267 -0.10260161
-0.072828315 -0.027323032 -0.012200816 -0.06340237 -0.022943461 -0.012336243 -0.09969069 -0.04717346

a2c_network.actor_mlp.0.bias f4 [256]
00000000: 73c9 a4bd 5984 3bbd e0e1 06bd 8da3 4abd
00000010: a342 e23c d2d7 97bd 411b 31bd a881 c2bd
00000020: 1136 313d 00b4 a13d 8b2c cf3d e04c c9bc
00000030: d2f8 04be 223c cfbd 967b d5bc dc82 f03c
00000040: e1bd 9abd 1ac0 dd3d 152a 6d3d 8db9 dbbd
00000050: b229 943d d11c 983d 7c44 e5bd c876 12bc
00000060: 70a8 a2bd de48 47bd b4fe 99bc 9d2b a1bd
00000070: f893 ab3c 5e6d 77bc 098e ae3d 465d 84bd
00000080: 1a6e e53c 6eb7 093e f83e 1bbd 5cb2 20bd
00000090: aaa7 80bb fab6 12bd 8c9d c23d 1402 85bd
000000a0: 4d89 b93d f26e 9bbc dfc0 983d 953d 05bd
000000b0: ea14 f7bc aea4 5a3d 970e a0bc e1e2 7a3c
000000c0: 980e 283d efec 99bc f5fd 04bd 5186 71bd
000000d0: d42b a8bd 4993 663d 394c 79bd e4fa 513d
000000e0: f7f0 aa3d c0c8 b93d 8d50 b0bd f909 c9bd
000000f0: 8436 b4bd 96f3 3c3c 5f7a 7fbc 8265 8bbd
00000100: 2b14 44bc 4b96 c23d ff00 923d e4ac dabd
00000110: 01f4 b2bd 3ff0 6f3c 9af8 e23c c30d 1abd
00000120: d2e9 c7bd 8b3b 643c 7cc1 563d 3e23 d13c
00000130: b18c 72bd c481 25bc 9f73 98bd aa54 983d
00000140: 60ff 6c3d 5eb9 663d 7695 7ebd ee8e 95bb
00000150: 7912 74bd fb9a 5dbd 0514 81bd 6b29 5c3d
00000160: 1237 a7bc 3174 81bd a10e 88bd b8b5 bbbd
00000170: 557c 0ebd c14c 883d 34d8 a0bd 69d0 14bd
00000180: ea0e d0bd fb95 843d 8d98 d8bd 6174 34bd
00000190: 019f 953d 955d 3fbd 14ab 993d 1a35 2dbd
000001a0: 3775 983b a18e 853d c38c a83d 5cff c33d
000001b0: 3b58 05bd 1d33 b33d 7231 25bb 2a44 353d
000001c0: 150e 31bc 92b6 59bd 19f3 b13c 9221 c9ba
000001d0: 6a6f 833d f1de 233c 78bc 213c eb0d 0bbd
000001e0: a6ee 9f3d a950 ba3d 483f 45bc b7c2 5dbd
000001f0: dbf0 a63d bcd6 f43d aa12 243d 7d04 343d
00000200: 40dc 913c 60d8 2b3d 4f9d 4a3d cd64 2cbd
00000210: 280f 83bd 6922 1b3d 22ce b3bd 969d 253c
00000220: 9cfa cabd 757b a33c 0c1a 9c3c 7d4e 453b
00000230: 3dc8 5bbc 652a d9bd cd4d 65bc cbc4 91bd
00000240: 9789 8ebd b4d7 bdbc b2b9 18be df8f 90bd
00000250: 4ed0 f4bd 35fe 9dbd 4ac5 b0bd ad73 c13c
00000260: 6ea0 013d d20c 02bd 631d a33d 4dae 98bd
00000270: 7a8b 623d b4cd 40bc a07d d5bd 2e19 283e
00000280: 470a 8dbd 082a 253c ba49 0f3e 3fb1 9fbd
00000290: ddb1 afbd becf bfbc 405b 4abd 63bd 18bd
000002a0: cf43 d23d 3d0e b73c 5a8f 4cbd e4dd 04bd
000002b0: 1532 0dbe da4b 5d3c 82b8 083d 8ad3 0bbd
000002c0: eb80 2d3d 990f ebbb 1e2a e3bd 9046 a53c
000002d0: 531f 7dbc 6382 873a 99b4 193d 6576 0dbd
000002e0: d4b6 d83c 6251 673b ea8d 25bd ed3b a7bd
000002f0: d95c 9fbd fae4 d33c f8cf b3bd 6d6c 513d
00000300: 786c 783d 416b bc3d c73f 493d e014 a13c
00000310: b98d 3cbd 520e ce3d 73a8 803d ae86 173d
00000320: 5381 033c 38c6 a43d 852a 163d 11a1 b6bb
00000330: 10c7 23bd 6484 253d 5a95 7e3c aa7f ae3c
00000340: aeb8 53bd f3bf 963d ebe9 2e3d 3f7c 173d
00000350: b4df 70bd 5825 52bd 3ac7 2e3d dfec 883d
00000360: 1bcb 99bc 4e2a d13c 9322 983d af1e c8bc
00000370: 4455 acbd 2645 bd3d 7fac 9c3c 3427 2fbd
00000380: 4123 92bd 919b 363d af7e bdbd 5b3a 32bd
00000390: 6372 443d 7cba 9bbc 9250 09bd 4d85 86bd
000003a0: b71d 003d 4cdd f3bd 0dca 88b9 cd25 29bc
000003b0: 1963 753b c0e1 763d ce8e 29bc efe0 47bb
000003c0: af65 b13d 2c9a eb3d 5e3c b8bc 1a49 fabc
000003d0: 8275 20bd 7341 a13d b62c 963d 43a1 05bd
000003e0: 892f a63c 591c 553d 8f46 1abc c07e 43bd
000003f0: 6f08 41bd ed2d 4b3d 40ff b9bd 23b8 c23d
-0.08046236 -0.045780513 -0.032930255 -0.04947238 0.027619665 -0.07414211 -0.043238882 -0.09497386
0.043264452 0.078956604 0.10115918 -0.02457279 -0.12985542 -0.10118891 -0.026059907 0.029359274
-0.07555748 0.10827656 0.05790146 -0.107287504 0.07234515 0.07427371 -0.11194703 -0.0089394525
-0.07942283 -0.048653476 -0.01879821 -0.07869647 0.02094458 -0.015101759 0.08523185 -0.06463103
0.028006602 0.13448879 -0.03790185 -0.039232597 -0.003926237 -0.03581903 0.09502706 -0.06494537
0.09059391 -0.018973801 0.07458662 -0.032529432 -0.03016134 0.053379707 -0.019538207 0.015312881
0.041029543 -0.018789737 -0.032468755 -0.058965985 -0.082114846 0.056292806 -0.060863707 0.05126466
0.08346742 0.09071493 -0.08609114 -0.09816355 -0.087994605 0.011532685 -0.01559314 -0.068064705
-0.011967699 0.09501322 0.07129096 -0.106775075 -0.08737946 0.0146446815 0.027706433 -0.03761078
-0.097613946 0.013930212 0.052430615 0.0255295 -0.059216205 -0.010101739 -0.07443928 0.074380234
0.057860732 0.056329124 -0.062154256 -0.0045641577 -0.05958793 -0.05410288 -0.063026465 0.053750437
-0.020412002 -0.0632099 -0.06643415 -0.091655195 -0.03478654 0.06655265 -0.078537375 -0.036331568
-0.10159095 0.06473919 -0.10575972 -0.0440563 0.07305718 -0.046720106 0.07503334 -0.04228697
0.004652645 0.06521345 0.08229973 0.0957019 -0.032554846 0.087499835 -0.0025206474 0.04425446
-0.01080658 -0.05315263 0.021722363 -0.0015345088 0.06417735 0.010001884 0.009871595 -0.03394882
0.078091905 0.09097416 -0.012039013 -0.054140773 0.08151408 0.1195502 0.040056862 0.043949593
0.017805219 0.0419544 0.049466427 -0.04208832 -0.06399375 0.037874613 -0.08779551 0.010108372
-0.09911081 0.01995633 0.019055389 0.0030106597 -0.01341444 -0.10603789 -0.0139956 -0.071176134
-0.06959837 -0.023174144 -0.14914587 -0.07058691 -0.119537935 -0.07714502 -0.0863138 0.023614729
0.03164714 -0.031750508 0.079645894 -0.0745512 0.055308796 -0.011767793 -0.10424352 0.16415855
-0.06886726 0.010080822 0.13992968 -0.07797479 -0.085788466 -0.023414489 -0.04940343 -0.03728999
0.1026684 0.022345657 -0.0499414 -0.032438174 -0.13788636 0.013506854 0.033379085 -0.034137286
0.042359274 -0.0071734902 -0.110920176 0.020175248 -0.015449363 0.0010338541 0.037525747 -0.034536738
0.026454367 0.003529631 -0.040418543 -0.08165727 -0.07781381 0.02586602 -0.08779901 0.051128794
0.06065032 0.092001446 0.04913309 0.019663274 -0.046033595 0.10061325 0.06282129 0.036993675
0.008026439 0.0804562 0.036661644 -0.0055734 -0.039984763 0.04040946 0.015538538 0.02130111
-0.051689796 0.0736083 0.04270355 0.036983725 -0.05880709 -0.051305145 0.042670466 0.066858046
-0.018773606 0.025532868 0.074284695 -0.024428694 -0.084147006 0.09241705 0.019125221 -0.042761996
-0.071356304 0.044581953 -0.092526786 -0.043512683 0.04796065 -0.019009821 -0.033524103 -0.06568394
0.03127834 -0.119074434 -0.0002609048 -0.010323954 0.00374431 0.060273886 -0.010348989 -0.003049906
0.08661973 0.11504015 -0.022489723 -0.030552436 -0.039174564 0.078738116 0.07332747 -0.032624494
0.020286338 0.052028988 -0.009416237 -0.0477283 -0.047127184 0.049604345 -0.09081888 0.095077775

a2c_network.actor_mlp.2.weight f4 [128, 256]
00000000: 3742 3a3c 45d0 f23b 8473 1dbd 0844 7a3d
00000010: 916c b13c 59bb c8bc 72b9 d63c 1db1 1f3d
00000020: 0e44 87bd e4db bdbd 7e1e bc3b c472 9d3c
00000030: 6111 f0bc a71b 6bbc e335 9abc 10b9 1f3d
00000040: caaf 233d 3e2b 113c 7fdd 4ebc 88a3 6ebd
00000050: 2283 82bc 37c5 25bb be1d 86bd 5bdf a83c
00000060: 66f2 e53c c1c9 dc3b f07b c8bd 293e bcbc
00000070: 1778 1a3d afd0 ffba 6cb7 26bd c74b 8b3d
00000080: 101c a83b 740f 083c 98c2 f13c b50c b6bd
00000090: 3ead a9bc cf1a a1ba 819d 773d 65e0 a23c
000000a0: 74ff 0abd 32b5 c03d a70e b83c b0a8 f6ba
000000b0: fa66 743b d440 203d 8c9e 173d 6bba 833c
000000c0: 3190 d9bc 2381 bbbd 5d71 eebc 8ace 1bbd
000000d0: 2788 b13b a238 a83b eb6c 67bd dc85 59bd
000000e0: fea2 65bc 149d 88bd 167c 3c3b eeaa 82bd
000000f0: 788a bcbc 3c48 2bbd 43dc b23a 8283 af3c
00000100: fd0b e2bb 5b19 7bbd e0fd bb3c 7e10 b73c
00000110: 2ed9 093d e781 933c e2a0 373a 4e6a b43d
00000120: 3135 d03a 9b79 1ebc a2fa 8cbc 3c0d 313d
00000130: 209c 583c 319a 2bbd a6e0 1f3d f00c c8bd
00000140: 39b4 86bc 56f7 4cbd b1fa 183d a2d9 04bd
00000150: d562 8f3d 248a c73b c818 a1bd 5572 86bc
00000160: f665 be3b 2dd3 9d3c 1d91 47bd fae7 3abd
00000170: 6396 483a 4ee5 6a3d d41f 9ebd 32a9 b53a
00000180: b342 0c3d 8dcc 11bd 6d94 87b7 fb05 15bd
00000190: eb00 d3bd b0d4 4fbd cb28 1a3c cb14 5b3c
000001a0: 48a0 febb b20c 92bc bbb9 973b 67ff 5c3d
000001b0: 341f 6a3d b7ec 1b3d 94f2 c63c 2777 0ebd
000001c0: 52a0 993c e8d9 7abd 4a89 183d 49f0 4dbd
000001d0: 7112 033d 0638 46bd f034 b23c 712a a03c
000001e0: 679c f7bc 240a c9bc 2b37 dabc 67b7 0c3c
000001f0: 616a cd3d 027e 4d3c ced1 f43c 14db e6bc
00000200: 547c 0fbb cee0 d7bc f942 a1bc 8ce5 603d
00000210: cb4f 07bb 01d6 103d 8421 58bd dd06 bfbb
00000220: 44ef a3b9 c91d 5c3d 4b8e afbd 920a 8abd
00000230: 7609 9c3b fadb ac3d a9ce 70bd 26e4 473c
00000240: 3685 273d 6e54 c4bc d576 0f3d 4566 a4bc
00000250: 2b5d 833d 7e4f 3abd f924 ea3c f17e 1dbd
00000260: d760 fa3c a82b 48bd d251 48bd 28ba eabc
00000270: ac55 debc 2fd6 2d3d 20bb 80bd 289c 9d3c
00000280: 7278 3f3d 18f0 183d 2099 193d 316b 883c
00000290: 28d3 853d f3cc 9d3c fe1c da3c baed 41bd
000002a0: e671 25bc 97d9 903c f4f2 7fbc d2ca 8b3c
000002b0: 3555 8abd bce6 6bbd 0c8c d0bc 1c89 d8bc
000002c0: ac91 02bc 3913 833c ad91 963d 8176 f6bc
000002d0: e6fd 80bc e870 963d 449a babd df31 92bd
000002e0: 0378 3d3d f294 f2bc 6b34 b03c 5e48 2cbd
000002f0: 9fa7 4f3c 3ca8 95bd f789 b73c e590 24bd
00000300: c5e2 86bc ff92 d0bd c6db 91ba 4478 b03d
00000310: 70fb 603c d728 9ebb 0b8b 96bd d8e8 363d
00000320: 525e f5bc b7d1 593c bced b6bc c9f4 50bb
00000330: adf9 243d c963 24bd e2a5 32bc 6cf8 eb3b
00000340: 4b0d 39bd 071e 693d a3b2 f23c c63f 453d
00000350: 26d5 52bc 64fa 37bd dc7f ba3c ed85 3b3d
00000360: 73be 0ebd feba 5bbd 55c9 11bd 044b 1f3d
00000370: 8f91 a9bd a7fe d4bc 048f ad3b a3d4 fb3c
00000380: 145e 5cbd 4d59 323d 673e 193d 44a3 e23c
00000390: e847 07bc 0da7 54bd 0260 a9bd b8bf 9c3b
000003a0: 8f02 6ebd 4892 55bc 8594 8abd f5f8 99bc
000003b0: 7427 dfbc 0e99 dc3c 74e1 1a3d cecf 2cbb
000003c0: c6d5 8b3d 202b 60bd 0df1 a23b 6474 51bc
000003d0: 204f 35bd 8796 7bbd 0278 89bd 95d0 c53d
000003e0: da64 9bbc 9a7b cabc 360c 80bc 9e13 6dbd
000003f0: 76a1 053d f353 73bd eebf b7bc d0b4 36bd
0.011368326 0.0074100816 -0.038440242 0.061100036 0.021658214 -0.024503397 0.026211474 0.038987268
-0.06604777 -0.092704564 0.0057409396 0.019219764 -0.029305162 -0.014349855 -0.018824523 0.03899485
0.039962567 0.008860407 -0.012626051 -0.058261424 -0.01593167 -0.002529455 -0.065486416 0.020614317
0.028069686 0.006737918 -0.09789264 -0.022978859 0.037712183 -0.0019517149 -0.04070227 0.06801563
0.0051302984 0.008304466 0.029511735 -0.088891424 -0.020712491 -0.0012291315 0.06045294 0.01988239
-0.033935025 0.0940956 0.022467924 -0.0018818583 0.0037292824 0.039124325 0.037016436 0.016080102
-0.026558014 -0.0915549 -0.02910679 -0.038038768 0.005417842 0.0051337043 -0.056500357 -0.053106174
-0.014015911 -0.06670585 0.0028760484 -0.063802585 -0.023015246 -0.041816935 0.0013645965 0.021425012
-0.006898402 -0.061303478 0.022948205 0.022346731 0.033654384 0.018006278 0.00070048694 0.088093385
0.0015884993 -0.009672548 -0.017209355 0.043225512 0.013220817 -0.041895095 0.0390326 -0.09768093
-0.016443359 -0.050040565 0.037348453 -0.032434113 0.070012726 0.0060894657 -0.07866055 -0.01641194
0.0058104945 0.019265736 -0.048722375 -0.045631386 0.0007651804 0.05734759 -0.077209145 0.0013859628
0.034243297 -0.035595465 -1.616237e-05 -0.036382657 -0.103029095 -0.050739944 0.00940914 0.013371657
-0.007770572 -0.01782832 0.004630295 0.05395451 0.057158664 0.038067546 0.024285592 -0.0347816
0.018753204 -0.061242968 0.037240304 -0.050277982 0.03200001 -0.048393272 0.021753758 0.019551488
-0.030225946 -0.024540968 -0.026637634 0.008588648 0.10030056 0.01254225 0.029885199 -0.028180636
-0.0021894174 -0.026352312 -0.019685255 0.054906413 -0.0020646926 0.03536034 -0.052766338 -0.0058296756
-0.0003126805 0.053739343 -0.08572062 -0.067402974 0.00476187 0.08440395 -0.058790836 0.012200391
0.040898524 -0.02396604 0.035025436 -0.020068297 0.06414255 -0.045485966 0.028582083 -0.03845114
0.030563755 -0.04886976 -0.048906155 -0.02865322 -0.02714046 0.04244059 -0.06285691 0.0192395
0.046745725 0.037338346 0.037499547 0.016652675 0.065344155 0.019262766 0.026625153 -0.047345854
-0.010097956 0.01768188 -0.015621889 0.017064486 -0.06754533 -0.057593092 -0.025457405 -0.026432566
-0.007969301 0.016000377 0.07352004 -0.030085804 -0.015746068 0.07345754 -0.09111455 -0.071384184
0.04625703 -0.029612038 0.02150937 -0.042061202 0.012674241 -0.07307479 0.022404654 -0.040177245
-0.016465554 -0.10184287 -0.001112812 0.08616689 0.013731822 -0.004826646 -0.07350739 0.04465565
-0.029952202 0.013294629 -0.022330157 -0.0031884185 0.040277172 -0.040134225 -0.010903807 0.007201245
-0.045178693 0.056913402 0.029626196 0.048156522 -0.012868201 -0.044916525 0.022766046 0.04578202
-0.034849595 -0.053645127 -0.035592396 0.0388899 -0.08279716 -0.026000334 0.00529659 0.030741042
-0.053800657 0.043542195 0.037413027 0.027665742 -0.00825689 -0.051917125 -0.08270265 0.004783597
-0.05810791 -0.013035364 -0.06766609 -0.01879547 -0.027240492 0.02692845 0.037812665 -0.0026368978
0.068278834 -0.054728627 0.004972583 -0.012784097 -0.044264913 -0.06142285 -0.06712343 0.096589245
-0.018968988 -0.024717141 -0.015630823 -0.057880037 0.032624684 -0.059406232 -0.022430386 -0.04460603

a2c_network.actor_mlp.2.bias f4 [128]
00000000: 3ce7 6dbd 82f1 cd3c 0049 a1bd ced1 0e3b
00000010: 96ee 5d3d 1485 60bd d927 39bd d8c4 6fbd
00000020: ad90 7dbc e35c 0c3d 3aa8 803d 8014 dfbd
00000030: 59fd 1ebb 9792 b03b ad1f d33b d2d1 973c
00000040: 1066 85bd 4d3a 64bc 3a7a c93c 50b5 853d
00000050: b867 e4bd 5e8c a73d b57a b3bc 0b53 bdbc
00000060: a696 543d f40b c9bd cbfe b2bd 30fa 8abd
00000070: 5ef3 733d d920 3cbc 1967 853d 4d5f 87bd
00000080: 79e2 82bd 95dd 353d eed6 433b 9f9a 1f3d
00000090: a473 b43d b8a5 aebc 2a0c 563b d216 c9bd
000000a0: 16d1 6a3d 90b7 02be 20ed a8bb 0510 733c
000000b0: 78cf 953b 5ca9 133c e59a f2bd 45ec 04bd
000000c0: 2404 233d 2c93 8a3d 9da0 2abd f0c2 a5bc
000000d0: 57c8 c4bd d495 0a3d 764a dc3a 8460 c93d
000000e0: c273 8c3d 0091 8ebd 3ca9 99bd 0db5 3abd
000000f0: 7df4 123d 9f3d cd3c 013c 8a3d 2d50 15bd
00000100: 443b 29bd 85a3 be3a 2598 89bd 3932 b0bc
00000110: 1fd3 0bbc 5be8 a43c f83a 903c d0cd 543d
00000120: 77b3 c7bc 1967 44bd 60bb 8d3d eb56 45bc
00000130: 9888 af3c 9c59 f03c 98db 83bd 7b26 2f3d
00000140: 29a0 ea3c 09a9 3fbd 5bcc afbc 8844 2d3c
00000150: 4ee2 833d 1635 d0bd 2b3a a2bd b399 13be
00000160: fe36 833d e71a 3ebd 298b 9d3d a7c4 9fbd
00000170: 9c1b a0bd 3a74 b9bd a0a3 dfbd 4e3b b9bd
00000180: f548 b3bd 43f2 563d ad99 efbd a92b 86bd
00000190: 6693 1e3d c128 823d 9056 93bd c0d2 81bd
000001a0: 380a d8bd 3c66 203d a4c2 31bd 99d0 803d
000001b0: 93dc 81bd e310 113d 8ef6 833d bda7 8b3b
000001c0: b6d6 1e3d 61e3 4ebd 8df9 c4bd b593 843d
000001d0: 2d34 52bd 5507 6fbc e7cc 8ebc 23be 49bc
000001e0: 8d2c fa3c c107 fabd 33b7 8dbc 7893 84bb
000001f0: 4349 473d db68 6dbd e1e1 143d 9274 2e3d
-0.05808185 0.025139574 -0.07875252 0.0021792534 0.05418261 -0.054814413 -0.045204017 -0.058537334
-0.015476388 0.03426827 0.06282087 -0.10892582 -0.0024259894 0.0053885686 0.006442985 0.018532667
-0.065136075 -0.013929916 0.024594415 0.06528723 -0.11152595 0.0818107 -0.021909097 -0.023110887
0.051901482 -0.09816733 -0.08740004 -0.06786001 0.059558265 -0.011482441 0.06513805 -0.06609974
-0.063908525 0.04440077 0.0029882747 0.038965818 0.08811119 -0.021319255 0.003266106 -0.09818806
0.057328306 -0.12765336 -0.0051552206 0.014835362 0.0045718513 0.009012546 -0.1184595 -0.032451887
0.03979887 0.06766352 -0.04165708 -0.020234555 -0.09608524 0.033834293 0.0016806859 0.09832862
0.068580166 -0.0696125 -0.07502982 -0.04558282 0.035877693 0.025053797 0.06749726 -0.036453415
-0.041316286 0.0014544582 -0.067184724 -0.021508323 -0.008534222 0.020130327 0.017606243 0.05195409
-0.024377568 -0.047949884 0.069205046 -0.012044649 0.021427438 0.029339604 -0.064383686 0.042761307
0.028640823 -0.046792064 -0.021459749 0.010575421 0.064396486 -0.10166375 -0.07921251 -0.144141
0.06406973 -0.046412375 0.07692558 -0.0780118 -0.07817766 -0.090553716 -0.10919881 -0.090445146
-0.0875415 0.052477133 -0.11699233 -0.06551296 0.03871479 0.063554294 -0.07194245 -0.063390255
-0.10548824 0.03916 -0.043398514 0.06289787 -0.06340899 0.035416495 0.06443511 0.0042619393
0.038778983 -0.050509814 -0.096179105 0.064734854 -0.05131929 -0.01458915 -0.01743169 -0.0123133985
0.030538822 -0.1220851 -0.01729927 -0.0040459 0.048653852 -0.057961326 0.036348227 0.04259164

a2c_network.actor_mlp.4.weight f4 [64, 128]
00000000: b7fc 77bd bb6a f7bb 5bb6 36bd d848 e93c
00000010: 3842 69bd df4a a13d c6b4 a23c 1e6b 6abd
00000020: fe59 9e3d f33d 2abd d556 24bd 3329 ee3d
00000030: faaa fd3a b8e4 ae3d 6bc5 343d 709b 0f3c
00000040: 0c72 d63b 7f5a 083d 50f2 a5bc 3d09 33bd
00000050: ca01 b23c 3298 663d cacf 3a3c 7916 e53c
00000060: 29ce cfbc 2dc7 1cbd c116 db3b 6964 923c
00000070: 8d69 923d 39b3 e8bc aec7 f839 6a9e a2bd
00000080: cb85 40bd 8986 b3bc a44d 6e3d 0382 a6bd
00000090: 5589 c9bc 5560 a23d 4c72 403c e67e ecbc
000000a0: 2d48 8fbd 48b3 783b b733 d63b 410a 6ebd
000000b0: c77e ee3c a17c 84bc b581 a93d 79fd bdbd
000000c0: 445f b4bc 4867 2fbd 1c86 bebc 0290 61bc
000000d0: 95d6 b5bc 81db 9e3c 1c60 23bd 8196 523d
000000e0: 94bc b83d 15bf 6f3d 69fc 973d 3286 1c3c
000000f0: cfe5 08bd ac86 d63c 5fca ccbd 6b11 5ebd
00000100: 20c5 143d 5909 28bd 9f11 edbc 3eb0 793c
00000110: d5ff 6a3d a5ff 083c a690 9ebd 9c38 33ba
00000120: f0cc 89bd 47f7 0f3d 7db7 79bd df33 973d
00000130: fe93 a43d da0a 0739 f175 06bb 9461 833c
00000140: feac 7ebc ba50 a5bd ac88 43bd efba 063d
00000150: 7bfb 3abd 88c0 dabd ee53 bfbc 5b45 efbd
00000160: 9d88 a93c 9445 13bd 581e 27bd 1eb0 7b3d
00000170: 1e79 083c 20a4 1839 bf0e 45bc 375b 3abd
00000180: 16dd ba3d 82e3 a73d c61a c5bd 7465 ce3c
00000190: 1b25 e93d 1071 803d 7cf2 243d 20ff 04bd
000001a0: 6426 553c 2048 e43d 0212 adbc 04cb a4bc
000001b0: 4a09 683d 64d2 09bc 6aac ca3d da4e 633c
000001c0: 7a89 bbbc fb88 bd3d 10f6 9abd 7936 3a3d
000001d0: 400f 1dbc 5f85 fb3c 9fe2 ce3b 02bf 6ebd
000001e0: 0966 3bbd 105e 5dbc b684 7c3b 5823 9bbd
000001f0: 7daa 643c a5f8 88bd d10a cabc de98 8cbd
00000200: fa05 a1bd c088 1b3d f278 993d dc09 5b3d
00000210: ab1a 9c3d 13bb ae3d aeea 983d d62b aabd
00000220: f731 55bd 6c33 e9bc ac43 7bbd e60c d63c
00000230: 0cac 82bd 2ffd 5abc 28ad 6bbd 56f1 5cb9
00000240: 6986 913d 7804 e23d 73b3 313d 8968 13bd
00000250: 1175 c03d 2a6a 87bd 3b5d c8bc 4743 4fbc
00000260: 57d8 1c3d af45 da3c 48d0 ef3b c1bf febc
00000270: 59ea c0bd c75b 273d fc10 11bb 690e 9a3d
00000280: 316a 07bd 92dc bfbd 912c d4bd 4010 dcbd
00000290: 1a9d 813d a0f8 c43b dbba 513d df7a 973c
000002a0: fe72 86bd 4438 713d 42f5 c0bc 0ec0 643d
000002b0: d534 363d 9da8 7cbc d1d0 803d a22d 4abd
000002c0: 8c34 adbd 2491 583c a9bf 39bd 22bf 2b3d
000002d0: dfff ec3d 6221 a93d 7694 93bd f96c d93c
000002e0: 637d b53d 8311 9e3b 7c20 583d c953 e73d
000002f0: a699 dbbd 6ee9 d33b 2626 89bd a87a 333c
00000300: 0bc5 203d 2ddb 39bd df4b abbc 3f73 a03d
00000310: 9733 dcbb 66ef 5d3d be31 f63c 8450 48bd
00000320: 0ade d5bc e27a 32bd d5ec 2abb ac06 a8bd
00000330: 60cd 733b 2744 eb3c 85b2 b53d 2a8c cd3c
00000340: ac47 af3d 0671 f23c 633d a33d 7f44 68bd
00000350: bc94 253d 5c37 893a 72c5 b33d 01d7 9dbc
00000360: d3c0 25bd e6d4 2e3c bd68 9a3d 1eb6 b33c
00000370: f49b 68b9 39d2 0c3d 6b7f 163d 9ff2 c4bd
00000380: 379d 9b3d 2231 72bd f254 8fbd 374b e9bd
00000390: 73b2 4dbc a572 9fbd bb1b d3bd 8ec8 3e3d
000003a0: 42c8 31bd 511d 83bd ad54 8cbc dd74 793c
000003b0: 2a8f 9abc b5ec 123d 964e c33b 0612 4abb
000003c0: efba 963d 1173 d63c 5f20 3bbd 9dd0 8dbd
000003d0: 0848 bd39 6b2b 61bd b2dd 4cbd ad9c 80bb
000003e0: ba45 e03c bc7e c13d 3b55 6f3b ecf8 1ebd
000003f0: c52e cbbc b847 9e3d 2559 c7bd 53e0 4abd
-0.060543742 -0.007550565 -0.0446075 0.028477117 -0.056947917 0.07875609 0.01986159 -0.05723106
0.077320084 -0.041562986 -0.040121872 0.11628952 0.0019353323 0.085397184 0.044133585 0.0087650865
0.006544357 0.03328943 -0.020257145 -0.043709982 0.021729369 0.05629749 0.01140208 0.027964817
-0.02536686 -0.038275886 0.006686062 0.017870145 0.071490385 -0.028405773 0.0004745102 -0.07940371
-0.047002595 -0.021914737 0.058179513 -0.081302665 -0.024601618 0.0792853 0.0117460005 -0.028869104
-0.06996188 0.0037948657 0.0065369266 -0.058115248 0.029113187 -0.016172709 0.08276693 -0.09276862
-0.022018082 -0.042823106 -0.023257308 -0.013767244 -0.022197047 0.019391777 -0.03988658 0.051413063
0.090203434 0.05853184 0.0742119 0.009553479 -0.033422288 0.026187263 -0.09999537 -0.05421583
0.036320806 -0.04102454 -0.028939066 0.015239773 0.057372887 0.008361732 -0.07742433 -0.00068367436
-0.06728542 0.03514793 -0.060966004 0.073829405 0.0803604 0.00012878646 -0.0020517076 0.01603774
-0.015544174 -0.08072038 -0.047737762 0.032893118 -0.045649987 -0.10681254 -0.02335545 -0.116831504
0.020695025 -0.035955027 -0.040800422 0.061447255 0.008329658 0.00014556991 -0.0120274415 -0.045497146
0.091242 0.081976905 -0.09624247 0.025194861 0.113840304 0.06271565 0.040270314 -0.03246987
0.013009641 0.11146569 -0.02112675 -0.020116337 0.056649484 -0.008411977 0.098961666 0.01387378
-0.022892702 0.092546426 -0.07566464 0.045462105 -0.009586155 0.030703245 0.0063136364 -0.058287628
-0.045751605 -0.013511196 0.003853125 -0.07575101 0.013956663 -0.0668805 -0.02466336 -0.068650946
-0.07862468 0.03797221 0.074937716 0.0534762 0.07622274 0.08531775 0.074666366 -0.08309142
-0.052049603 -0.028466903 -0.061343834 0.026129197 -0.063804716 -0.013366028 -0.05753818 -0.0002107074
0.07105715 0.110360086 0.043384027 -0.035988364 0.09397329 -0.06612046 -0.024458518 -0.0126503175
0.038292255 0.026644556 0.00731853 -0.031097295 -0.09419698 0.04085901 -0.0022135368 0.0752228
-0.033060256 -0.09368242 -0.10360063 -0.10745287 0.06328793 0.0060110837 0.05120359 0.018491207
-0.06564902 0.05889155 -0.023554448 0.05584722 0.04448398 -0.01542106 0.062898286 -0.049359925
-0.08457288 0.013218198 -0.045348797 0.041930325 0.11572241 0.082583204 -0.07206051 0.02654122
0.08861806 0.004823865 0.052765355 0.112952776 -0.107226655 0.006467036 -0.06696729 0.0109545365
0.039250415 -0.045375038 -0.020910202 0.078344814 -0.006720017 0.054183386 0.030053016 -0.04890491
-0.026106853 -0.04357422 -0.0026081104 -0.082043976 0.003720127 0.028719021 0.088719405 0.02509125
0.08558592 0.02959491 0.07970693 -0.056705948 0.040425047 0.0010468769 0.08777894 -0.01926756
-0.040467095 0.010670876 0.075395085 0.021937426 -0.00022183341 0.03438017 0.03674261 -0.09616589
0.07598346 -0.059128888 -0.06998624 -0.11391299 -0.012554753 -0.077855386 -0.103080235 0.046577983
-0.04340387 -0.06402076 -0.01713022 0.015225616 -0.018867094 0.035870273 0.005960296 -0.0030833497
0.073598735 0.026177915 -0.04568517 -0.069245555 0.00036102557 -0.054973047 -0.050016113 -0.003924927
0.027376998 0.09448001 0.0036519307 -0.03881161 -0.024802575 0.07728523 -0.097338 -0.04953034

a2c_network.actor_mlp.4.bias f4 [64]
00000000: ebf5 923c 7f18 9cbd 45e5 163d ab43 3c3d
00000010: e14d 9b3b d0dd 08bd ee20 c13d 6490 cbbd
00000020: 24f7 833d 4d13 a2bd 19a4 27bd a130 95bc
00000030: cca8 46bc 78a7 aa3c f780 c83c 9336 20bd
00000040: cfd2 b7bd 7f9b c3bd 158b 8ebd 6945 9a3d
00000050: 50d6 19bc a8ba 99bd bcbe 9fbc 9823 9bbc
00000060: 72a0 613c e5f3 9b3d db6c 32bd b7b7 c23c
00000070: fb06 a4bd 2853 e0bd f21e bebd 668a 353d
00000080: 8813 853d f22e 86bc 04ab d03d 2208 ddbc
00000090: c627 fcbb 683d 41bd 787f 953d 4f04 1c3c
000000a0: f8cb bebd 5808 863d 9fbd b2bd d440 a1bd
000000b0: 9a03 afbd 4fcc 7ebd 0f7c 843d 6b5c 343d
000000c0: a728 083d b07c 893d aaf4 7abd adc5 943c
000000d0: ccd7 543d af02 81bd c338 50bc 8270 8c3d
000000e0: efd1 11bd 1ddc a03d e139 bc3a 448e 993d
000000f0: a79d bfbd a945 a6bd da89 58bd 167e aabd
0.017939528 -0.0762186 0.036839742 0.04596297 0.0047395085 -0.033414662 0.09430109 -0.0993965
0.06443623 -0.079138376 -0.04092798 -0.018211665 -0.012125205 0.020831808 0.024475558 -0.039114546
-0.089757554 -0.09551143 -0.069601215 0.0753277 -0.009389475 -0.07506305 -0.019500129 -0.01893787
0.013771163 0.076148786 -0.043560844 0.023769243 -0.08009144 -0.10953361 -0.09283246 0.04432144
0.06497866 -0.016379807 0.10188869 -0.026981417 -0.007695171 -0.047177702 0.07299703 0.009522512
-0.09316248 0.0654456 -0.087275736 -0.07873693 -0.08545609 -0.062206563 0.06468975 0.04403345
0.033241894 0.067132354 -0.061268486 0.018160665 0.051963612 -0.0629934 -0.012708846 0.06857397
-0.0356006 0.07854483 0.0014360511 0.07497838 -0.09356242 -0.08118755 -0.05286584 -0.0832483

a2c_network.value.weight f4 [1, 64]
00000000: 19bc f13b 2724 c6bd 942a c23c efd1 163e
00000010: cbbf e3bb 337d e7bc 5115 003e f9b3 00be
00000020: a6d3 b43d 9685 10be d4f7 a6bc 7704 b1bc
00000030: f9bb 05bc cffc 9d3d cb62 f93c 0035 3dbd
00000040: b076 87bd 5292 f6bd b230 b5bd ceb6 303e
00000050: 987d b13c 5e40 acbd 8d46 dcbc 70e8 023d
00000060: 70fa bcbc be72 e03d d166 bdbc 6caa d13d
00000070: 1e42 7fbd 6b8f 17be 45ba efbd 2e40 453c
00000080: eb59 bb3d 8d92 2d3c 3734 df3d 4249 b7bd
00000090: a333 69bc f600 6abd f14a d73d 9b99 8a3d
000000a0: db96 dabd 0e98 793d e901 0bbe 7554 d1bd
000000b0: cf30 12be 7f35 05be 501a db3d b2ea df3d
000000c0: 90b9 b93d b6ec d13d 723b 84bd 564d 033d
000000d0: 904c 273d 3890 edbd b205 aabc 8cad 123e
000000e0: 6569 5bbd af64 323e 2852 17bb 0107 8a3d
000000f0: a739 02be 09a6 0dbe 0ec7 0abd c121 81bd
0.0073771593 -0.09674864 0.023701943 0.14728521 -0.0069503537 -0.028257942 0.12508132 -0.12568654
0.08829431 -0.14113459 -0.020381846 -0.021608574 -0.008162492 0.07714235 0.030442616 -0.046193123
-0.06614435 -0.12039627 -0.088471785 0.17257234 0.021666333 -0.084107146 -0.02688911 0.03195995
-0.023068637 0.10959385 -0.023120316 0.102375835 -0.062318914 -0.14800803 -0.1170545 0.012039227
0.0914801 0.010594022 0.10898631 -0.0894952 -0.014233503 -0.057129823 0.10512341 0.06767579
-0.10673305 0.060936026 -0.13574947 -0.10221187 -0.14276432 -0.13008688 0.10698378 0.109334365
0.09068596 0.10250227 -0.06456651 0.032056175 0.0408445 -0.11599773 -0.020754669 0.14324015
-0.05356731 0.1742122 -0.002308974 0.06739617 -0.12717305 -0.13832869 -0.03388124 -0.06305266

a2c_network.mu.weight f4 [12, 64]
00000000: 83ff a33b 3529 b13d e9e8 003e 90fd febb
00000010: 57a7 80bc 1618 533d 0f9f 10bd f1ac bf3d
00000020: 9a5f 2a3d 5366 07bd 860b c83d e1af d23d
00000030: 4b7f 8e3d 629b ebbc 01ca 50bd 2b29 b13d
00000040: 4768 84bd 2452 b1bc ff80 a93c f0d6 b7bb
00000050: f2db e53b f561 cdbd f26e c0bd 74b9 d6bd
00000060: 516f 2cbd ce4a abbc ced5 223d 6cb4 0cbd
00000070: 673f d63d 13e8 6a3d eeab e5bd 946e d73d
00000080: 5e7a 0abe 1a6b 303d 0f61 363d bcbd 203d
00000090: 1af7 d63b 1ba4 a23d 10fe df3d 02e9 f2bd
000000a0: 12f0 39bd 2b74 94bd 1b99 05bd 69d9 2b3d
000000b0: a199 6abd 5504 82b9 342b 6dbd 0ac2 823d
000000c0: 004a 24bd c24e 4d3d 9ee2 cf3d 5abf 7a3d
000000d0: 4600 ebbd 000b bf3d d27b 54bc e558 973d
000000e0: bf66 fcbd 9b0d bdbd 0c98 cbbd ec7b a33d
000000f0: 77a6 183d 6ec3 e2bc a2a8 9f3d 6649 74bd
00000100: d448 ad3d d0fc 03bd c1d1 2e3d f583 9f3b
00000110: 416f 733d e29a dfbd 6b7b fa3d 6a33 0e3c
00000120: cb95 3b3d 84ac ba3d c66c 4c3d f976 2cbd
00000130: ab51 173d d622 d3bd d216 2fbd 6a6e 133d
00000140: 0e74 f2bd c585 4a3d 40d4 9cbc 8985 133d
00000150: 4358 603d 7f23 ec3d e0c1 f53c cedf a53c
00000160: 1d39 073e b43b b6bc 7c60 43bc 26f0 c8bd
00000170: e67d 023d e788 08bd 42a6 cabd 79a6 8d3d
00000180: 2b4c bdbc 856a 053d 4a8d 883b ea7c 163d
00000190: 22e8 053e 8dc2 0d3b 006a c4bd bb63 89bc
000001a0: 3273 f73c 5b71 b13d 4d8a cf3d c416 8f3d
000001b0: 9a55 ccbb f04f f93d 4a0d 2fbc a256 88bc
000001c0: bfd6 05be 62f2 983d c03c 0bbe 9c24 8a3c
000001d0: 540e 763b 7ec0 b93d 1cba 79bd 2e75 9bbc
000001e0: 7458 07bd c4b6 dd3d acd9 703c 6d75 1b3e
000001f0: db5a 12bd 6573 49bb c07c b6bd 2895 ef3d
00000200: 50bc 3cbd 9304 a4bd 9eea 5f3d 633e d4bd
00000210: bd52 883c 5eeb 34bd 2b78 49bd 22d8 95bc
00000220: 425a 343d 5a9c 9cbd 935f 033e 5ec7 36bc
00000230: ba45 82bd 7418 773d 143e 863d 93f2 713d
00000240: 9fac 973d 6479 db3d 930d 033e 1e1f 203d
00000250: ad1f be3d 2c99 d73d 4307 80bd 2544 4fbc
00000260: e309 b83c f4aa 963d 9d38 bc3c cdbc d5bc
00000270: 080d c63b 96b0 c23c f744 43bd 1a65 a23d
00000280: 9878 b9bc ffde 26ba a4e9 d1bd 3750 083c
00000290: 9aa0 fe3d b68f 2ebd 56c6 87bd d515 b73d
000002a0: 725d 8b3d f03e 2c3d 1614 883d cff7 a3bd
000002b0: 8752 873d a316 b63d 8948 55bc c53b 413a
000002c0: 0863 f53d 9b4b 523c f542 30bc 00fb b03d
000002d0: b165 f03d db19 fdbd a7df 84bd 331f 433d
000002e0: 964d dc3d 34ea 9f3d 4efb 453d c73d c6bc
000002f0: 4a5b be3c 4645 c23d ac3d b83d 5e9e fdbc
00000300: 657d b7bc 7a9c 793c a201 77bd fe27 a4bd
00000310: 2d0e 96bd a6a3 7fbd 168c b3bc ac95 acbd
00000320: 3f8a 433d 2ff7 973d 8b3c e13d 6f20 d93d
00000330: 36e5 a6bd 7a99 ff3d ab8c eebc 99db 173d
00000340: 5292 87bd d86d d63d 4157 b93d a9bb 88bd
00000350: 1828 c5bd fb67 f73d f89b 2cbd e32c d63c
00000360: 2f98 6ebc 8532 bdbc ef1c d33d 8a40 91bd
00000370: e08b 8abc 2e16 08bd 8daa cb3b 7f92 b43d
00000380: 7a17 283c 892b d7bd da78 b63d 939b b8bd
00000390: d656 efbd dee0 703d e06b c6bd 9441 4d3d
000003a0: 6e8e 283d 1967 54bc 1160 eb3d f512 8dbd
000003b0: 0b95 d53d 4e36 09bd f139 8b3c 0075 a13d
000003c0: 7c4f 48bd 813b b43c 6ca4 ddbc 689d 89bd
000003d0: 1ace 083d 39e0 9ebd 5694 fcbc 5f6d a33d
000003e0: 4d4c 353a da93 a73d fb28 bcbd f351 9b3c
000003f0: 9e54 f83c 495d aabd 98aa 3c3d 3be7 b63d
0.0050048246 0.08650438 0.12588848 -0.007781692 -0.015704794 0.051536642 -0.03530794 0.09359158
0.04159508 -0.03305657 0.09767823 0.102874525 0.06957873 -0.028760616 -0.050973896 0.0865043
-0.06465202 -0.021645613 0.020691393 -0.0056103393 0.007014745 -0.100284494 -0.09396161 -0.10484591
-0.042098347 -0.020909693 0.03975468 -0.03435175 0.10461312 0.05735023 -0.112144336 0.10519138
-0.13523242 0.04307089 0.044526156 0.039243445 0.0065602185 0.07941457 0.109371305 -0.11860849
-0.045394965 -0.0724872 -0.032616716 0.041955385 -0.05727542 -0.0002479876 -0.05790253 0.06384666
-0.040109634 0.050123937 0.10150646 0.061217643 -0.114746615 0.0932827 -0.012968974 0.07390002
-0.12324285 -0.09231111 -0.0994111 0.079826206 0.03726813 -0.027681079 0.07795836 -0.05964031
0.084611565 -0.032223523 0.042680506 0.0048680254 0.059432272 -0.109182134 0.12230571 0.00867925
0.04579715 0.09114936 0.049908422 -0.04210565 0.03694312 -0.10309379 -0.042746373 0.03599397
-0.11838542 0.04944398 -0.019144177 0.03601602 0.054771673 0.11530208 0.029999673 0.02024832
0.1320538 -0.022245266 -0.011924859 -0.0981143 0.031858347 -0.033333685 -0.098949924 0.06916518
-0.023107609 0.032572288 0.0041672336 0.03674022 0.13076833 0.0021630854 -0.095905304 -0.016771188
0.030206297 0.08664199 0.10133801 0.06986764 -0.0062357904 0.1217345 -0.010684321 -0.016642872
-0.130702 0.07468106 -0.13597393 0.01686316 0.0037545161 0.09069918 -0.060968503 -0.018976774
-0.03304334 0.108258754 0.0147003345 0.15181513 -0.035731178 -0.0030738947 -0.08910513 0.11698371
-0.046078026 -0.08008685 0.054667108 -0.10363462 0.016641015 -0.044169776 -0.049186867 -0.018291537
0.04403139 -0.07647009 0.12829427 -0.011155931 -0.063609555 0.060326055 0.06554809 0.059069227
0.07405972 0.10716513 0.12798147 0.039092176 0.092833854 0.10527262 -0.06251385 -0.012650524
0.022465652 0.073568255 0.022976214 -0.026091004 0.006044034 0.023765843 -0.047673192 0.0792944
-0.022640511 -0.00063656265 -0.102496415 0.008319906 0.12432976 -0.042617522 -0.066296265 0.08939711
0.06804933 0.04205221 0.06644456 -0.0800625 0.06607538 0.08891036 -0.013017782 0.0007371272
0.11981779 0.012835409 -0.010758151 0.086416245 0.11738146 -0.12358447 -0.06487971 0.047637176
0.10756986 0.078083426 0.048335366 -0.02419938 0.02323689 0.09485869 0.08996138 -0.030959304
-0.02239866 0.015235061 -0.06030429 -0.080154404 -0.073269226 -0.062411927 -0.021917384 -0.08426985
0.047739264 0.074201934 0.10997876 0.10601889 -0.08149187 0.12480445 -0.02911981 0.03707466
-0.06619705 0.1047017 0.090498455 -0.06676418 -0.09626788 0.120803796 -0.04214093 0.02614445
-0.014562651 -0.023095379 0.10308253 -0.07092388 -0.0169124 -0.033224277 0.0062153996 0.088170044
0.0102595035 -0.105063505 0.08909769 -0.090140484 -0.116864845 0.0588082 -0.09688544 0.05011137
0.041151457 -0.0129640335 0.114929326 -0.068883814 0.10428818 -0.033499055 0.016995402 0.07883644
-0.048903927 0.02200103 -0.027055942 -0.06719476 0.03339968 -0.07757611 -0.03083245 0.07979845
0.0006915972 0.08182497 -0.09187504 0.018959975 0.030313786 -0.08318574 0.04606113 0.089308225

a2c_network.mu.bias f4 [12]
00000000: 0025 843c a2a2 0b3d f087 ff38 d52c 40bc
00000010: 2f1f 24bd 9862 e53c 59ce 363d f24b bd3c
00000020: 0804 843c 8354 68bc b4ab 213d 8778 d5bc
0.016130924 0.034090646 0.00012184668 -0.011729439 -0.0400688 0.028001115 0.044630382 0.023107503
0.016115203 -0.014180305 0.03947039 -0.026058448

exp_avg f4 [12]
00000000: e259 95bb c014 9b3c 63c4 1b3d c26c 1f3c
00000010: aa16 90bb ca1b df3a 96ca 1e3c b556 0f3c
00000020: 840d 3a3c cdff 88bb 3496 4abb 4867 44bc
-0.004557834 0.018930793 0.038029086 0.00973052 -0.004397233 0.0017021832 0.009691855 0.0087487
0.011355761 -0.0041808845 -0.0030912282 -0.011987515

exp_avg_sq f4 [12]
00000000: b371 693a 14d8 5a3a 8dcf 6e3a 954e 853a
00000010: 452b 6c3a e73a 803a c7b0 803a 0fa3 7d3a
00000020: f8ef 543a 364f 783a 916d 6f3a 9739 8a3a
0.0008905187 0.0008348238 0.0009109907 0.0010170514 0.0009009133 0.0009783179 0.0009818309 0.00096754817
0.00081229163 0.00094722526 0.0009133453 0.0010545728
