OmniIsaacGymEnvs/omniisaacgymenvs/runs/Naranjelio/nn/last_Naranjelio_ep_1050_rew_12.322314.pth (torch, 672807 bytes, 36 tensors)

value_mean_std.running_mean f8 [1]
000000 d9 24 34 87 31 b3 df 3f
       0.4953121013973721

value_mean_std.running_var f8 [1]
000000 5a b6 e0 47 6c f3 c3 3f
       0.1558661795583472

value_mean_std.count f8 []
000000 00 00 00 04 00 9c 98 41
       103219201.0

running_mean_std.running_mean f8 [48]
000000 e4 51 09 7b 94 8d a0 3f 94 eb e0 44 1b ee a2 3f
       0.03233016969594241 0.03697285857966573
000010 23 9c 00 b0 1f 57 98 3f c5 0f 0b 11 79 43 89 bf
       0.023769850842793382 -0.012335725624673341
000020 48 73 f3 e3 5a 85 7b bf a8 66 46 ff 2e c2 63 3f
       -0.006718974152332198 0.0024119298852383793
000030 90 df 1a 08 15 c7 b8 3f 40 98 86 b8 f6 70 bb bf
       0.09678775260806405 -0.10719244008086637
000040 b1 9b b6 e6 43 b1 ec bf 81 cb 4b 0e d7 fd 8c bf
       -0.8966388231391332 -0.014156036495000414
000050 88 bf 4d 6e d5 db 71 3f 92 de 88 3b 77 7c 42 3f
       0.004360040392256688 0.000564153880140377
000060 2e e3 70 2e bd dd d1 3f 6b 08 42 0a df 91 cc bf
       0.27915887389422067 -0.2232016372764208
000070 ab 4d 2f 77 7c ed db 3e a0 fb 17 1e 3a 44 7c bf
       6.658477889015712e-06 -0.006901003858273663
000080 9b d7 cc ef 5e 05 cd 3f 3d 57 42 61 ec ba ac 3f
       0.22672640522949625 0.056113612053350505
000090 21 9c dd 17 ca 51 d7 bf 6d bd 85 cb 17 32 d6 bf
       -0.3643670304358598 -0.34680743098484507
0000a0 cf cf 0f 50 5c 93 d7 3f 79 28 89 de bb 7e dd bf
       0.36836917704135613 -0.4608602212143818
0000b0 d9 1c 43 f1 c4 07 d8 bf d8 b0 28 e7 d3 84 e1 3f
       -0.3754742008281489 0.5474643244574748
0000c0 b0 45 c4 b0 3b 58 6c bf 69 15 dd bf 68 12 45 3f
       -0.0034600416021326116 0.0006430636856086638
0000d0 69 c0 93 57 7d 6f 44 3f c0 6a 44 74 09 44 0c 3f
       0.0006236421606029666 5.3912676351871355e-05
0000e0 93 eb 20 43 3b 98 82 bf 4a 57 bd cf 0d 94 7b 3f
       -0.009079421030141954 0.0067329921256112455
0000f0 4f 25 85 d5 33 08 75 3f 70 41 76 aa 39 c9 76 bf
       0.005134775616462874 -0.005562997109692311
000100 52 e2 1a d7 0c 27 7a 3f 67 ff 62 2f 37 89 72 bf
       0.0063848973820133815 -0.004525390211881453
000110 32 6b 48 68 ba 06 68 bf 16 38 94 5e 0d 75 80 3f
       -0.0029328957337048317 0.008035759400197445
000120 91 61 6f 62 1f 10 d0 3f 89 5b dd 05 71 1d b7 bf
       0.2509840451507666 -0.09029299157314886
000130 33 ee d7 b5 42 03 b0 3f d5 6a 1a 69 8c 2d db bf
       0.06254975261247679 -0.4246550585173002
000140 44 56 88 9a 5a a0 aa bf 13 6e 65 b3 2f 56 df bf
       -0.05200465332397333 -0.48963539618645874
000150 cc 1f 75 d1 b4 88 e8 3f de 77 bc 4e dd 70 c2 3f
       0.7666877833335035 0.14406935066739285
000160 6f 19 f3 63 2f 8d d9 3f 11 56 c8 34 8d e6 e2 bf
       0.39924225578979294 -0.5906435042294921
000170 59 a3 60 91 e1 17 de bf c8 7f fc d5 44 36 e4 3f
       -0.47020758816738845 0.6316246203823477

running_mean_std.running_var f8 [48]
000000 9c 1b f7 84 75 74 be 3f 3e fe fe c4 a6 a4 c7 3f
       0.11896452423307696 0.18471226328800755
000010 00 e7 ae 37 f7 38 a0 3f 32 f9 57 6d 47 42 97 3f
       0.03168461374975884 0.022713771866613892
000020 21 76 10 cc ec 3c 80 3f 89 6f ca 17 73 db 62 3f
       0.007928705194042486 0.0023019073399392393
000030 26 23 21 94 31 71 a8 3f b5 80 90 ca 51 b9 b8 3f
       0.047738599140364976 0.09657775111600382
000040 87 be 2b 7b 7c 9d 9f 3f c4 e9 65 6e d8 c4 15 40
       0.030874199884179745 5.442231869669232
000050 45 c5 bc 81 2f 39 f5 3f 84 15 12 d4 ff fd 94 3f
       1.3264613216272931 0.020500180548443506
000060 29 12 90 25 b6 a6 ad 3f a8 53 b4 00 34 ea ad 3f
       0.057912532887744846 0.05842745312307979
000070 c9 08 c3 68 ab bc 73 3e 07 23 ec 19 a5 f6 b1 3f
       7.352601922013875e-08 0.07016975291129422
000080 31 b8 dc ef b8 d8 a2 3e b2 83 6d 0d e5 ad d1 3f
       5.616716120865304e-07 0.2762386923914689
000090 a6 03 ff 0a 02 a7 dd 3f 76 4c d1 b1 09 5d d1 3f
       0.4633183581718704 0.27130358090398177
0000a0 d1 d1 06 2a 71 b8 bc 3f e8 33 2e 1f 57 0b c8 3f
       0.11218936229744904 0.18784607908710815
0000b0 9f 9d 66 26 0d 25 d3 3f 23 ef b5 a4 25 81 b5 3f
       0.2991364359863499 0.08400187751061287
0000c0 a5 58 16 65 45 bb 73 3f 87 ad 49 9d 97 62 73 3f
       0.004817267488212239 0.0047326967656816715
0000d0 55 b4 e0 e9 0c 34 3a 3f 78 97 25 15 0c e2 f1 3e
       0.00039983096383162015 1.7054554811400208e-05
0000e0 ae ee b6 e0 c6 42 50 3f 4d d9 e2 56 85 2e 6f 3f
       0.0009924833455973547 0.003806362560761978
0000f0 ac 54 2d f8 ad 8b 5f 3f a3 c4 d4 b7 7c a5 81 3f
       0.0019253920479134585 0.008616422996597988
000100 f6 7c c4 bc 0b 01 8a 3f ae e5 fe ee 28 47 6b 3f
       0.012697307298877619 0.003329830120460917
000110 b4 1d ad 14 f3 83 78 3f 55 c4 21 97 e7 1e 69 3f
       0.0059852118818705564 0.0030664942979048795
000120 ef 60 84 72 0b bc e2 3f 4f 54 83 91 b5 fd e3 3f
       0.5854546772634687 0.624720367627228
000130 de 1d ce 37 f2 ff e2 3f f4 0b 39 da 87 a7 df 3f
       0.5937434282249645 0.49460026083778463
000140 f9 88 f0 94 a0 e4 e4 3f 0b 75 07 b8 20 4a df 3f
       0.6529086026169174 0.4888994023475141
000150 a1 ed 12 2f cf 53 c6 3f f2 f9 80 d3 4e 96 dc 3f
       0.17443265722782278 0.4466740670649464
000160 e2 16 43 79 0f 94 db 3f 9f 14 23 50 6e 25 d7 3f
       0.4309118923377878 0.36165960145837944
000170 d3 be 88 b9 40 49 dc 3f 4e 8e 4f 57 5b f7 d1 3f
       0.4419709979874657 0.28072246099893483

running_mean_std.count f8 []
000000 00 00 00 08 00 9c 88 41
       51609601.0

a2c_network.sigma f4 [12]
000000 6e 31 90 bf ba fa 8d bf 17 71 40 bf ae 55 53 bf
       -1.1265085 -1.1092141 -0.7517256 -0.8255261
000010 71 71 58 bf 76 a2 78 bf 07 88 68 bf 05 a2 b6 bf
       -0.845481 -0.97122896 -0.9083256 -1.4268194
000020 a0 b8 a9 bf 0e 98 74 bf d4 3f 84 bf fe a3 75 bf
       -1.3259468 -0.9554452 -1.0331979 -0.9595336

a2c_network.actor_mlp.0.weight f4 [256, 48]
000000 68 0e fc bc 70 96 51 bd 09 e6 06 bd 2c e3 d2 bd
       -0.030768588 -0.05116886 -0.032934222 -0.10297236
000010 4c 64 6d bc 6c 3b 9c bd 9b e8 8f bb b0 2d f2 3d
       -0.014489245 -0.07628521 -0.0043917424 0.118251204
000020 d6 d4 0e be 17 a3 d0 be 5a 65 dd 3d d2 00 43 3e
       -0.13948378 -0.40749428 0.10810347 0.19043282
000030 f5 5e 7b bd f3 88 34 3d 8b e8 28 be f0 ee bc bd
       -0.061369855 0.044075917 -0.16494958 -0.09225261
000040 48 f8 25 3e b2 a9 84 3d 37 67 dd bd 61 56 2c 3e
       0.16207993 0.06477679 -0.10810702 0.16829826
000050 c3 d1 4a be 86 1d 80 bd a3 e2 1c be c9 d6 87 3d
       -0.1980658 -0.06255631 -0.1532083 0.06632764
000060 61 b8 5d 3d d6 cb b2 3d bf 03 34 bd d0 9c c2 3c
       0.054130916 0.08730285 -0.043948885 0.023756415
000070 af 1f 71 3d 49 18 bb bd 4b 9c 5f 3d 6b 02 c1 bd
       0.058868106 -0.091354914 0.054592412 -0.09424289
000080 02 77 84 bd 86 4e 97 bc 3c 69 89 bb 33 95 27 3d
       -0.064680114 -0.01847006 -0.004193453 0.04091377
000090 f1 4f 70 3d f6 bf a1 bc 05 0c 9f ba c1 41 1a bd
       0.058669988 -0.019744854 -0.0012134319 -0.037660364
0000a0 55 cb 23 3d 86 cd 8b 3d b2 7d 14 bb 7a 45 d0 3c
       0.039988834 0.0682631 -0.0022657928 0.025423754
0000b0 cf 7a e2 3d 26 2b 33 bd b9 79 5c bd 3d 20 a6 bd
       0.1105858 -0.04374232 -0.05382702 -0.08111618
0000c0 0c ca d6 bd 35 26 30 3d fe 18 30 3d 08 ca 15 bd
       -0.10487756 0.043005187 0.042992584 -0.036569625
0000d0 f3 fa 39 bd 1e 9a ce bc e2 38 b0 bd 3e 03 46 be
       -0.04540534 -0.025219973 -0.086045995 -0.19337174
0000e0 5d 63 df 3e be ec 01 bf 1e 8c 53 3e a6 00 c3 3e
       0.43630496 -0.50751865 0.20658919 0.38086432
0000f0 bf 26 82 3d 70 9e 8e 3c 21 34 16 bd b9 a4 94 3c
       0.063550465 0.017409533 -0.036670808 0.018144952
000100 5b 9f 07 3d 97 9a 04 3e 2c 86 56 3d a2 64 1b 3e
       0.033110958 0.12949596 0.05237405 0.15175107
000110 d1 ee 60 3e 72 1d 1c be bf 19 fc 3d a9 b7 bf 3d
       0.21966101 -0.15245607 0.12309598 0.09361202
000120 66 d2 20 bd ec e5 72 3c 48 fa cf 3c fb 63 9d bc
       -0.03926315 0.014825325 0.025387898 -0.019212713
000130 e8 e1 d3 bd d4 ce 6d bd d9 ea 02 bd 24 f5 1b 3e
       -0.103458226 -0.058058575 -0.03196225 0.15230232
000140 55 80 d9 bd 18 a3 b9 bd 64 86 7b 3d 81 6c 6b 3b
       -0.106201805 -0.09064311 0.06140746 0.0035922828
000150 68 3e 53 3d 1f 58 ac bd a4 0f f2 3b 46 21 33 bd
       0.051573187 -0.08415245 0.0073871184 -0.043732904
000160 8b 73 6e 3b 44 f8 ca bd 5f ee 39 3a 63 a4 6b bc
       0.0036384787 -0.09910634 0.000709271 -0.014382455
000170 03 06 ef 3d 20 97 9f 39 4f 71 58 bd 02 74 99 3d
       0.116710685 0.0003043944 -0.052842434 0.0749283
000180 3a a0 dc bd 4c ca fd 3d 8a d3 eb bd ae 58 07 be
       -0.10772748 0.12392101 -0.11514957 -0.13217422
000190 f0 18 62 3d 2d d5 07 be 98 72 a2 bd 21 0d a2 be
       0.055199564 -0.13264914 -0.07932013 -0.31650642
0001a0 1b 89 82 bc b7 04 34 be d7 08 0f be 12 86 4e be
       -0.015934518 -0.17579924 -0.13968216 -0.20168331
0001b0 e5 2c 0e 3e d0 21 b8 3c 6a 00 a0 3d a7 21 c9 3d
       0.13884313 0.02247706 0.07812579 0.09820872
0001c0 95 0d 47 3c dc 35 97 bd fb b8 ff bd 9b 91 3a be
       0.012149234 -0.0738332 -0.12486454 -0.18219607
0001d0 73 3b 75 3d 14 23 12 3c b3 9e d4 3d 46 1e 37 be
       0.05987115 0.008919496 0.10381832 -0.17882642
0001e0 90 8a e5 bc 55 a6 2e 3d dc c3 f7 bb 82 2d 88 bc
       -0.028020173 0.042639095 -0.00756119 -0.016623262
0001f0 6b 9f 3f 3d d3 08 e2 bd c4 f2 b1 bd 43 f7 a3 3d
       0.046782892 -0.11036839 -0.08688882 0.08006146
000200 72 0b 0a 3d 48 0f 33 3d ae 70 8e 3c 15 a1 c9 3c
       0.03370232 0.043715745 0.017387714 0.024612943
000210 d8 78 e9 3a 64 61 93 bd cf c3 06 bd d3 d7 24 3e
       0.0017812504 -0.0719631 -0.03290158 0.16097955
000220 37 21 0f bd 18 65 e6 3d 9b 27 a6 3d 56 06 78 3d
       -0.034943786 0.11249751 0.08113023 0.060552917
000230 c8 0f 85 bd cd 17 91 3c 7b fe 68 bd c7 d9 85 bd
       -0.06497151 0.017711544 -0.056883316 -0.06535678
000240 c7 98 3d bd 3e 85 f4 3d f7 95 cb 3d 86 5e ee bc
       -0.046288278 0.119394764 0.09940713 -0.029097807
000250 a2 eb 5d 3d 01 a9 32 3d 20 7e 20 bd 28 68 54 bd
       0.054179795 0.043618206 -0.039182782 -0.051857144
000260 b0 03 93 3e 13 71 7c be da bc 85 bd 81 61 10 3f
       0.2871375 -0.2465251 -0.06530161 0.5639878
000270 ee 6a e0 3c 72 91 31 be 8b d3 97 3c 35 69 41 bc
       0.027394738 -0.17340639 0.018533489 -0.0118048685
000280 9b e5 03 3e e1 2f 8a be 91 a6 0f 3d df 7b a1 3d
       0.12880556 -0.26989654 0.03507096 0.07884955
000290 91 a1 97 bc 17 e3 d7 3d e9 86 8b bc 09 30 73 bd
       -0.018509658 0.10541361 -0.017032104 -0.05937198
0002a0 aa 5b 8e 3d a2 1d 7c bd 8d 9d 00 bb 7b bc 9b 3c
       0.06951077 -0.061551698 -0.0019625158 0.019010773
0002b0 94 b8 42 bc 09 14 c6 3d c7 e9 be bd fe 90 26 bd
       -0.011884827 0.0967179 -0.09321933 -0.04066562
0002c0 c9 26 94 bd 12 68 31 3c 8c f6 7c 3d 59 ed ad 3c
       -0.0723396 0.010828035 0.061758563 0.02123134
0002d0 d5 67 26 3c 51 56 5e 3b df d0 ab 3d 99 c2 1e bd
       0.010156591 0.003392596 0.083894484 -0.0387598
0002e0 b5 1a 05 bd 44 8d 8f bb 0b 23 87 3c 47 ae de 3d
       -0.032496173 -0.004380854 0.016496202 0.108730845
0002f0 d5 49 1b bd a5 55 f7 3c 9e 66 7b 3d c5 87 8f 3d
       -0.03791221 0.030192206 0.06137716 0.07008318
000300 d0 b4 9a bd a6 fb 0e 3e 5e 7b cf bd 88 5d 9f 3d
       -0.075540185 0.13963184 -0.10130952 0.077815115
000310 80 8a 7a bd a6 5a 4b 3d ce 5d 21 3d b9 68 36 bd
       -0.06116724 0.049646996 0.0393961 -0.044533465
000320 79 d1 25 be d4 4d 72 be 7f 4b 65 3e aa 09 1c be
       -0.16193189 -0.23662502 0.2239208 -0.15238062
000330 0f ef 55 3c db 6f 27 3e 59 30 22 3e cf 81 0f 3e
       0.013057484 0.16351263 0.15838756 0.14014362
000340 c2 a0 e1 3c 20 21 7e 3d 0b 04 7b 3d 2a 87 ae bd
       0.027542476 0.06204331 0.061283153 -0.08521874
000350 7e f0 06 3d 62 2e 9b 3b 8e 25 0f 3e d2 cd f4 3c
       0.032944195 0.004735754 0.1397917 0.029883299
000360 2b cf fc 3c a5 31 10 3d c1 cd a6 3d aa 18 71 3d
       0.030860504 0.035203595 0.08144713 0.058861412
000370 8e 25 e0 3d f8 31 07 bd 27 c6 2e bd 23 aa 70 bd
       0.10944663 -0.03300664 -0.04266944 -0.058756005
000380 1d b1 92 bc 1f 72 39 3c e1 1c 1c bc 08 1c 7e 3d
       -0.01790672 0.0113187125 -0.00952837 0.06203845
000390 2b a7 bb 3d 59 38 9f bc 70 63 9d 3d eb ab 84 bd
       0.09162744 -0.019436048 0.07684982 -0.06478103
0003a0 f5 ff a0 3c 2b 46 f8 3c 98 a9 ad 3d 12 e4 be 3c
       0.0196533 0.030306896 0.08479613 0.023302112
0003b0 aa 4b de 3d a6 c6 ee bd 84 d4 87 3b db e8 94 bb
       0.108542755 -0.11658983 0.004145207 -0.00454436
0003c0 8c 3c 7b bd a4 73 bd 3d 67 15 09 3e b8 21 6f 3d
       -0.06133704 0.09250572 0.1338707 0.058381766
0003d0 a0 f7 2e bd 64 d3 8b 3d 38 0b 39 bd 86 16 9a 3d
       -0.042716622 0.06827429 -0.045176715 0.07523827
0003e0 8c 1b fe bd 9e d2 85 bd ce 58 0d be c5 40 c3 be
       -0.12407598 -0.06534313 -0.13803408 -0.38135353
0003f0 c3 41 9d bb 3d f3 0f bd 87 72 77 bd a9 2b bf bc
       -0.004799099 -0.03514408 -0.060411956 -0.023336248

a2c_network.actor_mlp.0.bias f4 [256]
000000 a3 35 1c be ad 00 c6 bd 3f 8a aa 3d 84 11 12 3d
       -0.15254836 -0.09668098 0.083271496 0.035661235
000010 ae 3e 41 3e bc d5 3b bd 05 65 29 be 49 ee 78 bd
       0.18871567 -0.04585813 -0.16542442 -0.06077412
000020 8c f4 1d be f0 c9 27 3e f7 b8 5f bd a7 f7 7c bc
       -0.15425318 0.16385627 -0.054619756 -0.015439904
000030 5a fb 4b 3d ab 71 5b be 56 10 49 3e 05 88 ed 3d
       0.049800254 -0.2143008 0.19635138 0.11598209
000040 ac f3 90 3e 78 be 33 be 20 7f 32 3e 65 25 17 be
       0.28310907 -0.17553127 0.17431307 -0.14760359
000050 69 2a 74 bd f9 9f 55 3d c2 87 21 3e ba 6c 2f be
       -0.059610758 0.052154515 0.15774444 -0.1713132
000060 8e 42 21 3e e9 83 76 be 93 0d 21 be 21 c1 61 3a
       0.15748045 -0.24073757 -0.15727834 0.00086118473
000070 ec a8 d1 3c 87 e8 f0 3d 44 6d 3b 3e 5f 21 21 bc
       0.025593244 0.11763101 0.183034 -0.009834616
000080 32 46 02 be b6 1e a6 3d 65 bc 82 bd 0b af 93 bd
       -0.1272209 0.081113264 -0.0638359 -0.07211121
000090 31 21 82 3e 79 34 f7 bd 1d d0 a7 3d 82 ad 84 3e
       0.25415948 -0.12070555 0.08193991 0.25913626
0000a0 3d 0b 0d 3e b6 3e 5d 3e 08 43 8a 3e 8d 60 e9 3d
       0.13773818 0.21605954 0.27004266 0.11395369
0000b0 ec 1d 01 be 28 21 5b 3e 5e 23 02 be 6d b6 6b 3e
       -0.1260907 0.21399367 -0.12708804 0.23018809
0000c0 2c ed 59 3e 54 77 ef bd 7c d1 49 3e c7 7d f9 bd
       0.2128188 -0.11692682 0.19708818 -0.12182193
0000d0 28 a2 22 bc cc ef bc bd aa b8 65 3e 50 82 5d be
       -0.009926356 -0.09225425 0.22433725 -0.21631742
0000e0 85 75 96 3e 04 7a 44 be 8b e1 3f 3e d2 0b 41 be
       0.29386535 -0.1918717 0.18738382 -0.18852165
0000f0 b8 f8 44 3d 04 7d cb bc 9e 57 48 3e d6 46 bc bd
       0.04808876 -0.024839886 0.19564673 -0.091931984
000100 c7 62 0e 3d 93 5e af bc d2 1c 4c be 3f 58 05 bd
       0.03476217 -0.021407401 -0.19932869 -0.03255486
000110 c7 3b 01 3e 75 92 b3 bd 0a 6d 69 3e 27 78 44 3c
       0.1262046 -0.08768169 0.22795501 0.011991537
000120 bf 98 92 3c 50 76 87 3d 1f 42 77 3d f7 74 c5 3d
       0.0178951 0.06614363 0.060365792 0.0964145
000130 91 35 85 3e 46 ad 14 3e 83 b0 4c 3e 1d 5e 45 bd
       0.2601743 0.14519224 0.19989209 -0.048185457
000140 ad 11 ae 3d 31 ba 54 be 8e f4 16 3d 8f 62 52 3e
       0.08499465 -0.20774151 0.03685432 0.2054541
000150 52 be 87 3e 89 9c e5 bd 7e ca e8 3d 24 3c 5b 3e
       0.2651239 -0.11211497 0.11366747 0.2140966
000160 de 6a 1c 3e 1d 58 75 bd f1 90 05 be e3 c0 5d 3e
       0.15275142 -0.059898484 -0.13043572 0.21655612
000170 1d ee 10 3e 6c 0d b1 bd 0a 37 4b 3e f9 3e 17 3e
       0.14153333 -0.08645138 0.19845214 0.14770116
000180 0d 2f 27 bd 9c 9a 87 3e 94 2e ff 3d 19 6d 6c 3d
       -0.040816355 0.26485145 0.12460056 0.05772123
000190 20 c9 4d bc 1d 4f f6 3d 33 72 91 3e 63 00 06 3c
       -0.012560159 0.120268084 0.2840744 0.008178803
0001a0 dc 20 82 3e dc c1 2a 3e 93 4e 5b 3e 35 1b 3e 3e
       0.25415695 0.16675514 0.21416692 0.18565066
0001b0 24 c1 af 3d 94 a8 de 3b 58 58 5c be 78 f7 88 3e
       0.085817605 0.0067949984 -0.21518075 0.26751304
0001c0 4a 48 67 be 7f 7d 64 3e 89 c0 92 3e d5 bc 47 3e
       -0.2258617 0.22313498 0.28662518 0.19505627
0001d0 4e 7e 20 bd 7f 1b 00 be 7a 2b 3b 3e be dd 1b 3e
       -0.039182954 -0.12510489 0.18278304 0.15221307
0001e0 20 91 37 be 86 82 55 3e 5f 36 a8 bd 28 10 4c 3e
       -0.17926455 0.20850572 -0.082134955 0.19928038
0001f0 a4 c2 59 3e 2d fe 2a 3c b2 b4 a2 3b 05 cd 5a 3d
       0.21265656 0.010436577 0.004965388 0.053418178
000200 5c e8 9e bd ef 7d 87 3e 7f a4 21 3c a4 c0 03 be
       -0.07759163 0.26463267 0.009865879 -0.12866455
000210 93 12 3d 3d 10 4c 4e bd 54 d5 80 3e 38 4c 2c 3e
       0.046160292 -0.050365508 0.25162756 0.1682595
000220 9b d8 8e 3d 13 8c fd bd 87 5b 36 3e 0b 15 98 3d
       0.06974908 -0.12380233 0.17808352 0.07425889
000230 3a 3f 17 bc 4e e1 5e 3e 50 8a 2f 3e d3 38 98 3d
       -0.009231383 0.21765634 0.17142606 0.07432713
000240 6e ca bf bd fd 7c 28 3e 7a 74 b3 3d 48 bd 28 3e
       -0.09364782 0.16453929 0.087624505 0.16478455
000250 f7 cb fd bd 2c 2c 30 3d 2d b7 ef bc 93 a8 81 3e
       -0.12392419 0.043010876 -0.02926215 0.25323924
000260 47 bc 8b 3e 8d 79 3b 3e 13 c2 28 bd d8 71 40 be
       0.27292082 0.18308087 -0.04120071 -0.18793428
000270 66 54 38 be b8 b5 77 3e 4a a4 0a be 56 98 39 bd
       -0.18000945 0.24190414 -0.13539234 -0.045311294
000280 40 23 3b bd 03 81 50 3c c2 81 9d bd c0 9d 48 be
       -0.045687914 0.012726071 -0.07690765 -0.19591427
000290 e5 47 bb 3a 09 d7 3a 3e 89 4b 34 be 19 e4 8f bc
       0.0014288394 0.18246092 -0.1760694 -0.01756482
0002a0 00 34 cb bd 65 ac 0e 3e da ef e4 bc d7 00 95 3d
       -0.099220276 0.13932951 -0.027946401 0.07275551
0002b0 79 74 3b 3e db 9c 30 3c bb eb 1e be 98 9e 59 3e
       0.1830615 0.010779585 -0.15519612 0.21251905
0002c0 ce df 67 3e 64 96 a9 3e 9e 51 6c 3e 75 bc 7b 3d
       0.22643968 0.3312255 0.2307801 0.061459024
0002d0 0b a2 37 3c 3f 2d a0 3e 0d 1d bb bd aa f6 51 3e
       0.011208068 0.3128452 -0.091364 0.20504251
0002e0 2a 22 78 3e 6e 28 1b be 9d e8 20 3e f2 6a 72 bd
       0.24231783 -0.15152141 0.15713735 -0.059184022
0002f0 80 de 60 be 3e 4a cb 3d 9e a8 00 be 8a 3e e9 3d
       -0.21959877 0.0992627 -0.12564322 0.113888815
000300 37 a1 cd bd 22 60 19 3d d1 4a 06 3e 5e fc 80 bd
       -0.10040515 0.037445195 0.13114478 -0.06298135
000310 21 c5 e4 3c 05 75 13 3e 5e d3 5b 3e 4c c0 ce bd
       0.02792603 0.14400108 0.21467349 -0.100952715
000320 18 5c 11 bd f3 42 36 be 93 94 7b 3e f0 60 96 bd
       -0.035488218 -0.17798977 0.24568395 -0.07342708
000330 50 fc b4 3e 32 04 ac bd f3 65 34 be cb 10 ec 3d
       0.3534875 -0.08399238 -0.17617016 0.115266405
000340 39 70 ab bc a2 ff 2d 3e c9 99 4d 3d 90 d2 7f 3e
       -0.020927535 0.16992047 0.05019549 0.24982667
000350 f4 26 5b 3e a3 8f fe 3d 16 06 03 3e 50 69 03 3e
       0.21401578 0.1242974 0.1279529 0.12833142
000360 0f 37 01 3c db f0 07 3e 1c cf 36 3e 9c d0 89 3d
       0.007886662 0.13275473 0.17852443 0.06729242
000370 58 16 04 3e 53 48 22 be 1d 85 7e 3e ed 0d 0a be
       0.12899148 -0.15847902 0.24855466 -0.13481875
000380 3d 65 f5 bd 6e 86 9e 3e c4 4a 8d 3e e4 44 2b be
       -0.119822 0.30961937 0.27596104 -0.16725498
000390 40 93 bb 3b 1c 44 4c 3e dc 99 d0 3d e5 55 1a bd
       0.0057243407 0.19947857 0.10185596 -0.03767957
0003a0 ee 2e 87 3e ae b9 85 3e b7 cb 5d 3e e0 59 d0 bb
       0.26402992 0.26118225 0.21659742 -0.00635837
0003b0 67 40 24 bd 19 18 09 3e 60 e3 06 3e b0 04 a7 3d
       -0.04010048 0.13388099 0.13172674 0.08155191
0003c0 ed a7 84 3d fe a6 5b 3e a1 70 4d 3e be 67 8f 3e
       0.06477342 0.21450421 0.20062496 0.28008837
0003d0 d5 ec f0 bd b5 85 47 3e f1 6a e5 bd c4 00 9f 3d
       -0.11763922 0.19484599 -0.11202038 0.07763818
0003e0 d7 e5 af 3d 57 92 c2 bd 0d 1d 99 bb b4 4b 0d be
       0.0858876 -0.09500568 -0.0046726526 -0.1379841
0003f0 8d 6b 10 3e aa 30 0f 3c 19 15 27 3d d1 0e 17 3e
       0.14103527 0.00873963 0.040791605 0.14751746

a2c_network.actor_mlp.2.weight f4 [128, 256]
000000 22 21 d5 3d 4f ba fb 3c 46 b1 a6 bd 39 74 04 bd
       0.1040671 0.030728487 -0.08139281 -0.0323374
000010 bc d1 93 bd 20 31 b4 3c 7e e9 32 be 0f 15 18 bd
       -0.07217738 0.02199608 -0.17471883 -0.037129458
000020 7f 7e 62 bd 64 e1 d6 3d 74 7f 3e 3b 06 3b 7a bd
       -0.055296417 0.104922086 0.0029067667 -0.061091445
000030 83 75 07 3e 5e 30 0b be e2 f6 f1 3c 85 93 9f 3c
       0.13228421 -0.1359267 0.029536668 0.019479522
000040 0b 68 f0 bc f8 9d a8 3d 0b 29 1e 3d 58 d4 03 bc
       -0.029346487 0.08233255 0.03861336 -0.008046232
000050 cc aa 1a 3d 72 7b 58 bd e3 47 f4 3d e9 f4 6a 3e
       0.03776054 -0.0528521 0.11927774 0.22944988
000060 18 0a 2d 3d 4d 6f c3 3c e9 d7 9b 3d 4c e0 95 bd
       0.042245954 0.023856783 0.07609541 -0.07318172
000070 2f 11 5e bd 52 2f d4 3c 96 c5 b6 3d 69 b6 20 3d
       -0.054215606 0.02590147 0.08924405 0.03923646
000080 a0 f0 fa 3d 29 6a 5c 3d 14 f5 d3 bc c1 28 ea bd
       0.12252927 0.05381218 -0.025873698 -0.114335544
000090 83 fe e0 bd 4e 26 20 bd b7 14 85 3d 52 28 0e 3c
       -0.10986044 -0.03909903 0.06498092 0.008676605
0000a0 ee 3f cb 3d 66 00 01 be c2 4d 83 bd 39 5d c4 3d
       0.09924303 -0.12597808 -0.064113155 0.09588093
0000b0 31 eb 97 bc 6e b6 1b bc ff 80 f6 bd 54 19 ae 3c
       -0.018544765 -0.009503944 -0.12036323 0.021252312
0000c0 1f 1e 6f 3d 3b 40 69 bb 95 bd c5 bd 19 c2 6f 3d
       0.058378335 -0.0035591263 -0.096553005 0.058534715
0000d0 00 e3 cc bd 20 43 a8 3b 37 89 c5 bd 09 d5 90 3c
       -0.10004234 0.005134955 -0.09645312 0.017679708
0000e0 86 e0 2b be 56 5a d1 3d 3d 8f ff 3c db f8 7a 3e
       -0.16784868 0.10222308 0.031196231 0.24508993
0000f0 3b 26 4a 3c a7 73 3f 3e 4a 83 95 bc 55 52 43 3e
       0.012338216 0.18696462 -0.01825108 0.19074376
000100 c3 ef c6 3a 70 45 17 bd dc 10 1c 3c 76 36 a4 bc
       0.0015177656 -0.036931455 0.009525504 -0.0200455
000110 f0 7f e6 bc 76 b4 0e be e7 16 9a bd 93 73 f7 3c
       -0.028137177 -0.13936028 -0.075238995 0.030206477
000120 60 98 3a bd 0b cb 94 3d 81 32 d5 3c 4a ec 76 bd
       -0.045555472 0.0726529 0.026025059 -0.060283937
000130 af fc c6 bc ed 35 1f be 41 02 de bd a4 af 8f bd
       -0.02429041 -0.15547915 -0.10840274 -0.07015923
000140 90 bb ef bc b9 56 9c 3d 43 b5 b9 3a 97 04 fe bd
       -0.029264241 0.076337285 0.00141684 -0.12403219
000150 22 6d 18 be fc cf 9f 3c 8c bd f0 bd 66 02 85 3b
       -0.14885381 0.019508354 -0.11754903 0.004059124
000160 2f 22 30 bb 0d 39 3e 3a ac 46 bc 3d a2 26 d4 bb
       -0.0026875844 0.0007256426 0.09193167 -0.006474332
000170 3c 41 e7 bd c5 78 20 bd ca 27 db 3d 48 1a 09 3d
       -0.11291739 -0.039177675 0.107009485 0.03347233
000180 e0 da 59 bc 16 2c 69 bd 65 19 92 bd 50 73 46 3e
       -0.013296813 -0.05692681 -0.0713375 0.19379926
000190 3e 27 f3 3b 77 c8 9b bd 67 7b 0a be 84 3a 12 3e
       0.0074204495 -0.07606595 -0.13523637 0.14280134
0001a0 02 68 9d bd 0b 7e ad 3d 4a 98 27 bd 5e c0 71 bd
       -0.076858535 0.084713064 -0.04091672 -0.059021346
0001b0 1f 14 13 3d ad a8 4d be 1c 9f 43 3d bb e4 ed 3b
       0.03590786 -0.20083876 0.04775916 0.007259933
0001c0 af e1 0b 3e c3 db 92 bd b4 f0 45 be 04 41 3f bd
       0.1366031 -0.071708225 -0.19330102 -0.046692863
0001d0 f2 bc de bd 84 34 ae bd 34 2e 53 3d f3 ad 2a bd
       -0.10875882 -0.0850611 0.051557735 -0.041669797
0001e0 93 d9 05 3d d7 47 3f bd d1 d6 b6 bc 0b 54 23 be
       0.032678198 -0.04669937 -0.02231923 -0.15950029
0001f0 7d 1c 13 bc 59 fc 07 3e 49 bf 03 bd 23 f6 16 3e
       -0.00897896 0.13279857 -0.032164846 0.14742331
000200 da fb 00 bc da c4 9a bd 52 50 80 be ba 54 06 3e
       -0.007872546 -0.07557078 -0.2506128 0.13118258
000210 e1 ad 41 bd e1 52 13 be c3 7e c8 3d ab 78 08 bc
       -0.047284964 -0.14387085 0.09789803 -0.008329551
000220 19 34 e5 bd 23 0a f0 bd 58 bd b7 bd 0a 6e c7 bd
       -0.111915775 -0.117206834 -0.08971661 -0.09737785
000230 a5 82 1b be 6a e5 b7 bd 12 cc 7d bc f7 8f f0 3d
       -0.15186556 -0.08979304 -0.015490549 0.11746209
000240 90 d9 ef bc 60 ab a7 bd ee d1 4a bd 62 0a 8b 3d
       -0.029278547 -0.08186984 -0.04951661 0.0678909
000250 7b 9f b9 bd 57 ea 4d bd 4b b1 67 3d da e3 88 bd
       -0.090636216 -0.050272312 0.056565564 -0.06684084
000260 85 b2 8d bd 31 66 33 bc 04 06 77 bd 62 24 c0 bc
       -0.069188155 -0.010949657 -0.06030847 -0.023454849
000270 2d df 9f 3d d5 67 d4 3c 46 b5 33 3e ed 87 15 3d
       0.07806239 0.025928417 0.17549619 0.036506582
000280 15 69 ca 3d 68 13 0f be 2c 5d c0 bd 37 6c d9 bb
       0.09883324 -0.13972247 -0.09392771 -0.0066352147
000290 8d 5f e0 ba 11 3a 02 be 66 b5 6d 3d b5 29 48 3d
       -0.001711832 -0.12717463 0.058034323 0.0488679
0002a0 20 7d b1 bd d8 65 d2 3d 26 24 f4 bd d4 cd c7 3d
       -0.08666444 0.102733314 -0.11920957 0.097560555
0002b0 ea f7 73 3c ea c9 2b be 0e b6 98 bd 77 c8 c7 3d
       0.01489065 -0.16776243 -0.07456599 0.097550325
0002c0 01 70 3f 3d 84 f2 dc bd f3 b1 89 3d e0 e8 f5 bd
       0.046737675 -0.10788444 0.06723394 -0.12007308
0002d0 85 8a e3 3c 53 10 5b 3d df 8a 20 be 6d 5a 46 bd
       0.027776012 0.053482365 -0.15677975 -0.04842608
0002e0 8e 62 7a 3d a7 28 3e 3d 63 66 97 3d 97 3f 30 3d
       0.061129145 0.046425488 0.073925756 0.043029394
0002f0 3b ef d1 3d 73 9e d1 bd 98 a1 b5 bd 68 80 0b 3e
       0.10250708 -0.102353 -0.08868712 0.13623202
000300 60 25 7f bd 85 03 91 3c 88 ce 0a be cf a6 35 bd
       -0.062291503 0.017701874 -0.13555348 -0.044348534
000310 bf ef 45 3d d6 25 eb bd 7d a0 24 be f8 62 f8 3c
       0.048324343 -0.11481826 -0.16076846 0.03032063
000320 bc c9 ec 3d 91 bb 94 bc 50 13 3e be a4 ec 2a be
       0.11561915 -0.018155845 -0.18562055 -0.16691834
000330 d6 e5 8c bd a2 67 29 3d 66 94 29 be e7 80 d9 3d
       -0.06879775 0.041358598 -0.16560516 0.10620289
000340 e9 fb 93 3d e4 0a 05 3d fb 3e 61 bd 03 30 54 3d
       0.072257824 0.03248109 -0.054991703 0.0518036
000350 d2 e5 c0 bd 0c 0d a4 bd df 73 49 3d 10 29 9d bc
       -0.09418835 -0.08010301 0.04918277 -0.01918462
000360 49 af 69 3d a7 bf c2 3d b7 80 95 bd e2 f1 7d bd
       0.05705193 0.09509211 -0.07299941 -0.061998256
000370 4d 5e 1a bd 3d aa d3 3d 70 11 60 bc b3 6f 6c bd
       -0.03768759 0.10335205 -0.013676032 -0.057723712
000380 fa 8b 70 3c 9c 4d 04 be be b9 1f 3c f5 eb 9c bd
       0.0146818105 -0.1292023 0.009748874 -0.07662193
000390 55 f7 c1 3d 5e 8d 0d be 93 81 c1 3b 51 6c 9c 3c
       0.09471003 -0.13823459 0.005905339 0.019094618
0003a0 0b bf 5e bc 8e 36 f5 3d 0b 29 3b 3d 07 90 0a 3e
       -0.013595353 0.11973296 0.04569344 0.13531505
0003b0 71 9b 5f bd 4b ec 22 3d 3b 79 2b 3e 15 69 09 be
       -0.0545916 0.039776128 0.16745465 -0.13418992
0003c0 f2 ac 13 3d 56 97 4a 3d 46 9e 90 bd 21 0c 73 bd
       0.036053605 0.04946073 -0.07061438 -0.05933774
0003d0 f5 6e 66 bd 15 75 c1 bc 5b 8c 45 3e 2a ef a3 3b
       -0.05625816 -0.0236154 0.19291823 0.005002876
0003e0 6e 1e 8c 3d b6 fe 83 bc 4f 7f 9f b9 d3 33 ab 3c
       0.068417415 -0.016112667 -0.00030421696 0.020898735
0003f0 97 4b 22 3d 2e 59 cc 3c 11 80 b0 3c 44 2e 5f 3e
       0.03962287 0.024944868 0.021545442 0.21794993

a2c_network.actor_mlp.2.bias f4 [128]
000000 86 11 14 be e0 c5 76 bd 83 1e a7 bd 28 b2 b1 bd
       -0.1445981 -0.060247302 -0.081601165 -0.08676559
000010 17 a5 aa bb 1f bb c4 bd f7 35 6f be 66 3c 2f be
       -0.0052076685 -0.09606003 -0.2336043 -0.17112884
000020 3e 8e 80 be c0 d5 81 be 99 2a 01 bd b5 7c e0 bd
       -0.25108522 -0.2535839 -0.031534765 -0.10961286
000030 3b 83 67 be db e7 98 3d 8c 08 f2 bc 32 03 48 3d
       -0.22608654 0.07466098 -0.029545091 0.048831172
000040 fc d9 95 bb 72 71 68 be 51 f5 fa bd 69 9f e7 3d
       -0.004573105 -0.22699526 -0.12253822 0.11309702
000050 48 d2 64 bd 43 b6 47 be 42 31 1b bd f3 25 34 be
       -0.055864602 -0.19503121 -0.037888773 -0.17592601
000060 17 ac 2d 3d 0d 4a 23 be 1a d2 4e bd 5c 71 8d 3d
       0.042400446 -0.15946217 -0.050493337 0.06906387
000070 30 ee 06 bd 95 21 80 bd 65 93 8a 3d c2 1b 2b 3e
       -0.032941997 -0.06256405 0.067663945 0.16709808
000080 6b 0d 80 be 83 c4 f7 bd d3 1f 1b 3e cc 1c 3d 3d
       -0.25010237 -0.120980285 0.15148859 0.04617004
000090 36 16 2e be ba bb a9 bd 8f 18 ab 3d fc b6 b6 3d
       -0.1700066 -0.08287759 0.083542936 0.0892162
0000a0 80 51 f5 3c d8 7c 3f 3d 08 ae 84 be 88 56 61 be
       0.029946089 0.04674992 -0.25914025 -0.22005665
0000b0 2c a3 28 be 1a 85 c7 bc 32 dd 82 bd bc 13 22 be
       -0.16468495 -0.02435546 -0.06389846 -0.1582784
0000c0 b2 15 f5 bd de 2d a9 bc a3 72 84 bd 4b 5a 91 bd
       -0.11967029 -0.020651754 -0.06467178 -0.070973
0000d0 a6 c5 24 be 02 a4 8b be ed da 59 3d 3e 4c 37 3d
       -0.16091022 -0.27273566 0.0531873 0.044750445
0000e0 69 e7 50 3d d1 fc 19 3b 06 f0 a2 bd 51 eb 2d 3d
       0.05100194 0.0023496638 -0.07955937 0.042460743
0000f0 d7 bb 15 3d 61 75 2f bd 5a 63 4b bd 48 12 d5 bd
       0.03655609 -0.04283655 -0.049655296 -0.104038775
000100 42 9e 5f 3d 30 68 78 3d 6c d3 8e bd 45 9a 46 be
       0.054594286 0.060646236 -0.06973919 -0.19394787
000110 80 98 24 bd 0c 15 87 3d 62 56 68 bd 08 7b ee bb
       -0.040184498 0.06595811 -0.056723006 -0.00727785
000120 01 b0 06 be 4d d3 3e bb f5 93 f0 bd 21 ea b0 3d
       -0.13153078 -0.0029117644 -0.117469706 0.086384065
000130 be 77 4b bc d2 c5 59 bd 50 7d 5a be f6 ba 48 3c
       -0.0124186855 -0.05316717 -0.21336865 0.012251606
000140 1f 75 36 be d8 72 58 be 98 c6 7c be 59 3d 8e bc
       -0.17818116 -0.2113756 -0.24685133 -0.017363237
000150 c2 f4 1f bc db 0a 44 3c bf 87 94 bd dc 50 29 be
       -0.009762945 0.011965479 -0.07252454 -0.16534752
000160 9b 13 89 bd bf f4 c6 bd 91 21 9d 3d 51 ae a1 bd
       -0.066931926 -0.0971465 0.07672418 -0.07894576
000170 62 75 27 bd 05 78 fa bd 8c af 13 bd f8 b8 3f 3d
       -0.04088343 -0.12229923 -0.036056086 0.04680726
000180 fe 99 22 3d 88 9a e3 bc 4c ed b3 3d 5e 1e 74 be
       0.03969764 -0.027783647 0.08785495 -0.23839709
000190 72 60 28 be d8 b0 b6 bd 06 8c 11 be 71 57 fe bd
       -0.16443041 -0.08920449 -0.14213571 -0.12419022
0001a0 80 a8 46 bd bf 64 87 3d ba d6 26 be d1 ef e6 3d
       -0.048500538 0.06611013 -0.16292849 0.1127621
0001b0 ca 24 34 bd e1 f5 3f bd 75 10 4b be 04 d6 82 bd
       -0.043980397 -0.046865348 -0.19830497 -0.063884765
0001c0 87 45 43 bd d6 9d 05 bc 6a 31 f8 3d a5 bb 76 be
       -0.04767373 -0.008155307 0.121188 -0.24095018
0001d0 ea 08 32 be f3 64 31 3d 3b 81 41 bd 4e 83 1a 3e
       -0.17386213 0.043309163 -0.047242384 0.15089151
0001e0 ec 8d 07 be 03 65 e5 bb c7 4c 2c be c7 58 a4 3c
       -0.13237733 -0.007000567 -0.16826163 0.020061864
0001f0 40 60 99 bd dd 18 29 be be 44 94 bd d9 63 2f be
       -0.07489061 -0.16513391 -0.07239674 -0.17127933

a2c_network.actor_mlp.4.weight f4 [64, 128]
000000 3a 3b 66 3d 47 83 02 bc 86 0b 8f 3d 20 f5 c5 bc
       0.056208827 -0.007965869 0.0698462 -0.024164736
000010 db b9 80 3d e6 de 2b bd ae 3f 49 3c 08 e6 aa bc
       0.06285449 -0.04196062 0.012283249 -0.02086164
000020 32 08 2a 3e ad db f0 3d 43 00 0f be d4 16 90 bc
       0.16604689 0.1176065 -0.13964944 -0.01758901
000030 3b d8 c9 3d 1f 42 65 3d 89 50 0d bd 81 c1 12 3d
       0.09855696 0.05597126 -0.034500632 0.03582907
000040 3c f7 f6 bd 1f 36 da 3c d9 3f bc bc 2d c4 21 be
       -0.12058875 0.026637135 -0.022979664 -0.15797491
000050 f1 df 6a 3c ee a1 26 3e 7a 48 13 3d a3 06 1a bd
       0.014335618 0.16272709 0.03595779 -0.037603986
000060 f9 8b 97 bd e4 6b 8f bd a9 4d 8f 3d 87 77 c7 bd
       -0.073997445 -0.070030004 0.069972344 -0.09739595
000070 21 ff ce bc 41 ac 86 bd c1 36 3b be c5 bd c5 3c
       -0.02526814 -0.065758236 -0.18282606 0.02413834
000080 5f 08 ec bc df 3a eb bd 4e 85 d9 bd 0f 50 79 3b
       -0.028812585 -0.11485838 -0.10621129 0.0038042103
000090 7f d4 2b 3d 37 94 da bd 1e 20 c1 bc e0 dc 03 be
       0.0419507 -0.10672801 -0.023574885 -0.12877226
0000a0 12 be 08 be d5 b5 97 3d b1 04 f7 3d e0 a4 14 bd
       -0.13353756 0.074077286 0.12061442 -0.03629005
0000b0 4f 60 cd bd 9e 77 2d 3c d1 ec aa 3d 61 72 4e bd
       -0.10028135 0.010587601 0.083459504 -0.05040205
0000c0 49 38 0d bd 24 8b 4d be 24 86 9b 3d 05 20 06 bd
       -0.034477506 -0.20072609 0.07593945 -0.03274538
0000d0 4e 8a 6e 3c 99 3d 19 3e 37 98 21 bd b4 07 a3 bd
       0.014559342 0.14964904 -0.039451804 -0.07960454
0000e0 7d 27 7d 3d 2e 4f 22 be 99 cc 0b 3c ac 11 b9 3d
       0.061805237 -0.15850517 0.008532667 0.09036574
0000f0 07 22 b3 bd 8a d6 c6 bc 17 1e ba 3d ec c2 58 3d
       -0.087467246 -0.024272222 0.090877704 0.052920267
000100 91 ca 5f bd 5a 2a 0f be 89 94 45 bd 16 9e 6f 3d
       -0.05463654 -0.13981 -0.048237357 0.058500372
000110 d3 0e d7 bd c2 42 1c be f1 3d 1d bd ab 82 09 bc
       -0.10500874 -0.15259841 -0.03838915 -0.00839297
000120 8f 61 0a bd 5a 3b 8a 3c d6 00 73 3d d7 7d 50 bd
       -0.033784445 0.016874004 0.05932697 -0.05090126
000130 6e 60 9c bc 0d 69 79 bc f4 36 08 bd 95 d8 f1 39
       -0.01908895 -0.0152228 -0.033255532 0.00046128468
000140 0b 59 13 be 5c 0e 26 bd d3 b6 14 be cb c9 3b bd
       -0.14389436 -0.040541038 -0.14522867 -0.04584674
000150 17 85 2c bd 95 39 d8 bc c4 cd 06 3d 1f 71 10 3e
       -0.042119112 -0.026394645 0.032911077 0.14105652
000160 fc 04 23 3c 59 3a af bd a0 a9 1e 3c 91 45 9a bd
       0.009949919 -0.08556051 0.009683996 -0.075328
000170 d4 2d 00 3e 39 c5 0b 3d 6f 4b bf 3d f0 13 83 bd
       0.12517482 0.034123633 0.0934056 -0.06400287
000180 3e 75 1d be 5c 71 b7 bd 37 1d 0f 3d 7c a6 27 bd
       -0.15376756 -0.089571685 0.03493997 -0.040930256
000190 69 f0 0e 3d 0f 59 b7 bd b7 14 78 3d 4d d8 55 be
       0.03489724 -0.089525335 0.06056663 -0.20883293
0001a0 b4 6d 93 3d 41 3c 06 bd 3d 7b b8 3d af 6c ba ba
       0.071986586 -0.032772306 0.09007881 -0.0014223064
0001b0 7d e4 74 bb f2 6d 82 3d ce 57 6c bd af b2 36 bd
       -0.0037367635 0.06368627 -0.057700925 -0.044604
0001c0 9a a8 53 bb d3 1d 08 3c bb 41 11 bd 33 f4 42 bd
       -0.003229654 0.008307892 -0.035463076 -0.047596168
0001d0 bf dc 04 3c 23 7a e0 bd 4e 93 05 bd 0b 45 5b 3d
       0.008109271 -0.10960796 -0.032611184 0.05353264
0001e0 dd d5 04 bd f0 1c 51 3d 3c 3f 71 3c c7 16 20 3d
       -0.03243052 0.051052988 0.014724549 0.039084222
0001f0 89 2a fd bd b0 e2 04 3e 20 0b 2a bd 2d 3c e9 bd
       -0.123616286 0.129771 -0.041514516 -0.11388431
000200 f9 45 4d bd 9b 4c 86 bb 0d 1c 8e 3d 6e 38 05 bc
       -0.05011556 -0.0040984876 0.06938944 -0.00813113
000210 72 52 30 3e 00 7e 9a bd d8 2f 30 bd 9a 4d d3 3d
       0.1721895 -0.07543564 -0.043014377 0.10317536
000220 c4 5a 9f ba 0d 3c d9 bd 78 fa 22 3e a4 af 74 bd
       -0.0012157788 -0.10607157 0.15915859 -0.059737816
000230 13 f8 23 3d c3 34 e5 3c c5 fa b9 bd bd 2f ef bd
       0.040031504 0.02797926 -0.090810336 -0.11679027
000240 f0 dc b4 3c 46 e7 59 3d 75 de 51 3d 0b e9 69 3d
       0.022078007 0.053199075 0.051237542 0.057107013
000250 68 53 b9 3d 8a b5 fb bc 0f bb ae bd 32 b0 ee 3d
       0.090491116 -0.030726213 -0.08531772 0.116547
000260 0f 22 05 3e 1b 94 c0 bd 97 5a 4b bd 21 39 ed bd
       0.13001274 -0.09403249 -0.04964694 -0.11583162
000270 83 78 70 3d a9 80 0e 3e 29 90 54 bd 4f 7c c6 3c
       0.05870868 0.13916267 -0.051895294 0.024229197
000280 ea 48 e2 3d 15 ba 19 3d e5 ba 5f 3c d2 2d 05 be
       0.110490635 0.037530977 0.013655399 -0.1300576
000290 85 0e 75 3d 89 36 59 be f7 bc 28 3c 35 49 12 bd
       0.0598283 -0.2121221 0.010298959 -0.035714347
0002a0 98 b2 cf bc ee 6f 82 bd e8 18 16 3d e2 a4 4b bc
       -0.025353715 -0.06369005 0.036644846 -0.012429448
0002b0 8b 7d 58 3d 42 62 c2 bd 65 e4 43 bd cf f5 33 bd
       0.052854102 -0.094913974 -0.047825236 -0.043935593
0002c0 74 64 19 3d c4 16 0d 3d 3e 5a 34 bd a2 35 35 3d
       0.037449315 0.03444554 -0.044031374 0.0442406
0002d0 ee 2b 05 3e 2a 65 83 3d a9 a6 20 be 89 46 14 bd
       0.13005039 0.0641578 -0.15688576 -0.03620008
0002e0 84 8e 29 bd 50 f7 b7 3d 58 74 36 3d 53 e8 e0 bd
       -0.04139568 0.08982718 0.044544548 -0.10981812
0002f0 88 91 1b 3e ea 5f b2 bd f4 8f c0 3d 31 73 e1 3d
       0.15192235 -0.087097004 0.09402457 0.11008299
000300 9c 9b cd 3d 24 3f 38 3e e4 09 e8 bd 61 cc f8 3c
       0.10039446 0.17992836 -0.113300115 0.030370893
000310 77 6a d6 bc 50 dc e9 3d 38 c3 b6 bd a6 c8 97 bd
       -0.026173813 0.114189744 -0.08923954 -0.074113175
000320 92 dd 94 3d ba f9 85 3d 73 b9 4e bd 86 fa 1a 3c
       0.07268824 0.06541772 -0.050469827 0.0094591435
000330 61 bd 15 be fb 9e 93 3a be d4 7f bc 4c 24 df bb
       -0.14623024 0.001126259 -0.0156146865 -0.006809747
000340 d6 cd 32 bd 7c 86 1c bd 39 b3 8e 3d ad 18 d8 bd
       -0.04365333 -0.03821419 0.06967778 -0.105515815
000350 62 1f 6b bd 3e 86 ce bc af ad 9e bd 2d 30 cd bd
       -0.057402976 -0.025210496 -0.07747971 -0.100189544
000360 6d 98 9b bd e7 30 e6 bc 17 b3 f1 bc 69 52 d3 3d
       -0.07597432 -0.02809949 -0.029504342 0.10318453
000370 a5 38 f7 3c 10 08 26 bc 0b eb da 3d 52 20 0e be
       0.030178377 -0.010133758 0.10689362 -0.13879517
000380 fb 92 96 be cb 72 03 3d 0a 6f ca 3d cf 1f 1a 3e
       -0.29409012 0.032091897 0.0988446 0.15051197
000390 a7 8d 9b bc 6f 4a 5a 3d 66 27 b1 bd 4c cd 08 be
       -0.018988444 0.05329364 -0.08650093 -0.13359565
0003a0 83 da 85 3d 7b 9c a9 bd ad 5f 95 bd d5 1c 16 be
       0.065358184 -0.082817994 -0.07293639 -0.14659436
0003b0 61 e6 3e 3e e3 dd 08 3e f9 b3 53 bd fb 2d 43 3c
       0.1864257 0.13365893 -0.051685307 0.011912818
0003c0 9e 2e 0b be 9c aa a3 bd ca a0 80 3c 06 86 7a 3d
       -0.13592002 -0.079915255 0.01570167 0.06116297
0003d0 6a 43 76 3d 3c b0 fc bc 1c c3 ba bc d8 d0 07 3d
       0.060122885 -0.030845754 -0.022798114 0.033158153
0003e0 02 29 23 be 3e 95 16 be 39 92 61 bd 88 6b 34 be
       -0.15933612 -0.14705369 -0.05507109 -0.17619145
0003f0 1e 4a 85 3c 3f 22 66 bb 8d cb 38 3e 21 d0 82 bd
       0.016270693 -0.0035115627 0.18046398 -0.06387354

a2c_network.actor_mlp.4.bias f4 [64]
000000 cf 77 78 bd 3d 73 96 bb 2b 23 82 3c 0f 7e 99 3d
       -0.060661133 -0.004591374 0.01588591 0.07494747
000010 de cd b6 bd 33 e5 e9 bb 14 3a f6 3c 46 b9 6f bd
       -0.08925985 -0.0071379184 0.03005699 -0.0585263
000020 e9 dc 8f bd bd a2 ef bd 8c 85 70 3d 1d 1d 9a bd
       -0.07024557 -0.11700962 0.05872111 -0.07525084
000030 01 ab a8 bb 9f 4a 66 3d ab a4 f1 bc fd c4 8c 3d
       -0.0051473384 0.056223508 -0.029497465 0.0687351
000040 52 d6 34 bd a3 78 16 bd 7a 0b f4 bd a7 0e 9e bd
       -0.044149704 -0.036736142 -0.119162515 -0.077176385
000050 4c bc 91 3d 05 91 68 bd 57 b7 67 3d 3a 0a ff 3c
       0.07115993 -0.056778926 0.05657133 0.031132806
000060 51 0f 33 bd dd 4e ee bd 4e c5 31 bd 57 86 f5 bd
       -0.04371578 -0.11636136 -0.043401055 -0.11988514
000070 ed 92 8e bd b9 8c c6 3c e3 79 85 3d 9f e3 1b be
       -0.069616176 0.024237024 0.06517389 -0.1522355
000080 5e 93 93 3d 9a 53 bc 3d 84 b0 47 be ae 98 de bd
       0.072058424 0.09195633 -0.19500929 -0.10868965
000090 d0 2c 93 bd d2 a2 c1 3d 19 22 73 3d 72 e1 13 be
       -0.07186282 0.09454884 0.05935869 -0.1444147
0000a0 74 27 cc 3d 99 d1 b3 bd cb 42 4c bd 31 36 14 be
       0.099684626 -0.08780212 -0.049868386 -0.14473797
0000b0 aa 0c 79 3d d2 6c ad bd 23 c0 ce bc 7b 70 80 bd
       0.060803093 -0.084680215 -0.025238102 -0.06271454
0000c0 65 df 95 bc f4 8e 44 3b 00 e1 92 bb c3 8f 9b bd
       -0.018295 0.0029992433 -0.0044823885 -0.0759578
0000d0 d4 c1 31 bd 3f 32 e8 3d 18 a2 db 3c 9d 1d f5 bc
       -0.04339774 0.11337709 0.02681069 -0.029921347
0000e0 bb 19 30 bd 29 f6 13 be ca b5 48 3b 46 0a 14 be
       -0.04299329 -0.14449371 0.0030625933 -0.14457044
0000f0 bb 16 e1 bd 43 48 8d bd 70 05 a7 bd ca 93 0d bd
       -0.109906636 -0.068985485 -0.08155334 -0.03456477

a2c_network.value.weight f4 [1, 64]
000000 ad 35 07 bd 97 d8 ba bb 00 bc 5d 3c 9e ad e2 3d
       -0.033010174 -0.005702089 0.013533592 0.11068271
000010 c7 da 8b bd 22 50 28 3c f2 4d 68 39 6d c3 48 ba
       -0.06828838 0.010273011 0.00022154281 -0.0007658515
000020 92 5f a4 bc 92 16 2e bd e7 ae a1 3e 36 51 f5 bc
       -0.020065103 -0.042501993 0.31578752 -0.029945951
000030 0e 3f 57 3d 6e fe b0 3c 19 98 c7 3c 61 8d 3d 3e
       0.052550368 0.021605697 0.024364518 0.18510963
000040 e7 7e 51 3c 23 3c 10 bc b3 df f2 bd d5 38 c8 bc
       0.0127866035 -0.0088034 -0.118590735 -0.024441162
000050 09 ee 0e bc 4f e7 b5 bc 63 65 b0 bb c6 db 73 3b
       -0.008723744 -0.022205023 -0.00538318 0.0037209853
000060 0e e5 10 ba d1 e8 42 3d a0 42 95 3c 39 55 83 bd
       -0.0005527296 0.047585312 0.018220246 -0.06412739
000070 ed 99 24 bc e8 18 87 3c 15 f1 6f 3e 8e db be bd
       -0.010046464 0.016491368 0.23431809 -0.093192205
000080 a5 71 d8 3d 1d 4b 6b 3e 14 8c 70 bd 43 af a0 bd
       0.10568551 0.22977872 -0.05872734 -0.078459285
000090 b7 c4 8a bd 5c 1c c7 3d 97 23 d8 3b 68 c4 03 ba
       -0.06775802 0.09722206 0.0065960395 -0.000502652
0000a0 b3 fa 50 3e ad 23 d0 ba c5 04 4b bd aa 8d 01 3d
       0.20408134 -0.0015879773 -0.049565095 0.031629242
0000b0 f2 93 ac 3d 97 51 16 bd 94 3a 0b 3b dd 7b 94 bc
       0.08426656 -0.036698904 0.0021244632 -0.018125469
0000c0 c0 d2 27 bd cb 32 b8 bb c4 5e 99 3c bf f2 13 3b
       -0.04097247 -0.0056212894 0.018721946 0.0022575108
0000d0 e4 7e d9 bc 1d a6 2c 3e 0e 2c ab 3d 72 76 8e 3c
       -0.026549764 0.16860242 0.08358012 0.017390464
0000e0 b6 a5 b9 bc cf 4a bb bc c1 10 bc 3c 17 49 86 3c
       -0.022662025 -0.02286282 0.022957208 0.016392274
0000f0 db 95 92 bb 86 40 4f bd 74 be b4 3c 0d 6b a6 b9
       -0.0044734306 -0.050598644 0.022063471 -0.00031741746

a2c_network.mu.weight f4 [12, 64]
000000 99 85 93 3c af 7f c2 bc 10 9c 63 3e 29 91 e2 bd
       0.01800804 -0.023742525 0.22227502 -0.11062843
000010 89 5f 03 bd ba ee bf bd 69 95 7a 3d d9 45 1d bc
       -0.03207353 -0.09371705 0.061177645 -0.0095991725
000020 02 c5 90 bc dd da f7 3c fb 27 41 3e c8 5e 8a bd
       -0.017672066 0.03025573 0.18862908 -0.06756359
000030 62 bb 0f 3e 9f e8 fa bd 72 7b 7a 3d 22 dd 8f bc
       0.14036325 -0.122514 0.061152883 -0.017561499
000040 c7 98 ae 3d db 7c 0d be 3e 95 a0 bd 07 a5 13 3d
       0.08525234 -0.1381716 -0.07840966 0.036046054
000050 f0 1a ce 3d 3c 9c 63 ba 49 d5 33 bd 2e 88 8f be
       0.10063732 -0.00086826435 -0.043904576 -0.28033584
000060 7b b8 0f 3d f6 34 40 bd cb 2a 18 3d 5b db 79 bd
       0.035088044 -0.046925507 0.037150186 -0.06100021
000070 30 a1 5b b9 94 7b 2c bd ae cc 05 3d c9 5a a2 3c
       -0.00020945515 -0.04211004 0.0326659 0.01981868
000080 22 bb 78 3d 9f 13 fb bd 9a c6 b5 bc 5e 07 2f 3d
       0.06072534 -0.12259602 -0.022189427 0.042731635
000090 87 09 86 3d 4c 8c 97 3c 02 45 16 be 57 52 5a 3d
       0.06544786 0.018499516 -0.14674762 0.05330118
0000a0 60 8b 9c 3d da f0 56 3e b1 a4 1c 3d 9a ef 20 bc
       0.07643771 0.20990315 0.038243 -0.00982275
0000b0 8a 98 c1 3b 1a 6b 6b bd 08 da bb 3d 36 20 30 3c
       0.0059080767 -0.057475187 0.091724455 0.010749867
0000c0 5b 51 33 bd ed 97 21 3e e1 99 f6 3c 62 1c ca 3d
       -0.04377876 0.15780611 0.030102672 0.09868695
0000d0 68 2e de 3d fb 41 fa ba 45 b5 33 3c 59 b7 64 bd
       0.10848695 -0.001909315 0.010968511 -0.055838916
0000e0 67 e9 bf bd 0d 00 f2 bd 76 75 25 3b 0f 9e d4 bd
       -0.0937069 -0.11816416 0.0025247014 -0.1038171
0000f0 f1 21 63 be 90 ac 89 3d 14 33 c5 bd 4a 97 47 be
       -0.22180916 0.06722367 -0.09628883 -0.19491306
000100 59 f2 6c bc 44 17 c1 bd 66 02 4f 3e ea 8b 26 3e
       -0.014462077 -0.09428266 0.20215759 0.1626431
000110 7c 53 5a bb 10 69 f1 bd 0b c5 9e 3d 75 b2 8b 3b
       -0.003331392 -0.11787617 0.07752427 0.004263217
000120 fa f2 af 3c ab a0 fb bd 44 65 ac bd df 81 96 bc
       0.021478165 -0.12286504 -0.084177524 -0.018372474
000130 d4 18 79 3d 2a 42 ac 3d 91 d4 8d 3d 18 39 d7 bc
       0.060814694 0.08411057 0.069253094 -0.026272342
000140 01 58 a3 bd bc 98 d0 3d 06 01 38 bd 13 ad 85 bd
       -0.0797577 0.10185382 -0.04492285 -0.06527152
000150 07 26 e8 3d 10 a3 24 3d e2 b8 f3 bb 5b dd 8e 3d
       0.11335378 0.04019457 -0.0074378112 0.06975814
000160 b1 20 ac 3c d9 24 d7 3a 87 84 a7 3c 0b 1f b0 bd
       0.021011682 0.001641418 0.020448936 -0.08599671
000170 c3 f6 10 3e 0e 30 82 bc c0 6d 80 3d 1e ce 37 3d
       0.14156632 -0.015892055 0.06270933 0.044874303
000180 ff c6 4e bd 5b 73 f4 bc ee 0f f0 bd da 8f b8 3c
       -0.050482746 -0.029840162 -0.11721788 0.022529531
000190 34 b1 92 3d 9d a2 4e bd f4 9d 31 3e df da 07 3d
       0.07162705 -0.05044805 0.1734541 0.033167716
0001a0 b2 4a 27 3d d7 31 8e 3c b0 8c a2 3d 61 de 4e bd
       0.04084272 0.01735775 0.0793699 -0.050505046
0001b0 d0 54 cb bd b4 b3 1d 3d f2 05 3b be 01 1c 25 3e
       -0.09928286 0.038501456 -0.18263987 0.16123964
0001c0 fb f9 26 3e e0 35 15 be 1e 0d 21 be a8 ae 64 3e
       0.16306297 -0.14571333 -0.1572766 0.22332251
0001d0 2b 43 49 bd 8c a7 ff bd 4e 31 9e bd 44 ba 08 3e
       -0.049136322 -0.12483129 -0.07724248 0.13352305
0001e0 93 22 a2 bd ac d1 21 3e 71 ab d2 bc 68 45 82 bd
       -0.07916751 0.1580264 -0.025716515 -0.063608944
0001f0 3f 37 cf bd b1 50 29 3e 13 eb dd bd e1 89 eb 3c
       -0.10117959 0.16534688 -0.108358525 0.02875227
000200 c5 e9 0b 3e 1e 57 ba 3c 14 67 20 3d 9d a3 24 bd
       0.13663395 0.022746619 0.039160803 -0.040195096
000210 0a 72 f6 bb d3 cf 69 3d 80 35 a2 3d 65 44 50 3e
       -0.0075209187 0.057082962 0.079203606 0.2033859
000220 11 73 4c bd 84 26 35 3e 24 f1 14 be 03 e9 59 3d
       -0.049914423 0.17690474 -0.14545113 0.053200733
000230 1e 23 48 3d 98 ec 0e 3e 65 d7 2c 3e 01 4d 70 bd
       0.048861615 0.13957441 0.16879041 -0.058667187
000240 38 41 9b bd 1b 15 88 3d b6 c0 42 3d ef fe 51 3d
       -0.07580799 0.066446505 0.047547065 0.051268514
000250 8f aa 45 bd dc 8e d5 3d ef a3 c2 bd 4b 35 3a 3d
       -0.04825836 0.10427639 -0.09503924 0.04546098
000260 20 2a a8 3d 4f d4 2a bb b9 46 a1 bd a9 30 24 3c
       0.0821116 -0.0026066487 -0.078748174 0.010021367
000270 55 8a f9 bd 89 72 80 be d7 20 f6 bd 11 ab e6 3c
       -0.12184588 -0.25087383 -0.120179825 0.028157743
000280 12 83 7c 3d fb 22 31 bd f0 c9 d2 3d de 78 7f 3d
       0.061648436 -0.04324625 0.10292423 0.062371127
000290 b1 35 17 bd df 70 37 be fd fc 11 bd 5b df 1b be
       -0.03691644 -0.1791415 -0.03564166 -0.15221922
0002a0 eb 29 3d 3d e2 a3 36 be 85 8f ae ba 7d 07 93 3a
       0.046182554 -0.17835954 -0.0013317919 0.0011217442
0002b0 ab 4c a5 3c d0 f9 d7 bd 3b 9a 43 be 60 47 d3 bd
       0.02017816 -0.10545695 -0.19101803 -0.10316348
0002c0 81 33 b0 3c 04 d9 06 3e 55 16 b0 3d 68 4a 83 3d
       0.021508934 0.13168722 0.085980095 0.06410676
0002d0 e8 8f ed bd a3 36 38 3d 0a 6b ba 3d 84 0a 19 3b
       -0.115997136 0.04497398 0.09102447 0.0023352215
0002e0 02 d7 14 3d 3f 9f 30 be e8 e7 70 3d bd 7e 02 bc
       0.03633786 -0.17248248 0.058814913 -0.007964787
0002f0 3d 54 d4 bd 4c 20 6e bc 75 f9 1f 3d 87 6e 85 bd
       -0.1036763 -0.014534067 0.03905626 -0.06515222
000300 e7 66 0d 3e 09 01 70 bc 19 09 5d 3d cf a7 84 3e
       0.13808785 -0.014648684 0.053963754 0.25909278
000310 45 fb a2 bb 22 b6 c0 3d 6c 33 a1 bd 34 bd 5d 3d
       -0.0049738013 0.09409739 -0.07871136 0.054135516
000320 b6 85 24 3d 81 15 ea bc 7a 1c 37 bd 55 58 e6 bc
       0.04016658 -0.028574707 -0.04470489 -0.028118292
000330 54 b2 35 3c 21 9e 4b 3c 29 c4 01 3d 00 5b 8f bd
       0.01108988 0.012427838 0.031681214 -0.06999779
000340 20 01 c5 3d f2 49 88 3d f0 f3 3a bd 75 78 11 3c
       0.09619355 0.06654729 -0.045642793 0.008878817
000350 1a c3 bd 3d 07 1f b9 bd 74 ce f9 3c 74 25 8e bd
       0.09265728 -0.09039121 0.030493952 -0.06940737
000360 05 e6 c9 bd cf 00 f9 3d 92 f6 f2 3d 84 91 1e 3e
       -0.09858326 0.12158357 0.11863436 0.15485197
000370 82 7f 51 3d 93 6a 77 3b 2d fd 7f bd 20 c2 c6 3d
       0.05114699 0.0037752732 -0.062497307 0.09704995
000380 1f 69 f6 3d d5 3e 86 3d 42 b6 16 3d 82 f7 96 3b
       0.12031769 0.06554953 0.03679491 0.004607142
000390 0b 1a e5 3d 4f 48 b4 bd 6d 6b d1 bd 2e 39 2b 3e
       0.11186608 -0.08802854 -0.10225568 0.16721031
0003a0 fd 31 07 3e 1e 86 b2 bc 45 00 a9 bc 29 f1 84 3c
       0.13202663 -0.021792468 -0.020630011 0.016228275
0003b0 65 59 ac bd 83 4a e3 bd 9d 8e cd bb 5a b8 3d bd
       -0.08415488 -0.11098196 -0.0062731043 -0.04631839
0003c0 3d 25 17 3d fe 46 0e 3d c8 45 7d 3d 99 1a 1b 3d
       0.036900748 0.034735672 0.061834127 0.037867162
0003d0 b8 76 23 be 5d 1e ff bd 63 6b 00 be aa 67 48 bd
       -0.15963256 -0.12456963 -0.12540965 -0.048926987
0003e0 8b 1e 98 3d 23 02 87 3c 94 22 a5 3c 35 e7 5c bd
       0.074277006 0.016480511 0.02015809 -0.053931434
0003f0 4e 53 bb bd 58 2b 57 3d 15 29 92 bb 3c e1 1b bd
       -0.091467485 0.05253157 -0.0044604638 -0.038056597

a2c_network.mu.bias f4 [12]
000000 d0 7c 2b 3d 87 44 57 bc 8b 79 60 bd 9f 9c 4e bc
       0.041867077 -0.013138897 -0.054803412 -0.012610584
000010 4e af bc bb 30 68 7f bd bf 57 08 3e 72 09 e3 3c
       -0.0057582026 -0.06235522 0.13314722 0.027714465
000020 76 95 4b 3d 21 cc b9 bd 99 82 f2 bd 98 74 51 3d
       0.049703084 -0.090721376 -0.11841316 0.051136583

exp_avg f4 [12]
000000 d5 2f c8 b9 22 3c de b9 60 4d ab bb 73 a2 b2 ba
       -0.0003818261 -0.00042387942 -0.0052277297 -0.0013628736
000010 2f 78 b3 3a 0f 2c be bb e8 e1 bc b9 88 5e 0d 3b
       0.0013692434 -0.005803592 -0.00036026468 0.0021571238
000020 9f 5b c5 ba bb c7 3e b8 c4 36 c1 38 0f 5e 42 bb
       -0.0015057212 -4.5485544e-05 9.213158e-05 -0.0029658114

exp_avg_sq f4 [12]
000000 8f 34 56 38 76 d5 69 38 00 e8 64 38 12 af 4d 38
       5.1070525e-05 5.575033e-05 5.4575503e-05 4.9038856e-05
000010 35 e8 5e 38 ff b0 61 38 e7 d7 4e 38 38 f8 5c 38
       5.3145184e-05 5.380902e-05 4.9315302e-05 5.268326e-05
000020 59 df 83 38 16 55 5c 38 57 a2 65 38 e2 77 52 38
       6.2881685e-05 5.253133e-05 5.4749045e-05 5.017955e-05
