OmniIsaacGymEnvs/omniisaacgymenvs/runs/Naranjelio/nn/last_Naranjelio_ep_6150_rew_7.181681.pth (torch, 672755 bytes, 36 tensors)

value_mean_std.running_mean f8 [1]
0	0x3fdae926bcc86685	0.42048042712995254

value_mean_std.running_var f8 [1]
0	0x3fc480e574f18245	0.16018360338331852

value_mean_std.count f8 []
0	0x41c2048000800000	604569601.0

running_mean_std.running_mean f8 [48]
0	0xbf42bf8bc3a98e1a	-0.00057215046338083
1	0x3f59b4f262c7e24c	0.0015690199899137834
2	0x3f5e1360e2ca92aa	0.0018356748725320373
3	0xbf596ccd5ec24237	-0.0015518193786513543
4	0xbf65454e12cbc367	-0.0025965237494961937
5	0x3f761a306c1414be	0.005396069668909207
6	0x3fcd20636a9b0cb3	0.22755091386179557
7	0xbfb8ca95686c27ad	-0.09684118079544986
8	0xbfecc7b1fc07acda	-0.899376861806924
9	0xbf992a5524c4ad95	-0.024575548524052932
10	0xbf778697627a590f	-0.00574359068527587
11	0x3f91e97d1011f3bb	0.01749225054344426
12	0x3fd6150473495f36	0.34503279932458797
13	0xbfb05440cc2b8af2	-0.06378560051556884
14	0xbecf9be6aaa514bb	-3.7680850556743023e-06
15	0x3fcc40d13184b6b2	0.22072806280032392
16	0x3fccc71edbf5b9f7	0.2248266767523572
17	0x3fc093d4ab15cc77	0.12951143602149148
18	0xbfceb0ffe348e69d	-0.2397765979565535
19	0xbfb675c598250be6	-0.08773455585928466
20	0xbfe331eea2c480e6	-0.5998452357344177
21	0xbfdba0b10b2d563e	-0.4316828354979839
22	0x3fb5f802941e7f4d	0.08581558338346192
23	0x3fd6baecf1c606be	0.35515903101632407
24	0xbf64a9642280d7ae	-0.002522178245295734
25	0x3f598a3822c5f5f6	0.0015588329507346655
26	0xbf4639f65a5d1934	-0.0006782963653016228
27	0xbf52ec1823a872c5	-0.0011549220786328124
28	0xbf85e5aad6aed1c9	-0.01069196193370993
29	0x3f617c2a326cf985	0.0021344017181085828
30	0x3f72681baa871cb9	0.0044938164432501366
31	0xbf60a79e5f1a9c15	-0.0020330517953257667
32	0x3f7a6595fda995f4	0.006444536115485889
33	0xbf63705b663da7f8	-0.002372911943827379
34	0xbf69af641e61dd7b	-0.0031353908007606935
35	0x3f67962d125c8112	0.002879226713858548
36	0x3fd8aa17d417e1ac	0.38538165771708566
37	0x3fd35dc4691da959	0.3025980974695322
38	0xbfd6447fbfda49f9	-0.34793084846128824
39	0x3fc7152b7ef999bb	0.18033355426741857
40	0x3f64f2b85d5d694a	0.0025571442483115813
41	0x3fa6183717f70d61	0.04315349738638009
42	0x3feea07c4ab0b0e2	0.9570905169289541
43	0xbfcf1f367300bcb5	-0.24314003577589963
44	0x3fe84d10c964385d	0.759407418577904
45	0xbfeb48f5e1c7d594	-0.8526563081529042
46	0xbfeb05f14254ec5d	-0.8444753928701051
47	0x3fea09905cbcf3eb	0.8136674701014476

running_mean_std.running_var f8 [48]
0	0x3f455c7466cb62a1	0.000651890598955058
1	0x3f450d99d4c080a0	0.0006424904945596839
2	0x3f5f5eeed5c764fe	0.0019147236226813576
3	0x3f316338dbe050e4	0.0002653135123875784
4	0x3f329ff03c05abf0	0.0002841912755885958
5	0x3f45e556c679cb8d	0.0006682084758281457
6	0x3fa6dd382b1e103f	0.04465652014099008
7	0x3fa8756d2c80b475	0.047770892794098886
8	0x3fa338d676791ba3	0.037543012582822465
9	0x4015729a134aee3c	5.361915875862504
10	0x3ff56d2cb317cd6c	1.3391539569682562
11	0x3f944db648ee10e0	0.019827697945871914
12	0x3fb1f5931d98c220	0.07015342209411601
13	0x3fb7ffd739d7d413	0.0937475696772057
14	0x3e50a1fc4a6ccc6b	1.549046104859476e-08
15	0x3fb32051fa25eee5	0.07471191746838775
16	0x3f448c9c4b8a82a0	0.0006271136436063092
17	0x3fd0c881c170ab57	0.2622379674018495
18	0x3f68c5619a88baa4	0.0030238062211290374
19	0x3fbd9ce8d88b90b3	0.11567549978969076
20	0x3fc98e63032f1823	0.1996577992960634
21	0x3fc07b91fa17a06a	0.12877106391465826
22	0x3fe0c46c35faed0c	0.5239773802090055
23	0x3fbe207811fc3ea8	0.11768293799490925
24	0x3f12de4e7ee6e86f	7.197717761800599e-05
25	0x3f106299ffd8368b	6.250443399143984e-05
26	0x3f13687b1b72e9ec	7.403613459448067e-05
27	0x3f202b6791807aef	0.00012336386930741165
28	0x3f22fba4839e1db2	0.00014482863644736454
29	0x3f1bf09bcb4fe1ea	0.00010658217327364603
30	0x3f151ca0749bb2a0	8.053521483093263e-05
31	0x3f22a09fc96fd82c	0.00014211607478359486
32	0x3f25df00677cf904	0.00016686325010967934
33	0x3f33731417f60405	0.0002967762047419445
34	0x3f229b57540d214b	0.00014195862788769285
35	0x3f1d230dd118257b	0.00011114856558704603
36	0x3fe48316d6e84b7d	0.6410021016512101
37	0x3fe6b4e51eebdf07	0.7095819095547719
38	0x3fe78266ac349c59	0.7346680987728959
39	0x3fe7ff2c9402d7cc	0.7498991862146283
40	0x3fea950d8a03fd82	0.8306949325196202
41	0x3fe72694c971637b	0.7234596189910997
42	0x3f9b2a6dd1c389bd	0.026529041221587713
43	0x3fe83cd42dccdbdd	0.757425393537115
44	0x3fd0c82ca933dd30	0.26221767924967576
45	0x3fc19d59c560bbb3	0.13761446130362529
46	0x3fbe5043d3cec478	0.11841224595151967
47	0x3fc17fc91be11800	0.1367122064713726

running_mean_std.count f8 []
0	0x41b2048001000000	302284801.0

a2c_network.sigma f4 [12]
0	0xbfdb0b4d	-1.7112824
1	0xbfe782dd	-1.8086811
2	0xbfc51a2f	-1.5398616
3	0xbfeb8309	-1.8399364
4	0xbfc856b4	-1.565146
5	0xbfc2d8f7	-1.5222462
6	0xbfc35811	-1.5261251
7	0xbfafda01	-1.3738405
8	0xbfd94a4b	-1.6975797
9	0xbfe45d27	-1.7840928
10	0xbfd1eca0	-1.6400337
11	0xbffe4ab3	-1.9866546

a2c_network.actor_mlp.0.weight f4 [256, 48]
0	0xbbf3a7b4	-0.0074357633
1	0x3e0023a9	0.12513603
2	0xbc26c789	-0.010179409
3	0xbd8ba541	-0.06818629
4	0xbd9c7b4f	-0.07640707
5	0xbd4544f9	-0.04816148
6	0xb9df131e	-0.00042548118
7	0x3e063345	0.13105495
8	0xbe69005e	-0.22754046
9	0xbd739062	-0.059463866
10	0x3e13203c	0.14367765
11	0x3d52f5c0	0.051503897
12	0xbe585168	-0.21124804
13	0x3baa3e3a	0.0051954063
14	0x3d51c9ab	0.051217716
15	0xbd039216	-0.03212174
16	0x3cb480bb	0.02203404
17	0xbd270424	-0.040775433
18	0xbe03d497	-0.12874065
19	0x3e105e7a	0.1409854
20	0xbe14c1ea	-0.14527097
21	0x3d711893	0.058861326
22	0xbd863d00	-0.065546036
23	0x3e32b239	0.17450799
24	0x3dbe08b4	0.09279004
25	0x3dc87091	0.09787095
26	0x3d40b6c3	0.047049295
27	0xbbe56909	-0.0070010466
28	0xbbc68564	-0.006058382
29	0x3dc2cf4c	0.09512195
30	0x3d5d835b	0.05408035
31	0xbe509f32	-0.20373228
32	0xbdfbdd50	-0.122980714
33	0xbe22938b	-0.15876596
34	0xbd0dfc23	-0.034664284
35	0x3d1e3be9	0.038631354
36	0xbdbb5940	-0.091478825
37	0xbe11a8d5	-0.1422456
38	0x3cd399aa	0.025830109
39	0x3d946531	0.07245863
40	0x3e400616	0.18752322
41	0x3f0f116b	0.5588595
42	0x3d8a5e7c	0.06756303
43	0x3e3f7215	0.18695863
44	0xbd036473	-0.032078218
45	0xbe2ba9e4	-0.16764027
46	0xbd070652	-0.032965012
47	0xbe4b6a8a	-0.1986486
48	0xbd5ff816	-0.054679953
49	0xbca21b40	-0.019788384
50	0xbc5d3d34	-0.0135033615
51	0x3d8c4e23	0.06850841
52	0xbdc18f17	-0.0945112
53	0x3e204412	0.15650967
54	0xbdc82c82	-0.09774114
55	0x3c0e01f1	0.008667455
56	0x3e62335a	0.22089902
57	0xbe8e3662	-0.27775866
58	0xbdab5193	-0.083651684
59	0x3e55699b	0.20841067
60	0x3e18e73d	0.1493196
61	0xbdc28ca6	-0.09499483
62	0x3e4245df	0.18971966
63	0x3c856d0f	0.016287355
64	0x3e0df4e9	0.13862957
65	0x3e37074f	0.17873882
66	0xbdf7931c	-0.12088606
67	0x3e693e9b	0.22777788
68	0x3e3db146	0.18524656
69	0xbcd41dac	-0.025893055
70	0x3da3974b	0.07987841
71	0x3e145ce9	0.14488567
72	0xbdad0176	-0.08447544
73	0xbd14dfec	-0.03634636
74	0xbc2336eb	-0.009961824
75	0xbde1f6c4	-0.11033395
76	0xbd430395	-0.047610838
77	0x3d16f7c8	0.036857396
78	0xbdc4983f	-0.09599351
79	0x3d8abf27	0.06774741
80	0x3c0caf61	0.008586735
81	0xbcc7261c	-0.024310164
82	0xbc51a290	-0.012795106
83	0xbd1e7f29	-0.038695488
84	0xbdfb5f34	-0.12274018
85	0xbda73680	-0.08164692
86	0xbd930ab9	-0.071797796
87	0x3e0812dc	0.13288444
88	0x3e2fc755	0.17165883
89	0xbe86aef2	-0.26305348
90	0x3dc4739f	0.095923655
91	0xbe0e4b85	-0.13895996
92	0x3d72c932	0.059273906
93	0x3cddd6dc	0.027079992
94	0xbd9c067d	-0.07618425
95	0xbcea7630	-0.02862081
96	0x3d936992	0.0719787
97	0x3e01ebb5	0.12687571
98	0xbd3afabb	-0.04564927
99	0x3c148c2d	0.009066624
100	0x3d9dc99d	0.0770447
101	0x3cb18ac0	0.021672606
102	0xbbec9014	-0.007219324
103	0xbd9cc13b	-0.07654043
104	0xbdbafa4a	-0.0912977
105	0xbaba63f5	-0.0014220463
106	0xbdcc543c	-0.09977004
107	0xbf4c7125	-0.79860145
108	0x3e40fc31	0.18846203
109	0x3d0b60d2	0.034027882
110	0xbe250600	-0.1611557
111	0xbd814700	-0.0631237
112	0xbe4e792d	-0.20163412
113	0xbda888d3	-0.08229222
114	0x3e38d620	0.18050432
115	0x3e26e9d1	0.16300131
116	0x3e198843	0.14993386
117	0xbe284e83	-0.164362
118	0x3e12507b	0.14288513
119	0x3cacef5c	0.02111023
120	0x3d4d002c	0.050048992
121	0xbd0ff1b3	-0.03514261
122	0x3dba299a	0.09089966
123	0x3d5945ae	0.053044967
124	0x3d2495ec	0.04018204
125	0x3b533659	0.0032228439
126	0x3d13a332	0.036044307
127	0xbd0c2a9c	-0.034220323
128	0x3d63117b	0.055436593
129	0x3d79a315	0.060946543
130	0xbd10fd02	-0.035397537
131	0xbc8d854f	-0.01727548
132	0x3d9319ec	0.071826786
133	0x3a5a9b95	0.00083392236
134	0x3d2a0c29	0.041515503
135	0x3d72f1f4	0.059312776
136	0x3d3ad153	0.045609783
137	0x3d388f61	0.04505861
138	0xbd889b21	-0.066702135
139	0xbdb85de0	-0.0900228
140	0xbceb049d	-0.028688723
141	0x3d012629	0.031530533
142	0xbc268151	-0.010162667
143	0x3d90d415	0.070717014
144	0x3d7029a4	0.05863346
145	0x3d4d26c2	0.05008579
146	0x3d12ca5a	0.03583751
147	0xbd63fbcf	-0.055660065
148	0x3d993777	0.07481282
149	0x3e42fca0	0.19041681
150	0xbe165ef6	-0.14684662
151	0x3e25fd88	0.16209996
152	0x3e28a9a8	0.16470969
153	0xbe415412	-0.18879727
154	0xbdbdcc03	-0.09267428
155	0x3e838614	0.2568823
156	0xbc143cba	-0.0090476815
157	0xbd5e9253	-0.054338764
158	0x3ecc2898	0.3987472
159	0xbdad9be6	-0.08477001
160	0x3d910071	0.07080162
161	0xbe3b519a	-0.18292847
162	0xbdf7894f	-0.120867364
163	0x3d849bf4	0.06475058
164	0x3dc77cbc	0.09740588
165	0x3dc1e7b6	0.094680235
166	0xbdbd7cb5	-0.092523016
167	0xbe4e46d5	-0.20144208
168	0x3b91ae57	0.0044458318
169	0xbc16aaa5	-0.009195958
170	0x3d940106	0.07226758
171	0xbccfb190	-0.025353223
172	0xbbdf6630	-0.0068176016
173	0x3ba4d62d	0.0050304146
174	0xbe02cdf5	-0.12773879
175	0xbd359ded	-0.044340063
176	0xbdf32c4d	-0.11873684
177	0x3dcc44b8	0.099740446
178	0x3dfe3268	0.12411958
179	0x3d2d1b97	0.04226264
180	0xbe033190	-0.12811875
181	0x3d71e240	0.05905366
182	0xbb6c0ceb	-0.0036018442
183	0x3e237415	0.1596225
184	0x3e00fd1d	0.12596555
185	0xbdb2eccb	-0.08736571
186	0x3e4e9030	0.2017219
187	0xbe449136	-0.19196019
188	0xbd9d9391	-0.07694162
189	0xbe584eb4	-0.21123773
190	0xbdb43e72	-0.08800973
191	0x3c9f0ce9	0.019415336
192	0x3cadb5fd	0.021204943
193	0x3e0b3912	0.1359599
194	0xbe3a11cb	-0.1817085
195	0x3e49a3f5	0.19691451
196	0x3d49ad73	0.04923768
197	0x3d889754	0.066694885
198	0x3dc82af8	0.09773821
199	0x3b93218d	0.0044900835
200	0xbe85e0c9	-0.2614806
201	0xbe027e70	-0.12743545
202	0x3dba9234	0.09109917
203	0xbe7cdf44	-0.24694544
204	0x3e3fa40c	0.18714923
205	0x3dd6e89d	0.10493586
206	0xbca98b1b	-0.020696213
207	0x3e86d92c	0.26337564
208	0x3dfe0f75	0.12405292
209	0xbdb8eee0	-0.09029937
210	0x3c53092c	0.012880605
211	0x3ea87425	0.3290111
212	0x3e4d4a03	0.20047764
213	0xbd8e9519	-0.06962032
214	0x3eb7ec99	0.35922697
215	0xb801b6bb	-3.0926178e-05
216	0xbcab8827	-0.020938946
217	0xbdcafd15	-0.09911553
218	0x3dd5b486	0.10434823
219	0x3b0c1be6	0.0021378933
220	0x3d1db30d	0.038500834
221	0x3cb1b323	0.021691864
222	0xbe1a2b41	-0.15055563
223	0x3d218388	0.03943208
224	0x3b8da27e	0.004322349
225	0xbe35c09a	-0.17749253
226	0xbd642777	-0.0557017
227	0x3d991cc5	0.074761905
228	0x3dbdc978	0.09266943
229	0x3e1770ee	0.14789173
230	0x3e4a13d9	0.19734134
231	0xbe81c671	-0.2534671
232	0xbdecf89d	-0.11570857
233	0x3da8d214	0.08243194
234	0x3bb99d71	0.0056645204
235	0x3e1ac78e	0.15115187
236	0x3e05ff4a	0.13085666
237	0xbbc94de8	-0.0061433204
238	0x3c26b03e	0.010173855
239	0x3d0a9e31	0.03384227
240	0xbd5f8cab	-0.05457751
241	0x3d59b86c	0.053154394
242	0x3eaec9ed	0.34138432
243	0x3d9e9d04	0.07744792
244	0xbe05250b	-0.13002412
245	0xbcf0db08	-0.029401317
246	0x3ce5d03b	0.028053394
247	0x3e59b605	0.21260841
248	0xbdbf73c7	-0.09348255
249	0xbe1b647c	-0.1517505
250	0x3d9f75d2	0.07786144
251	0xbc5d1813	-0.013494509
252	0xbd82de17	-0.063900165
253	0xbd8891f1	-0.06668461
254	0x3dcb40a1	0.09924436
255	0xbd04968a	-0.032370128

a2c_network.actor_mlp.0.bias f4 [256]
0	0x3e2e64d9	0.17030658
1	0x3ed32b42	0.4124394
2	0xbdbcc598	-0.092173755
3	0x3e88d952	0.26728302
4	0x3dcf521e	0.101230845
5	0x3e84d8cd	0.25946656
6	0x3d216a40	0.03940797
7	0xbdc9a0f1	-0.0984515
8	0xbe431c48	-0.19053757
9	0xbe8353b9	-0.25649813
10	0x3ece0360	0.4023695
11	0xbe036aac	-0.12833661
12	0xbecd6c69	-0.40121773
13	0xbbe19f6b	-0.006885459
14	0x3ecea7a3	0.40362272
15	0x3e9ffd9c	0.31248176
16	0x3f116867	0.5679993
17	0x3e4dd4f4	0.20100766
18	0xbe005298	-0.12531507
19	0xbd332557	-0.043736782
20	0x3d83a995	0.064288296
21	0x3ed0433a	0.4067629
22	0xbeb6712d	-0.3563322
23	0xbe8e0ce1	-0.277442
24	0xbe958ab4	-0.29207385
25	0xbd14a1a9	-0.036286984
26	0x3eca5361	0.39516738
27	0x3e924d85	0.28574768
28	0x3ea1fc41	0.31637767
29	0xbca5256e	-0.02015945
30	0xbe28b5ba	-0.16475573
31	0x3dace3a2	0.08441855
32	0x3d882dac	0.06649336
33	0xbea0bcbf	-0.31394002
34	0xbe2d3425	-0.16914423
35	0xbead1a00	-0.338089
36	0x3defe6eb	0.11713966
37	0xbe9897f0	-0.2980342
38	0x3e265f5e	0.16247317
39	0x3e832074	0.25610697
40	0x3e143480	0.14473152
41	0xbe8f35c8	-0.2797072
42	0xbdeb2c34	-0.114830405
43	0x3ec05b46	0.37569636
44	0xbe4e9197	-0.20172726
45	0x3eccd5fb	0.40007004
46	0x3dff4882	0.12465002
47	0x3e974bfe	0.29550165
48	0x3e89ba28	0.26899838
49	0x3e0706ea	0.13186231
50	0x3e06c1d4	0.13159877
51	0x3e849a2e	0.2589888
52	0x3e682207	0.2266923
53	0x3d65be4b	0.05608968
54	0xbd10fd8e	-0.03539806
55	0xbebb65d2	-0.3660112
56	0x3e8ddfc5	0.27709785
57	0xbed8f95e	-0.42377752
58	0x3e96899a	0.29401857
59	0xbe1df36f	-0.15424894
60	0xbedcbcff	-0.43112943
61	0x3d5018b2	0.0508048
62	0x3eb72eb4	0.3577782
63	0xbdf6dc1a	-0.120537
64	0x3c0ac65b	0.008470143
65	0x3c631ec4	0.013862316
66	0x3e8199df	0.25312707
67	0xbdef4663	-0.11683347
68	0xbd9445d0	-0.07239878
69	0x3e1472a7	0.14496861
70	0xbd9f3fd2	-0.07775845
71	0x3d1007e4	0.035163775
72	0x3d6a15d7	0.057149734
73	0x3e5b7b0e	0.2143366
74	0x3e89696e	0.2683825
75	0x3e7ca97b	0.24674027
76	0x3e927a81	0.28609088
77	0xbe18c416	-0.14918551
78	0x3ec9c202	0.3940583
79	0xbeb1e56a	-0.34745342
80	0xbe17bff1	-0.14819314
81	0xbeb3adbd	-0.3509349
82	0x3eaf9d35	0.34299627
83	0x3f0b75d3	0.5447666
84	0x3ed49893	0.41522655
85	0x3e7cbde0	0.24681807
86	0x3e1be32d	0.1522338
87	0xbd98bb64	-0.07457617
88	0xbd04e992	-0.032449313
89	0xbdd06d3d	-0.101770855
90	0xbe9448b3	-0.28961715
91	0xbd9eb554	-0.07749429
92	0xbe307d24	-0.17235237
93	0x3e070d38	0.13188636
94	0xbdb29456	-0.08719699
95	0x3ec68b9e	0.38778394
96	0xbdb3fbea	-0.08788283
97	0x3ec9e114	0.39429533
98	0xbdc0c5a2	-0.094126955
99	0xbebf6ee4	-0.3738929
100	0xbdc32ff6	-0.09530632
101	0xbd941f9d	-0.07232592
102	0x3efa8d55	0.48935953
103	0xbe3bdf0a	-0.18346801
104	0x3edfa614	0.43681395
105	0x3d262712	0.040564604
106	0x3da57d68	0.0808056
107	0x3e567b20	0.20945406
108	0x3d97f4c1	0.0741973
109	0x3d2170a5	0.039414067
110	0xbed3bcf0	-0.41355085
111	0x3c1aef65	0.00945649
112	0xbe8a987b	-0.27069458
113	0x3e34ba43	0.17649178
114	0x3ebd4309	0.36965206
115	0x3cb67372	0.022271845
116	0x3ccc0d74	0.024908759
117	0xbe6c48fc	-0.23074716
118	0xbd68048b	-0.056644958
119	0x3dfd95c9	0.12382085
120	0xbe2a1611	-0.1660998
121	0x3ed98b46	0.4248907
122	0xbe271997	-0.16318356
123	0x3ea6a71b	0.32549366
124	0x3cfd8786	0.030948412
125	0xbe135919	-0.14389457
126	0xbe00b593	-0.12569265
127	0x3dbe30a0	0.09286618
128	0x3eee4695	0.46538225
129	0xbe812e97	-0.25230858
130	0xbc6e39ae	-0.014540119
131	0xbef59bde	-0.4797048
132	0xbddbec83	-0.107384704
133	0xbe052aae	-0.13004562
134	0x3e1aeee1	0.15130188
135	0x3ea0ad5c	0.31382263
136	0x3e7182f4	0.23585111
137	0x3e71eda9	0.23625816
138	0x3d1b114a	0.037858285
139	0xbeaf43e4	-0.34231484
140	0xbde3cd27	-0.11123114
141	0xbdd138d7	-0.102159195
142	0x3e880f81	0.2657433
143	0xbdc82be7	-0.09773999
144	0xbeab6e71	-0.33482698
145	0xbe40dda0	-0.18834543
146	0xbe4cc5ac	-0.19997281
147	0x3e09a227	0.13440762
148	0xbe87b3c5	-0.2650434
149	0xbe201e7d	-0.1563663
150	0x3ed84737	0.42241833
151	0x3ebe2928	0.37140775
152	0x3ec78f8b	0.38976702
153	0xbcdb92f3	-0.02680347
154	0x3e824906	0.25446337
155	0xbea3a397	-0.31960747
156	0xbe70c381	-0.23512079
157	0x3e82798f	0.25483367
158	0x3e7fccb9	0.24980439
159	0xbe6beebc	-0.23040289
160	0x3dea7590	0.114482045
161	0xbd5894b2	-0.052876182
162	0xbd107e97	-0.035276975
163	0x3d8032a4	0.06259659
164	0xbecff7da	-0.40618783
165	0x3ec3bba3	0.38229093
166	0xbe091c39	-0.13389672
167	0xbd3da7cf	-0.046302613
168	0xbdcd020d	-0.10010157
169	0x3e2220f1	0.15832879
170	0x3e596a3d	0.21231933
171	0x3ee42015	0.44555727
172	0xbd8cdf86	-0.06878571
173	0x3ea0cf60	0.31408215
174	0x3e72636e	0.23670742
175	0x3e4d82f4	0.20069486
176	0x3e924d02	0.28574377
177	0x3e7cf894	0.247042
178	0x3e98f2cb	0.29872736
179	0x3ee28f39	0.44249895
180	0x3daec8ef	0.08534419
181	0x3ea98b74	0.33114207
182	0x3e009e0c	0.1256029
183	0x3e6cb37b	0.23115341
184	0x3ea2c5e4	0.31791604
185	0xbe4ace57	-0.19805275
186	0xbe86c436	-0.26321572
187	0xbe762706	-0.24038324
188	0x3e37bcfb	0.17943184
189	0xbe0966c4	-0.13418108
190	0xbd9f91fc	-0.07791516
191	0x3def3866	0.11680679
192	0x3dd87e79	0.10570998
193	0x3ea6b75a	0.3256176
194	0xbea5f4d4	-0.32413352
195	0xbe351046	-0.17681989
196	0xbeb15830	-0.34637594
197	0x3e53c573	0.2068079
198	0xbdc36857	-0.095413856
199	0x3e8a762f	0.27043292
200	0xbe2cecb0	-0.16887164
201	0xbe96377b	-0.29339203
202	0x3e999bd7	0.3000171
203	0xbd90c37e	-0.07068537
204	0x3e8e654e	0.27811664
205	0xbe466f3c	-0.1937837
206	0xbd663f63	-0.056212794
207	0xbd8b2dce	-0.06795846
208	0xbd0e1c7f	-0.034695145
209	0xbdbd854f	-0.09253942
210	0xbe33fa69	-0.17575993
211	0x3f082643	0.5318338
212	0xbd8ed485	-0.06974129
213	0x3e93f0b1	0.2889457
214	0x3d3f1e0e	0.04665952
215	0x3ed9e511	0.42557576
216	0x3ca67828	0.020320967
217	0x3e811939	0.25214556
218	0x3ca35f1d	0.019942814
219	0x3ddb4001	0.10705567
220	0xbd50cc1a	-0.050975896
221	0xbea2bd90	-0.3178525
222	0x3eb300e3	0.34961614
223	0xbd848ee7	-0.06472569
224	0xbd8f9653	-0.07011094
225	0x3e840be8	0.25790334
226	0x3e4d57b6	0.2005299
227	0xbe239bf0	-0.15977454
228	0xbe2d460c	-0.16921252
229	0x3e87a3cd	0.26492158
230	0x3d0b2f11	0.033980433
231	0x3e628498	0.22120893
232	0x3ec52f19	0.38512495
233	0xbc9a48cf	-0.018833546
234	0x3e980fd0	0.29699564
235	0x3eaaa017	0.33325264
236	0xbe89fd70	-0.2695117
237	0x3cdb0b2f	0.026738731
238	0x3ea619ea	0.32441646
239	0x3edc7bf9	0.43063334
240	0xbe28b71a	-0.16476098
241	0x3eb50469	0.35354927
242	0x3ea6d6b9	0.32585695
243	0x3ebd092a	0.36921054
244	0xbd1e6fc8	-0.03868082
245	0x3bd08840	0.0063638985
246	0xbe105b02	-0.14097217
247	0x3ecbce85	0.39806
248	0x3dfa88d5	0.1223313
249	0xbeaa1da0	-0.33225727
250	0xbbd28fdc	-0.006425841
251	0xbe7b819b	-0.2456116
252	0xbe8bc478	-0.2729833
253	0x3ea43cd1	0.3207765
254	0x3e9c9f4b	0.3059028
255	0xbe802cce	-0.25034183

a2c_network.actor_mlp.2.weight f4 [128, 256]
0	0xbdb26d3b	-0.0871224
1	0xbd6de388	-0.05807832
2	0xbe5091f9	-0.20368184
3	0xbdab290b	-0.08357438
4	0xbd773824	-0.060356274
5	0xbdaf2143	-0.08551266
6	0xbd73dc3d	-0.059536207
7	0xbd80172d	-0.062544204
8	0xbd08f194	-0.03343351
9	0x3e0856ab	0.13314311
10	0xbcc2571b	-0.023723176
11	0xbc99473f	-0.01871073
12	0x3e0f2726	0.13979778
13	0x3d2861cb	0.041108888
14	0x3e012397	0.12611233
15	0xbd554183	-0.05206443
16	0xbd5fd5ec	-0.05464737
17	0x3dff552a	0.12467416
18	0x3dc3018f	0.09521782
19	0xbd1282e9	-0.035769377
20	0x3da54665	0.08070067
21	0xbe6d4a87	-0.23172961
22	0x3d23efd2	0.040023632
23	0x3e014d07	0.1262704
24	0x3c9cf00d	0.019157434
25	0xbc37ef8b	-0.011226545
26	0x3d4ac1e1	0.049501304
27	0xbd724d0c	-0.05915551
28	0xbe5c0b52	-0.21488693
29	0x3bd6e6ea	0.006558289
30	0x3d81b0f7	0.063325815
31	0xbe06f223	-0.13178305
32	0x3ba4719a	0.005018425
33	0xbbbef1e1	-0.005827174
34	0xbce0e4b7	-0.02745281
35	0x3caefcf1	0.021360846
36	0xbd9c041e	-0.07617973
37	0x3e01532f	0.12629388
38	0x3e252863	0.16128688
39	0xbe2bd1e1	-0.16779281
40	0xbda75369	-0.08170206
41	0xbc6b1f1f	-0.014350682
42	0xbd6a95e3	-0.05727185
43	0xbdec8db0	-0.11550462
44	0x3eac29ed	0.33625737
45	0xbd8fdfab	-0.07025083
46	0xbd04f345	-0.032458562
47	0xbe898831	-0.26861718
48	0xbe0727e3	-0.1319881
49	0x3c20b779	0.009809368
50	0xbd86f303	-0.065893196
51	0xbda060d8	-0.078309715
52	0xbcaff48c	-0.021478914
53	0x3d3acabf	0.04560351
54	0xbe28ad31	-0.16472317
55	0x3c0ad7df	0.008474319
56	0xbe7c04e5	-0.24611242
57	0x3e15ae6f	0.14617322
58	0xbe9e9582	-0.3097344
59	0xbe1c70ca	-0.152774
60	0x3e14f83e	0.14547822
61	0xbd9691de	-0.07352041
62	0xbdb94898	-0.09047049
63	0xbd1ee63c	-0.038793787
64	0x3d7058ed	0.058678556
65	0xbd69c587	-0.057073142
66	0xbdafb29d	-0.0857899
67	0xbe218e59	-0.15776958
68	0xbdad65b2	-0.084666625
69	0xbe3ce86f	-0.18448041
70	0x3c8830eb	0.016624888
71	0xbe01d388	-0.12678349
72	0xbe45b736	-0.1930817
73	0x3d17b4cd	0.03703766
74	0x3c88e1a7	0.016709162
75	0xbe3a43bd	-0.18189903
76	0xbe23502a	-0.15948549
77	0xbe3d1cb1	-0.18467976
78	0xbdad22ee	-0.08453928
79	0xbbb9f190	-0.0056745484
80	0xbd11464f	-0.035467442
81	0x3e6aa91a	0.2291607
82	0x3df7e0f1	0.12103451
83	0xbdfb87e4	-0.122817785
84	0xbea202a8	-0.31642652
85	0xbb1e33ae	-0.002413969
86	0xbde092fe	-0.109655365
87	0xbd95a24f	-0.073063485
88	0x3e888fef	0.26672313
89	0xbd49d93a	-0.04927943
90	0xbc3183b1	-0.01083462
91	0x3e6dbd6e	0.23216793
92	0xbe033c4e	-0.12815973
93	0xbd7e38d5	-0.062065918
94	0xbd5aba3d	-0.053400267
95	0x3e1895e7	0.14900933
96	0x3ca18a7c	0.019719355
97	0xbe18c8a3	-0.14920287
98	0xbd380fe7	-0.04493704
99	0x3dd93d35	0.106073774
100	0x3cfde0e4	0.030991025
101	0x3dd505ad	0.10401473
102	0xbe503262	-0.2033172
103	0x3da9b21d	0.082859255
104	0xbe71802e	-0.23584053
105	0x3d434872	0.04767651
106	0x3dbbfec1	0.0917945
107	0xbe294bb3	-0.16532783
108	0xbda0653a	-0.078318074
109	0xbbf16be4	-0.007367598
110	0x3d36cbb4	0.04462786
111	0xbd932657	-0.07185047
112	0x3d0f0739	0.034918997
113	0xbd6190e9	-0.055069838
114	0x3db6afea	0.08920272
115	0xbe30bca3	-0.17259459
116	0xbc9c155a	-0.01905315
117	0xbc6b7ebb	-0.014373477
118	0x3da813f6	0.08206932
119	0xbd3a4034	-0.045471385
120	0xbe5e9768	-0.21737444
121	0xbd519fb3	-0.05117769
122	0x3df988a2	0.12184264
123	0xbe312b37	-0.17301641
124	0xbe4b979f	-0.19882058
125	0x3d92d135	0.07168809
126	0xbc2aef59	-0.0104330415
127	0xbd5caab7	-0.053873744
128	0xbe27d216	-0.16388735
129	0x3bf48beb	0.0074629686
130	0xbe434fd4	-0.19073421
131	0x3e0679a5	0.13132341
132	0x3dfd3f52	0.12365593
133	0x3b5138fa	0.003192483
134	0xbde65f6f	-0.11248671
135	0x3d8a46ff	0.06751823
136	0x3d628b78	0.05530879
137	0x3a040316	0.000503586
138	0x3e566672	0.20937517
139	0xbe48da15	-0.19614442
140	0xbe021236	-0.1270226
141	0xbce40c66	-0.027837943
142	0xbdc51ccf	-0.096246354
143	0xbd9d43a1	-0.07678915
144	0x3d0ebbf6	0.034847222
145	0x3d49b1f8	0.04924199
146	0xbc75262f	-0.014962717
147	0x3e33dbf9	0.17564382
148	0x3e59a355	0.21253712
149	0x3cba0472	0.022707198
150	0x3d88037c	0.066412896
151	0xbdbad11c	-0.09121916
152	0xbe0d3319	-0.13789023
153	0xbdc76f2d	-0.09738002
154	0x3d82b346	0.0638185
155	0x3d9b70f4	0.075899035
156	0xbe184fa2	-0.14874128
157	0xbda5cd30	-0.08095777
158	0x3d73b324	0.059497014
159	0x3e0d9334	0.13825685
160	0x3b54fa2c	0.0032497747
161	0x3e2448c9	0.1604339
162	0xbe05a00a	-0.13049331
163	0xbc82f26c	-0.015984736
164	0x3e4b13b6	0.19831738
165	0xbdc44932	-0.095842734
166	0xbc480a37	-0.012209467
167	0xbdc793af	-0.09744965
168	0xbc933799	-0.017970847
169	0xbda93eab	-0.08263906
170	0xbe16280e	-0.14663717
171	0x3e1dfa0f	0.15427421
172	0xbd2bf0b2	-0.04197759
173	0xbbf5574b	-0.007487213
174	0xbd2ba8eb	-0.04190914
175	0xbe000a54	-0.1250394
176	0xbdcc4fc3	-0.09976151
177	0xbe51a11e	-0.20471618
178	0xbd900608	-0.070324
179	0x3cebff00	0.028808117
180	0xbd8fc783	-0.07020476
181	0xbd4e4273	-0.05035634
182	0xbd4d6e90	-0.05015427
183	0xbddf2a59	-0.10896749
184	0xbe24a932	-0.16080168
185	0x3e0ff6d7	0.14059006
186	0x3df6a4ff	0.12043189
187	0x3d51a9e4	0.05118741
188	0xbd9acad8	-0.075582206
189	0xbd9a907d	-0.0754709
190	0xbda31a83	-0.07964041
191	0xbd7f23b3	-0.062289905
192	0xbdf3ae88	-0.118985236
193	0xbe182e3e	-0.1486139
194	0xbd40eda4	-0.04710163
195	0x3de18951	0.11012519
196	0x3d3a4126	0.045472287
197	0xbe1e7410	-0.15473962
198	0x3cc2807a	0.023742903
199	0x3c8d156a	0.017222125
200	0xbd6cf28f	-0.05784851
201	0xbc6f447e	-0.014603732
202	0x3b8edc55	0.0043597617
203	0xbdc7dcda	-0.09758921
204	0xbd162ef0	-0.036665857
205	0x3dd921ec	0.10602173
206	0xbe3750a1	-0.17901851
207	0x3d81170a	0.063032225
208	0xbdb3979b	-0.08769151
209	0xbca07aaf	-0.01958975
210	0x3d4de64d	0.05026846
211	0x3d4e4da0	0.050366998
212	0x3d254146	0.040345453
213	0x3d3ab35f	0.045581218
214	0xbdce7eff	-0.10082816
215	0xbdd25e3d	-0.10271881
216	0x3d287f83	0.04113723
217	0xba0c0aed	-0.0005342204
218	0x3d32a068	0.043610007
219	0xba8a9164	-0.0010571894
220	0x3d04fbbc	0.032466635
221	0x3be364dc	0.0069395136
222	0x3d03365d	0.032034267
223	0x3cd2531b	0.025674393
224	0x3d076ea7	0.03306451
225	0xbd991750	-0.0747515
226	0xbe34a044	-0.17639261
227	0x3dfed713	0.12443366
228	0x3e096232	0.13416365
229	0xbd85cf87	-0.06533723
230	0xbc8e036a	-0.017335612
231	0x3de23b96	0.11046521
232	0xbe7b2ed6	-0.24529585
233	0xbd410c55	-0.0471309
234	0x3d84fb5c	0.064932555
235	0xbe3ead5d	-0.1862082
236	0x3d036692	0.03208024
237	0x3d360799	0.04444084
238	0x3c46fbf0	0.0121450275
239	0xbe30c49d	-0.17262502
240	0xbc5627e7	-0.013071037
241	0xbe1fe9a0	-0.15616465
242	0xbea08aa5	-0.31355777
243	0xbe16c5cf	-0.14723895
244	0xbd8a10f2	-0.06741513
245	0x3df165b5	0.11786977
246	0x3ca4001a	0.02001958
247	0xbe0a4055	-0.13501103
248	0x3da25ac8	0.079274714
249	0x3da03f8e	0.07824622
250	0xbd58690d	-0.05283456
251	0xbb4055e3	-0.0029348067
252	0x3de012b2	0.10941066
253	0xbd348478	-0.044071645
254	0xbd583f8a	-0.05279497
255	0xbcfaa537	-0.030596359

a2c_network.actor_mlp.2.bias f4 [128]
0	0xbe512296	-0.2042335
1	0xbe810e61	-0.25206283
2	0xbeb05884	-0.34442532
3	0xbdacd3ac	-0.08438811
4	0x3d9dbf85	0.07702545
5	0xbe89692a	-0.26838046
6	0xbdfc78ce	-0.12327729
7	0xbe5116a0	-0.20418787
8	0xbe986afc	-0.29769123
9	0xbeb2bb95	-0.3490874
10	0xbe2b9393	-0.16755514
11	0xbd55962d	-0.052145172
12	0xbe924ef1	-0.28575853
13	0xbdab1713	-0.083540104
14	0xbb2deac4	-0.0026537636
15	0xbdb45237	-0.08804744
16	0xbdb6a6ef	-0.08918559
17	0xbe53ec60	-0.20695639
18	0x3cb7fd9d	0.0224598
19	0xbdcc68cb	-0.09980925
20	0xbe23a12b	-0.1597945
21	0xbea3cbe0	-0.31991482
22	0xbe028cb3	-0.12748985
23	0xbdccb0b7	-0.09994643
24	0x3d561f2c	0.05227582
25	0xbe8df445	-0.27725425
26	0xbdfec500	-0.124399185
27	0x3cf54b22	0.029943053
28	0xbe24b8fe	-0.16086194
29	0xbe49fe27	-0.19725858
30	0xbd6c5854	-0.057701424
31	0x3e5ce903	0.21573262
32	0xbe54d748	-0.20785248
33	0x3cb6ed85	0.022330055
34	0x3e10a89b	0.14126818
35	0xbe7d0011	-0.24707057
36	0x3d2589ef	0.040414747
37	0x3d59578b	0.053062003
38	0xbd9fa486	-0.07795052
39	0x3e3e4523	0.18581061
40	0x3d058fc1	0.032607798
41	0x3cd14575	0.025545815
42	0xbef654e7	-0.4811165
43	0xbe376285	-0.17908676
44	0xbe4a13b7	-0.19734083
45	0xbddaa8f1	-0.10676754
46	0xbdbd8a7e	-0.09254931
47	0xbddd475d	-0.10804627
48	0xbe5bc085	-0.21460159
49	0xbdd4adcd	-0.10384712
50	0xbe881d5d	-0.26584902
51	0xbe422603	-0.18959813
52	0xbe7b779d	-0.24557348
53	0xbef3f2e0	-0.47646236
54	0xbd872cab	-0.066003166
55	0xbdc87b8a	-0.09789188
56	0xbe08e6da	-0.13369313
57	0x3e1cea65	0.1532379
58	0xbd017181	-0.031602386
59	0x3e02f1f3	0.12787609
60	0xbe9efacc	-0.31050718
61	0xbd0066e8	-0.03134814
62	0xbe565d52	-0.20934036
63	0x3ddeead0	0.10884631
64	0xbe5e0b1e	-0.21683928
65	0xbdcf0cbb	-0.1010985
66	0xbdd46199	-0.10370178
67	0xbe8cfba4	-0.27535737
68	0xbecbd454	-0.3981043
69	0xbbe1c8ad	-0.0068903775
70	0xbc3d4071	-0.011551009
71	0xbe14914c	-0.14508551
72	0xbe2c7f3f	-0.16845416
73	0xbe1d0471	-0.15333726
74	0xbd9ce03b	-0.07659956
75	0x3d79179c	0.06081353
76	0xbe08ad53	-0.13347368
77	0xbe9ed37c	-0.31020725
78	0xbe8e6666	-0.278125
79	0xbd4f8058	-0.050659508
80	0x3cecae7d	0.028891796
81	0xbd33d8dd	-0.04390799
82	0xbf057437	-0.52130455
83	0xbe372c52	-0.17888
84	0xbbf535da	-0.0074832262
85	0x3d138c30	0.036022365
86	0xbe5fb5f8	-0.2184676
87	0xbe152894	-0.1456626
88	0xbe20494b	-0.15652959
89	0xbdf3cf7a	-0.119048074
90	0xbe0924cb	-0.13392942
91	0xbd3e97cf	-0.046531495
92	0xbbf7d59d	-0.0075633065
93	0xbecfe649	-0.4060538
94	0xbd2acfce	-0.041702084
95	0xbe847879	-0.25873163
96	0x3d85de76	0.06536572
97	0xbb7ddebe	-0.00387375
98	0xbd0057ac	-0.03133361
99	0xbed232ea	-0.4105447
100	0xbe86466c	-0.26225603
101	0xbdc170e9	-0.09445364
102	0xbe9ce3a5	-0.3064243
103	0xbe2b1b3d	-0.1670961
104	0xbe709bb0	-0.2349689
105	0xbd3ec8a8	-0.04657808
106	0xbe3d309f	-0.18475579
107	0x3dd1acc2	0.10238029
108	0xbe23d6ad	-0.15999861
109	0xbe5d53d4	-0.21614009
110	0xbe62d15b	-0.22150175
111	0x3cccf035	0.025016883
112	0xbe788265	-0.24268492
113	0x3bff895e	0.007798358
114	0x3b77662f	0.0037750115
115	0xbeaea88f	-0.34112975
116	0xbec3e4d8	-0.3826053
117	0xbe0ca62d	-0.13735266
118	0xbd99b97c	-0.075060815
119	0xbda90ff3	-0.08254995
120	0x3c909b64	0.017652221
121	0xbeaa2b36	-0.33236092
122	0xbd931dd0	-0.07183421
123	0xbc865e40	-0.016402364
124	0xbe289838	-0.16464317
125	0xbea42e7e	-0.3206672
126	0x3d0300b8	0.031983107
127	0xbe5ded84	-0.21672636

a2c_network.actor_mlp.4.weight f4 [64, 128]
0	0x3c6baea9	0.014384904
1	0xbd2c4a65	-0.042063136
2	0x3dca4956	0.09877269
3	0xbd91cf9b	-0.07119676
4	0xbc7cdc1d	-0.0154333385
5	0x3d0df78c	0.034659907
6	0xbe2d3739	-0.16915597
7	0x3da1a421	0.07892633
8	0x3e9f35ee	0.31095833
9	0x3ece52e3	0.40297613
10	0x3d844fa8	0.06460506
11	0x3d16e661	0.0368408
12	0x3cf3d714	0.029765643
13	0x3c5f1a6e	0.013617141
14	0xbe3f3df7	-0.18675981
15	0x3d7c2031	0.061554138
16	0x3dd3f776	0.10349934
17	0xbdc20822	-0.094742075
18	0xbd067cd1	-0.032833878
19	0xbc5742fb	-0.013138528
20	0x3dcbdc58	0.099541366
21	0x3e4ed7e5	0.20199545
22	0x3e350e66	0.17681274
23	0xbdd6404f	-0.10461485
24	0x3da9e3b4	0.08295384
25	0xbdb07e6e	-0.086178645
26	0xbd40a33e	-0.04703068
27	0xbe1dbe2e	-0.15404579
28	0xbe508b22	-0.20365575
29	0xbe1ac374	-0.15113622
30	0xbdf3aac7	-0.118978076
31	0xbd5a74f1	-0.05333418
32	0xbc803f8f	-0.015655307
33	0x3d54944b	0.051899236
34	0xbe2ec3b4	-0.17066842
35	0x3e5b1a98	0.21396863
36	0xbe1b6799	-0.15176238
37	0xbe3031be	-0.17206475
38	0xbdda9b30	-0.10674131
39	0xbdafab8d	-0.085776426
40	0xbc884178	-0.01663278
41	0xbe4df27b	-0.2011203
42	0x3d1e8e38	0.03870985
43	0xbe033dfc	-0.12816614
44	0xbccffdd8	-0.025389597
45	0x3d71cbe5	0.05903234
46	0x3d2bae82	0.04191447
47	0x3db3bdf0	0.08776462
48	0xbc28de9b	-0.0103069795
49	0x3c905964	0.01762075
50	0x3e3bc5b4	0.18337137
51	0xbc306ac9	-0.010767647
52	0x3d5311cc	0.051530644
53	0x3e03fd7e	0.12889668
54	0xbe4937cf	-0.19650196
55	0xbeb1cdd4	-0.34727347
56	0x3d13ae87	0.036055114
57	0xbe44bc89	-0.19212545
58	0xbbfe1545	-0.0077540004
59	0xbdc8f16c	-0.098116726
60	0x3e02d1b3	0.12775306
61	0x3dab869f	0.08375286
62	0x3e80cd3a	0.25156575
63	0xbe22e002	-0.15905765
64	0x3de2dcc7	0.11077266
65	0x3c05bb4f	0.008162334
66	0x3d0cacb5	0.034344394
67	0xbc7fbad2	-0.015608506
68	0x3d0dbfb1	0.03460664
69	0xbca0d03e	-0.019630548
70	0x3e094652	0.13405731
71	0xbe566154	-0.20935565
72	0x3df8d362	0.12149693
73	0xbe1f978f	-0.15585159
74	0x3dc4dd0b	0.09612473
75	0x3da6bb43	0.08141186
76	0xbdbc2044	-0.09185842
77	0x3e1df44d	0.15425225
78	0x3d960ea2	0.0732701
79	0x3b5b27f8	0.0033440571
80	0xbe2da05b	-0.16955702
81	0xbd80c7c8	-0.06288105
82	0x3ca788ef	0.020451037
83	0xbdc7a262	-0.09747769
84	0xbe0c1114	-0.1367839
85	0xbd55b047	-0.052170064
86	0x3eb01ec3	0.3439847
87	0x3dd3cf15	0.10342232
88	0xbc879008	-0.016548172
89	0xbe3f6227	-0.18689786
90	0xbd222046	-0.03958156
91	0xbe720d79	-0.23637952
92	0x3d5d722b	0.054063957
93	0xbcb92f1b	-0.02260547
94	0x3e59ab8d	0.21256848
95	0xbbcf0da6	-0.0063187657
96	0xbd3bcf3f	-0.045851942
97	0xbdbb33e1	-0.091407545
98	0xbe1e6943	-0.15469842
99	0xbd1dbdce	-0.03851109
100	0x3d74d9c7	0.059778
101	0xbdf7b933	-0.12095871
102	0x3e79a533	0.24379425
103	0xbc584791	-0.0132006565
104	0xbd550d07	-0.052014377
105	0xbe463d13	-0.19359235
106	0xbd758dfd	-0.059949864
107	0x3bd90b1c	0.006623639
108	0xbd99b674	-0.07505503
109	0xbd3a0169	-0.0454115
110	0x3d1efda4	0.03881611
111	0xbd12b2e9	-0.035815153
112	0x3d3fcbaf	0.046825107
113	0xbe87a0e3	-0.26489934
114	0x3aad78dc	0.0013234871
115	0xbcd40cfb	-0.025885096
116	0xbd974bbb	-0.07387491
117	0xbd2087c1	-0.039191965
118	0x3e14bc14	0.14524871
119	0xbd92e8d4	-0.07173315
120	0xbe803ad5	-0.25044885
121	0x3dae4249	0.08508737
122	0xbe2d74d8	-0.16939104
123	0xbe8e2299	-0.2776077
124	0x3da09760	0.078413725
125	0x3d61d6f1	0.055136625
126	0x3e6ac032	0.22924879
127	0xbdfb0835	-0.12257425
128	0xbd81536f	-0.06314742
129	0x3d5b1a58	0.05349192
130	0x3e1ca518	0.15297353
131	0x3d69538d	0.056964446
132	0xbe23a3e8	-0.15980494
133	0xbdc4f18d	-0.09616385
134	0x3e1f08ad	0.15530653
135	0x3d038253	0.03210671
136	0x3e91d96c	0.28486192
137	0xbc21707e	-0.00985348
138	0x3e873c2b	0.26413092
139	0x3cf69962	0.030102435
140	0x3c25ea09	0.010126599
141	0x3df60a84	0.120137244
142	0xbd706f41	-0.05869985
143	0x3cb34e2b	0.02188786
144	0xbd51d679	-0.051229928
145	0x3dadfe34	0.08495751
146	0x3d901da1	0.07036901
147	0x3d974873	0.073868655
148	0x3dda32c2	0.106542125
149	0x3e5a8a75	0.2134188
150	0xbcdb8c07	-0.026800169
151	0x3c43b5dd	0.011945215
152	0xbcbf3721	-0.023341717
153	0xbca4e11c	-0.020126872
154	0x3e1c4ee3	0.15264468
155	0xbdbc692b	-0.09199747
156	0xbe0a3a8e	-0.134989
157	0x3c8fdc75	0.017561177
158	0xbe28c977	-0.16483103
159	0xbdc2805c	-0.09497139
160	0x3ddf87da	0.109145835
161	0x3e02bc43	0.12767129
162	0x3cddb731	0.027064892
163	0x3d56ab32	0.05240936
164	0x3e30a841	0.17251684
165	0xbe15d61d	-0.14632459
166	0x3d096cce	0.03355103
167	0xbd19adb2	-0.037519164
168	0xbe2e0ce4	-0.16997105
169	0xbd8b93da	-0.0681531
170	0x3e84e141	0.25953105
171	0x3da7d7b5	0.0819544
172	0x3d23801d	0.0399171
173	0x3d15feef	0.036620077
174	0x3e149961	0.14511634
175	0xbc9630d3	-0.018333828
176	0x3d2916a7	0.04128137
177	0x3cec9121	0.028877797
178	0x3d33924c	0.04384069
179	0x3dd31470	0.103066325
180	0x3d99551f	0.07486939
181	0x3e09c2d4	0.13453227
182	0xbe0a9c9b	-0.13536303
183	0xbdf3c422	-0.11902644
184	0xbe25cab6	-0.1619061
185	0xbc8ae9f3	-0.016957259
186	0x3d1e2dc5	0.038617868
187	0x3cb4ec5c	0.022085361
188	0x3e6da15d	0.23206086
189	0x3b938bf5	0.004502768
190	0x3e695ce4	0.22789341
191	0xbd1d25af	-0.038366016
192	0x3de2d467	0.11075669
193	0x3d11de18	0.035612196
194	0xbde04d2a	-0.10952218
195	0x3d5139b7	0.05108043
196	0x3dd69cbf	0.10479116
197	0x3d2ae42b	0.041721504
198	0x3d3feea9	0.046858463
199	0x3c457118	0.012050889
200	0x3dd262ac	0.102727264
201	0xbcbbe6df	-0.022937236
202	0x3d0cb63f	0.03435349
203	0x3e3f0017	0.18652378
204	0xbe5f3f61	-0.21801521
205	0x3e127428	0.14302123
206	0x3e3f1580	0.18660545
207	0x3bd4e80b	0.0064973882
208	0xbdb57454	-0.088600785
209	0xbd98fdb1	-0.07470263
210	0x3e3b1dfc	0.18273157
211	0xbe1aad29	-0.15105118
212	0xbe353047	-0.17694198
213	0x3d174c7e	0.036938183
214	0x3d6445b2	0.05573053
215	0x3d363f21	0.0444938
216	0x3dab7110	0.08371174
217	0xbdc72f81	-0.097258575
218	0xbd0650a3	-0.032791745
219	0xbd9d2c3a	-0.07674451
220	0xbd017bdf	-0.031612273
221	0x3c91a752	0.01777998
222	0x3c4d57c6	0.012533134
223	0xbd93cc74	-0.07216731
224	0xbe616aa3	-0.22013335
225	0xbac1efef	-0.0014796237
226	0xbb088e66	-0.002083683
227	0xbdcde90b	-0.10054215
228	0xbd50ebc0	-0.05100608
229	0xbd62391f	-0.055230256
230	0xbdabf90b	-0.083971106
231	0x3c9a8440	0.01886189
232	0xbce8225f	-0.028336702
233	0xbdb0686d	-0.08613668
234	0xbc46266f	-0.012094124
235	0xbdc4dd8e	-0.09612571
236	0x3e0d104d	0.1377575
237	0xbd8ac6a3	-0.06776168
238	0xbd4e63d3	-0.05038817
239	0xbc9ee320	-0.019395411
240	0x3dad0c09	0.08449561
241	0xbe4157df	-0.18881176
242	0xbd92cc4f	-0.07167875
243	0x3da7369c	0.08164713
244	0x3e08f967	0.1337639
245	0xbe102e55	-0.14080174
246	0xbcafc2b8	-0.021455154
247	0x3db11446	0.08646445
248	0xbdecdac3	-0.11565163
249	0xbd9c746b	-0.076393925
250	0xbcf99c08	-0.03046991
251	0x3e182d32	0.1486099
252	0xbc558c7e	-0.013033984
253	0x3dfecb6a	0.12441142
254	0x3e8b5d52	0.27219635
255	0x3d1d6501	0.038426403

a2c_network.actor_mlp.4.bias f4 [64]
0	0xbdd3e3bc	-0.10346171
1	0xbdcc1ed8	-0.099668205
2	0x3d90f8b6	0.07078688
3	0x3dcd8ce7	0.100366406
4	0xbdb76258	-0.089543045
5	0x3c9888db	0.018619945
6	0xbe146b53	-0.14494066
7	0xbdb44df8	-0.08803934
8	0xbd8d6a31	-0.0690502
9	0xbeca0eeb	-0.39464507
10	0xbda5eca1	-0.08101774
11	0xbe039ff0	-0.1285398
12	0xbdb2683c	-0.087112874
13	0xbcdc927b	-0.026925316
14	0xbea0fb0f	-0.31441543
15	0x3c880c69	0.01660748
16	0xbd2cd8b3	-0.042198848
17	0x3db8203b	0.089905225
18	0xbe5578d7	-0.20846878
19	0xbdd93715	-0.10606209
20	0x3df6dc03	0.12053683
21	0xbe25855a	-0.16164151
22	0xbd2efc31	-0.042720977
23	0x3b9a3397	0.004705857
24	0xbe2bca25	-0.16776331
25	0xbe62bedc	-0.2214312
26	0xbe5a1523	-0.21297126
27	0xbd3bfba1	-0.04589427
28	0xbdda0cdb	-0.10646983
29	0x3e262b84	0.16227537
30	0xbd5780ba	-0.052612998
31	0xbe7dc992	-0.24783924
32	0x3e38d5a0	0.18050241
33	0x3e15b6dd	0.14620538
34	0xbec5f4ee	-0.3866343
35	0xbe101d10	-0.14073586
36	0xbe0f604f	-0.14001583
37	0x3d640be3	0.0556754
38	0x3d7ccce8	0.06171885
39	0xbe5e6c51	-0.21721007
40	0x3d8b2fe4	0.06796244
41	0xbe2e697f	-0.17032431
42	0xbce95f85	-0.02848793
43	0xbe13a73f	-0.14419268
44	0x3d15d5ce	0.036580853
45	0xbe45aca9	-0.19304146
46	0xbd69e771	-0.057105485
47	0xbe1752c5	-0.14777668
48	0xbe345c69	-0.17613377
49	0xbc13bd19	-0.009017252
50	0xbe2cbd3e	-0.16869065
51	0xbeba3934	-0.36371768
52	0xbdf0201f	-0.117248766
53	0xbcb6f9e3	-0.022335952
54	0x3c86440e	0.016389873
55	0xbd5a7eda	-0.05334363
56	0xbc8754cf	-0.016519932
57	0xbeaccd79	-0.33750513
58	0x3c4c4089	0.012466558
59	0xbe24fc6d	-0.16111918
60	0xbe9903e1	-0.29885772
61	0xbe9f482d	-0.31109753
62	0xbf024d91	-0.50899607
63	0xbdd9f75e	-0.10642885

a2c_network.value.weight f4 [1, 64]
0	0x3cee3137	0.029076202
1	0x3e092bac	0.13395566
2	0x3bb48d4f	0.0055100094
3	0x3a7a8b45	0.0009557496
4	0x3b19bb68	0.002345765
5	0x3cbe21c6	0.023209464
6	0xbe83dd5d	-0.25754824
7	0xbd181bb5	-0.0371358
8	0xbc24358c	-0.010022532
9	0xbbcddbf5	-0.0062823244
10	0x3b555b5e	0.003255568
11	0x3d8d16ef	0.0688914
12	0xbc4fdd7b	-0.012687082
13	0x3b54b3c9	0.0032455793
14	0xba6cbbd4	-0.0009030674
15	0x3d855934	0.06511155
16	0x3f08894b	0.5333449
17	0xbb174572	-0.0023082164
18	0x3cc5213b	0.024063697
19	0x3c377dc2	0.011199417
20	0x3d164f35	0.03669663
21	0x3cbde8d4	0.02318231
22	0x3b9d1676	0.0047939373
23	0x3d0d4901	0.03449345
24	0xbbbd886b	-0.0057840846
25	0xb7a3cf2d	-1.9527588e-05
26	0xbc9c2591	-0.019060882
27	0xbe66b9d6	-0.22531828
28	0xb9893c5e	-0.00026175653
29	0x3ebcc1a7	0.36866495
30	0xbc7231fa	-0.014782423
31	0xbc5fd482	-0.013661506
32	0x3edb1187	0.4278681
33	0x3dd90e0d	0.10598383
34	0x3a95a720	0.0011417605
35	0xbb3c3717	-0.002871936
36	0xbf017565	-0.50569755
37	0x3c7cba5c	0.015425291
38	0x3a993803	0.0011689666
39	0xbc92e50b	-0.017931482
40	0x3c99472f	0.0187107
41	0x3b9591d1	0.004564502
42	0xbb466ceb	-0.0030277323
43	0x3be33533	0.006933832
44	0xbc866014	-0.016403235
45	0x3c9fec46	0.019521844
46	0xbcb39f69	-0.021926599
47	0xbe991417	-0.2989814
48	0x3d099cc7	0.03359678
49	0xbc3441c8	-0.011002012
50	0x3e7bd6d7	0.24593674
51	0xbc18f414	-0.0093355365
52	0xbc408f99	-0.011752986
53	0xbbc09857	-0.0058775353
54	0xbcc21338	-0.023690805
55	0x3ae3b8d3	0.0017373807
56	0x3b3c8e8b	0.0028771486
57	0x3d3453d5	0.04402526
58	0xbc8b630d	-0.017015005
59	0x3c1918c1	0.009344281
60	0x3ddafc72	0.10692681
61	0x3e0e77fe	0.13912961
62	0x3e0264eb	0.1273381
63	0xbb807de4	-0.0039212573

a2c_network.mu.weight f4 [12, 64]
0	0x3d80e537	0.06293719
1	0xbc0f2fbb	-0.008739407
2	0x3d9d7849	0.07688958
3	0xb9958f35	-0.00028526192
4	0xbe02ca00	-0.1277237
5	0x3e04f6b9	0.12984742
6	0xbd65137b	-0.05592678
7	0xbd88360b	-0.06650933
8	0x3c0a1fcc	0.0084304325
9	0x3bce65af	0.0062987427
10	0x3d6e94ae	0.05824726
11	0xbe2f2646	-0.17104444
12	0x3cbb7983	0.02288509
13	0x3d0e9d65	0.034818072
14	0x3be18daf	0.006883345
15	0x3d50701d	0.05088817
16	0x3bcebd94	0.0063092206
17	0xbe0a37b0	-0.13497806
18	0xbc5c3a10	-0.013441578
19	0xbe1f4440	-0.15553379
20	0x3e148fe0	0.14508009
21	0x3c250435	0.010071804
22	0x3dc03773	0.09385576
23	0xbd7265c3	-0.05917908
24	0xbd67953c	-0.056538805
25	0xbdf29cbc	-0.11846301
26	0x3e29113e	0.16510484
27	0xbdfcc6e9	-0.123426266
28	0x3c81dfcc	0.015853785
29	0x3ce523a7	0.027971102
30	0x3d080e76	0.033216916
31	0xbacc6309	-0.001559348
32	0x3bfa92a4	0.0076468755
33	0xbe1a2b73	-0.15055637
34	0xbc820251	-0.015870245
35	0x3bc09726	0.0058773933
36	0x3ca46176	0.020066004
37	0xbd26d11b	-0.040726762
38	0xbcc3af8c	-0.023887418
39	0x3d0e4fda	0.03474412
40	0x3ca23a74	0.019803263
41	0x3cffe77a	0.031238306
42	0xbde52a68	-0.11189729
43	0x3d544d60	0.051831603
44	0x3d4f5690	0.05061966
45	0xbd3fce7f	-0.04682779
46	0x3d6619ef	0.056177076
47	0x3d506dc1	0.05088592
48	0x3d7ac027	0.061218407
49	0xbe1b9639	-0.15194024
50	0x3bf0ea56	0.007352154
51	0x3e225653	0.15853243
52	0x3d7c0074	0.06152387
53	0xbb854538	-0.0040670894
54	0xbe8b1212	-0.27162224
55	0x3cfec513	0.031099832
56	0x3ca24a13	0.019810712
57	0xbdbedfd3	-0.09320035
58	0x3d8f6d5e	0.07003282
59	0x3cf75195	0.030190269
60	0xbdd8f8a3	-0.10594299
61	0xbd003eea	-0.03131
62	0xbde661b8	-0.11249107
63	0xbcd12cdc	-0.025534086
64	0x3cab2e73	0.020896172
65	0xbdfa0d89	-0.12209613
66	0x3e40d903	0.18832783
67	0x3b4d1287	0.003129156
68	0x3c3e50e8	0.011615969
69	0xbdb3189b	-0.087449275
70	0x3d8f6160	0.07000995
71	0x3dc9f706	0.09861569
72	0x3cb9c124	0.022675104
73	0xbd31dd4b	-0.043423932
74	0xbd17868c	-0.03699355
75	0xbc8717d2	-0.01649085
76	0x3d4b8738	0.0496895
77	0x3cd55071	0.026039334
78	0x3cb39475	0.021921376
79	0xbc0e32f5	-0.008679141
80	0xbd468901	-0.0484705
81	0xbd88a7e3	-0.06672647
82	0x3d77807e	0.060425274
83	0xbd5d279d	-0.053992856
84	0x3ddd3a31	0.10802115
85	0x3e2f0d36	0.17094883
86	0xbd2db16d	-0.042405535
87	0xbcb23821	-0.02175528
88	0x3cbb5e36	0.022872072
89	0x3d19a7d4	0.03751357
90	0xbd33c379	-0.04388759
91	0xbd9282cd	-0.071538545
92	0x3d3c0f7e	0.045913212
93	0xbe13816d	-0.14404841
94	0x3db733ca	0.08945425
95	0x3d4cb738	0.04997942
96	0xbd5ad915	-0.05342968
97	0x3da874ad	0.08225379
98	0xbdcba5f7	-0.09943765
99	0x3d1a0d01	0.037610058
100	0x3cae552a	0.021280844
101	0xbd828038	-0.06372112
102	0xbd808ae9	-0.06276495
103	0xbdfa57bc	-0.12223765
104	0xbdb44fc0	-0.088042736
105	0xbc836658	-0.016040012
106	0x3dadd7f3	0.08488455
107	0x3b50f231	0.0031882639
108	0xbdac054c	-0.08399448
109	0x3d951f21	0.07281328
110	0xbd739358	-0.05946669
111	0x3b0e1f78	0.0021686237
112	0x3ceba247	0.028763903
113	0xbdc4cc84	-0.09609321
114	0xbd792063	-0.060821902
115	0x3bfa1c70	0.0076327845
116	0xbdaefc3f	-0.08544206
117	0x3d46ed5f	0.04856622
118	0xbdf6a72b	-0.120436035
119	0x3e0374c7	0.12837516
120	0xbd26136d	-0.04054587
121	0x3bd2b30b	0.006430035
122	0xbb58dde1	-0.0033091235
123	0x3d8d6e77	0.06905835
124	0xbc6e28a0	-0.014536053
125	0x3d9b2253	0.07574906
126	0xbca89e43	-0.020583278
127	0x3d155970	0.036462247
128	0x3d7ac2a6	0.061220787
129	0xbd32ba83	-0.043634903
130	0xbcda8638	-0.026675329
131	0xbeb73d40	-0.35788918
132	0x3e07ec42	0.13273719
133	0x3deca45c	0.115547866
134	0xb98c4f59	-0.00026762
135	0x3ceb6910	0.028736621
136	0xbdd34ff2	-0.10317983
137	0x3dfc7ef2	0.123289004
138	0x3d5be70b	0.053687137
139	0xbc03996f	-0.008032187
140	0x3e369439	0.1782998
141	0x3d42a28d	0.0475183
142	0x3e22302e	0.15838692
143	0x3c9112ea	0.017709214
144	0x3b1c2c15	0.0023829986
145	0x3d18cde4	0.037305728
146	0x3d837b7a	0.06420036
147	0x3d8e532f	0.0694946
148	0xbe0f9b3c	-0.14024061
149	0x3da2ac41	0.07943011
150	0x3d59fb70	0.053218305
151	0xbe50493e	-0.2034044
152	0x3cae0190	0.02124098
153	0xbc590ba3	-0.013247403
154	0xbdd9024f	-0.105961435
155	0xbd21e63c	-0.03952621
156	0x3c995ac9	0.018720048
157	0xbdea3f19	-0.11437816
158	0x3d933ad2	0.071889535
159	0xbd6a80c3	-0.057251703
160	0x3a75bae1	0.00093738554
161	0x3dad754e	0.0846964
162	0x3d00718d	0.03135829
163	0xbc9ab7fe	-0.018886562
164	0x3cf881bc	0.0303353
165	0xbda559d7	-0.08073776
166	0xbdc0d34b	-0.09415301
167	0xbc80b916	-0.015713256
168	0xbdfa40c3	-0.122193836
169	0xbbfb0ffc	-0.0076618176
170	0x3ce769d9	0.028248714
171	0x3b3bdaa6	0.002866426
172	0x3d39cca0	0.04536116
173	0xbd202e47	-0.039106634
174	0xbdefe339	-0.11713261
175	0x3c795031	0.015216873
176	0xbd857ecb	-0.065183245
177	0x3b42544e	0.00296523
178	0x3e115df6	0.14196
179	0x3d9f3bcf	0.077750795
180	0x3e79a0d5	0.24377759
181	0x3d97d440	0.0741353
182	0x3d08b8b8	0.033379287
183	0xbdc99ba4	-0.09844139
184	0xb9b8eb7a	-0.0003527066
185	0x3d4d6820	0.05014813
186	0x3d87ebe6	0.06636791
187	0xbb90738f	-0.004408307
188	0x3c6bcaca	0.01439161
189	0x3ca4f2e3	0.020135349
190	0x3d80883b	0.06275984
191	0xbc73d86d	-0.014883143
192	0xbd9fac6c	-0.07796559
193	0x3d0593c9	0.032611642
194	0xbe160636	-0.14650807
195	0x3e025fb8	0.12731826
196	0x3d7ddd9d	0.061978925
197	0x3d26973d	0.040671576
198	0xbd58be4d	-0.05291586
199	0x3ce8a6b4	0.028399803
200	0x3d8ee224	0.06976727
201	0xbdb91731	-0.090376265
202	0x3d2a0c62	0.041515715
203	0x3d0a5268	0.033769995
204	0xbd88e3cd	-0.066840746
205	0xbd996019	-0.07489032
206	0xbb1cd320	-0.0023929551
207	0xbd33181a	-0.043724157
208	0x3d6a2c63	0.057171237
209	0x3dafb300	0.085790634
210	0x3cab8baa	0.02094062
211	0x3baf23a0	0.005344823
212	0x3ce5b2cf	0.028039364
213	0xbda97432	-0.082741156
214	0xbd270b80	-0.04078245
215	0x3d18047f	0.037113663
216	0xbe13469d	-0.14382406
217	0xbc421554	-0.011845905
218	0x3d8c4844	0.06849721
219	0x3d8a82c7	0.06763225
220	0x3d10cca2	0.035351403
221	0xbdc032be	-0.09384678
222	0xbc17ccc3	-0.009265128
223	0xbcc5d348	-0.024148598
224	0x392f5ae5	0.00016723161
225	0x3d35b898	0.044365495
226	0xbb255450	-0.0025227256
227	0x3d4536c2	0.048147924
228	0xbad25d20	-0.0016049482
229	0x3d117c8e	0.035519175
230	0xbde78901	-0.11305428
231	0xbaf4a829	-0.0018665838
232	0x3d687ca5	0.056759495
233	0xbe8ddf20	-0.27709293
234	0x3d8db626	0.06919508
235	0xbd98e6ed	-0.074659206
236	0x3cd22be6	0.025655698
237	0xbd0ffaa3	-0.035151135
238	0x3d724981	0.05915213
239	0xbd148336	-0.036257945
240	0xba68817f	-0.0008869394
241	0x3c3641f6	0.011124125
242	0xbc17b19d	-0.009258655
243	0xbcbe0baa	-0.023198921
244	0xbbf6f27a	-0.0075362297
245	0xbdf2b290	-0.11850464
246	0xbbb8980b	-0.0056333593
247	0xbe2cd454	-0.16877872
248	0xbc8ab1b8	-0.016930446
249	0xbe05315a	-0.13007107
250	0xbd4529a0	-0.0481354
251	0xbc11d451	-0.008900718
252	0xbdb15a3d	-0.0865979
253	0xbc10d83b	-0.008840616
254	0xbd432211	-0.04763991
255	0xbe487a74	-0.19577962

a2c_network.mu.bias f4 [12]
0	0x3bbb5900	0.0057173967
1	0xbd9580e7	-0.07299977
2	0xbdadc97e	-0.08485697
3	0x3e14c67e	0.14528844
4	0xbd7f912f	-0.062394317
5	0x3ba36fe4	0.0049877036
6	0x3e5ad5b2	0.21370581
7	0xbdcf2027	-0.101135544
8	0x3e08065e	0.13283679
9	0xbe375b00	-0.17905807
10	0xbe54b468	-0.20771945
11	0x3e590c95	0.21196206

exp_avg f4 [12]
0	0x3a710ffd	0.0009195803
1	0x3a51b05c	0.0007998997
2	0xba5b12d3	-0.0008356992
3	0xbb0e947e	-0.0021755989
4	0x3ad4c8bf	0.0016234143
5	0xbb1b818a	-0.0023728334
6	0xba5d2283	-0.00084356236
7	0xbabd9b6f	-0.0014465878
8	0xbad98b57	-0.0016597313
9	0x3a13a202	0.0005631746
10	0x3b5c0792	0.0033573848
11	0xba726b88	-0.0009247591

exp_avg_sq f4 [12]
0	0x37c1f65b	2.3122111e-05
1	0x37b9b5a8	2.2138309e-05
2	0x37cbc0ae	2.428921e-05
3	0x37a64a3e	1.9823314e-05
4	0x37b6da8a	2.1797856e-05
5	0x37c02239	2.290412e-05
6	0x37bb4d18	2.2328037e-05
7	0x37bb3703	2.2317754e-05
8	0x37bdcd2b	2.2626095e-05
9	0x37cb2cb8	2.422031e-05
10	0x37ac3e66	2.0533054e-05
11	0x37c245d7	2.3159124e-05
