OmniIsaacGymEnvs/omniisaacgymenvs/runs/Naranjelio/nn/last_Naranjelio_ep_5700_rew_6.6498847.pth (torch, 672807 bytes, 36 tensors)

value_mean_std.running_mean f8 [1]
000000 0a fe 05 29 db 20 e3 3f
       0.5977607537496976

value_mean_std.running_var f8 [1]
000000 92 bd ba 23 da 3a dc 3f
       0.44109204758839227

value_mean_std.count f8 []
000000 00 00 80 00 00 b3 c0 41
       560332801.0

running_mean_std.running_mean f8 [48]
000000 b8 86 01 a8 f5 f2 7e bf 8a b2 03 51 00 2b 74 bf
       -0.007555923075501951 -0.004923821674520776
000010 d4 71 a0 98 b3 41 a4 3f 86 26 dd 59 77 1e 59 bf
       0.03956376302832934 -0.0015331426179322773
000020 e1 57 ea 67 a9 a7 45 3f d0 24 14 b4 9a d6 44 3f
       0.0006608559777585532 0.0006359343898633355
000030 b4 b2 e7 dd 51 d8 c2 bf 2c 14 57 f0 d9 38 a5 bf
       -0.14722655616005442 -0.04144936617698422
000040 c2 f3 11 33 38 73 ee bf 2b b7 d0 6a d6 95 b2 3f
       -0.9515648839438813 0.0725988398341683
000050 22 48 2f c9 70 cf 5c 3f 1e c9 c8 94 0a 0a 68 bf
       0.001758442060908035 -0.002934475580581921
000060 b5 de e0 3f 57 c0 a0 bf 08 ce 28 32 96 29 cb 3f
       -0.03271744398847202 0.2122066254538455
000070 59 e6 16 23 aa 75 7c 3f 2f 76 97 1f 36 a2 b8 bf
       0.0069481512049890054 -0.0962251498344464
000080 91 a3 c8 ab 3a cf c5 bf d3 76 f9 d3 b4 58 e3 be
       -0.17038663280370916 -9.225134476039027e-06
000090 d5 02 4a 07 96 46 b7 3e 2f 2a b2 84 90 ca 01 40
       1.3873414249911268e-06 2.2239084593650413
0000a0 45 92 e2 13 6d f6 d9 3f d3 16 7b 8a 92 b2 8c 3f
       0.4056656545820128 0.014012474871729996
0000b0 d5 1d b9 0c a3 b2 03 c0 83 1c 9a 4f a7 a8 45 3f
       -2.4622250551217157 0.0006609742114997017
0000c0 8f 40 dd 2d 49 ca 06 bf c3 d2 b9 e9 66 71 27 3f
       -4.346881699624036e-05 0.00017885571729760714
0000d0 2d 82 4c a8 7e e7 23 bf 1f 86 8a 35 00 28 43 bf
       -0.00015185757742931916 -0.0005846024533477412
0000e0 de 1c 67 29 da 09 4a bf d4 dd 3d b8 d9 3b 51 bf
       -0.0007946315043278159 -0.0010518671196829603
0000f0 b4 a3 90 68 e2 12 6c 3f ef 3d 5c c3 71 05 76 3f
       0.003426973537461875 0.0053762859222525735
000100 7d ba 48 3f 3e 5b 66 bf 6c 1c 05 ae 85 7b 23 bf
       -0.002729055000848134 -0.00014863974412035756
000110 b0 ed 87 77 3a d4 79 bf 21 9a 92 9c 5c 4c 2d bf
       -0.006305912386319987 -0.00022352819931832724
000120 e1 c3 e9 d6 f8 25 eb 3f db 93 43 0d e3 45 b7 3f
       0.8483852574846616 0.09091013978793631
000130 31 57 45 2e 0a d8 95 3f 2f fe 99 11 e4 45 e7 bf
       0.021331938814305566 -0.7272816032199837
000140 39 49 8e 1a 2e 91 ae bf ee 92 5e ae 48 b1 d4 3f
       -0.059701386205363645 0.3233205511881313
000150 1b 7b 7f 7a cb 42 b5 3f 79 49 84 f2 56 e4 d0 bf
       0.08305045834229612 -0.2639367454841231
000160 0e 9b 88 8a ea 52 db bf a0 d4 93 d0 cf 5f 90 3f
       -0.42693580177949364 0.01599049292140775
000170 f3 5a c0 79 27 16 d2 bf 21 9e a5 59 5d f8 cc bf
       -0.2826021851519009 -0.22632948758403962

running_mean_std.running_var f8 [48]
000000 b7 28 70 b4 c1 0d 9c 3f 74 4d e0 e4 df c8 98 3f
       0.027396227491444516 0.024203775734418412
000010 fd cc 16 f2 d3 86 a7 3f 69 60 22 bc 12 15 71 3f
       0.04595053034008776 0.00417048757858405
000020 4b ab f4 60 53 a5 69 3f 51 1e 9d 8f af dd 43 3f
       0.003130591248596747 0.0006062609893228798
000030 3e b3 ec f2 4f c2 91 3f 4a 2d df b2 ed 86 9e 3f
       0.01734280510133889 0.02981158642050489
000040 89 bb 2c 77 33 8e 98 3f f2 f9 a3 06 9e 77 15 40
       0.02397995390782229 5.366813758619616
000050 83 d3 44 20 b8 5a f5 3f ca 58 dc a9 d3 fb 94 3f
       1.3346482525350616 0.02049189304587954
000060 3b 23 52 46 93 60 a6 3f bd 36 aa d0 82 b2 9a 3f
       0.043705561002815384 0.026071590410132062
000070 ff ee f0 2a 96 8b 19 3f 8f 90 59 4c 4c f9 a4 3f
       9.744743395939322e-05 0.040964493103076476
000080 cd f2 a2 2b a9 8e bd 3f eb 06 d6 2a f8 3b d6 3e
       0.11545808139176046 5.3010595996176315e-06
000090 a0 8f e5 12 4f d4 45 3e a1 55 90 d0 5a 1c fd 3f
       1.0165074640264915e-08 1.8194225451492019
0000a0 2d 6b dc 56 8e ce dc 3f 87 22 71 1a af 84 94 3f
       0.45010717852135224 0.0200373992813945
0000b0 43 18 c5 2c ec 3f 11 40 0c a1 9a 6c 1d d5 7d 3f
       4.312424373178206 0.007283320368209677
0000c0 cd 9d fa 74 75 5a 16 3f 0b ff 3a ef 5b 8a 1a 3f
       8.52712812454616e-05 0.00010124384044285174
0000d0 1b 17 e1 18 b8 44 e3 3e 25 ea ac a8 f7 3b f6 3e
       9.187905359319155e-06 2.1204230999697288e-05
0000e0 e8 32 09 7d 16 b4 fd 3e a3 90 68 4d 5c 52 f9 3e
       2.8327434679109332e-05 2.414867489099248e-05
0000f0 2c 6e c7 9d 82 aa 0b 3f e6 d1 5b 4e ae 8c 78 3f
       5.276881322277232e-05 0.005993538745077553
000100 d6 19 26 04 c3 92 1e 3f 57 fa 44 3b 35 0b 1b 3f
       0.000116627838940265 0.00010316383742734726
000110 83 7f 38 59 30 a3 1b 3f e6 ef 5d 69 2d 6e 2a 3f
       0.00010542852970063352 0.00020164779987996636
000120 9e 3e ff 4f c9 9f bf 3f 2e 26 c8 bb 5b 6b d7 3f
       0.12353189662030181 0.365927632694908
000130 9e 73 b1 5b 21 07 ec 3f 5a 82 ec 3b 40 12 d3 3f
       0.8758703986055598 0.2979889474100098
000140 20 de 14 36 be 64 ea 3f cc 96 d0 31 37 fe e7 3f
       0.824797731044729 0.7497821782059986
000150 6b 2c e2 18 70 98 e9 3f 17 8c 4e 35 6a 84 e5 3f
       0.7998581396108312 0.6724139252804687
000160 c5 93 23 0c 33 75 e6 3f e3 08 cd 11 b6 fe e8 3f
       0.7018065678681685 0.7810926768945844
000170 bb 53 97 69 a5 1f e9 3f cf 8e 42 b0 71 27 e9 3f
       0.7851130544973935 0.7860649530961953

running_mean_std.count f8 []
000000 00 00 00 01 00 b3 b0 41
       280166401.0

a2c_network.sigma f4 [12]
000000 f8 9c 03 c0 95 ec db bf 58 27 c6 bf 9c d8 ea bf
       -2.0564556 -1.7181574 -1.5480757 -1.8347354
000010 de f0 c7 bf ea c0 c0 bf c1 b1 d2 bf d1 af ca bf
       -1.5620382 -1.5058873 -1.6460496 -1.5834905
000020 21 c9 c7 bf 81 e7 ba bf 00 a9 cd bf 7c c7 c9 bf
       -1.5608255 -1.4601899 -1.60672 -1.5764003

a2c_network.actor_mlp.0.weight f4 [256, 48]
000000 02 67 ea 3b 68 d8 9d bb ed c3 b0 bd 83 ae 08 bc
       0.007153393 -0.0048170574 -0.0863112 -0.008342388
000010 d9 0f a5 bd 77 5e 70 3d 2f 0f 9e bd 9f 42 f2 3d
       -0.08059663 0.05868384 -0.0771774 0.11829113
000020 10 93 63 bd 15 cf c0 3d c4 b9 2e be 96 47 45 3e
       -0.05556017 0.09414498 -0.17063051 0.19265589
000030 3e e9 ba 3c f0 5f c6 3d 78 db 77 bd d8 7b 8e 3b
       0.022816297 0.096862674 -0.060512036 0.0043482594
000040 97 05 f1 3d 19 9f 81 3c fc 36 e5 bd b7 0a e7 3c
       0.11768644 0.015822934 -0.11192128 0.028203351
000050 44 8b 07 be 4b 26 ff bc 99 c7 e1 bb 50 cd e9 3d
       -0.1323672 -0.03114619 -0.006890249 0.114161134
000060 66 42 2a 3d f1 2b 1b 3e ae d9 46 3d 4d 04 4f 3d
       0.04156723 0.15153481 0.04854744 0.05054121
000070 5b cc 65 bd 28 e3 4f bc e5 02 15 3d 46 1b 2f be
       -0.05610309 -0.012688436 0.036379714 -0.17100248
000080 6b e3 71 bd 50 32 07 3c cf a6 12 3c 38 60 42 bd
       -0.059054773 0.0082517415 0.008950903 -0.047455043
000090 88 35 4a 3d 55 6c 8f bd f1 76 35 be a3 6f f8 bc
       0.049367458 -0.070030846 -0.17721154 -0.03032667
0000a0 df 04 7f 3d a3 46 2e 3d b5 3d 06 3e ec 14 b1 bc
       0.062260505 0.042547833 0.13109477 -0.021616422
0000b0 2f be 3a 3e db 5a 12 be 74 3a 8f bc 90 88 f9 bd
       0.18236612 -0.14292471 -0.017483927 -0.1218425
0000c0 de 10 87 bd df 39 23 3e 3b b3 82 3d 03 dd a5 bb
       -0.06595014 0.15940045 0.06381842 -0.005061747
0000d0 77 2f 4c 3d 97 92 9a 3d 11 83 77 be 70 2e 9e bd
       0.049849954 0.07547491 -0.24171092 -0.07723701
0000e0 52 31 1d 3e 32 9d 87 be bd 67 3c 3e a7 f9 a5 3e
       0.15350845 -0.26487118 0.18398948 0.32417032
0000f0 30 7f c4 3b 7e 53 bb 3d 89 7f 38 3d 08 4a 08 be
       0.0059966072 0.09146784 0.045043502 -0.1330949
000100 7a 38 dd 3d ab ff 34 bd dc 60 16 3e f7 95 22 3e
       0.10801788 -0.044189136 0.14685386 0.1587752
000110 34 e0 fe 3d 19 d8 2e 3e ed f5 a6 3d 06 ad 39 3e
       0.12445107 0.17074622 0.08152375 0.1813241
000120 a5 d7 02 bd 45 44 7b bd 0a 29 8b bd 79 aa 8b 3b
       -0.031943936 -0.061344404 -0.06794937 0.0042622653
000130 4a 69 02 3c 0c 4e 1f 3d 26 e6 88 bd e9 0d 94 3a
       0.007959673 0.03889279 -0.06684522 0.001129565
000140 fd 88 84 3c 68 8c e4 bd bf 13 c8 3a e6 d1 f7 bd
       0.016178602 -0.11159593 0.0015264674 -0.12100582
000150 a4 83 de 3b 5b 16 33 bd 78 aa 02 3b da b6 22 3e
       0.006790595 -0.04372249 0.0019938033 0.15890065
000160 b9 b9 bd 3d 0b 30 e2 bd 0f a5 19 bd 3e d4 f1 bd
       0.092639394 -0.1104432 -0.037510928 -0.1180806
000170 48 fb 97 3d 3b 61 2d 3e 29 f9 0d be 72 b5 9c 3d
       0.07420975 0.16931622 -0.13864578 0.076517954
000180 ed 60 71 bc 09 ba ea 3c 52 52 83 bd 92 2f 6b 3d
       -0.014732582 0.028653162 -0.06412186 0.057418413
000190 4e 4c e7 3b d0 37 85 3c fd 94 2c be ba 5f 26 bd
       0.007058657 0.016261965 -0.1685371 -0.040618636
0001a0 08 ff e1 bd 79 3e 5b 3e df 2e f7 bd 67 37 e8 be
       -0.110349715 0.2141055 -0.12069487 -0.4535477
0001b0 b0 89 ed 3d a6 dc 26 39 62 e0 f2 3c ee c9 d3 3d
       0.115985274 0.00015913192 0.02964801 0.103412494
0001c0 e9 91 f7 bd 9b 5b 45 3d 6b ec 60 be 24 13 8b bc
       -0.12088377 0.048183065 -0.21965186 -0.0169769
0001d0 b9 0e 37 3e 66 cf 18 3d 38 94 ac 3d b7 87 dd bd
       0.1787671 0.037307166 0.08426708 -0.10816901
0001e0 f9 24 b8 bd 3c 9e 2d 3d f4 d3 05 3d 09 44 12 3d
       -0.08991427 0.042387232 0.032672837 0.035709415
0001f0 f9 16 39 3b 46 d9 10 bc 00 bd 0d 3d 55 7d 8d 3d
       0.0028242453 -0.0088408645 0.034604073 0.06908671
000200 a2 20 ab 3d 9c 93 8a bc 7b cf 8e bc 1e 54 e7 3c
       0.083558336 -0.016916089 -0.017432919 0.028238352
000210 33 10 53 ba 77 c0 0c bc b3 2f e6 bd 51 58 9c 3d
       -0.0008051425 -0.008590809 -0.11239567 0.076340325
000220 60 a8 d2 bd 05 93 c4 3d 5e 47 f8 3d cc f4 64 bb
       -0.10286021 0.09598354 0.12122987 -0.003493595
000230 e0 94 bb 3c 8b 8e 16 bd 72 d7 6e bc 98 45 bc bc
       0.022898138 -0.036757033 -0.014577733 -0.022982404
000240 06 5c 37 3d f4 e8 1e 3d e0 a5 45 3e 60 5c 4f bd
       0.044765495 0.03879638 0.19301558 -0.050625205
000250 3d 0e ce 3d 3a 1c e1 3d a0 45 55 be ce e5 1b 3d
       0.100613095 0.10991712 -0.20827341 0.038060956
000260 4b be 24 3e 15 24 7a be de e4 02 3e 04 5c d5 3e
       0.16088216 -0.24427827 0.12782618 0.41671765
000270 c4 a1 5e 3d 62 ef 7a 3d 34 0e 13 3e 96 c5 45 be
       0.05435349 0.06126345 0.14360887 -0.19313654
000280 e0 83 1a 3e 41 c5 a1 bd f8 d1 1f 3d b8 00 86 3d
       0.15089369 -0.07898951 0.0390186 0.06543106
000290 33 ae 5e 3d 7c 35 55 3d eb 96 50 bc 8c e8 54 be
       0.054365348 0.05205296 -0.012731294 -0.20791835
0002a0 36 86 a9 3d ca fc d3 bd ee 15 af bd 67 da 97 3c
       0.08277552 -0.1035095 -0.08549105 0.01853676
0002b0 c2 9b f8 3d 33 85 10 3d c1 f5 81 bd cd 43 fa bd
       0.121390834 0.03528328 -0.06345702 -0.12219963
0002c0 eb 8c 99 3d 8e b5 8b 3e 5d 2f 6b 3c 50 83 97 3d
       0.07497581 0.27286953 0.014354554 0.07398093
0002d0 52 49 b7 bd 09 c8 bf bd 14 51 67 3d 7a 56 87 3d
       -0.089495316 -0.093643256 0.056473807 0.06608291
0002e0 e3 e3 ab 3d 59 28 70 3e 1a 2e c4 3d cb 8d be 3c
       0.08393075 0.23452891 0.09579106 0.023260972
0002f0 1d c1 10 be 0a f3 60 bd c2 18 53 be e2 ba 56 bd
       -0.14136167 -0.05491928 -0.20614913 -0.05242432
000300 23 3c 63 be f7 05 96 3d ee fb d8 bd ec 13 3e 3b
       -0.22190909 0.073253565 -0.10594927 0.0029003574
000310 ed 10 ff 3c cb 80 dd 3d 9e b1 b0 3d 4f 74 dc bd
       0.031136 0.10815581 0.08627628 -0.107643716
000320 1c 83 23 be 1b 98 4f be 8c 86 06 3e b7 09 20 be
       -0.15967983 -0.20272867 0.13137263 -0.15628706
000330 35 d9 06 3d 21 46 e7 3c 60 0e 94 bd 56 ad 43 3e
       0.03292199 0.028231682 -0.07229304 0.19109091
000340 ec e9 7e ba 2d df 39 3e 88 5b 6c be d0 63 b3 3a
       -0.0009724188 0.18151541 -0.23081791 0.0013686363
000350 0f 6b 95 3d 08 e4 48 bd 60 60 83 3d c4 00 91 bc
       0.072958104 -0.049045593 0.064148664 -0.01770056
000360 f5 97 b4 3d 6c 6d 14 bc f4 a7 1b 3d a5 b5 c1 3d
       0.08818046 -0.009059291 0.03800197 0.09458474
000370 af 2d 39 3d a2 2e 6e 3d 1d 1a 8d bc c3 7e 3c 3d
       0.045209583 0.05814994 -0.017224366 0.046019327
000380 49 50 69 bd f0 fa ea bd f0 2f 0e bc 77 21 16 3b
       -0.05696133 -0.11473644 -0.008678421 0.002290813
000390 8a 5d 87 3d 94 68 13 be 9c ea 5f bd d2 3f 07 be
       0.06609638 -0.14395362 -0.0546671 -0.1320794
0003a0 12 ae fe bd 38 c1 01 3e 95 86 36 3e 69 e3 47 3d
       -0.12435545 0.12671363 0.17824776 0.04880086
0003b0 e8 bc 02 3e 92 91 af bd 15 23 e9 3d b1 a4 dd 3d
       0.12767375 -0.08572687 0.113836445 0.10822428
0003c0 ec 9a 03 be 97 cb 41 3e 33 d6 b1 3d c6 db 5b bd
       -0.12852067 0.1892532 0.086834334 -0.05367639
0003d0 14 7d d1 bd a4 04 a7 3d 07 10 1d 3e 63 5e 0c 3e
       -0.10228935 0.08155182 0.15338145 0.1370788
0003e0 6a 2c ae bd a9 d0 49 be ad e7 46 be 83 aa 17 be
       -0.08504565 -0.19708504 -0.19424315 -0.14811139
0003f0 52 97 17 bd b9 50 0e bd b6 6e 9a bd 9e 99 2d bc
       -0.037009545 -0.034744952 -0.07540648 -0.010595707

a2c_network.actor_mlp.0.bias f4 [256]
000000 33 64 ba bd 95 84 a2 bd 1d 2e e2 3d 01 d2 92 3d
       -0.09101143 -0.07935444 0.11043952 0.07168961
000010 f4 0f 5b be 27 bf 77 3e 4c 98 87 3e 1b 10 06 be
       -0.21392804 0.24194013 0.2648338 -0.13092081
000020 e3 75 85 3d 8a 31 08 3e f2 ba 2f 3e 57 fb fa bd
       0.06516626 0.13300148 0.17161158 -0.122549705
000030 40 e3 9e 3c 18 86 4e be ad 26 cd bd fd d1 94 3e
       0.01939547 -0.2016834 -0.100171424 0.29066458
000040 79 e7 a0 3e 34 37 c3 bd eb af b9 be 57 0b b6 be
       0.314266 -0.095320135 -0.36267027 -0.35555527
000050 b4 6d 90 3e 73 11 80 3d d3 af 13 be 61 6b 67 bc
       0.28208697 0.06253328 -0.1442254 -0.014124722
000060 be 25 b0 bc 03 d6 8d 3e bd cb 04 3e 61 38 81 3c
       -0.021502372 0.2770234 0.12968345 0.015773954
000070 a0 43 a8 be 5a 1e ed 3b 26 2b 86 3e 5a ec 29 3c
       -0.32864094 0.007236284 0.26204795 0.010371292
000080 85 fa 3d 3d 12 3a 7b bc c7 ef 91 3e a8 a4 8f 3d
       0.046381492 -0.015333669 0.28503248 0.070138276
000090 8b 2d e0 bd 8d dc 51 3e 4b 73 7c 3d 5c 14 0e 3d
       -0.10946187 0.2049429 0.06163339 0.034687385
0000a0 5e be 7e bc 6f 6f 49 3e 14 04 b0 3e dd ee 66 be
       -0.015548317 0.19671415 0.3437811 -0.22552057
0000b0 0c c7 68 bd ad 24 fa 3d cc b3 0f bd a2 72 2f 3e
       -0.05683045 0.122140266 -0.035083577 0.17133573
0000c0 f1 71 64 3e 05 b1 31 3d 06 ff 4d 3e a0 c0 37 3e
       0.2230909 0.04338171 0.20116815 0.17944574
0000d0 92 13 e4 3d 87 ce 50 3d 15 cb 1b be 04 21 15 bd
       0.11136545 0.05097821 -0.15214188 -0.03640844
0000e0 a2 28 c7 3d 7a ce c9 3d 41 7c 82 be c0 78 fa bc
       0.09724547 0.098538354 -0.25485423 -0.030575156
0000f0 00 fc 38 be 93 c2 69 3e 1d 44 f9 3d 7d 8b 60 bb
       -0.1806488 0.2282813 0.12171195 -0.003426283
000100 aa f7 27 be 93 d0 e0 3d fc a3 58 bd 6d 17 26 be
       -0.1640307 0.109772824 -0.052890763 -0.16219874
000110 ee 10 c3 3d 0a 68 7b bc b3 39 e6 bc e7 d6 d8 3d
       0.095247135 -0.015344629 -0.028103685 0.10587864
000120 85 a0 6d bd bc ec 24 3e c6 cb 8e 3d 6f a4 f6 3d
       -0.05801441 0.16105932 0.069724604 0.12043082
000130 be c5 d7 3d 6b b9 18 3e 39 fc 50 bd 0d c5 64 bd
       0.10535763 0.14914481 -0.05102179 -0.055851985
000140 5b 0b 60 bc e7 6a f5 bd 0f c7 0a 3e b7 2e e7 bd
       -0.013674582 -0.11983281 0.13552497 -0.11288207
000150 08 59 09 3e cd ca ab 3e a2 5a 26 3e af 2f 7b bd
       0.13412869 0.33553162 0.16245511 -0.06132477
000160 d9 38 9e 3d 1b 19 17 be 7f a6 56 3e 22 86 8e 3e
       0.077256866 -0.1475567 0.2096195 0.2783671
000170 d2 91 a5 3e 86 ca ea bc 3d 9d ab 3d e4 ee 53 3e
       0.32337815 -0.028661024 0.083796 0.20696598
000180 c7 2f 3c be 46 bd 9d be 44 dd b2 be 2f 47 a1 3c
       -0.183776 -0.30808467 -0.34934437 0.019687263
000190 1f 7f 48 3e 8b 12 a0 bc aa 52 47 bd 6a 98 aa be
       0.19579743 -0.019540092 -0.04866282 -0.33319408
0001a0 0d 99 23 3e 63 02 30 3d b4 07 d1 3d c2 64 79 3d
       0.15976353 0.042971026 0.102065474 0.060887106
0001b0 7c ca e8 3d 3d 5a 05 3a 96 ef 7d be 94 30 c2 3d
       0.11366746 0.0005086994 -0.24798426 0.09481922
0001c0 bf b2 b6 3d e4 d6 92 3e 84 01 88 bc bb 95 98 be
       0.08920812 0.28679574 -0.016602285 -0.29801735
0001d0 78 41 54 be bd 24 88 bd 2f e8 21 3e 59 77 74 bd
       -0.207281 -0.06647632 0.15811227 -0.05968413
0001e0 c8 dc c4 3d ff 26 3d 3a 48 de 30 be d7 5c 61 3b
       0.09612423 0.00072155887 -0.17272294 0.0034387612
0001f0 c9 f8 65 3e e0 1c 54 bc f4 c1 27 3e 4e 3a b8 3d
       0.22458185 -0.012946337 0.16382581 0.08995496
000200 b1 39 4a 3c 9b 7e 57 3c a8 e9 4c 3c ba 1f 0c 3d
       0.012342856 0.013152744 0.01250688 0.034209944
000210 f1 67 a5 bd f5 8e 88 be 44 b0 50 be 6d ea 1c 3e
       -0.08076466 -0.26671568 -0.2037974 0.15323801
000220 2d ee 8e 3e ce c5 7d bd 02 6d 2b 3e 61 48 c6 3d
       0.2791609 -0.06195622 0.16740802 0.09681774
000230 ea 38 95 be 0f c6 67 be bd c9 03 3e 37 e2 e6 3d
       -0.29144984 -0.22634147 0.12869926 0.11273616
000240 14 51 97 bd 35 1f ed bd ef df 57 bd 07 b3 a4 3e
       -0.07388511 -0.11578218 -0.052703794 0.32167837
000250 a8 c4 8c be d9 92 0d 3e 5c 6d d0 bd 7c 8e 47 bd
       -0.27493787 0.13825549 -0.10177109 -0.048719868
000260 6a 3f 29 3e 62 93 cd 3d 9b a3 0d 3e 30 56 7b be
       0.16528097 0.10037877 0.13831942 -0.24544597
000270 80 2c e8 bd 53 a1 27 3e a0 fb e9 3d 7c 71 98 3d
       -0.11336613 0.16370134 0.11424947 0.074435204
000280 fd 43 2f be fa 35 40 3e 08 cb 97 be 6d 70 97 be
       -0.17115779 0.1877059 -0.29647088 -0.29577962
000290 b9 49 9d bd ca d5 96 bd dd 6c bb 3d 3f 22 81 3c
       -0.07680077 -0.07364996 0.091516234 0.0157634
0002a0 37 6a f6 bd a9 30 17 be 3e d5 55 3e 8f f1 10 be
       -0.120319776 -0.14764656 0.20882127 -0.14154647
0002b0 74 b0 af 3e 43 85 56 bd de b3 df 3d ae 96 2d bd
       0.3431431 -0.052373182 0.10922979 -0.042380027
0002c0 d6 24 34 bd 06 70 26 be 33 b1 14 3e c9 e6 e6 3c
       -0.043980442 -0.16253671 0.14520721 0.028186219
0002d0 2e 1e 4a 3e 70 94 70 3e 0b 18 80 be fa eb 5e 3e
       0.19738075 0.23494124 -0.25018343 0.21769705
0002e0 b4 10 11 3e cf 22 4e 3e 9a 12 03 3e d5 8f 40 3e
       0.14166528 0.20130466 0.12800065 0.18804868
0002f0 c3 b0 5a 3e a1 30 0c bd db ef 19 be bc 16 8f 3b
       0.21356492 -0.034226064 -0.15032904 0.004366724
000300 d3 62 12 be 61 d2 96 3e 81 72 b7 bd a7 9a 73 3e
       -0.14295511 0.2945738 -0.08957387 0.23789464
000310 df a0 1e 3e cf 32 c9 3b 78 12 b2 3e a6 58 58 3d
       0.15491055 0.00614009 0.34779716 0.052818917
000320 8d ea 71 3b ba d7 0b 3e 20 bc 88 3e ea 34 64 be
       0.0036913485 0.13656512 0.26706028 -0.2228581
000330 f8 df 6c 3a ec 57 ee 3d 18 d1 02 3e 61 10 3d 3e
       0.00090360595 0.116378635 0.12775075 0.1846328
000340 98 ba 1f 3e 52 d2 e1 bb 61 4d 45 3d f5 56 43 3d
       0.15598524 -0.006891527 0.048169497 0.04769035
000350 f7 0f 32 3e 30 23 5c bd 32 94 95 bd dd 15 27 3e
       0.17388903 -0.053744495 -0.07303657 0.16316934
000360 92 6a 00 3e f1 e3 0f 3e 0d 72 29 bd dd e6 ff 3c
       0.12540653 0.14051796 -0.041368533 0.031238014
000370 9e e3 c7 be 4f d9 c2 bd 21 1b 49 3e a7 a2 dd bc
       -0.39040846 -0.095141046 0.19639255 -0.027055098
000380 d0 8d 7c 3b 8c ac 2b 3e 1f e6 76 bd ce b7 6d be
       0.0038536675 0.1676504 -0.060278054 -0.23214647
000390 fd 0e ea 3d a9 e4 c1 bd e8 00 ad bd 34 a6 23 3e
       0.1142864 -0.094674416 -0.084474385 0.1598137
0003a0 ca 15 68 be 39 ab 74 3d 84 a3 19 3e 5b e5 d9 3c
       -0.22664562 0.059733603 0.15003783 0.026598623
0003b0 31 2e 39 be fb 3e 53 3e fa 2a 31 3e 21 22 83 3c
       -0.18084027 0.20629494 0.1730155 0.016007485
0003c0 83 47 58 3e 6e ea 74 3e b0 e2 da 3d 1a d1 4e be
       0.2112103 0.23917553 0.106877685 -0.20196953
0003d0 61 2a c2 3c 78 bc 4b 3e 72 0f 0b 3e 2b 9d b2 3e
       0.023701848 0.19896114 0.1358011 0.34885535
0003e0 9d ce 54 3d 4d e6 a0 3d df 4f a3 bd 0a ed cd 3c
       0.051954854 0.078564264 -0.079742186 0.025137443
0003f0 85 7a f2 3d 60 46 86 3e 96 60 47 3e 38 f7 e7 3b
       0.11839775 0.26225567 0.19470438 0.0070790313

a2c_network.actor_mlp.2.weight f4 [128, 256]
000000 73 c6 23 bd f8 ba 45 3e 7f e4 01 be c6 9d d9 3d
       -0.039984178 0.19309604 -0.1268482 0.10625796
000010 4e 1a 43 bd 71 f3 dc 3b bf 23 2c be 21 f9 fc bd
       -0.047632508 0.0067428877 -0.16810511 -0.12352205
000020 6f f9 bb bd d0 b3 a1 3c 7e c5 73 3c ab a3 25 bc
       -0.09178435 0.019739062 0.014878629 -0.010109822
000030 b4 a2 98 3d 3e 2c 0e 3d 60 87 88 3d 35 2a 14 3d
       0.07452908 0.03471016 0.06666446 0.036173064
000040 62 6b 58 bd 02 ae b3 3d 3e cb 7e 3d c9 32 de 3d
       -0.052836783 0.08773424 0.062205546 0.1084953
000050 d9 17 28 be 8f 2d b6 bd 50 10 3b 3d bf 04 5d 3d
       -0.16415347 -0.08895408 0.045669854 0.053959604
000060 65 28 15 3e 10 1f 1a bc 54 c1 c8 3b 97 1a bf 3d
       0.1456619 -0.00940682 0.006126562 0.093312435
000070 a4 64 f7 bc f4 4b bd bc 73 cd c1 bd 80 e9 91 3d
       -0.030199356 -0.023107506 -0.094630145 0.07124615
000080 22 76 f7 3d bf 5e 76 3c 88 8a 5b 3d 2e df 53 bd
       0.12083079 0.015037238 0.05359891 -0.051726513
000090 9a c1 e1 3b e4 91 1e be eb 40 22 3e 76 17 16 3b
       0.006889534 -0.1548534 0.15845077 0.0022902167
0000a0 8e f7 d1 3d 8c 91 3a bd 9d e4 ba 3c 1b 25 ae bd
       0.102522954 -0.04554896 0.02281409 -0.08503171
0000b0 87 ad 43 3c af 6d 23 bd c4 ff e4 bd 84 01 88 3c
       0.011943228 -0.039899524 -0.11181596 0.016602285
0000c0 f7 f6 c1 3d 0f fa 0c 3d be c6 4f be 84 60 93 bd
       0.09470933 0.034418162 -0.20290658 -0.07196143
0000d0 9c 9d 06 bd de 01 98 bd 6f 95 3e 3d 3b 91 ca 3d
       -0.03286515 -0.07422231 0.04652923 0.09890982
0000e0 76 a6 b8 bd 78 25 b6 3d 0a ff 18 3d 84 a4 00 3e
       -0.09016125 0.08893865 0.0373526 0.12562758
0000f0 88 b2 a4 bc 12 86 21 bd 12 fa e8 3c 24 39 2d 3e
       -0.020104662 -0.0394345 0.028439555 0.16916329
000100 b0 6b 30 3d 3b 3e 74 bd 13 80 d2 bd dd f2 21 be
       0.04307145 -0.05962966 -0.102783345 -0.15815301
000110 79 5e ef 3b b1 05 e1 bd 86 44 20 be 12 8d d4 bd
       0.007304963 -0.10987414 -0.1565114 -0.103784695
000120 aa 0a 59 bd 31 ae b5 bd 6a 2e a9 3d e4 10 d5 bd
       -0.052988686 -0.08871115 0.08260806 -0.10403612
000130 00 d9 ff bd 99 62 3e be 1e 39 f2 bc c1 5b 04 be
       -0.12492561 -0.185923 -0.029568251 -0.12925626
000140 49 c3 5d bd fc 2e 56 39 63 25 e2 3d 8d 20 a8 3c
       -0.054141317 0.00020426133 0.11042287 0.020523334
000150 24 cc f5 bd 4a 78 06 be 62 90 ce bd ae 16 0a 3e
       -0.12001827 -0.13131824 -0.100861326 0.13485214
000160 d3 5c 25 3c 09 2a 77 3a 50 8b 46 bd c2 31 87 bc
       0.010092932 0.0009428566 -0.048472703 -0.016503219
000170 f7 03 97 3d ec 5e 3a 3d c3 b6 e2 3c 21 e7 9b 3d
       0.07373803 0.04550068 0.027675038 0.07612444
000180 58 cb fb bc 00 cb de bd c4 2d 0e 3d ff 02 31 3e
       -0.03073661 -0.10878563 0.034711614 0.17286299
000190 78 5b 86 bc a8 84 31 3d 81 63 52 3d ab e8 10 3d
       -0.016401038 0.0433394 0.051364426 0.03537814
0001a0 94 cd d6 bc b7 a3 57 bd 25 68 c7 3b a7 1b 17 be
       -0.026221074 -0.052646365 0.006085413 -0.14756642
0001b0 db db ef bd ff d5 fd bb 44 a6 fd bc e3 92 b6 3d
       -0.11711856 -0.0077464576 -0.03096307 0.08914735
0001c0 12 f4 24 3d 9e 6f 9a 3d 1a 15 02 be 88 26 8b 3d
       0.040271826 0.075408205 -0.12703362 0.06794459
0001d0 a3 f9 a0 bd 60 4e 87 bc 69 ee 94 bc c0 7c b0 bd
       -0.078601144 -0.016516864 -0.01818009 -0.08617544
0001e0 08 c6 eb bd 60 96 b2 3c 7b 66 ad 3d e1 d9 fd bb
       -0.11512381 0.02180022 0.08466812 -0.0077469205
0001f0 07 c1 70 bd 1e 11 74 3c cf 0c 0d bb fa 06 8a 3d
       -0.058777835 0.014896659 -0.0021522527 0.06739612
000200 43 ee 78 bc 2a ac 6a bc 29 44 2b bc 86 00 de 3c
       -0.015193525 -0.014323274 -0.010453262 0.027099859
000210 be 10 bc bd 6d ec da 3d e7 4b a9 3b 92 81 03 bc
       -0.09182881 0.10689626 0.005166519 -0.008026497
000220 6f 17 05 be 51 48 7d bd 47 86 49 3d 49 8c d1 bb
       -0.1299722 -0.061836544 0.049200322 -0.006394897
000230 6b 3c 8f 3c 76 11 9c bd f4 8e dd bd 8b 48 15 be
       0.017484864 -0.07620518 -0.10818282 -0.14578454
000240 4b 7e e8 3b b3 1e 53 bd f2 9a 80 bc 51 f1 c1 bd
       0.0070951334 -0.05154295 -0.015698884 -0.094698556
000250 da c6 89 3d 10 48 e4 bd 90 30 fa 3d 79 bd a5 bd
       0.06727381 -0.11146557 0.12216294 -0.0809278
000260 77 94 0f bc 17 07 9a bb 73 32 cd bd 2f 49 1b 3d
       -0.008763424 -0.004700552 -0.10019388 0.03791159
000270 b9 bc b5 3d 16 76 d1 3c d8 c3 bb bd 64 9c 0e bd
       0.088738866 0.025569003 -0.091682136 -0.034817114
000280 d7 a7 4a bc ea 01 23 be d2 c1 1a 3d c2 62 8e 3b
       -0.012369118 -0.15918699 0.037782498 0.004345269
000290 bc 1d 3c 3b aa dc 99 bd fe 71 bc bb 51 bd 5e bd
       0.0028704247 -0.075127915 -0.0057508936 -0.054379765
0002a0 5b c5 dc 3c 86 2d bc 3c d5 ed 0d be a0 c0 29 3e
       0.026949575 0.022970926 -0.13860257 0.16577387
0002b0 1c d2 d8 bd c7 5f 75 bd 0e e6 6f 3c 86 24 83 bd
       -0.1058695 -0.059905794 0.014642252 -0.06403451
0002c0 e3 c1 94 3d 6d 30 1c be 32 f7 b2 bc 16 78 94 3d
       0.072635435 -0.15252848 -0.021846388 0.07249467
0002d0 f0 7f 3c bd 97 d6 1a 3c 4c 9a 93 3b 19 3e fe bd
       -0.04602045 0.009450576 0.0045044776 -0.12414188
0002e0 7a e2 26 bc 7f 5c 2d bd a9 83 b2 3d 34 dc 54 bd
       -0.010185832 -0.04232454 0.087165184 -0.051967815
0002f0 46 95 22 3d eb 4e cd bd b6 2a 16 3e 0a 9f 3a 3d
       0.03969314 -0.10024818 0.1466473 0.045561828
000300 c1 23 b1 bc 76 7f 00 3d d1 c7 75 3d e1 5b b6 3c
       -0.021623494 0.031371556 0.060005013 0.022260608
000310 0b 19 db bd e8 46 97 bd cd f8 23 be 24 02 90 3d
       -0.10698136 -0.07386571 -0.16012879 0.07031658
000320 58 71 d8 3d 6c e3 5d bd f4 42 ff bc 73 b6 c0 bd
       0.105684936 -0.054171965 -0.031159855 -0.094097994
000330 cd da 82 bd 94 36 2f 3e ff 1b e5 bd a2 09 10 bc
       -0.06389389 0.17110664 -0.111869805 -0.008791359
000340 8e 3c 02 3d cf 03 f8 3c 70 56 a9 3d 2d 99 01 be
       0.03179603 0.030275254 0.0826844 -0.12656088
000350 0b 82 e3 bd a1 ad 5f 3d 76 b3 95 bd 69 0b 6e be
       -0.11108788 0.054608945 -0.0730962 -0.2324654
000360 62 86 ff bd b4 28 d6 3d 9b ca 04 3c 92 b7 5c 3d
       -0.12476803 0.10456982 0.0081049455 0.053886004
000370 c6 10 e8 3d 7d d5 19 3b b8 26 a7 3d 2a 4b a4 bc
       0.11331324 0.0023473196 0.08161682 -0.020055372
000380 e5 f6 a8 3b 2a 27 59 bd 49 29 9b 3d 01 67 52 3d
       0.0051563852 -0.053015865 0.07576234 0.051367763
000390 92 37 33 3d 58 65 e4 bd b0 a0 f0 3d e1 a7 76 bd
       0.043754168 -0.11152142 0.11749399 -0.060218696
0003a0 78 21 84 3b f3 04 18 3e fb 6e 2d 3d b8 9e d9 3d
       0.00403231 0.14845638 0.042342167 0.10625976
0003b0 32 4e c9 3d fe 08 9b 38 d1 18 6d 3d fc 57 06 3d
       0.09829368 7.392651e-05 0.057884995 0.032798752
0003c0 4c 74 46 bd 05 a3 19 bd 84 25 75 bd 1b 01 c9 bc
       -0.048450753 -0.037508983 -0.05985023 -0.02453666
0003d0 dc 38 e7 3d ff a1 e4 bc 7b d4 9a 3d cc 20 9c bd
       0.11290142 -0.027909277 0.07560059 -0.07623443
0003e0 77 22 be bd 9f 2d 87 3d 0f 21 85 bd a5 e7 48 bd
       -0.092839174 0.066004984 -0.06500446 -0.04904904
0003f0 b9 6c 18 be fe 20 c2 3c c5 33 15 3d e7 8f 24 3e
       -0.14885224 0.023697373 0.036426324 0.1607052

a2c_network.actor_mlp.2.bias f4 [128]
000000 89 bd c7 bd 4e 51 61 bc 96 4b 45 be 13 96 61 be
       -0.09752948 -0.013752295 -0.19267115 -0.22029905
000010 76 58 33 3d 6d 75 95 be 89 6c 1e be a5 51 c5 bd
       0.043785535 -0.2919115 -0.1547109 -0.09634713
000020 51 06 76 be b1 74 88 be 25 92 03 be 25 b6 90 bd
       -0.24025847 -0.26651528 -0.12848718 -0.07065991
000030 81 49 8c bd 62 4a 3e 3c 3e b7 95 bd 1e 34 13 be
       -0.06849957 0.011614414 -0.07310341 -0.1437535
000040 cd 90 9f bd 46 1b b5 3a e4 3f c2 bb ce 31 15 be
       -0.077912904 0.0013817332 -0.0059280265 -0.1456978
000050 da ff bf bd f3 ec a0 be d9 16 01 be d3 9d 4a bb
       -0.09374972 -0.31430778 -0.12606372 -0.0030916824
000060 b5 8e f7 bd c0 86 99 be cd 6f 5e be 5a 05 a1 bd
       -0.12087766 -0.2998562 -0.21722336 -0.07862349
000070 5a 5e ea bd d3 5a 72 bd 13 47 7f bd fd c0 a7 bd
       -0.114437774 -0.059168648 -0.06232364 -0.081911065
000080 8f cc 47 be a1 fc 9a bd 10 26 23 be 8b 45 8b bd
       -0.19511627 -0.075677164 -0.15932488 -0.06800374
000090 6b b6 8a bd 4c cf ae bd 4c 85 27 bd 17 52 82 be
       -0.06773075 -0.085356325 -0.040898606 -0.25453255
0000a0 37 4c f1 ba 1c 26 41 3e e7 ff a6 be 7d 29 19 bc
       -0.0018409555 0.18862194 -0.32617113 -0.0093482705
0000b0 d7 e6 82 be fd 67 62 bd bb 8d 9d 3d d1 2c 74 be
       -0.25566742 -0.055274952 0.076930486 -0.23845221
0000c0 7e 59 20 bd ad 7a df bb a2 56 7e be d5 42 fc bc
       -0.039147846 -0.006820044 -0.24837735 -0.030793587
0000d0 89 8b 53 be 32 e9 62 bd bd f8 01 3c 87 73 9b 3d
       -0.20658697 -0.055398174 0.007932839 0.075903945
0000e0 b3 a0 a0 3d 67 35 b8 bc 17 ff 32 bc c5 80 f0 bd
       0.07843151 -0.022486402 -0.010925076 -0.11743311
0000f0 f9 ca ba bd 5e 41 7b be 11 3c 39 3b 34 d9 8c 3c
       -0.09120745 -0.24536654 0.0028264562 0.017193414
000100 28 c9 ba ba dc fb 48 3e 92 6d 54 be ea e5 4d be
       -0.0014250623 0.19627327 -0.20744923 -0.20107237
000110 10 bc ff 3b 0d f6 a5 bb 59 22 79 be 99 5e 07 3e
       0.007804401 -0.005064732 -0.24329509 0.1321968
000120 71 6f 88 bd 9c e9 9e bd 81 00 13 be d6 bb 05 3e
       -0.06661881 -0.07759401 -0.14355661 0.13059935
000130 d1 c4 5a be 8f c7 63 be 5b a6 ed bd 91 bb e8 3c
       -0.21364142 -0.22244094 -0.116039954 0.028409751
000140 6c f3 8b be 45 a4 9c bc ed b3 18 3e 07 0b 51 3d
       -0.27334154 -0.019121299 0.14912386 0.051035907
000150 ff 15 a5 3d af 85 a3 3c 63 a0 8b be ad 79 a4 be
       0.08060836 0.019961206 -0.27270803 -0.3212408
000160 a2 2f 19 3d 89 d1 05 bb 5b 34 c7 3d e3 61 ba 3d
       0.03739894 -0.0020419082 0.09726783 0.09100702
000170 12 4e 48 bd 6d 26 a9 bd ff 99 eb 3c 58 5e f0 bd
       -0.04890258 -0.08259282 0.028759954 -0.11736745
000180 19 1b 94 39 01 32 01 3c 6d 61 72 3c 16 11 47 be
       0.0002824895 0.007885457 0.014793736 -0.19440112
000190 29 93 0f 3e 94 00 15 bd ac 5d 50 bd d0 dc 9a bd
       0.14020981 -0.036377504 -0.050870582 -0.07561648
0001a0 c0 90 60 bd af 7a 81 bb 07 33 fe bc b3 c6 c5 3d
       -0.054825544 -0.0039513926 -0.031030191 0.096570395
0001b0 ff 7f 2b be d3 dc 6e 3d 2a 37 e5 bd fe 6f 8d be
       -0.16748045 0.058316063 -0.11192162 -0.27624506
0001c0 c4 cb fc bb 17 92 b2 3d 95 fe fa bd ff 34 2d be
       -0.0077147204 0.08719271 -0.12255589 -0.16914748
0001d0 94 fa 34 be 2b 45 25 3a c6 a9 a9 3d 9a 79 ed bc
       -0.17673713 0.00063045573 0.08284335 -0.028988648
0001e0 b7 bc 8b bc fc b3 21 3d 27 35 72 3c 76 2f 7b be
       -0.01705776 0.039478287 0.01478318 -0.24529824
0001f0 ea ad 83 3d cf ed 37 be 98 b8 5a be af 18 22 3d
       0.06429656 -0.1796181 -0.2135948 0.03957432

a2c_network.actor_mlp.4.weight f4 [64, 128]
000000 2f 9b f6 bc 7a db bf 3d 80 fe 64 3c 12 47 8f bd
       -0.030103294 0.09368034 0.013976693 -0.069959775
000010 57 2d 05 3d f1 57 d3 3d 6c 2e cf bb 5c 78 ad bd
       0.032513943 0.10319508 -0.0063226726 -0.08470222
000020 4d 5c 3c 3e b1 db 63 3d f7 6b 85 be a3 c2 c7 3c
       0.18394585 0.055629436 -0.26058933 0.024384802
000030 a9 6f 20 3e cc 93 e5 3c d9 4e 6a bd 2b e3 3b bb
       0.15667595 0.028024577 -0.0572041 -0.0028669338
000040 1d 75 c9 3d 5e 47 e4 bd 57 ef 57 bd 73 e2 92 3d
       0.09836791 -0.11146425 -0.052718487 0.07172098
000050 a5 ea 48 b9 64 f7 64 3e 43 22 2e 3d a3 10 2d bb
       -0.00019160898 0.22359997 0.042513143 -0.0026407621
000060 9c 56 b8 bd bb 21 48 be 67 5b 8f 3c a0 55 b3 bd
       -0.090008944 -0.19544117 0.017499639 -0.08756566
000070 95 fa 97 bd 7a 42 ef bd 41 1f 93 bd 6e 1f 07 3d
       -0.074208416 -0.11682601 -0.071836956 0.032988958
000080 68 d3 93 3b 47 ec b7 bd 00 82 11 3d b3 d1 c5 3d
       0.0045112856 -0.08980613 0.03552437 0.096591376
000090 62 c2 90 3d f2 2e 60 bd 96 ad b6 3d bf 97 f4 bd
       0.070683256 -0.05473227 0.08919828 -0.11943006
0000a0 53 bc 23 bd b8 14 d2 bc ce e7 0f bc b4 98 c1 bd
       -0.03997452 -0.025644645 -0.008783294 -0.09452954
0000b0 97 a2 27 be 7f aa b2 bd 2b 13 f8 3c fa e2 11 be
       -0.16370617 -0.08723926 0.030282577 -0.14246741
0000c0 59 dd 03 be 4c 7d 39 bd ff b2 5d 3d 52 e2 6d 3d
       -0.12877406 -0.045285508 0.054125782 0.058077164
0000d0 0c b9 af bd 67 61 01 3d ad d8 b6 bd 72 7e e9 bd
       -0.08580217 0.03158703 -0.089280464 -0.11401071
0000e0 5d ee cd bd 82 ef 95 bc 55 c3 97 bb 67 6b 01 bc
       -0.1005523 -0.018302683 -0.0046314397 -0.007899142
0000f0 d0 23 3b 3d ae be 4f 3d 87 2d e1 3d 2e 30 b8 bb
       0.04568845 0.050718956 0.10995012 -0.005620978
000100 43 96 df bd f2 ac 82 be 20 84 79 bd 66 fa f4 3d
       -0.10917332 -0.25522572 -0.06091702 0.11961822
000110 42 06 41 be 8b 0a 7b be 96 3c d2 3d 97 6c 40 bd
       -0.18850043 -0.2451574 0.10265462 -0.04697856
000120 a6 fa 31 bd 44 57 20 3e c3 39 c3 bc b2 d5 bc bd
       -0.043451928 0.15658289 -0.023831254 -0.09220447
000130 93 ee 98 3c 94 39 8e 3d d6 aa 1c 3e 41 85 12 3d
       0.018668449 0.06944576 0.15299544 0.035771612
000140 5f 70 81 3d d4 de 46 be 9c 53 50 be c1 ab 3b be
       0.06320261 -0.1942094 -0.20344394 -0.18327238
000150 66 33 09 be 18 33 88 bc 82 d2 90 3c d4 8a 8a 3d
       -0.13398513 -0.016625926 0.017678503 0.067647606
000160 23 64 5e 3d 84 8f 31 be a5 e5 cd 3c c2 6d bb bd
       0.054294717 -0.17339903 0.025133917 -0.09151794
000170 e7 58 31 3e b6 50 6b 3d 98 b3 d4 3d 9c 9c a7 3d
       0.1731907 0.05745002 0.10385817 0.08184168
000180 d4 85 8d 3d 5f 24 94 bd a8 c0 e2 bd 06 7f 39 be
       0.06910291 -0.072335 -0.110719025 -0.18114862
000190 28 fb 2a bd c7 b9 8d bd 51 f1 b7 bd 51 de ff bb
       -0.041743428 -0.069202 -0.08981574 -0.0078084846
0001a0 2e 9d 47 bd 7c ff 35 be 71 60 eb bb b2 5c cd bc
       -0.048733883 -0.17773241 -0.0071831276 -0.025068615
0001b0 bc ca 90 3d f2 55 0c be 22 87 34 3d 6f f1 18 3d
       0.070699185 -0.1370466 0.044074185 0.037339624
0001c0 f0 e7 02 3d 4d 4b 1e bd 97 05 1e be 1a db c6 bd
       0.031959474 -0.03864603 -0.1543182 -0.09709759
0001d0 ea 34 51 3d 2d 3d 30 bd ef 75 96 3b fc 9f 6c bd
       0.051075853 -0.04302709 0.0045916955 -0.05776976
0001e0 d4 31 15 bd 45 eb 43 bd 83 8b 4c bd f1 62 85 3d
       -0.036424473 -0.047831792 -0.049937736 0.06513012
0001f0 01 e6 32 be 87 a0 0e 3d 94 c6 bd 3d ed 31 4c be
       -0.17470552 0.03482106 0.092663914 -0.1994092
000200 32 41 19 bc a9 94 af 3c c1 20 ec bc 2e 66 9b 3c
       -0.009353923 0.021433191 -0.028824212 0.018969622
000210 42 83 1d 3c e3 ef f6 bd 1d 96 e4 3c ff 47 11 bd
       0.009613814 -0.120574735 0.02790361 -0.03546905
000220 23 c1 f3 ba 5a 0e ce bd fb 01 0e 3d 9b ca a9 bd
       -0.0018596988 -0.10061331 0.034669857 -0.08290597
000230 9f e7 c9 3c 9c 2c 99 3c 2c 5c 75 bd 5d be a3 bd
       0.024646578 0.01869803 -0.059902355 -0.07995293
000240 53 82 7d 3a 6d 4d 42 bd a8 f0 2f bc 34 ff ff 3a
       0.0009670604 -0.04743712 -0.010738529 0.0019531013
000250 35 2a 80 3d fc c4 b5 bd 71 96 18 be e5 9d e0 bc
       0.0625805 -0.088754624 -0.14901139 -0.02741904
000260 b4 34 cc 3d 43 ba 44 bd aa c2 a7 3d 9d 8c f1 bd
       0.0997099 -0.048029196 0.08191426 -0.11794398
000270 0a 54 3c bd 75 cf c8 3d 15 52 f9 3c 11 33 bd 3d
       -0.045978583 0.09805194 0.030434648 0.09238256
000280 91 2b b7 bc 35 58 0c 3d ee ee 7d bc 96 a5 99 bd
       -0.022359641 0.03426381 -0.01549886 -0.07502286
000290 ee 92 ea bd 20 12 12 bd 5d 37 97 bd 13 3b 8c bd
       -0.11453806 -0.035661817 -0.073836066 -0.06847205
0002a0 77 d3 4a be e3 61 47 bd 0d c9 83 3d 67 a8 11 bd
       -0.1980723 -0.048677336 0.06434832 -0.03556099
0002b0 6f 86 96 3c 3c 22 39 bd 90 1b ad 3d ed cb d3 b9
       0.01837465 -0.045198664 0.08452523 -0.00040396993
0002c0 24 86 8e 3d 52 dc 5d bc d1 cc ae 3c 3b cb 6a bd
       0.06959179 -0.013541298 0.021337898 -0.057322722
0002d0 fd cf c6 3d ca bc d9 3d 2d 33 f4 bd a7 47 f4 bc
       0.09707639 0.10631712 -0.119238235 -0.029819323
0002e0 e3 3e d4 3b 49 eb a5 3d e3 57 8d bd ca 06 9b 3c
       0.0064772232 0.08101518 -0.06901529 0.018924136
0002f0 a8 a8 c0 3d 85 2a 98 3c 57 c6 36 bc 71 cb 4b 3d
       0.094071686 0.018574962 -0.011155686 0.049754564
000300 2a 0a 03 3e 7e 6b cf 3d f1 a9 8a bd 1e e0 b8 bc
       0.12796846 0.101279244 -0.06770695 -0.022567805
000310 46 24 1e 3e b1 f0 0e 3d 79 a8 54 bd 50 7f 9f bc
       0.15443525 0.03489751 -0.05191848 -0.019469887
000320 a5 dd 9e 3d 48 90 a4 bc e1 b3 bb bc 76 f4 26 3d
       0.07757119 -0.02008833 -0.022912921 0.04076048
000330 79 8a 07 be 93 63 10 bd 56 d6 0d 3e 81 db 38 bd
       -0.13236417 -0.03525121 0.13851294 -0.04513121
000340 02 0e 90 bc ee 1e 5f 3c 2b 91 68 3d 53 04 ed bd
       -0.017584804 0.013618214 0.056779068 -0.115730904
000350 47 c4 4f 3c c3 98 1a bc 54 2b 1b 3c 13 9e b9 bd
       0.0126810735 -0.009435835 0.009470779 -0.090633534
000360 96 75 94 3c 2c 94 84 bd 8a 06 1d bd 24 dd 84 3d
       0.018122476 -0.06473574 -0.038336314 0.06487492
000370 f5 a8 49 3c 90 6f a7 bd 4a e4 d7 b7 50 d4 67 bd
       0.012308349 -0.08175576 -2.5736303e-05 -0.05659896
000380 3b 92 8a bd 29 c3 bd 3d e5 57 20 3b ee ba 0a 3e
       -0.067661725 0.092657395 0.0024466452 0.1354787
000390 8d 62 84 3d 88 7d f5 bd 4f c4 b1 bd b5 13 df bd
       0.064641096 -0.11986834 -0.08680021 -0.10892431
0003a0 51 2f 86 ba de 85 2b 3d 75 bb 2a be cc 09 45 bd
       -0.001023749 0.041875713 -0.16673072 -0.048105046
0003b0 34 38 dd bb 3a fd fb 3d b5 3d 16 3d 56 16 8d 3d
       -0.0067510847 0.123041585 0.036679942 0.06889026
0003c0 b7 b9 ba bd 0b c4 9b bd e5 2a d9 3c e1 23 09 be
       -0.091174535 -0.076057516 0.026509712 -0.13392593
0003d0 7a 28 2c 3c 47 6d 2c bc f4 49 fb bc 51 8f ca 3b
       0.010507697 -0.010524101 -0.030674912 0.0061816354
0003e0 0b 8d b9 bd dc 19 cf bd fc 67 13 bc 23 96 ad bd
       -0.09060105 -0.10112354 -0.00899696 -0.08475902
0003f0 08 3e cd 3d cb 47 45 3d c8 37 86 3d f3 0e 8f bd
       0.10021597 0.04816417 0.06553608 -0.06985273

a2c_network.actor_mlp.4.bias f4 [64]
000000 da f1 26 be 86 f6 ef 3c 65 5a 12 3d 2d 95 c5 3d
       -0.16303197 0.029292356 0.03573074 0.09647594
000010 63 6d 6d bd 3b ac af bd 39 fb cb bc 41 81 74 3d
       -0.057965647 -0.08577772 -0.024900066 0.05969358
000020 20 6e d4 bd 16 67 b7 3b 00 ea 1c 3e 38 c0 63 be
       -0.10372567 0.0055970056 0.15323639 -0.22241294
000030 c8 2a 2d 3d 25 86 ad bd cf f5 b4 3c 72 7f 98 3d
       0.042277128 -0.08472852 0.022089867 0.07446183
000040 71 b3 f5 3c e3 c6 82 bd 90 a0 d6 bd 4d 59 47 bc
       0.02999279 -0.06385591 -0.104798436 -0.012167287
000050 b2 38 a0 3d 7d 00 8d bd 74 ff 61 3e 92 5f fc bc
       0.07823314 -0.06884859 0.22070104 -0.03080729
000060 40 74 f8 3d 02 70 20 3e 9f e0 29 3c 24 f0 11 be
       0.12131548 0.15667728 0.010368495 -0.14251763
000070 99 97 19 be 1c 59 36 bd 45 60 a0 bd 77 c3 13 be
       -0.14999236 -0.044518575 -0.07830862 -0.14430033
000080 27 dd 92 3d b6 99 bf 3c f0 c0 75 bd 8d 3d 2d bd
       0.07171088 0.023388725 -0.059998453 -0.042295028
000090 b1 3c 15 bd 39 e8 68 3d d6 6f 14 3d fd 77 ac bd
       -0.036434833 0.05686209 0.036239468 -0.084213234
0000a0 20 e2 a6 3d 05 7a a9 3d 32 fd 02 bd 5e 65 f9 3c
       0.08148599 0.082752265 -0.031979747 0.030443843
0000b0 98 b3 19 be 3e 82 a1 bd dd 35 6e bd ff b4 91 bc
       -0.15009916 -0.0788617 -0.058156837 -0.017786501
0000c0 e4 d4 4f bd 06 ba 3e 3d 1b bd 4f be dc 8e 0b 3d
       -0.050740138 0.046564125 -0.20286982 0.03407179
0000d0 52 2b b5 3d 3d de 5c 3d 54 2a 30 3e f4 e1 c3 3d
       0.08846153 0.05392288 0.17203647 0.095645815
0000e0 f2 70 c3 bd 8e 9e 89 ba d9 22 3d 3d 6c 67 bb bd
       -0.09543027 -0.0010499523 0.04617581 -0.091505855
0000f0 8a 67 2e be 46 7b f5 bd 77 86 c5 3a 51 37 43 bd
       -0.17031685 -0.11986403 0.0015069981 -0.047660176

a2c_network.value.weight f4 [1, 64]
000000 83 b0 b6 bb 25 e5 af bc ac 9b ea 3a 58 c1 2f 3c
       -0.005575241 -0.02147157 0.0017899177 0.010727249
000010 45 b5 01 bd 7a 6a 72 bc 2a 30 d5 bb 23 23 11 3d
       -0.031667013 -0.014795894 -0.0065059857 0.0354339
000020 aa 28 c9 bd 4f c3 51 bb e0 d5 12 3c 1d 06 4f 3c
       -0.09822209 -0.0032007282 0.008962125 0.012635735
000030 b4 f8 09 bc 4d 87 89 bb 1c 45 b1 3a fd 78 dd 3b
       -0.008421112 -0.0041970373 0.0013524625 0.0067588077
000040 28 fa c4 3c 12 c0 1e 3c 7c a1 a7 3b 75 41 6f ba
       0.024045065 0.009689348 0.005115686 -0.00091268803
000050 91 ed 7a 3d 1a 38 b5 bc b3 f5 bc 3c bb 70 5b 3b
       0.061261717 -0.022121478 0.023066377 0.003348394
000060 01 b7 9f bc ff 0a 5c 3e 0c b6 72 3c 9d 8d d5 3c
       -0.019496443 0.2148857 0.014813911 0.026068503
000070 a5 49 15 bb 27 8e 0c 3c 54 73 ad 3c 6b 05 41 bc
       -0.0022779491 0.008578814 0.021173157 -0.011781077
000080 ea b3 af 3d 79 f8 34 3e 94 e2 4e bc d2 5e c0 bc
       0.08579238 0.1767291 -0.012627263 -0.023482714
000090 09 0d 5b bd e9 b6 33 3c 7b ae 46 3d 81 9f 5a 3c
       -0.05347923 0.010968902 0.04850624 0.013343693
0000a0 15 b5 eb bb 3d 3a 3e 3c c0 bc 1f 3c 7e 76 2c 3f
       -0.0071932175 0.011610565 0.009749591 0.67368305
0000b0 05 27 fc 39 53 38 d7 3b 73 c5 0f bb 8f 6d 8f bd
       0.00048094257 0.0065679937 -0.0021937757 -0.070033185
0000c0 e6 ed 85 3b 62 72 27 3d c9 4f 92 bd a2 70 53 bc
       0.0040871976 0.04088057 -0.07144124 -0.012905272
0000d0 26 ca 09 bc 77 ad ba 3d 9f 8d 5f 3d cb e3 11 3d
       -0.008410012 0.09115117 0.05457842 0.03561763
0000e0 7c a2 60 bc 81 a1 8b 3c 29 e3 f8 3b 5f 14 b1 3c
       -0.013710614 0.017044785 0.007595439 0.021616159
0000f0 81 eb 5d 3d 14 1e 26 3c de 7a be 3d 5d 4a 8d 3b
       0.054179672 0.010139007 0.09300779 0.0043118433

a2c_network.mu.weight f4 [12, 64]
000000 7b c6 36 3d 2c 46 bc bc 4b b6 34 3d f6 4a 5e 3d
       0.04462288 -0.02298268 0.04411916 0.054270707
000010 6d 2d 7c 3d 31 0d f9 3b de c9 00 3d 3c 09 69 bd
       0.06156676 0.0076004495 0.031442516 -0.056893572
000020 cc 86 6e bd 94 61 ab 3d 5e f6 57 3d 00 f9 07 be
       -0.05823402 0.08368221 0.05272519 -0.1327858
000030 94 3a a7 3d 3f 85 ca bd b4 c7 c3 3c 92 3c 2f 3c
       0.0816547 -0.09888696 0.023898937 0.010695593
000040 6f 95 ce 3d 27 0f 95 bd ea d0 cb 3c 85 4b 60 3c
       0.10087096 -0.07278281 0.024879891 0.01368988
000050 b8 5f 65 3d 38 39 bf ba b4 64 11 3c 91 0c 65 bb
       0.055999488 -0.0014589196 0.008874107 -0.0034950117
000060 50 54 95 3d 4d ec 19 3d 77 97 ab 3d 6b b6 32 bd
       0.07291472 0.03757887 0.08378499 -0.043631
000070 c5 e1 21 3b 29 b6 5e bd c3 75 30 bc 76 b6 08 bd
       0.002470122 -0.05437294 -0.010770264 -0.033377133
000080 df 0b 9a 3d 82 5a 0c be 98 6e 3f bd 97 f1 a6 3d
       0.075217955 -0.13706401 -0.04673633 0.08151548
000090 4b d1 8f 3c ac 32 a9 bd 9f 85 3e 3c 05 42 37 bd
       0.017555853 -0.08261618 0.011628537 -0.044740696
0000a0 a4 0c b4 3d 9f f7 8d 3d dd 97 47 3d f0 d2 ab 3d
       0.087914735 0.069319956 0.048728812 0.083898425
0000b0 f8 0f 01 bd 5b 15 eb 3b ec 11 09 3d 49 98 93 3c
       -0.03150937 0.0071741766 0.033464357 0.018016951
0000c0 a2 43 91 3b 32 60 9d 3b 9e 12 dd bb be a0 d8 3c
       0.0044331113 0.004802727 -0.006746604 0.026443835
0000d0 a0 29 67 3d 03 e2 80 3d d2 a9 14 3b b0 6b 81 3c
       0.05643618 0.06293108 0.0022684229 0.01579842
0000e0 8d 2e 3e 3c be ad a0 bd 44 cb be bc 37 31 98 bd
       0.011607778 -0.07845639 -0.023290284 -0.07431262
0000f0 1d 78 2f be e8 a5 9b ba 47 04 15 be 56 38 c1 bb
       -0.17135663 -0.0011875005 -0.14552413 -0.0058966083
000100 7c 9c 84 bc c7 26 e1 bd bc 20 1a bd 49 db 7d 3e
       -0.016187899 -0.10993724 -0.037628874 0.24790682
000110 b5 32 21 bc 5c 06 15 be e7 17 ba 3d 93 b1 a5 bc
       -0.00983875 -0.14553207 0.0908659 -0.020226276
000120 61 cd 30 3c 0f a6 a0 bc 6e 93 60 bc 1b d4 fb bd
       0.010791154 -0.019610433 -0.013707025 -0.12296315
000130 3b cb 1d bd e2 34 47 3d 4c 5f 76 3d 46 59 ab bc
       -0.038523894 0.048634417 0.060149476 -0.020916592
000140 17 d2 99 bd 40 4e 00 3e 6a d3 eb ba 78 dc 8e bc
       -0.075107746 0.1252985 -0.0017992083 -0.017439112
000150 34 e5 d5 3d 25 da 2d bd 2d 11 f7 3b a4 eb 84 3d
       0.10444108 -0.042444367 0.0075398893 0.064902574
000160 d2 1a 9f 3b fd 5a ef 3c 36 3d 06 3d 34 21 e7 3c
       0.004855492 0.029218191 0.03277322 0.028214075
000170 2b 89 48 3d e3 db e3 bd 28 4b ae 3d df d2 7f 3d
       0.04895894 -0.111259244 0.08510429 0.06245696
000180 b8 d3 16 be 7b 85 7f bd 60 df 58 be 8e f9 d3 3c
       -0.14729202 -0.062383156 -0.21178961 0.025875833
000190 0e ce b2 3d a8 9c ae bd 8b 44 14 3e eb 1f 3d 3d
       0.08730708 -0.085259736 0.14479272 0.046173017
0001a0 04 d4 ee 3c 68 0a 8c bd ff 2b 8e 3d c0 86 4a bd
       0.029153831 -0.06837922 0.06941985 -0.049444914
0001b0 c9 89 d3 bd c1 6d 79 3d 4a 8a 25 be a1 b8 20 3e
       -0.10329015 0.060895685 -0.16166034 0.1569543
0001c0 25 35 ef 3d fe e1 87 bc 03 07 c6 bd b3 73 f5 3d
       0.116800584 -0.016587254 -0.09669306 0.119849585
0001d0 93 95 5e bd 81 40 1c be 9a 43 eb 3b 5d bd fe 3d
       -0.054341864 -0.15258981 0.0071796896 0.12438462
0001e0 aa 8d 3f be b2 6f 90 3d 7b 8a d8 bd f9 9f 68 bd
       -0.18706384 0.07052554 -0.10573288 -0.056793187
0001f0 7a 7d ca bc be 12 01 3e 8b 30 f9 bc b7 e8 00 3d
       -0.024718035 0.12604806 -0.030418655 0.031471934
000200 7e c9 72 bc cb a7 73 3c 92 4a 81 be 15 f9 1f bd
       -0.014818547 0.014871548 -0.25252205 -0.039055903
000210 5c 7e c4 3d 7d d0 76 bd 26 f8 46 3d 42 98 89 3d
       0.09594414 -0.060257424 0.048576497 0.06718494
000220 d1 ce ee bc 1c 49 8a 3d 3f 68 c7 bd ec 20 82 3d
       -0.029151352 0.06752226 -0.0973668 0.063539356
000230 6a 87 61 3d 0e 58 f2 3d 65 89 e1 3d 9d 92 d5 bc
       0.05506078 0.11833201 0.11012534 -0.026070887
000240 f3 7a 8c bd 71 8f 6e bd d7 dc cd 3d c2 de 13 3d
       -0.06859388 -0.058242265 0.100518875 0.03610111
000250 35 20 2d be 5c 71 80 3c e2 39 3e bd 2f 3c c3 3d
       -0.16906817 0.015679054 -0.04644192 0.095329635
000260 89 0c 0e bc e2 39 4f 3c db ce 5f bd 7e 01 ba 3c
       -0.008669981 0.012648078 -0.054640632 0.02270579
000270 c2 87 d6 bd fb 7f c1 ba d7 38 94 bc 8c be 3e 3c
       -0.104751125 -0.0014762873 -0.01809351 0.01164211
000280 97 27 5d 3d 49 a9 8b 3c cc da c4 3d 1e 86 62 3c
       0.053992834 0.017048495 0.09612045 0.013825921
000290 3f 59 4f 3c 90 e1 15 be ef 18 b6 bd 75 d7 92 3c
       0.012655555 -0.14636827 -0.088914745 0.017925004
0002a0 19 0b 6f bc 98 5f d2 bd ad b3 c2 3c f8 56 b5 3c
       -0.014590048 -0.10272139 0.023767317 0.022136196
0002b0 1e 3f 70 bd e9 41 16 be 72 87 46 be 37 91 06 bd
       -0.058653943 -0.1467358 -0.19387606 -0.03285333
0002c0 9f 5d 30 bd 73 be 68 3e 94 25 8f 3d 01 f6 9a 3d
       -0.043058034 0.227289 0.06989589 0.07566453
0002d0 15 c5 7d bd fe 46 b5 3d a7 08 af 3c c2 69 31 3d
       -0.06195553 0.08851431 0.02136643 0.04331375
0002e0 54 a5 ea 3d b4 0d 76 bd cf f9 58 bd 41 a8 89 bd
       0.11457315 -0.060071662 -0.05297261 -0.06721545
0002f0 cb 76 3f bb f1 5d 55 bd 72 50 87 3d ba c3 ea bd
       -0.0029215093 -0.052091543 0.066071406 -0.11463113
000300 b8 cc f8 3d aa 47 45 bd f6 66 2d 3c 83 b0 5d 3e
       0.12148422 -0.048164047 0.01058363 0.21649365
000310 96 1e 30 bc 5d bb e1 bc 69 03 b9 bb ab 40 e3 3b
       -0.01074948 -0.027555162 -0.0056461585 0.0069351993
000320 04 22 9a bc 08 b2 dc bd 28 cf 4a bd 68 a6 09 3e
       -0.018815048 -0.10776144 -0.049513966 0.13442385
000330 58 f8 dc bd f7 16 e0 bd be a4 71 bd b4 05 f4 bb
       -0.10789555 -0.1094188 -0.058995 -0.007446969
000340 94 6e ae 3d 43 19 4e 3e 57 e2 ca 3c a1 c6 6f 3c
       0.08517185 0.20126824 0.02476613 0.014634759
000350 a1 fc 62 3d c4 5c c0 bd aa 40 77 3c c3 1c f9 3b
       0.055416707 -0.09392694 0.015091101 0.0076023056
000360 ce 56 a7 bd f8 02 58 bd 26 27 ac 3c 4f c7 bc 3d
       -0.081708536 -0.052737206 0.021014761 0.092177026
000370 a4 a8 53 3d 97 a9 1a bd 39 0c 10 bd b6 ed 2c 3d
       0.0516745 -0.03775939 -0.035167906 0.042218886
000380 64 2a 1a 3e 67 35 16 be fc 6d 94 3d dc 32 21 bd
       0.15055233 -0.14668809 0.0724754 -0.039355144
000390 c3 3c 4f bd 41 72 0e bd cd af c7 bd 81 12 1e 3e
       -0.050595056 -0.03477693 -0.09750328 0.15436746
0003a0 91 1b fe 3c 9a 5f 4f bd 3e 77 22 bd 9d 32 2a be
       0.031019004 -0.050628282 -0.0396645 -0.1662087
0003b0 09 fd 16 bc 1f 6e 5d be 27 0b a9 bc 8e f9 08 be
       -0.009215602 -0.21624039 -0.0206352 -0.13376448
0003c0 2e e0 57 bc 4d 76 0f 3d 66 a3 0b 3d d8 24 0e bd
       -0.013176007 0.03502493 0.034091376 -0.034703106
0003d0 c1 c0 ee bd 1d 93 b9 3a 49 9a c4 bd 78 37 9f bd
       -0.11657859 0.0014158223 -0.0959974 -0.07774252
0003e0 9a 21 85 bd ca ac 57 bd 97 06 52 bc fd 59 6d bd
       -0.065005496 -0.05265502 -0.012818954 -0.057947148
0003f0 36 d1 7b 3c b9 ba d9 3c ff 7e 6d bd 8e 97 2e be
       0.015369704 0.026578294 -0.05798244 -0.17050001

a2c_network.mu.bias f4 [12]
000000 b9 f1 f6 3d c1 77 e1 3c 20 aa 2e 3d f4 ff 0b be
       0.12057824 0.027522923 0.042642713 -0.13671857
000010 82 f5 8d bd bb 90 46 3d cb 18 81 3b 78 44 29 bc
       -0.069315925 0.04847787 0.003939723 -0.010331266
000020 5d ce a0 bd 62 5a aa 3d d2 1e 3e 3b 24 ab 48 39
       -0.07851861 0.083180204 0.002901007 0.00019137241

exp_avg f4 [12]
000000 a6 fa bc 3a ad 1c 90 ba ca 12 60 3a e5 d1 28 3a
       0.0014417961 -0.0010994874 0.00085477217 0.0006439968
000010 5d 73 62 bb 8c c5 88 bb c1 be 11 ba d1 bd b4 3a
       -0.0034553625 -0.00417394 -0.00055597356 0.001378948
000020 c0 cc 4f 3a 13 b3 0d bb 27 e8 d4 ba 3a 1a 11 3b
       0.00079269335 -0.002162163 -0.0016243503 0.0022140876

exp_avg_sq f4 [12]
000000 d2 3d a4 37 af e9 ab 37 1c fa b0 37 d9 4c b1 37
       1.957911e-05 2.0493606e-05 2.1097301e-05 2.113583e-05
000010 c1 23 a8 37 19 cd c5 37 29 40 b0 37 f6 bf ac 37
       2.004381e-05 2.3579736e-05 2.1010712e-05 2.0593387e-05
000020 39 91 b8 37 6c 77 aa 37 b7 0a ad 37 68 b7 9f 37
       2.2002134e-05 2.032119e-05 2.0628197e-05 1.9039682e-05
