OmniIsaacGymEnvs/omniisaacgymenvs/runs/Naranjelio/nn/last_Naranjelio_ep_1500_rew_11.111722.pth (torch, 672807 bytes, 36 tensors)

value_mean_std.running_mean f8 [1]
0	0x3fe0f4df4b9c8414	0.5298916317734688

value_mean_std.running_var f8 [1]
0	0x3fc5a52f6efa5992	0.16910355490535928

value_mean_std.count f8 []
0	0x41a1940002000000	147456001.0

running_mean_std.running_mean f8 [48]
0	0x3f9d28919496f7a0	0.02847506970805791
1	0x3f9c74738a933d3c	0.027787976582485316
2	0x3f9ed2e05d4485b9	0.030101304714781316
3	0xbf8953a45d7cc83c	-0.012366565802583655
4	0xbf7fd3f49a035dd4	-0.007770495867780853
5	0x3f60b65c4d5aff3b	0.0020400812889817244
6	0x3fb68bfe2aee6c3f	0.08807362125519179
7	0xbfb7f7d86935487d	-0.09362556999738732
8	0xbfed27cf7a675a6f	-0.9111096754739502
9	0xbf89cdf4bd852127	-0.01259986117715124
10	0x3f64b1ff7008a5cc	0.0025262822166680406
11	0x3f41c7a2c0de2d50	0.0005425972646987774
12	0x3fd12a7484820ee6	0.2682162565254046
13	0xbfcc479c14c02547	-0.2209353543587815
14	0x3ed41af0fc5b7d90	4.7934626700990845e-06
15	0xbf95f6b1b8761d31	-0.02144887626994069
16	0x3fcd04c117dc5471	0.22670758881637057
17	0x3f67d473ceb1d784	0.002908922373133062
18	0xbfd52096b1ba3bdf	-0.3301140533084758
19	0xbfd7becabfd750a7	-0.37102001890640185
20	0x3fd647ec52f0c56a	0.3481398401227894
21	0xbfdf1bbd9cea5cec	-0.4860681564691294
22	0xbfd88a4252c5d9c6	-0.3834386642769484
23	0x3fe173c97f640f23	0.5453841674902588
24	0xbf6c0606d4e9ebcc	-0.0034208424979715654
25	0x3f44bff1ff96e1cc	0.0006332332260888195
26	0x3f3f06a0db686b16	0.000473417541259445
27	0x3ee2d319fecde9fc	8.976276115059578e-06
28	0xbf81f5ca34c17852	-0.008769588217713817
29	0x3f7cec7ebd959e5f	0.007061476784066294
30	0x3f7a22e5fe7ff92b	0.006380937971697069
31	0xbf78993306ad1fd9	-0.006005477257367852
32	0x3f7d5d1cff8e7b15	0.007168877863391617
33	0xbf740d03cd3edbe7	-0.0048952244286999185
34	0xbf6c289b1dde11f4	-0.0034373311636406393
35	0x3f828216a25088d9	0.009037186459015011
36	0x3fcdf2a099fc1a39	0.23396689909732674
37	0xbfb6f543655cc127	-0.08967992043176719
38	0x3fa02a1d7a572097	0.03157131307995192
39	0xbfde22751cda6baa	-0.47085311715789635
40	0xbfb6be51121a2eaf	-0.08884150211286611
41	0xbfe1622015399f72	-0.5432281889488719
42	0x3fe9fd251ae4c62b	0.812151482130678
43	0x3fc3d1aef5365f5b	0.1548365304304252
44	0x3fd99e5ad44ae611	0.40029021007248483
45	0xbfe3c6554cd1eacf	-0.6179605961218274
46	0xbfdf86c20462bc68	-0.49259996822633534
47	0x3fe4fd3758441a8d	0.655910179514494

running_mean_std.running_var f8 [48]
0	0x3fc0bf028d1fbb85	0.1308291615564167
1	0x3fcb6254e590332b	0.2139383431353051
2	0x3fa20c195e44c59f	0.03524855876674881
3	0x3f9a0092a9f9a540	0.025392810463391813
4	0x3f81785e692557c7	0.008530366500661203
5	0x3f62fd8c4c75a971	0.0023181667526632134
6	0x3fa6b6c3986de80d	0.044363129002661685
7	0x3fb5cc38807bf2fe	0.08514741074391094
8	0x3f986d4f3042e154	0.023854482002861957
9	0x40158a103dcbc26e	5.384827580987446
10	0x3ff5497a239da0cd	1.3304387465705532
11	0x3f950a7cc3c546e3	0.02054781861199374
12	0x3faf3b797b346458	0.061000629701262354
13	0x3fac1d252ccecb9d	0.0549098603436484
14	0x3e7389d83e7acdc2	7.278642010881733e-08
15	0x3fb176a5d79e6f22	0.06821667207844631
16	0x3ea32b7937fc8cdb	5.713051080862717e-07
17	0x3fcb4b043dd1ca72	0.21322682398347897
18	0x3fd543687f95a9ba	0.33223926982341434
19	0x3fd2a32b327feb1c	0.2912090294991445
20	0x3fbe4516dfe372f4	0.11824171987559479
21	0x3fc3312a802ea530	0.14993792780777815
22	0x3fd30143421458ae	0.2969520707423595
23	0x3fb2bbf5421d0a05	0.0731805120858909
24	0x3f7404dd2aab2313	0.004887451107330037
25	0x3f75297103f339d6	0.005166474787257921
26	0x3f3d731c5f25ca21	0.0004493660227559444
27	0x3ef04bb03218b274	1.5540749819619633e-05
28	0x3f505c1e16d441ef	0.0009985250320064772
29	0x3f7152b924262f13	0.004229281623689979
30	0x3f626e72db1d9235	0.0022499316482245354
31	0x3f808957d38b4a47	0.008074461119950927
32	0x3f8c03f5e30dd22d	0.013679429046285463
33	0x3f6f4829c1d14391	0.0038185897415492017
34	0x3f7a5b9c33b91169	0.006435022510747104
35	0x3f699c999e4952d3	0.003126430545572803
36	0x3fe38039ed5755e3	0.6094026218003673
37	0x3fe3f6962085c0e1	0.6238508830265596
38	0x3fe4114b96113d8f	0.6271112376215785
39	0x3fdf50deb7a38573	0.4893109124514787
40	0x3fe5f86e1e02d54f	0.6865759454873713
41	0x3fdcf5786e4a9acc	0.4524823262276356
42	0x3fc1d27f5e65d003	0.1392363749433799
43	0x3fdce88d0ed70065	0.4516937870903404
44	0x3fdc6601aea920cd	0.44372598702149163
45	0x3fd5bf7671e293ab	0.3398109542998166
46	0x3fdbb7a5e185ba2a	0.4330839826933778
47	0x3fd1e12c3efedca9	0.2793684592429125

running_mean_std.count f8 []
0	0x4191940004000000	73728001.0

a2c_network.sigma f4 [12]
0	0xbf94912b	-1.1606802
1	0xbf9f5e9f	-1.2450751
2	0xbf57e1ac	-0.8432872
3	0xbf703cc2	-0.9384271
4	0xbf6008e5	-0.8751357
5	0xbf90ac93	-1.1302665
6	0xbf8653b6	-1.0494297
7	0xbfd351e0	-1.6509361
8	0xbfba4694	-1.4552789
9	0xbf8346ae	-1.0255945
10	0xbf9de76c	-1.2336249
11	0xbf8375c1	-1.0270311

a2c_network.actor_mlp.0.weight f4 [256, 48]
0	0xbc998019	-0.01873784
1	0xbd3e99f6	-0.046533547
2	0xbcfb5539	-0.030680286
3	0xbdd27d95	-0.10277859
4	0xbd35e0de	-0.044403903
5	0xbda36e44	-0.07980016
6	0xbcabffe6	-0.020996045
7	0x3dd881b2	0.105716124
8	0xbe086f4f	-0.13323711
9	0xbecb0ec0	-0.3965969
10	0x3dffab8e	0.12483893
11	0x3e3ec405	0.18629463
12	0xbda1aee0	-0.07894683
13	0x3d7e0c0a	0.0620232
14	0xbe0eec76	-0.1395739
15	0xbda0b6de	-0.07847379
16	0x3e29970b	0.16561525
17	0x3d4f3cbc	0.05059503
18	0xbdadb16f	-0.084811084
19	0x3e48ae5e	0.19597766
20	0xbe623a7f	-0.22092627
21	0xbd6d4a24	-0.057932034
22	0xbe1f8f82	-0.15582088
23	0x3db49f65	0.088194646
24	0x3d05c444	0.032657877
25	0x3da5cee7	0.08096104
26	0xbca1984f	-0.019725947
27	0x3d6fb8bb	0.058525782
28	0x3d416af2	0.04722113
29	0xbdeb4b14	-0.114889294
30	0x3d693c0c	0.05694203
31	0xbddadf2c	-0.10687098
32	0xbdaee2ab	-0.08539327
33	0xbbc47416	-0.005995284
34	0xbd0c7117	-0.03428754
35	0x3d60ef5e	0.05491578
36	0x3d780f72	0.060561605
37	0xbaf8859b	-0.0018960716
38	0x3c85005d	0.016235525
39	0xbd1e418a	-0.03863672
40	0x3d549824	0.051902905
41	0x3d5c6da5	0.053815503
42	0x3cfb1c16	0.03065304
43	0x3d3978d3	0.045281243
44	0x3dd953b5	0.10611669
45	0xbc7dc344	-0.0154884495
46	0xbd7a5365	-0.061114687
47	0xbdb9f317	-0.09079569
48	0xbdf729f2	-0.12068547
49	0x3d276a16	0.040872656
50	0x3d13979c	0.036033258
51	0xbd1f3182	-0.038865574
52	0xbd1b62a8	-0.037935883
53	0xbb5d2533	-0.0033744096
54	0xbdd8b2f5	-0.10581008
55	0xbe472c6d	-0.19450541
56	0x3ee9f3f7	0.45693943
57	0xbeffcc02	-0.49960333
58	0x3e4c505b	0.19952528
59	0x3ebeea50	0.3728814
60	0x3db25e69	0.087094136
61	0x3c07368a	0.008252749
62	0xbc14d7ad	-0.009084624
63	0x3c9cb114	0.019127406
64	0x3afc14f5	0.001923232
65	0x3df7efeb	0.121063076
66	0x3d19d3c9	0.03755549
67	0x3e12fa3c	0.1435327
68	0x3e58a3b5	0.211562
69	0xbe2369c9	-0.15958323
70	0x3dfe8df9	0.12429423
71	0x3dad228e	0.084538564
72	0xbd916bc0	-0.0710063
73	0x3b98cee0	0.0046633333
74	0x3c99022c	0.018677793
75	0x3af5d508	0.0018755505
76	0xbdce243f	-0.10065507
77	0xbd64a1d3	-0.05581839
78	0xbcc29ff1	-0.023757907
79	0x3e15d57a	0.14632216
80	0xbd959a0e	-0.07304774
81	0xbd60b9b2	-0.054864593
82	0x3d54eeae	0.051985435
83	0xbc5ea167	-0.013588286
84	0x3d78a49f	0.06070387
85	0xbddf5875	-0.10905544
86	0xbc3ac64c	-0.011399817
87	0xbd5f07eb	-0.05445091
88	0x3bfc6922	0.0077029625
89	0xbdec9af7	-0.11552995
90	0xbce19863	-0.027538484
91	0x3b727f87	0.0037002282
92	0x3e00c691	0.12575747
93	0xbc9f3fed	-0.019439662
94	0xbd835baa	-0.06413968
95	0x3d83eddd	0.06441853
96	0xbd8f23f1	-0.06989277
97	0x3e10b41a	0.14131203
98	0xbdd3ddef	-0.10345065
99	0xbe12a3b2	-0.14320257
100	0x3d3ca4e5	0.046055693
101	0xbe204eff	-0.15655135
102	0xbdfc1fdd	-0.12310765
103	0xbec7d654	-0.39030707
104	0x3c3e8873	0.011629212
105	0xbe28c383	-0.16480832
106	0xbe2a99d7	-0.16660248
107	0xbe3e81a3	-0.1860414
108	0x3e1a9226	0.15094814
109	0x3d2477ba	0.040153243
110	0x3d186132	0.037202068
111	0x3dd165bf	0.10224485
112	0x3ca06482	0.019579176
113	0xbdc90e7d	-0.098172165
114	0xbe419fff	-0.1890869
115	0xbe319a79	-0.17344083
116	0x3d6aed08	0.057354957
117	0xbc072cf2	-0.008250462
118	0x3d929600	0.071575165
119	0xbe21f652	-0.1581662
120	0xbd43393f	-0.047662016
121	0x3d0960a0	0.033539414
122	0x3cd288b5	0.025699953
123	0xbca33e74	-0.01992724
124	0x3ca65ba2	0.020307366
125	0xbdc07991	-0.09398187
126	0xbdc1d957	-0.094652824
127	0x3da294f3	0.07938566
128	0x3d43199a	0.047631837
129	0x3d343003	0.0439911
130	0x3cce22bf	0.025163053
131	0xbc98bb78	-0.01864408
132	0x3ca73f7f	0.02041602
133	0xbd930390	-0.07178414
134	0xbca78c82	-0.020452742
135	0x3e36b921	0.17844059
136	0xbd23e756	-0.04001554
137	0x3e0b5dec	0.13610047
138	0x3d8175af	0.063212745
139	0x3d72939f	0.059222814
140	0xbd774622	-0.06036962
141	0xbc0c407d	-0.008560297
142	0xbdd73abe	-0.10509251
143	0xbdce497d	-0.100726105
144	0xbd0159a1	-0.031579617
145	0x3dd50576	0.10401432
146	0x3df3682e	0.11885105
147	0x3c113c11	0.008864419
148	0x3d333a89	0.043756995
149	0x3d58e481	0.052952293
150	0xbd15233e	-0.036410563
151	0xbd83b99f	-0.06431889
152	0x3e9c888b	0.30572924
153	0xbe69769f	-0.22799157
154	0xbd58af9b	-0.052901845
155	0x3f121fb4	0.57079625
156	0x3cf709a5	0.030155966
157	0xbe49f1dd	-0.1972117
158	0x3cbfab46	0.0233971
159	0xbca6d1cf	-0.020363716
160	0x3dbf7f9b	0.09350511
161	0xbe83ddd3	-0.25755176
162	0x3d117286	0.03550961
163	0x3d890a15	0.06691376
164	0xbcf2ec29	-0.029653626
165	0x3ddbfb6f	0.107413165
166	0x3ca13a59	0.019681143
167	0xbd88bd77	-0.066767626
168	0x3d8517d6	0.06498687
169	0xbdba19a6	-0.09086923
170	0xbb1cd8e9	-0.0023933
171	0x38debd91	0.000106210944
172	0xbc9cc790	-0.019138128
173	0x3dba6986	0.09102158
174	0xbd9dcb34	-0.077047735
175	0xbcfe0500	-0.031008244
176	0xbd412fdd	-0.047164787
177	0x3c53b997	0.012922666
178	0x3d0fc905	0.035103817
179	0x3c3dd93f	0.01158744
180	0x3c075940	0.008261025
181	0xbc8ceda1	-0.017203154
182	0x3da18270	0.07886207
183	0xbd1d9c93	-0.0384794
184	0xbbc89844	-0.006121667
185	0x3acc51f0	0.0015588384
186	0x3ba8351f	0.0051332857
187	0x3e03584f	0.12826656
188	0xbd2d678f	-0.04233509
189	0x3d047031	0.032333557
190	0x3d621d21	0.05520356
191	0x3d9b5475	0.07584468
192	0xbd8a35ae	-0.0674852
193	0x3dfb1704	0.12260249
194	0xbdc6209b	-0.09674188
195	0x3d893f58	0.06701535
196	0xbd79f451	-0.061024014
197	0x3da59a45	0.08086065
198	0x3d68c89a	0.056831934
199	0xbd3694cb	-0.044575494
200	0xbe28ca28	-0.16483366
201	0xbe6bafb1	-0.2301624
202	0x3e52b1bf	0.20575617
203	0xbe051911	-0.12997843
204	0x3c8ab5ca	0.016932387
205	0x3e248345	0.160657
206	0x3e33f0ad	0.1757228
207	0x3e1a71f0	0.15082526
208	0x3da359ed	0.07976136
209	0x3cf5ac12	0.029989276
210	0x3d6a3bff	0.057186123
211	0xbd8ee768	-0.06977731
212	0x3d2ef397	0.042712774
213	0x3c2e2be9	0.010630586
214	0x3e16efd7	0.14739929
215	0x3bfe2dea	0.007756938
216	0xbbcdfe2e	-0.006286404
217	0x3d18d8fe	0.037316315
218	0x3db9bb52	0.09068932
219	0x3d9576a4	0.072980195
220	0x3dbe41fa	0.09289928
221	0xbcb42d63	-0.021994298
222	0xbce148f4	-0.027500607
223	0xbd777c09	-0.060421024
224	0xbb36e8bf	-0.0027909724
225	0xbb358715	-0.0027698923
226	0xbbc9d730	-0.0061596856
227	0x3cf97a23	0.030453747
228	0x3dbb6a89	0.09151179
229	0xbc106102	-0.008812191
230	0x3dba3d3e	0.09093712
231	0xbd8b3e92	-0.06799044
232	0x3c4a4f42	0.012347998
233	0xbc31f02e	-0.010860486
234	0x3daf6180	0.085635185
235	0x3cd9b373	0.026574826
236	0x3defd1b9	0.11709923
237	0xbdea9934	-0.114550024
238	0x3d102c7d	0.035198677
239	0xbcae0e2c	-0.021246992
240	0xbdb39f22	-0.087705866
241	0x3d5c2f81	0.05375624
242	0x3e2fb47c	0.17158693
243	0x3d9f71c5	0.07785372
244	0xbd1acacf	-0.03779107
245	0x3d87d3b1	0.06632174
246	0xbc3cbe09	-0.011519917
247	0x3d7c964f	0.061666783
248	0xbe02ffdf	-0.1279292
249	0xbdcbb6c5	-0.0994697
250	0xbe02e85c	-0.1278395
251	0xbecb7927	-0.3974087
252	0x3cba564d	0.02274623
253	0xbd2f4f1b	-0.04280005
254	0xbcfc6c51	-0.030813368
255	0xbcf925f4	-0.030413605

a2c_network.actor_mlp.0.bias f4 [256]
0	0xbe12e476	-0.14344963
1	0xbdc9420c	-0.098270506
2	0x3d9d50c6	0.07681422
3	0x3cf4253c	0.029802911
4	0x3e409ef4	0.18810636
5	0xbcc8e4d5	-0.024523178
6	0xbe408e0c	-0.18804187
7	0xbd5fe2c3	-0.054659616
8	0xbe215122	-0.15753606
9	0x3e3dc2ce	0.18531343
10	0xbd179bbf	-0.037013765
11	0xbc7a0230	-0.015259311
12	0x3da0dac2	0.07854225
13	0xbe6b9ce5	-0.2300907
14	0x3e45ed42	0.19328788
15	0x3dfb129d	0.122594096
16	0x3e8e9a78	0.27852225
17	0xbe3076ad	-0.17232771
18	0x3e3d2802	0.18472293
19	0xbe2417a8	-0.16024649
20	0xbd43cc30	-0.04780215
21	0x3d32ee87	0.04368451
22	0x3e399a0c	0.1812517
23	0xbe3147fd	-0.17312618
24	0x3e27faca	0.16404262
25	0xbe74cf0d	-0.23907109
26	0xbe187741	-0.14889242
27	0x3bec519e	0.007211878
28	0x3cf938ff	0.030422686
29	0x3e0868cb	0.13321225
30	0x3e49f472	0.19722155
31	0xbbd7ccd3	-0.0065856962
32	0xbde41e12	-0.11138548
33	0x3de50e38	0.11184353
34	0xbd8a213f	-0.067446224
35	0xbdb4f625	-0.08836011
36	0x3e901c9e	0.28146833
37	0xbe1447f7	-0.14480577
38	0x3da45857	0.08024662
39	0x3e90d43c	0.28286922
40	0x3e2d56b2	0.16927603
41	0x3e665b27	0.2249571
42	0x3e8eb4e6	0.2787239
43	0x3df873aa	0.12131436
44	0xbe116d4a	-0.14201847
45	0x3e6e73ba	0.23286334
46	0xbe1a9565	-0.15096052
47	0x3e756cfb	0.23967354
48	0x3e628ca4	0.22123963
49	0xbde81aa7	-0.113332085
50	0x3e4b9e83	0.19884686
51	0xbdee7a2d	-0.11644397
52	0xbaf95dbb	-0.0019025126
53	0xbddeb39d	-0.10874102
54	0x3e64740f	0.22309898
55	0xbe5b2af9	-0.21403112
56	0x3e9b1170	0.3028674
57	0xbe489d62	-0.19591287
58	0x3e4b2335	0.19837649
59	0xbe34e19d	-0.1766419
60	0x3d351b09	0.044215236
61	0xbc14ed97	-0.009089849
62	0x3e4dd0ba	0.20099154
63	0xbdbf6447	-0.09345298
64	0x3d26cb16	0.04072102
65	0xbcde8b2c	-0.027165972
66	0xbe59b739	-0.212613
67	0xbcab35f8	-0.020899758
68	0x3e0cbf8d	0.13744946
69	0xbdd36546	-0.10322051
70	0x3e648e8c	0.22320002
71	0xbbcff052	-0.006345787
72	0x3b07c2f3	0.0020715564
73	0x3d8c0d7f	0.06838512
74	0x3d858c9d	0.065209605
75	0x3dc68c03	0.09694674
76	0x3e8f731f	0.28017518
77	0x3e0efba1	0.13963176
78	0x3e432b7c	0.19059557
79	0xbd5cb63f	-0.05388474
80	0x3dc6963f	0.09696626
81	0xbe5d7367	-0.21626054
82	0x3d3fa782	0.046790607
83	0x3e42064b	0.18947713
84	0x3e8aa9aa	0.27082568
85	0xbdf4afb2	-0.11947574
86	0x3e00b527	0.12569104
87	0x3e6d3f31	0.23168637
88	0x3e249139	0.16071023
89	0xbd90475a	-0.07044859
90	0xbe061b2f	-0.13096307
91	0x3e5773f1	0.21040322
92	0x3e0bfd27	0.13670789
93	0xbdcf3d55	-0.1011912
94	0x3e69a73a	0.22817698
95	0x3e18d502	0.14925006
96	0xbd14f2dd	-0.036364425
97	0x3e90724b	0.282122
98	0x3dd4e5dc	0.10395405
99	0x3da365c1	0.079783924
100	0xbc1f4b5e	-0.009722559
101	0x3deec138	0.11657947
102	0x3e903132	0.28162533
103	0x3ca83090	0.020530969
104	0x3e80f67b	0.2518805
105	0x3e33b43f	0.17549227
106	0x3e726021	0.23669483
107	0x3e4346bf	0.19069956
108	0x3dab07aa	0.08351071
109	0xbbb4ab42	-0.0055135796
110	0xbe6822a4	-0.22669464
111	0x3e9418fe	0.28925318
112	0xbe614ef3	-0.22002773
113	0x3e76f914	0.24118453
114	0x3e924892	0.28570992
115	0x3e4a28bb	0.197421
116	0xbd43fd65	-0.047849078
117	0xbe1a7288	-0.15082753
118	0x3e459d30	0.19298244
119	0x3e1ef389	0.15522589
120	0xbe375de6	-0.17906913
121	0x3e711645	0.23543651
122	0xbd9e6399	-0.077338405
123	0x3e57ad9c	0.2106232
124	0x3e713440	0.23555088
125	0x3cf5ea2d	0.03001889
126	0xbc144238	-0.009048991
127	0x3d89c067	0.06726151
128	0xbdc755d4	-0.09733167
129	0x3e8d1724	0.27556717
130	0x3be13b1e	0.0068735024
131	0xbdfa1dff	-0.122127526
132	0x3d530eec	0.051527902
133	0xbd856d3b	-0.06514975
134	0x3e9217af	0.28533694
135	0x3e3449bb	0.17606251
136	0x3d9a5385	0.07535461
137	0xbe12827b	-0.14307587
138	0x3e485178	0.19562328
139	0x3d953f4b	0.07287463
140	0xbd06c491	-0.032902304
141	0x3e61d94b	0.22055547
142	0x3e2ac551	0.16676833
143	0x3d929c27	0.0715869
144	0xbdb5b382	-0.08872129
145	0x3e322bd5	0.17399533
146	0x3db8ade3	0.09017541
147	0x3e34e9ed	0.1766736
148	0xbe12a9a4	-0.14322525
149	0x3ce7145f	0.028207956
150	0xbcbb1d97	-0.022841258
151	0x3e8957b3	0.26824722
152	0x3e8bd69f	0.2731218
153	0x3e47c4df	0.19508694
154	0xbd098ef6	-0.033583604
155	0xbe578aaa	-0.2104899
156	0xbe3a671b	-0.18203394
157	0x3e751de5	0.23937185
158	0xbe058e91	-0.13042666
159	0xbd1e2454	-0.038608864
160	0xbd20fce8	-0.03930369
161	0x3cb0183c	0.02149593
162	0xbd9ad596	-0.075602695
163	0xbe54cc3d	-0.20781036
164	0x3b9eb248	0.00484303
165	0x3e3fcd33	0.18730621
166	0xbe2e46f0	-0.17019248
167	0xbb10c620	-0.0022090748
168	0xbdd17725	-0.10227803
169	0x3e209ebb	0.15685551
170	0xbd2e1027	-0.042495873
171	0x3dcbfd20	0.09960389
172	0x3e550820	0.2080388
173	0xbc866f48	-0.016410485
174	0xbe29bb43	-0.16575341
175	0x3e591d16	0.21202502
176	0x3e6171fc	0.22016138
177	0x3eb00e1a	0.3438576
178	0x3e741ce7	0.2383915
179	0x3d6518dc	0.05593191
180	0x3ca6b67f	0.020350693
181	0x3eb016f4	0.34392512
182	0xbdbaf395	-0.09128491
183	0x3e5f555c	0.21809906
184	0x3e7976a6	0.24361667
185	0xbe109da6	-0.14122638
186	0x3e278756	0.1636022
187	0xbd6d9afe	-0.05800914
188	0xbe68f545	-0.22749813
189	0x3dc73940	0.097277164
190	0xbe0a1bdf	-0.13487194
191	0x3e0cfb11	0.13767649
192	0xbdd947b1	-0.10609377
193	0x3d04af17	0.03239354
194	0x3e05fc06	0.1308442
195	0xbd62e9bc	-0.055398688
196	0x3cf69115	0.030098477
197	0x3e16c8a9	0.14724983
198	0x3e61a759	0.22036494
199	0xbdbd1c73	-0.09233942
200	0xbd04cfa3	-0.03242458
201	0xbe363710	-0.17794442
202	0x3e807b8e	0.25094265
203	0xbd84866a	-0.0647095
204	0x3ec184e7	0.3779671
205	0xbdb302b8	-0.08740753
206	0xbe4a63c4	-0.1976462
207	0x3e08311b	0.13299982
208	0xbcc337a4	-0.023830242
209	0x3e395290	0.18097901
210	0x3d65843f	0.056034323
211	0x3e84e0ae	0.25952667
212	0x3e5eb05e	0.21746966
213	0x3e07bde2	0.13256028
214	0x3e0e808f	0.13916229
215	0x3dfc80cf	0.12329256
216	0x3bd7ef6d	0.006589821
217	0x3e0d6803	0.13809209
218	0x3e3ebea3	0.1862741
219	0x3da068a3	0.07832458
220	0x3e0271d4	0.12738734
221	0xbe1deb06	-0.15421686
222	0x3e86ebf5	0.26351896
223	0xbe0a0143	-0.13477044
224	0xbe0d7aa1	-0.1381631
225	0x3ea9635b	0.33083615
226	0x3e911f99	0.2834442
227	0xbe303fa2	-0.17211774
228	0x3c8a2f4d	0.016868258
229	0x3e427f8a	0.18993965
230	0x3de7e812	0.11323561
231	0xbd02d777	-0.031943765
232	0x3e8f2023	0.27954206
233	0x3e969aed	0.29415074
234	0x3e7ccdaf	0.24687837
235	0x3c2f5d01	0.010703326
236	0xbd60d361	-0.054889087
237	0x3e1696f7	0.14706026
238	0x3e1346de	0.14382502
239	0x3da5c8a5	0.080949105
240	0x3d6cc4e0	0.057804942
241	0x3e5ea912	0.21744183
242	0x3e57e486	0.21083269
243	0x3e946321	0.2898188
244	0xbdfb4017	-0.122680835
245	0x3e57bec3	0.21068864
246	0xbdb9f1ea	-0.090793446
247	0x3da40057	0.08007877
248	0x3db2fb3d	0.08739326
249	0xbde73191	-0.11288751
250	0x3c1a2d4d	0.009410215
251	0xbe0f0808	-0.13967907
252	0x3e165fcc	0.14684981
253	0x3ad1f752	0.0016019142
254	0x3d28da06	0.04122355
255	0x3e2d6627	0.169335

a2c_network.actor_mlp.2.weight f4 [128, 256]
0	0x3da8fd3a	0.08251424
1	0x3ce1abf0	0.027547807
2	0xbdb29e3e	-0.087215886
3	0xbd32b302	-0.043627746
4	0xbd770448	-0.060306817
5	0x3cdb40e4	0.02676434
6	0xbe23a792	-0.15981892
7	0xbd243679	-0.04009101
8	0xbd753d24	-0.05987276
9	0x3de99500	0.114053726
10	0xbba76ae0	-0.005109176
11	0xbd7dcbda	-0.061961986
12	0x3e013c7d	0.1262073
13	0xbe254a75	-0.16141684
14	0x3cfab69c	0.030604653
15	0x3d58c834	0.052925304
16	0xbc594064	-0.013259981
17	0x3d92be8e	0.07165252
18	0x3d0f87e5	0.03504171
19	0xbd1e801c	-0.038696393
20	0x3d22d3b7	0.03975269
21	0xbd6f6085	-0.058441658
22	0x3dfb8e49	0.12282998
23	0x3e522fc3	0.20526032
24	0x3d5d8646	0.05408313
25	0x3d105369	0.035235796
26	0x3d6f315b	0.05839668
27	0xbdbfbcff	-0.0936222
28	0xbd6006b1	-0.05469388
29	0x3d033790	0.03203541
30	0x3dc042a1	0.093877085
31	0x3d099efd	0.03359889
32	0x3dd307f3	0.103042506
33	0x3d91d34a	0.07120378
34	0xbcccf5b6	-0.025019508
35	0xbe0c26b7	-0.13686644
36	0xbdf0abf4	-0.117515475
37	0xbd83a54e	-0.06428014
38	0x3d8da17f	0.069155686
39	0x3cb99e61	0.022658529
40	0x3dd77601	0.10520554
41	0xbdd4ce5c	-0.103909224
42	0xbd6dd52e	-0.058064632
43	0x3df2017e	0.11816691
44	0xbbef8a2b	-0.007310172
45	0xbbd32041	-0.006443054
46	0xbdeb37a6	-0.114852235
47	0x3cb43dc9	0.022002118
48	0x3d57b53e	0.05266308
49	0x3b4840be	0.0030556167
50	0xbdcb2d39	-0.09920735
51	0x3d49d210	0.049272597
52	0xbdd6407f	-0.104615204
53	0xba9c7684	-0.0011937176
54	0xbe00b620	-0.12569475
55	0x3ba9605f	0.005168959
56	0xbe2a018b	-0.16602151
57	0x3d8e5bd4	0.069511086
58	0x3cbc0607	0.022952093
59	0x3e765393	0.24055319
60	0x3bdd796f	0.006758861
61	0x3e43dda0	0.19127512
62	0xbc5432e1	-0.012951584
63	0x3e467ff1	0.19384743
64	0x3cea4033	0.028595066
65	0xbd07d532	-0.033162303
66	0xb9f4b0c5	-0.0004667101
67	0xbcb64a7b	-0.022252312
68	0xbcdcc8d2	-0.026951227
69	0xbe1ac10b	-0.15112703
70	0xbd939931	-0.07206953
71	0x3c8f4ef0	0.017493695
72	0xbd331b8e	-0.04372745
73	0x3da9923a	0.08279844
74	0x3d0323fe	0.032016747
75	0xbd6015e4	-0.054708377
76	0xbcb43d95	-0.02200202
77	0xbe1e73df	-0.15473889
78	0xbde7ea03	-0.11323931
79	0xbd9004f6	-0.07032196
80	0xbc856afe	-0.01628637
81	0x3d9c6df7	0.07638162
82	0xbc9edc46	-0.019392144
83	0xbe077936	-0.13229832
84	0xbe1d6140	-0.15369129
85	0x3c33ab73	0.01096617
86	0xbde9a7a4	-0.11408928
87	0xbb887eed	-0.0041655214
88	0xbcd8f024	-0.026481695
89	0xbc35e6ab	-0.011102359
90	0x3d9b6cd8	0.0758912
91	0xbb1e0c15	-0.0024116088
92	0xbdf83b07	-0.121206336
93	0xbcde9b2a	-0.027173597
94	0x3de2b071	0.1106881
95	0x3ccceeb3	0.025016164
96	0xbc988318	-0.018617198
97	0xbd46cca2	-0.048534997
98	0xbdb1f2d1	-0.08688892
99	0x3e45f5fc	0.19332117
100	0xbc5dfab0	-0.013548538
101	0xbd9377a1	-0.07200552
102	0xbdf17997	-0.117907695
103	0x3e127a5a	0.14304486
104	0xbdb95dfd	-0.0905113
105	0x3dbf670a	0.09345825
106	0xbd1ad1ca	-0.037797727
107	0xbd255384	-0.04036285
108	0x3c8a89bc	0.01691138
109	0xbe543f2d	-0.20727225
110	0x3d2b43fe	0.04181289
111	0x3d38fcfd	0.045163143
112	0x3e079011	0.1323855
113	0xbd39092e	-0.04517477
114	0xbe435d9a	-0.19078675
115	0xbd4dba36	-0.050226413
116	0xbe0c7a9c	-0.13718647
117	0xbd84d576	-0.06486027
118	0x3d41d488	0.047321826
119	0xbd1fe076	-0.039032422
120	0x3cbe4bb1	0.023229452
121	0xbd2f00cf	-0.04272538
122	0xbcacfe29	-0.021117287
123	0xbe0fc93d	-0.1404161
124	0xbb9802d7	-0.0046390104
125	0x3e028950	0.12747693
126	0xbd0c83fe	-0.034305565
127	0x3e1c600a	0.15271011
128	0xbbcc35d4	-0.0062320028
129	0xbdad74f6	-0.08469574
130	0xbe83265b	-0.256152
131	0x3de0da13	0.10979094
132	0xbd2045a6	-0.039128922
133	0xbe321cdc	-0.17393821
134	0x3de08610	0.109630704
135	0x3bdf3642	0.006811888
136	0xbdf333f9	-0.11875147
137	0xbe021ef7	-0.12707125
138	0xbd8a7698	-0.06760901
139	0xbdddbc58	-0.10826939
140	0xbe2ba7bf	-0.16763209
141	0xbdc441c7	-0.095828585
142	0xbd02ac84	-0.031902805
143	0x3dfc163c	0.12308928
144	0xbd18e777	-0.037330117
145	0xbd969f14	-0.073545605
146	0xbd3428dc	-0.04398428
147	0x3d9f49ea	0.0777777
148	0xbdaccd75	-0.08437625
149	0xbd6a36fd	-0.057181347
150	0x3d3f84bd	0.04675745
151	0xbd9ecab4	-0.07753506
152	0xbd8d9337	-0.06912845
153	0xbca553c6	-0.020181548
154	0xbd7a3d0c	-0.061093375
155	0xbd4cdbda	-0.050014354
156	0x3d9de1f2	0.07709111
157	0x3c5016bc	0.012700733
158	0x3e2e4b9c	0.1702103
159	0x3d2a62c7	0.041598108
160	0x3db0d8bf	0.08635091
161	0xbe17c9be	-0.14823052
162	0xbdc58e60	-0.096462965
163	0xbbd47248	-0.00648335
164	0xbc1f9d4a	-0.0097420905
165	0xbddab807	-0.10679632
166	0x3d7dc1d3	0.061952423
167	0x3d6448a1	0.055733327
168	0xbd97e2e5	-0.074163236
169	0x3ddd49c5	0.10805086
170	0xbe1375a3	-0.14400344
171	0x3dbe22e3	0.09283998
172	0x3ce99943	0.028515464
173	0xbe2b3da5	-0.16722734
174	0xbd4d1ec4	-0.05007817
175	0x3ddeea29	0.10884506
176	0x3d4c97c9	0.04994944
177	0xbdc472ba	-0.09592195
178	0x3db7a116	0.089662716
179	0xbdfa0b0b	-0.122091375
180	0x3d0f38a6	0.034966134
181	0x3d4f9bbd	0.050685633
182	0xbe38a0e5	-0.18030126
183	0xbd34e264	-0.044161215
184	0x3d723034	0.059128
185	0x3d58ae26	0.052900456
186	0x3d7fc699	0.062445257
187	0x3d28cb0c	0.041209266
188	0x3df9d134	0.121981055
189	0xbdb84f36	-0.08999483
190	0xbdd0d41e	-0.10196708
191	0x3e12a019	0.14318885
192	0xbd866ee6	-0.06564121
193	0x3d1565f6	0.03647419
194	0xbe0888cb	-0.13333432
195	0xbd5244f9	-0.05133531
196	0x3d2a3497	0.04155406
197	0xbdd09997	-0.10185545
198	0xbe1b9713	-0.15194349
199	0x3ca3e30d	0.020005727
200	0x3e046622	0.12929586
201	0xbc7fe14b	-0.015617679
202	0xbe388a4a	-0.18021503
203	0xbe38b152	-0.18036392
204	0xbd951772	-0.072798625
205	0x3d25ea95	0.040506918
206	0xbe2099d1	-0.15683676
207	0x3db95026	0.0904849
208	0x3d956540	0.072947025
209	0x3d3976f9	0.045279477
210	0xbd8e8aae	-0.06960045
211	0x3d28fbbe	0.041255705
212	0xbdc279c4	-0.09495881
213	0xbd9da9c2	-0.07698394
214	0x3d809b20	0.06279588
215	0xbbf1f3ed	-0.0073838145
216	0x3d667a72	0.056269117
217	0x3dc6e555	0.0971171
218	0xbdbb6c06	-0.09151463
219	0xbd5fc800	-0.054634094
220	0xbd394a96	-0.045237146
221	0x3dd7ef33	0.105436705
222	0xbccdc949	-0.025120394
223	0xbdad0de8	-0.08449918
224	0x3b9f9700	0.0048702955
225	0xbe00e31b	-0.12586634
226	0x3c406750	0.011743382
227	0xbdb9f98f	-0.09080803
228	0x3dc22146	0.09479003
229	0xbe1e42c5	-0.15455158
230	0xbc45f968	-0.012083389
231	0x3d3a0b3a	0.045420863
232	0xbab7c514	-0.0014020526
233	0x3df9eb68	0.12203103
234	0x3d4824da	0.04886327
235	0x3e03861b	0.12844126
236	0xbd544467	-0.051823046
237	0x3d3e3a67	0.046442416
238	0x3e35b78f	0.17745803
239	0xbe0faca2	-0.14030698
240	0x3c420dde	0.0118441265
241	0x3d938391	0.07202829
242	0xbd7ecfd4	-0.06220992
243	0xbd1880f2	-0.037232347
244	0xbd357d0b	-0.044308703
245	0xbbdfd719	-0.0068310616
246	0x3e428664	0.18996578
247	0x3b3a02f7	0.0028383115
248	0x3d44302d	0.047897507
249	0xbc65ec18	-0.01403334
250	0xbc2a68e9	-0.010400989
251	0xbb7896db	-0.0037931714
252	0x3d363848	0.044487268
253	0x3ce155a2	0.027506653
254	0x3cbda385	0.023149261
255	0x3e598721	0.21242954

a2c_network.actor_mlp.2.bias f4 [128]
0	0xbe0ea7ef	-0.13931249
1	0xbd50bd9f	-0.050962087
2	0xbdb89d05	-0.09014324
3	0xbdc252a0	-0.09488416
4	0xbc2e23a2	-0.010628613
5	0xbde6cb7b	-0.112692796
6	0xbe7ccc50	-0.24687314
7	0xbe3530b6	-0.17694363
8	0xbe8bef29	-0.27330902
9	0xbe8f1115	-0.2794272
10	0xbcf336b8	-0.029689178
11	0xbe03b03e	-0.128602
12	0xbe66f7b5	-0.2255543
13	0x3d888ca9	0.06667454
14	0xbd19b2bf	-0.03752398
15	0x3d012ae6	0.03153505
16	0xbc844118	-0.01614432
17	0xbe4df952	-0.2011464
18	0xbe0ff7a6	-0.14059314
19	0x3ddee9fa	0.10884471
20	0xbd7a7be7	-0.06115332
21	0xbe43e543	-0.19130425
22	0xbd436921	-0.04770768
23	0xbe372d61	-0.17888404
24	0x3d154ac9	0.036448274
25	0xbe292c0b	-0.16520707
26	0xbd6aa88e	-0.057289653
27	0x3d9041b1	0.0704378
28	0xbd0a1ca2	-0.033718713
29	0xbd830864	-0.06398085
30	0x3d9e5894	0.07731739
31	0x3e2708e3	0.16311984
32	0xbe86f05d	-0.26355258
33	0xbe1351fb	-0.14386742
34	0x3e2a8f41	0.1665621
35	0x3d56ddb0	0.05245751
36	0xbe32e987	-0.17471896
37	0xbdb498fc	-0.08818242
38	0x3da43bf7	0.0801925
39	0x3da158f4	0.078782946
40	0x3cdf4a3d	0.02725708
41	0x3cdba9d9	0.026814388
42	0xbe8851cc	-0.26624906
43	0xbe699b70	-0.22813201
44	0xbe121728	-0.14266646
45	0xbcec277e	-0.028827425
46	0xbd8a3fec	-0.067504734
47	0xbe3538cc	-0.17697448
48	0xbdd9abd0	-0.10628474
49	0xbc58bb06	-0.013228184
50	0xbd838ebb	-0.06423708
51	0xbda0f11c	-0.07858488
52	0xbe259cea	-0.16173139
53	0xbe868bd1	-0.26278546
54	0x3d6ba179	0.05752704
55	0x3cd20cb0	0.025640815
56	0x3d3bbe30	0.045835674
57	0xbc2036e1	-0.009778709
58	0xbdb177a3	-0.08665397
59	0x3d39ca55	0.045358974
60	0x3d315659	0.04329524
61	0xbd1726b6	-0.036902152
62	0xbd872350	-0.06598532
63	0xbdde4ffb	-0.10855099
64	0x3d26fd65	0.040769
65	0x3d7a916f	0.061173853
66	0xbdb4371b	-0.08799573
67	0xbe4d8e2b	-0.20073764
68	0xbd20c414	-0.039249495
69	0x3d7bd0b1	0.06147832
70	0xbd9773cf	-0.073951356
71	0xbc889c77	-0.01667617
72	0xbe085905	-0.13315208
73	0x3c16c5a7	0.009202397
74	0xbdf2308e	-0.11825667
75	0x3dbfb5a1	0.09360815
76	0xbb657c3e	-0.003501668
77	0xbd71c7e9	-0.05902854
78	0xbe652cee	-0.2238042
79	0x3cd9f59c	0.026606373
80	0xbe3da925	-0.18521555
81	0xbe59d004	-0.21270758
82	0xbe7efa08	-0.24900067
83	0xbd096bc0	-0.033550024
84	0xbcf85df0	-0.03031823
85	0x3c41aae1	0.011820526
86	0xbd9e9e3b	-0.07745024
87	0xbe3d7a84	-0.18503767
88	0xbdb3a76f	-0.0877217
89	0xbde1cb8a	-0.1102515
90	0x3d92d940	0.071703434
91	0xbda6535e	-0.0812137
92	0xbd343d8f	-0.04400402
93	0xbe092270	-0.13392043
94	0xbd304d68	-0.04304257
95	0x3d22d7e7	0.03975668
96	0x3d1e0ada	0.038584568
97	0xbcbb1e2a	-0.022841532
98	0x3db05569	0.08610041
99	0xbe8472ae	-0.25868744
100	0xbe30c6ee	-0.17263386
101	0xbdc3e908	-0.095659316
102	0xbe1b5161	-0.15167762
103	0xbe00b744	-0.1256991
104	0xbd32eca7	-0.04368272
105	0x3daeddee	0.085384235
106	0xbe33ea07	-0.17569743
107	0x3dfe1e55	0.12408129
108	0xbd5114f8	-0.051045388
109	0xbd5aa595	-0.053380568
110	0xbe69047c	-0.22755617
111	0xbd89c336	-0.06726687
112	0xbd4c86dd	-0.049933303
113	0x3ab50ecc	0.0013813614
114	0x3dcd1e25	0.10015515
115	0xbe81c2bf	-0.25343892
116	0xbe37df5d	-0.179563
117	0x3c62ff56	0.013854822
118	0xbd2bb772	-0.041922994
119	0x3e175b7d	0.14780994
120	0xbe0c525c	-0.13703293
121	0xbcfe3f49	-0.031036036
122	0xbe2d294c	-0.16910285
123	0x3cbc3a8f	0.022977142
124	0xbdaaeadb	-0.083455764
125	0xbe268e87	-0.16265307
126	0xbd96408b	-0.07336529
127	0xbe336990	-0.17520738

a2c_network.actor_mlp.4.weight f4 [64, 128]
0	0x3da1e5e5	0.07905177
1	0xba4cef62	-0.0007817653
2	0x3d825405	0.06363682
3	0xbd0383fd	-0.032108296
4	0x3d983a67	0.07433014
5	0xbdd1c753	-0.10243096
6	0x3bb40072	0.005493217
7	0xbc94d639	-0.018168556
8	0x3e261f6a	0.16222921
9	0x3dda70ec	0.106660694
10	0xbe332f3a	-0.17498484
11	0xbc393e7e	-0.011306403
12	0x3deb60d4	0.11493078
13	0x3d92607e	0.07147311
14	0xbd2a9202	-0.04164315
15	0x3d03a273	0.032137346
16	0xbe054759	-0.13015498
17	0x3d3bfb80	0.045894146
18	0xbd0407bb	-0.032233935
19	0xbe20aa50	-0.15689969
20	0xbb4baa75	-0.0031076942
21	0x3e1e5f20	0.15465975
22	0x3d2b1cd0	0.041775525
23	0xbcace79e	-0.021106537
24	0xbd9070bb	-0.07052752
25	0xbd8d0dcd	-0.06887398
26	0x3d966c18	0.07344836
27	0xbdc1b4d8	-0.09458321
28	0xbd821760	-0.06352115
29	0xbda7cde1	-0.08193565
30	0xbe45e8ee	-0.19327137
31	0x3cdba029	0.026809769
32	0xbd2c6052	-0.042084046
33	0xbde42d3f	-0.111414425
34	0xbda7a3b4	-0.08185521
35	0xbbe06960	-0.006848499
36	0x3d2f8987	0.042855766
37	0xbde0a608	-0.10969168
38	0xbd0df0ed	-0.034653593
39	0xbe01fa9a	-0.12693253
40	0xbe00dd92	-0.12584522
41	0x3d7bd2e1	0.061480407
42	0x3ded37ac	0.11582884
43	0xbcb0f89e	-0.021602925
44	0xbdc414a2	-0.09574248
45	0x3d07a699	0.033117864
46	0x3dc39da7	0.09551554
47	0xbd672695	-0.05643328
48	0xbce6f07e	-0.028190847
49	0xbe6448e8	-0.22293437
50	0x3d89ec8e	0.06734572
51	0xbc98ffe1	-0.0186767
52	0x3cd7ba83	0.026334053
53	0x3e13f42c	0.14448613
54	0xbd3bf343	-0.04588629
55	0xbda4098f	-0.08009636
56	0x3d5f1e35	0.054472167
57	0xbe2a44e1	-0.16627838
58	0xbbb56701	-0.0055359607
59	0x3d9584e2	0.07300736
60	0xbd9eeab5	-0.077596106
61	0xbc175c61	-0.009238333
62	0x3daa5ffc	0.08319089
63	0x3d3a09ea	0.04541961
64	0xbd94d68e	-0.072674856
65	0xbe06f06b	-0.1317765
66	0xbd95953e	-0.07303856
67	0x3d7f2eae	0.062300377
68	0xbdc8d0d3	-0.09805455
69	0xbe34edf3	-0.17668895
70	0xbd3c0bf5	-0.04590984
71	0xbbc55acd	-0.006022787
72	0xbd831af3	-0.064016245
73	0x3d3d8eb9	0.04627869
74	0x3d87ff0e	0.06640445
75	0xbd01639f	-0.031589147
76	0xbd2b9232	-0.04188747
77	0xbd2142ad	-0.039370228
78	0xbc3e5271	-0.011616335
79	0x3b9b7150	0.0047437325
80	0xbe314d40	-0.17314625
81	0xbd781962	-0.060571082
82	0xbe2ad290	-0.16681886
83	0xbd453332	-0.048144527
84	0xbd86b041	-0.065765865
85	0xbcb2cd3c	-0.021826379
86	0x3cf3f926	0.02978189
87	0x3e045a60	0.129251
88	0xbc86febc	-0.016478889
89	0xbdc091a5	-0.094027795
90	0x3afab32b	0.0019126883
91	0xbd977334	-0.0739502
92	0x3e0863b8	0.1331929
93	0x3d075f8d	0.03305011
94	0x3d9eda6a	0.07756503
95	0xbd870c53	-0.065941475
96	0xbe52f2e8	-0.20600474
97	0xbdb95c8b	-0.09050854
98	0x3d81558e	0.063151464
99	0xbcdf27d2	-0.027240667
100	0x3dae09e7	0.084979825
101	0xbdb38be3	-0.08766916
102	0x3d805d77	0.06267827
103	0xbe61c584	-0.22048002
104	0x3d880e34	0.06643334
105	0xbcb730ce	-0.02236214
106	0x3d98d2d1	0.07462085
107	0xbad6432a	-0.0016346921
108	0xbba2313e	-0.004949718
109	0x3d59981c	0.05312358
110	0xbd83e150	-0.06439459
111	0xbccff0de	-0.02538341
112	0xbaef3d09	-0.0018252443
113	0x3c855909	0.016277807
114	0xbd0f9e1f	-0.035062905
115	0xbcb66b7c	-0.02226805
116	0xbd14b992	-0.036309786
117	0xbdebb871	-0.11509789
118	0xbd127ad7	-0.03576168
119	0x3d42b43c	0.047535166
120	0xbd258e1a	-0.04041872
121	0x3cf900ff	0.030395983
122	0x3c243944	0.010023419
123	0x3b93e9b8	0.0045139454
124	0xbe0255c7	-0.12728034
125	0x3dec81c6	0.1154819
126	0xbd3a62c6	-0.045504354
127	0xbdeb9fa3	-0.11505058
128	0xbd70e907	-0.058815982
129	0xbc3d96a4	-0.01157156
130	0x3dc842b4	0.097783476
131	0xbc47c57f	-0.012193083
132	0x3e412769	0.1886269
133	0xbdf73670	-0.1207093
134	0xbc81a4c1	-0.015825631
135	0x3de27b93	0.11058726
136	0x3ba27383	0.0049576177
137	0xbdd1e258	-0.1024825
138	0x3e20a765	0.15688856
139	0xbd50b41b	-0.050953012
140	0x3d2a1c08	0.04153064
141	0x3cb340b2	0.021881435
142	0xbd85ce79	-0.06533522
143	0xbdd7f12e	-0.10544048
144	0x3bbdc0e3	0.005790816
145	0x3d5f3bf5	0.05450054
146	0x3d61705b	0.05503879
147	0x3d71ded7	0.059050407
148	0x3dc92783	0.098219894
149	0xbc6e5918	-0.014547609
150	0xbda8c66c	-0.08240971
151	0x3df07928	0.11741859
152	0x3deff3a7	0.11716395
153	0xbdd556bd	-0.10416935
154	0xbc815f34	-0.015792467
155	0xbdf426f4	-0.11921492
156	0x3d83eaa2	0.06441237
157	0x3e27ea55	0.16397984
158	0xbd938c34	-0.07204476
159	0x3d0b12c2	0.033953436
160	0x3de40ff3	0.111358546
161	0x3d3dee74	0.046369985
162	0x3b8d88cd	0.0043192864
163	0xbdfa1ab6	-0.12212126
164	0x3c7bcb17	0.015368245
165	0xbe5f83d2	-0.21827629
166	0xbc12f78b	-0.008970152
167	0xbccc046a	-0.024904449
168	0xbce07fef	-0.027404753
169	0xbd650025	-0.05590834
170	0x3d526d1b	0.051373582
171	0xbbb82fa5	-0.005620914
172	0x3d59564b	0.05306081
173	0xbde2549b	-0.110512935
174	0xbcf4edd0	-0.029898554
175	0xbd8c19f3	-0.06840887
176	0x3d4b4df9	0.049634907
177	0x3cee52d9	0.02909224
178	0xbd802973	-0.06257906
179	0x3d0a5c98	0.03377971
180	0x3e048cdd	0.1294436
181	0x3d97a1d6	0.07403915
182	0xbe2b3929	-0.16721024
183	0xbc7501c5	-0.014954035
184	0xbcfa55ad	-0.030558432
185	0x3d4143f5	0.04718395
186	0x3dbc1bc1	0.09184981
187	0xbde5fbe5	-0.11229686
188	0x3e02b744	0.12765223
189	0xbd9a786b	-0.07542499
190	0x3de20179	0.11035437
191	0x3dc8ed80	0.098109245
192	0x3dd7f4cf	0.105447404
193	0x3e3d86a4	0.18508393
194	0xbdef2606	-0.11677174
195	0x3cd8d85c	0.026470356
196	0xbd4430df	-0.04789817
197	0x3db4bc83	0.08825018
198	0xbda09483	-0.07840826
199	0xbda193c6	-0.07889514
200	0x3d96c47c	0.07361695
201	0x3d994cdd	0.07485364
202	0xbd637df1	-0.05554003
203	0x3b61f78f	0.0034479832
204	0xbe318d61	-0.17339088
205	0xbbe9161a	-0.0071132304
206	0xbca1cb24	-0.019750185
207	0xbc8ea5db	-0.01741307
208	0xbd025267	-0.031816866
209	0xbd9e5f50	-0.07733023
210	0x3d90f55b	0.07078048
211	0xbdd485a7	-0.10377055
212	0xbd4865be	-0.048925154
213	0xbd5f3322	-0.054492123
214	0xbd851c28	-0.06499511
215	0xbdbb7838	-0.09153789
216	0xbd85441b	-0.06507131
217	0xbd1f08bf	-0.0388267
218	0xbd4c4359	-0.049868915
219	0x3de0bb75	0.109732546
220	0x3cce1986	0.025158655
221	0xbd0dbe1c	-0.03460513
222	0x3d8e5b8e	0.069510564
223	0xbe029857	-0.12753426
224	0xbe937e98	-0.2880752
225	0x3d8063e9	0.06269056
226	0x3dd69b2f	0.10478818
227	0x3e0afe27	0.13573514
228	0xbc3ea948	-0.0116370395
229	0x3d63217c	0.055451855
230	0xbd814520	-0.06312013
231	0xbe0ff801	-0.1405945
232	0x3d620d30	0.055188358
233	0xbdc24472	-0.09485711
234	0xbdb5f48c	-0.08884534
235	0xbe1e4b66	-0.1545845
236	0x3e5238e1	0.2052951
237	0x3dfed901	0.12443734
238	0xbd76f650	-0.060293496
239	0xbcc15426	-0.023599695
240	0xbe0decca	-0.13859859
241	0xbdf84065	-0.12121657
242	0x3c97ffc5	0.018554578
243	0x3d95dc2c	0.07317385
244	0x3d83a6d2	0.06428303
245	0xbd3a0948	-0.045419008
246	0xbbc032dd	-0.0058654384
247	0x3d091fb9	0.03347752
248	0xbe146c70	-0.1449449
249	0xbe058e51	-0.1304257
250	0xbd59b40b	-0.053150218
251	0xbe1b5c0e	-0.15171835
252	0x3bb4d9d4	0.005519131
253	0x3cb12911	0.021626027
254	0x3e643261	0.22284843
255	0xbd949795	-0.072554745

a2c_network.actor_mlp.4.bias f4 [64]
0	0xbd65ead2	-0.056132145
1	0xbc299fb0	-0.010353014
2	0x3cd90c22	0.026495043
3	0x3d9b8a87	0.07594781
4	0xbd9d8975	-0.076922335
5	0xbb3f3ab6	-0.0029179282
6	0x3d2cd6de	0.0421971
7	0xbd895001	-0.06704713
8	0xbd9fbc8e	-0.07799636
9	0xbdfd63ac	-0.123725265
10	0x3dab4fd7	0.083648376
11	0xbd9cdcb8	-0.07659286
12	0xbc902303	-0.01759482
13	0x3d54046a	0.051762022
14	0xbccb4952	-0.024815235
15	0x3d8825d7	0.066478424
16	0xbd6351e4	-0.05549802
17	0xbd0aeccc	-0.033917233
18	0xbe04ffc1	-0.12988187
19	0xbd8730ff	-0.06601142
20	0x3d5dca2b	0.05414788
21	0xbd80e802	-0.06294252
22	0x3d9375a8	0.072001755
23	0x3ceffb1a	0.02929454
24	0xbd1baa57	-0.038004246
25	0xbdf3a7bb	-0.118972264
26	0xbd4752e0	-0.04866302
27	0xbdf4178b	-0.11918553
28	0xbda1b5ab	-0.078959785
29	0x3c7a20a5	0.015266572
30	0x3d6c7558	0.057729095
31	0xbe072b3f	-0.13200091
32	0x3d8cab6d	0.068686344
33	0x3de0bf92	0.10974039
34	0xbe5561c8	-0.20838082
35	0xbdf0328e	-0.117283925
36	0xbd8ed4e2	-0.06974198
37	0x3dd79e19	0.105282016
38	0x3d5cb6bc	0.053885207
39	0xbe242f3c	-0.16033643
40	0x3dd31c24	0.10308102
41	0xbdba7116	-0.09103601
42	0xbd74ff35	-0.059813697
43	0xbe0b624c	-0.13611716
44	0x3d9bd90e	0.07609759
45	0xbdad4658	-0.08460683
46	0xbcf162f0	-0.029466122
47	0xbd860b26	-0.06545095
48	0xbc97a6a4	-0.018512078
49	0xbbe3b7f4	-0.006949419
50	0x3af140bd	0.0018406134
51	0xbdc10228	-0.094242394
52	0xbd2acda8	-0.041700035
53	0x3df53a4a	0.119740084
54	0x3d0599ea	0.032617487
55	0xbd247ad6	-0.040156208
56	0xbd55c24e	-0.052187257
57	0xbe1e5b28	-0.15464461
58	0x3c0f7f11	0.008758322
59	0xbe1ce6eb	-0.15322463
60	0xbdf5ed56	-0.12008159
61	0xbda4d67c	-0.08048722
62	0xbda0dbcc	-0.07854423
63	0xbd43e4c8	-0.047825605

a2c_network.value.weight f4 [1, 64]
0	0xbd012df9	-0.031537984
1	0x3be3ec03	0.006955625
2	0x3cafb9b9	0.021450864
3	0x3dc43246	0.095799014
4	0xbd840fca	-0.06448324
5	0xbb914f50	-0.0044345036
6	0x3b9fa0de	0.004871472
7	0xbb90b9a4	-0.0044166613
8	0xbc3426b5	-0.010995557
9	0xbd02ac54	-0.031902626
10	0x3eaf9573	0.34293708
11	0xbcefff32	-0.029296491
12	0x3bb4a67d	0.005513011
13	0xba5c923c	-0.00084141246
14	0x3c959259	0.01825826
15	0x3e112263	0.14173274
16	0x3bc20960	0.0059215277
17	0xbbe2c0d1	-0.006919958
18	0xbdffdbd9	-0.124931045
19	0xbd055776	-0.032554112
20	0x3b59cf47	0.003323512
21	0xbcaa3f5b	-0.020782163
22	0x3c046ac1	0.008082093
23	0x3bb493fd	0.0055108056
24	0x3c6f5380	0.01460731
25	0x3d50ecfd	0.05100726
26	0x3c4d1801	0.01251793
27	0xbd160b67	-0.036631968
28	0xbbc58f3d	-0.006029038
29	0x3c032505	0.008004432
30	0x3e79233e	0.2432985
31	0xbd7f4f68	-0.062331587
32	0x3dc68922	0.09694125
33	0x3e659251	0.22419097
34	0xbd336a15	-0.04380234
35	0xbd891dc0	-0.066951275
36	0xbd6e610b	-0.058198016
37	0x3da659db	0.08122607
38	0xbacb7c55	-0.0015524725
39	0xbc4c231e	-0.012459544
40	0x3e7bbc6c	0.24583596
41	0xbc23b320	-0.009991437
42	0xbd149746	-0.036277078
43	0x3cd9b40f	0.026575116
44	0x3d61f91f	0.05516922
45	0xbbf7612b	-0.007549425
46	0x3babbf4f	0.0052413116
47	0xbc312757	-0.010812602
48	0xbd236d9c	-0.039899454
49	0x3c16852d	0.009187025
50	0xb9e34d1e	-0.0004335427
51	0x3b91a633	0.0044448613
52	0xbc6c13fa	-0.01440906
53	0x3e2b9ed1	0.16759802
54	0x3d7c16a5	0.061545033
55	0x3c68e5c7	0.014214939
56	0xbc84c8ac	-0.016208969
57	0xbcb2ba72	-0.02181742
58	0x3ca407e6	0.020023298
59	0x3c7c7b22	0.0154102165
60	0xbb8ae9b6	-0.0042392863
61	0xbc685cf1	-0.014182315
62	0x3c7288e7	0.014803148
63	0x3b838dcc	0.0040147062

a2c_network.mu.weight f4 [12, 64]
0	0x392d3135	0.00016516897
1	0xbba2a610	-0.004963644
2	0x3e5e46ae	0.2170665
3	0xbdf4d82c	-0.11955294
4	0xbd09e494	-0.033665255
5	0xbda94a46	-0.0826612
6	0x3d80b720	0.06284928
7	0x3bb44f65	0.0055026286
8	0xbc99e0dd	-0.018783981
9	0x3d3eb011	0.04655463
10	0x3e4cf754	0.20016223
11	0xbd994966	-0.07484703
12	0x3e10a09f	0.14123772
13	0xbdf2fae2	-0.11864258
14	0x3d9ae74b	0.07563647
15	0xbca186ef	-0.019717662
16	0x3da5d71e	0.08097671
17	0xbe183f63	-0.1486793
18	0xbd9cef56	-0.07662837
19	0x3d158536	0.036503993
20	0x3dd9dc7a	0.10637756
21	0x3b94dd57	0.0045429873
22	0xbd3913a1	-0.045184735
23	0xbe926c8d	-0.28598443
24	0x3d0e6758	0.034766525
25	0xbd337d5b	-0.04382072
26	0x3cf6d147	0.030129088
27	0xbd584dfe	-0.052808754
28	0xbc9b45ca	-0.018954176
29	0xbd4290fe	-0.047501557
30	0x3d18a1fc	0.037263855
31	0x3c1816b4	0.009282757
32	0x3d40ba92	0.047052927
33	0xbe14123e	-0.14460084
34	0xbcd252d5	-0.025674263
35	0x3cef803a	0.029235948
36	0x3d82deff	0.063901894
37	0xbad00907	-0.0015871831
38	0xbe26e816	-0.16299471
39	0x3d5a6b56	0.05332502
40	0x3d7dbea8	0.061949402
41	0x3e4be713	0.19912367
42	0x3d08e6fe	0.033423416
43	0xbca76eea	-0.02043863
44	0x3c1c3249	0.009533473
45	0xbd76ca44	-0.06025149
46	0x3df2812c	0.11841044
47	0x3d256449	0.040378843
48	0xbd3bc11a	-0.045838453
49	0x3e242aac	0.16031903
50	0x3d2edc50	0.042690575
51	0x3dc105a7	0.09424906
52	0x3dd07ead	0.101804115
53	0x3bb457ea	0.0055036442
54	0x3c46a932	0.0121253
55	0xbd710c0f	-0.05884939
56	0xbdaf41a1	-0.085574396
57	0xbe0a0983	-0.13480191
58	0xbc27edd2	-0.010249572
59	0xbdc10f96	-0.09426801
60	0xbe78bef6	-0.24291596
61	0x3d62fe0d	0.055418063
62	0xbdb94077	-0.09045499
63	0xbe6116f8	-0.21981418
64	0xbb33a13e	-0.002740934
65	0xbddc5477	-0.10758298
66	0x3e56cd71	0.20976807
67	0x3e34f678	0.17672145
68	0xbccb8dae	-0.024847832
69	0xbdc55132	-0.096346274
70	0x3db76316	0.08954446
71	0xbbbe6870	-0.0058107898
72	0x3c9794c0	0.018503547
73	0xbe0651ae	-0.13117096
74	0xbd8740de	-0.06604169
75	0xbd13f622	-0.036123402
76	0x3d4c9fef	0.049957212
77	0x3db55342	0.08853771
78	0x3d8a6131	0.06756819
79	0xba5a634c	-0.00083308364
80	0xbddab98a	-0.1067992
81	0x3dc896c0	0.09794378
82	0xbd8545ad	-0.0650743
83	0xbd5f8d3a	-0.054578044
84	0x3dcfc475	0.10144893
85	0x3d367ccd	0.044552613
86	0xbc9bbec7	-0.019011868
87	0x3d8ad9ea	0.06779845
88	0x3ab5e5c3	0.0013877678
89	0x3c25c5fd	0.010118005
90	0x3d466958	0.048440307
91	0xbdbc038b	-0.09180363
92	0x3e066a46	0.13126478
93	0xbcf7f581	-0.030268433
94	0x3df4cca3	0.11953094
95	0x3d3e90a6	0.046524666
96	0xbd25cbbc	-0.0404775
97	0xbcbeb9fe	-0.023282047
98	0xbdeca137	-0.11554187
99	0x3c95fe64	0.01830978
100	0x3da65c18	0.08123034
101	0xbd3f4cc9	-0.046704087
102	0x3e2af8ef	0.16696523
103	0x3c70e9c5	0.0147041725
104	0x3d16b2f5	0.03679176
105	0x3d05ac54	0.032635048
106	0x3dd1ee43	0.10250523
107	0xbd800ad8	-0.06252068
108	0xbdb175cf	-0.08665048
109	0x3d139590	0.036031306
110	0xbe3c496a	-0.1838738
111	0x3e169035	0.14703448
112	0x3e1e606c	0.1546647
113	0xbe10f4f9	-0.1415595
114	0xbe0ed24c	-0.1394741
115	0x3e57b79e	0.21066138
116	0xbd47ec61	-0.048809413
117	0xbdd8b8c7	-0.105821185
118	0xbd99d015	-0.075103916
119	0x3e08ee18	0.13372076
120	0xbd99ef23	-0.07516315
121	0x3e11a42b	0.14222781
122	0xbcb48e2a	-0.022040445
123	0xbd984239	-0.07434506
124	0xbddc9fe8	-0.10772687
125	0x3e26c019	0.16284217
126	0xbdfc34b6	-0.12314741
127	0x3cf10461	0.029421033
128	0x3e17e226	0.14832363
129	0xbb61771f	-0.0034403277
130	0x3d04ee31	0.03245372
131	0xbc562c25	-0.013072048
132	0xbc05f6fe	-0.008176563
133	0x3d5a9d65	0.05337276
134	0x3db2dca5	0.08733491
135	0x3e47604e	0.19470331
136	0xbd157123	-0.03648485
137	0x3e419b80	0.18906975
138	0xbe14b28f	-0.1452124
139	0x3d84f479	0.06491942
140	0x3d532862	0.051552184
141	0x3e15d4bf	0.14631937
142	0x3e380ff5	0.17974837
143	0xbd91f27b	-0.071263276
144	0xbd6493d4	-0.055805042
145	0x3d700735	0.058600623
146	0x3c986daf	0.018606989
147	0x3d70c193	0.058778357
148	0xbd7890c4	-0.060684934
149	0x3dd05acb	0.101735674
150	0xbdf10045	-0.117676295
151	0x3d2a71c1	0.04161239
152	0x3d664583	0.056218635
153	0xbc0020c0	-0.007820308
154	0xbd970405	-0.073738135
155	0x3d040820	0.03223431
156	0xbe0f80f1	-0.14014031
157	0xbe80f523	-0.25187024
158	0xbdf54d57	-0.11977642
159	0x3c9c91a9	0.019112425
160	0x3d1013f9	0.035175297
161	0xbd66666a	-0.056250013
162	0x3db3c0f2	0.08777036
163	0x3d596187	0.053071525
164	0xbc908f02	-0.017646316
165	0xbe36e352	-0.17860153
166	0xbd50b310	-0.050952017
167	0xbe2bf79f	-0.16793679
168	0x3da4666f	0.0802735
169	0xbe311077	-0.17291437
170	0xbb08861a	-0.0020831884
171	0x3b1f407d	0.0024299913
172	0x3d15cafb	0.03657053
173	0xbddb7953	-0.107165
174	0xbe4bc4e5	-0.19899328
175	0xbe0d515f	-0.13800572
176	0x3cbac1e7	0.022797538
177	0x3e0e8639	0.1391839
178	0x3dd06c9f	0.10176968
179	0x3d5a7ebb	0.053343516
180	0xbe0bcc4b	-0.1365215
181	0x3d88afe5	0.06674174
182	0x3d969c92	0.07354082
183	0xbba6f74e	-0.005095399
184	0x3ab2a812	0.0013630411
185	0xbe378220	-0.17920732
186	0x3db51e85	0.08843712
187	0xbc7bf686	-0.0153786
188	0xbe01cadb	-0.1267504
189	0xbd2de13a	-0.04245112
190	0xbb84755f	-0.004042312
191	0xbda5bbb6	-0.08092444
192	0x3e1cccdb	0.15312521
193	0xbb721416	-0.0036938242
194	0x3d5ba435	0.053623397
195	0x3e888e7a	0.266712
196	0x3bc47976	0.0059959246
197	0x3ddafffe	0.10693358
198	0xbdabe792	-0.08393778
199	0x3d53a45e	0.051670425
200	0x3d4316b3	0.04762907
201	0x3b528a4e	0.0032125893
202	0xbda0d2ab	-0.07852682
203	0xbc8741c1	-0.016510846
204	0x3d2353e4	0.039874926
205	0x3d0d60f4	0.03451629
206	0x3cb5eb0d	0.022206808
207	0xbdcabb51	-0.09899009
208	0x3de62886	0.11238198
209	0x3d73778d	0.059440184
210	0xbcd8c8b1	-0.026462885
211	0x3cdd69e5	0.027028034
212	0x3d7e92f3	0.06215186
213	0xbd8c86a3	-0.068616174
214	0x3cc8cbef	0.024511306
215	0xbd2b1175	-0.041764695
216	0xbdd1f2f0	-0.10251415
217	0x3e049ce1	0.1295047
218	0x3ddd39b2	0.1080202
219	0x3e412641	0.18862249
220	0x3d82d5a7	0.06388407
221	0x3bedaa06	0.0072529344
222	0xbdfffe6f	-0.12499701
223	0x3dd7f93a	0.10545583
224	0x3decb906	0.11558728
225	0x3d3f2751	0.046668354
226	0x3d370aec	0.04468815
227	0x3bd62a82	0.006535829
228	0x3e042287	0.12903796
229	0xbdb029ea	-0.086017445
230	0xbdbcc022	-0.09216334
231	0x3e42596c	0.18979424
232	0x3ddc9c93	0.10772052
233	0xbd176e64	-0.03697051
234	0xbcd6962e	-0.026194658
235	0x3c4c680e	0.01247598
236	0xbda2f87d	-0.07957552
237	0xbdcf8093	-0.101319455
238	0xbc9a3413	-0.018823659
239	0xbd41801a	-0.047241308
240	0x3d1b3e9f	0.037901517
241	0x3cb891ed	0.02253052
242	0x3d2ed205	0.04268076
243	0x3d257eeb	0.04040424
244	0xbe296e05	-0.16545875
245	0xbe112a72	-0.14176348
246	0xbe220569	-0.15822376
247	0xbd14114f	-0.03614932
248	0x3dd92e17	0.10604494
249	0x3cc65812	0.024211917
250	0x3d3a2ca8	0.045452744
251	0xbd84e562	-0.06489064
252	0xbda4b0e4	-0.08041552
253	0x3d1c0872	0.03809399
254	0xbba05737	-0.0048932093
255	0xbcdfd175	-0.027321557

a2c_network.mu.bias f4 [12]
0	0x3d3d4b52	0.04621441
1	0xbc86bb57	-0.016446752
2	0xbd31383b	-0.043266516
3	0xbca82209	-0.020524042
4	0xbc375f88	-0.01119221
5	0xbd7bebb5	-0.061504085
6	0x3e2166af	0.15761827
7	0x3ced648a	0.028978605
8	0x3d59644f	0.053074177
9	0xbdb02911	-0.08601583
10	0xbe01a180	-0.12659264
11	0x3d2681b7	0.04065105

exp_avg f4 [12]
0	0xbb76ad3e	-0.0037639881
1	0x3b28251e	0.002565689
2	0x3b98f3be	0.004667728
3	0xbaf6365d	-0.0018784512
4	0xbb680914	-0.0035405802
5	0xbb161740	-0.0022902042
6	0xbb8291e9	-0.003984679
7	0x3a3836fb	0.00070272357
8	0xbac234b3	-0.0014816731
9	0xbab1eee8	-0.0013575228
10	0xbb6764a1	-0.0035307782
11	0xbbb82871	-0.0056200554

exp_avg_sq f4 [12]
0	0x3849acd6	4.80831e-05
1	0x38399d76	4.4254084e-05
2	0x3846ae38	4.7369133e-05
3	0x3842a286	4.6404566e-05
4	0x385cd9bf	5.265488e-05
5	0x3848d585	4.788257e-05
6	0x385c1670	5.2472984e-05
7	0x38554dc6	5.085559e-05
8	0x384ff44a	4.9580158e-05
9	0x38430363	4.6494777e-05
10	0x3848c066	4.78629e-05
11	0x385d8cd7	5.2821673e-05
