OmniIsaacGymEnvs/omniisaacgymenvs/runs/Naranjelio/nn/last_Naranjelio_ep_5100_rew_-0.9767411.pth (torch, 672859 bytes, 36 tensors)

value_mean_std.running_mean f8 [1]
00000000: 761e 92de dcc6 ebbf
-0.8680252406201834

value_mean_std.running_var f8 [1]
00000000: 0e8a 6b1a aacc 7b3f
0.00678698011936031

value_mean_std.count f8 []
00000000: 0000 8000 00e2 cd41
1002700801.0

running_mean_std.running_mean f8 [48]
00000000: c3e9 9237 d18b a0bf c821 6a0c 79e4 c4bf
00000010: 3a64 bcd8 56c2 e0bf 2c4b cf1d 7767 c03f
00000020: d00b 1e46 24fa abbf 8055 7e1a 0ae2 81bf
00000030: 7398 ade7 f8aa af3f 4051 183e c4eb 953f
00000040: fb12 fb3e 37e5 efbf 4969 6d2f 72bc 183f
00000050: 5a80 56a1 1705 38bf d238 b890 eb5e fdbe
00000060: fd04 7051 89b2 8ebf 04ee 2e61 1df0 a6bf
00000070: ff1c 9187 9ea1 233f ddb5 1276 8038 a7bf
00000080: 9a0f 8189 c710 a7bf 4205 ab91 6b27 aabf
00000090: 550f 5213 d0b5 a9bf 7054 a1a0 0015 a0bf
000000a0: 823b 3f30 7225 973f 7318 3896 b797 663f
000000b0: 06c9 ab0e 8f56 ac3f fb9c e2eb 286e 61bf
000000c0: 5270 a3ea fe31 46bf d5f4 780d 7bfd 43bf
000000d0: 44a9 d9b0 ac83 08bf 2da3 49a7 c18d 4fbf
000000e0: 761a 9684 7ed9 4ebf 925f e627 c79d 3fbf
000000f0: 0997 3ae9 27c7 42bf be86 7034 65fd 96bf
00000100: 7547 bf5f 0624 543f 9684 9a77 90a8 443f
00000110: 934f 693d 023b 513f ed14 053f 267e db3e
00000120: 3e05 0100 a22d c23f cc2f 9dc0 b22c eabf
00000130: f4e2 62b3 215e de3f 73bc 3d3e 17db ecbf
00000140: 4331 9b08 6554 ebbf 5e90 4893 0ea9 e3bf
00000150: 5c37 a747 73b6 d33f eb14 12aa caf6 bd3f
00000160: 5416 641a 6a20 e43f 8766 6e72 5ed1 d1bf
00000170: 6391 a4ab 3eeb e0bf 9e9b 8b77 abe8 c43f
-0.032316720994873836 -0.163222437917524 -0.5237230523226863 0.1281575103335738 -0.05464280467915439 -0.008731917317883697 0.061851290017146086 0.02140719059941998
-0.9967304449170052 9.436079913652697e-05 -0.0003665144625646426 -2.8010160390273143e-05 -0.014988968656327812 -0.04480068026847664 0.0001497751252676829 -0.04535294953653211
-0.045049891982244364 -0.051082002193207035 -0.05021524654242052 -0.03141023598497206 0.022603782839549343 0.0027578912429389534 0.05534789136972233 -0.002127723621999087
-0.000677346678709787 -0.0006100512354759955 -4.6757419210080006e-05 -0.0009629436086245662 -0.0009414546740778701 -0.00048242675975406727 -0.0005730576399016484 -0.022451001477867598
0.0012292921301093305 0.0006304459959275584 0.0010516664384754057 6.554787418904348e-06 0.14201760292238846 -0.8179563295357126 0.47449533956709833 -0.9017444816253274
-0.8540520828333132 -0.6143868328695239 0.30801088330632864 0.11704699184527427 0.6289568438957738 -0.2784038655750937 -0.5287164070510183 0.16335051858115163

running_mean_std.running_var f8 [48]
00000000: e1df 83fd 33d8 833f d2c8 e6ea 76b8 af3f
00000010: 6b50 4379 58be d83f 7c28 bf10 ba76 9f3f
00000020: 590a 34be cdff 733f 5e88 4f15 2d8d 313f
00000030: d1b2 b41e 7f42 5b3f 253c 14a4 0bab 423f
00000040: de06 7d18 8398 e63e aa65 a93b 5d54 1540
00000050: 1f51 21dc 2b55 f53f f54c 7d6c 7057 953f
00000060: e379 11b9 562e 333f 2b09 ce00 20d2 473f
00000070: 7eed 4ec8 0baa 743e 712c 76d9 d9e5 483f
00000080: 21ed 0f45 2bea 473f ef2f 50de dc47 4a3f
00000090: 7c74 2d0d a561 493f 1932 3b45 5a52 513f
000000a0: 708d c7d9 0951 423f 5248 6714 bd68 c53e
000000b0: 04ef a1b4 f2f7 4e3f d564 5a1d 007f b63e
000000c0: e4ed 1b82 39fd df3e 20ba c0a1 7c7c ec3e
000000d0: e359 9216 6b02 a03e e49e d287 98d8 e23e
000000e0: 1359 bbdf 4b30 e63e a61f 3eb4 4025 d13e
000000f0: 95bf 70e4 40ad c53e 0954 ff42 bada 523f
00000100: cbe0 be7b 6d74 f63e f32f 88cb 4d5e 9f3e
00000110: 9ea1 872b 00b4 e83e 2c1c a525 9a2d ae3e
00000120: 6998 7443 d9a5 e63f 3c9e af9c 3f11 b93f
00000130: 9478 ec2d b7d5 dd3f 597f 2c71 5de8 b43f
00000140: 97a5 42be 2463 b63f 597c 9d58 f221 d53f
00000150: 7db7 2c81 13e4 d83f dfc3 1bef 9a0b e63f
00000160: a80c 49e4 1943 d43f 1eb4 a572 5ebc e03f
00000170: 584e 2efd 2b0e dc3f 2262 2731 3ada e03f
0.009689718412559447 0.061954227613925675 0.38661777345737985 0.03072634436811271 0.004882625278016827 0.0002678141657367401 0.0016638032346449237 0.000569706615495384
1.0774493389601106e-05 5.332386905874424 1.3332937811692955 0.020841366407080526 0.0002926789976011297 0.0007269531503058304 7.698030131304797e-08 0.0007598222463668492
0.000729819419688669 0.0008020237406767254 0.0007745796122936711 0.0010572320506298026 0.0005589769457938053 2.5521677884188937e-06 0.0009450850568692719 1.340871781085799e-06
7.626809777279656e-06 1.3583315244228517e-05 4.771186869086891e-07 8.986510005761857e-06 1.0580376503293903e-05 4.087810172033392e-06 2.5840725217593054e-06 0.0011507815324780532
2.1414561828442946e-05 4.6742520568086623e-07 1.1779369160928179e-05 8.993784590759921e-07 0.7077452008713979 0.0979194409879875 0.46616916165101796 0.08167060864479704
0.08745031018283665 0.3301969399817089 0.38892066588129365 0.6889166517340718 0.31659552854052686 0.5229942549900704 0.4383649799794731 0.5266390762363395

running_mean_std.count f8 []
00000000: 0000 0001 00e2 bd41
501350401.0

a2c_network.sigma f4 [12]
00000000: ca5e 33c0 c2e0 36c0 1a9d 0bc0 ddd0 24c0
00000010: df1d 2bc0 4ccb 34c0 05d4 37c0 74e0 29c0
00000020: 8276 37c0 dd6c 22c0 e472 2ec0 6a56 3fc0
-2.8026605 -2.8574681 -2.1814637 -2.575248 -2.6736982 -2.8249083 -2.8723156 -2.6543245
-2.8666081 -2.5378945 -2.7257624 -2.9896493

a2c_network.actor_mlp.0.weight f4 [256, 48]
00000000: 0866 0ebd e031 7c3d fe28 11be a3dc d7bd
00000010: 48b3 e53b 8af4 0bbc a8fd 07be b34e 0c3e
00000020: abd9 f73b 266c 24bf fb47 a1be ef96 adbd
00000030: 5f83 d7bd 60ad c03d bb7e a73d e3d3 eabc
00000040: 9dda 143e e05b 0c3e a667 eebc 2ec2 913d
00000050: 630b abbe 015c 10bd 7512 ffbd cb94 203e
00000060: 8f02 d23c c63d f33c 42a0 1ebd 7367 a9bc
00000070: ee8f dbbb cc50 2fbd a51f ab3a 734d 35be
00000080: f691 e8bd 9fe3 7dbd 4d54 27be 43ff 853d
00000090: 1eee 283e 192f af3d 6d00 473b d1cb d6bb
000000a0: c56d 1b3e 60f2 9d3d 1152 6f3c d171 1d3e
000000b0: a411 4a3e ee4f 31bd b0fa 2b3d 72a2 b1bd
000000c0: bf37 e4bd 8ce6 a63d f278 423e 5e94 88bd
000000d0: d875 00be c806 0a3e fe3a 18bd 93dc 36be
000000e0: b31a 8cbc da88 3bbe a84c eebb 995a d53d
000000f0: ab70 183d 5d57 86b9 4c2a 01be e528 6d3c
00000100: ea76 113d e331 a83c 4845 2b3c 98df c73d
00000110: 5fd3 513e 4523 8a3d 0878 253e ef25 313d
00000120: e6a0 f6bb c1ef 35be 00af 173e 9938 2dbe
00000130: 1ce9 c1bd 9def f33d 1b69 b1bd 828b 3a3e
00000140: 53a6 a7bd 8c2e 16bd 0590 0e3c f389 d4bc
00000150: ee6f 3dbd a1f6 b9bc 6696 f33d 6526 773d
00000160: 382d 9c3d 92f1 dabc 4f5a 973c 7a53 dfbd
00000170: 6174 db3d 6649 cc3d 0423 88be e06b 9cbd
00000180: 9b29 16be 28ff 353e 10bb 50be 3d43 03bd
00000190: aeba 2a3d aaeb 85bd f6db 273d e66b 2bbe
000001a0: 7d3a 8dbd ddfb b0bd 365d e9bd 571e a9bd
000001b0: dc77 343d 3756 83bc fb63 873e 27c3 033e
000001c0: 2995 333d f21e f1bd 7067 09be 38bd 11bd
000001d0: 8b58 a93d 8fb8 8fbc ded1 033e 0ab6 24be
000001e0: 17b2 61bd 71c2 763d b409 ebbd cc66 36bd
000001f0: 28b6 513d 26a8 eebb 98bc 79bd 047d 173e
00000200: b8fd 84bd 9617 3cbd aac7 a6bc 929e 13be
00000210: 6c6d 01bd 3235 c6bc a0bf e3bc b551 d63c
00000220: 9a19 b4bd ece4 54bc 1898 073e d811 893c
00000230: e4f3 7ebd 92fd 88bd fa4f 46bd 494d 213d
00000240: 0a8a 5ebe 8bad 563d 12b8 6b3e 9746 8dbd
00000250: 904e 0b3e 6537 203e 03c2 88bd c930 a93c
00000260: d2de 913e 61cc d2bd c3b1 4e3d 5f44 4b3e
00000270: a433 193e dbd6 f2bd 3101 e23e 1488 043e
00000280: 2fd6 be3d 35ed 9fbd 257a 003e 2566 1c3e
00000290: 541e 1a3d 2973 213d 1f24 79bc be20 22bd
000002a0: 267e 943d a532 60bd 6948 7bbe 189a 423d
000002b0: 6b9b 593d fe8a e03c 9ee5 94be 77b2 12be
000002c0: e219 3e3e 14cd f03d b7d6 3c3b caa7 963c
000002d0: 0a18 9bbd 63cb cb3d 34b8 a9bd dedb 7c3d
000002e0: ffa6 6a3d 0fae a53d 149a 963c 14f2 bb3d
000002f0: 428b e1bd ca3f bbbc c84a f3bd 0250 9a3e
00000300: b225 e1bd 65b3 7f3d e1d7 f6bb 53f4 823d
00000310: 8e86 96bd a0e9 eb3d 68ea 863e 3960 68be
00000320: 4930 a3bd a5ea 60bc e826 e13d d405 15bd
00000330: 2f68 f23d 226b 7d3d 4a06 d0bd da82 023e
00000340: f656 3d3b 9339 42bd f98f 6c3a 65c9 78bd
00000350: 572b e83d 34c7 2dbd ef13 363e e973 45bd
00000360: db58 f43d 0f0e b5bc 475f 11bd 0349 7bbd
00000370: 0c05 073e 4911 f23d 960b eabd 09ad e13d
00000380: cb6e 1fbd a4a5 2cbe 7c04 29be f387 913d
00000390: 760c cf3d 347e 7f3d 7ec4 423d 533c 9fbd
000003a0: 78e8 8abd 851f 1e3c 7b00 b93d adb3 d23c
000003b0: 0db6 9c3d bd04 acbd 1336 c6ba bb6f bf3d
000003c0: d4b5 52be dac5 913d 411f ea3e 78e4 fd3d
000003d0: 277a 37be fb26 f83d 41a4 1d3e b6cd 6e3c
000003e0: 0d2c 4abe 2db2 d4bd e5cd a3bd 22a9 e83c
000003f0: b1c6 0d3e 28c0 73bd 4375 0dbf 70e0 d1bc
-0.034765273 0.061571002 -0.14175794 -0.1054013 0.0070098974 -0.008542189 -0.13280356 0.13701896
0.00756379 -0.6422752 -0.3150023 -0.08476054 -0.10523104 0.09408069 0.08178469 -0.028665489
0.1453652 0.13706923 -0.029102158 0.07117115 -0.33407125 -0.03524399 -0.12454692 0.1568176
0.025635986 0.029692542 -0.038727053 -0.020679211 -0.0067005074 -0.042801663 0.0013055695 -0.17705326
-0.11355965 -0.061984655 -0.16340752 0.06542828 0.16497084 0.08553905 0.0030365244 -0.0065550585
0.15178593 0.07712245 0.0146069685 0.15375449 0.19733292 -0.043289118 0.04198712 -0.08673562
-0.11143445 0.08149442 0.1899145 -0.06668924 -0.12544954 0.1347915 -0.037165634 -0.1785758
-0.017102575 -0.18313923 -0.0072723217 0.10417671 0.037216824 -0.00025623562 -0.12613791 0.014475082
0.035513796 0.0205316 0.01045353 0.09759444 0.20490788 0.067450084 0.1615907 0.043249067
-0.007526505 -0.1776724 0.14812851 -0.16916122 -0.0946829 0.11910937 -0.086626254 0.1821728
-0.08186021 -0.036665484 0.008701329 -0.025944686 -0.046249323 -0.02270061 0.118939206 0.06033935
0.07625812 -0.026726518 0.01847568 -0.10904594 0.10715557 0.09974937 -0.26589215 -0.07637763
-0.14664309 0.17773116 -0.20383859 -0.032046545 0.041681938 -0.0653909 0.040981255 -0.16740379
-0.068959214 -0.08641789 -0.11394732 -0.0825774 0.04405962 -0.016032321 0.26443467 0.12867413
0.043843422 -0.117734805 -0.13418365 -0.035580844 0.08268841 -0.01754406 0.12873027 -0.16085067
-0.05510148 0.060244028 -0.1147646 -0.04453163 0.05119911 -0.0072832284 -0.060970873 0.14793783
-0.064937055 -0.04592093 -0.02035888 -0.14415959 -0.031598493 -0.024195287 -0.027801335 0.026162008
-0.087939456 -0.012994032 0.13241613 0.016732141 -0.06224431 -0.0668899 -0.048416115 0.039380345
-0.21732345 0.052411597 0.23019436 -0.068982296 0.13604188 0.15646131 -0.0667763 0.020653145
0.2849031 -0.102928884 0.050462496 0.198503 0.14961106 -0.11857387 0.44141534 0.12942535
0.09318196 -0.078089155 0.12546594 0.1527334 0.03762658 0.039416466 -0.015206366 -0.039582007
0.072506234 -0.0547358 -0.24539341 0.047510237 0.053126734 0.027410027 -0.29081434 -0.14325891
0.18564561 0.117578655 0.0028814503 0.018390555 -0.075729445 0.09950902 -0.08287087 0.06173312
0.057288166 0.0808984 0.018384017 0.09177032 -0.110128894 -0.022857565 -0.11879498 0.30139166
-0.10993518 0.062426943 -0.007533059 0.063942574 -0.07349883 0.1151917 0.26350713 -0.22692956
-0.07968194 -0.013727819 0.10993749 -0.03638251 0.11836278 0.061869748 -0.101574495 0.12745228
0.0028890944 -0.04741819 0.0009024139 -0.06073894 0.113363914 -0.042426303 0.17781042 -0.048206244
0.1193101 -0.02210143 -0.035491254 -0.061348926 0.13185519 0.11819703 -0.11427991 0.11019332
-0.03892402 -0.16860062 -0.16505617 0.071060084 0.101097986 0.062376216 0.04755067 -0.07775178
-0.06782621 0.0096510695 0.09033295 0.025720442 0.07651911 -0.08399341 -0.0015122317 0.09347483
-0.20577174 0.07117815 0.4572697 0.123970926 -0.17917691 0.1211681 0.15394689 0.0145754125
-0.19743367 -0.10385547 -0.07998256 0.028400961 0.13845326 -0.059509426 -0.5525705 -0.025619715

a2c_network.actor_mlp.0.bias f4 [256]
00000000: 586a ddbd 76d2 6d3e 8c72 8b3e 465b 373e
00000010: 7ae2 973e fcfb 7d3e bd10 753d 4056 8c3e
00000020: ad98 6f3e ce1a 573e d1ce 253d f86f 7d3e
00000030: 1d5e babe 5114 833d 5d9c 7e3e 96d1 9d3e
00000040: aa0a 8f3e 7912 103e d652 943e 2c3c 8ebe
00000050: 8d32 033e c89d b63e 27bf 3bbe 96d5 48bd
00000060: 36e8 903e 1045 aa3d 9842 923e 99ba 663e
00000070: 648d 323e 040d 56bd b686 083c 36e7 7b3c
00000080: 07aa 573e eeef 3bbe c2e8 70bd 0057 083e
00000090: 2c5f 973d d33c 653d 4dbb e6bc 4094 08bc
000000a0: bcf2 403d e64c 563e 6ede b43d bebf 923e
000000b0: b0a0 e9bd 3666 8a3d 0a24 793d 4607 94bd
000000c0: e706 a83e 290e a83e 57d7 833e 7b30 e2bd
000000d0: c295 723e 9e74 c9bd 2f7d 58be 77c5 8d3e
000000e0: 803b 953e 61aa a03c c206 033e 514a 973e
000000f0: 19ea 02bc 9bce 373e e33d fe3d 32c0 21be
00000100: f106 f3bd f2f8 4cbe 0110 353e a82a 92be
00000110: 074f 193e b8c9 753e a794 983e 3f31 29be
00000120: a43b 86bd db6f a4bd 0438 3e3c 51c6 fd3b
00000130: fe1b 723e 513d 723e 689f fe3d 4cbd 563d
00000140: 40c6 963e 28a6 b33d 6fb1 5a3e aec1 6f3e
00000150: a31e babd 9bda 183d 7b8f 543e a585 833e
00000160: be7f b23e e7af c43d ac5d 8d3d c9f3 6f3d
00000170: 2bf9 7b3e 34c7 a33e d286 ef3d 5af0 72bd
00000180: 8c2a 803e daf0 913e 3ba3 843e 8695 12be
00000190: c309 803e 62dc 8d3d 0805 aa3d b7b6 603e
000001a0: 792b b43e 1a91 143e bccb a93e c8b0 b43d
000001b0: 5f4c 7d3e 7e9b 3dbc d3db f6bc 089b babe
000001c0: 52c5 2ebd 3e1a 963e 65c3 863d dca5 5a3e
000001d0: bf08 b4bd 9d61 b33d 016e 743e 1cd2 a93e
000001e0: 0905 073e 4abb b63c 51ca 7c3e 65d5 08be
000001f0: ff92 833e 7f2a ff3d 3a8b 26bc 432b f03d
00000200: 115d c23d 5fc0 693e f9f3 503e 741c a83e
00000210: d66d 923e 8ed0 733c b2e5 13be 825b 0cbe
00000220: 3bbb a83e 0280 b93c 5c5a a23e ad7e fbbd
00000230: be77 8d3e a2d5 363e 9d85 bb3e d49f 943d
00000240: 1383 1abe 7492 723d 3316 513d ed7f dd3e
00000250: 5445 3f3d 5a78 a13e e040 91bc 83b6 0b3e
00000260: 430e 283e 700b c03c a94b cc3e 945d 0c3e
00000270: 93e9 733e 558c d3bd 6ed1 303e 2b24 d93d
00000280: 8824 6ebd f943 4e3e a8c5 81be f372 4e3e
00000290: ba79 5c3d 458f 883e 99ba 91bd 30c5 853e
000002a0: 6d22 2b3e 4bc7 ef3d b156 813c 064b 81be
000002b0: 3e32 883e 1f3d ab3e f14f 9e3e 68b2 6f3e
000002c0: d0e8 ac3e f4f4 01be 26dc 50be 6511 863e
000002d0: f239 0e3d ffd5 053e 07d0 a4be 3f0c 5c3e
000002e0: 7d8b 953e bbb4 053e a8a9 a6be e8c9 a2be
000002f0: 3e8d 203e 6121 623d 344a b1bd 9d95 f43d
00000300: 7c17 853d 5090 c73e 31d7 5e3e 187c c23d
00000310: 38a0 c63e 7c42 90be 9f41 a73d 3935 c73d
00000320: 02b0 983e 2c6f 8a3e e0de 093e 2570 893d
00000330: e496 69b9 a45d 003e 2fd7 8a3c cfc8 e1be
00000340: 2e67 973d 6eaf 9dbe 4cbe 073d 59cf bc3e
00000350: 6dfe 583e 3dda 8dbe 2235 9fbc 0111 863e
00000360: ceeb 25bd 7f27 d63d de39 39bb 2d73 8e3e
00000370: b6e6 2c3e e2df 44bd dfd1 8c3e 1a98 a03e
00000380: 29f2 b23e 6869 8e3e e8dc a93e a076 02be
00000390: 4b2d 8a3e 135c 2a3e f107 ad3e ea48 b03e
000003a0: e404 e73d 190e 063d c96f 633e 4937 8abe
000003b0: 7161 26be db3e dabd 40bd 743e 2c07 993e
000003c0: 729a 933d c122 073e 9a11 683d 331b a93e
000003d0: becb 6a3e 7b86 a03e dc78 f73c 7a76 073e
000003e0: 7a97 66be 9aa5 883c 4632 87bd f6ec 1cbe
000003f0: b1d3 6e3e 52d1 453e 1dbb c9bd d9ef 163c
-0.10811299 0.23224816 0.2723583 0.17905912 0.29664975 0.24803156 0.059830416 0.27409554
0.23398085 0.21006319 0.04048044 0.24749744 -0.36399928 0.064003594 0.24864335 0.30823964
0.27937824 0.14069547 0.2896945 -0.27780282 0.12812252 0.35667253 -0.18334638 -0.049031816
0.28302163 0.08313954 0.28566432 0.22532119 0.17436749 -0.052258506 0.008332899 0.015374949
0.21060954 -0.18353245 -0.058815725 0.13314438 0.073911995 0.05596621 -0.028165484 -0.008336127
0.04710649 0.20927772 0.088314876 0.28661913 -0.11407602 0.067577764 0.060825385 -0.0722795
0.32817766 0.32823303 0.2575023 -0.11044403 0.2368994 -0.09836696 -0.21141504 0.27689716
0.29146957 0.019612493 0.12795547 0.29548886 -0.007990384 0.17949907 0.12414148 -0.15795973
-0.11866558 -0.2001684 0.17681886 -0.2854817 0.14971553 0.24002731 0.29800913 -0.16522692
-0.06554344 -0.08029147 0.011610035 0.0077445884 0.2364349 0.23656203 0.12432748 0.05242662
0.29448128 0.08771926 0.21356748 0.23413727 -0.09087875 0.037317853 0.20757858 0.256879
0.34863085 0.09603863 0.06902632 0.0585821 0.24606769 0.31987917 0.11695637 -0.05931125
0.2503246 0.28504068 0.25905785 -0.14314851 0.25007448 0.069268 0.08301741 0.219447
0.35189417 0.14508477 0.3316325 0.08822781 0.24736165 -0.011572717 -0.030134117 -0.36446404
-0.042668648 0.29316896 0.06580237 0.21352333 -0.08790731 0.08758853 0.23870088 0.33168113
0.13185515 0.022306103 0.24686553 -0.13362654 0.25698087 0.12459277 -0.01016503 0.117270015
0.09490407 0.2282729 0.20405568 0.32834208 0.28599423 0.014881266 -0.1444309 -0.13706782
0.32955346 0.022644047 0.31709564 -0.12280021 0.2763042 0.17854932 0.36625376 0.07257047
-0.15089063 0.0592217 0.05104656 0.43261662 0.046696976 0.31537133 -0.01773113 0.13643841
0.1641169 0.023442954 0.39901474 0.13707572 0.2381957 -0.103295006 0.17267391 0.106026016
-0.058140308 0.20143117 -0.25346112 0.20161037 0.053827025 0.26671806 -0.07115669 0.26127005
0.16712351 0.11707934 0.015788408 -0.2525255 0.26600832 0.3344507 0.30920365 0.234079
0.33771372 -0.12691098 -0.2039648 0.26185146 0.03472323 0.13069914 -0.32189962 0.21489047
0.29207984 0.13057224 -0.32551312 -0.31794667 0.1567888 0.055207614 -0.08656731 0.11942599
0.0649862 0.3897729 0.21761777 0.09496325 0.38794112 -0.28175724 0.08166813 0.09726948
0.29821783 0.27037942 0.13463926 0.06710843 -0.00022276823 0.12535721 0.01694831 -0.44098517
0.07392727 -0.30797905 0.033140466 0.36876944 0.21190806 -0.27705565 -0.019434515 0.26184848
-0.040508084 0.10456752 -0.0028263251 0.27822247 0.16884884 -0.048065074 0.2750387 0.31366044
0.3495038 0.27814794 0.3317635 -0.12740564 0.2698768 0.16636686 0.3379512 0.3443063
0.1128023 0.03272829 0.22210611 -0.26995304 -0.16248108 -0.1065652 0.23900318 0.29888284
0.072071925 0.13196851 0.05665741 0.33028564 0.22929284 0.313526 0.030208997 0.13228789
-0.22518721 0.016680527 -0.06601386 -0.15324768 0.23322941 0.1931813 -0.09850142 0.009212458

a2c_network.actor_mlp.2.weight f4 [128, 256]
00000000: be44 21bd 52c6 3abd 169a fabd 9eb3 8abd
00000010: cc37 ddbd afed a7bd 3396 8fbd 07f2 5dbe
00000020: 6138 cbbd 46f6 55be afc1 9c3d bce7 4bbe
00000030: 5661 c63d efd8 143e aecc 253d 3b72 9bbc
00000040: 2a0f 0abe fc2b 9ebc 49c8 ecbd ac01 053b
00000050: 63ed 3f3d c209 1cbe 2996 da3b 373c 97bd
00000060: cb15 093d 8a19 4abd bb9d 33be f4a1 e7bb
00000070: 748f ccbd fb1c 81bd fd2a fc3c 324c 89bd
00000080: a2f0 083e 8756 233d 55bd 473d c68f c6bd
00000090: 62a9 33bd d17c e5bd 03da 953d b272 d9bd
000000a0: 7a58 113e 4dec da3d 95f0 1d3d 3440 9ebe
000000b0: 1366 2a3d c5dd a8bd 3126 11bc 4998 c23d
000000c0: 463f 1bbd 759a debc 618e 09bd eb95 1abe
000000d0: 88ff 46be 5d48 243e 6fb6 97bc ce03 45be
000000e0: 9d66 13be 7797 5dbd b124 283e f037 d2bc
000000f0: 05f6 0abe 825a 773d d211 5c3d 8014 8cbd
00000100: 4447 e7bd 1d6f 823d 0110 aabd 246a fdbc
00000110: a772 debd e94a 33be bda6 8cbd 9f31 6c3d
00000120: 7436 0fbd eee9 cc3d a575 1a3e a8cb 5cbe
00000130: 53f1 afbc cf07 35bd 6857 a5bc b680 d9bd
00000140: 3ab9 0dbe 2169 193d e821 f13d c3eb c53c
00000150: ff44 dc3b 8e8f a4bd 3324 0d3e dabc 35bc
00000160: fb5e 0cbe 750c b7bd 21b0 41be 93e9 3a3d
00000170: 24c1 e0bd bbd1 b3bd e212 bc3b 45f6 363d
00000180: 4bcf cabd 508a 1bbe 2a4b b03d e2f7 ea3d
00000190: dd13 1cbe 8a24 6e3d 2607 92bd 30b9 14be
000001a0: 2985 073d db16 37be 8ace 69bc 3fd6 b1bc
000001b0: 2267 babd ce5f 21bd f832 6cbe 6c12 b8bd
000001c0: d229 253e cabd 803d b64d 213d 063c 51be
000001d0: c14a 10be f3a2 57bc 4095 cbbd 1450 0abe
000001e0: 713f 17be 76df 4c3e 771b 76be b5cc f83c
000001f0: 12bb 1fbd df03 c3bd 2c8b 2dbe 9f0f 21bc
00000200: a62e 8cbd ddc5 95bc 43a6 e8bd fb23 0c3d
00000210: e386 abbe 0243 b13d d786 3abc 4009 81bb
00000220: 34d4 8cbd 3865 9fbd 31fc 723d 3325 e3bd
00000230: 2cde b1bd 86d7 d8bd 962e d8ba cc3f 913c
00000240: 6fb4 52bd d0b2 2abe f3ac 74be bd94 593c
00000250: 96e9 cc3c 2d8e acbe 69f7 fc3d 232f 33be
00000260: ce4e a8bd cd09 4f3d 601f 283d a4dc bfbd
00000270: fec5 403d ba6b aa3d cfad c8bd 8136 11be
00000280: 9c95 1539 8310 c1bd 413d cabd 1a77 a6bd
00000290: ca57 103e f628 26be 0f93 e4bd 9453 3dbd
000002a0: e5d4 1f3e 4034 03be 8151 3cb7 c20d a53d
000002b0: d14b 0ebe 94c0 62be ac94 11be 14d8 50be
000002c0: 6033 d9bc 40c1 2dbe 04a5 683d b955 0b3d
000002d0: b876 42be 58b7 02bd 8c5e b7bd 04bd 3dbd
000002e0: d56b 85bc 14d5 263d d228 3b3d 0d53 de3d
000002f0: 8d26 da3d 8180 c9bc c716 63bd d43c 3bbd
00000300: f268 eebd d224 053e e5b9 e8bd 80f6 86be
00000310: 6087 75bb 202e 62be 3c72 6dbd 6d5a b7bc
00000320: 8385 15be 4567 c3bd 4163 b2bd 381b 8fbe
00000330: fb15 b3bd f625 743c f212 2e3d a873 59bc
00000340: 39d2 bb3d 3a73 c3bc 0679 253d e30b 44be
00000350: 4c8f 6ebe f8b3 a23c 2ca1 483d 505b f3bd
00000360: 00e6 8abd 5901 95bd 93c1 bdbd 742d 6fbe
00000370: b22d 053e 813e 4cbd f4ec 973d 440e 17bd
00000380: 07e0 df3d c98d a63d c2af 6dbe 3105 34bd
00000390: 707f 1ebe 0298 28be 7016 07be 22be de3d
000003a0: 4eaf 973d 01b2 223e 61a5 5b3d f6d4 d2bc
000003b0: 27ac c13d 9fb6 813d 13f4 aebd 9a9c 743b
000003c0: 4c2d 92be 3997 0bbe 11bb 35be 24f6 cebd
000003d0: a9a9 ce3d bcc4 d8bd 8a21 9cbd cde0 0abe
000003e0: d11a 993d 7360 45bc eafc 14be d9a8 86bd
000003f0: ca83 84bd 86af 67ba 5440 9b3c 0e4a 173e
-0.0393722 -0.04559929 -0.12236421 -0.067725405 -0.10801658 -0.081996314 -0.0701107 -0.21674357
-0.09922863 -0.20894727 0.0765413 -0.19912618 0.09686534 0.14535879 0.0404784 -0.018975368
-0.13482347 -0.019308083 -0.11561639 0.0020295186 0.04685725 -0.15238097 0.0066707325 -0.07384532
0.03346805 -0.049340762 -0.17540638 -0.007068867 -0.09988299 -0.06304356 0.030782217 -0.06703986
0.13373044 0.03987744 0.048764545 -0.09695391 -0.043862708 -0.112054475 0.07316973 -0.106175795
0.14193907 0.10689602 0.038559515 -0.30908358 0.04160125 -0.08245424 -0.008859203 0.09501702
-0.03790214 -0.02717326 -0.03358305 -0.15096252 -0.19433415 0.1604323 -0.018519608 -0.19239733
-0.14394613 -0.054099526 0.16420247 -0.025661439 -0.13570412 0.06038905 0.053727932 -0.068398476
-0.1129289 0.063688494 -0.08303834 -0.0309344 -0.10861712 -0.17509045 -0.0686774 0.05766451
-0.03496404 0.10005556 0.1508394 -0.21562064 -0.021477377 -0.0441969 -0.02018328 -0.10620253
-0.1384019 0.037453774 0.11774045 0.024160272 0.006722092 -0.080351934 0.1378334 -0.011092389
-0.13708107 -0.08937923 -0.18914844 0.04563291 -0.10974339 -0.08780237 0.0057395557 0.044668455
-0.09902819 -0.15189481 0.086080864 0.11473061 -0.15241952 0.058140315 -0.0713027 -0.14523768
0.033085976 -0.17879812 -0.014270434 -0.021708606 -0.09101702 -0.039398007 -0.23066318 -0.08987889
0.16129234 0.062861994 0.03938075 -0.20433053 -0.14091016 -0.013161409 -0.099405766 -0.1350711
-0.14770295 0.20007119 -0.24033915 0.03037105 -0.038996764 -0.09522223 -0.16947621 -0.0098303845
-0.06844835 -0.018282825 -0.11359837 0.034214 -0.33501348 0.08655359 -0.011384687 -0.0039378703
-0.06876412 -0.07782978 0.05932254 -0.110910796 -0.08684954 -0.10587983 -0.0016493376 0.017730616
-0.051441606 -0.16669774 -0.238941 0.013280091 0.025013726 -0.33702222 0.12351877 -0.1749845
-0.08218156 0.050546456 0.041045547 -0.09368256 0.04706382 0.083213285 -0.09798776 -0.14180948
0.00014265481 -0.094269775 -0.098749645 -0.081281856 0.14095989 -0.16226563 -0.11160862 -0.046222284
0.15608557 -0.128129 -1.122465e-05 0.08059265 -0.13896109 -0.22143775 -0.1421687 -0.20394927
-0.026513755 -0.1696825 0.056797996 0.0340173 -0.189906 -0.03191313 -0.0895358 -0.046322837
-0.01628677 0.04073055 0.045693226 0.108556844 0.10651884 -0.024597408 -0.055441644 -0.045712307
-0.116411105 0.13002327 -0.113635816 -0.2635994 -0.0037464723 -0.22087908 -0.05797027 -0.022381986
-0.14601712 -0.095411815 -0.087103374 -0.27950454 -0.08744427 0.014901629 0.042498536 -0.0132722035
0.09170956 -0.023858655 0.04039862 -0.1914516 -0.23296851 0.019861206 0.04898183 -0.11882651
-0.0678215 -0.07275648 -0.09265437 -0.23357183 0.13005713 -0.049864296 0.07418242 -0.03687884
0.10931402 0.08132512 -0.23211578 -0.043950263 -0.15478301 -0.16464236 -0.13192153 0.10876109
0.074064836 0.15888216 0.053624514 -0.025736313 0.094566636 0.0633366 -0.08542647 0.0037324787
-0.28550184 -0.13631906 -0.17747141 -0.10105541 0.10090954 -0.10584399 -0.076235846 -0.13562317
0.07475818 -0.012046921 -0.14549604 -0.06575174 -0.06470449 -0.0008838106 0.018951572 0.14774343

a2c_network.actor_mlp.2.bias f4 [128]
00000000: 1cfb d6bc fbbe cc3d c7af 493d 5b8b 393e
00000010: b176 85be 2935 c1bd 13e8 253e fecf 483d
00000020: 08f2 a5bb acaa 3e3d d51a 083d b274 1cbd
00000030: e133 6fbe 5e64 44be b5f1 0abe 8bbc 97bd
00000040: 346d 07be 0d25 06be 203a 593d 73bb 163d
00000050: 7148 643e 0c75 31be 93ea afbd bed7 0bbe
00000060: d4cb fcbd 6754 bbbd 94d1 053e 97d8 29be
00000070: 3496 c63d 8040 08be 9560 04be 6d97 093e
00000080: 3f9a 7e3d f84a 7fbe 64c8 0a3e 96a3 b93d
00000090: c5e9 213e 3344 163d e177 67be 8f1d f83c
000000a0: a715 a3bd 6160 60be b53f ce3a 9b75 80be
000000b0: 5fd8 5fbe 0f74 b8be 1739 27be 0f25 b83d
000000c0: ced1 21be e489 22bd 294d e03d ce68 b6bc
000000d0: 875f ac3d 4f41 70be e5cf fdbd 0f30 fbbd
000000e0: baf0 c5bd 2250 dfbd 7326 a1be 4ada 733e
000000f0: 2dc2 42be e081 fc3d b50d 373d 235b 883d
00000100: 60fd 5f3d f9dd 81be 6be1 1d3d e4da 1c3d
00000110: 4c77 993d 97ed 723e bff1 ad3c eec4 80be
00000120: f072 8e3d f2e5 4fbe c6ef 96be 6511 9abd
00000130: d614 c1bd 51d5 ea3d 3d0b d63d a2bc 9bbd
00000140: 9bbd ea3d 6c9a 463e 7f24 93bd c1da 43bc
00000150: b605 173d 6d8c c7bd a766 493d 3d99 963c
00000160: d8a8 6c3d e1fd 83bd 53d0 b8be 98b7 aebd
00000170: 50c6 763d 61f6 9a3d 4a44 78be 43c9 11be
00000180: 220f 573c c358 61bd f522 31be f9e2 60be
00000190: 2cfa 2fbe b177 00be ca5a 043d f2ca 043e
000001a0: 2c52 45bd dca3 13be 96d3 c63d 30cc 56bd
000001b0: 47a4 a5be 4abd 27be 0ee6 e13c a71d 323d
000001c0: 805c 07be b58c 31be 24ef a2be 6bcf 4fbe
000001d0: 15a4 ae3d 55cd 3cbe 2df4 86be 4f81 71be
000001e0: e73b 5cbe 326b 2ebe 630a 1a3e 2b12 74bc
000001f0: ff5f 02be 018b a53d 1860 063e 44c2 8abe
-0.026242785 0.09997364 0.0492399 0.18119566 -0.26067117 -0.094339676 0.1620181 0.04902648
-0.0050642528 0.046549484 0.033228714 -0.038197227 -0.23359634 -0.19178912 -0.13568766 -0.074090086
-0.13225251 -0.13100071 0.053033948 0.03679986 0.22293259 -0.17329806 -0.08589663 -0.13656518
-0.12343565 -0.09146958 0.13068229 -0.16586529 0.09696618 -0.13305855 -0.12927468 0.1343667
0.06215882 -0.24930942 0.13553005 0.09064405 0.15811832 0.036686134 -0.22604324 0.030287532
-0.07963114 -0.21911766 0.0015735539 -0.25089726 -0.21859883 -0.36026046 -0.16330372 0.08991443
-0.1580269 -0.039682284 0.10952217 -0.022266772 0.08416658 -0.23462413 -0.12393168 -0.12265026
-0.096650556 -0.10903956 -0.31474647 0.2381374 -0.19019385 0.12329459 0.044690806 0.06658008
0.054684997 -0.25364664 0.038545053 0.038294688 0.07493457 0.23723446 0.021233438 -0.25150245
0.06955516 -0.20302561 -0.29479808 -0.07522849 -0.09427802 0.11466468 0.10451362 -0.07604338
0.114619456 0.19394845 -0.071846955 -0.01195401 0.03687068 -0.09743581 0.049170163 0.018383617
0.05777821 -0.06444908 -0.3609644 -0.085311115 0.06024772 0.07566524 -0.242448 -0.14236932
0.013126167 -0.05501629 -0.17298491 -0.21961583 -0.17185277 -0.12545659 0.032313146 0.12968042
-0.04817407 -0.14417976 0.097083256 -0.052440822 -0.32351896 -0.16380802 0.027575519 0.04348531
-0.1321888 -0.17338832 -0.31823075 -0.20293967 0.0852739 -0.18437703 -0.26358166 -0.23584484
-0.21507226 -0.1703308 0.15043025 -0.01489691 -0.12731932 0.080831535 0.13122594 -0.27101338

a2c_network.actor_mlp.4.weight f4 [64, 128]
00000000: f30f 073e d9b1 50bc be8c 493d 8e43 17bd
00000010: 3c7f be3c a14a 883d a1d8 4fbd 285c b1bd
00000020: 2c79 e6bd 62ae e3bd fb6d 6bbe 732d ac3d
00000030: 94ba 843d 442e 843d db2a 32bd c3b0 48bd
00000040: 33b0 10be e223 da3d ac15 4b3d 82d8 47bd
00000050: 930e 7dbd 87d7 d83d 6f75 b4bd 7f38 373e
00000060: 1db7 9e3c a1c0 c4ba ec4e 51bd a5e5 12bd
00000070: 2759 2bbd baba 663a f3cf 19bd 1354 0d3e
00000080: 32ea 55be bf2e 5f3d e4e5 ebbd 7a63 84bd
00000090: 7c44 08bd 9a6c 8cbd 6a89 35bd 50e8 06bc
000000a0: 3a9a 353d 41e1 b73d 3485 1ebe 7202 993c
000000b0: 5794 a83d 843e 2c3d 2184 813e 38ef 86be
000000c0: a640 5bbe ca27 43be 348e f33c c17c fabd
000000d0: 4679 50be e8d7 b93c 8cd7 b7bc cebe 6ebc
000000e0: d3b2 5b3d cff9 f3bd 29b8 093c 5aa3 1cbd
000000f0: b7a8 13bd 6e1e edbd c02b 99bd a33c cdbd
00000100: 4b1a acbe 70f4 c7bd 684d 26be e15e c3bd
00000110: 98c9 80be f846 3dbd 1913 21bd ac7a 3dbd
00000120: bade 95be 0b36 9f3d caf8 8d3d e31d 983d
00000130: e7b6 ad3c 9bb5 7e3d 5b1b 93be c8a1 8a3d
00000140: d717 2e3e c6be ae3d 5460 06be 9a30 2b3b
00000150: ec99 40be 3664 06be ea22 81bd 97fb 2a3e
00000160: deb0 7bbd e682 b7bd 0a2d ce3d aa2b 06be
00000170: 26b5 0c3d 7a99 293e 8eea 883d d87a 55bd
00000180: 5de7 9b3d 170e 41be feed dc3d e611 35bd
00000190: aa80 53bd 5b9f 9ebd a594 f1bd c7bf da3d
000001a0: 1c77 83bd 011b 16bd dd1b 773d 0081 67bd
000001b0: 2a1b b13d 4f29 f7bc b9e5 0cbe 32ef 7cbb
000001c0: 41d2 8e3d 05a3 4a3e cf9d aabd 7743 793d
000001d0: b790 683d 1d10 833c 8446 e8bd 7062 963e
000001e0: 2bc0 02bd 840f 0fbd ad23 cebd 0803 ac3d
000001f0: 093d 23bd 1a93 a73c af15 ea3d c39d 503d
00000200: aa74 0cbe 38a9 debd 86cb 93bd 9a1b 963a
00000210: c3ae 373e 820c 93bd 5860 7ebd cfb7 26be
00000220: 55b2 08be 5c8b b2bd ff3c e43b c507 c13d
00000230: 493a a93b 6314 9a3d 11f5 d1bc 6a26 f0bc
00000240: 5bfd df3c 80d2 22be 6e1a abbd 3207 6ebd
00000250: 8b19 063e 94ef cf3c 6855 5bbd 0ff1 1f3d
00000260: e5cd 2fbd 62ae 86bd c0cf 4d3d 13fa 4bbd
00000270: 9c82 b5bc f670 a13d 2a9e abbc 6578 c13c
00000280: 9e12 423d c24d 053d 8bc2 f9bd 3911 abbd
00000290: ef79 dd3c 3900 0bbe 7d82 97bd 6c03 4dbd
000002a0: 4c91 9e3c 09a0 023e f220 fdbc d313 933c
000002b0: 5187 423e ef89 263e 436a a43d 1f37 81bd
000002c0: b65b edbd 6420 093e 112f a6bd b0aa 9f3c
000002d0: 1952 0e3e dbfc a3bc f24e 5ebe da34 7d3d
000002e0: d186 8a3d 4c3d 2d3e 99a9 5fbc ca12 4dbd
000002f0: 14fc 4b3b 0a4c 05be f7ca 943b b0f6 98bd
00000300: d2e9 ec3c 1fbf f03c cc7b 36bd d70a 41bd
00000310: a133 19bd 3737 b1bd de03 d53c af35 4dbc
00000320: df7e 2a3d 8fd2 133e 90fa e5bc be10 883e
00000330: 69f9 d4bd 26e7 b7bd f9d3 0b3d 3cba f9bd
00000340: 854a 753d f9a3 59be 1eab b9bd 9ce0 74be
00000350: 307a a63d 07c5 923c fbe1 01be 6d95 6dbd
00000360: 8306 943d 0fea 20bd 0a2d be3d 706c cebd
00000370: b6a5 3bbd 5bd9 abbd 9934 353c 0fa8 c2bd
00000380: 6950 85bd 73f7 863d 0372 cd3d 1a50 943d
00000390: 8fc2 bfbd 7eab c9bd 724a c8bd 11b1 6ebd
000003a0: d702 103e 8993 1bbd d7a1 80bd 294f a0bd
000003b0: 62ad d73d 561d 393e b762 77bd ac30 bfbd
000003c0: f3a6 dabc 30f1 f6bd d93f 5a3d d522 dc3d
000003d0: f53e 2abd f834 9abc a80c 9abd de1e 40bd
000003e0: 331a 6f3d 19dc 47be 863c e8bd 9878 d13c
000003f0: 9fa1 823c 6097 ae3b 1174 9e3d 73fd 79bd
0.13189678 -0.012737715 0.049206488 -0.03692966 0.02325403 0.06654859 -0.050743703 -0.086601555
-0.112535805 -0.11117245 -0.22991173 0.08407106 0.064808995 0.06454137 -0.0434979 -0.048996698
-0.14129715 0.10651375 0.049581215 -0.048790462 -0.061781477 0.105879836 -0.08811461 0.17892645
0.019374425 -0.0015011021 -0.051100656 -0.035863537 -0.04183307 0.0008801628 -0.03755183 0.13801603
-0.2089012 0.05448794 -0.115184575 -0.06464286 -0.033268437 -0.068566516 -0.0443205 -0.008234099
0.044336535 0.08978511 -0.154805 0.018677924 0.082314186 0.042051807 0.2529612 -0.26354384
-0.2141138 -0.19058147 0.029730894 -0.12230826 -0.20358762 0.02268596 -0.022441648 -0.014571859
0.053637337 -0.119128816 0.008405724 -0.03824172 -0.03604957 -0.115780696 -0.07479048 -0.10021331
-0.3361381 -0.0976342 -0.16240466 -0.09539581 -0.25153804 -0.04621026 -0.039324854 -0.046259567
-0.2927149 0.0777398 0.069322184 0.074275754 0.021205379 0.06218491 -0.28731808 0.067691386
0.17001282 0.08532481 -0.13122684 0.0026121498 -0.18808717 -0.13124165 -0.063054875 0.16697536
-0.06144797 -0.08960514 0.10067184 -0.13102594 0.034352444 0.16562453 0.06685363 -0.052119106
0.076124884 -0.18853031 0.10787581 -0.044206522 -0.051636375 -0.077452384 -0.1179593 0.1068111
-0.06419203 -0.036646847 0.060329307 -0.05651951 0.08647759 -0.030171065 -0.13759507 -0.003859472
0.069736965 0.1978875 -0.08330881 0.060855355 0.056778636 0.015998894 -0.11341575 0.29371977
-0.031921547 -0.034926906 -0.10065398 0.08399016 -0.03985313 0.020455886 0.11429917 0.050931703
-0.13716379 -0.1087212 -0.072165534 0.0011452318 0.1793776 -0.0718012 -0.0621036 -0.16281055
-0.13349278 -0.08717987 0.006965279 0.0942531 0.005164419 0.0752342 -0.025629552 -0.029315192
0.027342489 -0.15900612 -0.083546504 -0.05811233 0.13095681 0.025382794 -0.053548247 0.03904825
-0.042920966 -0.0657623 0.050246954 -0.049799036 -0.022157006 0.07882874 -0.020949442 0.023616979
0.047381036 0.03254486 -0.12195309 -0.08352894 0.027035682 -0.13574304 -0.073979355 -0.05005209
0.019356392 0.12756361 -0.030899499 0.017953789 0.18996932 0.16263555 0.0802808 -0.06309342
-0.11589758 0.13391262 -0.08114446 0.01949057 0.13898505 -0.020018032 -0.21709803 0.06181798
0.067639954 0.16917914 -0.013651275 -0.050066747 0.0031125592 -0.13017288 0.004540797 -0.07468927
0.028920088 0.029388009 -0.044551656 -0.04712948 -0.037402753 -0.086531095 0.02600282 -0.012525006
0.0416249 0.1443579 -0.02807358 0.26575273 -0.10399134 -0.08979635 0.0341377 -0.121937245
0.05988552 -0.21253957 -0.09065841 -0.23913807 0.08128774 0.017916216 -0.12683861 -0.05800383
0.072278045 -0.039285716 0.09285934 -0.100792766 -0.04581233 -0.08391067 0.011059904 -0.09504711
-0.06509478 0.06590166 0.10031512 0.07241841 -0.09363281 -0.09847163 -0.09779824 -0.058274332
0.14063583 -0.037982497 -0.062808685 -0.078275986 0.10531117 0.18077597 -0.060396876 -0.09335455
-0.026690936 -0.120577216 0.053283546 0.10748831 -0.041563947 -0.018824086 -0.07521945 -0.046904437
0.058374595 -0.19517554 -0.11339669 0.025570199 0.015946208 0.005328104 0.07736982 -0.061032724

a2c_network.actor_mlp.4.bias f4 [64]
00000000: 37c4 60bd 7cdc 84bc 5e39 123c 203e e4bd
00000010: ff9d c7ba 77ad 823d 5fb5 973b c624 75bb
00000020: 45ee e63c 3be2 17bc beb9 c1bd 6f28 b83c
00000030: 19c4 87bd 0fda a13c ce3d 97bd 1631 f5bd
00000040: 725a 47be f034 92be 72ac 29bd e5e2 1fbd
00000050: 2a2b 8abd 52c8 043b 863d 92bd 7b36 dbbc
00000060: fac0 afbd 2392 12be aa86 a13c 01dc 1ebd
00000070: 3f74 3b3c aa54 b2bd ce5d 07be 799a 34be
00000080: 628a 0f3d 977a bfbd c93c bd3c 3022 f0bc
00000090: ccb6 4b3c f25d e8bd ab3b 59be 2f1f 23be
000000a0: 1c3e 87bd af56 72bd 894e 323c bfdb cebd
000000b0: b513 09be b8fa e23c 9cda cc3c 05c3 e2bb
000000c0: 5959 f2bc 20c8 3ebd 073c fa3c 9d02 2abe
000000d0: 1ba2 babd 8559 343c fbed 4dbe 2714 03be
000000e0: a43f 11bc 4f71 78bd f968 6fbe 7cce 1dbe
000000f0: c17f 70bd 2fe7 c9bc 44e5 32be 4f1a 42bc
-0.054874625 -0.016218416 0.00892481 -0.11144662 -0.0015229582 0.06380742 0.0046297754 -0.0037405952
0.028189788 -0.009270246 -0.09459256 0.022480218 -0.066291995 0.019757299 -0.07384835 -0.11972253
-0.19468096 -0.28556013 -0.041424222 -0.039034743 -0.06746514 0.0020261002 -0.07140641 -0.026759377
-0.08581729 -0.14313559 0.019717533 -0.03878403 0.011441289 -0.08707555 -0.13219377 -0.17637052
0.03504408 -0.09349554 0.023100274 -0.029313177 0.012433719 -0.11346044 -0.21214168 -0.15929864
-0.06603643 -0.0591647 0.010882982 -0.10100507 -0.13386424 0.027707443 0.025006585 -0.006920221
-0.02958362 -0.046577573 0.030546201 -0.1660256 -0.091129504 0.011007671 -0.20110314 -0.12800656
-0.008865271 -0.060654934 -0.23379888 -0.15410799 -0.058715586 -0.02464637 -0.1747027 -0.011847093

a2c_network.value.weight f4 [1, 64]
00000000: 4bc2 153a 0f64 1abb 63c3 8bbb 7adf a13b
00000010: 0b26 513c 6371 1dbb 9ed0 873b e11a ec3c
00000020: b396 1cbc b5e7 07bb b04f 373f fbd5 5bbd
00000030: ec31 b339 bb76 103d 45b4 c3bc 1da2 113d
00000040: def5 d13e 787b 8b3d 2b37 073b c7ae 80bc
00000050: 5dd4 8a3b a1d1 b5bb 8de4 443c 2173 9dbc
00000060: b8d9 e03b d225 0f3f 1171 13bc 526c a6bb
00000070: 7108 95bc 2975 1c3a 76ce c73b 4d98 9bbf
00000080: cc86 8c3e c24f 133c d24f 7abe 2bb1 153c
00000090: 500d c33b ca82 75ba 0b9c a93c 3da7 503d
000000a0: f703 823f 3433 80bc 180a 283c 9818 0a3c
000000b0: 9d47 293c 426f a13b b995 963a 2bdf 0abc
000000c0: 6de2 ebbb b632 e1ba 49d2 1d3a 803a 2d3b
000000d0: 143c afbb 376c 023b 3e29 0d3c d17b 4cbc
000000e0: feae 19bd fef2 4c3c 1c3e a83c 744b 37bc
000000f0: 11cf 543a 79c6 a83b 6235 ccb9 6cfc 0bbc
0.0005712851 -0.0023558175 -0.0042652353 0.0049399706 0.012765418 -0.0024023883 0.004144742 0.02882141
-0.009557414 -0.0020737473 0.7160597 -0.053670865 0.00034178735 0.03526948 -0.02388967 0.035554994
0.41007894 0.06810659 0.0020632248 -0.01570834 0.0042367415 -0.0055486714 0.012017381 -0.019219937
0.0068618916 0.55917084 -0.008999125 -0.0050788308 -0.018192502 0.0005968386 0.00609761 -1.2155854
0.27446592 0.008991184 -0.24444512 0.009136478 0.0059525147 -0.00093654974 0.02070429 0.05094074
1.015746 -0.015649416 0.010256313 0.008428715 0.010332015 0.004926593 0.0011488713 -0.008476059
-0.007198623 -0.0017181251 0.00060204096 0.0026432574 -0.005347738 0.0019900927 0.00861579 -0.012480692
-0.0375204 0.012509106 0.020537429 -0.011187423 0.00081180135 0.005150613 -0.00038949685 -0.008544069

a2c_network.mu.weight f4 [12, 64]
00000000: 5eb4 96bd 947a 4f3d 791d 1dbd 1a90 013d
00000010: 13b4 223c 84d2 633d f773 1d3c e90a a4bd
00000020: 9e24 623c d130 aa3d d341 74bc 032c c0bd
00000030: 7aad e93d e9cd 293c a577 003d 7b80 fdbc
00000040: 82b8 31bd 042a eebd 612a 28bd 9caa 223d
00000050: d295 023d b8e1 c63c f1d6 f3bc 041d 0ebd
00000060: 01d1 193d 173b ab3b ad69 9f3b 1f35 26bc
00000070: 8b89 1bbc 6d79 3bbc 4e3b 54bd a016 873b
00000080: e225 413c 4647 7abc a181 63bd e819 c6bc
00000090: 2ea3 db3b 81f5 c3bd fd7c 4abd 8b6d efbd
000000a0: 5d7f 8cbc 8fa8 d43d a994 12bd 1251 8ebc
000000b0: f3f1 49bd f252 ba3a 1e02 893c 323f 06bb
000000c0: e738 03bd 62e3 4dbd 98b5 c93c 65b8 d6bc
000000d0: cbe6 94bc 204a ad3c 3bbc 5abd 8115 7b3c
000000e0: 8676 033c e767 febc 0e06 98bd 1e0d a83d
000000f0: 890d ccbc 6f72 41be eb40 afbd 42dc c4bd
00000100: 6bc6 493c 8758 05bd 3e3e efbc eef4 a93d
00000110: 2ae6 663d 8ddd ed3a 98bf 423c e3cd 93bd
00000120: 8c7c f73d 2dee f53c 0dfb 02bd 2b28 f53b
00000130: 07e3 673d a5a3 cf3c 1c74 8abd 7750 573c
00000140: 812c 1b3b 5381 02bb 35f5 043d bba9 423c
00000150: 03e8 1f3d 6ef1 103d 13b0 47bd 83cc 8cbc
00000160: cf0d 1cbd ae01 863c 4734 d9ba a41c 10bd
00000170: 8c8e 71bc 9f5b 923b 900a 12bd 40be 983b
00000180: 65dd 88bd 0705 343c eb0e 4f3c b9c7 02b9
00000190: d13b ed3b 27ee adba a8e0 373e 3141 f03c
000001a0: 53cf 283b e2d7 a73c a939 05bd eb8a ad3c
000001b0: 74e3 053d 79fa a53c c083 11bd af0c 3e3d
000001c0: 18a7 6fbd 5903 b5bd 3913 e3bd 9c2e eb3c
000001d0: 9e37 643d dcc0 a6bd c327 5cbc efa0 a33d
000001e0: 770e 2cbb 6aa2 b3b8 a0df 3dbd 2175 a3ba
000001f0: bf15 c2bc 9cda 6ebc 6d2a 75bd 2b1f 57bd
00000200: 35a3 383c ac69 b3bd 95bc 12be 9665 efbc
00000210: 529b cebd ff37 a2bd da54 2b3d 1816 87bd
00000220: 202b ba3c 0901 8e3d cb11 cdbc d714 a23c
00000230: f944 893d 3606 dd3b 9760 d8ba 4c51 cfbc
00000240: 968f 0cbe 875b 6cbd 9072 323d 9680 0b3c
00000250: 469f 8c3c 294c 8b3c a135 93bb f08d 4cbd
00000260: f1f2 c8bd f34b c93d 4bc5 9cbc 0fb4 643d
00000270: 5911 89bb 752b 803c e655 463c 4b70 49bc
00000280: 2a58 843b a5b0 89bc 9f60 9e3b 539b 10be
00000290: 465b 233d e9bb 2ebe e45c ffbc 8a91 d7bd
000002a0: 4a5b d53c c6ad ac3d b014 0abd 9ca0 20be
000002b0: 271f 3b3d 4eb5 993d a459 04be 03de b3bd
000002c0: 5e59 603d 7e73 10bc 8126 b23d 6fcf d5bd
000002d0: 9d5a bb3d 49df 803d cf54 f1ba 608f 533d
000002e0: d9d0 14bb 3b59 7d3c 4db1 703c cfb9 53be
000002f0: 35ba a83c 6cef 6abc 1005 933d 4c7a 9f3d
00000300: 350e e7bc c5e8 b7bc c4d2 32bc afdd 7fbc
00000310: f459 b8bd 6ab4 ac3d d1a3 023d e99a 3439
00000320: 8dea 28bd a86f 223b 6ea7 09bd 279c 163d
00000330: cd6c 293d f26b 85bd f88e 8f3b ce9e 56bc
00000340: 1856 b63d 70bc 0fbc f938 cd3d d862 26bd
00000350: 5bfd 9e3b b953 dd3c 1ccd a53b 1981 9bbc
00000360: a127 9dbb 08d2 56bc a0cf 033d efdd 0b3d
00000370: 929a d4b9 0aa8 c2bc 7db8 8f3b cd87 ad3a
00000380: 49ba aebd d693 483c 4dc1 ea3c 9e9a af3d
00000390: 7ff9 d1bb 3253 83bd ba53 5bbd bd77 ab3d
000003a0: 85b2 b93c c9ff 10bd 0cd2 73bd cc89 1a3d
000003b0: 1a4a 8d3c 0a0c f4bc 1b5f f5bb 8509 c03b
000003c0: c735 9d3c 7ad8 eebc 518e f4bb 36bc 41bd
000003d0: f14d ab3d 8013 edbd b004 68bd 8317 fa3d
000003e0: 5203 debc 990f acbc e376 7dbc 6f9b 00bd
000003f0: 00ad dbbb 22eb b53a 5c7c abbc 764a c23b
-0.07358621 0.05065401 -0.038358185 0.031631567 0.009930628 0.055620685 0.009610168 -0.080098934
0.0138026755 0.08310092 -0.014908272 -0.093833946 0.11410041 0.010364034 0.031364102 -0.030945053
-0.04338885 -0.116291076 -0.04105604 0.039713487 0.03188116 0.024277553 -0.029765578 -0.03469564
0.037552837 0.00522555 0.0048648925 -0.010144501 -0.009493242 -0.011442524 -0.05181437 0.00412257
0.011788817 -0.015275782 -0.055543546 -0.024182275 0.006702802 -0.095683105 -0.049435604 -0.116908155
-0.017150575 0.103837125 -0.035786305 -0.017372642 -0.049303006 0.0014215393 0.016724642 -0.0020484445
-0.03203669 -0.050265677 0.024622723 -0.026210973 -0.018176457 0.02115351 -0.053402167 0.015324951
0.008023864 -0.031055404 -0.0742303 0.08205627 -0.024908798 -0.18891309 -0.08557304 -0.09612323
0.012315373 -0.03255513 -0.029204484 0.0829867 0.056371845 0.0018147692 0.0118865 -0.07217004
0.12084302 0.030020798 -0.031977702 0.007481595 0.056612995 0.025346586 -0.06760427 0.013141743
0.002367765 -0.001991351 0.03246041 0.011881287 0.039039623 0.035386495 -0.0487519 -0.017187363
-0.038099106 0.016358223 -0.0016571366 -0.035183564 -0.0147434585 0.0044664885 -0.035654604 0.0046613514
-0.06682853 0.010987527 0.012637834 -0.00012472169 0.0072397967 -0.0013269827 0.17956793 0.02932796
0.002575834 0.020488683 -0.032525692 0.021184405 0.03268762 0.020261036 -0.035526037 0.046398815
-0.058508962 -0.08838529 -0.11087651 0.028708749 0.055717103 -0.08142254 -0.013437214 0.0798968
-0.002625374 -8.565637e-05 -0.046355844 -0.001247082 -0.02369201 -0.014578488 -0.059854914 -0.05251996
0.01126938 -0.0876039 -0.14329751 -0.029223245 -0.10088219 -0.07920837 0.041828968 -0.06596011
0.022725642 0.06933791 -0.025032898 0.019785328 0.067026086 0.006745125 -0.0016508278 -0.02530732
-0.13726649 -0.057704475 0.043566287 0.008514544 0.017165791 0.01700409 -0.004492477 -0.04994005
-0.098119624 0.09828939 -0.019137045 0.05583578 -0.004182976 0.015645722 0.012105441 -0.012294839
0.0040388303 -0.016807863 0.0048332955 -0.14121751 0.039881967 -0.1706387 -0.031172223 -0.10525806
0.026044507 0.08431582 -0.033711135 -0.15686268 0.045684006 0.07505284 -0.1292482 -0.0878258
0.054772727 -0.008816598 0.0869875 -0.104399554 0.091481425 0.06292588 -0.0018412116 0.051650405
-0.002270749 0.015463169 0.014690709 -0.20676349 0.020596603 -0.014339309 0.071787 0.07786998
-0.028205017 -0.02244986 -0.010914508 -0.015616818 -0.09001532 0.08432849 0.03189451 0.00017223846
-0.04123931 0.002478579 -0.03360694 0.036770012 0.041363526 -0.065147296 0.004381057 -0.013099385
0.0890314 -0.008772954 0.10020632 -0.04062161 0.0048519797 0.027017461 0.0050598513 -0.018982457
-0.004795984 -0.013111599 0.03218043 0.0341472 -0.00040550955 -0.023761768 0.0043860064 0.0013239324
-0.08531625 0.012242278 0.028656626 0.08574413 -0.006407916 -0.064123526 -0.053546645 0.08372448
0.022668133 -0.035400186 -0.05952649 0.03772907 0.017247248 -0.029790897 -0.007488144 0.00586051
0.019190682 -0.029155958 -0.0074632545 -0.047298633 0.083644755 -0.11575985 -0.056645095 0.12211516
-0.027101193 -0.021003531 -0.015470239 -0.031398233 -0.006703973 0.0013879279 -0.020933323 0.0059292866

a2c_network.mu.bias f4 [12]
00000000: 38a1 433e e361 3dbe 240e e43d ba30 6dbd
00000010: c5c1 53be 1247 683b 27cd 34bd 561b a0bd
00000020: 69f4 d43d d5e1 e43d 36a5 89bd 6523 58bc
0.19104469 -0.18494372 0.111355096 -0.057907797 -0.20679386 0.0035442752 -0.04414096 -0.07817714
0.1039818 0.111758865 -0.067209646 -0.013192032

exp_avg f4 [12]
00000000: 5211 e439 4013 4db9 96f2 6339 a18c d039
00000010: ec7a d6b9 07a9 01b8 bb01 b839 cba2 2b3a
00000020: be62 8b39 4d66 c439 0860 08b8 f4b8 9ab9
0.00043500453 -0.00019557495 0.00021738777 0.00039777628 -0.00040908845 -3.0913416e-05 0.00035096504 0.00065473904
0.00026585715 0.00037460253 -3.2514363e-05 -0.0002951097

exp_avg_sq f4 [12]
00000000: 85bf 6035 76be 4d35 eb49 6235 55e2 7835
00000010: 0911 6735 fe01 5735 b12e 6735 2771 6835
00000020: ab40 5a35 1cdb 7335 327a 5535 f904 6d35
8.37252e-07 7.664561e-07 8.4299126e-07 9.2716556e-07 8.6078995e-07 8.009664e-07 8.612215e-07 8.6591393e-07
8.130543e-07 9.08434e-07 7.95265e-07 8.8296616e-07
