OmniIsaacGymEnvs/omniisaacgymenvs/runs/Naranjelio/nn/last_Naranjelio_ep_1000_rew_7.6797605.pth (torch, 672807 bytes, 36 tensors)

value_mean_std.running_mean f8 [1]
00000000: 644c 493e 8439 e13f
0.5382710663346981

value_mean_std.running_var f8 [1]
00000000: 7cc3 c55e bc4b d93f
0.39524754767540293

value_mean_std.count f8 []
00000000: 0000 0004 0070 9741
98304001.0

running_mean_std.running_mean f8 [48]
00000000: 142e 1421 c1f3 88bf 4047 6651 5ba0 57bf
00000010: 3b5b d1ca a6a4 a23f 6851 4d58 bb40 74bf
00000020: 3478 3aa5 b3b9 4d3f 3f2a 4013 04dd 4d3f
00000030: 77ed c476 9077 c8bf a92b 73fc 75ba adbf
00000040: 24c4 713b b388 edbf bbf7 1f23 b84e e03f
00000050: 0519 89a6 5806 72bf d954 b36c dd9a 82bf
00000060: 2a38 ef6f 299e acbf 7b45 ad73 dea6 d43f
00000070: 31a4 4bf3 744d 773f f728 4af6 3baf b4bf
00000080: 508b 6628 541c cabf f446 98fe 4782 f6be
00000090: e712 068e b423 bc3e 6773 3cc3 ab96 0040
000000a0: 9946 e21d 95ab e63f 0dad aa05 811b 963f
000000b0: c1b1 1c1a dfc9 02c0 a68b 690e 432e 70bf
000000c0: bf99 ecc0 d54d 353f 0f67 fb28 1830 383f
000000d0: 12fd d97f 5c2c 0cbf 1edd 8a24 2ce6 37bf
000000e0: b5e9 0a4a 875d 46bf a0f8 fe91 73e6 46bf
000000f0: 5719 21d3 4767 6d3f da8e ac8f c57a 7b3f
00000100: d9a8 af83 dfd2 68bf a544 6ad7 2acc 16bf
00000110: cb20 2ffe 0d39 75bf 0612 d624 5749 1cbf
00000120: 5c6d df9b 15f7 e93f 5df2 2f09 8066 d33f
00000130: 4d28 83eb ef75 d2bf caf9 600a 585c e5bf
00000140: 77ad 4379 9905 c2bf fea1 b65e 51ab b13f
00000150: 7ff8 a9fc e996 d23f 2e9a f86b 2c64 c83f
00000160: 711f cc26 fa19 83bf 09c6 a191 0eaf a33f
00000170: 7507 9c43 32d5 cdbf 1c6e 7370 2fb1 e53f
-0.012183674642549248 -0.0014420406128902857 0.03641244149974062 -0.0049445455704993715 0.0009071471381110253 0.0009113569162775905 -0.19114881324081143 -0.05806320864356646
-0.92293702707514 0.5096092878372852 -0.004400583544855734 -0.009084443931366358 -0.0558941792620405 0.32268487259451434 0.0056891029714530176 -0.08079886210376573
-0.20398952458080055 -2.1466170357759475e-05 1.6772433398547759e-06 2.073569798738777 0.7084451278371545 0.02158929440581141 -2.3485700645453282 -0.003950368822731065
0.0003250738963508602 0.00036907758565761587 -5.3736279352451424e-05 -0.000364671494519313 -0.000682536181634766 -0.0006988586719598629 0.0035892870737683036 0.006708881114523025
-0.0030302396312339272 -8.696567042877858e-05 -0.0051813646886744264 -0.00010790438064673538 0.8114116711034671 0.30313111207195736 -0.28844831465960824 -0.6675224497519647
-0.14079588338004687 0.06902035295809836 0.2904610602780692 0.19055705329920286 -0.009326891240121178 0.03844495322926995 -0.23306873608822412 0.6778790661150569

running_mean_std.running_var f8 [48]
00000000: cf19 73c2 e3b9 ac3f 4ff0 9f3d 9d98 a83f
00000010: 2c64 c295 972a b43f 3af3 b2c0 f0ad 733f
00000020: 2ce4 c6a1 ffe9 673f b32c 3518 490c 4e3f
00000030: 0ce7 273c a60b a03f b6be 6f73 3fb7 a33f
00000040: 8188 ee1a 15ae a33f bd15 782b 72d6 1540
00000050: 2977 0247 e53b f53f bb32 7cf2 585c 943f
00000060: fd96 5f24 4a6e b23f c91d 2bab 9d5a a23f
00000070: b5ee a255 723d 113f 187a e495 06d3 a73f
00000080: 77ad 452a b65f bc3f cc0b 153d 198a e33e
00000090: 30de 97f0 cd6f 623e 2cfc 2276 6a99 0040
000000a0: 3e38 e601 d853 e23f 498b e24c 06fb a63f
000000b0: 35fa 8c99 e6c9 0c40 8fab 975d c86f 8e3f
000000c0: 8ab8 be1e 21aa 183f b14a 7501 52a2 133f
000000d0: 59c4 d7e6 7cc0 f23e 135b 770a c5eb fd3e
000000e0: 1707 dede f4de 053f b314 bfdb beec f53e
000000f0: f4f3 549b 7ff2 103f 69d1 0c2c 9f10 803f
00000100: b4e7 598b f99d 1d3f 0553 2b00 9603 2f3f
00000110: b279 48bb 2935 1f3f c461 abfb c5af 3b3f
00000120: ac13 0dc5 8223 c93f d3a5 2408 6e4a d73f
00000130: 2a84 bc4c d2c1 e33f 71bf 8619 8703 d43f
00000140: 19a0 0416 cead e53f a2be d741 d5a5 e63f
00000150: d1df 0948 cfbc e43f 61f6 566a 2a87 e53f
00000160: d702 b3e0 99be eb3f 8ae8 0f67 cab2 e73f
00000170: 8d4e 0ee4 b690 e63f 3ac2 da0e 2069 d43f
0.05610572575237748 0.0480393541074312 0.07877490431054984 0.004804554405549772 0.0029191963969563885 0.0009169918925321568 0.031338877528424985 0.03850744518410691
0.03843751863247836 5.459419898228075 1.3271229528249455 0.019883527565115893 0.07199538600942997 0.035847594399054446 6.576547949326934e-05 0.046531873509810306
0.11083544284854506 9.317134671454461e-06 3.434109714297962e-08 2.0749100903917874 0.5727348363013858 0.044883915791862856 3.5985843654773597 0.014861646038260705
9.408785962136866e-05 7.489800952002291e-05 1.7883210992001737e-05 2.853486571815628e-05 4.171547685328911e-05 2.0909106509998855e-05 6.46486649502202e-05 0.00784420350246569
0.00011298022840291918 0.00023661809981114653 0.00011904780587499475 0.0004224642140520341 0.19639620420107684 0.3639178351901055 0.6174098490483904 0.3127153157502028
0.6774664335289372 0.707743290518881 0.6480480582240437 0.6727497174212652 0.8670167339951956 0.7405750286991559 0.705165334149983 0.3189163346351368

running_mean_std.count f8 []
00000000: 0000 0008 0070 8741
49152001.0

a2c_network.sigma f4 [12]
00000000: 2342 b7bf 1f77 98bf bb76 64bf 121c 81bf
00000010: b346 8dbf c094 6dbf 5b80 6fbf 39ae 40bf
00000020: ab46 7abf 4885 54bf e467 6ebf bf5b 5bbf
-1.4317058 -1.1911353 -0.8924367 -1.0086691 -1.1037201 -0.928051 -0.9355523 -0.7526584
-0.9776408 -0.8301587 -0.93127275 -0.8568687

a2c_network.actor_mlp.0.weight f4 [256, 48]
00000000: 3098 6ebc d8ff febc 5055 a1bd 7453 8cbd
00000010: d357 0cbd 58a9 debc 9aa2 40bd d27b 143e
00000020: 52dd 43bd 4a0a d23d d0fa ebbd f55a 3e3e
00000030: a060 92bc 02b2 993d 82f6 e1bd 23c9 1c3d
00000040: 9349 893d 0a37 b93d 2d0b 80ba e236 ac3d
00000050: acff c6bd bdd0 d8bd 978b 4ebd e68c 833d
00000060: 7c00 953d 790e b23d 0cde a73d 15db a33d
00000070: 2fdb b9ba 0e5e b1bd 76ff b33d f7b3 fbbd
00000080: bc39 0dbe 82d7 b83c d414 d3bd 8a0f 3c3d
00000090: ecb9 913c 229d cabd b127 03be 0d02 d03b
000000a0: 359c 3c3d e3d0 9e3d 188b 3a3d fa7b 1f3d
000000b0: 3da7 293e 0a56 c2bd dd3b c1bc bbdd d0bd
000000c0: 7147 13be 4627 473e 58e4 d43d 0c4a 213b
000000d0: 7113 463c 4bec f33d a5e0 4abe 20dc bbbd
000000e0: e2a1 2b3e a532 88be 1df6 2c3e 397c a43e
000000f0: 5616 b5bc 0679 493d cfc2 4e3d 06ec 97bd
00000100: 94c2 d53d ac1e a83c b826 093e 88a7 173e
00000110: 490a 033e a337 653d 6787 b33d 0a85 1f3e
00000120: 1322 923c e03f aabd ea48 0dbe 5d5a f5bc
00000130: 7a48 e8bc a284 453d 6c72 84bd baa9 903d
00000140: b9bd 3ebd 490a 08be 8686 313c cbbb 14be
00000150: 893a a23c 92a2 333c 2924 33bd 5bb9 a23d
00000160: d15e c43d a51b c0bd 08ad 34bd c0d2 0dbe
00000170: d6a9 9a3d 6f3f b03d b456 cdbd f8dc 3d3c
00000180: 2952 97bd f1e7 bc3d 1122 d2bd 9daa 2c3d
00000190: 0e6b 9a3b 52ed cf3a 98b0 f7bd 210f c1bc
000001a0: b20c b3bd f0c2 7f3e dc26 24be 1087 e5be
000001b0: 126c cb3d de22 453c 8705 10bc c9f6 c63d
000001c0: cbfa 33be b69a abbd 6326 98be 10ca 3ebd
000001d0: 955d 653e 5f5a 3b3d 4e96 093e ba56 01be
000001e0: a88b efbd b9d4 b43d c771 0e3e b9ed cd3b
000001f0: 13f5 1d3d 8699 25bd 1474 0bbc 9739 983d
00000200: cdc7 b53c 2050 abbd 79c6 383b 18cb d03c
00000210: 6f89 933c cd6f cfbc 4178 d6bd 6cd1 8e3d
00000220: 8269 16be 493a 043d c07d da3d ae3d d439
00000230: f0e8 a53d ba11 063d 2ca9 05bd 56ae 5f3b
00000240: 4ed7 8cbc f4a4 c73d 2135 633e 169f 1cbd
00000250: 8841 2e3e bc7e c83d c405 4abe 00bf 7a3d
00000260: 79a2 323e 9488 8bbe f22a 943d 9315 ab3e
00000270: a27a 103d 8593 fabc 3339 2a3e ef37 c3bd
00000280: 4d3e d33d 2563 08be cb24 193e f9a9 0b3e
00000290: 026d 6f3d d126 803d 1ac5 1abc 8b01 01be
000002a0: a091 a33d f554 a0bc 94fd afbd e54c df3c
000002b0: 9a20 f1bc f955 dc3d 0399 92bd 22cd 05be
000002c0: 2a7b 5e3d 1139 373e 6b44 3f3d 3e32 5d3d
000002d0: 4a1e 18bd 7baf acbd 600e 293d 4c2f 833b
000002e0: 52d9 843c 3b9f 383e 9108 ef3d 8ca1 9d3d
000002f0: 064e e3bd c9e2 5abd 8592 e2bd 5447 33bd
00000300: 68a0 44be 3e90 013d 4a33 0ebe 6c20 293c
00000310: df81 663b 1ac7 843d eb51 a03d 1702 bfbd
00000320: aed6 13be b67c 82be 5351 283e 8703 07be
00000330: 0396 573d fb97 5d3d 9aa6 71bd 6e6a ea3d
00000340: 4232 fa3c c220 a03d 4c52 f3bd 1eb8 b3bc
00000350: 7a01 cb3d 2c91 37bd 2b03 a83d 3954 343d
00000360: 9e4e e33d 5fa9 553d 1aaa ec3d 92b1 353d
00000370: a044 9b3d b40d 003d 2aa7 45bd a3b3 913d
00000380: c885 81bc c991 1fbe 6114 a9bc 9530 22bc
00000390: caad 673d b23e 78bd 019b a73c bd3b dcbd
000003a0: a0df 7ebd 7aca e23d f724 233e 2428 7f3d
000003b0: bb89 f13d 5ac2 72bd 3332 053d be8b 823d
000003c0: 2643 dbbd d4d5 ae3d 0314 b43d 09b5 16bd
000003d0: 8214 81bd 90c3 bb3d 3168 e43d 4846 b93d
000003e0: 8357 cebd 257f 5dbe 73ee 3abe 5243 31be
000003f0: 118b 04bc c8f4 40bc c4b3 26bd dd37 9cbc
-0.0145626515 -0.031127855 -0.078776 -0.06851855 -0.034263443 -0.027180359 -0.04703007 0.14500359
-0.04781849 0.10255869 -0.11522448 0.18589385 -0.01786834 0.075046554 -0.11033346 0.038277756
0.06703486 0.09043701 -0.0009768956 0.084089056 -0.09716734 -0.10586689 -0.050426092 0.064233586
0.07275483 0.08694167 0.08196649 0.08000771 -0.0014179702 -0.08660518 0.0878896 -0.12290185
-0.13791555 0.0225637 -0.10306707 0.045913257 0.01778885 -0.09893252 -0.1280811 0.0063479007
0.046047408 0.07754686 0.045542806 0.038936593 0.16567703 -0.09489067 -0.023588115 -0.10198542
-0.14382721 0.19448575 0.103951156 0.0024610786 0.012089596 0.11910304 -0.19812258 -0.09172845
0.16760972 -0.2660114 0.1689076 0.32126024 -0.022105377 0.049187683 0.050478753 -0.07418065
0.104375035 0.020522438 0.13393676 0.14810002 0.12796892 0.055961262 0.0876606 0.15578094
0.017838513 -0.083129644 -0.13797346 -0.029950315 -0.028354872 0.04822219 -0.06467137 0.07063623
-0.046567652 -0.13285173 0.010835296 -0.14524762 0.019803302 0.010964053 -0.043735657 0.0794551
0.09588397 -0.09380273 -0.044110328 -0.13849926 0.07551925 0.08605849 -0.10026303 0.011588328
-0.07388718 0.09223927 -0.10260404 0.042154897 0.004712469 0.0015863574 -0.120942295 -0.023566784
-0.08742656 0.24976707 -0.16030449 -0.44829607 0.09932722 0.012032239 -0.00879038 0.09715039
-0.17576139 -0.08379118 -0.29716787 -0.04657942 0.2239898 0.04574048 0.13436243 -0.1263074
-0.11696559 0.08829636 0.1391059 0.0062844423 0.0385638 -0.040429614 -0.008511562 0.074328594
0.022189999 -0.08364892 0.002819447 0.025487468 0.01800987 -0.025321865 -0.10472155 0.06973538
-0.14688686 0.032282148 0.10668516 0.00040481746 0.0810107 0.03273175 -0.032632038 0.0034131012
-0.017192509 0.09748259 0.22188236 -0.038237654 0.17017186 0.09789798 -0.19728762 0.061217308
0.17444791 -0.27252638 0.07234754 0.33414897 0.0352732 -0.03058792 0.16623382 -0.09532153
0.10314617 -0.1331907 0.14955442 0.13639058 0.058453567 0.06257404 -0.009446407 -0.12598245
0.0798676 -0.01957176 -0.08593288 0.027258346 -0.029434491 0.107585855 -0.07158091 -0.13066533
0.054316677 0.17892863 0.046696108 0.054002993 -0.03713826 -0.08431908 0.041273475 0.004003441
0.016216908 0.18029492 0.11671556 0.07696828 -0.11098866 -0.053438935 -0.11063103 -0.043769196
-0.19201815 0.0316317 -0.13886753 0.010322671 0.0035172624 0.06483288 0.078281246 -0.093265705
-0.14437363 -0.25485772 0.16437273 -0.1318494 0.052633297 0.054100018 -0.058996774 0.11446081
0.030541543 0.07818748 -0.11880931 -0.02193838 0.09912391 -0.04481618 0.08203729 0.044025633
0.110989794 0.052163478 0.11555882 0.044358797 0.075814486 0.03126307 -0.048255123 0.07114341
-0.015810862 -0.15582956 -0.0206396 -0.009899278 0.056562223 -0.060606666 0.020459654 -0.10753582
-0.062224984 0.110737756 0.1593207 0.06229414 0.11793848 -0.05926738 0.032518577 0.0637431
-0.10706167 0.08536878 0.087928794 -0.036793742 -0.0630274 0.0916816 0.111526854 0.09046608
-0.10075285 -0.21630533 -0.18255024 -0.17310837 -0.008089797 -0.01177711 -0.04069878 -0.019069606

a2c_network.actor_mlp.0.bias f4 [256]
00000000: 62f3 96bd 62d8 80bd dea5 dc3d a8f1 723c
00000010: 58c8 11be fa07 263e 2694 493e 5c67 04be
00000020: 14ca b23d 6f4d 123e 333c c43d 1a5b c3bd
00000030: c4a5 cf3b 3b3b 8abd 55e9 e9bd 8fad 343e
00000040: 4d6d 823e 7110 9ebd f5a5 93be ff3e 83be
00000050: 2a5d 4e3e 0b53 973d 12a6 1bbe 032a ccbd
00000060: 06af 9cbd 2d97 3b3e 9192 c53d 042a 153d
00000070: 9d47 3fbe 0033 bdbc c63f 213e 040f 4bbb
00000080: dd16 633d a4ae a0ba 052e 293e e1d8 f93d
00000090: 9202 2cbe 8025 333e d61f 153d 1df4 133d
000000a0: 88a8 9cbd a93d 0e3e 5dca 863e ce59 31be
000000b0: 4530 af3c f6a4 963d d340 c43d 9929 9c3d
000000c0: 6218 1e3e b2ed 1cbb 2d97 523e 07d5 e73d
000000d0: ca2c 5b3d 83f1 bd3d 862a 59bd 7700 5ebd
000000e0: 5996 e03d f1c1 fa3c 9dbd c1bd cea1 61bd
000000f0: 051f fcbd 2ea4 1c3e c7e7 ae3d de02 96bd
00000100: 9709 f0bd 4938 153e 5e55 44bc b0ee b9bd
00000110: c1a2 0c3d 5fb3 823d 75bb 5d3d fef1 b33d
00000120: e7c6 93bd 3de7 1e3e 8e86 4d3d 7b8c d03d
00000130: 1706 a83d 54d7 213e 98bb 803d 5204 5b3d
00000140: e506 de3c fb06 ffbc af82 a13d ba1f 8abd
00000150: 264b fd3d bb7d 8c3e 986a 363e 753b adbd
00000160: 2c3b 1b3e 4023 a8bd ee82 403e 23c3 4f3e
00000170: 48e1 653e d4c3 23bd 1564 083c f5c6 313e
00000180: 5f48 17be 03ca 43be 785e 77be d502 5dbd
00000190: 9b47 143e e24a 333d 77d9 45bb 725f 91be
000001a0: d04f e43d 8ea5 b83b 9bff bf3c ed57 e53d
000001b0: 7272 fe3d dbd2 243d 7e63 59be 2126 b5bc
000001c0: 6716 dd3c 3584 513e 0b63 223d 5e5b 59be
000001d0: b5c5 07be 58f0 13bc b9af d73d 3e15 0fbd
000001e0: 66cf d53d d56c 45bd 8bcf e1bd 90db 573d
000001f0: 8929 ec3d c48f 043d fd1f 0e3e 818b 983d
00000200: 133e 2a3a cfcf 03bd 901e a63d 2028 1bbd
00000210: 2b52 99bd 0b73 10be f4a1 26be 0f9f ff3d
00000220: 9418 753e 14e1 1e3d 39f9 3f3e 3dd2 993d
00000230: 9ccd 31be 6dfb 0fbe 8d05 e33d 15ab 183e
00000240: d7b1 e93a a821 9dbd 865b b9bd 4653 673e
00000250: f357 0fbe 2bd1 ed3d f90a 33bd 6e44 4abc
00000260: 358d de3d 7e0d 983d d513 1c3e 88be 09be
00000270: 7742 c9bd 2ccb dd3d a919 173e c08c 893d
00000280: 5344 fcbd 41fe 403e 1934 6abe bb63 53be
00000290: 923c 0c3d 95c4 e83c 923e 683d acd8 403d
000002a0: b108 e8bc b956 1abe f2d5 393e 57ec 18be
000002b0: 9a0f 563e 2506 423c 8c6d 803d 18e2 5d3c
000002c0: 37b0 8bbb a350 a9bc 9cf7 c13d a5d7 333d
000002d0: 5b1e 073e c62d 043e 4c03 5bbe 32a4 4d3e
000002e0: 3e1b 023e 7ef6 003e 77d7 c73d 6ed2 0a3e
000002f0: b970 263e 9d31 d63c eca9 19be c6ce 24bd
00000300: 861d e5bd 0ef7 6d3e 455c a5bd 73cb 203e
00000310: d6eb 013e c37d 113b bc12 993e c86b 96bb
00000320: c2a5 cabd d094 9f3d 041e 7a3e fe4b ffbd
00000330: 254c 60bc d545 093e 6682 113e 2a48 1f3e
00000340: 3e45 973d 9766 3fbc a9da 3b3d a37c 903d
00000350: 2e08 4f3e c79c 8bbd ab1c a83c 2d94 403e
00000360: f6be 133e 8b03 e43d 59b7 0fbd f286 c73b
00000370: 68bb 8abe 450c c2bb a755 0b3e 4429 8fbc
00000380: ae47 b43d 4d0f e83d 5636 9cbd 5abf b0bd
00000390: 9cb2 df3d a6e9 633c 88ca f8bd 2a4d f63d
000003a0: f6ff bebd 7135 ca3c e0ad ba3d d427 a5bd
000003b0: 8e1a 33bd 4bf2 043e be2a 073e 1858 e1bc
000003c0: 5b8c 473e 5976 3c3e 3535 d73d 6650 a6bd
000003d0: c959 b43c 6168 dd3d 0c6e 593d c0b8 803e
000003e0: 90c3 c63d 8c0e ee3c f8d1 acbd aa10 7f3d
000003f0: e54d 173e dfa4 1b3e 0010 123e 94b4 20bd
-0.0737064 -0.06291272 0.10773824 0.014828123 -0.14236581 0.1621398 0.1968542 -0.12930053
0.087299496 0.14287351 0.095817946 -0.095388606 0.0063368995 -0.067495786 -0.11421458 0.17644332
0.25474015 -0.0771798 -0.28837553 -0.25634 0.20152727 0.07388886 -0.1520007 -0.099689506
-0.076505706 0.18319388 0.09647096 0.036417022 -0.18679662 -0.023095608 0.15746984 -0.0030984292
0.055441726 -0.0012259078 0.16521461 0.121995695 -0.16797855 0.17494774 0.036407314 0.036121476
-0.07649332 0.13890709 0.26326266 -0.17319414 0.021385321 0.073556826 0.09582677 0.076251216
0.15438989 -0.0023945388 0.20565481 0.113199286 0.05350951 0.0927458 -0.05301907 -0.054199662
0.109661765 0.030610057 -0.09459994 -0.05508595 -0.12310604 0.15297005 0.08540302 -0.073247656
-0.11720579 0.14572252 -0.011983244 -0.09078729 0.0343349 0.063818686 0.05413385 0.08786391
-0.07215672 0.15517898 0.05017715 0.101830445 0.082042865 0.15804797 0.06285781 0.053470917
0.027102897 -0.031131258 0.07886254 -0.067443326 0.12367849 0.27439675 0.178141 -0.08458606
0.15159291 -0.082098484 0.18799946 0.20289283 0.22449219 -0.039981678 0.008324643 0.17361052
-0.14773701 -0.1912003 -0.2415713 -0.05395778 0.1448044 0.043772586 -0.0030189434 -0.28393131
0.111480355 0.00563497 0.023437312 0.11198411 0.124241725 0.04024015 -0.2122936 -0.022112908
0.026988221 0.20460589 0.039645236 -0.2122626 -0.13259013 -0.00902947 0.10531563 -0.034932368
0.10439949 -0.048199493 -0.11025914 0.052699625 0.1153136 0.032363668 0.1387939 0.07448483
0.0006494235 -0.032180604 0.08111298 -0.037880063 -0.074863754 -0.14106385 -0.16272718 0.1248151
0.23935157 0.03878887 0.18747415 0.07510803 -0.1736359 -0.14060755 0.11085043 0.14909013
0.001782949 -0.07672435 -0.0905066 0.2259036 -0.13998394 0.11612161 -0.043711636 -0.0123454165
0.10866777 0.074244484 0.1524194 -0.13451588 -0.0982713 0.108297676 0.14755882 0.06716299
-0.12317719 0.1884699 -0.22871436 -0.20643513 0.03423745 0.02841405 0.056700297 0.047081634
-0.028324457 -0.15072145 0.1814802 -0.14933906 0.20904389 0.011842285 0.062708944 0.0135426745
-0.00426295 -0.020668333 0.09471056 0.043906827 0.13195173 0.12908086 -0.21387976 0.20082167
0.12705705 0.1259403 0.097578935 0.13556835 0.16253938 0.026146704 -0.15006226 -0.040236257
-0.11187272 0.23238775 -0.0807424 0.1570261 0.1268762 0.0022200204 0.29897106 -0.0045904852
-0.09894897 0.077920556 0.24425513 -0.12465666 -0.013690029 0.13405545 0.142099 0.15554872
0.07386254 -0.011682174 0.045862827 0.070550226 0.20217964 -0.06817012 0.020521482 0.18806525
0.14428315 0.11133488 -0.035086963 0.006089085 -0.27096105 -0.005921873 0.13606893 -0.017475732
0.08802734 0.113310434 -0.07627551 -0.086302474 0.10922739 0.013910687 -0.12148005 0.120264366
-0.093261644 0.024683686 0.09115195 -0.08064237 -0.043726496 0.12983052 0.13199899 -0.027507827
0.19487135 0.18404521 0.10508195 -0.081208035 0.02201547 0.10810924 0.053083465 0.25140953
0.09705269 0.02905967 -0.08438486 0.06227175 0.14775808 0.15199612 0.14263916 -0.039234713

a2c_network.actor_mlp.2.weight f4 [128, 256]
00000000: 005a a23c e79b 0e3e c0c3 eabd 7919 903d
00000010: 5a13 87bd 8f10 203d de00 ebbd 5e7b 9bbd
00000020: 0561 f4bd 784d e1bc c98f 443d f4d1 ab3c
00000030: 4c06 dd3d 3c9f f43c 0c21 833d dea8 443d
00000040: e83e 4fbd 905b d83d 0beb 40bd e38c 0f3e
00000050: cd1a 83bd 8161 99bd fdf2 c13d 3c96 103e
00000060: d2a9 213e e1d8 e1bc 3886 64bb e259 fe3d
00000070: 2ae5 babb 7850 663c dbcb 1bbd 8060 6f3d
00000080: 3a2f 023e 5361 22bb 2b7c ae3d 448a 89bd
00000090: 8fb1 7abd caf6 11be 2df5 cc3d 5ac2 793c
000000a0: c8a5 453e d583 95bd f529 cd3c 7567 b6bd
000000b0: 3e8c 06bd a30e 09bc 3c53 00be ffe9 2abb
000000c0: 5c23 a03d 7329 973c 121f 5abe 4d98 f5bd
000000d0: 76ff 35bd 022f 72bd 81f3 323d 330e a83c
000000e0: 64c0 29be 38a2 c93d e678 a3bc a9e4 083e
000000f0: fc4c 913d 3263 76bc 5186 6d3c b7f4 223e
00000100: 507f ad3d e8d3 72bd 4a07 33bd 7488 7ebd
00000110: 242f 15bd 37e3 f5bd daf6 c7bd 9f32 34bc
00000120: a42a 69bc d46e a7bd fd8a 863d 4622 babc
00000130: 1529 a3bd c3c8 67be 6512 b1bc 4e10 20be
00000140: 1220 993d 2073 7d3d cfab b43d 02f8 e93a
00000150: 9d45 b1bd 5f38 c2bd f763 14be 4586 743d
00000160: 7aa8 1d3d d143 49bd bcd9 7dbd c04d 28bd
00000170: 4493 2f3d 7b91 293c df7f 3e3c 9cac 943d
00000180: cd43 e4bd 2d39 b9bc 54fe 073d 8f0d 373e
00000190: 2b7d 87bd b4e5 b73d c359 993d 7937 ac3d
000001a0: 95e4 50bd d146 8dbd ff63 563c 37c4 cabc
000001b0: 8d70 93bd dbee 40bd 4b8b b0bd ce5c 0f3e
000001c0: b4d0 9a3d 2d1b 1e3d 887d 3abe 613d 983c
000001d0: dced 81bd 67ef 0ebd 5912 c8bc a8ae 1bbe
000001e0: e8f3 84bc c5ca 6e3c b4e1 bb3d ebb7 05bd
000001f0: cd47 91bd cac4 b3bc 2dc9 d63b fd16 283d
00000200: 9ad8 ac3c 455f 11bd c5d7 9cbd 25af 503d
00000210: c21a e1bc 8671 453d a00e 583d b960 42bd
00000220: 6008 d6bd f839 12be 3432 9a3c 94bb 88bc
00000230: 90fb debc d1dd 07be e571 11be 968b 15bd
00000240: 1cec 1abd 5abb 92bd b4a8 07bc 599d 67bd
00000250: 37f1 9c3b 0a6d 17be 7673 dd3d 9bf4 55bd
00000260: bb06 8dbc 1685 fbbc f4cf d1bd e3ad b63c
00000270: 8833 e23d e741 803d 076b 97bd e587 bc3c
00000280: e25b 2f3a 4aa8 22be e04a 59bd d796 b5ba
00000290: 6ec9 81bd 6425 e7bd 8dde 38bd 2edc 1bbd
000002a0: 9dd4 9d3b 79a9 323e dc41 dabd ca77 3c3e
000002b0: daf7 a9bd 6513 afbd e8a7 8a3d 5d76 d73d
000002c0: 4fb2 e93d 008d dcbd f5b1 f23c a0b3 a53a
000002d0: 22db 2abc 1883 823d 32cc d9bc de3e 0cbd
000002e0: e291 043c 0d87 683d d586 dd3d 462f b73b
000002f0: 9d23 643d 8c96 17be cf99 b43d 2a24 3e3d
00000300: e8ae a2bd 33d2 383d 34cd 52bc a73f 863d
00000310: 049f 93bd cf91 a7bd 3cbf 70bd f096 503d
00000320: 1f5d 103e 3ec4 a7bc cf7f 1dbd ff35 fbbd
00000330: 0757 bebc 925f 4c3d 1458 f7bc d230 323d
00000340: 2415 da3c 0199 ec3d 8f5d 723d 2757 edbc
00000350: 4b77 0abe 3811 6d3d d629 d7bc 4916 8cbe
00000360: 125e 7dbd 5794 0c3e d120 a1bd 85f0 8c3d
00000370: ab2c ca3c 366d 9dbc 2309 bf3d 5d71 f8bc
00000380: 579c 3bbd c688 b1bd 1a0e 063d aefb 7f3d
00000390: 165f 86bc a6c7 15be 21a5 bb3d 4142 0c3d
000003a0: 7164 c7bd 2b60 0d3e 1ae1 14bd ac63 243e
000003b0: 1b49 203d 0745 12bc 7b70 603d 40a3 97bd
000003c0: 9f1c 31bd c700 983d a1bd 57bd feb6 c53b
000003d0: 847f c53d 8c22 bdbc a342 1b3e 9f76 03bd
000003e0: 9b3c 1dbc d51f 313d 3959 5abd fff4 d23c
000003f0: 3d4f f9bd 6a31 0e3b 336a 573d 4436 0b3e
0.019818306 0.1392666 -0.114631176 0.070361085 -0.06595488 0.03907829 -0.11474775 -0.0759189
-0.119325675 -0.02750276 0.047988687 0.020974137 0.10792217 0.029861085 0.064027876 0.048012607
-0.0505971 0.10564339 -0.047099154 0.14018588 -0.06401596 -0.074893005 0.094701745 0.1411981
0.15787438 -0.027569236 -0.003487004 0.124194875 -0.005703588 0.014057271 -0.03803621 0.05844164
0.12713328 -0.0024777248 0.08519777 -0.06715825 -0.06120449 -0.14254299 0.10007701 0.015244091
0.19301522 -0.073005356 0.02504442 -0.089064516 -0.03284859 -0.008365306 -0.12531751 -0.0026079414
0.07819244 0.018452382 -0.21300915 -0.1199194 -0.04443308 -0.05912686 0.043689255 0.020514583
-0.16577297 0.09845394 -0.01995511 0.13368477 0.07094762 -0.015038298 0.014497356 0.15913664
0.084715486 -0.05928412 -0.043708123 -0.06214185 -0.03642191 -0.120062284 -0.0976388 -0.010998397
-0.014231358 -0.08175436 0.06569479 -0.022721421 -0.0796682 -0.22635178 -0.021615217 -0.1563122
0.0747682 0.06187737 0.088218324 0.0017850401 -0.08655856 -0.09483408 -0.14491259 0.059698362
0.03849075 -0.04913694 -0.061975226 -0.041089773 0.042865053 0.010349627 0.0116271665 0.07259485
-0.111457445 -0.022610271 0.03320153 0.17876266 -0.06615671 0.08979359 0.07487824 0.08409018
-0.050999243 -0.06898273 0.013085364 -0.024751766 -0.07199202 -0.04710279 -0.08620318 0.14000246
0.07559338 0.038600136 -0.18211949 0.018583955 -0.06344196 -0.03489628 -0.024422811 -0.15203345
-0.016229585 0.014574711 0.09173909 -0.0326461 -0.07093773 -0.021944422 0.0065547437 0.04103755
0.021099377 -0.035491247 -0.07658342 0.05094828 -0.02747858 0.048203968 0.052748322 -0.047455523
-0.10450816 -0.14279926 0.018822767 -0.016691007 -0.027219564 -0.1326821 -0.14203604 -0.036510073
-0.037822828 -0.07164641 -0.008279968 -0.056546543 0.0047894972 -0.14787689 0.10813038 -0.052235227
-0.017215123 -0.030703109 -0.10244742 0.022299713 0.11044985 0.0626257 -0.07393461 0.023014018
0.0006689412 -0.1588451 -0.053049922 -0.0013854158 -0.06337248 -0.112864286 -0.045134116 -0.038051777
0.0048166052 0.17447461 -0.10657093 0.18405071 -0.08299227 -0.08548621 0.06770307 0.10520623
0.11410963 -0.10769081 0.029625872 0.0012642033 -0.010428222 0.063726604 -0.026586626 -0.034239642
0.008091422 0.05676942 0.10816733 0.005590352 0.055698026 -0.14803523 0.08818399 0.046421207
-0.07943517 0.045122337 -0.012866307 0.065551095 -0.07208064 -0.08182108 -0.058776125 0.050925195
0.14098023 -0.020479318 -0.038451966 -0.12266158 -0.023234857 0.04989583 -0.030193366 0.04350359
0.026621409 0.11552621 0.059171256 -0.028972222 -0.13522069 0.05787775 -0.026265066 -0.27360752
-0.06185729 0.13728462 -0.07867587 0.06881813 0.024679502 -0.019217115 0.093279146 -0.030327493
-0.045803394 -0.086686656 0.032728292 0.06249588 -0.016402762 -0.14626941 0.09162355 0.034242872
-0.097359546 0.13806216 -0.036347486 0.16053647 0.03913222 -0.00892759 0.05479477 -0.07404184
-0.043240186 0.07422023 -0.05267108 0.0060337773 0.09643462 -0.023087762 0.15162139 -0.032095548
-0.009596969 0.043243248 -0.053307746 0.025751589 -0.12173317 0.0021696934 0.052591514 0.1359492

a2c_network.actor_mlp.2.bias f4 [128]
00000000: 3e48 16bd 20be 52bc 8571 04be 9359 e1bd
00000010: 289d 593d 05f3 3ebe bada c4bd c8f3 60bd
00000020: 2b51 46be 0425 48be f528 efbd 7ac5 29bd
00000030: 232b 82bc ec25 3e3d 9fe4 31bd 1b37 d9bd
00000040: 4d12 22bc 2636 463c be37 f0bc e3b7 05bd
00000050: f2f6 8bbd b34d 6abe 1159 84bd a719 f43c
00000060: a2a2 c33b d2e7 75be 084c 16be a570 c0bc
00000070: 3849 74bd 285d 81bc 0aed 07bd 9e94 0cbb
00000080: cd14 73bd df14 993c b2e9 dcbc 020f aebc
00000090: 1f22 a8bd 1d96 88bd 193c 433c 8dfe 61be
000000a0: 0665 1f3d 9bf6 043e 86c0 27be 7c23 013d
000000b0: fe44 93be fa16 923c 6445 253d 329e ecbd
000000c0: b643 1f3d d5ae 25bc 8047 e7bd b7f4 f0bc
000000d0: 6978 7fbd 2bee 25bd 46b0 8a3d 83eb 913d
000000e0: 62b7 9d3d 30cf c03c 7151 76bc d41e c1bc
000000f0: d042 95bd 4d0f 1cbe 7a40 f13c 1a2a 133d
00000100: 3c1e d53c 81b1 233e bbd2 0bbe c766 54be
00000110: 3abe 263d a021 aebc aff7 22be ed68 ee3d
00000120: a28e 12bd eb66 603b 082d 9fbd 9510 d43d
00000130: 771e 15be 15f4 17be 5dcb 9abd 3118 1c3d
00000140: a94b 37be af9e 05bd 4189 093e 300e 9a3d
00000150: a646 bf3d ce7d 5d3d 4d2a 06be c14c 1bbe
00000160: eee4 543d ac4c 8d3c 077e b33d 59fd df3d
00000170: 4cf0 b4bc f37d 0bbc 7249 b83d 1839 babc
00000180: cc5b 283d 2bb0 f23c 3abd a13d e190 dcbd
00000190: f101 063e a58f 2c3c 8a19 ecbc 06a3 01bd
000001a0: 2f5c 87bd a317 83bb e541 99bc 5db1 f13d
000001b0: e4aa 14bd a15a ae3d d905 23be 5d32 87be
000001c0: 1cef e4bb fead b93d 64eb 8abc 75f0 91bd
000001d0: 26fe 01be 6389 623c 62c8 c23d f427 b53c
000001e0: fee6 013d fdbf 493d 7c4c abbb 5ab0 45be
000001f0: dd42 313d 33e0 92bd c6d1 2abe 481f 863d
-0.03668999 -0.012862712 -0.1293393 -0.11003413 0.05312839 -0.18647392 -0.09612031 -0.054919988
-0.193669 -0.1954537 -0.11677734 -0.041448094 -0.01588971 0.046422884 -0.04343092 -0.10606214
-0.009892059 0.012097871 -0.029323455 -0.03264607 -0.068342105 -0.22881202 -0.064623006 0.029797388
0.005970315 -0.24014214 -0.14677441 -0.023491213 -0.05964014 -0.01579149 -0.033185042 -0.0021450887
-0.05934601 0.01868671 -0.026966903 -0.02124739 -0.08209633 -0.06669257 0.011916184 -0.2206976
0.038914703 0.12984698 -0.16382036 0.03152798 -0.28763574 0.017833222 0.04034938 -0.11553611
0.038882934 -0.010112484 -0.112929344 -0.029413564 -0.06237069 -0.040510338 0.06771903 0.071249984
0.07700993 0.023536295 -0.015034066 -0.02357427 -0.07288134 -0.15240212 0.02944969 0.035928823
0.026015393 0.15985681 -0.13654606 -0.20742331 0.040708758 -0.021256268 -0.15914796 0.11641107
-0.035780556 0.0034241031 -0.07772261 0.10354725 -0.14562403 -0.14839204 -0.0755832 0.03810901
-0.17899956 -0.032622036 0.13431264 0.07522237 0.09339647 0.054075055 -0.13102074 -0.15165998
0.051976137 0.017248474 0.08764272 0.10936994 -0.022087239 -0.008513915 0.089983836 -0.022732303
0.04110317 0.029625019 0.0789742 -0.10769821 0.13086678 0.010532294 -0.028820772 -0.031649612
-0.066093795 -0.0040006205 -0.018708179 0.118014075 -0.036295786 0.0851338 -0.159202 -0.26405612
-0.006986512 0.090663895 -0.016957946 -0.07125942 -0.12694606 0.013826701 0.09510876 0.022113778
0.031714432 0.04925536 -0.0052276235 -0.19305554 0.043276656 -0.07171669 -0.16681585 0.06548935

a2c_network.actor_mlp.4.weight f4 [64, 128]
00000000: cc3e 7cbd 7b56 423d 0967 1a3c c4ed c3bd
00000010: 9b0f c43c b69d e73d 46cc 813c 366a aebd
00000020: a81b e03d 8f1a ea3c 100b 13be 9daa 73bd
00000030: 31b1 9e3d aee7 acbc f832 01bd adf4 723d
00000040: 4dcf 613d 76b9 1cbd f8d9 c1bc 6873 d0bc
00000050: 05ab 11bd 1def 5f3e 6ab7 37bd ad5b 413d
00000060: f938 c5bd 4622 19be 5d2f 043c 8018 98bd
00000070: 4771 cebd 0e32 debd c43f debd ca14 453d
00000080: 0f6c bbbd 3399 c5bd aad3 41bd a17a 9c3d
00000090: 3572 7d3d 46c3 ccbd 4d07 dcbb f79b f4bd
000000a0: 8c45 dbbc 1786 423d 6892 d4bc 4e27 ccbd
000000b0: 2864 9fbd 1f65 93bd 8064 9b3d cb08 00be
000000c0: dbd3 2abb 2d2a 5cbd 4462 373d 174d 983d
000000d0: cfa3 a43c faeb 0ebd 83a5 a3bd ecd8 a2bd
000000e0: bb68 8cbd fd7b 8bbd 902c 14bc 8ba0 c6bc
000000f0: f9a4 acbc 775c a0bc 92cb 973d c8c1 c43d
00000100: c13e e2bd 4b49 05be 0f8b ffbc 1bd6 fc3d
00000110: 6275 ebbd ecf7 1dbe 4dec 843d 7146 f0bc
00000120: edc7 72bd a889 933d cb80 6c3d 18c6 9dbd
00000130: 6173 063d 1963 d0bc dd58 fb3d b1ea 363d
00000140: cf47 babb 553d aebd 6401 02be 4cbb b1bd
00000150: ede4 12be f998 2b3d c5e8 61bc 776d b53d
00000160: 7649 db3c 0779 02be ed7c a63d 64bc d6bd
00000170: e32d 163e eabd 2a3c 6f75 0e3e e2d0 703d
00000180: 0b07 1d3b 19a5 d7bd 1c62 40bc 150c 05be
00000190: a029 553d e0e7 babd 9d59 34bd aaf3 113b
000001a0: 5696 8bbd 383d 1abe e038 273d 756e a3bd
000001b0: 669f 343d 917d a5bd a80a 443c 36ea 1ebc
000001c0: 7c4a 073d 38db 7c3c 528c c4bd b862 aabd
000001d0: e5c3 223d 6af5 523b 63e1 24bc 8f2c 86bd
000001e0: 2a32 80bd aae5 65bc 569c 80bd 9f49 f93c
000001f0: beaa 00bd b929 8b3b 2b5b a03d 22ce 93bd
00000200: 98ed b1bc 5fd2 26bc 7906 f33c 7066 f13d
00000210: eb00 303c 1798 d9bd b0e9 b6bc 6c77 2f3c
00000220: 081f 06bd 797d adbd a687 793d e1ea e8bd
00000230: 094e cdbc a121 8e3d 0e20 05be 2ff4 77bd
00000240: 0300 953c bd21 11bd f5b4 253d 0537 1d3c
00000250: b7e1 dc3d f8b1 f8bd ad0d e3bd e0ec a6bd
00000260: 851f b63d 4dea 18bd 9f70 543d 28db 84bd
00000270: de5c 543d 3d87 ce3d bd51 b23d e4bc cf3d
00000280: a69d 953d 085f eebc 19c8 293c 1a75 b8bc
00000290: a028 0cbd bfdb e4bd adba f8bd 82d4 08bd
000002a0: 0e64 26be 0add 83bd e281 c23d f11a 25bd
000002b0: 32a1 913c a424 0cbb 8e4a 1d3d 6046 eb3c
000002c0: 9d8f 0b3d d201 f33b 80d7 f83b 9369 c6bd
000002d0: ce2d 063e f781 743d 660c 05be 92c8 60bd
000002e0: 7aa7 653c b629 cd3d 47e7 debc 0faf e33c
000002f0: 47fa 473d cec7 4f3d f3f0 5b3d 7bba a23d
00000300: 9c65 863d 99fd ca3d 664c 03bd a1c9 d3ba
00000310: fe2f 093d eaf0 483d 8c65 c7bc fca3 09bc
00000320: b9fc eb3d 6da8 26bd 8be2 c3bc 7072 263d
00000330: 3e42 69bd 8186 10bc c021 f53d ac29 ebbd
00000340: 8f9d 1b3b c2bf 603c 9fcb bb3d 452f 00be
00000350: 0dfe 3cbd 87a3 a43c dae7 b43d dfa3 a7bd
00000360: 9184 953d 3073 16bd a935 49bd 9925 5d39
00000370: d36a 64bb 241e 05bd 29fa 283d f3e0 a4bc
00000380: 7a0b debc acb2 873c f9b7 eaba ca2e d13d
00000390: 815e 3a3a a548 01be 94e1 9dbd ed89 0cbd
000003a0: 5dbf 8b3d 6e02 933c 9576 dbbd 8da9 50bc
000003b0: 8804 38bd 6f02 d43d 8bf2 55bd b7ef 243c
000003c0: ed12 bcbd 4d78 3bbd cbf0 683d fe2c 31bd
000003d0: 78ed af3c fd7a 14bd 83de 3fbd fe4c 4f3d
000003e0: 1cca f9bd b9b3 b7bd 0d28 26bb b1af 63bd
000003f0: 341e 013d cd50 97bd 9dde f2ba 2925 6cbd
-0.061583325 0.047445755 0.00942398 -0.095668346 0.023933223 0.11309378 0.015844475 -0.08516352
0.10942775 0.028577117 -0.14359689 -0.05948888 0.0774864 -0.021106567 -0.03154275 0.059315372
0.055129338 -0.038262807 -0.023663506 -0.025445655 -0.035563488 0.21868558 -0.04485265 0.04720657
-0.09630007 -0.1495448 0.008067933 -0.07426548 -0.100802 -0.10849391 -0.10852006 0.04811553
-0.0915147 -0.09648361 -0.047321 0.07640577 0.061876494 -0.09998183 -0.0067147375 -0.119438104
-0.026766561 0.04749116 -0.025948718 -0.09968434 -0.07782775 -0.07197022 0.07587528 -0.12503354
-0.0026066217 -0.05375116 0.044771448 0.07436579 0.020097641 -0.034893014 -0.07990553 -0.07951531
-0.06855913 -0.06810758 -0.009043828 -0.024246475 -0.021074759 -0.01957534 0.07411875 0.09607273
-0.110471256 -0.1301624 -0.031194238 0.12345525 -0.11496998 -0.15426606 0.06490383 -0.029330464
-0.059272695 0.0720399 0.057740014 -0.07703799 0.032824878 -0.025437878 0.12272809 0.044657413
-0.00568483 -0.08507792 -0.12695843 -0.08678302 -0.14345141 0.041893933 -0.013788407 0.088587694
0.026768427 -0.12741481 0.081292965 -0.104851514 0.14665942 0.010421256 0.13911985 0.058792956
0.0023960497 -0.10529537 -0.011742141 -0.1299289 0.05204165 -0.09126258 -0.044030774 0.002227048
-0.06815784 -0.15062416 0.040825725 -0.079800524 0.044097327 -0.080805905 0.011965431 -0.009699395
0.03303002 0.015433125 -0.095970765 -0.0831961 0.0397376 0.0032189735 -0.010063502 -0.065514676
-0.06259568 -0.014031807 -0.06279819 0.030430613 -0.031412832 0.004246917 0.07829889 -0.07217051
-0.021719739 -0.010181992 0.029666172 0.117871165 0.010742406 -0.10624712 -0.022328228 0.010709625
-0.032744437 -0.08471198 0.06092038 -0.113729246 -0.025061624 0.06940008 -0.13000509 -0.060535606
0.018188482 -0.035432566 0.040455777 0.009595637 0.10785239 -0.1214332 -0.11086593 -0.08150649
0.088927306 -0.03733282 0.051865216 -0.06487113 0.051846378 0.100843884 0.087069966 0.1014345
0.0730546 -0.029098049 0.010362648 -0.022516776 -0.03421843 -0.11174726 -0.121449806 -0.03340579
-0.16249105 -0.06438644 0.094974294 -0.040308896 0.01777706 -0.0021384144 0.03840118 0.02872008
0.034072507 0.0074159885 0.007594049 -0.096881054 0.1310341 0.059694257 -0.12993011 -0.05487878
0.01401698 0.10017721 -0.027209891 0.027793435 0.048822667 0.050727658 0.053696584 0.079457246
0.06562349 0.09911651 -0.03205528 -0.0016158113 0.033493035 0.04905788 -0.024340414 -0.008400913
0.115228124 -0.040687967 -0.023911735 0.04063648 -0.05694794 -0.008821131 0.11969328 -0.11482558
0.0023745035 0.013717594 0.09169697 -0.12518032 -0.04614072 0.020097507 0.08833285 -0.08185553
0.07300676 -0.036730945 -0.04912344 0.00021090209 -0.0034853711 -0.032499447 0.041254196 -0.020126795
-0.027105082 0.01656469 -0.0017907611 0.102140024 0.0007109419 -0.12625368 -0.07709041 -0.034311224
0.06823609 0.017945495 -0.10715977 -0.012735737 -0.044926196 0.10352027 -0.05223326 0.010066918
-0.09183297 -0.045769025 0.056870263 -0.0432558 0.021475539 -0.036250103 -0.046843063 0.050610535
-0.121967524 -0.08969826 -0.0025353462 -0.055587474 0.031522945 -0.073884584 -0.0018529479 -0.057652626

a2c_network.actor_mlp.4.bias f4 [64]
00000000: 34be b6bd c382 133c 5bb1 993d 42a0 073d
00000010: d835 42bd 13f6 1abd f8ab e63c 786b 873c
00000020: 34c8 babd 669a df3b 0a19 c43d a178 0abe
00000030: 5d57 763d d0e0 0bbd 82fe 84ba e28f 613d
00000040: af56 023d 0d06 d7bc f041 e8bd 4871 91bd
00000050: 3f14 a03d fd3a 75bc 9713 4a3e 5ec2 fd3c
00000060: 57dd a13d d29f b23d 8503 f03c b68c 1bbe
00000070: a16d c2bd a37f a2bc 0f5a abbc 62c1 f2bd
00000080: 12bf bb3d 7e59 0abb 2da6 4abd 20e6 33bd
00000090: ea6c 95bc 3631 9a3d 4c13 9c3c 9bb0 83bd
000000a0: c36c a33d 2d54 5c3d 7f60 53bd f6ee a4bb
000000b0: a83d 85bd ca5a 9ebd b8d1 1fbd 2716 1cbb
000000c0: e926 14bd 3858 633d 0258 e6bd 4fe9 143c
000000d0: 4e08 a23d a546 7c3d 23cb cb3d af09 4e3d
000000e0: 1299 90bd d499 09bc f8d6 b93d 7a34 8ebd
000000f0: e2ad f3bd fa95 b9bd c00b 9bbc b81b f4ba
-0.08922997 0.009003344 0.07504531 0.033111818 -0.04741463 -0.03783233 0.028158173 0.016530737
-0.09120217 0.0068238256 0.09575088 -0.13522579 0.06014191 -0.034149945 -0.001014665 0.055068858
0.03182095 -0.026248002 -0.113407016 -0.07101685 0.07816362 -0.014967677 0.19734035 0.03097647
0.07903545 0.087218896 0.029298553 -0.15190396 -0.09493566 -0.019836253 -0.020916967 -0.11853291
0.09167303 -0.002111047 -0.049474884 -0.043920636 -0.01824041 0.075289175 0.01905217 -0.06430169
0.07979729 0.053791214 -0.051605698 -0.005033369 -0.065059006 -0.077321604 -0.039018363 -0.0023816915
-0.03616992 0.055504054 -0.11247255 0.009088828 0.0791174 0.06159081 0.09950855 0.050302204
-0.07060446 -0.008398492 0.09074205 -0.06943603 -0.118984 -0.09061809 -0.018926501 -0.0018623983

a2c_network.value.weight f4 [1, 64]
00000000: 41ab abbd e0a5 9b3c 2821 c1bc 48f2 6f3e
00000010: 0b95 233a a090 8ebc a645 3ebd 172f 673d
00000020: 579c ddbd 4b87 37bd fd60 ce3d 6c3c 25be
00000030: a56b 2b3c 920d 8f3c 9ade 9bbc 6566 5d3d
00000040: d809 9c3d 4b34 543d 515c 9fbc 3480 0b3d
00000050: 4466 823d 480c babd 6663 fa3d 78e4 c53c
00000060: 01f6 bf3d a85c ea3d e3c2 45bd 4e2a a0bc
00000070: 7bda c5bd 03ee aebb 593b 1c3d ce3e e5bc
00000080: 790e 243e f114 a13e 5ca2 52bd e05e f6bc
00000090: 81b6 bebd 47cd b33d d294 343d f386 9f3c
000000a0: dbd8 5c3d d72c 513c c5da 89bd bd2d ab3e
000000b0: 63d2 71bc c9c3 59bd 68d1 fd3a 634c a2bd
000000c0: 63b6 a5bd 0337 ad3c 4b0a d1bd a33d a6bb
000000d0: 0741 b4bc 9e1f 593d 47aa fa3d 2a9e ed3d
000000e0: 04c4 83bc 68cb 393d f3e9 c83d da57 283c
000000f0: 8201 973b 8d54 923b 8875 1d3e e0eb 96ba
-0.083822735 0.018999994 -0.02357538 0.23432267 0.00062401657 -0.017402947 -0.04645314 0.056441393
-0.10820835 -0.04480676 0.10077093 -0.1613633 0.010462676 0.017462526 -0.019027043 0.05405273
0.07619065 0.051807683 -0.0194532 0.03405781 0.06367162 -0.09084374 0.1222599 0.024156794
0.093730934 0.11443454 -0.04828156 -0.019551422 -0.096608125 -0.005338432 0.038142536 -0.02798405
0.16021146 0.3146129 -0.05142437 -0.030074537 -0.093121536 0.08779388 0.04408724 0.019473528
0.053917747 0.012767038 -0.0673118 0.33433333 -0.014759633 -0.05316523 0.0019364776 -0.07924726
-0.08091428 0.021144396 -0.10207041 -0.0050732656 -0.022003664 0.053008668 0.12239509 0.11602433
-0.016084678 0.04536 0.09810247 0.010274852 0.004608334 0.0044656456 0.15376866 -0.0011514388

a2c_network.mu.weight f4 [12, 64]
00000000: f0dc 5a3d c913 babd 113b d33d ab74 5b3d
00000010: 9d64 453d 87c9 fdbc 8373 423d 5c5d b5bd
00000020: 3d7b 06bc ca14 823d c7cc 2e3d 89fd 0bbe
00000030: 6f0f 9b3d 5e54 07be 956d 483d 87eb 5fbc
00000040: da2d 8a3d 1fc4 1ebe e1a7 0e3d 600d 0e3c
00000050: 04c2 b93d 92b0 9c3c 282b 95bc 942c a239
00000060: 660e 753d 7c69 493c 2319 c73d 7844 2bbc
00000070: ba38 dbbb 2263 56bd f86f fabb e8f7 afbc
00000080: d54f a23d 45b6 a7bd a6d9 85bc 16c4 d03d
00000090: 5bae ac3d 8586 c0bd 7a30 02bd 01c0 f4bc
000000a0: 175a 9c3d 8a5d 923d 3f48 013d a0e2 a6bc
000000b0: bc9a 56bd cec7 48bd 60e6 963d 6e4b a6bb
000000c0: a027 3b3d cc5e eb3c bdc1 03bc 2ca7 4e3d
000000d0: b8be a73d 2c53 8d3d 7623 14bd 13e4 2ebc
000000e0: 74b7 093d 0f05 b4bd 9657 6fbd 7253 d1bd
000000f0: 7a43 1bbe 39a6 143d 94f3 24be 136a 7ebd
00000100: 2a4d b1bc 8915 8bbd d19d 27bd bd5e 443e
00000110: 048b 03bd bee8 cbbd 3136 f23d 3799 22bd
00000120: 6b74 7d3d cf47 40bd e5b4 35bc bc63 94bd
00000130: baa2 8fbd 2a8d 823d 7fdc 453d 45a0 3a3c
00000140: ca4b 8dbd f64c 713e d98d 2abc 1d4e 41bd
00000150: c4f6 963d 5917 e0bc cf84 293c 6743 153d
00000160: 1f33 f73c 5f90 5dbc e79a 553d 1e5f 683c
00000170: b9b7 8d3d 8cc0 26be 602d c03d 5497 e23d
00000180: aedb ffbd 6756 a3bd 03d7 5abe d2ca ec3c
00000190: 56d7 a23d 4d41 f6bd 87f7 e53d a70d 843d
000001a0: 1971 333d f26d b0bd 5e00 8a3d 4b40 8abd
000001b0: c36e b4bd b028 133d 84c7 1cbe 4b24 073e
000001c0: 2bf6 e43d 450c aa3c 5c77 12be 37e7 0d3e
000001d0: 54a0 8abd 13a8 f1bd 9623 133b 1409 5b3e
000001e0: fb53 53be ca68 c23d 32e7 06be 3b76 86bc
000001f0: 61f8 bdbb f24b 013e a3f5 32bd e4b3 04bc
00000200: 009d a63c fb32 65bb d98a 64be 8994 82bd
00000210: 5706 213e 0e2e 61bd 9ba2 143d 2e46 0c3e
00000220: 24eb c8bd 117e 7d3d d3f7 e9bd e55f b03d
00000230: d64d d73d 4a50 ae3d 744e 0b3e 0a6b 90bc
00000240: 413e b8bd 8ee0 9abb 4728 d23d 0849 84bb
00000250: fb7f 58be b63b 113c e810 14bd f9e2 743d
00000260: 2c8b 133d d080 aa3c d71e 45bd a896 8e3c
00000270: b5fb 99bd 6682 3c3d c032 fe3c 3055 3b3d
00000280: 4bba 7b3d 8fb6 fa3c 2fb4 a73d 1b2c 093d
00000290: 7de4 9cbc 3e68 3abe c38d 84bd 7a1c 4abd
000002a0: e3b2 fdbc 7313 aabd 1091 41bd 0431 303d
000002b0: 20cf afbc f2c8 ecbd 91f8 59be c4a2 cebd
000002c0: c255 45bd 93de 853e 6ba6 8b3d 64db 563c
000002d0: cd40 34bd 0aa1 113e f4c4 9b3c 643e 0e3d
000002e0: 015d 183e be8f cfbd 406f acbd 2a66 8abd
000002f0: a523 3bbc aa73 8bbd d01d 183d a1bc b0bd
00000300: 9789 903d 1e00 a8bd 1259 0ebd 1835 6d3e
00000310: b5a5 553d a2b2 863c 2ba8 7cbd 8e64 583d
00000320: c43e ef3c bb5c d1bd 16a8 babc da01 8e3d
00000330: 5ece a0bc 82a5 e5bd 3945 30bd 6601 063d
00000340: a877 bb3d 4d50 053e dab5 6f3c f1aa 3a3d
00000350: 686b 783d 4def acbd ac4c 5bbd 1910 97bc
00000360: a474 d6bd 4a08 b7bc 7ec3 7c3c 2789 1d3e
00000370: 1cda 2f3d 8995 2abc 6b3f b13c dcc9 113d
00000380: c4f5 e03d cd1c 82bd 1540 803d a6ba 0fbd
00000390: d454 07bb 0a54 95bd 3bbe 00be 9a4a ef3d
000003a0: 7755 803d f89e 99bd fd86 bdbb 9c33 24be
000003b0: e96e 0b3d 5bfd 1bbe ba93 e43c 3f29 3dbe
000003c0: 6ff0 50bc 3e69 b93d 9d2c bc3c 92e8 afbb
000003d0: 7607 1dbe 54e6 d63b 589b bfbd a04a c4bd
000003e0: 6d52 1d3d 9f31 c7bd a2f5 41bc a10a 4ebd
000003f0: c299 42bd 4462 293d ab4d d33b 6ff9 26be
0.05343336 -0.09085805 0.103140004 0.05357806 0.048191655 -0.030979885 0.04747344 -0.088556975
-0.008208093 0.063516214 0.04267576 -0.13670935 0.07571303 -0.13215777 0.04893263 -0.013666994
0.06747027 -0.15504502 0.03482807 0.008670181 0.09070209 0.019127164 -0.018209055 0.0003093226
0.059828185 0.012293216 0.09721591 -0.010453336 -0.006690112 -0.052340634 -0.0076427422 -0.021480516
0.07925383 -0.08189062 -0.016339134 0.101936504 0.08431693 -0.094006576 -0.031784512 -0.02987671
0.07634371 0.071467474 0.03156304 -0.020371735 -0.05239366 -0.049018674 0.07368159 -0.00507491
0.045692086 0.028731726 -0.008041796 0.050452396 0.081906736 0.069006294 -0.03616663 -0.010674494
0.03362222 -0.08790027 -0.058433138 -0.10220994 -0.15162459 0.036291335 -0.16108543 -0.06211288
-0.02164324 -0.06791217 -0.04092199 0.19176765 -0.032114998 -0.099565014 0.118267424 -0.0396969
0.061878603 -0.046943482 -0.011090492 -0.07245585 -0.070134595 0.06374581 0.048305985 0.01139075
-0.06899221 0.23564515 -0.010409796 -0.047193635 0.073712856 -0.027354883 0.010346605 0.036441233
0.030175744 -0.01352319 0.05214968 0.014182834 0.06919808 -0.16284388 0.093836546 0.1106402
-0.124930725 -0.07975464 -0.21371083 0.028905306 0.07951228 -0.12024174 0.11228853 0.064479165
0.04380903 -0.086147204 0.06738351 -0.06750544 -0.088101886 0.035927474 -0.15310484 0.13197438
0.11179765 0.020757804 -0.14303344 0.13857733 -0.067688614 -0.11799636 0.002245163 0.21390182
-0.20637505 0.09492643 -0.13174132 -0.016413799 -0.0057974313 0.12626627 -0.04369129 -0.00809953
0.020338535 -0.0034973014 -0.22318591 -0.06375987 0.15725075 -0.05497556 0.036287885 0.13698646
-0.098104745 0.061887804 -0.11424222 0.086120404 0.10512893 0.08511408 0.13604146 -0.017629165
-0.08996249 -0.004726476 0.102615885 -0.0040370263 -0.2114257 0.008864334 -0.036148936 0.05978677
0.036021397 0.020813376 -0.048125114 0.017405823 -0.075187124 0.046022795 0.031030059 0.045735538
0.06145696 0.030604629 0.08188664 0.033489328 -0.01915192 -0.18203828 -0.064723514 -0.049343564
-0.030969089 -0.08304491 -0.047257483 0.043015495 -0.02146107 -0.11561765 -0.21286227 -0.10089639
-0.04817749 0.26146373 0.06818851 0.01311383 -0.04400711 0.14221588 0.019014813 0.03472747
0.14879228 -0.101348385 -0.08419657 -0.067577675 -0.011422073 -0.068091705 0.037137806 -0.08629728
0.07057493 -0.08203147 -0.034752913 0.23164785 0.052159984 0.0164426 -0.061683815 0.05283027
0.029204734 -0.10222765 -0.022785228 0.06933947 -0.019629654 -0.11213209 -0.043034766 0.032716177
0.09153682 0.13018914 0.014630759 0.04557318 0.060649306 -0.084440805 -0.053539917 -0.018440293
-0.10471466 -0.02234282 0.015427468 0.1538435 0.042932615 -0.0104116285 0.021636685 0.0355929
0.10984376 -0.063531496 0.06262223 -0.03509011 -0.0020649927 -0.0729142 -0.12572567 0.11684151
0.06266301 -0.07501024 -0.005783914 -0.16035312 0.03404132 -0.15233366 0.027902473 -0.18472765
-0.012752636 0.090532765 0.022970492 -0.0053683007 -0.15334877 0.006558219 -0.09355801 -0.09584546
0.038408685 -0.09726261 -0.011838349 -0.050303105 -0.047509916 0.04135348 0.0064484677 -0.16306089

a2c_network.mu.bias f4 [12]
00000000: d9f5 bf3d 02b5 2d3c 2a06 b03c 4543 b0bd
00000010: 46b0 9fbd 53ea 7c3d c56d 803c 6d4e d83c
00000020: 751e db3c ef4d 603d 36b8 2e3c a124 a43d
0.093730636 0.010602238 0.021487314 -0.08606581 -0.07797293 0.061746906 0.015677342 0.026404584
0.026747921 0.054761823 0.0106640365 0.08014799

exp_avg f4 [12]
00000000: eaa0 65bb 2c28 d7b9 56fa 78bb 51e9 cfbb
00000010: ea5a 1abb 6f3c 813b 23cf b1ba 4f1a df3a
00000020: 6a6a e5b9 8bd0 2dbb 6331 fcba 4fc3 37bb
-0.003503854 -0.00041037926 -0.0037991009 -0.006344952 -0.0023552724 0.003943972 -0.001356576 0.001702139
-0.00043757568 -0.0026522006 -0.0019240793 -0.0028039997

exp_avg_sq f4 [12]
00000000: c738 6938 8eac 7938 67be 5e38 dc0d 6938
00000010: 9605 6938 b4d9 7a38 f3a8 6a38 7cec 6738
00000020: ba98 6638 431a 7338 1b77 7938 5bd0 5938
5.5604407e-05 5.952693e-05 5.310625e-05 5.5564436e-05 5.555673e-05 5.9807397e-05 5.5947294e-05 5.5294935e-05
5.497851e-05 5.7960173e-05 5.947715e-05 5.1930878e-05
