OmniIsaacGymEnvs/omniisaacgymenvs/runs/Naranjelio/nn/last_Naranjelio_ep_2000_rew_7.467937.pth (torch, 672755 bytes, 36 tensors)

value_mean_std.running_mean f8 [1]
000000 8e 8a 93 26 ff 55 e2 3f
       0.5729976418918612

value_mean_std.running_var f8 [1]
000000 45 63 1b a4 cb f5 da 3f
       0.421252165089346

value_mean_std.count f8 []
000000 00 00 00 02 00 70 a7 41
       196608001.0

running_mean_std.running_mean f8 [48]
000000 cf 8e f1 3a 1f 55 82 bf 6b 45 a5 79 1d 42 71 bf
       -0.008951419817271681 -0.0042134429334777885
000010 d9 39 77 a7 69 32 a4 3f d8 72 a2 67 e7 e8 69 bf
       0.039447118465989646 -0.0031628150582732988
000020 52 ed 78 62 71 34 52 3f 0c 90 00 9e 33 f7 47 3f
       0.0011111361763046124 0.0007313730275240195
000030 bc 2e 90 1a ae 5b c4 bf 64 77 c1 4c 58 1c b2 bf
       -0.15904785439521685 -0.07074500917357579
000040 d8 b1 0a eb 55 d5 ed bf 58 e0 f3 0e 59 30 d1 3f
       -0.9322919455203715 0.26857592067927305
000050 2a 72 c0 59 63 34 5e 3f 0c 36 d1 4e e7 10 78 bf
       0.0018435449810631035 -0.005875495478063108
000060 a9 56 f4 6b 54 24 ab bf bb 6b 9a 96 b0 0b d1 3f
       -0.053011549165757295 0.26633848864883775
000070 c6 66 9c 74 a5 30 79 3f 59 81 7b 5b d6 3c b7 bf
       0.006149908361999306 -0.09077205403764789
000080 d3 bc 2b 1b 7a 14 c3 bf b7 5b 8d be 22 03 f1 be
       -0.14906240774823817 -1.6224144846556823e-05
000090 34 e9 4d 60 fd 88 b9 3e 3b c3 66 d4 a5 2b 01 40
       1.5220115312229852e-06 2.1463123887882865
0000a0 ef 4d 45 f2 6a 68 e1 3f 1b 9f ad f5 37 df 91 3f
       0.5439963085031517 0.01745307385445392
0000b0 e4 91 74 25 e9 aa 03 c0 05 a6 3c 80 57 20 60 bf
       -2.4584525037955576 -0.001968546772236792
0000c0 6e e8 03 21 1a 96 40 3f 78 e1 30 d4 76 d0 39 3f
       0.000506174810680505 0.00039389515967826845
0000d0 e6 2a f0 58 45 67 1a bf 42 86 5f 3a c9 9c 3b bf
       -0.00010072098506001443 -0.00042133248132189907
0000e0 7a da 62 bc 87 e2 43 bf 49 7d 1b b5 dd 50 48 bf
       -0.0006068384907596668 -0.0007420618587409635
0000f0 d6 2d d0 8f 73 f2 6d 3f f5 03 46 fd 90 fe 79 3f
       0.003655648905356061 0.006346289028784637
000100 89 47 d9 d7 60 0c 66 bf 65 d7 7f 72 6d 04 1c bf
       -0.0026914493053391037 -0.00010687749875145992
000110 9e e9 d7 89 03 9a 77 bf bb bd c8 12 88 08 25 bf
       -0.005762113401483053 -0.00016047154476116023
000120 ae 22 27 f0 58 da e9 3f 45 96 d8 d1 af 10 c8 3f
       0.8079037371145057 0.18800924059284987
000130 4e e3 4f 22 18 84 da bf 14 01 6a 7c 55 9f e6 bf
       -0.4143123946264965 -0.7069499425852279
000140 7f 9b 1e 8c bd a4 69 3f 88 4b 70 be 35 13 c3 3f
       0.003130312165882498 0.14902374075662927
000150 78 20 b4 16 62 1d c9 3f 95 43 3f ed cf 45 a2 3f
       0.1962092028481981 0.03568887492259091
000160 b7 91 07 16 e6 87 cd bf 74 06 91 4a 7e 88 c0 bf
       -0.2307098014417883 -0.12916544571821797
000170 51 f2 6b 79 a8 df d1 bf f1 7b b0 2e 46 f5 e1 3f
       -0.27927600724777785 0.5611906921293423

running_mean_std.running_var f8 [48]
000000 6e fe 2a 5d 58 f6 a5 3f 9e 53 5c d8 ff d2 a2 3f
       0.042895089505233894 0.03676604763146617
000010 13 af 06 05 84 e1 af 3f dc fc 38 28 04 43 72 3f
       0.06226742326120251 0.004458442915676399
000020 18 4d f1 c7 97 b3 68 3f b3 d1 05 31 76 65 49 3f
       0.0030153240655096496 0.0007750346285733595
000030 0c cb 64 05 d8 15 9a 3f e4 d3 5a 21 e6 ef a2 3f
       0.02547395260735201 0.036986533710127195
000040 ad 68 bd 6c a5 7e a3 3f 80 ad 52 63 54 9e 15 40
       0.03807560875311942 5.404618789597748
000050 55 58 e3 07 c1 5b f5 3f 87 d5 60 e7 32 aa 94 3f
       1.3349008854034043 0.020180507061203137
000060 2b 2b 62 c9 a8 26 b2 3f 51 b9 34 4a b0 b5 a0 3f
       0.07090239445294048 0.03263617425760635
000070 c9 0a 72 e3 ce 7c 1b 3f 18 35 2f a7 58 da a5 3f
       0.00010485661265317437 0.0426814750750088
000080 f6 6f 08 8c 70 08 bd 3f 73 2c 49 3f fc e1 e0 3e
       0.11341002863667868 8.050325029837339e-06
000090 83 08 c5 a2 60 96 55 3e 13 2c 93 04 e8 59 00 40
       2.010484416557274e-08 2.0438995702184086
0000a0 2b 65 ae a8 35 e7 e0 3f 9b 93 ac 27 e5 52 9f 3f
       0.5282238287501618 0.03058965735103279
0000b0 04 0c 32 86 65 0a 10 40 dd d6 88 c5 64 ce 85 3f
       4.010152909092543 0.010647570875430496
0000c0 a1 ac a6 76 41 e2 16 3f d0 bd 7c 59 61 b7 16 3f
       8.729481274964919e-05 8.665591883238251e-05
0000d0 29 e3 3e bd de e6 ee 3e 60 ab e0 01 b7 51 fa 3e
       1.4735143771692199e-05 2.509994384795476e-05
0000e0 2b 0b a0 01 36 74 02 3f 26 a9 8f eb 59 cd f8 3e
       3.519811453147331e-05 2.365317661549254e-05
0000f0 9e bd 95 a7 ad 18 10 3f 28 2d 4f c9 59 f8 7e 3f
       6.140289214839062e-05 0.007561064460740931
000100 18 89 30 0f 93 f1 1c 3f 0a 2b 18 9b 05 99 25 3f
       0.0001104112632650849 0.0001647776930869471
000110 37 16 64 13 9b fe 1b 3f c7 40 df 68 5e 00 34 3f
       0.00010679074771154864 0.00030519776271110656
000120 87 d4 0e e0 a8 c9 c6 3f c3 ca dd 19 37 6e d9 3f
       0.17802916469887384 0.3973520042992897
000130 8c dc 09 94 c0 e9 e3 3f ef 93 f5 94 22 cb d2 3f
       0.622284211290109 0.29364838167958757
000140 ed f2 ba 49 5b 80 e8 3f 15 aa 1d 85 78 e0 e8 3f
       0.7656685295147249 0.777401218406626
000150 81 c8 c3 83 4e 62 e8 3f ee 0d 75 d0 81 d6 e7 3f
       0.7620003293543648 0.7449349471502822
000160 9e b6 1a 7c 5f 85 ea 3f c7 5a 78 8b a8 b0 e7 3f
       0.828780882254893 0.7403147434259488
000170 9c e2 5a 9f 67 bb e7 3f ed ca c2 75 ac 49 df 3f
       0.7416265594866505 0.48887168407524834

running_mean_std.count f8 []
000000 00 00 00 04 00 70 97 41
       98304001.0

a2c_network.sigma f4 [12]
000000 d5 b1 d2 bf a1 86 ac bf 23 ef 9c bf 8e 53 af bf
       -1.646052 -1.3478585 -1.2260479 -1.3697374
000010 f6 bd aa bf a1 0f 96 bf 5c 2e 8b bf bd b3 89 bf
       -1.3339221 -1.172352 -1.0873523 -1.0757977
000020 16 55 a1 bf 13 06 8f bf c0 d2 98 bf 38 77 8b bf
       -1.2604091 -1.1173729 -1.1939316 -1.0895758

a2c_network.actor_mlp.0.weight f4 [256, 48]
000000 64 05 0d bd 77 64 e6 bc d5 ba de bd a1 8d d6 bd
       -0.03442897 -0.028124077 -0.10875479 -0.10476232
000010 a7 90 37 bd a2 35 7a bd 56 9f 3e bd b6 6d 2a 3e
       -0.044815686 -0.061086304 -0.046538673 0.16643414
000020 06 90 13 bd 39 60 b6 3d 21 b8 00 be 61 0d 25 3e
       -0.036026023 0.08905072 -0.1257024 0.16118385
000030 fd 52 de bc b0 f2 e8 3d 97 16 fe bd 90 38 e3 3c
       -0.027139181 0.11374414 -0.124066524 0.027736932
000040 0c 0d 75 3d 06 d2 2b 3e de 70 a6 bc 48 b5 3c 3d
       0.059826896 0.16779336 -0.020317491 0.04607132
000050 16 dc b8 bd 9c 7c f0 bd e8 47 91 bb 24 db 2c 3b
       -0.09026353 -0.11742517 -0.0044336207 0.0026375735
000060 ed c4 a3 3c ae 6d 43 3d d6 56 d2 3d 98 9f 98 3d
       0.019991362 0.04771202 0.10270469 0.07452315
000070 0c 64 3b bd 98 fc 30 bd 76 a9 17 3d 59 9c ec bd
       -0.04574971 -0.043209642 0.037026845 -0.115532584
000080 46 9e 2d be 78 f5 57 bd 19 e5 b8 bd 4d 83 a6 bc
       -0.16954908 -0.05272433 -0.09028072 -0.020326281
000090 48 ff 19 ba 18 f7 da bd 90 81 19 be 87 35 5e 3c
       -0.00058745267 -0.10691661 -0.1499083 0.013562567
0000a0 c6 bc cc 3c 77 fe 3c 3d c5 69 81 3d 07 05 58 3d
       0.024992358 0.046141114 0.06319002 0.05273917
0000b0 3e cd 45 3e 4b d2 e7 bd 70 b6 d4 b9 fa 55 a0 bd
       0.19316575 -0.11319407 -0.00040571718 -0.07828899
0000c0 b8 6f eb bd 5b 6e 0d 3e b7 45 ba 3d bf 0e f8 3c
       -0.11495918 0.13811629 0.09095328 0.030280469
0000d0 e4 9c 1d 3d 72 c8 e4 3d 9d 23 54 be c3 fd e6 bd
       0.0384797 0.111710444 -0.2071671 -0.1127887
0000e0 9c 8d 34 3e 3d e0 8e be 7e f0 3d 3e 56 60 a6 3e
       0.17632145 -0.27905455 0.18548772 0.32495373
0000f0 67 67 78 bd 38 45 7a 3d 4b a0 96 3d a8 64 bf bd
       -0.060645487 0.06110117 0.07354792 -0.093453705
000100 93 a7 f7 3d 71 83 8f 3d b9 b3 ec 3d a5 02 07 3e
       0.12092509 0.07007492 0.11557717 0.13184603
000110 b4 af fc 3d 49 c0 08 3e 88 f1 8e 3d eb e4 02 3e
       0.123382 0.13354601 0.06979662 0.12782638
000120 d2 8f 48 bc 71 b0 1e bd aa 33 e9 bd df 41 23 bd
       -0.012241321 -0.038742486 -0.11386807 -0.03985774
000130 f1 24 e9 bb 09 3e 8f 3c 75 e4 80 bd 0d fd 8a 3c
       -0.0071149995 0.017485635 -0.06293575 0.016966367
000140 37 be cf bc 1b 3e 04 be a1 99 1a bc 93 2c 09 be
       -0.025359256 -0.12914316 -0.009436042 -0.1339591
000150 84 80 cc 3b 21 7c 37 3b 3f 51 90 bc 8d e2 de 3d
       0.006240906 0.002799757 -0.017616866 0.10883055
000160 23 fc cc 3d 81 d6 a2 bd b2 45 90 bd 24 27 1f be
       0.10009029 -0.079510696 -0.07044543 -0.15542275
000170 95 93 80 3d a1 00 f1 3d ab 5b ef bd 06 99 7a 3c
       0.06278149 0.11767698 -0.11687406 0.015295273
000180 32 d1 bf bd 91 af f2 3d e1 23 9d bd 4b 01 3e 3d
       -0.09366073 0.11849893 -0.07672859 0.04638795
000190 6e c1 e3 bb 89 a3 4c 3c 74 89 13 be 3a be 2d bd
       -0.006950549 0.012490162 -0.14407903 -0.042417742
0001a0 74 8d b3 bd f8 dd 7b 3e ae 6b 17 be 2b cc dc be
       -0.087672144 0.24596393 -0.1478717 -0.43124518
0001b0 33 67 d1 3d 96 8e a9 3c 1f a4 b3 3b 52 45 e5 3d
       0.10224762 0.020697873 0.0054822112 0.111948624
0001c0 32 22 2d be be 5d 58 bd 1e cb 7d be fe 12 28 bd
       -0.16907576 -0.052823775 -0.24784514 -0.041033737
0001d0 77 27 54 3e c6 88 fc 3b 8b f5 ef 3d dd 82 00 be
       0.2071818 0.0077067344 0.117167555 -0.1254992
0001e0 4f 72 cd bd 67 7c b4 3d 62 57 c6 3d 63 47 eb 3c
       -0.10031568 0.0881279 0.09684636 0.028720563
0001f0 32 32 81 3d a3 51 ce b9 39 9b ce bb d3 3c 5d 3d
       0.06308402 -0.00039352206 -0.006305125 0.054013085
000200 47 21 b4 3c 06 ee 2b bd 95 50 50 3c b8 19 53 3d
       0.021988524 -0.041975044 0.012714525 0.0515382
000210 6f 88 2c 3b 77 80 69 bd c5 41 03 be 1f 31 b1 3d
       0.0026326438 -0.05700728 -0.12818058 0.08651947
000220 e0 f7 07 be 47 d9 56 3d 14 45 e6 3d 25 1c 80 bc
       -0.1327815 0.052453306 0.11243644 -0.01563842
000230 cf 58 31 3d 22 05 47 ba 57 c1 55 bc 80 17 41 bc
       0.043297585 -0.00075920124 -0.013046584 -0.011785388
000240 2b 4e b9 bb 76 be 1d 3d 1b 52 66 3e a3 a3 3f bd
       -0.0056550703 0.038511716 0.22492258 -0.046786916
000250 85 c3 01 3e ef 4d de 3d ae 5d 4e be bc 5c 89 3d
       0.12672241 0.108547084 -0.20152923 0.06707141
000260 be d1 35 3e a0 77 92 be 3d 67 b8 3d ec 78 bb 3e
       0.17755792 -0.28606892 0.09004066 0.36615694
000270 13 e1 ac 3c be 89 e6 3b 35 78 2e 3e 29 dd f6 bd
       0.021103418 0.007035463 0.17038043 -0.12053902
000280 1f 29 16 3e 2e 4e 9b bd ce 6d d7 3d 48 64 c5 3d
       0.14664124 -0.07583271 0.105189905 0.09638268
000290 c8 3d 3d 3d 1d 9d 3b 3d 20 29 93 bc 63 3e 38 be
       0.046201497 0.04580413 -0.017963946 -0.17992549
0002a0 a8 df b2 3d db 1a 8b bd 6c 22 f6 bd 28 09 a1 3b
       0.08734065 -0.06792232 -0.12018284 0.0049144216
0002b0 c5 19 f0 3b 73 f8 ac 3d cf 03 90 bc 1c 7a 02 be
       0.0073272907 0.084458254 -0.017579941 -0.12741894
0002c0 e8 13 86 3d 8b d8 2a 3e 72 cc 25 3d 25 c3 7c 3d
       0.065467656 0.16684167 0.040478177 0.06170954
0002d0 db 1b 9e bd c2 5b da bd 3c 0c 12 3d 16 81 f8 3c
       -0.07720157 -0.10662033 0.0356562 0.03033499
0002e0 bd ba 30 3d 04 ee 59 3e 73 db dc 3d 76 19 04 3c
       0.043146838 0.21282202 0.10784044 0.008062711
0002f0 7c 10 07 be 27 c2 4c bd 41 d8 07 be 4b b5 62 bd
       -0.13189882 -0.049989846 -0.13266088 -0.055348676
000300 c8 17 44 be ad 38 99 3c 31 c0 04 be 66 9d 3a 3d
       -0.19149697 0.018703783 -0.1296394 0.045560263
000310 28 43 b9 3c 81 6e 9b 3d be 12 75 3d 5b 25 c8 bd
       0.02261503 0.07589436 0.059832327 -0.0977275
000320 33 91 21 be 24 97 69 be 9f 2e 38 3e ab 50 35 be
       -0.15778045 -0.22811562 0.17986535 -0.17706554
000330 d6 e7 84 3d 11 3d 07 3d cb 89 6b bd 8d b4 d9 3d
       0.06489532 0.03301722 -0.057504456 0.106301405
000340 d5 27 14 3d 8a 0d 08 3e 1b f3 fa bd 51 51 ed bb
       0.0361708 0.13286415 -0.122534 -0.0072423597
000350 3d a6 bb 3d 30 04 90 bc f0 f2 82 3d 58 fd 98 3d
       0.09162567 -0.017580122 0.06393993 0.074701965
000360 57 b0 19 3e e1 be 13 3d 4b 5e ea 3d b3 75 c0 3c
       0.15008675 0.03607071 0.11443766 0.023493623
000370 cb 88 9a 3d 61 47 c5 3c f1 be b3 ba 31 77 5c 3d
       0.075456224 0.024081888 -0.0013713521 0.053824607
000380 2c 4d 87 bc 8f 34 22 be 72 ef 32 bd 05 82 44 3d
       -0.01651629 -0.15840362 -0.043685384 0.04797556
000390 f5 09 88 3d 02 d3 ec bd 85 ea 3f bc 42 6b 04 be
       0.06642524 -0.11563684 -0.011713629 -0.1293154
0003a0 78 23 89 bd 13 fc 00 3e f2 13 48 3e f2 87 64 3d
       -0.06696218 0.12596159 0.19538859 0.05579371
0003b0 8a 80 e4 3d 2d 38 d0 bd 07 b2 22 3d 72 40 cf 3d
       0.111573294 -0.10166965 0.03972056 0.10119714
0003c0 89 6d f3 bd 2d 1a df 3d 9e f0 bc 3d 4e d5 61 bd
       -0.118861265 0.108936645 0.092255816 -0.055135064
0003d0 c5 a4 87 bd bc 9b 91 3d a1 7e f9 3d 2d 4f c9 3d
       -0.06623224 0.07109782 0.12182356 0.09829555
0003e0 47 59 cd bd bb 6e 61 be 6a 50 3a be a7 11 34 be
       -0.10026794 -0.22014897 -0.18194738 -0.17584859
0003f0 90 35 cc 3c 6e 84 45 bb 95 78 3e bd 35 1f 05 bd
       0.024927884 -0.0030138749 -0.046501715 -0.032500464

a2c_network.actor_mlp.0.bias f4 [256]
000000 80 7b af bd f1 4d 80 bd 72 d9 d7 3d 62 e4 20 3d
       -0.08568478 -0.06264866 0.10539521 0.039280303
000010 21 58 20 be 66 63 45 3e 1f cc 57 3e 2b 83 03 be
       -0.15658619 0.19276199 0.2107396 -0.12843005
000020 ef 0e 61 3d b6 c2 0e 3e e5 8b 09 3e 1f 46 e0 bd
       0.054945882 0.13941464 0.13432272 -0.109508745
000030 b6 75 bf 3c d2 9d be bd 50 8a be bd 26 e8 4e 3e
       0.023371559 -0.093074456 -0.09303725 0.20205745
000040 e3 a6 87 3e 08 44 a4 bd 40 78 a2 be e3 00 9a be
       0.26494512 -0.080207884 -0.31732368 -0.30078802
000050 d1 b6 72 3e 7c 39 83 3d b4 0d 04 be 37 07 83 bd
       0.23702551 0.06407449 -0.12895852 -0.063978605
000060 29 75 13 bd 00 80 43 3e e3 dc f2 3d c5 50 72 3c
       -0.036000405 0.19091797 0.11858537 0.014789765
000070 e3 b4 6d be e6 de c8 bb 6c 3e 41 3e 67 bd 88 3c
       -0.23213534 -0.006130087 0.18871468 0.016691877
000080 4c 6b 84 3d 4f ba 47 3c 74 2e 6e 3e e9 d3 b6 3d
       0.06465778 0.0121904155 0.23259908 0.089271374
000090 96 55 0e be bb 9a 3f 3e 0c f8 1b 3d 92 cd fa 3c
       -0.13899836 0.18711369 0.038078353 0.030615602
0000a0 d1 1f e1 bc 2c fa 3a 3e 8a 42 93 3e 21 40 4a be
       -0.027480992 0.18259495 0.28761703 -0.19751026
0000b0 1a 86 e1 bc 65 bb b1 3d 05 38 39 3d 86 a4 e0 3d
       -0.027529765 0.08678321 0.04521944 0.1096888
0000c0 02 ff 31 3e f2 9c 76 3c 71 ff 4c 3e 66 8f 03 3e
       0.17382434 0.015052067 0.20019318 0.12847671
0000d0 1f 54 af 3d c9 d3 90 3d a8 da d9 bd 23 d9 02 bd
       0.08560967 0.07071645 -0.106374085 -0.03194536
0000e0 53 a7 c3 3d ff b0 b7 3d 5f 92 1a be 10 47 00 bd
       0.09553399 0.08969306 -0.15094899 -0.03131777
0000f0 c9 f0 04 be e6 f8 35 3e 2f b4 b7 3d f0 da 46 bd
       -0.12982477 0.17770728 0.08969914 -0.04854864
000100 e4 74 0e be e2 5e f8 3d 52 a3 20 bd 0c 52 01 be
       -0.13911778 0.121274725 -0.039218254 -0.12628955
000110 64 3f aa 3d 09 a3 03 3d da e9 1b 3c b6 2b e1 3d
       0.08312872 0.032137904 0.009516204 0.10994665
000120 1e ce af bd 22 38 11 3e 77 59 8a 3d 51 21 ca 3d
       -0.085842356 0.14181569 0.06755345 0.09869636
000130 02 20 dd 3d b3 06 12 3e fe e0 79 3c 00 ef e7 3b
       0.10797121 0.14260368 0.015251396 0.0070780516
000140 63 17 02 3d b9 13 81 bd c2 08 c9 3d aa 90 c8 bd
       0.031760585 -0.0630259 0.098161235 -0.097932175
000150 6f bc 13 3e 99 a8 8c 3e 95 e5 27 3e 51 96 9e bd
       0.1442735 0.2747238 0.16396172 -0.07743514
000160 ea 46 fe 3d 56 40 06 be af ae 3c 3e 2e 1a 5d 3e
       0.124158695 -0.1311048 0.18426012 0.21592018
000170 d8 56 81 3e 51 51 d1 bc 86 22 06 3d 32 da 38 3e
       0.2526157 -0.02555147 0.032747768 0.18051985
000180 a6 37 10 be 96 ee 76 be 64 f8 93 be 35 68 2a bc
       -0.14083728 -0.24114451 -0.28900445 -0.010400821
000190 ad e7 2e 3e e0 9c da 3c 56 d8 5d bb 71 37 91 be
       0.17080565 0.026686132 -0.003385087 -0.2836261
0001a0 83 3d e8 3d df 67 25 3d c2 ad 93 3d 72 de a5 3d
       0.113398574 0.040382262 0.07210876 0.08099069
0001b0 34 27 fc 3d d8 d2 b4 3c db 07 5a be 53 02 2e 3d
       0.12312165 0.022073194 -0.21292059 0.042482685
0001c0 0e 20 13 3d 9a 28 6c 3e 03 55 51 3c a5 59 62 be
       0.03591924 0.23062363 0.012776616 -0.22104509
0001d0 ec 14 25 be e7 56 21 bd 8a a1 f5 3d 3a bd 44 bd
       -0.16121262 -0.039389517 0.11993702 -0.048032023
0001e0 c0 a7 f5 3d 99 43 98 bc 96 12 01 be 3c 12 1f 3d
       0.119948864 -0.01858692 -0.12604746 0.03883575
0001f0 44 69 10 3e 32 a4 51 3c a4 ab 0e 3e be b4 a9 3d
       0.14102656 0.012795495 0.13932663 0.08286427
000200 3b db b1 3b 7b fe cb bb 06 50 2f 3d 60 5d d8 3b
       0.0054277456 -0.006225405 0.042800926 0.006602928
000210 39 11 5f bd d4 a6 4c be e6 4f 36 be 16 82 0a 3e
       -0.054459784 -0.19985515 -0.17803916 0.13526186
000220 41 f9 83 3e d6 a2 65 bb c3 ed 3d 3e e0 6c 8d 3d
       0.25776103 -0.0035039685 0.1854773 0.06905532
000230 b4 47 6e be a0 a8 29 be ee 7a d2 3d 64 57 e8 3d
       -0.2326954 -0.16568232 0.10277353 0.113447934
000240 ae d7 ca bc 78 14 d1 bd 2d 29 a1 bd 51 d0 81 3e
       -0.024761047 -0.10208982 -0.07869182 0.25354245
000250 54 b8 49 be 95 f2 f2 3d a9 07 2e bd 65 87 12 bd
       -0.19699222 0.11862675 -0.042487774 -0.035773654
000260 96 c3 0a 3e 68 79 ac 3d f5 fd 10 3e 72 5f 36 be
       0.13551173 0.08421594 0.14159377 -0.17809847
000270 f5 7e ef bd aa 25 f1 3d 66 60 09 3e 82 20 a4 3d
       -0.11694137 0.11774762 0.1341568 0.08014013
000280 93 7b fe bd 7a 00 37 3e 68 37 82 be 6f a1 68 be
       -0.12425914 0.17871276 -0.25432897 -0.22717832
000290 3f a1 d2 ba ce f4 d3 3b 85 69 76 3d 4f 9f e5 3c
       -0.0016069784 0.006468392 0.060159225 0.028030066
0002a0 bb 6d 9a bd 0c d2 0d be d9 b3 39 3e 08 de 00 be
       -0.07540461 -0.13849658 0.18135013 -0.12584698
0002b0 e6 75 74 3e 16 5a bd bc 99 23 80 3d 50 02 04 bc
       0.238731 -0.023114245 0.0625679 -0.008057192
0002c0 ce 21 f2 bb da de 81 bd 45 70 15 3e fd 73 21 3d
       -0.0073892837 -0.06341334 0.14593609 0.039417256
0002d0 32 6c 27 3e de 17 2c 3e 48 84 51 be ac 3e 53 3e
       0.16349867 0.1680598 -0.20460618 0.20629376
0002e0 df e6 17 3e 87 8f 1d 3e 6c 36 c3 3d c8 0c 2a 3e
       0.14834164 0.15386783 0.095318645 0.16606438
0002f0 29 4a 2d 3e 42 3d 9b bc 99 21 1d be a7 89 7f b9
       0.16922821 -0.018950108 -0.15344848 -0.00024369975
000300 f2 8d 06 be 81 df 76 3e da 17 c5 bd 7b f2 4a 3e
       -0.13140085 0.24108697 -0.0962369 0.19819061
000310 61 1b fe 3d 74 44 f7 3b f2 d1 9a 3e ad 8e 6c 3c
       0.12407566 0.007546002 0.302383 0.014438313
000320 cb 5c 6b bd 87 53 ad 3d 34 fb 7a 3e 0a 70 36 be
       -0.05746154 0.08463197 0.24509889 -0.17816177
000330 d4 0f c7 bc 69 f6 eb 3d 42 4a e4 3d 83 da 22 3e
       -0.02429954 0.115216084 0.11146976 0.15903668
000340 7a f4 cd 3d 9e 32 25 bc 36 6b 73 3d 93 91 7d 3d
       0.10056396 -0.010082869 0.059428416 0.06190641
000350 9f 04 2a 3e 6f 66 52 bd 63 c1 bc bb 45 c1 2f 3e
       0.16603325 -0.05136722 -0.005760358 0.1716357
000360 f6 88 0b 3e c8 cb 11 3e d5 c6 25 bd 8d 70 96 3b
       0.13626465 0.14237893 -0.040472824 0.004591054
000370 ec 7c 97 be c2 ab 16 bd 86 d4 47 3e 5f 54 01 bc
       -0.29587495 -0.036784895 0.19514665 -0.007893651
000380 9e 8a 2d 3d 65 fc fc 3d 8b e3 80 bd bd 76 0c be
       0.042368524 0.12352828 -0.062934004 -0.1371717
000390 9d 7e c3 3d cd 6c 34 bb f1 4f c2 bd 3b 37 08 3e
       0.09545634 -0.002753067 -0.09487904 0.13302319
0003a0 9d 8c 22 be 35 ad 36 3d 23 7a da 3d c3 9e 08 bd
       -0.15873952 0.044598777 0.10667827 -0.033354532
0003b0 2c 57 bd bd e0 f6 2a 3e 49 d6 2a 3e fe 81 05 bc
       -0.09245142 0.16695738 0.16683306 -0.008148668
0003c0 b6 12 3c 3e d6 2e 54 3e 65 49 c5 3d 98 64 06 be
       0.18366513 0.20720991 0.096331395 -0.13124311
0003d0 a5 86 f1 3c 87 a3 1a 3e 60 79 b9 3d a4 52 83 3e
       0.029483149 0.15101443 0.090563536 0.25648987
0003e0 50 2d b1 3d 26 5a 87 3d de 34 a6 bd 73 45 2a 3d
       0.08651221 0.06608991 -0.08115552 0.04157014
0003f0 a7 11 05 3e 7b 93 4e 3e d5 27 0c 3e 4d be d7 3b
       0.12995015 0.20173447 0.1368707 0.006583965

a2c_network.actor_mlp.2.weight f4 [128, 256]
000000 be e6 95 bc 55 c1 2b 3e 84 b8 c9 bd d5 c4 ab 3d
       -0.018298503 0.16772969 -0.09849647 0.08387152
000010 70 0e 90 bd 0e 12 e1 3c b0 1f bf bd 2e 0b 90 bd
       -0.07034004 0.02747443 -0.09332216 -0.07033382
000020 2c 15 e6 bd c8 8c 69 bc 78 5e 05 3d ca 7e 62 3d
       -0.11234507 -0.014254756 0.032560796 0.055296697
000030 0e 14 ab 3d 76 59 64 3d a5 6f c3 3c 7b 72 2c 3d
       0.083534345 0.05574938 0.023856947 0.042101365
000040 91 64 6e bd 76 33 c4 3d 23 e0 48 bd 2c b7 f3 3d
       -0.058201376 0.09580128 -0.04904188 0.11900172
000050 78 99 11 be 60 38 82 bd 1d ef 6e 3d d4 7d eb 3d
       -0.142187 -0.06358409 0.058333505 0.11498609
000060 64 51 19 3e a4 12 90 bc 8f 70 a7 3b 68 b7 e3 3d
       0.14972454 -0.017587014 0.0051098536 0.11118966
000070 c8 1d 86 bc c2 d0 41 3c 34 a4 7e bd 84 f5 97 3d
       -0.016371623 0.011829557 -0.062168315 0.07419875
000080 f7 cc 01 3e d8 d9 dc 3b ce cc be 3d 3c 9e 46 bd
       0.12675844 0.006739836 0.09316407 -0.048490748
000090 26 a8 48 bd 2d d9 1e be 8e 98 cf 3d 6b 49 8e 3c
       -0.048988484 -0.15512533 0.10136519 0.017368993
0000a0 64 5d 2b 3e d1 aa 97 bd 2f d0 60 3d 21 4d ca bd
       0.16734844 -0.074056275 0.05488604 -0.098779924
0000b0 e4 ce 7a bc d2 f3 44 bc 3a 16 ce bd d4 a9 8b 3c
       -0.015308116 -0.012021022 -0.10062833 0.017048754
0000c0 9b 17 dc 3d c5 b0 3e 3d 99 9c 58 be 33 f3 c3 bd
       0.1074669 0.0465553 -0.21153487 -0.09567871
0000d0 ee e5 60 bd 52 b5 64 bd bd cf 91 3d ce 93 33 3d
       -0.054906778 -0.055836983 0.07119701 0.04384213
0000e0 a7 70 27 be f0 b0 e4 3d e2 71 34 3c 92 19 e7 3d
       -0.16351567 0.11166561 0.01101348 0.11284174
0000f0 57 de b0 3d 98 5c 5f bd 2a 9d 1f 3d 34 bb 1a 3e
       0.08636158 -0.054531664 0.038968243 0.15110475
000100 dd 6d be 3d b6 00 e8 bc f2 41 a1 bd f2 ab ee bd
       0.092982985 -0.028320652 -0.07873906 -0.1165389
000110 52 c0 83 bc 08 76 12 be 84 58 b8 bd 3f 9f da bc
       -0.016082916 -0.14302838 -0.09001258 -0.026687263
000120 5e 5f 1a bd 62 ca 90 bd af 97 63 3d 84 28 5f bd
       -0.037688605 -0.070698515 0.05556458 -0.054481998
000130 5e 64 70 bd b0 7c 5b be 97 ed fb bc 78 fd 1a be
       -0.058689468 -0.21434283 -0.03075294 -0.15135753
000140 a3 e7 5f 3d 56 93 95 3c 3b 9d ed 3d 03 f7 dc bb
       0.054664265 0.018258732 0.11602255 -0.0067433133
000150 2f cc 02 be 90 92 95 bd 20 ff d4 bd ef 21 b8 3d
       -0.12773202 -0.07303345 -0.10400224 0.08990847
000160 05 b5 47 3d bb 32 3c bd 48 b5 53 bd 35 f5 a2 bd
       0.048756618 -0.045946818 -0.051686555 -0.07956926
000170 53 93 5a 3d 6d 85 93 3c a1 af 93 3a 19 f4 98 3d
       0.053363156 0.018007958 0.0011267551 0.07468433
000180 de 98 89 bd 1c 6a 5e bd 73 fe 62 3c 17 c7 42 3e
       -0.0671861 -0.054300413 0.013854611 0.19021259
000190 27 f0 49 bd ea 69 b6 3d da ba 6f 3d 04 0b b8 3d
       -0.049301293 0.0890692 0.058527805 0.08986476
0001a0 a6 8d 0b bd 84 a2 94 bd 02 31 b6 3c b5 7d 3e bd
       -0.034070633 -0.0725756 0.022240166 -0.046506602
0001b0 b0 7e 8b bd ad 0e 30 bd 10 ee 9e bd fe 9d d4 3d
       -0.06811273 -0.042982746 -0.077602506 0.10381697
0001c0 ea 00 68 3d 9a 01 a2 3d 33 d2 15 be 92 bb ef 3c
       0.056641497 0.07910462 -0.14630966 0.029264245
0001d0 e3 4c 25 bd 6d 28 61 3b e7 e9 2b 3b d4 d8 fb bd
       -0.040356528 0.003435637 0.0026231946 -0.12297216
0001e0 a3 7a 0b bd 89 53 2b 3d b3 2c e7 3d 79 77 9a bd
       -0.034052502 0.041827712 0.112878226 -0.07542319
0001f0 97 0e 79 bd 88 2c eb bc 55 49 60 bc 72 12 4a 3d
       -0.06080493 -0.028707758 -0.013689359 0.049333997
000200 46 bf 27 bc b7 87 1e bb 6f e2 ea bc 56 7f de 3c
       -0.010238474 -0.002418978 -0.028672425 0.027160328
000210 f9 b3 c6 ba 7c 21 a3 3d aa 67 6f 3c 72 c6 e5 bc
       -0.0015159837 0.07965371 0.014612118 -0.028048728
000220 6f a8 ce bd ed a7 e8 bd d9 5c ed 3c 82 62 f7 3c
       -0.1009072 -0.11360154 0.028974937 0.03019834
000230 49 67 4f bd 87 d4 d2 bd 90 3e fa bd 0c 4d 6b bd
       -0.05063561 -0.102944426 -0.12218964 -0.057446525
000240 14 94 24 3c 94 cd 8d bd 51 d7 5f ba 7a ff 75 bd
       0.01004507 -0.069239765 -0.00085388595 -0.060058095
000250 82 3e fe 3c 10 00 e8 bd 01 c5 05 3e 53 46 81 bc
       0.031035665 -0.11328137 0.13063432 -0.015780604
000260 fb 01 6f bd 95 49 e7 bc 43 88 ed bd f8 be 8d 3d
       -0.058351498 -0.028233329 -0.115982555 0.0692119
000270 8d 84 d0 3d 6b ff 88 3d ef 8e cc bd f3 2d 86 3c
       0.10181532 0.06689342 -0.099882 0.016379332
000280 3b f6 da 3b a1 4b 04 be b7 99 e9 bc 7e a1 ca bb
       0.006682185 -0.12919475 -0.02851568 -0.006183802
000290 aa 20 08 bd 39 5e c2 bd 99 c7 1d bd 39 2f 7a bd
       -0.033234276 -0.09490628 -0.03852043 -0.06108019
0002a0 4a c2 91 3d 25 36 08 3e 82 9d cd bd 6f 48 47 3e
       0.07117136 0.13301904 -0.10039808 0.19461225
0002b0 54 4d 99 bd 4d 11 47 bd d1 52 0d 3d af 8f 81 3d
       -0.07485452 -0.048600484 0.034502808 0.063262336
0002c0 c4 20 e8 3d c8 6e 33 be 87 08 a5 3c 3e 00 a0 3c
       0.113343745 -0.17522728 0.020145668 0.019531365
0002d0 18 76 77 bc 35 4d 0e 3d 50 cb b2 bc b2 42 d0 bc
       -0.015103839 0.0347416 -0.021825463 -0.025422428
0002e0 4a 50 c1 3c 2b 92 2b 3d c2 c5 84 3d 64 10 ca bc
       0.023597855 0.041887444 0.06483032 -0.024666019
0002f0 f2 50 78 3d bd 12 f8 bd ed 55 0d 3e ef cc 34 3d
       0.06062407 -0.12112949 0.1380231 0.044140752
000300 09 6b 8f bd e3 f8 12 3d ae c6 7e 3c bb 6c a7 3d
       -0.07002837 0.035881888 0.015550299 0.081750356
000310 86 95 d9 bd 81 0b c3 bd 83 88 93 bd 6d 11 66 3d
       -0.106242225 -0.095236786 -0.07203772 0.056168962
000320 a5 34 ee 3d 61 7c 56 bc f6 c8 ae bb b4 cf aa bd
       0.11631135 -0.013091178 -0.005334015 -0.083403975
000330 b8 36 f3 bb 9f 95 95 3d 84 e5 4e bd eb ab 85 bc
       -0.0074222945 0.073039286 -0.050511852 -0.016317328
000340 3a d0 2e 3d 71 41 96 3d 29 47 4f 3d 55 8b af bd
       0.04267905 0.07336701 0.050604973 -0.08571497
000350 bb da e9 bd d2 db 2f 3d 68 6a 47 bd 10 8f 79 be
       -0.11418673 0.042934246 -0.04868546 -0.2437098
000360 31 29 3e bd ea 92 13 3e a6 1a 3c bd 27 6a ab 3d
       -0.046426002 0.14411512 -0.04592385 0.08369856
000370 44 ed 89 3c 93 8b ff 3a 20 82 aa 3d 72 30 63 3c
       0.01683677 0.0019496552 0.083256006 0.013866531
000380 94 52 9a bc d5 5a c7 bd 72 0b 28 3d d4 27 5f 3d
       -0.018838204 -0.09734122 0.04102654 0.054481342
000390 c5 d1 0d bd 7c e3 f7 bd 06 f4 dd 3d 15 71 02 3d
       -0.03462388 -0.12103936 0.108375594 0.031846125
0003a0 82 12 96 bd e6 11 dc 3d c3 f8 02 bc 96 dc 0a 3e
       -0.07327749 0.10745601 -0.00799388 0.1356071
0003b0 22 78 01 3d c8 81 e2 bc fa a4 2f 3d 20 06 ff bc
       0.03160871 -0.027649775 0.042881943 -0.03113085
0003c0 59 e7 7d bd 51 ac 8f 3d cf c1 bd bd da 40 45 3c
       -0.06198821 0.070152886 -0.09265482 0.012039388
0003d0 1e 44 04 3e da d6 16 bd aa 96 f5 3d 1c e0 7c bc
       0.1291661 -0.036825992 0.119916275 -0.015434291
0003e0 f3 41 28 bc bf 8b f1 3b d2 d3 95 bd 9f 51 f1 bb
       -0.01026963 0.0073713954 -0.07315792 -0.0073644663
0003f0 cc 13 f7 bd 36 d8 b0 3c dd 85 84 3d 28 8b 13 3e
       -0.12064323 0.021587472 0.06470845 0.14408553

a2c_network.actor_mlp.2.bias f4 [128]
000000 36 52 40 bd f8 a3 95 bc c9 14 18 be 55 84 03 be
       -0.046953402 -0.018266663 -0.14851679 -0.1284345
000010 2d e5 40 3d 54 b8 6c be 6b 69 15 be 12 9e 98 bd
       0.04709356 -0.2311719 -0.14590995 -0.074520245
000020 4a a1 64 be 52 c0 76 be 82 55 15 be 5a 34 68 bd
       -0.22327152 -0.24096802 -0.145834 -0.05669055
000030 f6 e0 3b bd 3b e6 49 3d 46 86 5f bd f0 67 07 be
       -0.045868836 0.04929183 -0.054571413 -0.13223243
000040 ad 60 f0 bc 97 43 94 3b b2 09 11 bd 22 80 92 bd
       -0.029342974 0.004524659 -0.035409637 -0.07153346
000050 04 eb be bd e6 b8 79 be 76 2e ba bd 19 e5 ba 3c
       -0.093221694 -0.2438694 -0.09090893 0.02281432
000060 df 5b 1e bd 92 c9 84 be 92 81 42 be 64 d0 57 bd
       -0.038661834 -0.25935036 -0.1899474 -0.05268897
000070 90 29 8c bd 55 b0 f1 bc 03 c8 eb bc 75 c7 60 bd
       -0.06843865 -0.029503027 -0.028781896 -0.054877717
000080 44 33 af bd d0 6f 16 3c 11 bb 11 bd 4f 33 42 bc
       -0.085547 0.009181932 -0.03557879 -0.011853053
000090 73 1e a8 bd f1 12 72 bd 2a 9d 42 bd 25 ae 4c be
       -0.08208933 -0.059100095 -0.047513165 -0.19988306
0000a0 2e e0 c3 3b 47 e2 15 3e 6c d1 63 be 82 e0 81 b9
       0.005977652 0.14637099 -0.22247857 -0.0002477207
0000b0 ad 78 8b be e8 14 8a bc 9d b3 0a 3d 4e 04 14 be
       -0.27240506 -0.016855672 0.0338627 -0.14454767
0000c0 af fd 9b 3b 05 1c 49 bc 5d c1 0e be 83 01 1a bd
       0.004760466 -0.012274747 -0.1394095 -0.037599098
0000d0 26 3d a9 bd 8b ad 70 bd 7d 42 7e 3d ca 07 7e 3d
       -0.08263616 -0.058759253 0.062075127 0.062019147
0000e0 13 43 c0 3d 32 fa d4 3c c6 5a d7 ba cc 2c 8a bd
       0.093877934 0.025998209 -0.0016430251 -0.067468256
0000f0 43 7f 81 bd 6d 1c 3b be 5f 97 40 3b 9a 20 e5 3c
       -0.06323101 -0.18272562 0.00293871 0.027969647
000100 e8 89 f5 3c 09 57 45 3e 69 9f 21 be c1 66 58 be
       0.029972985 0.19271483 -0.15783466 -0.21132948
000110 fd 4a 6e 3c 38 d5 50 bc 65 ae 30 be 21 4b 0e 3e
       0.014544246 -0.012746148 -0.17254026 0.13895847
000120 9c eb 5b bd 0b ec 19 bd d8 00 96 bd 58 e9 96 3d
       -0.05369149 -0.037578624 -0.0732438 0.073687255
000130 10 0b 22 be 33 95 48 be db 0f e8 bd 5d ac a1 3c
       -0.15824533 -0.19588165 -0.11331149 0.01973551
000140 a8 48 6c be 07 f7 4a bd 74 da 09 3e ef 8a 72 3d
       -0.23074591 -0.04955199 0.1346224 0.05921453
000150 62 dc b1 3d dc d9 85 3d 6d b6 40 be e5 13 5c be
       0.08684613 0.06535694 -0.1881959 -0.21491964
000160 46 3d 67 3d 59 1b a5 3c 3d 62 ae 3d e3 73 fe 3d
       0.05645492 0.020154642 0.08514831 0.124244474
000170 ed cd 19 bd b8 dd 41 bd 9e ee a6 3d d4 f8 a5 bc
       -0.0375499 -0.047330588 0.08150981 -0.020260252
000180 ff f7 e5 3c 2e 9c 57 3c 4d cc a3 3d 0d 5b 15 be
       0.028072355 0.013159795 0.07997952 -0.14585514
000190 a4 64 08 3e cd bc b7 39 51 95 cc bc e0 9a 30 bd
       0.13319641 0.00035045148 -0.024973543 -0.04311645
0001a0 c5 f0 95 bd e3 6e a9 bc 38 a1 81 bc 89 28 e6 3d
       -0.07321314 -0.020682758 -0.015823945 0.112382
0001b0 40 3a 83 bd 58 59 af 3d b3 d9 13 be e2 7e 83 be
       -0.06407595 0.08561963 -0.14438514 -0.2568274
0001c0 4f a5 5a bb a7 89 97 3d b0 e6 90 bd a5 84 b9 bd
       -0.0033362692 0.07399302 -0.0707525 -0.09058503
0001d0 ff e1 16 be 3b 9f 87 3c 70 63 ef 3d eb 4a 6d 3c
       -0.14734648 0.01655542 0.11688888 0.014483194
0001e0 38 a8 28 3b 5b 9a 76 3d 38 76 84 3b b8 2b 57 be
       0.0025735032 0.0602058 0.004042413 -0.21012771
0001f0 a1 2c 17 3d b3 66 dd bd d1 7c 32 be 42 d5 77 3d
       0.036907796 -0.10810604 -0.17430426 0.060506113

a2c_network.actor_mlp.4.weight f4 [64, 128]
000000 65 a9 f3 bc 71 7b 43 3d 3a 0d c5 3c 16 8d f0 bd
       -0.02974386 0.047725145 0.024054158 -0.1174566
000010 f3 28 25 3c 21 b4 f7 3d 4d 15 37 bd 8c 32 68 bd
       0.010080564 0.12094904 -0.04469805 -0.05668883
000020 98 82 d6 3d a3 00 09 3d a6 c4 59 be 31 67 50 bd
       0.104741275 0.033447873 -0.21266422 -0.05087966
000030 4a 74 be 3d ae e6 a6 bc 34 df 19 3c 5d ee cb 3c
       0.09299524 -0.020373669 0.009391595 0.024893934
000040 18 b3 f1 3c 11 36 97 bd 00 01 b5 bb 86 86 b0 bc
       0.029504344 -0.07383359 -0.005523801 -0.02154852
000050 43 c5 47 bd dd 01 70 3e 83 20 11 bd 90 56 1b 3d
       -0.048772108 0.23438211 -0.035431396 0.03792435
000060 3c 23 c3 bd 51 86 45 be 94 27 57 3d 62 e7 9a bd
       -0.09528205 -0.19289519 0.05252798 -0.07563664
000070 8f dc 08 be c4 0e 8e bd 6e 9e d1 bd 1b 6f 3b 3d
       -0.13365386 -0.0693641 -0.10235296 0.045760255
000080 8b fc 8e bd b9 81 f3 bd b4 22 50 3c f8 d9 5b 3d
       -0.069817625 -0.11889977 0.012703586 0.053674668
000090 f9 ab 52 3d 15 dd cd bd 21 b3 6a 3d ef ec 9e bd
       0.051433537 -0.10051934 0.057299737 -0.07760035
0000a0 ba ba 2e bd 90 95 4e 3d ea a4 5e bc 66 b8 48 bd
       -0.042658545 0.050435603 -0.013589123 -0.04900398
0000b0 b4 aa 1a be 43 e9 79 bd 89 86 f3 3d b2 da ba bd
       -0.1510418 -0.06101347 0.11890895 -0.09123744
0000c0 3a 0c da bc c7 7d cd ba 48 16 a8 3c 24 bc 95 3d
       -0.026617158 -0.0015677743 0.020518437 0.073112756
0000d0 63 4e 11 3d 57 37 d6 3b 38 a0 9f bd 6a 24 0a be
       0.035475146 0.0065373587 -0.07794231 -0.13490453
0000e0 6b 94 94 bd 79 77 c2 bd 99 e6 c3 bc 90 ae dd bc
       -0.07254871 -0.09495444 -0.023913668 -0.027060777
0000f0 1e b0 53 bc 63 a1 46 3c 2d b7 80 3d 25 58 6c 3d
       -0.012920408 0.0121234385 0.06284938 0.05770125
000100 b8 26 22 be 1a 12 50 be f8 8b ec bc 08 be dc 3d
       -0.15835083 -0.20319405 -0.028875336 0.10778433
000110 83 c6 ef bd 27 bd 64 be d7 47 b6 3d 51 6a 75 bd
       -0.11707785 -0.22337781 0.08900421 -0.059915844
000120 e0 87 b8 bb 63 64 dc 3d bb 11 c8 3d 16 3e b0 bd
       -0.005631432 0.10761335 0.09769007 -0.08605592
000130 c1 9c 6b 3d 7c e6 1d 3c 54 33 3b 3e 54 13 17 3d
       0.05752254 0.009637471 0.18281299 0.036883667
000140 3c 5e 0a 3d 62 46 04 be 28 a2 31 be 1a a2 c9 bd
       0.033781275 -0.12917474 -0.17347014 -0.098453715
000150 46 77 30 be d0 0d f4 3c 23 05 88 bc 25 ca ab 3d
       -0.17232999 0.029791743 -0.016604012 0.083881654
000160 3b e0 07 3c 4d 84 c6 bd 1c fa 1f 3d c6 e9 cc bd
       0.008293207 -0.09693203 0.039056882 -0.10005526
000170 c8 ce 1d 3e ee 8c 1d 3d 87 8f e3 3d ab f7 5d 3d
       0.15410912 0.03846448 0.1111136 0.054191273
000180 af 5d 0e 3d 9c 74 9b bd 8a 07 84 bd b5 a9 f0 bd
       0.034757312 -0.07590601 -0.064467505 -0.11751119
000190 96 15 da 3c 96 5b c5 bd 80 4d 22 bd b3 f3 ed 3c
       0.026621621 -0.09636609 -0.03962469 0.029046869
0001a0 14 20 80 bd 53 02 12 be 70 5b a7 bc df d1 95 bd
       -0.062561184 -0.14258699 -0.020429343 -0.0731542
0001b0 89 0c 3c 3d 04 74 f9 bd 9e 0a 50 3c c1 47 62 bd
       0.045910392 -0.12180331 0.012697844 -0.05524421
0001c0 d0 bd e5 3c 3d 51 1c 3d cf d5 08 be 0c 01 da bd
       0.028044611 0.038163412 -0.13362812 -0.10644731
0001d0 b8 78 c7 3b 38 00 5e 3d 60 46 37 bd b7 01 89 bd
       0.006087389 0.054199427 -0.04474485 -0.0668978
0001e0 5c a8 8b bd 6f 18 ef bc 31 1e 63 bd b7 bc 64 3d
       -0.068192214 -0.029186456 -0.055448715 0.055844035
0001f0 67 c4 2c bd f0 f2 40 3c 89 fe 3f 3d af e8 0e be
       -0.04217949 0.011776671 0.046873603 -0.13955949
000200 9e 83 0b bc a9 48 39 3b ce 4c 94 bc d6 16 bb 3d
       -0.008515267 0.0028272069 -0.01810303 0.09135215
000210 0a de 50 3b ab cf f3 bd 63 b9 e8 bb c3 36 9a bb
       0.0031870627 -0.11904844 -0.007102178 -0.004706235
000220 0f 85 83 bb f4 fd ae bd 47 05 88 3d 7d 1b cd bd
       -0.0040136646 -0.085445315 0.066416316 -0.100150086
000230 26 89 b2 bc 4c 3d 61 3d e0 9a d7 bd 18 73 a7 bd
       -0.021793913 0.054990098 -0.10527587 -0.08176249
000240 19 c3 25 3c 49 9e 05 bd 18 41 85 b7 30 e2 02 3d
       0.010117316 -0.032621656 -1.5885147e-05 0.03195399
000250 d5 58 bb 3d 44 80 da bd 38 db c8 bd 03 90 c5 bd
       0.09147803 -0.10668996 -0.09807438 -0.09646609
000260 62 01 b7 3d 0f 9e 3e bd 58 ac 84 3d d9 d1 93 bd
       0.089358106 -0.046537455 0.064781845 -0.0721776
000270 d2 1f 15 3d 09 e5 d3 3d 77 79 5e 3d 66 af e9 3d
       0.0364073 0.10346419 0.054315057 0.11410408
000280 ae e1 40 3d 57 f3 97 3a d1 18 1c 3c b3 6f 0b bd
       0.047090225 0.0011592907 0.009527401 -0.03404207
000290 8e ce 97 bd b9 71 c9 bd a9 2e bb bd 6f 9c 43 bd
       -0.07412444 -0.09836144 -0.09139759 -0.04775661
0002a0 cb e2 39 be ae 29 b4 bd ea d7 a3 3d 12 c9 67 bd
       -0.18152921 -0.08797012 0.08000167 -0.05658824
0002b0 24 58 ad 3c ef 94 57 3c 4c 3f 7e 3d 74 0a 0c 3d
       0.021160193 0.013158067 0.062072083 0.034189656
0002c0 b4 01 82 3d 74 35 a6 bc 47 2a c7 3c 51 fb a7 bd
       0.06347981 -0.02028916 0.024312152 -0.08202232
0002d0 da da 0f 3e 44 24 a6 3d e4 c1 0d be 5f f4 51 bd
       0.14048329 0.08112386 -0.13843495 -0.05125844
0002e0 e3 1f e1 3b 4a dd df 3d 62 6e 2e bd c4 45 2b 3d
       0.0068702563 0.109308794 -0.042585738 0.04181458
0002f0 c8 1f c1 3d 67 07 56 3d 53 22 49 3d 76 dc a6 3d
       0.0942989 0.052253153 0.049105 0.08147518
000300 96 04 bf 3d d5 47 c2 3d bf 7a 36 bd 7f fc 67 bc
       0.093270466 0.09486357 -0.044550654 -0.014159321
000310 e8 4e 88 3d 22 7d 15 3d ea a1 1d bd f8 31 1d bc
       0.06655675 0.03649629 -0.03848449 -0.009594433
000320 77 ad c8 3d 28 37 fb bb 12 20 c1 bc ac a2 f8 3c
       0.09798711 -0.0076664872 -0.023574863 0.030351005
000330 76 4d 86 bd 76 e2 75 bc 9b c1 01 3e 95 57 cb bd
       -0.06557743 -0.015007606 0.12671511 -0.09928814
000340 45 bf 72 3b fb 16 36 3c 60 24 c3 3d 33 f9 e4 bd
       0.0037040275 0.011113877 0.09528422 -0.111803435
000350 43 d8 67 bc c0 8a ac 3c 7f e3 5d 3d 0b 27 a5 bd
       -0.014150682 0.021062255 0.054172035 -0.080640875
000360 c3 60 94 3d 4c 08 72 bd 9f 9a 52 bd 2f 29 ba 3c
       0.07245018 -0.059089944 -0.05141699 0.022724716
000370 56 64 eb 3c bd d0 35 bd f7 3a 25 3d d0 63 d8 bc
       0.028734367 -0.04438852 0.040339436 -0.026414782
000380 9e 0d 5f bc 28 40 39 3d bb 02 11 3c 81 0c e9 3d
       -0.013614086 0.0452272 0.008850749 0.11379338
000390 50 65 97 3b cd f3 04 be 43 c6 bf bd 13 62 60 bd
       0.0046202317 -0.12983628 -0.09363987 -0.05478103
0003a0 cc 1e 60 3d d5 77 fe 3c ce 31 03 be 20 f5 1a bd
       0.05471687 0.031063 -0.12811968 -0.037831426
0003b0 67 40 ca bc 9b a0 c7 3d 29 81 24 bd fd 1a 29 3d
       -0.024688913 0.0974743 -0.04016224 0.041285504
0003c0 ce 45 e7 bd 2b c3 49 bd b4 38 32 3d 3e c6 b2 bd
       -0.11292611 -0.049258392 0.043511108 -0.08729218
0003d0 79 8f ae 3c 8b 9c 0e bd d9 23 81 bd e1 4d 2e 3d
       0.021308647 -0.03481726 -0.063056655 0.04255474
0003e0 63 2a d5 bd 2b ef d1 bd f2 3a 7a bc 31 ab 68 bd
       -0.10408475 -0.10250696 -0.015272843 -0.056803886
0003f0 f5 b0 79 3d 7a 0b 1a bd bc 87 ea 3c 12 99 86 bd
       0.060959775 -0.0376086 0.028629176 -0.065721646

a2c_network.actor_mlp.4.bias f4 [64]
000000 33 bb 0e be 2f 33 20 3c 03 e9 71 3d 04 d2 26 3d
       -0.13938598 0.009777828 0.059060108 0.04072763
000010 32 f0 31 bd bb 61 71 bd f4 1c f8 3b ae 27 f4 3c
       -0.04344196 -0.058931094 0.007571811 0.029804077
000020 c8 c8 c6 bd 57 2d 46 3c 34 a7 ed 3d aa 13 37 be
       -0.09706265 0.012095771 0.11604157 -0.17878595
000030 97 62 6b 3d 4f 1d 1a bd 8c bf 37 3c 38 7b a6 3d
       0.05746707 -0.037625607 0.011215102 0.08128971
000040 30 c0 a1 3c bb 3e fe bc 33 aa 22 be d2 2b 7b bd
       0.019744962 -0.031035772 -0.15885238 -0.061321087
000050 9a 80 a2 3d 70 d2 45 bd 91 96 61 3e 51 45 b2 3a
       0.07934685 -0.048296392 0.22030093 0.001360098
000060 40 b1 c4 3d d3 17 f2 3d e6 43 e7 3c fe d8 2e be
       0.0960412 0.1182095 0.028230619 -0.17074963
000070 63 3a fa bd 9d a0 ad bc 79 21 42 bd 4e fb 0a be
       -0.12218168 -0.02119475 -0.047395203 -0.13572428
000080 2d ab 8a 3d 1f 10 e4 3c 24 2d 84 bd 9b 0d 36 bd
       0.067709304 0.027839718 -0.064539224 -0.04444657
000090 b2 36 b0 bc 6d 9c a5 3d 4b d6 09 3d 88 b5 a0 bd
       -0.021510456 0.080864765 0.03365163 -0.07847124
0000a0 d7 df 99 3d d8 ca 83 3d d2 9b 26 bd ef 09 13 3b
       0.07513397 0.06435174 -0.040675946 0.002243634
0000b0 b7 fd e0 bd f4 5b ad bd c5 32 12 bd ea 7b 21 3c
       -0.10985892 -0.08464804 -0.03569295 0.009856204
0000c0 5b 5f ef bc 09 31 dc 3c dc 7a 0e be dc 82 c5 3c
       -0.029220274 0.02687885 -0.13914055 0.02411025
0000d0 42 73 ab 3d 45 74 5c 3d 43 56 d9 3d cd b8 92 3d
       0.08371593 0.05382182 0.10612156 0.07164154
0000e0 9e 59 c1 bd 11 7f 96 ba cb 27 b5 3d ce 94 9c bd
       -0.09440921 -0.001148196 0.088454805 -0.0764557
0000f0 bb b8 01 be 13 ca e1 bd 34 16 0c bc cd b5 1c bc
       -0.12668125 -0.11024871 -0.0085502155 -0.009564829

a2c_network.value.weight f4 [1, 64]
000000 9f 6a 24 bd b7 82 b8 3b f0 8d 35 bb ff 86 21 3e
       -0.040140744 0.005630817 -0.002770301 0.15774153
000010 4f 66 2c 37 fd 2b 95 bc 42 cc e6 bb 27 d3 50 3d
       1.02758195e-05 -0.018209452 -0.0070433924 0.05098262
000020 d3 e4 f7 bd ba c3 8c bd 76 d1 aa 3d fe 05 06 be
       -0.12104192 -0.068732694 0.08340733 -0.13088223
000030 9a 3c 5a bc b2 57 65 3c 84 91 9a bc 66 b2 dc 3b
       -0.013320113 0.013997959 -0.018868215 0.006735134
000040 2e b8 b2 3c ad 47 30 3d eb e1 cc 3b 63 ee 85 3b
       0.02181634 0.043037105 0.0062525175 0.004087256
000050 11 30 b0 3d 35 03 b3 bd 3f c8 a7 3d 55 25 ac 3c
       0.08602918 -0.08740846 0.08192491 0.021013895
000060 5c 54 23 3d ea 92 08 3e 02 de ee bc 30 b6 db bb
       0.039875373 0.13337293 -0.029158596 -0.006705068
000070 7f 9e 8a bd 45 2a 92 b9 22 13 5d 3c 99 3b 0f bd
       -0.06768512 -0.00027878783 0.013493331 -0.034968946
000080 a8 58 f6 3d a8 20 82 3e 70 82 a4 bc fb 32 9e 39
       0.120286286 0.2541554 -0.020081729 0.00030174092
000090 9a 17 19 bd 5f e0 6f 3d e9 8b 1c 3d 9e e1 dc bc
       -0.037376024 0.058563586 0.038219366 -0.026963051
0000a0 90 1d 2b 3d 95 41 b8 39 a5 85 3a bc 72 a7 d8 3e
       0.04177624 0.00035144077 -0.011384402 0.4231525
0000b0 93 c1 6a 3c 6e 76 8f bc 13 66 1f bc e1 32 ca bd
       0.014328378 -0.017512526 -0.009728926 -0.09872986
0000c0 ea 23 5c bd 05 37 35 3d c6 32 9c bd 5b b6 af bc
       -0.053745188 0.044241924 -0.07626872 -0.021449259
0000d0 69 fd 59 bb c5 15 6d 3d 8a c8 dd 3d 8d 9b d3 3d
       -0.0033262616 0.05788209 0.108292654 0.10332403
0000e0 fc cf 25 bc 7f f1 aa 3c 84 d5 e4 3c d3 c9 1c 3c
       -0.010120388 0.020867107 0.027933843 0.009569603
0000f0 0c a0 e9 3b fb dc f7 b9 85 67 13 3e fb eb 0c 3c
       0.007129675 -0.00047276155 0.14394958 0.008601184

a2c_network.mu.weight f4 [12, 64]
000000 60 76 18 3d f4 82 99 bd cd 92 89 3d ee af e4 3c
       0.037222266 -0.074956805 0.06717453 0.027915921
000010 7a 12 3f 3d 5b 22 4b bc 84 9e 0d 3d 63 5a 8c bd
       0.04664848 -0.012398328 0.034575 -0.068531774
000020 2e 57 ad bc 4b e4 70 3d e6 48 55 3d 1d 6e 14 be
       -0.021159735 0.058811467 0.052071474 -0.1449513
000030 61 a5 a3 3d 68 6b 0f be b0 56 37 3d 7f 32 a1 3a
       0.07990528 -0.14005816 0.044760406 0.0012298374
000040 2a 8c 44 3d ae d6 26 be dd 1d 66 3d 80 b7 42 3c
       0.047985233 -0.16292831 0.056180824 0.01188457
000050 5a 9a a2 3d b8 11 1c 3b 72 c6 d5 3c 6e 4c d5 bb
       0.079395965 0.0023814272 0.026095603 -0.0065093553
000060 71 cf 8d 3d bb a2 4b 3d 70 68 bd 3d 66 3d 41 bc
       0.06924332 0.04971574 0.092484355 -0.011794424
000070 a5 4c 00 bd ba b8 1f bd ef 8a 12 bb 4e 1b ec bc
       -0.031323094 -0.03899453 -0.0022360643 -0.028821614
000080 42 e6 86 3d ce 55 c9 bd c9 f4 14 bd ed f4 ae 3d
       0.06586887 -0.09830819 -0.036366258 0.0854281
000090 dd 6d 30 3d 96 bf 8d bd 91 e8 45 3b 59 71 35 bd
       0.043073524 -0.06921308 0.0030198435 -0.04429755
0000a0 74 53 99 3d 2f 59 9b 3d e2 52 1e 3d b3 f8 89 3c
       0.074866205 0.0758537 0.038653262 0.016842222
0000b0 84 99 3f bd 1a d4 ab bc 11 f3 70 3d 3e d6 3f 3c
       -0.046777263 -0.020975161 0.058825556 0.011708794
0000c0 a2 3b a7 3c 87 76 ad 3c 85 ab 82 bc 48 59 0b 3d
       0.020414177 0.021174682 -0.015950928 0.034020692
0000d0 57 50 95 3d 29 0b 8e 3d 27 d5 0b bc a1 69 0b 3c
       0.07290714 0.069357224 -0.008534706 0.008509071
0000e0 d7 24 06 3c 9a 5e 78 bd 9b 0d 28 bd 8a 90 ad bd
       0.008187494 -0.060637094 -0.0410286 -0.08474834
0000f0 47 89 2a be e1 a6 25 3d 48 e1 1c be aa 36 8d bd
       -0.1665393 0.04044235 -0.15320313 -0.06895192
000100 67 0c 06 bd 31 0b 9a bd d1 dc db bc 00 8b 64 3e
       -0.03272667 -0.07521666 -0.026838692 0.2231865
000110 36 49 f0 bc 45 e0 fb bd c6 43 e0 3d 85 3b 9e bc
       -0.029331785 -0.122986354 0.10950427 -0.01931549
000120 27 29 0c 3d 54 5c 3c bd bd 36 97 bc 9d 1b ae bd
       0.034218933 -0.04598649 -0.018458718 -0.085013606
000130 93 bc 33 bd 93 ed 70 3d cf 01 51 3d 56 63 21 39
       -0.04388101 0.05882032 0.051027115 0.00015391162
000140 ed d8 5e bd a1 07 53 3e b3 61 b7 bb a8 0e 4d bd
       -0.054406095 0.20608379 -0.0055963635 -0.050062805
000150 28 aa 8b 3d 05 c6 c7 bc 43 cc 66 3c ef 8f 1c 3d
       0.06819564 -0.024386415 0.014086786 0.038223203
000160 fc db 8c 3c 4f e4 c9 3c ac 88 7c 3d 91 04 0a 3d
       0.01719474 0.024644999 0.061653778 0.03369576
000170 b5 16 a8 3d 39 7e 21 be 8f 7d 90 3d cd 87 c1 3d
       0.08207456 -0.15770806 0.070551984 0.0944973
000180 7f 5d 08 be 5b 29 81 bd 68 05 62 be 96 e2 fb 3c
       -0.13316916 -0.06306716 -0.22072375 0.030747693
000190 af 26 85 3d a9 5a 05 be a2 76 20 3e b9 c5 9d 3d
       0.06501519 -0.13022865 0.15670255 0.07703728
0001a0 13 d7 1e 3d 73 9f 7d bd 5f ab 3e 3d 6d 5e 81 bd
       0.03877933 -0.06191964 0.04655015 -0.063168384
0001b0 ec ec b8 bd ff 1e 6f 3d c0 78 1b be 86 01 10 3e
       -0.09029564 0.05837917 -0.15182781 0.14063081
0001c0 58 8f e5 3d 62 72 a2 bb 8c 75 12 be 69 15 0e 3e
       0.11208981 -0.004957483 -0.14302653 0.13875355
0001d0 5d c2 85 bd a7 fa 02 be 7a b8 ac 3c 9d 4a 59 3e
       -0.065312125 -0.12790929 0.021084059 0.21219869
0001e0 71 4c 4e be d9 49 cd 3d a0 ed 05 be 03 9d 1d bd
       -0.20146348 0.10023851 -0.13078928 -0.038479816
0001f0 65 7b 47 3c 02 ed 10 3e bf 9a 0a bd bb b9 c1 bb
       0.012175416 0.14152911 -0.033838984 -0.0059120334
000200 f7 96 68 3b c8 a7 ba 3a 5b 5d 63 be da 4f 63 bd
       0.0035490373 0.0014240677 -0.22203581 -0.055496074
000210 21 cb 16 3e c5 05 91 bd e7 ba 5b 3d 60 e9 ea 3d
       0.14725925 -0.070811786 0.05364504 0.11470294
000220 18 28 7f bd 46 05 5b 3d 1a c8 e3 bd fc 62 aa 3d
       -0.062294096 0.053471826 -0.11122151 0.08319661
000230 f2 64 be 3d 9c ab d1 3d 70 db f5 3d 99 fe a5 bc
       0.092965975 0.1023781 0.12004745 -0.020263003
000240 8f 52 ed bd 40 dc bb 3b c2 1b b7 3d 3d c6 cb bb
       -0.115880124 0.005733043 0.08940841 -0.0062187
000250 f8 47 52 be 39 f1 a5 3b 62 7a 26 bd cd 33 81 3d
       -0.20535266 0.0050641564 -0.040644057 0.06308708
000260 eb b0 b5 3c 5d cb b6 3c 3b f2 73 bd 7b ba 3e ba
       0.022179088 0.022313768 -0.05955718 -0.00072757126
000270 10 1e 62 bd 16 07 42 3d bb 0d d7 3c dc a7 23 3d
       -0.05520445 0.04737004 0.026251664 0.039955005
000280 b6 eb 3a 3d 72 22 01 3d 72 60 c7 3d 91 3a 0a 3d
       0.045634948 0.03152699 0.09735192 0.03374726
000290 54 f4 95 bc 8a 09 2a be 98 86 b3 bd 7a d6 ad bc
       -0.018304981 -0.16605201 -0.08765906 -0.021220434
0002a0 46 02 c8 bc 1f ff a6 bd 44 96 90 bc 25 37 d2 3c
       -0.024415147 -0.08154129 -0.017649777 0.02566106
0002b0 7b b6 f5 bc 56 8c d4 bd 47 76 5b be 3d c4 aa bd
       -0.02999424 -0.103783295 -0.21431838 -0.08338211
0002c0 6d 24 98 bd 6a d8 7a 3e 9b 84 b0 3d d9 c5 47 3d
       -0.07428823 0.24496618 0.086190425 0.048772667
0002d0 86 3e e5 bc 31 c1 f2 3d f9 54 a5 3c d1 fe 19 3d
       -0.027983915 0.118532546 0.02018212 0.037596527
0002e0 f2 e9 13 3e 83 05 b9 bd 9f e0 87 bd 33 37 74 bd
       0.14444712 -0.090342544 -0.0663464 -0.059622955
0002f0 39 a4 71 3c b6 c0 9b bd 8d 43 6c 3d c0 89 be bd
       0.014748626 -0.07605116 0.05768161 -0.093036175
000300 86 55 f2 3d 0a 73 86 bd 43 bb 27 bc 26 c6 7f 3e
       0.118327186 -0.06564911 -0.010237518 0.24977931
000310 48 cf 6e 3d 11 94 f3 3a aa f0 91 bd e3 1a 19 3d
       0.058303148 0.0018583556 -0.07125981 0.037379157
000320 1a 09 0f 3d 62 81 d4 bd 9c 19 2e bd 08 ba cb 3d
       0.03492079 -0.1037624 -0.04250489 0.09947592
000330 04 fb 8e bd c4 79 eb bd b6 f1 4b bd 1c 56 fc 3c
       -0.06981471 -0.11497834 -0.04979106 0.030802779
000340 11 70 a6 3d fe 2f 2a 3e ee e4 4a 3d 98 ad cf 3c
       0.08126844 0.1661987 0.04953473 0.02535133
000350 93 f2 32 3d 17 37 d0 bd 4b 31 04 bd 64 43 70 bc
       0.043688368 -0.101667576 -0.032273572 -0.014664505
000360 d2 3d be bd 7a 6a 48 bd 58 2d 46 3d e2 39 0e 3e
       -0.09289135 -0.04892967 0.048383087 0.13889268
000370 3d f6 49 3d 58 2a e2 bc 84 5e 25 3c b6 64 e0 3c
       0.049307097 -0.027608082 0.010093335 0.027391773
000380 75 c0 ed 3d 69 04 f9 bd 49 a7 ab 3d ce 85 ce bc
       0.11608974 -0.12159044 0.083815165 -0.025210287
000390 33 7d bf bc 25 0c 76 bd f7 be 02 be 24 a0 fc 3d
       -0.02337513 -0.060070176 -0.1276816 0.12335232
0003a0 52 ca 4e 3d a2 89 3c bd b8 17 54 3a e1 64 4e be
       0.050485916 -0.046029694 0.00080906926 -0.2015567
0003b0 c2 89 18 3d 3f e8 4e be 44 69 16 3d b8 82 34 be
       0.03724075 -0.20205782 0.036721483 -0.1762799
0003c0 34 fc 0b bc 42 ad 75 3d 91 12 1a 3d 09 cf ca bc
       -0.008544017 0.059979685 0.037615363 -0.024756925
0003d0 8e 2c 1e be 22 0e b3 3b 19 56 e0 bd 66 7f dd bd
       -0.15446684 0.0054643312 -0.10953922 -0.10815315
0003e0 73 b8 ee 3c 8f c2 aa bd 08 28 09 bc ee ee 99 bd
       0.029140687 -0.0833789 -0.008371361 -0.07516275
0003f0 d9 b6 18 bd f2 aa fe 3c 57 a5 e6 bb 69 57 2a be
       -0.037283752 0.031087372 -0.007038753 -0.16634907

a2c_network.mu.bias f4 [12]
000000 c5 13 d7 3d 41 dc c7 3c 00 03 e0 3c 37 d8 f4 bd
       0.105018176 0.024397017 0.02734518 -0.11955302
000010 dd f5 9d bd 1f 44 71 3d ec 82 d0 3b 93 0b 26 bb
       -0.0771291 0.058902856 0.0063632634 -0.0025336489
000020 8e 1b b1 bb 63 12 81 3d ff bb 15 3c 7d e3 b3 3d
       -0.005404896 0.06302335 0.00913906 0.08783624

exp_avg f4 [12]
000000 66 4b 51 ba 86 1c 2e ba 10 dc fe 3b dd 43 af bb
       -0.00079839525 -0.00066418236 0.0077776983 -0.005348666
000010 7c a2 ef ba 72 b1 33 3b 81 e1 f7 ba b0 20 0c bb
       -0.0018282677 0.0027418998 -0.001891181 -0.0021381788
000020 37 e8 4d 3b 16 71 4f b9 a3 ff b6 3a ce 4b 3b 3a
       0.0031418928 -0.00019783186 0.0013961684 0.00071447797

exp_avg_sq f4 [12]
000000 69 5d 14 38 96 d9 1d 38 ba e7 31 38 30 50 22 38
       3.5372945e-05 3.763436e-05 4.24159e-05 3.869849e-05
000010 bf c0 2a 38 60 a3 34 38 be 35 2c 38 11 57 31 38
       4.0710667e-05 4.30675e-05 4.1058047e-05 4.2281175e-05
000020 c7 bd 2b 38 a7 4c 22 38 0f f6 18 38 f3 98 18 38
       4.094632e-05 3.8695198e-05 3.6468784e-05 3.638207e-05
