OmniIsaacGymEnvs/omniisaacgymenvs/runs/Naranjelio/nn/last_Naranjelio_ep_200_rew_-0.5334504.pth (torch, 672807 bytes, 36 tensors)

value_mean_std.running_mean f8 [1]
0	0xbfcd5fdc2be60fe1	-0.22948791640749192

value_mean_std.running_var f8 [1]
0	0x3fc8350ba90a8aec	0.1891188216587446

value_mean_std.count f8 []
0	0x4142c00080000000	2457601.0

running_mean_std.running_mean f8 [48]
0	0xbfa2b5d7a2db6ec9	-0.036543596868538204
1	0x3fa26823bdc1d3c5	0.03595077220317181
2	0xbfe899599fc49b4f	-0.7687194939106606
3	0xbfc52c1284a0817c	-0.16540748096396019
4	0x3f690e2c7618ef84	0.003058516348373121
5	0xbf95ad0820e5f766	-0.02116787625117613
6	0x3f571409d631d26d	0.0014085861264706804
7	0xbfd5309cef6baef8	-0.33109210377618536
8	0xbfe7148e5c2831b4	-0.7212592887822695
9	0x3f7a6e88e7eb0b89	0.006453070439138461
10	0x3f9a6747627a7c77	0.025784602533005043
11	0x3f6a3bb7d2592ec7	0.003202303911882118
12	0xbfe004ec8f8c214d	-0.5006010821971728
13	0x3f9b02a1fb660711	0.02637723061480474
14	0xbf30a026b6f8d0b1	-0.00025368638214052624
15	0x3fbb99289451e39b	0.10780576344576646
16	0xbfb6644e71131f86	-0.0874680543957976
17	0xbfc410c28539e46c	-0.1567614698904295
18	0xbfc3fd1fd2d8c189	-0.15616224093674827
19	0xbfe7411f633c3158	-0.726699537104234
20	0xbf83c9eac50121db	-0.009662469994638314
21	0x3f850662af0863e4	0.010266085592819559
22	0x3fe16153706711ea	0.5431306071628204
23	0xbf89cc9008785179	-0.012597203501208952
24	0xbfacacee46e239a9	-0.056006857064051126
25	0x3f909d9ec1c51465	0.016226273133061037
26	0x3efaf15186bfeb2e	2.5694513553257952e-05
27	0xbf877bd3036a8185	-0.011466644803761703
28	0xbf92d01d2df1db6d	-0.018372016839261308
29	0xbfaac21078d99329	-0.052261843445000906
30	0xbfaa9dbde936b989	-0.051984724729993444
31	0xbfa0554487865f2f	-0.031900540870252285
32	0x3f89d7a65e47c45e	0.01261835074635281
33	0x3f42d362abf752fd	0.000574515513955903
34	0x3fb0e2fe7836b1ea	0.06596365389731998
35	0xbf40a8181ceda5b9	-0.000508319639135716
36	0xbfda08bf747fb580	-0.40678392769662963
37	0xbfb39c597546bfbd	-0.07660445321266614
38	0xbfb544da77cb6370	-0.08308186936063833
39	0xbfb136ceb9ac03be	-0.06724254639631419
40	0xbfcf6096cc793cbe	-0.24513516410886454
41	0x3fd2510dfe749644	0.2861971840778532
42	0x3fd048f711f605da	0.2544534373665478
43	0x3fa51ad6674f04bb	0.04122037898151506
44	0x3fc82fec3a05523a	0.18896248658224285
45	0xbfbc080fa0266b7f	-0.10949800167001732
46	0x3fb3df05be712fde	0.07762180232492663
47	0xbfcca3cde9e53b40	-0.22374891205478242

running_mean_std.running_var f8 [48]
0	0x3fdfeb490ab32f5f	0.49873567624012155
1	0x3fdeefecd56f4221	0.48339386790488176
2	0x3ff05a3049b68c35	1.0220187072197977
3	0x3fe2c113cd58ac21	0.5860690127059379
4	0x3fe53cfc1fa8be25	0.6636944406836319
5	0x3fdc6436d8b3ac12	0.4436165920475911
6	0x3f93f18589e7484c	0.019476019422491483
7	0x3fc573f0f112073e	0.1676007439710307
8	0x3fc77463eee37d4e	0.18323945202335284
9	0x4014a715a9655c6f	5.163168570338811
10	0x3ff5b3a1b0bbac46	1.3563553718220347
11	0x3f935dcf3e416747	0.018912542509816246
12	0x3fd88d931d13a741	0.383641031642231
13	0x3f986b30cbe30dab	0.02384639973094031
14	0x3f41044088bf68f7	0.0005193057163481997
15	0x3fb024c58307ad17	0.06306108902906647
16	0x3f91b39e61668053	0.0172867533634647
17	0x3f7b001642dc666c	0.006591879804341266
18	0x3f770004189a5799	0.005615249634180496
19	0x3ffdd04ef84c54b6	1.8633565615794345
20	0x3faae6b6a8eac495	0.05254145442939621
21	0x3f60031a6340e237	0.0019546046624123975
22	0x3fd986d09ca7ab54	0.39885344789825194
23	0x3f453ba08b37f4d2	0.0006479772477515861
24	0x3f5c15989f95e252	0.0017141333067610853
25	0x3f70d34fc60256aa	0.004107772460107443
26	0x3eff76e2037b2021	3.0006776994523477e-05
27	0x3f66b5fabd7f0e0f	0.0027723214406891804
28	0x3f6cc624a1bd38f4	0.003512450739356793
29	0x3f641dd2d6786bbc	0.0024556272435467246
30	0x3f600c6515007b0e	0.0019590353258672815
31	0x3fa9c90339906318	0.0503617294090814
32	0x3f71bd7a73b091d4	0.004331091239724267
33	0x3f0d2a3d17a88720	5.562781275992982e-05
34	0x3f5ae6a7109aefaf	0.0016419059269727578
35	0x3f108759487bc289	6.305200997381624e-05
36	0x3fdebe884eba7eb5	0.4803791779358833
37	0x3fe20d29e535a56c	0.5641068913220528
38	0x3fe2d9b579c0e3ea	0.5890757921216594
39	0x3fe556ca78adf8ec	0.6668445927641904
40	0x3fe10e374e20a13e	0.5329853559424362
41	0x3fe0b94aaaad96cd	0.5226186116749091
42	0x3fe1031c7f0feb5f	0.5316297990496927
43	0x3fe15556aa5fd44b	0.5416673019050305
44	0x3fe045bafaa58e6a	0.5085120101397937
45	0x3fe1e26840b363fc	0.5588876022039808
46	0x3fe1e415856f8849	0.5590922933736319
47	0x3fe1598274cba1c8	0.5421764641915212

running_mean_std.count f8 []
0	0x4132c00100000000	1228801.0

a2c_network.sigma f4 [12]
0	0xbde8db70	-0.113699794
1	0xbe9ad67f	-0.30241773
2	0xbd027783	-0.031852257
3	0xbe975f85	-0.29565063
4	0xbd63a9ec	-0.055581972
5	0xbe38dd10	-0.18053079
6	0xbe98a95d	-0.29816714
7	0xbdc9bb5b	-0.09850188
8	0xbe368235	-0.17823108
9	0xbce8d827	-0.028423382
10	0xbe13a2c5	-0.1441756
11	0xbcb0c27d	-0.021577114

a2c_network.actor_mlp.0.weight f4 [256, 48]
0	0x3e3231f2	0.17401865
1	0xbe3032dc	-0.17206901
2	0xbe63475a	-0.22195187
3	0x3d267a9f	0.040644284
4	0xbcb2d0fd	-0.021828169
5	0x3e5a880a	0.21340957
6	0xbc056bd2	-0.008143382
7	0x3e1aa119	0.15100516
8	0x3c3e4a0d	0.011614335
9	0x3cf6cfe1	0.030128421
10	0x3e5b2833	0.21402054
11	0xbdd8b6cc	-0.10581741
12	0xbd0003d7	-0.031253662
13	0xbde601de	-0.11230825
14	0x3e25bc7b	0.16185181
15	0xbd8221af	-0.06354081
16	0x3dc885c8	0.09791142
17	0xbd66c364	-0.056338683
18	0x3db7b52f	0.08970105
19	0xbd867752	-0.06565727
20	0xbd7b8d5f	-0.06141412
21	0xbd85746a	-0.06516345
22	0x3e1d2207	0.15345012
23	0x3d6cc0b4	0.057800964
24	0xbb710cca	-0.0036781305
25	0xbde7f04a	-0.113251284
26	0xbe54de7f	-0.20788
27	0xbda634a7	-0.081155114
28	0xbd5b8034	-0.05358906
29	0x3d6a1393	0.057147574
30	0x3d80fd8f	0.062983625
31	0x3e27e080	0.16394234
32	0xbde0b206	-0.10971455
33	0xbdd6bdcf	-0.10485422
34	0x3d6dc1c4	0.058046117
35	0xbd5e4316	-0.054263197
36	0x3d9a436b	0.0753239
37	0xbccdd287	-0.025124801
38	0x3e0b44e9	0.13600506
39	0xbd19e540	-0.037572145
40	0xbd9f0086	-0.07763772
41	0x3de65126	0.112459466
42	0x3da5da6d	0.08098302
43	0xbd175fd6	-0.03695663
44	0xbc670840	-0.014101088
45	0x3da986cb	0.08277663
46	0xbda1951a	-0.07889767
47	0xbcd271f2	-0.025689099
48	0x3e724047	0.23657332
49	0xbdda20bf	-0.10650777
50	0x3d4bdccd	0.04977112
51	0xbdda4bce	-0.1065899
52	0xba875e31	-0.0010327754
53	0x3db06650	0.086132646
54	0xbc655123	-0.013996395
55	0xbd8d1946	-0.06889586
56	0xbc6075f8	-0.013700001
57	0xbefaff21	-0.49022773
58	0xbe200950	-0.15628552
59	0xbd37e5cc	-0.044896886
60	0xbe1fe67b	-0.15615265
61	0xbdd15663	-0.10221555
62	0x3dbbd07d	0.09170625
63	0xbcb21081	-0.021736385
64	0x3cc7b477	0.024378045
65	0xbddb78e7	-0.1071642
66	0xbd87dbaa	-0.066336945
67	0xbd2394ec	-0.039936945
68	0x3cea04ef	0.028566806
69	0xbe042d22	-0.12907842
70	0xbd9b58c4	-0.0758529
71	0xbdf112fc	-0.11771199
72	0x3cdf75ad	0.027277792
73	0xbdae629b	-0.08514901
74	0xbda6279b	-0.08113023
75	0xbd748961	-0.059701327
76	0xbd52fbf0	-0.051509798
77	0xbddab179	-0.106783815
78	0xbd5d106e	-0.053970747
79	0xbd96bbdc	-0.0736005
80	0x3dacfafa	0.084463075
81	0xbdf63de4	-0.120235234
82	0x3db7f7d9	0.0898282
83	0x3cd1cd47	0.02561058
84	0xbd57ef7d	-0.05271863
85	0x3dc41dd7	0.09576004
86	0xbc801361	-0.01563424
87	0xbd946a77	-0.07246869
88	0xbd8b1041	-0.067902096
89	0xbd2fb51b	-0.042897325
90	0xbcdd8e99	-0.027045535
91	0x3cb1f0ed	0.021721328
92	0x3cbc6f9b	0.023002436
93	0xbd8b3bde	-0.06798528
94	0xbcdc8cd7	-0.026922626
95	0xbd8a12b0	-0.067418456
96	0x3b66e902	0.0035234098
97	0xbd91b78e	-0.071150884
98	0x3de9f59a	0.11423798
99	0x3e384385	0.17994507
100	0x3e640fd5	0.22271664
101	0xbe34438c	-0.17603892
102	0x3ccfefdb	0.025382927
103	0xbd4862c2	-0.048922308
104	0xbd40f82b	-0.04711167
105	0xbe814124	-0.2524501
106	0x3e6d2f4a	0.2316257
107	0xbdc7d318	-0.0975706
108	0x3d01e51b	0.031712633
109	0x3d173685	0.03691723
110	0x3e31f211	0.17377497
111	0xbd816521	-0.06318117
112	0x3d940306	0.07227139
113	0x3ced6728	0.028979853
114	0x3cb854af	0.022501318
115	0xbe32b77c	-0.17452806
116	0x3bbbded8	0.005733352
117	0x3bc5ab45	0.00603238
118	0xbd37470c	-0.04474549
119	0x3da55793	0.08073344
120	0x3d372779	0.04471538
121	0xbe492795	-0.19644006
122	0xbd960901	-0.07325936
123	0xbce8a144	-0.02839721
124	0x3db1cba9	0.08681423
125	0x3cb16cd9	0.021658348
126	0xbcc8e7e0	-0.02452463
127	0xbd1adea2	-0.037809975
128	0xbe15f84d	-0.146455
129	0x3d7ca901	0.061684612
130	0x3d51c9ad	0.051217724
131	0xbe169ca0	-0.14708185
132	0xbd469813	-0.048484873
133	0x3d961eed	0.073301174
134	0xbc9a6126	-0.018845152
135	0xbd2b7c07	-0.04186633
136	0x3dda4875	0.10658351
137	0x3d1e2512	0.03860957
138	0x3dee762d	0.11643634
139	0xbd0d4bce	-0.03449612
140	0xbca21d67	-0.01978941
141	0xbd8934f8	-0.06699556
142	0x3c345696	0.011006972
143	0x3c4ef9bf	0.012632786
144	0x3da1ed2b	0.07906564
145	0x3cc3d1be	0.023903724
146	0x3b6fc475	0.0036585603
147	0x3d051f01	0.03250027
148	0xbce1e988	-0.027577177
149	0xbd96a661	-0.07355953
150	0xbc798740	-0.01523
151	0x3d541965	0.05178203
152	0xbdefabf8	-0.11702722
153	0xbdda9615	-0.10673157
154	0x3ddb93ba	0.10721536
155	0x3ddd6475	0.10810176
156	0x3d27675b	0.04087005
157	0xbde1b0c8	-0.110200465
158	0x3cbe9c11	0.023267778
159	0xbe408f6a	-0.18804708
160	0xbcfb36b1	-0.030665727
161	0x3dd7c541	0.1053567
162	0x3e1cc6aa	0.1531016
163	0x3db8ced3	0.090238236
164	0xbe207d5a	-0.15672818
165	0xbe136b8d	-0.14396496
166	0xbda83ec9	-0.082151
167	0x3e62479f	0.22097634
168	0x3db8a450	0.09015715
169	0xbdbce9d9	-0.092242904
170	0x3cc0705f	0.023491083
171	0xbdf69910	-0.12040913
172	0xbe641326	-0.2227293
173	0x3d111a3a	0.035425402
174	0xbdc4d938	-0.09611744
175	0xbd2a43e8	-0.041568667
176	0xbda23df1	-0.07921971
177	0x3d265920	0.04061234
178	0x3e0a884b	0.13528554
179	0x3d6d3715	0.05791386
180	0xbd8ec1b5	-0.069705404
181	0xbe05ec51	-0.13078429
182	0xbde88b70	-0.113547206
183	0x3df3b17c	0.11899087
184	0x3e155c83	0.14586072
185	0x3dd0baa8	0.10191852
186	0xbcbf511a	-0.023354102
187	0xbd3cf5f3	-0.046132993
188	0xbe1f2495	-0.15541299
189	0xbdcdcab2	-0.10048427
190	0xbe183152	-0.14862564
191	0xbe0d2964	-0.1378532
192	0x3d478493	0.048710417
193	0x3cb0dc6a	0.021589477
194	0x3d715996	0.058923326
195	0xbd865e90	-0.06561005
196	0xbd1daece	-0.038496785
197	0xbdfeab58	-0.12435025
198	0xbde5f020	-0.11227441
199	0x3cb76461	0.022386732
200	0x3d88921d	0.06668494
201	0xbe71bf8c	-0.23608226
202	0x3e10c8eb	0.14139144
203	0xbe0554ef	-0.13020681
204	0xbdcd0f7b	-0.10012718
205	0xbe42902b	-0.19000308
206	0xbd084e5d	-0.033277858
207	0xbdfd5c57	-0.12371128
208	0x3d7f7b5e	0.06237351
209	0xbdf76e5e	-0.12081598
210	0x3d609497	0.054829206
211	0x3b85bcb4	0.004081333
212	0x3d5c15f6	0.05373188
213	0xbdaec706	-0.085340545
214	0x3e2e35a1	0.17012645
215	0xbe1dbb01	-0.15403368
216	0x3d4255bf	0.047445055
217	0x3e0cbe41	0.13744451
218	0xbdd7896b	-0.10524257
219	0x3d824618	0.063610256
220	0x3b9607f3	0.0045785843
221	0xbd4d1005	-0.050064106
222	0x3e0ac0a0	0.13550043
223	0xbe3916a7	-0.18075047
224	0x3db626ff	0.08894157
225	0x3d8b8eab	0.06814321
226	0x3df4e790	0.119582295
227	0xbc0c3866	-0.008558368
228	0xbe07c2a4	-0.13257843
229	0x3d9f2b9e	0.07771991
230	0x3e11cdf6	0.14238724
231	0xbd8ff2ae	-0.07028709
232	0x3d552360	0.05203569
233	0xbd70b452	-0.058765717
234	0xbd1867c9	-0.037208352
235	0xbce1fdd3	-0.027586853
236	0xbd8d2972	-0.06892671
237	0xbdbf2096	-0.09332387
238	0xbdb300d0	-0.08740389
239	0xbd0b7799	-0.034049604
240	0x3e0a6edb	0.1351885
241	0x3c4908c2	0.012270154
242	0xbd13d8bc	-0.036095366
243	0xbe0576cd	-0.130336
244	0xbdcbaec2	-0.09945442
245	0xbdad5ba8	-0.08464748
246	0x3d5ed193	0.054399084
247	0xbd29b6f7	-0.041434254
248	0xbe5d3056	-0.2160047
249	0xbd1da9cb	-0.038492005
250	0xbd8ba2b4	-0.068181425
251	0xbc3a5c35	-0.011374523
252	0x3d233a90	0.03985077
253	0x3e0d8b34	0.13822633
254	0xbd2c8b1b	-0.04212485
255	0xbe1488b4	-0.14505273

a2c_network.actor_mlp.0.bias f4 [256]
0	0x3cbed0d0	0.023292929
1	0xbd2bd664	-0.041952506
2	0x3da9f4b9	0.0829863
3	0xbd8250fe	-0.06363104
4	0xbde6a8df	-0.11262678
5	0x3c1b2180	0.009468436
6	0x3d8c736f	0.06857955
7	0xbd21a904	-0.039467826
8	0xbcde4879	-0.027134167
9	0xbd63657c	-0.055516705
10	0xbbb24270	-0.005440049
11	0x3d3836fb	0.04497431
12	0x3cdc411a	0.026886512
13	0x3d53d1ce	0.051713757
14	0x3ddc823d	0.107670285
15	0x3c97ee4f	0.018546252
16	0xbd76be0f	-0.060239848
17	0xbd430775	-0.047614533
18	0xbd31e91f	-0.043435212
19	0xbe08e785	-0.13369568
20	0xbc8f0d87	-0.017462505
21	0xbd8be5f8	-0.068309724
22	0x3e085d51	0.13316847
23	0xbd8d6ee2	-0.06905915
24	0x3d5e3c9e	0.054257028
25	0x3d9b115c	0.075716704
26	0x3d7223b3	0.059116077
27	0xbd8136aa	-0.063092545
28	0xbd25d193	-0.04048307
29	0x3ddf40fe	0.10901068
30	0xbd8eb63f	-0.069683544
31	0xbe1ff414	-0.15620452
32	0x3d142e97	0.036177244
33	0x3d87461a	0.06605168
34	0x3d73d1f5	0.059526403
35	0xbbf0ed96	-0.007352541
36	0xbd7076c6	-0.05870702
37	0x3d8f70aa	0.07003911
38	0xbe45adca	-0.19304577
39	0xbd267396	-0.040637575
40	0xb8851af1	-6.3469524e-05
41	0x3caf7558	0.021418259
42	0xbc9eafc4	-0.019370921
43	0xbd812bfc	-0.063072175
44	0xbbf29c6d	-0.0074039013
45	0xbdf8601b	-0.12127706
46	0x3e1098f5	0.14120848
47	0xbe0b870d	-0.13625737
48	0x3c295647	0.0103355115
49	0x3c848b5c	0.016179733
50	0xbd0b58e2	-0.034020312
51	0x3e201c0c	0.15635699
52	0xbb08b433	-0.002085936
53	0xbdb056cc	-0.08610305
54	0x3e1e1a0c	0.15439624
55	0x3e3dd9a5	0.18540056
56	0xbd092f98	-0.033492655
57	0xbc6dae47	-0.014506883
58	0xbd6e7574	-0.05821748
59	0xbdd7facc	-0.105458826
60	0x3dd8f6cf	0.1059395
61	0x3c73f1c1	0.014889182
62	0x3df9ec4a	0.12203272
63	0x3e446495	0.19178994
64	0xbdd1c425	-0.1024249
65	0x3c4e9830	0.0126095265
66	0xbcb5a955	-0.02217547
67	0x3cba1c82	0.022718672
68	0xbc72d7da	-0.014821971
69	0xbd7bd94e	-0.061486535
70	0x3c755f96	0.014976403
71	0xbda96bc2	-0.08272506
72	0x3d06a761	0.03287447
73	0xbdc267e8	-0.09492475
74	0x3e44e6c1	0.1922865
75	0x3c43a54d	0.011941266
76	0x3e713d4d	0.2355854
77	0xbd0b1aff	-0.033961292
78	0xbdfddbfb	-0.123954736
79	0xbe352ae5	-0.17692144
80	0x3c52073b	0.012819107
81	0x3d0ff451	0.035145108
82	0x3dd775a7	0.10520487
83	0xbd517d79	-0.05114505
84	0x3d3e2dfe	0.04643058
85	0xbd94a486	-0.07257943
86	0x3da6ad69	0.08138544
87	0x3d21aea5	0.039473195
88	0xbc41be29	-0.011825123
89	0x3dccf5a0	0.10007787
90	0x3d68ba54	0.05681832
91	0x3d4ff6bf	0.050772425
92	0x3d131596	0.035909258
93	0xbda322fa	-0.079656556
94	0x3df79b75	0.12090198
95	0x3e40a76f	0.18813871
96	0xbe0b1830	-0.13583446
97	0x3d495f19	0.049162958
98	0x3da264b2	0.07929362
99	0xbd0a49f3	-0.03376193
100	0xbcee31fb	-0.029076567
101	0x3d2d35a0	0.04228747
102	0xbd80e743	-0.0629411
103	0xbcbed72c	-0.023295961
104	0xbe1a0e15	-0.15044434
105	0x3dc68615	0.09693543
106	0xbe238437	-0.15968405
107	0xbd35cc6a	-0.044384398
108	0x3d639c28	0.055568844
109	0x3e2c22fa	0.16810217
110	0x3c042d96	0.008067509
111	0x3e4b27b5	0.19839366
112	0x3d114bf3	0.03547282
113	0x3d809572	0.062785044
114	0x3d4b1a6e	0.049585752
115	0x3d6e6738	0.058203906
116	0x3e0650d5	0.13116772
117	0x3e231d5b	0.15929167
118	0x3c677e2d	0.014129204
119	0x3c0b2107	0.008491761
120	0x3d9acdf6	0.07558815
121	0xbd074beb	-0.033031385
122	0x3c99c868	0.018772319
123	0x3d9bcaa0	0.07607007
124	0x3bef6150	0.0073053017
125	0x3cf5a47d	0.02998566
126	0x3e355684	0.17708784
127	0xbdb89709	-0.09013183
128	0x3d6212fb	0.055193882
129	0x3da74546	0.0816751
130	0xbdc156c2	-0.09440376
131	0xbe407a9f	-0.18796776
132	0x3da4c20e	0.080448255
133	0xbde0f011	-0.10983289
134	0x3e1828e8	0.14859354
135	0xbe01a45f	-0.12660359
136	0x3d6abdc2	0.057309873
137	0xbdd2ae9b	-0.102872096
138	0xbd82474a	-0.063612536
139	0x3e070055	0.1318372
140	0xbdfa40f0	-0.12219417
141	0x3bcedece	0.0063131815
142	0x3e074f0f	0.13213752
143	0xbd4e2e16	-0.05033692
144	0xbdc34426	-0.09534483
145	0xbdffa3b2	-0.12482394
146	0xbdb791f7	-0.089633875
147	0xbd6fde8f	-0.058561858
148	0x3c43c75b	0.0119493855
149	0x3d1ae670	0.03781742
150	0xbd121227	-0.035661843
151	0xbda93847	-0.08262687
152	0x3d82429e	0.063603625
153	0x3d878101	0.066164024
154	0x3c353032	0.011058854
155	0x3d444ff4	0.04792781
156	0xbd6ef391	-0.05833775
157	0x3de47a5d	0.111561514
158	0x3d509094	0.05091913
159	0xbd635365	-0.055499453
160	0xbe0c4aa4	-0.13700348
161	0xbda12d02	-0.07869913
162	0xbcd1635e	-0.025560077
163	0x3d19a3b6	0.037509643
164	0x3d203c11	0.039119784
165	0x3c836b1a	0.016042281
166	0x3da0567a	0.07828994
167	0xbce945c1	-0.028475644
168	0xbda8cd47	-0.082422785
169	0x3da98886	0.08277993
170	0xbb44afe7	-0.0030012073
171	0xbc6286d2	-0.013826089
172	0xbdf61034	-0.12014809
173	0x3e1c7b39	0.1528138
174	0x3d8b30dc	0.067964286
175	0x3d5a4327	0.053286698
176	0x3d1f39dd	0.038873542
177	0x3e2a3439	0.16621484
178	0xbd136e1b	-0.035993677
179	0x3de3abc3	0.11116745
180	0xbc9be01e	-0.019027766
181	0x3c368a97	0.011141441
182	0x3daee569	0.0853985
183	0x3d987ff4	0.0744628
184	0xbc821fe2	-0.015884344
185	0x3d5694ae	0.052387886
186	0x3c82c4fc	0.01596307
187	0x3b61f36d	0.0034477368
188	0xbd6c5350	-0.05769664
189	0x3de1134c	0.10990009
190	0xbc08c1e8	-0.008347012
191	0xbcce092d	-0.02515086
192	0xbd490fa8	-0.049087197
193	0x3e215797	0.15756069
194	0x3e04ea00	0.12979889
195	0x3cc13bdf	0.02358812
196	0xbd2e4a56	-0.04255136
197	0xba431ef2	-0.0007443271
198	0x3e016cc8	0.12639153
199	0x3d14edc4	0.036359563
200	0x3e2237ef	0.1584165
201	0xbc4951bd	-0.012287554
202	0xbe5db901	-0.21652605
203	0x3d997bfd	0.07494352
204	0xbe0e3867	-0.13888703
205	0x37c127bc	2.3025896e-05
206	0xbe05c3ec	-0.1306302
207	0xbe01b94d	-0.12668343
208	0x3d624af1	0.05524725
209	0x3d0a71ff	0.03380012
210	0xbe888f12	-0.26671654
211	0xbd82a2dc	-0.06378719
212	0xbd184fca	-0.037185468
213	0x3d6fa1aa	0.058503784
214	0xbd91511f	-0.07095551
215	0xbe16662b	-0.14687411
216	0xbd7affd9	-0.06127915
217	0x3df45cee	0.119317874
218	0xbe3cf116	-0.18451342
219	0xbb5af613	-0.0033410832
220	0x3d288c3d	0.041149367
221	0xbdc8d93d	-0.0980706
222	0x3cacef1f	0.021110116
223	0xbd3452ff	-0.044024464
224	0x3d1a76c7	0.03771093
225	0xbd946865	-0.07246474
226	0xbdb80ac3	-0.08986428
227	0xbe1d711e	-0.15375182
228	0xbdd6e7ec	-0.10493454
229	0xbdc3d34f	-0.09561788
230	0x3dccf3d9	0.10007448
231	0x3dd11341	0.102087505
232	0x3dc5f7ad	0.09666381
233	0x3e2596dd	0.16170831
234	0x3d02829b	0.031862836
235	0x3d628c85	0.05530979
236	0x3dc3bd45	0.09557585
237	0xbe7a1fab	-0.24426143
238	0xbcb5ce70	-0.022193164
239	0xbe25394f	-0.16135143
240	0x3c89d4e2	0.016825143
241	0xbdb25b07	-0.08708768
242	0x3e6153a2	0.2200456
243	0x3be9e5b5	0.007137979
244	0xbda6f78b	-0.08152684
245	0x3d76f522	0.06029237
246	0x3c991a65	0.018689344
247	0x3d8e8509	0.06958968
248	0xbcbdf8e9	-0.023189979
249	0xbc9a279f	-0.018817721
250	0xbe2e6b3c	-0.17033094
251	0x3bf1ecdf	0.0073829736
252	0xbd6a2479	-0.05716369
253	0xbd1910e4	-0.037369624
254	0xbd8b13ce	-0.06790887
255	0xbdd11765	-0.1020954

a2c_network.actor_mlp.2.weight f4 [128, 256]
0	0xbd4bb891	-0.049736563
1	0xbd801347	-0.06253677
2	0xbd5f00fd	-0.054444302
3	0xbcedf502	-0.029047493
4	0x3cb6de5a	0.022322822
5	0xbd61c97f	-0.055123802
6	0x3b829f3e	0.0039862683
7	0xbc25a9d6	-0.010111293
8	0xbc74ecdf	-0.014949053
9	0xbd97c64c	-0.07410869
10	0xbd3253b4	-0.043536857
11	0x3c767dba	0.015044624
12	0xbd0c3690	-0.034231722
13	0xbd3697ac	-0.04457824
14	0xbd3eaf06	-0.046553634
15	0x3d1bdb76	0.03805109
16	0x3c8b9988	0.017040983
17	0x3d020eff	0.031752583
18	0xbd8b2a43	-0.0679517
19	0xbc5afb49	-0.013365575
20	0xbd449936	-0.047997676
21	0xbda5aff6	-0.080902025
22	0xbcc44aff	-0.023961542
23	0xbbf5369a	-0.0074833157
24	0xbce181a9	-0.027527647
25	0xbd0cf2d8	-0.03441128
26	0xbdca536f	-0.09879195
27	0xbaedd9be	-0.0018146557
28	0x3a9c7ca6	0.0011939004
29	0xbd95ddcb	-0.07317694
30	0x3c063dce	0.008193446
31	0x3c41a1fa	0.011818403
32	0x3c5afe8c	0.013366353
33	0x3c06f33b	0.008236702
34	0xbbd6afc5	-0.006551715
35	0xbe09fb28	-0.13474715
36	0xbdd88767	-0.10572701
37	0xbd738b1d	-0.05945884
38	0x3dba379d	0.09092639
39	0x3bac459b	0.005257321
40	0xbdae2e4c	-0.08504924
41	0x3cf0f4bb	0.029413572
42	0xbcbe2491	-0.023210796
43	0xbcb927d2	-0.022601996
44	0xbc71f753	-0.014768439
45	0xbd37a8ef	-0.044838842
46	0xbcb7eab6	-0.022450786
47	0xbc582449	-0.013192245
48	0xbdbe3348	-0.09287125
49	0xbc69285d	-0.014230815
50	0xbd486d6d	-0.04893248
51	0xbde98dd3	-0.11404004
52	0x3d5f40a4	0.054505005
53	0xbc78f6c6	-0.015195554
54	0xbdadcd01	-0.08486367
55	0xbdceaab7	-0.10091155
56	0xbd28b159	-0.041184757
57	0xbdb05954	-0.08610788
58	0x3c63b778	0.013898723
59	0xbd2c0ed3	-0.042006325
60	0xbd8e0660	-0.0693481
61	0x3bd46a25	0.00648238
62	0x38ecb069	0.00011286216
63	0x3cf9413d	0.030426616
64	0xbd4ae2c0	-0.049532652
65	0xbdd0e345	-0.10199598
66	0x3c8755e7	0.016520454
67	0xbc6c6129	-0.014427462
68	0x3cd43f72	0.02590916
69	0xbc6a1155	-0.014286359
70	0xbc8aefb1	-0.016959997
71	0x3cf289ca	0.029606719
72	0x3d16e806	0.03684237
73	0xbd6941d5	-0.056947548
74	0xbd3b37d9	-0.045707557
75	0x3bdae7e7	0.006680477
76	0xbd8bfa19	-0.06834812
77	0xbd1526bc	-0.036413893
78	0xbcbf2b9a	-0.02333622
79	0xbddf3c1a	-0.10900135
80	0xbcdaf963	-0.026730245
81	0xbda80d90	-0.08205712
82	0x3b7b06cc	0.0038303612
83	0xbda18301	-0.07886315
84	0xbcb042dc	-0.021516256
85	0x3d1d7583	0.038442146
86	0xbcd725b9	-0.026263105
87	0xbd0938f2	-0.033501573
88	0xbd2682ff	-0.04065227
89	0x3be897e6	0.007098186
90	0xbd86def2	-0.06585492
91	0xbd798d1a	-0.06092558
92	0x3d589cd1	0.052883927
93	0x3bbe37d4	0.005804995
94	0xbc9ffa47	-0.019528521
95	0xbdb1a72b	-0.08674463
96	0x3d1fad83	0.038983833
97	0xbddb425a	-0.10706015
98	0x3ba52b59	0.005040568
99	0xbd39be5e	-0.045347564
100	0xbdebef2d	-0.115202285
101	0xbcc08519	-0.023500966
102	0x3b87b264	0.004141139
103	0xbd0761e1	-0.03305233
104	0x3c130aee	0.008974774
105	0xbd9ed17d	-0.077548005
106	0xbd320980	-0.04346609
107	0xbd23a1b1	-0.039949123
108	0x3c5ecd90	0.013598815
109	0x3d3d68f7	0.04624268
110	0x3ac5dc65	0.001509559
111	0xbd33d9bf	-0.04390883
112	0x3c079281	0.008274675
113	0xbdf0bb93	-0.11754527
114	0xbd42ae3c	-0.047529444
115	0xbd43e06e	-0.047821455
116	0x3ca8027d	0.020508999
117	0xbd670e6f	-0.05641025
118	0x3d3ce2d5	0.04611476
119	0xbda6bcb6	-0.081414625
120	0xbe030d4d	-0.12798043
121	0xbd838802	-0.06422426
122	0xbd8b7237	-0.06808894
123	0xbd82c57c	-0.063853234
124	0x3cb1e8d9	0.021717476
125	0xbd3a17d3	-0.045432877
126	0xbd80a1f6	-0.062808916
127	0xbd0cdf81	-0.034392837
128	0x3c9ff3eb	0.019525489
129	0xbd45190f	-0.0481196
130	0xbcb3f283	-0.021966225
131	0x3d6d68f3	0.057961415
132	0xbd048652	-0.03235466
133	0xbc2f5ee0	-0.010703772
134	0xbd3e751c	-0.046498403
135	0xbcba4e68	-0.022742465
136	0xbc870581	-0.016482117
137	0x3d6b662c	0.057470486
138	0xbd909760	-0.070601225
139	0xbe124815	-0.1428531
140	0x3b2994d7	0.002587607
141	0x3c5cecbc	0.013484176
142	0xbd3da7fc	-0.04630278
143	0x3d1b3ca9	0.037899647
144	0x3d797088	0.060898334
145	0xbd310cf1	-0.043225233
146	0xbb943b6b	-0.0045236847
147	0x3bfe5adc	0.007762296
148	0x3d690310	0.056887686
149	0xbd24af9a	-0.04020653
150	0xbcb84b98	-0.022496983
151	0xbc0f4df9	-0.0087466175
152	0x3ce8da7d	0.028424496
153	0xbde2b3f1	-0.11069477
154	0xbd01ea50	-0.0317176
155	0xbdce6c4c	-0.1007925
156	0xbd0ff637	-0.03514692
157	0xbccbb4ef	-0.02486655
158	0xbdb77ca8	-0.08959323
159	0xbcd6cadf	-0.026219783
160	0x3cecb114	0.028893031
161	0x3c807e1d	0.015685135
162	0x3bd554ef	0.006510369
163	0xbcff7d41	-0.031187655
164	0x3c98ab77	0.018636448
165	0xb99d1c90	-0.00029966654
166	0x3d005490	0.031330645
167	0xbd3f89d0	-0.046762288
168	0xbd28725c	-0.041124687
169	0xbd2a231b	-0.041537385
170	0x3c18ae02	0.00931883
171	0xbc38d001	-0.011280061
172	0xbdcc79c4	-0.099841624
173	0xbe2a9b32	-0.16660765
174	0xbd4e25a4	-0.050328866
175	0xba05f77e	-0.00051104266
176	0xbcb1e5da	-0.021716047
177	0xbccd504b	-0.0250627
178	0x3d6674d5	0.056263763
179	0xbd755d63	-0.059903514
180	0x3cc248dd	0.023716385
181	0xbb38e78d	-0.0028214187
182	0xbdc68cf1	-0.09694851
183	0xbe01dd21	-0.1268201
184	0xbd41e7b3	-0.047340106
185	0xbd8323ff	-0.0640335
186	0x3cb32022	0.021865908
187	0xbd598ac8	-0.053110868
188	0xbd1be029	-0.038055573
189	0xbd80f3c2	-0.06296493
190	0xbd2f9782	-0.0428691
191	0xbd78bc3f	-0.0607264
192	0xbd5c39c5	-0.05376603
193	0xbdd08820	-0.10182214
194	0xbdfd8f38	-0.123808324
195	0x3d104227	0.035219338
196	0xbd6b12e2	-0.057391055
197	0xbddd549f	-0.10807156
198	0xbddde579	-0.10834784
199	0x3c88d374	0.016702391
200	0xbd644248	-0.055727273
201	0xbce704f2	-0.0282006
202	0x3ca3e3a8	0.020006016
203	0xbd91fe7d	-0.07128618
204	0xbcca12fb	-0.024667254
205	0x3c66450f	0.014054551
206	0xbb24d653	-0.0025152161
207	0x3db10dc7	0.08645206
208	0xbd6f24de	-0.05838477
209	0xbd56b65a	-0.052419998
210	0x3d6c3417	0.057666864
211	0x3d4413c2	0.047870405
212	0xbd3d1334	-0.04616089
213	0xbc7b9b1e	-0.015356807
214	0xbcc2f379	-0.023797737
215	0x3c538eef	0.012912496
216	0xbcb254ba	-0.021768916
217	0xbdfbef76	-0.12301533
218	0xbbd20199	-0.006408882
219	0xbb8a74a9	-0.0042253328
220	0xbcbbd5aa	-0.022929031
221	0xbdf3a161	-0.11896015
222	0x3cbc2649	0.022967475
223	0x3d0d0926	0.034432553
224	0xbd87ee0b	-0.066372
225	0x3c369f23	0.01114634
226	0xbbc6fc0c	-0.006072527
227	0xbc321922	-0.01087025
228	0xbc8ce298	-0.017197892
229	0xbd3a4001	-0.045471195
230	0xbd80e306	-0.06293301
231	0xbc4f2d7a	-0.01264512
232	0xbdb4f2b9	-0.08835358
233	0xbd9e5130	-0.07730329
234	0xbdb4bb76	-0.08824818
235	0x3c41fc3d	0.011839923
236	0xbd4062e1	-0.0469693
237	0x3cd0c2ab	0.02548345
238	0x3cd1dd12	0.02561811
239	0x3d0f7590	0.035024226
240	0xbcc8292b	-0.024433693
241	0xbd2a55c5	-0.041585702
242	0xbe1c3442	-0.1525431
243	0xbcf52581	-0.02992511
244	0xbdeb148d	-0.11478529
245	0xbdfc6852	-0.12324585
246	0xbd3f52b8	-0.046709746
247	0x3d08dc7b	0.03341339
248	0xbde1cfe2	-0.110259786
249	0xbd8bd68d	-0.06828032
250	0xbd003879	-0.031303857
251	0xbdaec91b	-0.085344516
252	0x3c968403	0.018373495
253	0xbd42024e	-0.04736548
254	0x3d0e26cd	0.034704972
255	0x3c11f873	0.008909333

a2c_network.actor_mlp.2.bias f4 [128]
0	0xbe62e00c	-0.2215578
1	0xbccd0ceb	-0.025030574
2	0xbcecf2fc	-0.028924458
3	0xbd6b9d59	-0.057523105
4	0xbb1cf940	-0.0023952276
5	0xbd112a29	-0.035440598
6	0xbd99f032	-0.07516517
7	0x3d3aed97	0.04563674
8	0x3d6d6ff4	0.057968095
9	0xbda8964a	-0.0823179
10	0x3c875b51	0.016523035
11	0xbd84cb9d	-0.06484149
12	0x3c7fc12b	0.01561002
13	0x3d246a5e	0.040140502
14	0x3dd25b81	0.10271359
15	0x3c20c135	0.009811689
16	0x3d5ec157	0.054383602
17	0xbd9d9a51	-0.07695449
18	0xbcd0877e	-0.025455233
19	0x3cdda48b	0.027056
20	0xbb9ec5df	-0.0048453654
21	0x3d10b202	0.03532601
22	0xbc2000cd	-0.009765816
23	0xbdaca625	-0.08430127
24	0xbe0afbce	-0.13572618
25	0xbd707f65	-0.058715243
26	0xbdcffaf5	-0.10155288
27	0xbcf268ba	-0.029590953
28	0xbdf14ec4	-0.117826015
29	0x3df5e92f	0.12007367
30	0xbe027223	-0.12738852
31	0x3d712068	0.058868796
32	0xbd88d565	-0.06681327
33	0xbdb74828	-0.089493096
34	0xbc2b0872	-0.010439025
35	0xbd383bc5	-0.044978876
36	0xbd7c4849	-0.061592374
37	0xbdb5e612	-0.08881773
38	0xbc8d524a	-0.017251153
39	0xbd853337	-0.06503909
40	0x3cda522d	0.026650513
41	0xbd01ae19	-0.031660173
42	0xbe3ba416	-0.18324313
43	0xbe21c5b1	-0.1579807
44	0x3c5a1844	0.013311449
45	0xbd660681	-0.056158546
46	0xbd595ac2	-0.05306507
47	0x3c151922	0.00910023
48	0x3d675d19	0.05648527
49	0x3c60d9d6	0.013723811
50	0xbcc7d4f2	-0.024393532
51	0xbe1c8bb5	-0.15287669
52	0x3d327934	0.04357262
53	0x3b975a3a	0.00461891
54	0xbc5f1333	-0.013615417
55	0xbc3968b9	-0.011316472
56	0xbd2cad9a	-0.042157747
57	0xbdc75f69	-0.09734995
58	0xbd4d263f	-0.050085302
59	0xbe54c97d	-0.20779987
60	0xbd6d28fb	-0.05790041
61	0xbcc80f24	-0.024421282
62	0xbd3efd65	-0.046628375
63	0xbb4bea57	-0.003111502
64	0xbe0b7d59	-0.13622035
65	0x3d67b01f	0.056564447
66	0xbdcbdf07	-0.099546485
67	0xbd2b8753	-0.041877102
68	0xbcb83f44	-0.022491105
69	0x3db138bc	0.08653399
70	0xbd275490	-0.04085213
71	0x3c8015c1	0.015635373
72	0xbe521684	-0.20516402
73	0xbe4c827a	-0.19971648
74	0xbd9d6977	-0.076861314
75	0x3d828c5f	0.0637443
76	0x3c37fc86	0.01122964
77	0xbd5cebd2	-0.053935833
78	0x3ced1c40	0.028944135
79	0xbcd3bcec	-0.02584692
80	0xbb3283e5	-0.002723926
81	0xbe593ae9	-0.21213879
82	0x3d817459	0.0632102
83	0x3bf035e2	0.007330642
84	0x3bbe850b	0.0058142
85	0xbe0863c6	-0.1331931
86	0xbd9d5cf0	-0.07683742
87	0x3b26e3e4	0.0025465423
88	0x3c3cd15c	0.011524525
89	0xbd4a2ad9	-0.04935727
90	0xbbe129ff	-0.0068714614
91	0xbbfe0adf	-0.007752761
92	0xbbc12185	-0.0058938884
93	0x3d35bac3	0.044367563
94	0x3de2670a	0.110548094
95	0xbd67bd04	-0.056576744
96	0xbc07f8b2	-0.00829904
97	0x3ccc7b97	0.024961276
98	0xbe1c6c9a	-0.15275803
99	0x3a202599	0.0006109118
100	0x3c0d4b44	0.008623902
101	0xbd7851a3	-0.06062473
102	0xbd1e19d9	-0.03859887
103	0xbe00695e	-0.12540194
104	0xbdb222c8	-0.0869804
105	0x3d0db25b	0.03459392
106	0xbe000d53	-0.12505083
107	0xbdad88e9	-0.08473379
108	0xbc34e8a3	-0.011041793
109	0xbe1358bc	-0.14389318
110	0x3d80fd12	0.06298269
111	0xbd84c0d7	-0.06482094
112	0xbd103a68	-0.03521195
113	0x3d4326d2	0.047644444
114	0xbc966c56	-0.018362205
115	0xbcf1abfe	-0.029500958
116	0xbc4d5e77	-0.012534729
117	0xbde07cc9	-0.10961301
118	0xbc71c859	-0.014757239
119	0x3b845b43	0.0040391996
120	0x3d1adb3c	0.037806734
121	0x3c6a3a3c	0.014296111
122	0xbe2c608a	-0.16833702
123	0x3d49f4fc	0.0493059
124	0xbdb520f9	-0.0884418
125	0xbc305919	-0.01076343
126	0xbda5fc05	-0.081047095
127	0xbddfffe7	-0.109374814

a2c_network.actor_mlp.4.weight f4 [64, 128]
0	0xbc08d1fc	-0.008350845
1	0x3b03019d	0.0019989975
2	0xbcdbc4ad	-0.02682718
3	0x3d8fa20e	0.07013331
4	0xbda271dc	-0.07931873
5	0x3d923b4f	0.071402185
6	0x3d270a00	0.04078102
7	0x3d039663	0.03212584
8	0x3d090337	0.03345033
9	0xbcdd47de	-0.027011808
10	0xbc07cdf1	-0.008288846
11	0x3dcc04c0	0.099618435
12	0x3d33e373	0.043918084
13	0x3d6351f3	0.055498075
14	0xbd5ae5f1	-0.053441945
15	0xb9d4c159	-0.00040579846
16	0xbc4cc3b6	-0.012497833
17	0x3da41abd	0.080129124
18	0xbd652564	-0.05594386
19	0x3c25a58d	0.010110271
20	0x3cd72604	0.026263244
21	0x3d732138	0.05935785
22	0xbcefc3ac	-0.029268108
23	0x3cc305e7	0.023806525
24	0xbd419b96	-0.04726752
25	0x3ce1ab4c	0.027547501
26	0x3d0c0832	0.034187503
27	0x3c914fdc	0.017738275
28	0x3e0daa41	0.13834478
29	0x3d01e168	0.031709105
30	0xbd58a609	-0.05289272
31	0xbcf77c4f	-0.030210642
32	0xbd330395	-0.043704588
33	0x3c174222	0.009232076
34	0x3de63f7c	0.112425774
35	0xbb85a2a7	-0.0040782276
36	0xbcb4839e	-0.022035416
37	0x3b21d59a	0.0024693967
38	0x3cab7901	0.020931723
39	0xbd229efd	-0.039702404
40	0xbd4b5751	-0.04964382
41	0xb9faef4e	-0.00047862012
42	0x3c916abc	0.01775109
43	0xbca7a622	-0.02046496
44	0x3cca8dec	0.024725877
45	0x3da5497c	0.08070657
46	0x3ce320fb	0.027725687
47	0xbddae621	-0.10688425
48	0xbdb41f49	-0.0879503
49	0xbdab85bf	-0.083751194
50	0xbc246894	-0.010034699
51	0xbbfd60e4	-0.0077324975
52	0xbcb0e4c3	-0.021593457
53	0x3c80e3cb	0.01573362
54	0x3c0bc661	0.008531184
55	0x3d40708c	0.046982333
56	0x3de29f16	0.110654995
57	0x3d8c3601	0.06846238
58	0x3dbbb013	0.09164443
59	0x3d72f02d	0.05931108
60	0xbd6d33a8	-0.05791059
61	0x3d1de6b6	0.0385501
62	0xbd1ae0c1	-0.037812
63	0xbc4d99f5	-0.012548913
64	0x3c8ea7bc	0.017413966
65	0x3cf95873	0.030437684
66	0xbd8597e1	-0.06523109
67	0xbd0f2481	-0.034946922
68	0x3d42e9ee	0.047586374
69	0xbb06668b	-0.0020507898
70	0xbdb22178	-0.0869779
71	0xbd6bcc5d	-0.057567943
72	0xbd737a15	-0.0594426
73	0x3e065f83	0.13122372
74	0xbd5b50eb	-0.053543966
75	0x3dd4ab23	0.10384204
76	0x3cdf6ec8	0.027274504
77	0x3d28ab9b	0.04117928
78	0xbd2d047f	-0.042240616
79	0xbc4e5918	-0.012594484
80	0xbd8ce182	-0.0687895
81	0x3c860dee	0.016364064
82	0xbdb52736	-0.088453695
83	0x3d2a9ab2	0.041651435
84	0xbd83b3a5	-0.06430749
85	0xbdc67878	-0.09690946
86	0xbde85f1f	-0.11346268
87	0xbdddce1f	-0.1083033
88	0x3d510a8e	0.051035456
89	0xbce7409c	-0.02822905
90	0xbd9a3361	-0.07529331
91	0x3da95dfc	0.08269879
92	0xbc8206df	-0.015872417
93	0x3d276591	0.040868346
94	0x3c0326fa	0.008004898
95	0xbbfee089	-0.0077782315
96	0x3db06c8b	0.08614453
97	0x3d447b42	0.04796911
98	0xbdae1e2b	-0.08501848
99	0x3cfb584d	0.030681754
100	0xbcd007b7	-0.025394304
101	0x3dd5a1ce	0.104312524
102	0x3d84c3eb	0.06482681
103	0x3d3d11ab	0.046159428
104	0x3a332226	0.00068333966
105	0x3da4d664	0.08048704
106	0xbda1ded5	-0.0790383
107	0xbd0e8518	-0.034794897
108	0x3d4f1f23	0.050566804
109	0x3c0fcfd1	0.008777575
110	0x3d83c813	0.064346455
111	0xbd293662	-0.04131163
112	0x3d84f57c	0.06492135
113	0x3dec779a	0.1154625
114	0xbd96fd6b	-0.073725544
115	0x3d906d26	0.070520684
116	0x3bfeb9ae	0.0077735996
117	0xbd4a6575	-0.049413163
118	0xbd3ada0f	-0.045618113
119	0x3d9d927b	0.076939546
120	0xbc96bdf6	-0.018401127
121	0xbd9b038b	-0.07569035
122	0x3e5027f7	0.20327745
123	0xbe07fa26	-0.13279018
124	0x3cd0d2f5	0.025491217
125	0xbd249991	-0.040185515
126	0xbd4f6a4f	-0.050638493
127	0xbcf0a8b8	-0.029377326
128	0xbd06a1d8	-0.03286919
129	0x3d474fa0	0.04865992
130	0x3c05bfb8	0.008163385
131	0x3d1c8803	0.03821565
132	0x3d2b87cf	0.041877564
133	0x3d364622	0.044500478
134	0x3d75dce2	0.060025103
135	0xbddad2ee	-0.10684763
136	0xbda904b0	-0.08252847
137	0xbce11eb9	-0.02748047
138	0xbdde69f7	-0.10860055
139	0xbd09fe8b	-0.033690017
140	0xbd642a15	-0.055704195
141	0xbd91e33d	-0.071234204
142	0xbdc35ef1	-0.09539593
143	0x3ac16ce0	0.0014757179
144	0x3c22985e	0.0099240225
145	0x3ddd0d0e	0.107935056
146	0xbbd37c66	-0.0064540384
147	0xbd79ca10	-0.060983717
148	0x3da3b9b1	0.07994402
149	0xbd9f19ef	-0.07768618
150	0xbd80182e	-0.06254612
151	0xbd906ed2	-0.07052387
152	0x3da22c63	0.07918622
153	0xbd531008	-0.05152896
154	0x3cc820de	0.024429735
155	0xbd0ff4d2	-0.03514559
156	0xbdaf7a28	-0.08568221
157	0xbc9a8aee	-0.018865075
158	0x3dc07816	0.093979046
159	0x3ccbe47b	0.024889221
160	0xbd832cf0	-0.064050555
161	0xbdaa3b47	-0.083120875
162	0xbe1111b1	-0.14166905
163	0xbdaac5e5	-0.08338527
164	0x3dbb943a	0.09159131
165	0xbc99b9c2	-0.018765334
166	0xba53240d	-0.0008054383
167	0xbda913da	-0.082557395
168	0xbd1c0f93	-0.03810079
169	0x3d7ae9ea	0.061258234
170	0xbd7890c6	-0.06068494
171	0x3d799741	0.060935263
172	0x3dada416	0.084785625
173	0xbd43539d	-0.04768716
174	0x3db819c1	0.08989287
175	0xbd1c7060	-0.038193107
176	0xbd740aa3	-0.059580456
177	0x3d4e4144	0.05035521
178	0xbd40113c	-0.046891436
179	0x3a4d780a	0.00078380166
180	0x3c0a0e48	0.0084262565
181	0x3d845966	0.06462364
182	0xbd86c079	-0.0657968
183	0x3d0dbe81	0.034605507
184	0x3de42f19	0.11141796
185	0xbcceddb7	-0.025252206
186	0x3dbdadd4	0.09261671
187	0x3e28b56d	0.16475458
188	0xbdaa069a	-0.083020404
189	0xbc625bbd	-0.013815817
190	0xbda30b7e	-0.07961176
191	0x3a1beb9e	0.00059478905
192	0x3db6fe3b	0.08935209
193	0xbd98c735	-0.07459871
194	0xbd8e84fb	-0.06958958
195	0x3db44a94	0.08803287
196	0xbd22f040	-0.0397799
197	0x3c31a45f	0.010842412
198	0x3d4359f4	0.047693208
199	0xbd81547b	-0.063149415
200	0xbcfcbf80	-0.030853033
201	0xbd9c6144	-0.076357394
202	0x3d30260b	0.04300503
203	0xbdc1cd19	-0.094629474
204	0xbd3c1da9	-0.045926724
205	0x3c63a3de	0.013894049
206	0x3d143342	0.036181696
207	0x3bcc17d3	0.006228426
208	0x3d72eb91	0.059306685
209	0xbbf9fde1	-0.0076291417
210	0x3da715a9	0.08158428
211	0xbdb8529c	-0.090001315
212	0x3caf28aa	0.021381695
213	0x3ba0a90c	0.0049029645
214	0x3d13b421	0.036060456
215	0xbe14f7c8	-0.14547646
216	0xbd3a7945	-0.045525808
217	0xbd60545c	-0.05476795
218	0x3ce9759c	0.028498463
219	0xbc65a5ff	-0.014016627
220	0xbc8bda8d	-0.017071987
221	0xbcd7cc10	-0.026342422
222	0xbd47048c	-0.04858832
223	0xbdea34ac	-0.114358276
224	0x3cce6622	0.025195185
225	0xbddd71a4	-0.10812691
226	0xbdbd9d93	-0.092585705
227	0xbdb76e83	-0.08956625
228	0xbd0cddab	-0.034391087
229	0xbda9a23d	-0.082828976
230	0xbdf73d7e	-0.120722756
231	0x3dbddd35	0.092707075
232	0x3b2f0d78	0.002671091
233	0xbd3a5860	-0.045494437
234	0xbd0432d8	-0.03227505
235	0xbca7aacb	-0.020467183
236	0xbc912b10	-0.01772073
237	0x3d5de264	0.05417098
238	0x3c768fb7	0.015048913
239	0xbdb6860c	-0.08912286
240	0x3c9afa25	0.018918106
241	0x3d002e0b	0.03129391
242	0xbc75afdb	-0.0149955405
243	0xbdb2c7e2	-0.08729531
244	0xbbadb4e0	-0.005301103
245	0xbcfb53a8	-0.030679539
246	0xbcbf6601	-0.023364069
247	0xbca166d4	-0.019702353
248	0xbc731c02	-0.014838221
249	0x3dbeda71	0.09319008
250	0x3c7dcb9d	0.01549044
251	0xbd346ad8	-0.044047207
252	0xbb0947e6	-0.0020947396
253	0x3cace279	0.021104084
254	0xbdc48290	-0.09595215
255	0xbd973baf	-0.073844306

a2c_network.actor_mlp.4.bias f4 [64]
0	0xbda4850f	-0.080331914
1	0xbc7d8d03	-0.015475514
2	0xbd77ab2a	-0.06046597
3	0x3a1d6a47	0.0006004911
4	0x3c35ec82	0.011103751
5	0x3d36165a	0.04445491
6	0xbb6c63e9	-0.0036070293
7	0xbd1bcbfb	-0.038036328
8	0xbd8689b5	-0.06569234
9	0x3ba16a7d	0.0049260245
10	0xbd8e0508	-0.069345534
11	0xbe012744	-0.12612635
12	0xbd445187	-0.047929313
13	0xbd48f92b	-0.04906575
14	0x3d264b52	0.040599175
15	0xbd63dad0	-0.055628598
16	0x3d5ca475	0.053867776
17	0xbce36bb7	-0.027761323
18	0xbc53c6f7	-0.012925855
19	0x3bf9602e	0.0076103425
20	0x3b7b1990	0.0038314797
21	0x3c0f8d57	0.008761725
22	0x3d6c306d	0.05766337
23	0xbd5d9888	-0.054100543
24	0x3c01074e	0.007875277
25	0x3c2befa0	0.010494143
26	0xbd936d2c	-0.07198557
27	0xbc15c93a	-0.009142214
28	0xbd8ec65a	-0.06971426
29	0xbd0825fb	-0.033239346
30	0x3b826cd0	0.0039802566
31	0xbdc8ac7f	-0.09798526
32	0x3c8ab35a	0.016931225
33	0xbd286735	-0.04111405
34	0xbd54868d	-0.05188613
35	0x3d7c47b1	0.061591808
36	0xbdb77151	-0.0895716
37	0xbd22ce4f	-0.039747532
38	0xbcef58f2	-0.029217217
39	0xbd3ab62f	-0.0455839
40	0xbcc25ad5	-0.023724953
41	0x3d00b615	0.031423647
42	0xbb69d34d	-0.0035678924
43	0xbd46df15	-0.04855259
44	0x3c7e247e	0.01551163
45	0x3cbcb4a4	0.023035355
46	0xbbd6e591	-0.006558128
47	0xbdf12e95	-0.11776463
48	0xbd8c2106	-0.06842236
49	0xbd35c085	-0.044373054
50	0xbc9f6389	-0.019456642
51	0xbd807dc7	-0.0627399
52	0xbd3e3eb4	-0.046446517
53	0xbad2fdda	-0.0016097382
54	0x3d1e08e3	0.038582694
55	0xbde696c4	-0.11259225
56	0x3db42d04	0.087976485
57	0xbbf48f1b	-0.0074633486
58	0xbcb80552	-0.022463474
59	0xbc885f02	-0.016646866
60	0xbdc042fe	-0.09387778
61	0x3d02e9b8	0.031961173
62	0xbd8bafe2	-0.06820656
63	0xbc745d6d	-0.014914853

a2c_network.value.weight f4 [1, 64]
0	0x3c63cb7b	0.013903494
1	0xbd9bf682	-0.07615377
2	0x3cd27328	0.025689676
3	0x3de6832b	0.11255487
4	0xbbd89805	-0.006609919
5	0xbd550e97	-0.052015867
6	0x3d61fba2	0.055171616
7	0xbe0385ee	-0.12844059
8	0x3c73dfe3	0.014884922
9	0xbd780cee	-0.060559206
10	0xbd061003	-0.032730114
11	0xbcbdf45e	-0.023187812
12	0xbca5ef5a	-0.020255733
13	0x3e06e707	0.13174067
14	0x3c08b5a0	0.008344084
15	0xbd0b2027	-0.03396621
16	0x3c0452f2	0.008076416
17	0xbd0f6d7a	-0.035016514
18	0xbd11e16b	-0.035615366
19	0x3dfc7fb5	0.12329046
20	0x3c331377	0.010929934
21	0xbd98894b	-0.074480616
22	0x3c9c27e4	0.01906199
23	0x3c6c166d	0.014409644
24	0xbbdd9b6c	-0.0067629125
25	0x3e115c04	0.14195257
26	0xbd8056d1	-0.06266559
27	0x3c1df1b4	0.009640146
28	0xbd276296	-0.040865503
29	0xbdc99cbf	-0.0984435
30	0xbd8f83d0	-0.07007563
31	0xbce897b4	-0.02839265
32	0xbc60425e	-0.013687698
33	0xbce79260	-0.02826804
34	0x3cbd4af4	0.02310703
35	0xbd1937c0	-0.037406683
36	0x3c483f63	0.012222144
37	0xbda280a2	-0.07934691
38	0x3e06005a	0.13086072
39	0x3d590c3b	0.05299018
40	0xbd4db4bd	-0.050221194
41	0x3d06a277	0.032869782
42	0xbb08ce3e	-0.0020874883
43	0xbcf0ab16	-0.029378455
44	0xbe4a8983	-0.19779019
45	0xbcd65d0e	-0.026167419
46	0x3d5e2d10	0.054242194
47	0x3d131cc2	0.035916097
48	0x3d0d4a61	0.03449476
49	0x3db69973	0.08915987
50	0xbd168517	-0.036748018
51	0xbc9662c5	-0.018357644
52	0x3b6e1e37	0.0036333927
53	0xbe0e4b65	-0.13895948
54	0xbd62bd47	-0.05535629
55	0x3d13193e	0.035912745
56	0x3c4bf62a	0.012448827
57	0x3e844d9c	0.2584046
58	0x3ce3753b	0.02776586
59	0xbb1abac3	-0.0023609854
60	0xbddfbd74	-0.10924807
61	0xbda07ee4	-0.078367025
62	0xbcdc78c5	-0.026913056
63	0xbbb4e6cb	-0.0055206767

a2c_network.mu.weight f4 [12, 64]
0	0x3d56f5b3	0.05248041
1	0x3c3350e9	0.010944583
2	0x3e024765	0.12722547
3	0x3c0f6c25	0.008753811
4	0xbb9e066d	-0.0048225434
5	0xbd28fd27	-0.04125705
6	0xbd416f97	-0.04722556
7	0x3dc039a3	0.09385993
8	0xbaccb5db	-0.0015618162
9	0xbcfc5440	-0.030801892
10	0x3d28e09f	0.04122984
11	0x3e0a0b96	0.13480982
12	0x3b65a642	0.0035041724
13	0xbb0818ed	-0.002076681
14	0xbd16511d	-0.03669845
15	0x3d64fd29	0.055905495
16	0xbc3ddc42	-0.011588158
17	0xbbd1d496	-0.006403516
18	0x3c8a72f5	0.016900519
19	0xbc66c981	-0.014086128
20	0xbcf97d0b	-0.030455133
21	0xbdc88969	-0.09791834
22	0xbddd1776	-0.107954904
23	0xbca34ab2	-0.019933078
24	0xbca51b82	-0.020154718
25	0xbd72b1bd	-0.059251536
26	0x3cc02b4c	0.023458146
27	0xbd0ec71e	-0.03485786
28	0x3d03190d	0.032006312
29	0x3dcc4e3b	0.09975859
30	0xbdf3cb34	-0.11903992
31	0x3df5e8a1	0.12007261
32	0xbdbb2acf	-0.091390245
33	0x3d2e5aac	0.04256694
34	0x3c6a8fcb	0.0143165095
35	0xbd729718	-0.059226125
36	0x3dfac036	0.122436926
37	0x3d24119e	0.040055864
38	0x3d5c90db	0.053849082
39	0xbd98d35f	-0.07462191
40	0xbd591ee4	-0.053007975
41	0xbc91adfe	-0.017783161
42	0xbd42c8e8	-0.04755488
43	0x3db1ab96	0.086753055
44	0xbd87287d	-0.065995194
45	0x3c8d24f5	0.017229537
46	0xbd05a6bf	-0.032629725
47	0x3da88b3f	0.08229684
48	0xbc839f7b	-0.016067257
49	0x3d750ab1	0.05982465
50	0xbc83d8e6	-0.016094636
51	0x3ddc9274	0.10770121
52	0xbd79678b	-0.060889762
53	0x3e0ccbd6	0.13749632
54	0xbd945bae	-0.07244049
55	0x3e19936f	0.14997648
56	0xbe292c50	-0.1652081
57	0xbd47a00b	-0.048736613
58	0x3bc25225	0.0059302025
59	0xbbdc0473	-0.0067143976
60	0x3d42ac09	0.047527347
61	0xbcb82cf9	-0.022482382
62	0x3e0c1bf9	0.13682546
63	0xbd8a2882	-0.067460075
64	0xbd72eb79	-0.059306595
65	0xbd9720a6	-0.07379274
66	0x3dfb5a41	0.12273074
67	0x3c6f6b30	0.014612958
68	0x3d292e32	0.04130382
69	0xbdb755e6	-0.08951931
70	0x3dc29a80	0.09502125
71	0xbcf834c4	-0.030298598
72	0xbce1ff94	-0.02758769
73	0x3d710e97	0.058851805
74	0x3c92d4dc	0.017923765
75	0xbdd91c22	-0.10601069
76	0x3d0203b3	0.03174181
77	0xbdb43449	-0.08799035
78	0xbd803474	-0.06260005
79	0xbc555664	-0.013021085
80	0xbd5a564a	-0.053304948
81	0x3d952789	0.07282931
82	0xbd6cbec2	-0.05779911
83	0x3b1a5203	0.0023547418
84	0x3e027728	0.12740767
85	0x3dbdb19b	0.09262391
86	0x3d9ad061	0.07559276
87	0xbb826689	-0.0039795083
88	0x3dcec80f	0.10096752
89	0xbd7d5a88	-0.061853915
90	0xbbd40845	-0.0064707124
91	0xbd919176	-0.071078226
92	0x3c5d8df3	0.013522613
93	0xbcd042f5	-0.025422553
94	0xbd8958e6	-0.06706409
95	0x3dd8ab3f	0.105795376
96	0x3ce10cf5	0.027471999
97	0xbccab38e	-0.024743821
98	0x3ce04f29	0.027381497
99	0x3cbf17e0	0.023326814
100	0x3df47890	0.11937058
101	0x3cfa1067	0.0305254
102	0xbdccc2fe	-0.09998129
103	0x3ca2ccae	0.01987299
104	0x3d9d0d8f	0.07668602
105	0x3d272021	0.040802125
106	0x3db890a9	0.09011967
107	0x3e0af8ac	0.13571423
108	0xbcce443f	-0.025179027
109	0x3d8fbd72	0.07018556
110	0xbcadf8a2	-0.021236721
111	0xbd2f15a6	-0.042745255
112	0xbe23b92d	-0.15988608
113	0x3dab24ba	0.083566144
114	0xbe1ab9e9	-0.15109982
115	0x3cdb2fd3	0.026756203
116	0xbdbc640c	-0.0919877
117	0x3d24fab1	0.04027814
118	0xbd775b74	-0.06038995
119	0xbd8234a6	-0.06357698
120	0xbd589203	-0.052873623
121	0x3d23ce49	0.03999165
122	0xbb58cd84	-0.0033081481
123	0xbc20f3ee	-0.009823782
124	0x3d361c91	0.044460837
125	0xbc89bd8b	-0.016814014
126	0xbd034512	-0.032048292
127	0x3dfa5cae	0.122247085
128	0xbc72f5fc	-0.014829155
129	0xbde43319	-0.111425586
130	0x3dfb0f56	0.122587845
131	0xbdaf967d	-0.08573625
132	0x3d98eeb3	0.07467403
133	0xbd98c4d2	-0.074594155
134	0xbd9366b3	-0.07197323
135	0xbd1ffc41	-0.039058927
136	0x3d0918fd	0.033471096
137	0xbe1378f0	-0.14401603
138	0x3cc4be11	0.024016412
139	0x3ce6de8f	0.028182296
140	0xbda1651a	-0.07880612
141	0x3dab037b	0.08350273
142	0x3d48c96d	0.04902022
143	0x3dd6b666	0.104840085
144	0x3cf7bd82	0.030241732
145	0x3dca58f3	0.09880247
146	0x3db20b65	0.086935796
147	0x3d3d18cf	0.046166237
148	0x3dd5f006	0.104461715
149	0x3ddaf485	0.1069117
150	0xbd9ec90a	-0.07753189
151	0xbd926f5b	-0.071501456
152	0x3ca3196b	0.019909581
153	0x3e068943	0.13138299
154	0x3cd7d91e	0.026348647
155	0x3d650d35	0.0559208
156	0x3ace11ce	0.0015721859
157	0x3d922370	0.071356654
158	0xbd46b20a	-0.048509635
159	0x3d0bf8ed	0.03417294
160	0xbd4bc8a8	-0.049751908
161	0x3d5161ee	0.051118784
162	0xbe1408eb	-0.14456527
163	0x3a9d6e56	0.0012011032
164	0x3e108702	0.14114001
165	0xbd62f9b6	-0.055413924
166	0xbca37374	-0.019952513
167	0x3ddb93a5	0.1072152
168	0x3d814cd5	0.06313483
169	0x3cdd566f	0.027018754
170	0x3c481240	0.012211382
171	0xbce5cdc7	-0.028052224
172	0x3dddd2c8	0.10831219
173	0xbd8573ef	-0.06516253
174	0x3daa8a11	0.08327115
175	0x3d53efc6	0.051742338
176	0x3e0d2fb1	0.13787724
177	0x3c25feb9	0.010131531
178	0xbc54ab85	-0.012980347
179	0x3ddc638d	0.10761175
180	0x3cd4b430	0.025964826
181	0xbd0df545	-0.034657735
182	0xbd121213	-0.03566177
183	0x3d8cf8ef	0.06883418
184	0x3d316427	0.043308403
185	0x3e182cf7	0.14860903
186	0x3d8f2a06	0.06990437
187	0xbd013f1b	-0.031554323
188	0xbd96dd0f	-0.07366382
189	0x3db144b5	0.08655683
190	0x3d4c8c8a	0.049938716
191	0xbdb0d750	-0.086348176
192	0x3bd02770	0.0063523576
193	0x3d5bc913	0.053658556
194	0xbd52ea00	-0.05149269
195	0xbd3318f7	-0.04372498
196	0xbd5bb11d	-0.053635705
197	0xbd3d294c	-0.046181962
198	0x3d365af4	0.044520333
199	0xbd5be88a	-0.053688563
200	0x3e1a9b5b	0.15098326
201	0x3d2077c0	0.039176702
202	0x3dbc0a80	0.0918169
203	0x3df31af8	0.11870378
204	0xbd7eed97	-0.062238302
205	0x3df21917	0.11821192
206	0xbb304c16	-0.002690082
207	0x3cd95f5b	0.026534727
208	0xbcf15208	-0.02945806
209	0xbc739767	-0.01486764
210	0xbad4d269	-0.0016237024
211	0x3c47ff24	0.012206826
212	0xbd99926a	-0.074986294
213	0x3dadc9e2	0.08485772
214	0xbdb6ac21	-0.0891955
215	0x3cc3786a	0.023861129
216	0xb92c86ac	-0.00016453367
217	0xbac76587	-0.0015212753
218	0x3dc50330	0.096197486
219	0xbd1ea795	-0.038734037
220	0x3bd16bee	0.00639104
221	0xbde225c6	-0.11042361
222	0x3d028440	0.031864405
223	0x3db8d8ed	0.0902575
224	0x3cc67ed3	0.024230396
225	0xbce64ac1	-0.028111817
226	0x3ddc6e47	0.10763221
227	0xbe11a320	-0.14222383
228	0xbda9bbd1	-0.08287776
229	0x3d40359c	0.046926126
230	0xbd92302c	-0.07138094
231	0x3d2acf40	0.041701555
232	0xbbc9e0cf	-0.0061608325
233	0x3d887ecf	0.06664812
234	0x3c9b8cad	0.018987978
235	0xbda09a79	-0.07841963
236	0x3d9b81b6	0.075931
237	0x3cda6897	0.0266612
238	0x3cb42d86	0.021994364
239	0x3d1d93d6	0.038471065
240	0x3d1b6cb0	0.03794545
241	0x3dc0384a	0.09385736
242	0x3c688e61	0.014194102
243	0xbd958d3c	-0.07302329
244	0x3d8020ed	0.0625628
245	0xbe1f0cb8	-0.15532196
246	0xbd44e40e	-0.048069052
247	0x3c847828	0.016170576
248	0x3d0a1685	0.033712883
249	0x3dab9a46	0.08379035
250	0xbd745cd2	-0.059658833
251	0x3d098548	0.033574373
252	0x3c5756b3	0.013143229
253	0xbde64fdd	-0.112457015
254	0xbccc275d	-0.024921114
255	0x3d4f9343	0.05067755

a2c_network.mu.bias f4 [12]
0	0xbe25b7d2	-0.16183403
1	0xbd0c0c26	-0.034191273
2	0xbb3ef99f	-0.0029140485
3	0xbdc483f3	-0.0959548
4	0xbdd5edf6	-0.10445778
5	0x3db6b074	0.089203745
6	0x3db2b30e	0.08725558
7	0x3ac8aaeb	0.0015309727
8	0x3d7e69b2	0.062112518
9	0x3c26f9c3	0.010191384
10	0x3cb8daec	0.022565328
11	0xbc9ddb76	-0.019269686

exp_avg f4 [12]
0	0x3c3bfd64	0.011473987
1	0x3a78d38d	0.0009491973
2	0xb9abc5de	-0.00032763084
3	0x3c13906d	0.009006602
4	0x3b08cf13	0.002087538
5	0x3b994426	0.0046773134
6	0x3b8bae87	0.0042627486
7	0x3afb59a4	0.0019176495
8	0x390a95a3	0.0001321645
9	0x3c1d0d17	0.00958564
10	0x3c1a675a	0.009424055
11	0xbc39fc15	-0.011351605

exp_avg_sq f4 [12]
0	0x39f4576b	0.00046604438
1	0x39fbe157	0.00048042342
2	0x39ec8a95	0.0004511668
3	0x39ee619f	0.0004546763
4	0x3a009580	0.000490509
5	0x39e8fe64	0.00044440024
6	0x39ef919e	0.00045694126
7	0x39e7638d	0.00044133925
8	0x39f87518	0.00047389488
9	0x39dc8b32	0.00042065379
10	0x39f3c435	0.00046494757
11	0x3a01e6a3	0.0004955327
