OmniIsaacGymEnvs/omniisaacgymenvs/runs/Naranjelio/nn/last_Naranjelio_ep_3750_rew_7.1139307.pth (torch, 672807 bytes, 36 tensors)

value_mean_std.running_mean f8 [1]
0.5902486988795046
00000000: 7235 463d 51e3 e23f

value_mean_std.running_var f8 [1]
0.4361558946825121
00000000: db9d e769 fae9 db3f

value_mean_std.count f8 []
368640001.0
00000000: 0000 0001 00f9 b541

running_mean_std.running_mean f8 [48]
-0.007091071185019023 -0.005081978150853765 0.0394064581373465 -0.0014147633797638572 0.0007611114643212357 0.0003656634650787128 -0.14097427617328936 -0.05153935909320953
-0.9501535947113193 0.13738419748585018 0.0035717355548443713 -0.0037884425814976464 -0.034636300527310496 0.22288086844444915 0.0064017775054416625 -0.10224372436071891
-0.13810064162570027 -1.0501416649694936e-05 1.4458424559376303e-06 2.2101875339913595 0.4809173118504016 0.015188829063176595 -2.4166854535965476 0.0003573126101742379
0.0004022577274129058 0.00026610849564234214 -9.981118102700548e-05 -0.000563920906281652 -0.0006630478901327438 -0.0009036916994264782 0.0035181817611060805 0.005751832720247101
-0.0030333193277530613 -0.00010064008823642091 -0.0061299276758576965 -0.00013905724271519275 0.8593407798183897 0.11113494912659441 -0.18765780519939662 -0.7451624802881348
0.024571819416209135 0.2268014113554295 0.09522582321406345 -0.16155709789610098 -0.32284004583647313 -0.08063964363813256 -0.2554915713175692 0.12355189575857592
00000000: 550d 55ed 860b 7dbf 057a 4f1f d7d0 74bf
00000010: 18f6 e651 152d a43f b987 a69c f22d 57bf
00000020: 3d04 876c aaf0 483f edf7 b49f d0f6 373f
00000030: 1beb def0 710b c2bf 9436 86eb 5d63 aabf
00000040: 56c8 ee82 a867 eebf ec2e 982d ce95 c13f
00000050: 208e bcec 7842 6d3f a496 b09f f008 6fbf
00000060: 02d8 0964 d9bb a1bf 0ebe 6f3c 5c87 cc3f
00000070: e5af 5a10 c038 7a3f 16bc 590c a52c babf
00000080: 5164 ab25 48ad c1bf 5cdb dcb6 e705 e6be
00000090: 25c1 9c97 d841 b83e 8128 44cd 76ae 0140
000000a0: c592 9e67 59c7 de3f 231e ba20 521b 8f3f
000000b0: 2b54 df2e 5f55 03c0 a237 a3f9 b56a 373f
000000c0: a43a a7c8 c35c 3a3f 9b6f 3549 8f70 313f
000000d0: 6228 7c08 372a 1abf d823 cdec 827a 42bf
000000e0: f394 7c80 0cba 45bf 2ed7 b825 b79c 4dbf
000000f0: 0ae6 5e73 29d2 6c3f 45f2 ced6 3b8f 773f
00000100: d2e8 f3e9 54d9 68bf 0f05 f28c d761 1abf
00000110: d080 50ee b11b 79bf f169 959e fc39 22bf
00000120: 470d 2e3c b87f eb3f 1afc f00b 5773 bc3f
00000130: 7ed4 15c4 2b05 c8bf ad66 61fc 5ed8 e7bf
00000140: a5ef 2ee3 5a29 993f b7a6 3a22 d407 cd3f
00000150: 8e67 7034 b860 b83f 1941 f329 e7ad c4bf
00000160: 193c ad4b 69a9 d4bf f6d6 2fb8 cca4 b4bf
00000170: 6d9b cd51 f959 d0bf 8e52 a4d7 18a1 bf3f

running_mean_std.running_var f8 [48]
0.03348998060633266 0.02949816621831119 0.05268222151608946 0.004277239986330282 0.0031335123428670375 0.000670944167666642 0.019283814348670738 0.029939961942550632
0.025458263575523596 5.385593738679846 1.3339241048098527 0.020453040537948018 0.04596684506393524 0.02710025770537625 0.00010934450361659159 0.03746899317376848
0.11386718916070328 6.742372635001255e-06 1.3359250400543173e-08 1.9105570986737739 0.4980736041501581 0.024473163198509493 4.2429394036508885 0.009019579461100862
8.228163179984602e-05 9.786414936176595e-05 1.1598387195716597e-05 2.2510466185416238e-05 3.159775559602666e-05 2.4531297002766655e-05 5.703337371858224e-05 0.006604882088224812
0.00011286614751397163 0.00012336421949101544 0.00010422393266539208 0.00023379434448768169 0.12487754459860415 0.42223050904871545 0.8186704664349329 0.26780747959452206
0.8029342547356939 0.7738885336251513 0.7898996032802709 0.7248121405053071 0.7800956608079198 0.7510033113003545 0.7948914621874856 0.7965628663560675
00000000: 9d4f e546 9925 a13f cf68 cc6c c434 9e3f
00000010: cd05 fc04 2af9 aa3f 3e23 bcdd 0285 713f
00000020: ae61 18a1 73ab 693f 2c0f f8a0 49fc 453f
00000030: d7f2 e0df 22bf 933f 7705 8cd5 94a8 9e3f
00000040: fc18 e125 bb11 9a3f 72b0 c415 d98a 1540
00000050: ff11 58cd c057 f53f 1664 db50 a4f1 943f
00000060: 02f3 7f60 f788 a73f 3926 3b82 2bc0 9b3f
00000070: 66ac a344 fca9 1c3f 6c3c 97c8 222f a33f
00000080: d15c 886d 6626 bd3f b756 1a47 9147 dc3e
00000090: fbb5 0159 53b0 4c3e b01c ff51 a491 fe3f
000000a0: 90d9 341c 70e0 df3f 2ce2 442e 7e0f 993f
000000b0: 7a5c 661b c5f8 1040 360a 7976 db78 823f
000000c0: 444e aaab d391 153f 1aa5 a948 8da7 193f
000000d0: bc74 b932 d652 e83e a493 1475 9b9a f73e
000000e0: 3d01 849d fa90 003f 2b93 c8e4 11b9 f93e
000000f0: 3858 99cc e3e6 0d3f 547b 0189 b80d 7b3f
00000100: a1aa 4ba6 5196 1d3f db52 9093 6a2b 203f
00000110: a3bc 6e87 5952 1b3f af81 8b20 d6a4 2e3f
00000120: 0248 0e8a f9f7 bf3f e735 ef1c d305 db3f
00000130: 5440 f167 8c32 ea3f e5e3 9efb c123 d13f
00000140: acb1 9d2d a3b1 e93f e66b d5e2 b1c3 e83f
00000150: d5c9 6688 db46 e93f 81d9 e63a a931 e73f
00000160: 217d dd2c 8bf6 e83f 9a20 a718 3808 e83f
00000170: 3ae0 3e38 c06f e93f 70a2 8668 717d e93f

running_mean_std.count f8 []
184320001.0
00000000: 0000 0002 00f9 a541

a2c_network.sigma f4 [12]
-1.9687248 -1.4849936 -1.5369453 -1.6873842 -1.495996 -1.3446889 -1.4241093 -1.4365963
-1.433039 -1.3409982 -1.3352774 -1.4105278
00000000: 2dff fbbf 4514 bebf a0ba c4bf 35fc d7bf
00000010: cc7c bfbf c41e acbf 3749 b6bf 63e2 b7bf
00000020: d26d b7bf d4a5 abbf 5fea aabf 2d8c b4bf

a2c_network.actor_mlp.0.weight f4 [256, 48]
-0.02097573 0.0017863521 -0.10984555 -0.031477224 -0.033271834 0.015910733 -0.024801161 0.17459165
-0.08446986 0.06418848 -0.16415542 0.16148388 0.015542697 0.1004199 -0.10564842 -0.020854902
0.08563976 0.1276025 -0.11611853 0.022309981 -0.0950411 -0.063006625 0.013032836 0.022720823
0.027131967 0.12962845 0.08713362 0.094354235 -0.0364755 -0.013201786 0.044486135 -0.21450607
-0.12658651 0.040351186 -0.022383241 -0.06829322 0.023355423 -0.044541925 -0.1952582 -0.023465743
0.0174138 0.029896189 0.08564056 0.022990514 0.21601161 -0.14566003 0.020388464 -0.102505654
-0.0857509 0.15645055 0.03816258 0.021208087 0.086656295 0.09000831 -0.2150805 -0.09867166
0.18217991 -0.26509878 0.20715588 0.34180465 -0.021599608 0.07483761 0.035532087 -0.10880763
0.12045188 -0.06289235 0.16550092 0.14301771 0.09575966 0.12681837 0.10074578 0.18425831
-0.028708354 -0.01472098 -0.12234633 -0.00069619284 -0.00083357835 0.0376581 -0.050759863 0.02259312
0.0226379 -0.10532798 -0.0019800575 -0.09332915 -0.0034823103 -0.0042556333 -0.019876227 0.1600153
0.12138287 -0.099149935 -0.061529145 -0.13279295 0.046998702 0.15607224 -0.12083835 0.04525995
-0.02810311 0.025874536 -0.06467892 0.079871185 -0.012096821 0.03567169 -0.1796727 -0.04318548
-0.093582 0.25237367 -0.15441315 -0.46378195 0.11305185 0.036672074 0.0063732453 0.100030586
-0.13214593 0.03270361 -0.23884687 -0.02760068 0.20524922 0.032972883 0.102839544 -0.09642859
-0.062398136 0.04536497 0.057621635 0.01168264 0.023770358 -0.0010335479 -0.0006251819 0.029267222
0.047035716 -0.060482264 -0.004605503 0.0365168 -0.005564638 -0.03855954 -0.10220257 0.08292884
-0.12187191 0.08384013 0.11924314 -0.0051224497 0.032469302 -0.033239342 -0.018590141 -0.01041148
0.006910798 0.049137957 0.15182878 -0.027406186 0.14792547 0.09924485 -0.17354007 0.0819478
0.17769007 -0.29534164 0.14425409 0.412496 0.048302513 0.031533614 0.13038881 -0.1842671
0.12534831 -0.06694914 0.066255234 0.071606785 0.0421364 0.02792599 0.013589849 -0.21365584
0.077116504 -0.07479785 -0.16338433 -0.010725089 0.10196076 0.027701007 -0.053825125 -0.1253311
0.106868625 0.24583705 0.047723886 0.05006716 -0.08222208 -0.14045732 0.071291074 0.029360613
0.07033448 0.24153705 0.09888352 0.03883429 -0.15022926 -0.030173972 -0.16413881 -0.060253374
-0.22320797 0.046516128 -0.11176793 -0.0020402935 0.054394286 0.012990468 0.08240237 -0.098831974
-0.17091455 -0.19009678 0.14880353 -0.16489616 0.03769695 0.028506605 -0.07657696 0.16106623
-0.0022568682 0.18892643 -0.17702296 0.002119698 0.102181815 -0.038510084 0.06785169 0.016012875
0.1487655 0.025375145 0.094997264 0.044621468 0.09072478 0.08541205 -0.053114492 0.0087059215
-0.04009452 -0.10342763 -0.026283167 -0.004019694 0.04863758 -0.1319507 -0.031159515 -0.13971806
-0.124659315 0.1048984 0.21011503 0.07949802 0.14758953 -0.12550014 0.08879137 0.09870375
-0.14376839 0.16866441 0.09688189 -0.05072737 -0.070091404 0.08084353 0.12670936 0.12632772
-0.086546406 -0.23262136 -0.18313693 -0.1676751 -0.015441917 -0.04687026 -0.06891959 -0.022218611
00000000: 4bd5 abbc 0824 ea3a b4f6 e0bd 43ee 00bd
00000010: 0c48 08bd 3a57 823c ce2b cbbc 27c8 323e
00000020: 89fe acbd 4075 833d 5c18 28be 085c 253e
00000030: cca6 7e3c f3a8 cd3d 335e d8bd e6d7 aabc
00000040: e663 af3d 3baa 023e 8dcf edbd 6cc3 b63c
00000050: e9a4 c2bd 9e09 81bd ad87 553c 0521 ba3c
00000060: dc43 de3c 52bd 043e 1d73 b23d cb3c c13d
00000070: 5567 15bd 4e4c 58bc 1837 363d 7ba7 5bbe
00000080: e59f 01be 4947 253d 0f5d b7bc 51dd 8bbd
00000090: df53 bf3c 9871 36bd c4f1 47be 3b3b c0bc
000000a0: 63a7 8e3c dae8 f43c 5164 af3d 9a56 bc3c
000000b0: 2632 5d3e e727 15be b505 a73c 7cee d1bd
000000c0: 2b9e afbd 9334 203e 5e50 1c3d 95bc ad3c
000000d0: db78 b13d 4756 b83d 103e 5cbe 5e14 cabd
000000e0: 5f8d 3a3e 07bb 87be ac20 543e 0501 af3e
000000f0: a9f1 b0bc 7644 993d 188a 113d 89d6 debd
00000100: 7aaf f63d b4cd 80bd 1379 293e 3c73 123e
00000110: a41d c43d addc 013e ce53 ce3d 36ae 3c3e
00000120: c82d ebbc 4430 71bc b690 fabd b680 36ba
00000130: 7f84 5aba 613f 1a3d 93e9 4fbd 3515 b93c
00000140: 1e73 b93c 32b6 d7bd dac3 01bb 5a23 bfbd
00000150: 7937 64bb d772 8bbb 78d3 a2bc 0ddb 233e
00000160: 9597 f83d 1f0f cbbd fc05 7cbd e0fa 07be
00000170: b681 403d 67d1 1f3e 197a f7bd 7f62 393d
00000180: 7e38 e6bc d6f6 d33c 6276 84bd 8193 a33d
00000190: bf31 46bc 7a1c 123d 1ffc 37be 42e3 30bd
000001a0: eba7 bfbd 1f37 813e 7b1e 1ebe d474 edbe
000001b0: ba87 e73d 7535 163d a8d6 d03b d6dc cc3d
000001c0: 4351 07be 38f4 053d 4694 74be d21a e2bc
000001d0: da2c 523e 930e 073d 8a9d d23d 5a7c c5bd
000001e0: 3095 7fbd 9ed0 393d aa04 6c3d 8b68 3f3c
000001f0: 0eba c23c 1d78 87ba 3fe3 23ba d0c1 ef3c
00000200: 86a8 403d 40bc 77bd c2e9 96bb a492 153d
00000210: 9157 b6bb 9cf0 1dbd 954f d1bd 98d6 a93d
00000220: fb97 f9bd 60b4 ab3d bf35 f43d 39da a7bb
00000230: 88fe 043d fa25 08bd 5a4a 98bc ea94 2abc
00000240: fa73 e23b e244 493d 0179 1b3e f082 e0bc
00000250: c679 173e e240 cb3d 7db4 31be 40d4 a73d
00000260: 63f4 353e 0537 97be 58b7 133e ad32 d33e
00000270: dbd8 453d 6429 013d a584 053e 84b0 3cbe
00000280: 4f5b 003e a11c 89bd d3b0 873d 94a6 923d
00000290: 3897 2c3d 0cc5 e43c f5a7 5e3c 99c8 5abe
000002a0: 42ef 9d3d 9d2f 99bd 394e 27be 49b8 2fbc
000002b0: ced0 d03d 39ed e23c bc77 5cbd cc56 00be
000002c0: f0dd da3d b5bc 7b3e 1f7a 433d 3913 4d3d
000002d0: 0d64 a8bd 0bd4 0fbe 0e01 923d ab85 f03c
000002e0: 860b 903d 7d55 773e 7183 ca3d b410 1f3d
000002f0: b3d5 19be 682f f7bc 0114 28be 3ecc 76bd
00000300: a190 64be b287 3e3d 96e6 e4bd 72b6 05bb
00000310: 8bcc 5e3d f9d5 543c 93c2 a83d 6b68 cabd
00000320: 3904 2fbe bba8 42be f45f 183e 8ada 28be
00000330: 1e68 1a3d af86 e93c 62d4 9cbd 8cee 243e
00000340: f7e7 13bb ee75 413e 8245 35be a2ea 0a3b
00000350: b344 d13d c0bc 1dbd d4f5 8a3d 6f2d 833c
00000360: fc55 183e 89df cf3c ed8d c23d 00c5 363d
00000370: eacd b93d 83ec ae3d 958e 59bd 48a3 0e3c
00000380: 273a 24bd ded1 d3bd cc4f d7bc a3b7 83bb
00000390: 3338 473d 161e 07be 3d42 ffbc 4012 0fbe
000003a0: 624d ffbd f9d4 d63d 6528 573e dccf a23d
000003b0: b621 173e 1c83 00be 40d8 b53d 3125 ca3d
000003c0: 0538 13be 5db6 2c3e 036a c63d 81c7 4fbd
000003d0: 158c 8fbd 4b91 a53d 19c0 013e 0e5c 013e
000003e0: 3e3f b1bd 4b34 6ebe 3f88 3bbe 05b3 2bbe
000003f0: 1800 7dbc 08fb 3fbd b725 8dbd ce03 b6bc

a2c_network.actor_mlp.0.bias f4 [256]
-0.08992042 -0.061758775 0.10960497 0.07280469 -0.19586353 0.22108002 0.24689241 -0.13594852
0.06753294 0.13730341 0.15052412 -0.11043734 0.017955804 -0.14669958 -0.09266601 0.23668323
0.28922632 -0.082990915 -0.33730817 -0.34526268 0.25467652 0.051090337 -0.12753545 -0.037119687
-0.019035218 0.22799237 0.12239856 0.015390246 -0.2830827 0.0046987794 0.22832903 0.01535743
0.05613465 -0.012498227 0.2547344 0.0652328 -0.119007446 0.1780044 0.05628815 0.04706403
-0.020850386 0.17877595 0.30550346 -0.20817003 -0.046438277 0.09856334 -0.012691129 0.15185821
0.18996848 0.03708345 0.18014726 0.1593693 0.08970823 0.049048554 -0.13276678 -0.02148971
0.09470266 0.09190264 -0.22479767 -0.027467983 -0.158094 0.19426571 0.09365397 -0.016027398
-0.15010072 0.11268726 -0.044405602 -0.149257 0.09398391 -0.0028197702 -0.020250304 0.10877002
-0.06974617 0.15249181 0.07838734 0.104135334 0.10721293 0.1403307 -0.018428056 -0.03961722
0.016940242 -0.091545284 0.12651186 -0.106849186 0.1185041 0.31341526 0.14942041 -0.065067604
0.07950623 -0.14777875 0.19434172 0.2565194 0.29444987 -0.018013157 0.075909555 0.19901112
-0.1591489 -0.27728334 -0.3295136 0.0123972045 0.17821671 -0.016530063 -0.020233123 -0.30956852
0.12684247 0.047642883 0.079274125 0.05779381 0.12602161 -0.0038004383 -0.21269344 0.07300669
0.06492649 0.2623293 -0.01421886 -0.2586039 -0.17938378 -0.06276384 0.12823889 -0.053477515
0.10736851 -0.016268851 -0.15430702 0.008817185 0.19809985 -0.017879913 0.14246874 0.068953685
0.0066122976 0.011166197 0.020283127 0.027643071 -0.05434878 -0.2435629 -0.19569089 0.15343368
0.26619196 -0.04758826 0.17169708 0.083509944 -0.272998 -0.20432605 0.11994382 0.1126903
-0.061235525 -0.11616259 -0.06303523 0.28460708 -0.24841592 0.12827171 -0.07650964 -0.046973493
0.14527692 0.09405258 0.13125348 -0.21980567 -0.097082056 0.13313082 0.112540975 0.074266665
-0.15036571 0.18531506 -0.29407066 -0.2794224 -0.051453702 -0.048158515 0.08293833 0.010148255
-0.094632804 -0.13763602 0.1900562 -0.13342795 0.28481564 -0.049812667 0.092570156 -0.03881157
-0.0378685 -0.1271343 0.13960448 0.011899098 0.19086611 0.20374407 -0.2208717 0.1997152
0.13506275 0.19295038 0.12144629 0.1615517 0.19321853 -0.026054017 -0.14002272 0.006175122
-0.14903463 0.27049527 -0.09042808 0.22696063 0.12892587 0.01321158 0.31559312 0.03653904
-0.018206403 0.1086074 0.25098586 -0.20619397 -0.007848221 0.12401743 0.111117 0.16365159
0.1207616 -0.0033813647 0.06679863 0.06218784 0.17272143 -0.04518121 -0.043414988 0.16030142
0.12592755 0.14375949 -0.028466882 0.016002096 -0.34907168 -0.06715722 0.19943766 -0.03507518
0.011333311 0.1379162 -0.0471343 -0.18375443 0.097632974 -0.05000083 -0.08741948 0.14997219
-0.19357948 0.047591154 0.1275671 0.003964169 -0.13960482 0.1916174 0.16684285 0.008803266
0.19758318 0.24063034 0.09981253 -0.17615613 0.016553558 0.16760632 0.117754415 0.299455
0.053368498 0.05898777 -0.07622491 0.040612634 0.11715559 0.23863944 0.17343487 0.005945221
00000000: 3228 b8bd c5f6 7cbd 9278 e03d a01a 953d
00000010: 7390 48be cd62 623e 5dd1 7c3e 1736 0bbe
00000020: b64e 8a3d 4499 0c3e ff22 1a3e f92c e2bd
00000030: 0d18 933c 6a38 16be adc7 bdbd 175d 723e
00000040: 7915 943e 24f7 a9bd a8b3 acbe 45c6 b0be
00000050: f664 823e 1a44 513d a798 02be d00a 18bd
00000060: bfef 9bbc d576 693e 19ac fa3d 5f27 7c3c
00000070: 37f0 90be 38f8 993b 16cf 693e bb9d 7b3c
00000080: 72ed 653d 5dc5 4cbc 8c6c 823e c698 853d
00000090: 2dba f3bd c946 363e 678e 663d 36c6 403d
000000a0: 6ece aabc 0b11 373e f36a 9c3e 862a 55be
000000b0: 1036 3ebd 94db c93d 74ee 4fbc b880 1b3e
000000c0: 1987 423e d1e4 173d 8678 383e b531 233e
000000d0: f3b8 b73d 23e7 483d 04f4 07be 300b b0bc
000000e0: 78f3 c13d 7437 bc3d 5c31 66be 8904 e1bc
000000f0: 65e3 21be 97ed 463e a7cd bf3d e44b 83bc
00000100: 01b4 19be 94c8 e63d a6e2 35bd d4d6 18be
00000110: a37a c03d e5cb 38bb f7e3 a5bc d1c2 de3d
00000120: 14d7 8ebd d026 1c3e 8b89 a03d e844 d53d
00000130: 7492 db3d dab2 0f3e 6ff6 96bc ab45 22bd
00000140: 43c6 8a3c 187c bbbd 538c 013e bfd3 dabd
00000150: 47b2 f23d f777 a03e aa01 193e 2a42 85bd
00000160: 2ad4 a23d 5053 17be 8401 473e 8356 833e
00000170: 22c2 963e 5490 93bc 7876 9b3d 92c9 4b3e
00000180: eef7 22be 15f8 8dbe 02b6 a8be a51d 4b3c
00000190: 717e 363e 0e6a 87bc efbf a5bc c47f 9ebe
000001a0: fee2 013e 2f25 433d 795a a23d 34b9 6c3d
000001b0: cf0b 013e c610 79bb 4fcc 59be 8884 953d
000001c0: 2ef8 843d 0750 863e 39f6 68bc bb67 84be
000001d0: 62b0 37be 548a 80bd 0e51 033e 3d0b 5bbd
000001e0: 05e4 db3d 4146 85bc a902 1ebe f475 103c
000001f0: b0da 4a3e e578 92bc 53e3 113e 9737 8d3d
00000200: f9ab d83b 6df2 363c cd28 a63c b973 e23c
00000210: d49c 5ebd 8e68 79be 3163 48be b81d 1d3e
00000220: 504a 883e e8eb 42bd 5cd1 2f3e 4307 ab3d
00000230: 65c6 8bbe d93a 51be 1ba5 f53d 2cca e63d
00000240: 1ad2 7abd a7e6 edbd 9d18 81bd 05b8 913e
00000250: be60 7ebe a959 033e 16b1 9cbd 4767 40bd
00000260: 79c3 143e a49e c03d 5067 063e bd14 61be
00000270: f5d2 c6bd 7253 083e e27b e63d 1f19 983d
00000280: 78f9 19be 3bc3 3d3e 6e90 96be 7410 8fbe
00000290: 1ec1 52bd dd41 45bd 92db a93d de44 263c
000002a0: d8ce c1bd 75f0 0cbe 189e 423e 56a1 08be
000002b0: 5bd3 913e 5e08 4cbd 6c95 bd3d e1f8 1ebd
000002c0: 001c 1bbd 7e2f 02be 7af4 0e3e 6ff4 423c
000002d0: 6872 433e 49a2 503e 312c 62be 2482 4c3e
000002e0: e44d 0a3e c994 453e d5b8 f83d cf6d 253e
000002f0: 14db 453e 3c6f d5bc 1e62 0fbe ae58 ca3b
00000300: 899c 18be 5b7e 8a3e 5b32 b9bd 5e68 683e
00000310: 2505 043e 6275 583c 6c95 a13e f6a9 153d
00000320: 9825 95bc 8e6d de3d 3881 803e 8324 53be
00000330: d395 00bc dafc fd3d 4f91 e33d 4894 273e
00000340: dc51 f73d e399 5dbb b8cd 883d adb8 7e3d
00000350: e3dd 303e ef0f 39bd ead3 31bd 0e26 243e
00000360: 27f3 003e b035 133e 6133 e9bc d416 833c
00000370: 86b9 b2be b989 89bd 6339 4c3e feaa 0fbd
00000380: 5aaf 393c e839 0d3e e50f 41bd 1f2a 3cbe
00000390: ccf3 c73d accd 4cbd fc08 b3bd 4f92 193e
000003a0: b339 46be f1ee 423d f3a0 023e dce5 813b
000003b0: 91f4 0ebe 5a37 443e dad8 2a3e 933b 103c
000003c0: 3f53 4a3e cd67 763e 836a cc3d 4662 34be
000003d0: 549b 873c fea0 2b3e 3a29 f13d 2a52 993e
000003e0: ed98 5a3d 299d 713d ce1b 9cbd 6f59 263d
000003f0: 45ef ef3d e65d 743e e998 313e 21d0 c23b

a2c_network.actor_mlp.2.weight f4 [128, 256]
-0.0046067135 0.16756438 -0.09288987 0.06731558 -0.07410017 0.020141877 -0.13029668 -0.10057088
-0.14245747 0.020623561 0.044420976 0.039432433 0.07277429 0.02899882 0.015422103 0.048046265
-0.07825098 0.10425392 -0.023749672 0.122354425 -0.12865502 -0.061808024 0.067211315 0.10804133
0.17648038 -0.016946157 0.0174669 0.08056453 -0.023998117 0.005990036 -0.07004318 0.052947525
0.1649965 0.037768997 0.090386786 -0.061502084 -0.014997549 -0.15420856 0.13948487 0.0021204853
0.14611459 -0.06104521 0.031307153 -0.11673995 0.013329016 -0.01584422 -0.10990659 0.029205691
0.105300054 0.070963345 -0.18943822 -0.10994392 -0.051182643 -0.044286914 0.09714609 0.09665351
-0.19806573 0.1191867 0.04208597 0.106562026 0.066066496 -0.03508558 0.028033469 0.15903752
0.04989399 -0.03397301 -0.11757923 -0.13921481 -0.0006674378 -0.11339913 -0.13125063 -0.062437057
-0.08428134 -0.068797424 0.06482294 -0.094453596 -0.114314556 -0.21170926 -0.015195164 -0.1415846
0.011911519 0.026861047 0.13383827 0.0090550445 -0.15087982 -0.08649893 -0.12114321 0.13655287
0.01889717 -0.017732507 -0.05726515 -0.06694517 0.051323917 0.038008787 0.005414902 0.05970412
-0.0526322 -0.0991722 0.016570082 0.19539556 -0.0233606 0.108892165 0.091651365 0.06528049
-0.022130843 -0.059976038 0.048237734 -0.085085385 -0.08982533 -0.009795627 -0.047073435 0.09718148
0.04188495 0.06631646 -0.14101085 0.035970047 -0.053791102 0.006821592 -0.0022757023 -0.13327344
-0.06858775 0.051646896 0.15886894 -0.021926291 -0.05697871 -0.011995564 -0.05559358 0.053558763
-0.040143598 -0.0029357087 0.0011541212 0.020846827 -0.021940732 0.079766884 -0.0023747478 -0.024528729
-0.10825794 -0.04887141 0.006917874 0.031545624 -0.04094246 -0.07927995 -0.09246421 -0.08346628
0.047238104 -0.059649654 0.025520971 -0.08828057 0.061237942 -0.11872572 0.15788193 -0.037100494
-0.08936116 -0.02951445 -0.08398078 0.08282011 0.08137142 0.054932054 -0.11098111 -0.0033241159
-0.015993243 -0.17674063 0.024156524 0.01205746 0.053365182 -0.097846456 -0.010856087 -0.07840934
0.045474403 0.049243934 -0.11493335 0.18185635 -0.077530645 -0.039385747 -0.0035643338 0.015326788
0.12895843 -0.16553338 0.00035886394 0.038583685 -0.02822576 0.01331816 0.01769731 -0.042143747
0.024846487 -0.025218142 0.056361053 -0.040495828 0.06833586 -0.08661109 0.16385822 0.018836772
-0.068780996 0.036322407 0.060723897 0.06832201 -0.1378378 -0.10017926 -0.09629802 0.09486326
0.09812306 -0.05962599 -0.017409924 -0.07136585 -0.020559466 0.12662354 -0.079601906 -0.040513024
0.021453511 0.075257696 0.1097631 -0.10416465 -0.11336729 0.053587627 -0.049169935 -0.2103608
-0.09496868 0.13726993 -0.007577864 0.08585475 0.06585566 0.029135019 0.11731344 0.028311104
-0.015277256 -0.08391645 0.08871009 0.055791985 0.004853645 -0.10767267 0.13076727 -0.010606708
-0.07326971 0.10670975 -0.0013235271 0.116539426 0.066118866 -0.021996867 0.065850385 0.0078382855
-0.052768998 0.0280769 -0.06426142 0.014692583 0.11709081 -0.027242979 0.12138962 -0.02760592
-0.07526231 0.028922042 -0.090993345 -0.016283171 -0.13627726 0.028062584 0.021146147 0.16062893
00000000: eaf3 96bb ff95 2b3e 0b3d bebd c0dc 893d
00000010: d4c1 97bd 9400 a53c 7e6c 05be 1bf8 cdbd
00000020: 5fe0 11be bef2 a83c c5f2 353d e783 213d
00000030: b00a 953d ef8e ed3c fdac 7c3c 29cc 443d
00000040: 0d42 a0bd 1483 d53d ac8e c2bc f594 fa3d
00000050: 24be 03be 692a 7dbd 16a6 893d c644 dd3d
00000060: 46b7 343e abd2 8abc bf16 8f3c 04ff a43d
00000070: b397 c4bc 1048 c43b cc72 8fbd 81df 583d
00000080: d8f4 283e aab3 1a3d b51c b93d 9ce9 7bbd
00000090: 48b8 75bc d9e8 1dbe 1fd5 0e3e d7f7 0a3b
000000a0: 109f 153e 8b0a 7abd ee3b 003d 5b15 efbd
000000b0: f261 5a3c bdcb 81bc b516 e1bd c640 ef3c
000000c0: 8ea7 d73d 3b55 913d 18fc 41be 472a e1bd
000000d0: e4a4 51bd 3266 35bd 87f4 c63d 47f2 c53d
000000e0: bed1 4abe 2818 f43d 5762 2c3d 313d da3d
000000f0: df4d 873d e6b5 0fbd 72a6 e53c bbda 223e
00000100: a45d 4c3d 4827 0bbd 61cd f0bd 548e 0ebe
00000110: fef6 2eba ce3d e8bd 9166 06be 00be 7fbd
00000120: b29b acbd aae5 8cbd e4c1 843d e370 c1bd
00000130: c01d eabd 50ca 58be 23f5 78bc 8efb 10be
00000140: 8828 433c b30b dc3c e60c 093e 9c5b 143c
00000150: 3d80 1abe 5a26 b1bd ee19 f8bd 84d4 0b3e
00000160: 3dce 9a3c c343 91bc dd8e 6abd 8d1a 89bd
00000170: 0739 523d 1aaf 1b3d 7e6f b13b 4f8c 743d
00000180: dd94 57bd cb1a cbbd fbbd 873c c615 483e
00000190: bb5e bfbc db02 df3d b6b3 bb3d c7b1 853d
000001a0: be4b b5bc 6fa9 75bd ee94 453d 3f41 aebd
000001b0: 58f6 b7bd d67d 20bc 13d0 40bd 1507 c73d
000001c0: 8e8f 2b3d edd0 873d 2665 10be 5455 133d
000001d0: 0f54 5cbd a987 df3b f323 15bb d578 08be
000001e0: bc77 8cbd b28b 533d 8aae 223e c49e b3bc
000001f0: 8262 69bd 0b89 44bc 18b6 63bd 6f60 5b3d
00000200: 9d6d 24bd 0565 40bb e245 973a f7c6 aa3c
00000210: 0dbd b3bc d25c a33d a8a1 1bbb 79f0 c8bc
00000220: 57b6 ddbd 632d 48bd 55af e23b fc35 013d
00000230: 48b3 27bd 875d a2bd e05d bdbd 5ef0 aabd
00000240: be7c 413d 3253 74bd 5b11 d13c 72cc b4bd
00000250: a3d4 7a3d 7826 f3bd cdab 213e b0f6 17bd
00000260: fc02 b7bd 4ac8 f1bc 1dfe abbd 979d a93d
00000270: 0fa6 a63d 6f00 613d 104a e3bd 69d9 59bb
00000280: 4304 83bc 7ffb 34be e7e3 c53c a78c 453c
00000290: 7395 5a3d b963 c8bd bbdd 31bc 1395 a0bd
000002a0: 5e43 3a3d 02b4 493d 2d62 ebbd 8d38 3a3e
000002b0: 63c8 9ebd f352 21bd 9997 69bb 351d 7b3c
000002c0: ae0d 043e 9581 29be e725 bc39 ed09 1e3d
000002d0: b639 e7bc 6934 5a3c f3f9 903c ec9e 2cbd
000002e0: dc8a cb3c 4796 cebc d9da 663d f4de 25bd
000002f0: acf3 8b3d 2861 b1bd 73ca 273e 934f 9a3c
00000300: 0ddd 8cbd cec6 143d 9fb9 783d 69ec 8b3d
00000310: 5a25 0dbe c92a cdbd e537 c5bd ab47 c23d
00000320: bef4 c83d 623a 74bd 429f 8ebc 4228 92bd
00000330: 536c a8bc 9aa9 013e 5306 a3bd fcf0 25bd
00000340: 46bf af3c b520 9a3d 7acb e03d 4754 d5bd
00000350: 1c2d e8bd b37e 5b3d 6a66 49bd d268 57be
00000360: f07e c2bd 7d90 0c3e bb4f f8bb 9dd4 af3d
00000370: 55df 863d 90ac ee3c 0742 f03d b0ec e73c
00000380: 754d 7abc 63dc abbd a3ad b53d 2386 643d
00000390: 530b 9f3b 7d83 dcbd dbe7 053e c2c7 2dbc
000003a0: 6e0e 96bd a48a da3d 337a adba 39ac ee3d
000003b0: 5469 873d c632 b4bc 91dc 863d 276c 003c
000003c0: 4e24 58bd 8701 e63c 7e9b 83bd 29b9 703c
000003d0: 4ecd ef3d ab2c dfbc 1f9b f83d cf25 e2bc
000003e0: 2023 9abd ebed ec3c b85a babd 4964 85bc
000003f0: 448c 0bbe 81e3 e53c af3a ad3c e97b 243e

a2c_network.actor_mlp.2.bias f4 [128]
-0.07309067 -0.020049583 -0.17177176 -0.19365379 0.03832771 -0.26207787 -0.14036617 -0.06923809
-0.22598812 -0.25744584 -0.14887026 -0.07495024 -0.056398068 0.041246314 -0.057509463 -0.14525181
-0.06918849 0.0071399473 -0.012221459 -0.107992254 -0.07739984 -0.26525488 -0.11363465 -0.004678927
-0.09219556 -0.29169673 -0.21349494 -0.05838545 -0.091211654 -0.049399212 -0.019031283 -0.058900457
-0.12708662 -0.022128087 -0.119365126 -0.047163736 -0.06498508 -0.069747984 -0.07735815 -0.21827425
-0.0018052169 0.1763325 -0.282059 -0.00801038 -0.26087222 -0.044396505 0.058051545 -0.18994194
-0.0024514783 -0.017234067 -0.18826662 -0.021049863 -0.14128111 -0.047390636 0.004047832 0.07266956
0.09012172 0.0016983119 -0.019362943 -0.09996436 -0.08519117 -0.21296819 -0.012302753 0.021297097
0.017148303 0.1935725 -0.17476101 -0.20627286 0.006731987 -0.01008809 -0.20038113 0.12260974
-0.05082517 -0.07628833 -0.11494621 0.114053875 -0.1717644 -0.20837882 -0.13074122 0.010852916
-0.25960746 -0.0323861 0.14086942 0.04802621 0.07863678 0.03749287 -0.2559195 -0.28882524
0.03631259 0.01905996 0.09834874 0.09284237 -0.058546744 -0.060795292 0.06558439 -0.07735377
0.01071843 0.001816686 0.046198092 -0.19483124 0.13811105 -0.030218266 -0.033561837 -0.058039997
-0.066802606 -0.027709318 -0.028471943 0.11319013 -0.13435003 0.06732594 -0.12099198 -0.27620062
-2.230041e-05 0.08334705 -0.109329246 -0.103889965 -0.16878492 -0.006355663 0.10920264 -0.0060898615
-0.0076741152 0.039409403 0.009086994 -0.2521741 0.05137905 -0.16073412 -0.20594485 0.05845962
00000000: 90b0 95bd 063f a4bc f0e4 2fbe 2e4d 46be
00000010: 84fd 1c3d 122f 86be 26bc 0fbe b3cc 8dbd
00000020: 6e69 67be f1cf 83be 7271 18be 837f 99bd
00000030: a901 67bd e5f1 283d 0b8f 6bbd e4bc 14be
00000040: b2b2 8dbd 38f6 e93b 843c 48bc 0b2b ddbd
00000050: cf83 9ebd 7dcf 87be 49b9 e8bd af51 99bb
00000060: 07d1 bcbd 4659 95be 6b9e 5abe 9525 6fbd
00000070: 2dcd babd d456 4abd 7ee7 9bbc 9b41 71bd
00000080: ff22 02be f645 b5bc b475 f4bd c32e 41bd
00000090: e616 85bd 08d8 8ebd f36d 9ebd 4983 5fbe
000000a0: 079d ecba 8290 343e 0a6a 90be f83d 03bc
000000b0: 0b91 85be 1cd9 35bd 75c7 6d3d 2480 42be
000000c0: fba8 20bb 752e 8dbc f7c8 40be c370 acbc
000000d0: ffab 10be af1c 42bd ada3 843b c7d3 943d
000000e0: bd91 b83d e499 de3a 099f 9ebc 1dba ccbd
000000f0: b578 aebd 5514 5abe 7c91 49bc 4077 ae3c
00000100: 997a 8c3c df37 463e 8df4 32be 3139 53be
00000110: 0098 dc3b 8448 25bc b630 4dbe d11a fb3d
00000120: 0e2e 50bd 0e3d 9cbd eb68 ebbd 1495 e93d
00000130: 02e3 2fbe 4261 55be 07e1 05be 6ed0 313c
00000140: 45eb 84be 4aa7 04bd 1340 103e 22b7 443d
00000150: 520c a13d 2092 193d e107 83be e7e0 93be
00000160: 83bc 143d a223 9c3c 106b c93d 2424 be3d
00000170: b6ce 6fbd 7c04 79bd 1c51 863d a76b 9ebd
00000180: 5b9c 2f3c de1d ee3a 363a 3d3d d781 47be
00000190: fc6c 0d3e 4c8c f7bc 2378 09bd 59bb 6dbd
000001a0: cecf 88bd a7fe e2bc fe3d e9bc 3ad0 e73d
000001b0: 0e93 09be 2fe2 893d a5ca f7bd 2b6a 8dbe
000001c0: c411 bbb7 dcb1 aa3d 03e8 dfbd 43c4 d4bd
000001d0: f4d5 2cbe 2a43 d0bb a2a5 df3d 768d c7bb
000001e0: 2577 fbbb c16b 213d 9ee1 143c f71c 81be
000001f0: d772 523d 7c97 24be 35e3 52be 5b73 6f3d

a2c_network.actor_mlp.4.weight f4 [64, 128]
-0.012709034 0.102750875 0.023322094 -0.08544179 0.040425166 0.12973303 -0.0276483 -0.081568435
0.18056384 0.09251599 -0.19409713 0.03272747 0.12823501 0.016888151 -0.032769863 0.026242124
0.10017332 -0.077610105 -0.034964513 0.067477696 0.015849238 0.18579286 0.05682256 0.027370913
-0.10589517 -0.20563054 0.06114918 -0.058680456 -0.07609604 -0.08616682 -0.08390313 0.03401997
0.008387298 -0.0960226 0.036023293 0.08621536 0.08641892 -0.05518209 0.038852915 -0.09051538
-0.029338825 0.0005800843 0.005881966 -0.11513787 -0.16738482 -0.048328172 0.08275759 -0.10945616
-0.13077691 -0.020412683 0.05236846 0.077159 -0.079434246 0.029452233 -0.109570384 -0.117858395
-0.092846915 -0.030881587 -0.07166386 -0.028655412 0.008517123 0.052289125 0.101940766 0.04727406
-0.12832415 -0.2849542 -0.031900298 0.0949273 -0.1838203 -0.20196936 0.08856715 -0.03760661
-0.05262905 0.12416916 -0.017237209 -0.12595144 0.015375593 0.025713205 0.1773842 0.054333806
0.05283255 -0.16469671 -0.18735166 -0.15742691 -0.1779921 0.022033252 0.005205655 0.09870789
0.033468053 -0.121681534 0.0021717895 -0.10229424 0.16279578 0.08673697 0.13687332 0.0982737
0.08587764 -0.078704074 -0.082212314 -0.16792153 -0.022675794 -0.0649031 -0.08178142 -0.00500327
-0.011769811 -0.18634167 0.030022291 -0.07298779 0.039335992 -0.17354903 -0.0041922145 0.016851246
0.011053667 -0.01794025 -0.15099658 -0.08402894 0.044623867 0.011474042 0.015042838 -0.084711865
-0.03231755 -0.05720386 -0.06343983 0.059090465 -0.15133142 -0.0037735337 0.08534936 -0.21717714
-0.019312855 0.0066058408 -0.019405145 0.052990235 0.014902782 -0.11130314 -0.0091039315 -0.026589671
-0.014698809 -0.09312781 0.0679068 -0.08605293 0.0022700347 0.033069 -0.056909412 -0.08720702
-0.007204493 -0.015233892 0.0065536364 0.010641179 0.08394762 -0.08132877 -0.1409779 -0.06380471
0.12886071 -0.044025067 0.09068728 -0.12060833 -0.02802893 0.120352454 0.043003503 0.1072199
0.03650084 0.034329917 -0.0011622298 -0.031175315 -0.12439159 -0.0802887 -0.08246736 -0.052210238
-0.16085808 -0.06727626 0.08414672 -0.067988046 -0.01084627 -0.0005988407 0.08017268 0.04255551
0.059885472 -0.005799145 0.045204587 -0.0673897 0.14085513 0.121858 -0.104232624 -0.06865105
0.007412187 0.086474605 -0.08579885 0.016508719 0.08173375 0.038601372 0.04138936 0.03787455
0.08068185 0.09281906 -0.053343717 -0.017692903 0.11709414 0.037655555 -0.037063673 -0.026346723
0.09786003 -0.0036814078 -0.06471506 0.037811924 -0.100694306 -0.017533597 0.15493773 -0.078987524
0.024760079 0.02743948 0.045888636 -0.08583683 -0.020549389 -0.03092532 0.043240186 -0.100805335
0.042537574 -0.038606726 -0.068236664 0.021992078 0.0009387301 -0.07747095 0.033540625 -0.03350847
-0.042928856 0.073903434 0.0037462306 0.13597885 0.0008199136 -0.13387443 -0.075507805 -0.08999479
0.0530778 0.029711314 -0.14011782 -0.05680076 -0.0018854681 0.119256675 -0.017457709 0.021610426
-0.12872827 -0.057113744 0.03386628 -0.09621364 0.034773868 -0.0042792545 -0.045185953 0.029572299
-0.124931276 -0.08899401 -0.014536211 -0.080959804 0.10916915 0.014647012 0.034579966 -0.08455281
00000000: 8d39 50bc 0d6f d23d fa0d bf3c 1bfc aebd
00000010: dc94 253d bcd8 043e b07e e2bc 5a0d a7bd
00000020: bae5 383e 0679 bd3d 66c1 46be 3d0d 063d
00000030: 0a50 033e 0559 8a3c b139 06bd b9f9 d63c
00000040: ab27 cd3d 0cf2 9ebd f336 0fbd bf31 8a3d
00000050: 43d6 813c 7c40 3e3e c6be 683d f738 e03c
00000060: 91df d8bd d090 52be 9077 7a3d eb5a 70bd
00000070: 3ed8 9bbd 3b78 b0bd 67d5 abbd 8658 0b3d
00000080: e16a 093c 7fa7 c4bd 298d 133d ae91 b03d
00000090: 67fc b03d 9d06 62bd 3c24 1f3d 2160 b9bd
000000a0: fa57 f0bc cc10 183a 82bd c03b 67cd ebbd
000000b0: ed66 2bbe c3f3 45bd d07c a93d 8d2a e0bd
000000c0: 62ea 05be 8038 a7bc 4f80 563d 8a05 9e3d
000000d0: 6cae a2bd cf45 f13c 7066 e0bd be5f f1bd
000000e0: 8626 bebd 62fb fcbc 80c4 92bd c1be eabc
000000f0: 678b 0b3c 1f2d 563d 52c6 d03d 72a2 413d
00000100: 6867 03be 84e5 91be e3a9 02bd 3f69 c23d
00000110: 643b 3cbe 0ed1 4ebe b262 b53d 6409 1abd
00000120: 8f91 57bd 674c fe3d 0c35 8dbc 6af9 00be
00000130: e9e9 7b3c 80a4 d23c 34a4 353e 208d 5e3d
00000140: f266 583d 41a6 28be 1dd9 3fbe 8534 21be
00000150: 9043 36be 147f b43c 3394 aa3b 5d27 ca3d
00000160: cc15 093d 2b34 f9bd 9554 0e3b a47f d1bd
00000170: f0b3 263e 27a3 b13d 8528 0c3e b943 c93d
00000180: 9ee0 af3d 9a2f a1bd ee5e a8bd 9ff3 2bbe
00000190: 96c2 b9bc ebeb 84bd 047d a7bd 79f2 a3bb
000001a0: 2ad6 40bc 5ad0 3ebe 4ff1 f53c 9f7a 95bd
000001b0: c71e 213d d6b6 31be d85e 89bb a00b 8a3c
000001c0: 711a 353c 6ef7 92bc d99e 1abe 5d17 acbd
000001d0: 84c7 363d 9ffd 3b3c 3c76 763c 6a7d adbd
000001e0: 685f 04bd 984e 6abd beec 81bd d808 723d
000001f0: a0f6 1abe 644d 77bb a5cb ae3d af63 5ebe
00000200: fe35 9ebc cf75 d83b 8af7 9ebc 4a0c 593d
00000210: cc2a 743c e7f2 e3bd a828 15bc 95d2 d9bc
00000220: 46d3 70bc cbb9 bebd b812 8b3d 853c b0bd
00000230: ddc4 143b 5c73 073d d819 69bd 9899 b2bd
00000240: ab13 ecbb 9397 79bc e3bf d63b 5758 2e3c
00000250: bbec ab3d b38f a6bd 835c 10be 0bac 82bd
00000260: 10f4 033e a153 34bd 41ba b93d 8001 f7bd
00000270: ed9c e5bc 597b f63d 7124 303d 1b96 db3d
00000280: e881 153d 879d 0c3d f655 98ba 6063 ffbc
00000290: 05c1 febd 676e a4bd a6e4 a8bd 67da 55bd
000002a0: fbb7 24be 23c8 89bd 1e55 ac3d 513d 8bbd
000002b0: 8eb4 31bc 85fb 1cba 9331 a43d b04e 2e3d
000002c0: 784a 753d c106 bebb 7228 393d 9c03 8abd
000002d0: 543c 103e b090 f93d ea77 d5bd ec98 8cbd
000002e0: eee1 f23b 9919 b13d 4fb7 afbd 4b3d 873c
000002f0: 0664 a73d 791c 1e3d e487 293d 5822 1b3d
00000300: 873c a53d eb17 be3d f17e 5abd b5f0 90bc
00000310: 0dcf ef3d b63c 1a3d 14d0 17bd 15d5 d7bc
00000320: d76a c83d c643 71bb 5489 84bd ade0 1a3d
00000330: d138 cebd 9ea2 8fbc ffa7 1e3e 36c4 a1bd
00000340: a6d5 ca3c c3c8 e03c b9f5 3b3d 38cb afbd
00000350: 3157 a8bc 1957 fdbc 9f1c 313d 0773 cebd
00000360: e13b 2e3d 1622 1ebd aabf 8bbd bb28 b43c
00000370: 1c15 763a 17a9 9ebd e561 093d 2d40 09bd
00000380: 2bd6 2fbd af5a 973d 5283 753b 0a3e 0b3e
00000390: 78ef 563a 6116 09be d6a3 9abd 304f b8bd
000003a0: 1b68 593d 2465 f33c 0c7b 0fbe eaa7 68bd
000003b0: d021 f7ba d83c f43d 7803 8fbc 5908 b13c
000003c0: 58d1 03be 1af0 69bd 5eb7 0a3d a80b c5bd
000003d0: 0b6f 0e3d fd38 8cbb e814 39bd 9b41 f23c
000003e0: f8db ffbd 7e42 b6bd 4a29 6ebc 41ce a5bd
000003f0: 1394 df3d 05fa 6f3c b9a3 0d3d 062a adbd

a2c_network.actor_mlp.4.bias f4 [64]
-0.13816975 0.022676522 0.062496897 0.07463909 -0.040294673 -0.07825199 0.0001821499 0.055454522
-0.10806865 0.007920941 0.14406167 -0.20604827 0.046725873 -0.0749895 0.028825182 0.078830786
0.036161255 -0.046510756 -0.113057844 -0.015234441 0.07673739 -0.06660193 0.22426538 -0.00038553769
0.11374957 0.13578607 0.0076336875 -0.1706637 -0.14129978 -0.039206013 -0.061314724 -0.1495136
0.064115286 0.028940594 -0.059885744 -0.04700853 -0.03455584 0.07110165 0.043660004 -0.09555568
0.0736998 0.0801597 -0.0323359 0.012768123 -0.10383394 -0.085636646 -0.04632141 -0.01146676
-0.02852664 0.037605137 -0.16159147 0.031652052 0.083039425 0.061793674 0.13829428 0.08695575
-0.08714529 0.008310543 0.08054046 -0.085395575 -0.15009561 -0.10155334 -0.006899248 -0.023884693
00000000: 5f7c 0dbe 1dc4 b93c bffc 7f3d 61dc 983d
00000010: 070c 25bd 9442 a0bd 7eff 3e39 4824 633d
00000020: 1953 ddbd d6c6 013c e784 133e 51fe 52be
00000030: a163 3f3d 1894 99bd ca22 ec3c 0972 a13d
00000040: d31d 143d 1082 3ebd df8a e7bd e099 79bc
00000050: 7e28 9d3d 9866 88bd d3a5 653e fe21 cab9
00000060: 89f5 e83d 810b 0b3e 0324 fa3b 77c2 2ebe
00000070: e4b0 10be 7c96 20bd 2625 7bbd 181a 19be
00000080: e04e 833d d314 ed3c c14a 75bd 048c 40bd
00000090: 6d8a 0dbd be9d 913d d5d4 323d b2b2 c3bd
000000a0: ecef 963d c52a a43d a672 04bd 6431 513c
000000b0: e4a6 d4bd 4462 afbd 85bb 3dbd 14df 3bbc
000000c0: b3b0 e9bc d807 1a3d 3c78 25be 95a5 013d
000000d0: 9310 aa3d 5d1b 7d3d 049d 0d3e db15 b23d
000000e0: 3b79 b2bd f228 083c 66f2 a43d e0e3 aebd
000000f0: aab2 19be 33fb cfbd 1613 e2bb d5a9 c3bc

a2c_network.value.weight f4 [1, 64]
-0.0033273546 -0.016078876 -0.0044071386 0.072676204 -0.0012450422 -0.024283232 -0.0013455149 0.009104209
-0.11353973 -0.032358177 0.052136764 -0.09536033 -0.021187298 -0.0020237623 0.011351906 -0.027785167
0.013185292 0.040212728 -0.009916074 0.00085762027 0.086073704 -0.056121442 0.08050531 0.018431695
-0.007869226 0.16633433 -0.044208996 0.011709241 -0.027878378 0.0061849495 0.01117766 -0.0010474566
0.100283116 0.21432495 -0.014712501 -0.014737471 -0.024575194 0.0447652 0.012790873 -0.03510091
0.022999512 0.021275992 0.0018228616 0.5281868 -0.02609353 0.010706143 -0.0022665611 -0.062630564
-0.032736987 0.053424265 -0.066889 -0.01560961 0.0029967078 0.060451724 0.07585935 0.061447397
-0.005887034 -0.00361517 0.038772773 0.024933156 -0.00055292674 -0.002451499 0.15339048 0.026922913
00000000: bf0f 5abb d9b7 83bc c269 90bb 43d7 943d
00000010: af30 a3ba a1ed c6bc fd5b b0ba d229 153c
00000020: 8587 e8bd 028a 04bd 5c8d 553d 474c c3bd
00000030: fc90 adbc 19a1 04bb 58fd 393c b89d e3bc
00000040: 1f07 583c 1ab6 243d 0777 22bc ecd1 603a
00000050: 6947 b03d 99df 65bd f8df a43d 11fe 963c
00000060: eded 00bc 8c53 2a3e 7e14 35bd 1ed8 3f3c
00000070: 3261 e4bc 1eab ca3b 8122 373c d04a 89ba
00000080: 3c61 cd3d 0078 5b3e b40c 71bc 6f75 71bc
00000090: eb51 c9bc b75b 373d cf90 513c f9c5 0fbd
000000a0: 7969 bc3c fd4a ae3c 16ed ee3a 4037 073f
000000b0: 19c2 d5bc d268 2f3c 968a 14bb 7444 80bd
000000c0: 3817 06bd 67d3 5a3d 1afd 88bd 73bf 7fbc
000000d0: 6a64 443b 3a9c 773d 265c 9b3d 44b0 7b3d
000000e0: 05e8 c0bb 7dec 6cbb 33d0 1e3d 9e40 cc3c
000000f0: 49f2 10ba 54a9 20bb 6512 1d3e 718d dc3c

a2c_network.mu.weight f4 [12, 64]
0.039138805 -0.05455083 0.02624795 0.05024962 0.03509589 0.008195087 0.0045398516 -0.058253177
-0.037672196 0.061411694 0.054068744 -0.1268517 0.06999759 -0.111412115 0.033283208 -0.0039181868
0.079979695 -0.114255786 0.04505454 0.018010154 0.06223899 -0.00629701 0.009598694 -0.032450687
0.09086371 0.039123796 0.101266086 -0.03196758 -0.022972554 -0.060992178 -0.01630467 -0.028216766
0.060730007 -0.14825748 -0.043493804 0.09816175 0.031724885 -0.07350875 0.0054642837 -0.014945736
0.07094475 0.06406505 0.041289825 0.0002103013 -0.053588126 -0.020317461 0.035315044 0.010694652
0.0008346737 0.019628141 -0.054434583 0.0044993972 0.06254788 0.05200275 0.0059252484 0.015909746
0.02920732 -0.07056932 -0.016776726 -0.08551086 -0.16108173 0.01754016 -0.13867375 -0.045282785
-0.025629858 -0.11655315 -0.011854372 0.25355354 -0.0135451285 -0.1423531 0.12850834 -0.027162973
0.041327 -0.033267222 -0.016500676 -0.10031993 -0.04641969 0.05534721 0.06001739 -0.0033441868
-0.074666046 0.14234819 0.008371734 -0.02072031 0.06784937 -0.0022305185 0.018644035 0.05577022
-0.00858363 0.021962492 0.035023645 0.037558928 0.08679334 -0.1249163 0.07689469 0.0696367
-0.1493964 -0.060656343 -0.21155153 0.033682864 0.09305829 -0.10848209 0.16858275 0.06542958
0.02308667 -0.07701795 0.058694154 -0.108544715 -0.087227866 0.04493967 -0.16235611 0.15678376
0.12823528 -0.022408962 -0.10858065 0.13330215 -0.054863904 -0.14500138 0.009792025 0.16110483
-0.2155549 0.08674342 -0.11072942 -0.066203654 -0.0128898 0.14938575 -0.024574496 0.03135565
-0.0069968924 0.0032031406 -0.26115766 -0.046189353 0.11919729 -0.082553916 0.044330504 0.0989663
-0.049599737 0.07137321 -0.08934221 0.07107649 0.07220695 0.09731505 0.12583715 -0.02010207
-0.11541636 -0.055878155 0.0958597 0.04416415 -0.20315395 -0.011897041 -0.038648814 0.075345375
0.016617749 0.019087214 -0.028387496 0.017730016 -0.07807198 0.0098082 0.016857335 0.021693911
0.06236074 0.029376855 0.105156966 0.039058346 0.0026968985 -0.14321484 -0.12105905 0.0047494266
-0.015731102 -0.091298856 0.019288326 0.022633296 -0.033779126 -0.15455498 -0.18553601 -0.044930056
-0.07355319 0.2475634 0.086640485 0.067580335 -0.056086518 0.08407521 0.019700654 0.044354904
0.13945588 -0.065765604 -0.07035072 -0.07352558 -0.013782473 -0.051930334 0.07493301 -0.11929263
0.1376712 -0.06444047 0.04378683 0.24016532 0.02129046 -0.004922881 -0.03434855 0.006997497
-0.0030767843 -0.119287364 -0.031006107 0.13925572 -0.10826879 -0.10457977 -0.06261945 0.019948078
0.08132635 0.20660725 0.057442512 0.004180895 0.083408535 -0.06919034 0.0042905775 0.0029011075
-0.10083845 -0.055252045 0.04490403 0.13578196 0.070882134 -0.03325354 -0.011639188 0.041791167
0.16220914 -0.12320886 0.09208613 -0.02115468 -0.036878586 -0.030687766 -0.12454547 0.14181027
0.025763784 -0.04510603 -0.03297401 -0.18103407 0.0153559 -0.21389674 -0.023652833 -0.14981125
-0.01652144 0.033398014 0.028847765 -0.028507046 -0.10790847 0.005988495 -0.097370096 -0.08269708
-0.0318336 -0.06672453 -0.013885019 -0.03257911 0.014681524 0.0384801 -0.029432833 -0.1556571
00000000: 0350 203d b170 5fbd f105 d73c 8cd2 4d3d
00000010: b5c0 0f3d b044 063c 09c3 943b e29a 6ebd
00000020: 294e 1abd d48a 7b3d 3077 5d3d 69e5 01be
00000030: e55a 8f3d 092c e4bd f953 083d 2264 80bb
00000040: 65cc a33d f0fe e9bd 1c8b 383d 088a 933c
00000050: 50ee 7e3d 2657 cebb d743 1d3c 03eb 04bd
00000060: c116 ba3d 4640 203d 9864 cf3d 70f0 02bd
00000070: f030 bcbc efd2 79bd 5f91 85bc d926 e7bc
00000080: 07c0 783d cfd0 17be 8f26 32bd 0709 c93d
00000090: f4f1 013d c18b 96bd bc0d b33b f6de 74bc
000000a0: 7b4b 913d 8934 833d 851f 293d 5384 5c39
000000b0: 397f 5bbd ce70 a6bc 82a6 103d 9f38 2f3c
000000c0: 01ce 5a3a 32cb a03c ccf6 5ebd ae6f 933b
000000d0: 1a19 803d d600 553d 9628 c23b 2855 823c
000000e0: 3144 ef3c a686 90bd 586f 89bc 5120 afbd
000000f0: 9cf2 24be 62b0 8f3c 7e00 0ebe 717a 39bd
00000100: b5f5 d1bc 6bb3 eebd d738 42bc c5d1 813e
00000110: 63ec 5dbc 03c5 11be b197 033e e284 debc
00000120: 8046 293d 3643 08bd 6d2c 87bc 8974 cdbd
00000130: 9322 3ebd c2b3 623d cbd4 753d 252a 5bbb
00000140: 83ea 98bd b9c3 113e 9929 093c a4bd a9bc
00000150: 9cf4 8a3d e42d 12bb 60bb 983c 506f 643d
00000160: 5ba2 0cbc afea b33c f474 0f3d 64d7 193d
00000170: b5c0 b13d 1ed4 ffbd f77a 9d3d b09d 8e3d
00000180: 5ffb 18be c972 78bd f7a0 58be 0bf7 093d
00000190: 5895 be3d dc2b debd f5a0 2c3e f2ff 853d
000001a0: 4220 bd3c 96bb 9dbd 4869 703d b14c debd
000001b0: 86a4 b2bd a912 383d ae40 26be ec8b 203e
000001c0: 1c50 033e 0093 b7bc 885f debd 5c80 083e
000001d0: f9b8 60bd 3e7b 14be bb6e 203c aaf8 243e
000001e0: 6cba 5cbe 89a6 b13d 1bc6 e2bd c895 87bd
000001f0: bd2f 53bc 94f8 183e 7450 c9bc c86e 003d
00000200: 3046 e5bb c8eb 513b 75b6 85be 0c31 3dbd
00000210: b51d f43d 0712 a9bd e793 353d d8ae ca3d
00000220: 1829 4bbd 1e2c 923d 0cf9 b6bd 8d90 913d
00000230: 3de1 933d 1d4d c73d 74db 003e 19ad a4bc
00000240: 6a5f ecbd 7ee0 64bd 1752 c43d 78e5 343d
00000250: 9707 50be cfeb 42bc 384e 1ebd ad4e 9a3d
00000260: f221 883c ca5c 9c3c e58c e8bc 8a3e 913c
00000270: 34e4 9fbd 93b2 203c 6518 8a3c 6eb7 b13c
00000280: fa6d 7f3d bba7 f03c 895c d73d a5fb 1f3d
00000290: 73be 303b e9a6 12be cfed f7bd 14a1 9b3b
000002a0: 83de 80bc e5fa babd 8d02 9e3c 7669 b93c
000002b0: fb5b 0abd a943 1ebe 27fd 3dbe 9408 38bd
000002c0: 0ea3 96bd 4381 7d3e 9170 b13d 8f67 8a3d
000002d0: faba 65bd a02f ac3d 4463 a13c 7dad 353d
000002e0: 86cd 0e3e 1eb0 86bd 0a14 90bd 9494 96bd
000002f0: e2cf 61bc e7b4 54bd 7a76 993d b24f f4bd
00000300: aef9 0c3e 5df9 83bd d259 333d e6ed 753e
00000310: 5569 ae3c 1e50 a1bb 11b1 0cbd 424b e53b
00000320: e0a3 49bb ef4c f4bd 8500 febc 0d99 0e3e
00000330: 07bc ddbd eb2d d6bd a03e 80bd 276a a33c
00000340: 6e8e a63d da90 533e d748 6b3d e4ff 883b
00000350: 18d2 aa3d aab3 8dbd f997 8c3b 8220 3e3b
00000360: 6484 cebd f84f 62bd 4aed 373d 6d0a 0b3e
00000370: a72a 913d dd34 08bd 4bb2 3ebc 372d 2b3d
00000380: 271a 263e ed54 fcbd a797 bc3d 944c adbc
00000390: 000e 17bd e964 fbbc b211 ffbd b636 113e
000003a0: 920e d33c 1ac1 38bd c10f 07bd ff60 39be
000003b0: 5097 7b3c bf07 5bbe 96c3 c1bc 1f68 19be
000003c0: f957 87bc 5bcc 083d 2652 ec3c 9c87 e9bc
000003d0: 1eff dcbd 233b c43b f969 c7bd 165d a9bd
000003e0: f363 02bd dfa6 88bd fe7d 63bc ac71 05bd
000003f0: c68a 703c 4f9d 1d3d 201d f1bc 9364 1fbe

a2c_network.mu.bias f4 [12]
0.11250231 0.027196178 0.03759908 -0.13197677 -0.07619861 0.044529382 0.0061699497 -0.013120065
-0.03442022 0.08101934 0.009551531 0.035552025
00000000: 9c67 e63d 85ca de3c 7e01 1a3d eb24 07be
00000010: 040e 9cbd 7164 363d 4a2d ca3b 8bf5 56bc
00000020: 37fc 0cbd 78ed a53d 067e 1c3c 009f 113d

exp_avg f4 [12]
-0.0025601645 0.00092900684 -0.0014294202 0.001682011 0.00039000213 -0.0017284815 0.0010545335 0.0018846467
-0.0014561479 -0.0003531916 0.0011408658 -0.0022463743
00000000: 6fc8 27bb 9888 733a 625b bbba ec76 dc3a
00000010: 3379 cc39 378e e2ba 4638 8a3a 4006 f73a
00000020: 37dc beba 932c b9b9 1b89 953a e837 13bb

exp_avg_sq f4 [12]
2.6181366e-05 2.6456273e-05 2.6645468e-05 2.5831892e-05 2.6498958e-05 2.4872312e-05 2.9173167e-05 2.6927777e-05
2.4154178e-05 2.251385e-05 2.485984e-05 2.5702999e-05
00000000: 0ea0 db37 6aee dd37 b584 df37 91b1 d837
00000010: 144a de37 e2a4 d037 e6b8 f437 f6e2 e137
00000020: b49e ca37 20dc bc37 1a8a d037 c59c d737
