OmniIsaacGymEnvs/omniisaacgymenvs/runs/Naranjelio/nn/last_Naranjelio_ep_2700_rew_-0.9704353.pth (torch, 672859 bytes, 36 tensors)

value_mean_std.running_mean f8 [1]
00000000: 6abc 5874 17c4 ebbf
-0.8676869652171153

value_mean_std.running_var f8 [1]
00000000: 8527 8e85 ac66 7c3f
0.006933854973690039

value_mean_std.count f8 []
00000000: 0000 0001 00a4 bf41
530841601.0

running_mean_std.running_mean f8 [48]
00000000: 2ece 2852 72ae a0bf c75b a911 b3e6 c4bf
00000010: 5970 c5ad 74c2 e0bf df0f 5f9f 1486 c03f
00000020: 7814 f8a0 4ce3 abbf 449d e146 f797 81bf
00000030: 787f 06b0 b395 af3f d264 3ba8 cea2 973f
00000040: 7b23 e341 99e4 efbf 5e91 5e23 e8b1 403f
00000050: 1c1b 32f2 4eb3 45bf 9fbf b06c c87b fe3e
00000060: bc6f 822f 754a 8bbf 1c5e 2524 55e5 a6bf
00000070: 0601 3f38 415b 243f 3ff8 be8a 6db2 a6bf
00000080: 097f 7d6f 1cb4 a6bf e8ab 783d f020 aabf
00000090: b448 d361 6caf a9bf 70ee 67b6 c421 a0bf
000000a0: e52e 1ae6 c7bc 973f 621a 20a4 1e8c 663f
000000b0: 9426 43d5 a74f ac3f e620 5973 f56f 61bf
000000c0: da7e dbb0 8209 41bf a835 f866 4003 43bf
000000d0: 5aab 9ea0 cded 05bf e09c 89c2 2c1f 4dbf
000000e0: e2c9 9277 c3a6 4ebf aa6f 67e8 9afb 3fbf
000000f0: 4020 54c9 196b 43bf c594 0bd2 c90c 97bf
00000100: ea22 e174 4534 533f 1115 a78c b3c4 443f
00000110: 64d3 52a1 ac2f 513f d282 7d2d 5f63 e23e
00000120: 4066 0262 6b22 cc3f acc5 603b e794 eabf
00000130: 826e 49e9 69a3 d93f bc88 bb0f 1857 ebbf
00000140: 8732 92fe 1b7d e9bf dc34 a83a 635e e0bf
00000150: 63bd 3378 2590 c63f 61a7 b521 ede5 aabf
00000160: 895d 1eb2 ebce e33f 87d2 d24d 98df c8bf
00000170: eea5 01ac eb7b debf 5978 bab6 38f8 a43f
-0.03258092167780223 -0.1632903896558828 -0.5237372774095191 0.12909181386760246 -0.05446853127436041 -0.008590633249879638 0.0616890098929152 0.02308199788862881
-0.9966551100597906 0.0005094893920057177 -0.0006622443655864593 2.907135676027928e-05 -0.013325610649466905 -0.044718418753003614 0.00015530749453596826 -0.04433004683186014
-0.04434288845982166 -0.05103255033858273 -0.050166499082153676 -0.03150763250957034 0.023181079310730452 0.002752361150672387 0.055295223982807645 -0.0021285814243904187
-0.0005199325694000515 -0.0005802216018665944 -4.1826093436134456e-05 -0.0008887260965594578 -0.0009354071072691895 -0.0004880192940654957 -0.0005926013861037374 -0.0225097212268295
0.0011721304213258518 0.0006338001924680888 0.0010489641038422199 8.768163226314909e-06 0.2198003986894026 -0.8306766662337188 0.4005989816848584 -0.8543815905834644
-0.7965221378413653 -0.511521925510944 0.176273997967182 -0.05253544842237435 0.6190088728789515 -0.1943235759732895 -0.4763135127783177 0.04095628004618907

running_mean_std.running_var f8 [48]
00000000: e395 e39b 7fec 833f a958 5b6c e8ae af3f
00000010: 151a acf9 6aba d83f 7564 f63b 38b2 9f3f
00000020: b6ae f25e 9d2b 743f 46d5 8c2f de60 313f
00000030: 0493 6dc8 1c58 5b3f 7969 c653 ba9d 453f
00000040: ac4c 5d30 42d8 e73e eae9 c4f7 cd53 1540
00000050: 7fbb 2ea9 0955 f53f d59b 9423 f157 953f
00000060: 250c cf3e 72b3 303f 5447 49e5 c814 483f
00000070: 2a25 83c3 863d 763e c63e 1661 3d30 493f
00000080: b5d9 e442 2b07 483f 3cd9 46a3 143d 4a3f
00000090: 1f0e 421a 9d57 493f 56f0 d10e 616b 513f
000000a0: 0941 8007 c8a1 433f e15c 0ba1 bf57 c53e
000000b0: 6672 da28 18ec 4e3f 1a82 fbc9 d892 b63e
000000c0: 4cd1 2e6d 7fb5 d83e 843d 83e6 0b43 eb3e
000000d0: a700 2d2f 39bb 9f3e a7ca 91a1 253d e23e
000000e0: 9e67 342c 8fbd e63e cecc 70f2 a41c d23e
000000f0: b39f fbb2 e201 c63e e7d0 40d4 b006 533f
00000100: 007f 3540 1537 f63e b3a2 7227 ade1 9e3e
00000110: 9d3c 76e5 4fb8 e83e dd90 a58e fa1a ae3e
00000120: 63f4 45f3 6234 e43f 4131 5d62 8a78 b93f
00000130: b8d9 f681 5030 dd3f 362a a7a5 646a bd3f
00000140: bde4 4fd9 6002 be3f 0677 b297 dc21 d73f
00000150: d803 ec1f 7271 d83f 65c8 4cd0 5306 e33f
00000160: 4a4c 5360 a358 d33f 6147 0142 c5dc dc3f
00000170: f919 a940 03e9 db3f 42da b852 e986 df3f
0.009728428788046755 0.061881316401625704 0.38637804395730885 0.030953291568583247 0.00492440674785726 0.0002651731916104193 0.0016689568598959323 0.0006596717644698345
1.1370067578708676e-05 5.3318403924881554 1.3332611664479541 0.020843284413014935 0.00025483645623242324 0.0007348996101177265 8.28517138256681e-08 0.0007686900809619971
0.0007332764851415904 0.000800738408137026 0.0007733838179010999 0.0010631988364187181 0.0005991198258943629 2.5442561838274427e-06 0.0009436719862666143 1.3454926274734687e-06
5.891078859333463e-06 1.2999487083580374e-05 4.728338318001157e-07 8.696964004272402e-06 1.084349913198554e-05 4.318211529730221e-06 2.6234823947597304e-06 0.00116126316517034
2.1186035167430027e-05 4.6017093020349184e-07 1.1787399826683395e-05 8.972104102275965e-07 0.6313948394232621 0.09949555303064007 0.456073882024977 0.11490468067419432
0.11722379022093583 0.36144175352261276 0.381924182103885 0.5945223873479902 0.3022850456883971 0.45097476430702527 0.4360969668818196 0.4926093395073715

running_mean_std.count f8 []
00000000: 0000 0002 00a4 af41
265420801.0

a2c_network.sigma f4 [12]
00000000: 83d9 18c0 a884 27c0 cbdc f6bf 88c7 0dc0
00000010: 5ef9 14c0 742a 19c0 62b8 1ec0 b9cb 13c0
00000020: 04fd 20c0 8989 05c0 c4d3 16c0 3372 2cc0
-2.3882759 -2.6174717 -1.9286131 -2.2153034 -2.3277202 -2.3932161 -2.4800038 -2.3093092
-2.5154428 -2.0865195 -2.3566751 -2.6944702

a2c_network.actor_mlp.0.weight f4 [256, 48]
00000000: 0d5f 2cbd a6f3 213d 37a9 fcbd eeec a2bd
00000010: a98a 73bc ff2a b2bc 2eff e9bd 0a46 233e
00000020: e2ff af3c 937c 28bf 64a0 9dbe de9c 9cbd
00000030: 598e ddbd 65ff 953d c0fe c33d 8521 29bd
00000040: 85d8 023e 42a7 f53d 308e 3dbd 9c2b 663d
00000050: 9214 a0be 6880 9fbc eddb dbbd ceb0 0c3e
00000060: 279e 2a3d 2d6d ab3c 3ac6 efbc f919 993c
00000070: ae0a 3d3c 34fd c7bc ca05 c43c 73b3 4ebe
00000080: 8558 0ebe 7dfe 95bd 5df5 37be 0024 8d3d
00000090: 0224 163e d3e6 c93d f341 0f3d bddb e53b
000000a0: d25f 1b3e ea30 b43d d109 153d 479a 153e
000000b0: 2c29 3a3e 8464 32bd 022b a1bc 2d21 b5bd
000000c0: 9136 c7bd 9a39 d43d 5067 403e d99d 8fbd
000000d0: 1851 e5bd cdc2 123e 3646 2ebd 60ed 3abe
000000e0: 0f2a b8bc a051 2dbe 1801 75bb a3b4 0b3e
000000f0: 990b 023d ec86 9c3b 575d 0abe 303a b53c
00000100: 41d0 2d3d 1575 b93c 8387 4e3c 1349 c83d
00000110: 55ac 4e3e d9fc 873d ef3a 233e 63da 403d
00000120: d2a2 1dbc a538 2ebe 2fb8 273e 8a1a 45be
00000130: fa60 e0bd 3939 e73d 877b a4bd ae7c 393e
00000140: a94a c4bd 074e 8abc 96a3 773c 6ad0 87bc
00000150: d12c 2fbd 124a 26bd 43bf d23d b2c6 d03c
00000160: dc1a 9d3d ef5a 36bd 2194 903c 38e5 e2bd
00000170: 7705 f53d 1fc5 bc3d 5b6f 77be 571b 8fbd
00000180: 9900 1dbe de3d 2f3e 63cb 59be d11d 00bd
00000190: a461 c23c 4bf7 93bd d0bc 223d b0e2 37be
000001a0: 4aee 91bd 9fbb a7bd 004a f5bd 4cc3 b9bd
000001b0: 902b 203d 7d2c 91bc 2d76 893e af47 043e
000001c0: 8db8 303d 4af8 ebbd b7bf 06be f3df 07bd
000001d0: f897 a43d 960d 97bc b11d 013e 92fa 1ebe
000001e0: 7f7d 85bd ee3e 6f3d a588 09be dc83 24bd
000001f0: a0f3 983d 7cf0 14bb 719d 48bd b02e 0b3e
00000200: cd1a 2abd eb3f 7cbd 56b1 c5bc ba5e 1bbe
00000210: 79c0 1bbd 5104 a7bc a92d 40bc e950 293c
00000220: 2615 a8bd 808f aabc e728 153e 94e9 35bb
00000230: 97dc 90bd c207 64bd 9f40 2cbd 1ff9 0c3d
00000240: 6f66 73be 157f 163d ca95 6a3e 264d a2bd
00000250: 1490 0b3e 0f87 153e 08db 91bd 68d5 7a3b
00000260: 7717 8c3e 9df3 dbbd 11ef 493d b3c9 333e
00000270: 4003 173e 8545 ecbd a479 e63e 4d3f 053e
00000280: 247d c33d 6693 8ebd 3535 093e 14b4 233e
00000290: 1299 313d 1375 013d a6a6 c2bc aabb f2bc
000002a0: 5ff7 653d 91a0 f8bc d28e 5dbe a765 873d
000002b0: 8def 7e3d 0009 df3c 9c25 9cbe a4a2 09be
000002c0: f6b0 2e3e 7057 da3d 8796 c43b 7966 db3c
000002d0: 37c9 ebbd 189f 8c3d 9b34 7cbd 9953 7d3d
000002e0: 94f7 b93d 35ad a23d 4cb8 e43c e25d b33d
000002f0: 8ff6 00be 083b d5bc bbe3 f1bd f45f 9e3e
00000300: b2bd e6bd 9470 8a3d 061e 13bc 41ba 873d
00000310: 8f43 9dbd 0f91 e63d 2cf5 873e fe36 6cbe
00000320: 93ab 9cbd cd88 3ebc 56a5 ee3d 58cb 30bd
00000330: bc56 dd3d cf7e 663d 39b8 d0bd 5482 003e
00000340: afbb 27ba 8cd3 48bd ab33 14ba ed52 82bd
00000350: 7b5e ec3d 2bd1 1dbd 2f84 373e ae88 39bd
00000360: 2d74 013e 29f0 b6bc daf5 18bd cdcb 6bbd
00000370: 3ba3 103e f6a5 f33d f295 cfbd 9c10 d23d
00000380: 16c6 f4bc 258c 27be 9e60 2dbe c3ac 973d
00000390: b4a7 d63d 5d3e 6d3d 180d 4b3d 76b4 b9bd
000003a0: 04f6 93bd 7a8a e53b c032 c13d 5b14 983c
000003b0: 497b a53d c849 9abd 210a 323b a760 af3d
000003c0: de5a 4fbe 5ef1 943d cda6 e73e 42c7 fd3d
000003d0: 1b05 3ebe 6fd8 013e aa70 1a3e 7566 163c
000003e0: 1092 50be 5b9a d1bd 102e d6bd a543 1b3d
000003f0: 2eea 013e ee94 6dbd 83f2 0abf f38e c9bc
-0.042082835 0.039539002 -0.12336963 -0.07955347 -0.014864602 -0.021749018 -0.11425625 0.15944687
0.02148432 -0.65815085 -0.3078643 -0.076471075 -0.10818166 0.07324103 0.09570074 -0.041291732
0.12777908 0.119947925 -0.04627818 0.056193933 -0.31265694 -0.019470409 -0.10735307 0.1373932
0.041654732 0.020926083 -0.029269326 0.018689143 0.011538191 -0.024412729 0.023928542 -0.20185642
-0.13900955 -0.073239304 -0.17964692 0.06891632 0.14662173 0.09858479 0.034975003 0.0070147202
0.15173271 0.08798392 0.036386315 0.14609633 0.18179768 -0.04355289 -0.019673828 -0.088442184
-0.097272046 0.10362549 0.1878941 -0.07012529 -0.11197108 0.14332123 -0.042547427 -0.18254614
-0.022480993 -0.16925669 -0.0037384685 0.13643126 0.03174934 0.004776826 -0.13512169 0.022122473
0.042434935 0.022638837 0.012605551 0.09779563 0.20182927 0.06640024 0.1594045 0.04708327
-0.009621339 -0.17013796 0.16378854 -0.19248405 -0.10955997 0.11290211 -0.080313735 0.18113968
-0.09584553 -0.01688291 0.0151146855 -0.016578872 -0.04276735 -0.040597983 0.102903865 0.02548537
0.07671139 -0.044520315 0.017648758 -0.11078876 0.11963933 0.09217285 -0.24163572 -0.069876365
-0.15332259 0.17113444 -0.21268992 -0.031278435 0.0237282 -0.07224902 0.039730847 -0.17957568
-0.07125528 -0.08190083 -0.11977005 -0.09070453 0.039104044 -0.017721409 0.26847973 0.1291797
0.04314475 -0.11521967 -0.13159071 -0.03317256 0.08036798 -0.018439095 0.12608983 -0.15525272
-0.06518077 0.058409624 -0.13431032 -0.040164813 0.07468343 -0.0022726348 -0.048978273 0.13592029
-0.041529465 -0.061584394 -0.024132412 -0.15172854 -0.038025353 -0.0203878 -0.011729636 0.010334232
-0.08207159 -0.02082038 0.14566384 -0.0027757632 -0.07073324 -0.05567146 -0.042053815 0.034417268
-0.23769544 0.03674229 0.22908702 -0.07924871 0.1362918 0.14602302 -0.07121855 0.0038274173
0.27361652 -0.10739825 0.049300257 0.17557411 0.14747334 -0.11536697 0.4501468 0.13012429
0.09545353 -0.06961708 0.13399203 0.15986663 0.04335887 0.03160579 -0.023761105 -0.0296305
0.056144115 -0.030350002 -0.21636513 0.066111855 0.062240172 0.027225971 -0.30497444 -0.13440949
0.17059693 0.10661209 0.0059993896 0.026782261 -0.11512988 0.06866282 -0.061573606 0.061847303
0.09080425 0.07943193 0.02791991 0.08758141 -0.12594055 -0.026029125 -0.11811014 0.3093258
-0.1126665 0.06759754 -0.008979326 0.06627322 -0.076789014 0.112581365 0.2655424 -0.23067853
-0.07649913 -0.011629296 0.11652629 -0.043162674 0.10807559 0.056273278 -0.10191388 0.12549716
-0.00063985115 -0.04902987 -0.0005653451 -0.06363473 0.11541458 -0.038529556 0.17921518 -0.045296364
0.12641974 -0.022331314 -0.037343837 -0.057567406 0.14124767 0.11896889 -0.10136022 0.10257074
-0.029879611 -0.16362055 -0.16931388 0.074059986 0.104812056 0.057920802 0.049573034 -0.09067623
-0.07224658 0.007005033 0.09433508 0.018564394 0.080801554 -0.07533604 0.0027166682 0.08563357
-0.20249507 0.072726 0.45244446 0.12391521 -0.18556635 0.12680219 0.1508204 0.009179701
-0.20368218 -0.10234519 -0.104580045 0.037906308 0.12686989 -0.05800336 -0.54276294 -0.024604296

a2c_network.actor_mlp.0.bias f4 [256]
00000000: dd2c b6bd 6a2c 663e a54e 823e 372b 2d3e
00000010: 37fa 933e da06 7b3e 3bbc 763d 422d 843e
00000020: e8c5 673e 5e71 4b3e 47b1 2b3d ae18 783e
00000030: b16a b6be b4d9 923d 711e 813e 7787 9e3e
00000040: 9a2b 883e 3490 0c3e d548 8c3e 3403 8bbe
00000050: 7681 f03d fe2c b13e e2c1 27be 7a58 40bd
00000060: beba 8b3e 4dbd b63d f497 8b3e 98ff 5f3e
00000070: 62d0 2f3e 7239 59bd fa80 443c 28ef 873c
00000080: 9ded 553e cde8 39be ccb9 67bd 538f 0a3e
00000090: 2c08 9a3d aa75 483d 136c bdbc 141e ccbb
000000a0: f46a 193d 42da 553e a9d4 ac3d fb3c 8b3e
000000b0: 32a3 e0bd 7b5b 7c3d f43d 5c3d 3afa 95bd
000000c0: 087f 9c3e 9b56 a43e a87d 793e e216 d4bd
000000d0: 7816 6f3e 73b7 c2bd 9ff0 51be 90a0 8b3e
000000e0: 0214 8b3e 781e e33c e6ed 023e 7791 913e
000000f0: 90e3 2dbc ada1 273e f581 f73d 3534 15be
00000100: 4f43 02be 0a94 4dbe ccc4 343e fa7d 8ebe
00000110: a22c 103e 11cf 683e 3c6c 923e c184 19be
00000120: e497 76bd 25e0 a7bd ba83 013c da9a 583b
00000130: 18ef 6f3e bb3a 6b3e e9c0 ee3d 2352 463d
00000140: e500 943e de29 a43d 1a5f 5f3e fb71 6f3e
00000150: 1aec aabd 463b 163d 89b4 4e3e a277 813e
00000160: 45b4 ab3e 069a a93d f6f9 583d f444 633d
00000170: 094d 793e 4cd8 a03e 331f f93d 3bb2 56bd
00000180: bc6b 7f3e 8f3e 8a3e bf34 843e 98f9 04be
00000190: c863 763e a6dc b23d 4414 a03d 8e75 5e3e
000001a0: 9ab5 ae3e f192 073e d568 a23e 8023 ac3d
000001b0: f244 6f3e cdaa cbbb 383f ccbc 6e45 b8be
000001c0: e040 07bd c19d 933e 1722 8d3d f26d 493e
000001d0: daec a4bd 2b12 b33d 7024 703e 256d a53e
000001e0: e72f f53d cee2 093d 4c69 773e 0554 0abe
000001f0: ca6d 7d3e b2dd e73d c5da 08bc 26e9 ca3d
00000200: 18c3 b33d 147d 683e 3b79 453e 0843 9e3e
00000210: 45ac 8b3e 08c9 bb3c d678 14be 9f74 0fbe
00000220: c0c5 a43e 8d06 9c3c 18fd 9e3e 48d0 eebd
00000230: 8744 8a3e 2d58 2e3e 72db b33e 5546 893d
00000240: c4da 1abe e24a 6b3d af5f 3e3d e064 d83e
00000250: 933c 523d 6391 9e3e af03 ee3a e08b 023e
00000260: 3ea0 1e3e abd1 cc3c 32bf c43e 62e9 123e
00000270: 6bd5 843e 2b67 e6bd 58c9 1a3e e4e1 ce3d
00000280: f9df 4ebd 213f 403e 23e9 7bbe 318f 413e
00000290: 71da 363d 0081 813e 6401 84bd c25e 803e
000002a0: 510a 2e3e 5301 f13d 1a54 9c3c 9cee 76be
000002b0: 2f52 823e 952f a43e 4e62 943e cdbb 6f3e
000002c0: 4eea a93e b991 12be 19e1 4ebe 3124 833e
000002d0: 88eb eb3c 1baa f93d 9080 9fbe d76a 573e
000002e0: 7155 903e 5c65 063e 6bd5 a0be 7f8e 9ebe
000002f0: 7fce 1e3e 2bd9 5d3d 9190 a4bd 8f63 f63d
00000300: 74cb 843d 0436 c53e 8e1b 5a3e ac55 bb3d
00000310: eb3c c03e f99f 8cbe fe10 9e3d 86d0 c63d
00000320: 8f20 933e 5fbd 843e e42b 053e 0fa9 803d
00000330: 0fcf be3a fd70 013e 8c0c b73c 77e7 ddbe
00000340: d0aa b63d f18e 9bbe 41bc 123d 8a65 b83e
00000350: 238b 4b3e 8993 88be 2b86 e7bc 29ac 823e
00000360: 6248 09bd 4008 c93d 675a 7ebc deb9 8c3e
00000370: 6662 243e 813c 50bd 2648 863e 85c1 9e3e
00000380: 5261 a93e 64bf 863e 5610 a53e d715 f1bd
00000390: 8a95 873e 1742 203e be88 aa3e f4fe ad3e
000003a0: 7dbc d53d 9083 283d 2ef9 5c3e 7488 87be
000003b0: 2763 19be 7c54 b8bd 11d1 6c3e 06f5 993e
000003c0: ed31 983d dcc3 003e 0eab 3b3d 6f95 a33e
000003d0: e8f8 683e da04 9c3e 5c8b af3c 1794 033e
000003e0: 4937 5abe e02f 873c 3181 a0bd 242a 15be
000003f0: c548 573e 7bd6 3e3e fcfb b7bd 631c 8e3c
-0.08895276 0.2247788 0.25450626 0.16911016 0.28901836 0.24514332 0.060238104 0.2581578
0.22634089 0.19867465 0.04191711 0.24228165 -0.35628274 0.0717043 0.25218537 0.30962726
0.26595765 0.13726884 0.27399316 -0.2715088 0.11743443 0.3460464 -0.16382554 -0.046959378
0.2729091 0.08922825 0.2726437 0.21874845 0.17169335 -0.0530333 0.011993641 0.01659353
0.20891424 -0.18155213 -0.056573674 0.13531236 0.0752109 0.04894034 -0.023122823 -0.0062291715
0.037455514 0.2088404 0.08438999 0.27194962 -0.10968627 0.06161068 0.05377002 -0.073231176
0.30565667 0.32097325 0.2436434 -0.10355927 0.23348415 -0.095076464 -0.20501946 0.27270937
0.27163702 0.02772449 0.12786064 0.28431293 -0.010613337 0.16370268 0.12085334 -0.14570697
-0.12720989 -0.20076004 0.17653197 -0.27830487 0.14079526 0.2273524 0.285982 -0.14992048
-0.060203448 -0.08197049 0.007904941 0.0033051283 0.23431051 0.22971623 0.116578884 0.048418175
0.28906932 0.08015798 0.21813622 0.23383324 -0.08345814 0.03667762 0.20186056 0.25286585
0.33535972 0.08281331 0.052972756 0.05548568 0.24345793 0.3141502 0.12164154 -0.052416068
0.24943441 0.27000853 0.25821492 -0.12985837 0.24061501 0.087334916 0.07816365 0.21724531
0.34122926 0.13239647 0.31720605 0.084052086 0.23366144 -0.0062154294 -0.024932489 -0.3599047
-0.033020854 0.28831294 0.06891268 0.19670847 -0.08052988 0.087437 0.234514 0.32309833
0.11972027 0.033663563 0.24161261 -0.13508613 0.24748912 0.11321582 -0.00835294 0.09907751
0.087774456 0.22703964 0.19284527 0.30910516 0.2727987 0.022923008 -0.1449922 -0.14009331
0.3218212 0.019046092 0.3105247 -0.1166082 0.27005407 0.17025824 0.3512836 0.06702868
-0.15122515 0.05744446 0.04647797 0.42264462 0.0513273 0.30970296 0.0018159057 0.1274867
0.15490815 0.025002321 0.3842712 0.14346841 0.25944075 -0.112501465 0.15115869 0.10101679
-0.050506566 0.18774082 -0.24600653 0.1890228 0.044641916 0.25293732 -0.06445578 0.25072294
0.16996123 0.11767831 0.019083072 -0.2411446 0.25453326 0.32067552 0.2898125 0.23411484
0.33186573 -0.14313401 -0.20203055 0.2561355 0.028798833 0.12190648 -0.31152773 0.2103685
0.28190187 0.13124603 -0.31412825 -0.3096809 0.1550846 0.054162186 -0.08035386 0.12030708
0.06484118 0.38517773 0.21299574 0.091472 0.37546477 -0.274658 0.07718085 0.097077414
0.28735778 0.2592573 0.13005024 0.06282245 0.0014557558 0.12640758 0.02234485 -0.43340656
0.08919299 -0.30382493 0.035824064 0.36014968 0.19877295 -0.2667506 -0.028262218 0.25521973
-0.033516295 0.09816027 -0.015524483 0.27485555 0.16053161 -0.05083895 0.2622692 0.3100702
0.33082062 0.26317894 0.32239026 -0.11771744 0.26481277 0.15650211 0.3330745 0.33983576
0.10436342 0.041141093 0.2157943 -0.26471293 -0.1497923 -0.09000489 0.23126628 0.3006975
0.074313976 0.12574714 0.045817427 0.31949946 0.227512 0.3047245 0.021428756 0.1284946
-0.21310152 0.01650232 -0.07837141 -0.14566857 0.21023853 0.18636505 -0.08983609 0.01734752

a2c_network.actor_mlp.2.weight f4 [128, 256]
00000000: 1ab0 0ebc 7502 48bd 90ab b4bd ba82 73bd
00000010: 01ec e4bd bbf3 0abd d089 23bd 9bbc 42be
00000020: 1940 b4bd 2b16 14be 07af 853d 4b02 11be
00000030: 466f b03d c680 013e d0b1 a53d fa87 783b
00000040: 2b22 cebd 967c 88bb a409 aabd 070a 42bc
00000050: 3045 003d 2ec7 1dbe a4af e23c 6c55 8abd
00000060: b5be 1b3d 7ed7 49bd bbea 33be bf76 0cbc
00000070: 7c5f c1bd d75c 9ebd 24c5 a63c d20b 64bd
00000080: 600c 233e 107c 3f3d 35d3 ff3c 7a12 06be
00000090: 5828 d1bc 0f5f b6bd e4a7 e93d 3aeb ccbd
000000a0: ee80 1b3e 441d 053e 3c32 2b3d 9113 7ebe
000000b0: e8b4 373d cbaf 6abd 6fda 05bd c610 f53d
000000c0: 33f6 c0bc 8911 41bc e209 71bd d832 20be
000000d0: cbfe 4fbe 0410 0e3e 45a1 38bd 65be 2bbe
000000e0: bb80 17be d592 0cbd 30a7 2d3e bc42 823c
000000f0: 2751 d6bd 603e 973d c2e5 893d a94a f3bb
00000100: c0ad dcbd 746e 213d b090 91bd 3b77 38bd
00000110: 90c2 d6bd 2e89 3ebe c330 44bd e497 8d3d
00000120: 7d3b ffbc 3aba b93d 70cb 173e 49d2 73be
00000130: 21a6 523c 88ee 9abd 5b86 52bc 5045 fbbd
00000140: c0d0 edbd efba 603d 9dd6 d83d 67d7 ff3c
00000150: 3f9b c03c cc36 8ebd 89a4 ba3d add5 59bc
00000160: d1c6 1dbe 0ab4 4fbd 7a11 3abe ebee 4d3d
00000170: 4abc bfbd 5b21 9dbd 4b96 033c 68d2 933d
00000180: 1540 a6bd 113a 05be fb60 b03d 7046 1b3e
00000190: 7640 16be 3c28 cc3c 3182 74bd 12cd d2bd
000001a0: c363 183d bc26 10be ccec 9fbc 67bf 433b
000001b0: fa6f b1bd 98ec 44bd 130e 37be 9c56 e7bd
000001c0: 589e 493e b160 b93d 215d 0d3d 5bd6 75be
000001d0: 44ed 26be 31b2 6c3c a1d1 9fbd d715 dabd
000001e0: 3a5d 0dbe 8a5a 533e 5d7a 65be 2cdf 993c
000001f0: 7002 80bd 9b9c 81bd 305a 0bbe b802 d9bc
00000200: 11ac 88bd 8d81 b6bc 2008 3bbe d6eb 623d
00000210: 278f a8be 191c d43d 2ee3 eebb 99d9 8d3c
00000220: 365d cdbd 8a0c 03be 0323 4d3d 7d11 efbd
00000230: c713 abbd 84a6 84bd 9b50 153c 0402 143d
00000240: e874 b9bd 76c5 30be 9af8 47be 96ad 143d
00000250: ae80 593d 4746 97be 44ae f73d 2a2f 4cbe
00000260: 04a6 32bd fcb4 c53c 4ac6 6b3d 024d a1bd
00000270: abcc ac3d 451d d23d a556 d5bd c4fd d2bd
00000280: c7b5 333c d9f1 9abd 3d72 f0bd 6ee9 99bd
00000290: 6db1 c13d a958 17be 7ab2 c7bd ff43 e7bc
000002a0: 13dc 0d3e 70eb 9dbd 29ab 29bc 4420 b43d
000002b0: daac 2ebe 6620 51be 7336 08be 1474 2cbe
000002c0: dfad 14bb 9bfa 1dbe 5cd1 873d 4225 1b3d
000002d0: 61c5 50be 8ec3 4fbc 976a d4bd ad22 3cbc
000002e0: 3a21 b7bb 6fed 653d 20f6 06bb edd3 b73d
000002f0: 4d5b 0d3e 1905 6bbc 9889 bbbd b387 e4bc
00000300: 6449 b9bd d4b0 0e3e 466c fcbd 8023 91be
00000310: b3dd 813c 7358 65be 2b65 59bd d682 68bc
00000320: 360f abbd 6857 9cbd 94f0 dcbd 48db 95be
00000330: 56dd babd 02ba 073b d393 eb3c d454 dcbc
00000340: 2d6e d93d 4859 0cbd 2802 973d 594a 23be
00000350: b3de 46be f3b7 14bd 2bc2 703d f839 aabd
00000360: 66ab cebc 0335 dabc 1fa4 ebbd 6c33 58be
00000370: 01e9 153e 39df a5bc 2391 a73d 4628 a5bc
00000380: 8e88 bd3d 9d57 cc3d 619b 8ebe 808f 87bc
00000390: d2bf 20be 4d98 34be 222c 00be 8b0e 113e
000003a0: d1d6 913d 093d 473e 7bec 813d a26d 1cbd
000003b0: f81e d43d 3263 a93d ee14 52bd 01fe b43b
000003c0: 9a80 8fbe aa15 fcbd 5e06 23be 5413 cebd
000003d0: fdf2 f33d b66c abbd ac34 e1bc e9c4 05be
000003e0: 78c1 bd3d 5ec0 5bba 3eeb 11be ece9 fabc
000003f0: a3c0 80bd 3322 4cbc afbf 3c3d 047c 2a3e
-0.008708978 -0.04883047 -0.088217854 -0.059450842 -0.11177827 -0.033923846 -0.03992635 -0.1901726
-0.08801288 -0.14461581 0.065275244 -0.14161031 0.08614974 0.1264678 0.08090556 0.0037922845
-0.10065111 -0.0041652424 -0.0830262 -0.011843211 0.031315982 -0.15408012 0.027671643 -0.06754574
0.03802367 -0.049277775 -0.17570011 -0.008573233 -0.0944204 -0.077325515 0.020357676 -0.055675335
0.1592269 0.046749175 0.031228641 -0.13092986 -0.025531933 -0.0890485 0.11408976 -0.100058034
0.15185902 0.12999445 0.041795954 -0.24812151 0.04485026 -0.057296555 -0.032679018 0.1196609
-0.023554897 -0.011783966 -0.058847316 -0.15644395 -0.2031204 0.13873297 -0.045075674 -0.16771848
-0.147952 -0.034319717 0.16958308 0.015900962 -0.10464697 0.07384944 0.06733276 -0.0074246717
-0.10775328 0.039411977 -0.07107675 -0.045035582 -0.104863286 -0.18607017 -0.047898065 0.069137365
-0.031156296 0.09068723 0.14823699 -0.23810686 0.012856991 -0.075650275 -0.012849416 -0.1226908
-0.116120815 0.054865774 0.10587809 0.031230642 0.023511527 -0.069440454 0.09113414 -0.013295573
-0.15407874 -0.050708808 -0.1817073 0.050276678 -0.09362085 -0.07672378 0.008031438 0.07217866
-0.081176914 -0.13010432 0.086122476 0.15163589 -0.14673027 0.024921529 -0.059694473 -0.1029302
0.037204515 -0.14077276 -0.019522093 0.0029868723 -0.08663936 -0.048077196 -0.17876463 -0.11295816
0.1968931 0.090516455 0.034512643 -0.24007551 -0.16301447 0.014446781 -0.078036554 -0.10648697
-0.13805094 0.20640007 -0.22409959 0.018783174 -0.06250465 -0.06328698 -0.13608623 -0.026490554
-0.06673444 -0.022278572 -0.18264818 0.055400692 -0.32921717 0.10356922 -0.0072902655 0.017315673
-0.10027544 -0.12797752 0.050082218 -0.116732575 -0.083533816 -0.06477073 0.009113456 0.036134735
-0.09055501 -0.17262825 -0.19528428 0.036298357 0.053101234 -0.29545805 0.120937854 -0.19939867
-0.043615356 0.024134152 0.05756215 -0.07876016 0.08437475 0.10259489 -0.10416917 -0.10302308
0.010968632 -0.0756566 -0.11740539 -0.07515226 0.094576694 -0.14779915 -0.097508386 -0.028230665
0.13853483 -0.07710922 -0.010355749 0.08795217 -0.17058125 -0.20422515 -0.1330202 -0.16841155
-0.0022686643 -0.1542763 0.06631729 0.03787733 -0.20387794 -0.012680901 -0.10371893 -0.011482877
-0.0055886777 0.056134637 -0.002059348 0.089759685 0.1380436 -0.014344477 -0.09157103 -0.027896738
-0.09047201 0.13934642 -0.12325339 -0.28347397 0.015852785 -0.22397022 -0.053074997 -0.01419135
-0.08352511 -0.07633859 -0.10788074 -0.2926886 -0.09124248 0.0020710235 0.028757012 -0.026895918
0.106167175 -0.034264833 0.07373458 -0.1594633 -0.1942089 -0.03630824 0.058778923 -0.08311838
-0.025228214 -0.026636606 -0.11505913 -0.21113366 0.14639665 -0.020248042 0.081819795 -0.020160805
0.09254561 0.099776484 -0.2785292 -0.016547918 -0.15698174 -0.17636223 -0.12516835 0.14165704
0.07121051 0.19456877 0.06343933 -0.03819049 0.10357469 0.08270873 -0.05128949 0.0055234437
-0.28027803 -0.123088196 -0.15920398 -0.1006228 0.11911581 -0.08370344 -0.027490936 -0.13063397
0.09265417 -0.0008382852 -0.14249894 -0.03062912 -0.062867425 -0.012459326 0.04608124 0.1664887

a2c_network.actor_mlp.2.bias f4 [128]
00000000: c9ab 80bc 740d c63d 6b0c 4d3d 7b4d 383e
00000010: 9497 66be d947 09bd abaf 133e 6238 293d
00000020: dfe8 43bb ce0d 133d d9d4 bf3c 7571 15bd
00000030: 9fc7 60be f9b3 22be 5bb2 0dbe a5a3 0fbd
00000040: bcb3 fdbd 814a e9bd 812c 2e3d 38c1 083d
00000050: 758b 5b3e 4a30 09be 2cc2 9fbd 2fa2 f1bd
00000060: 6d0f aebd 0224 b9bd 389c f73d 002e 29be
00000070: 5500 ab3d ff99 00be 7ba6 02be 209d 113e
00000080: f6a7 4f3d c437 43be 4edf 073e da1e b43d
00000090: 8872 3b3e f883 0d3d 8612 58be 6257 de3c
000000a0: fb2d 4bbd 5709 5dbe d6e4 0e3c 804b 6fbe
000000b0: f8df 46be ccdb 84be fccf 15be 538d 9f3d
000000c0: 4063 19be 58c9 45bd 53c2 d53d d93d ccbc
000000d0: 239f b83d 878b 59be c103 10be 5758 cfbd
000000e0: d82a 9dbd af0f c5bd d534 a4be f35d 693e
000000f0: 359f 48be 516e ed3d 32c1 4c3d 88e1 8a3d
00000100: 11bf 433d 064d 83be 54a2 453d b7a0 ff3c
00000110: 617d ad3d 8560 7b3e 4aea 803c c967 85be
00000120: e7a7 813d 1af8 52be 1950 98be f39c 9cbd
00000130: 51bb a0bd 5ba5 eb3d 86c6 ea3d 6294 8dbd
00000140: 6d35 033e 434d 4a3e 242f 45bd fd48 efbb
00000150: fe91 ff3c b659 7ebd ed99 8d3d 739b 423d
00000160: f20d 4c3d 7c9d 39bd df3f acbe e48c abbd
00000170: 2280 853d e678 ea3d 94e5 75be f534 0ebe
00000180: 1e1d 073c dc17 1fbd ab6b 31be 0123 4bbe
00000190: 8d98 2fbe 0b0a 15be decd 313d 285c f93d
000001a0: d879 41bd 6448 07be d50d c13d 2cb6 3ebd
000001b0: 6150 92be 4ea7 30be e1c9 163d 7d43 153d
000001c0: b4bc ecbd 32e6 1ebe 13f5 a4be dffd 45be
000001d0: 7607 9a3d 4b5c 32be 71a7 85be acc0 58be
000001e0: b6cd 4ebe 8d18 1fbe 676f 0c3e 33bb 3bbc
000001f0: 36fd 72bd 6089 993d 6a53 f43d 9027 87be
-0.015706914 0.09670535 0.05006067 0.17998306 -0.2251876 -0.033515785 0.14422481 0.041313536
-0.002989344 0.035901837 0.023416923 -0.036485154 -0.2195115 -0.15888967 -0.13837568 -0.035068173
-0.12387797 -0.113911636 0.04252291 0.033387393 0.21439917 -0.13397327 -0.07800707 -0.11798512
-0.08499036 -0.09040071 0.12090343 -0.16521454 0.08349673 -0.12558745 -0.1275882 0.14220095
0.05069729 -0.19064242 0.13268778 0.08794947 0.18305409 0.034549683 -0.21100816 0.027141277
-0.049604397 -0.21585594 0.008721551 -0.23368645 -0.19421375 -0.25948942 -0.14630121 0.07790627
-0.14979267 -0.04828772 0.10437455 -0.024931835 0.09014728 -0.21244632 -0.14063932 -0.10124271
-0.076741874 -0.09622132 -0.32071558 0.22789745 -0.19591983 0.11593307 0.049988933 0.06781298
0.047789637 -0.25644702 0.04825051 0.031204564 0.0847118 0.24548538 0.015736718 -0.26055744
0.06330853 -0.20602456 -0.2974861 -0.07647123 -0.07848228 0.115061484 0.114636466 -0.069130674
0.12813349 0.19756036 -0.04814066 -0.007302402 0.031197544 -0.062097274 0.06914125 0.04751153
0.049817987 -0.045316204 -0.3364248 -0.08376482 0.0651858 0.11448841 -0.24013358 -0.13887389
0.008246688 -0.038841113 -0.17326228 -0.19837572 -0.17148037 -0.14554612 0.04340922 0.121757805
-0.04723534 -0.13211209 0.094264664 -0.04656045 -0.2857695 -0.17251322 0.03681362 0.036441315
-0.1155943 -0.155175 -0.32218227 -0.19335125 0.07520954 -0.1741802 -0.2610431 -0.21167248
-0.2019566 -0.15536709 0.13714372 -0.011458206 -0.059323512 0.07496905 0.119299725 -0.2639737

a2c_network.actor_mlp.4.weight f4 [64, 128]
00000000: 865a 083e 0d75 02bd 4b45 fc3c 2489 f6bc
00000010: c5e2 8f3d 7c62 8b3d b54f 3dbd 7a9d 97bd
00000020: 4bd5 dcbd aa8b 99bd 29ec 5cbe 6f99 903d
00000030: 8ed5 6c3d 405e 7b3d 9915 babc 054f 59bd
00000040: 7785 b3bd e9cf c03d f90a 733d 3173 2abd
00000050: 34a6 59bd d636 c73d fb24 b1bd d042 153e
00000060: 44de a1bc c81a 053c 84c2 15bd b16e 0bbd
00000070: 3a1e 25bd 1bd3 03bc d00e 1fbd 8e60 073e
00000080: 373a 3abe 3fcc 3c3d 0893 e8bd 1b0f 0dbd
00000090: d096 0dbd e68e 85bd 7a41 55bd 9435 00bc
000000a0: 50e9 c63c 675a b33d 3bf0 01be 3964 253c
000000b0: 70ab af3d c0cb 073d 1ada 7c3e 55dc 80be
000000c0: daad 63be bd4e 10be def7 253d 858c acbd
000000d0: 63a0 1ebe ed01 2f3c 851c 1abd a101 0ebc
000000e0: 47a4 483d c00a a3bd b14d 9c3b a7d8 eabc
000000f0: 8d6a 88bc d74d 16be 4434 87bd 4c67 e6bd
00000100: 8535 86be 9b2a cebd 39ab 09be e6cc e2bc
00000110: b178 8abe ab7f 5bbd 9bcf 97bb fc1a 00bd
00000120: a2c0 86be f5b5 b83d aff3 7e3d b661 823d
00000130: be9f ba3c 33a2 983d bc98 5dbe 68f3 943d
00000140: a1b2 0a3e df8a b73d eeed 2abe 26ef d3bc
00000150: c286 33be 5591 d2bd fe6f 8ebd 840d 233e
00000160: a363 3bbd 775f adbd 3d15 c03d 7530 ebbd
00000170: ca33 343d 7a4a 283e bcbf 863d 1f8f 70bd
00000180: 8c1e 2a3d 2877 3ebe 1a31 f63d a586 0cbc
00000190: 4bd7 40bd 1f48 9dbd 9951 a7bd b745 e83d
000001a0: 5760 3ebd 744a 11bd 6ba2 783d 83b4 6bbd
000001b0: e987 b73d 02d2 17bd a9f8 debd 67ed 30bc
000001c0: c67b 8e3d 5323 343e 79e0 afbd d499 543d
000001d0: ec9f 823d 7bc8 733c 198e f4bd 5331 8f3e
000001e0: baac 9cbc 63e4 47bd 7537 a7bd c7b0 9b3d
000001f0: 7e54 22bd 9724 5b3c 9e7c f63d d076 563d
00000200: 2e0f 09be d056 9cbd 01b1 ebbc 3de5 e63b
00000210: 189d 3a3e 1db2 a9bd dbe6 95bd 0900 46be
00000220: a440 04be 3868 a0bd c4a9 6e3b 8822 8a3d
00000230: 9d7f 7a3c d6cb 9e3d fdb4 87bc 0a86 04bd
00000240: 252a bd3b 47a8 edbd 5d26 a9bd 480b 8cbd
00000250: db96 133e 9e0c e73c f907 a9bd 063b 7b3c
00000260: 4b92 60bd 1c8e 36bd 0882 323d bb6e 5fbd
00000270: 8a32 e0bc 71eb 963d 305c 0abd 6a38 433d
00000280: 3279 683c 9be8 053d 6459 13be e34e 7ebd
00000290: 1689 ec3b ddac 02be 1c0a a6bd 67a1 52bd
000002a0: 4c5d d13c 7334 033e 0882 4bbd bb5a e53c
000002b0: de10 513e 57c0 2a3e 4b00 943d 67e6 8ebd
000002c0: 93eb 08be a0a1 023e 9d82 97bd 22e6 a53c
000002d0: 499c fb3d b663 e3bc e407 50be 3d99 a33d
000002e0: f214 a63d 0d99 3a3e 3bf0 92bc dbdb 4fbd
000002f0: afcb debb f3da 0abe a0e3 c53c 534c 73bd
00000300: 1180 003c 1e4a dc3c f076 a5bd 7f0b 83bd
00000310: 92a5 b5bd d114 95bd 4dff 1ebc d05d f6bb
00000320: a0ca 013d fd6b 3a3e 52c5 08bd 4fbb 693e
00000330: 75f1 cbbd f9b5 17bd 1f06 023d 5062 ccbd
00000340: 5d0a a43d f90d 57be 97b1 b6bd 9de4 37be
00000350: b78d a63d a9e5 edbc 7b9e f9bd fc25 5fbd
00000360: 85bd 8b3d 94dd 1fbd 74f6 d23d 9d43 09be
00000370: 6892 8ebd 4f25 bebd f0c9 1db9 30a5 d2bd
00000380: b4e8 11bd f63d cd3d 5ac0 f43d 96cd 913d
00000390: 3315 d3bd 0086 68bd 6d15 d8bd 3ab4 24bd
000003a0: a5e4 133e 7206 1fbd b480 7fbd 0fa4 e7bc
000003b0: 5a53 cc3d 8609 303e 896b 96bd 7d00 cfbd
000003c0: 201b 7fbc 2282 bcbd 9bb1 2f3d 6900 1c3e
000003d0: 8978 c4bc cf1f cdbc cec7 a7bd 838f 11bd
000003e0: cfd4 263d 79f2 42be 351c f8bd 54f7 0d3d
000003f0: 3973 983c b7a9 2d3c 27f2 ce3d 13bb 3dbd
0.13315782 -0.03184991 0.03079476 -0.03009469 0.07025675 0.06805894 -0.046218593 -0.07403083
-0.1078287 -0.07497342 -0.21574463 0.07060515 0.05782085 0.06136918 -0.022715377 -0.053053875
-0.08765691 0.09414656 0.059336636 -0.04161376 -0.05313702 0.09727256 -0.086496316 0.14576268
-0.019759305 0.008124061 -0.036562458 -0.03404111 -0.04031203 -0.008045937 -0.038832486 0.13220426
-0.1818627 0.04609322 -0.11356169 -0.034438234 -0.034567654 -0.06521396 -0.052064396 -0.007825274
0.024281174 0.08757477 -0.12689297 0.010094696 0.08577621 0.033153296 0.24692574 -0.251681
-0.22234288 -0.14092536 0.040519588 -0.084252395 -0.1549087 0.0106816115 -0.037624855 -0.008667381
0.048984792 -0.07961035 0.0047700037 -0.028667761 -0.01665237 -0.14678131 -0.06601766 -0.11250171
-0.26212707 -0.1006672 -0.13444223 -0.027685594 -0.27045205 -0.05358855 -0.004632903 -0.031275734
-0.26318842 0.090190805 0.062244114 0.06366293 0.02278125 0.07452812 -0.21640295 0.072729886
0.13544704 0.089620344 -0.16692325 -0.02587087 -0.17531875 -0.10281626 -0.069549546 0.15923125
-0.045749318 -0.08465474 0.09379051 -0.11483852 0.043994702 0.1643466 0.06579539 -0.05873024
0.041533038 -0.18600142 0.12021084 -0.008577024 -0.04708032 -0.07679772 -0.081698604 0.11341422
-0.046478596 -0.035471395 0.06070177 -0.057545196 0.0896147 -0.037065513 -0.10887272 -0.010798789
0.06957202 0.175916 -0.08587737 0.051904514 0.06378159 0.014879341 -0.119411655 0.2796732
-0.019125331 -0.04880179 -0.081648745 0.07602077 -0.03963136 0.013375423 0.120354876 0.052359402
-0.13384697 -0.07633746 -0.028770925 0.0070463703 0.18223989 -0.082859255 -0.07319423 -0.19335951
-0.12915283 -0.07832378 0.0036417106 0.067448676 0.015289214 0.07753722 -0.016565794 -0.032354392
0.0057728463 -0.11604362 -0.0825927 -0.06838089 0.14413016 0.028204259 -0.08253474 0.0153338965
-0.054827016 -0.04456912 0.04358104 -0.05454896 -0.027367849 0.07369126 -0.033779323 0.047661223
0.014189051 0.032692533 -0.14389569 -0.06208695 0.0072184904 -0.12761255 -0.08107397 -0.051423457
0.025557183 0.12812977 -0.049684554 0.027997365 0.2041659 0.16674934 0.072266184 -0.069775395
-0.13371114 0.12756968 -0.073979594 0.020251337 0.122856684 -0.027757507 -0.2031551 0.07988212
0.08109464 0.18222447 -0.017936816 -0.05074678 -0.0067991833 -0.13560085 0.024156392 -0.05939896
0.007843033 0.02689081 -0.08079326 -0.06398677 -0.08869471 -0.07279361 -0.009704423 -0.0075185075
0.03168738 0.18205257 -0.033391304 0.22825359 -0.09958164 -0.037038777 0.03174412 -0.09979689
0.08009789 -0.21001424 -0.08920591 -0.17958303 0.08132499 -0.029040175 -0.12188431 -0.054479584
0.06823257 -0.039029673 0.103009135 -0.13404699 -0.069615185 -0.0928446 -0.00015047914 -0.10285413
-0.035622314 0.10021584 0.11950751 0.071192905 -0.10306778 -0.056768417 -0.10550962 -0.04021094
0.1444269 -0.038824506 -0.0623786 -0.028276471 0.099768355 0.17191133 -0.073447295 -0.10107515
-0.015570432 -0.09204508 0.042893987 0.15234531 -0.023983257 -0.025039582 -0.081924066 -0.035537254
0.040730294 -0.19037808 -0.12114755 0.0346597 0.01860963 0.010599545 0.10104781 -0.046320986

a2c_network.actor_mlp.4.bias f4 [64]
00000000: 89c5 3cbd 6aad 7ebc c7ab c83c a459 ccbd
00000010: 7103 cfbb 1650 783d 35ed 90bb ce9a 4c3c
00000020: 0798 b13c cd80 323c 8d6a d8bd 2b02 2e3d
00000030: 081c 85bd 0756 c53c f38d 80bd 4d27 d6bd
00000040: f19d 3ebe ed4e 76be 9e6a a8bc b038 07bd
00000050: f46c 9dbd 5d48 553c 6f4a 5bbd e42f cabb
00000060: 2d52 a9bd 5a9b 09be c6c7 b23c 99b1 cbbc
00000070: 32f5 e93c 9b52 c6bd 45fe 02be a0a9 30be
00000080: 5e1e 8b3c 13ae bebd 4c56 5c3d df9c 1dbc
00000090: 30f5 d53c 368f fbbd ae7d 3fbe 4908 e9bd
000000a0: 3b0b a5bd af13 67bd 7f5f 733c dbbf bebd
000000b0: e2f7 02be 7434 bc3c 22fd 1d3d 86fc b1bc
000000c0: 7999 bbbc db5a 4bbd d7f5 293d 6695 02be
000000d0: 553c abbd dda2 edba cf9c 46be 4ffb 08be
000000e0: 16aa 6abb 6438 32bd c120 4cbe 3e9b 21be
000000f0: cd4f 15bd 59e6 cebc 9ee8 29be a83a 9abc
-0.04608682 -0.015544275 0.024495972 -0.09978035 -0.006317549 0.06062325 -0.0044228085 0.01248808
0.021678938 0.010894966 -0.10567198 0.042482536 -0.06499487 0.024088873 -0.06277075 -0.10456715
-0.18614937 -0.24053545 -0.020558652 -0.033013046 -0.07686797 0.013017741 -0.053537782 -0.00617026
-0.08267627 -0.13438168 0.021823775 -0.024864959 0.028559301 -0.096837245 -0.12792309 -0.17252207
0.016982254 -0.09310546 0.053793237 -0.0096199205 0.026117891 -0.12283175 -0.18700287 -0.113785334
-0.08058783 -0.056415256 0.014854311 -0.09313937 -0.12789872 0.02297423 0.038571484 -0.021726858
-0.02290033 -0.049647193 0.041494217 -0.12752303 -0.08361117 -0.0018130202 -0.19395755 -0.13377117
-0.0035806946 -0.04351081 -0.1993437 -0.15781876 -0.036453057 -0.025256323 -0.16592643 -0.018826798

a2c_network.value.weight f4 [1, 64]
00000000: c0eb 8e3a d1fd d83b f74b 1bbb c51a 163c
00000010: 4560 203b 3065 013b 11c0 183c e01f 373b
00000020: f7ff d43a 437b 3c3c 061e 2b3f eec2 8abd
00000030: ce73 7f3b e764 af3c e1f1 a3b9 12db 8a3b
00000040: 5710 c53e c163 083d 07e7 4ebc e6d6 d53b
00000050: 39c9 fc3b e4c3 b4bb 07ce e23b 0c8b 14bc
00000060: 87fd 8fbb 35cb 073f 974e 1b3b 5f71 453b
00000070: d523 55bc 02e1 853a b98d 3a3b 7adf 89bf
00000080: 45ec 7e3e f7d6 c93c ca1c 5dbe c622 f73b
00000090: 0ba7 f2ba 6c2c 193c 4bc0 1f3c 20b1 2b3d
000000a0: b81c 613f 6967 c1ba 2863 213b 25f7 563b
000000b0: 40a0 d23b 176e 983b d64f e93b 728a a23a
000000c0: 17ab f2bb ea5c af3b 97c5 aab9 1b60 8fbb
000000d0: 6193 51bc 96f3 a83c 8fcc 683c b511 a73a
000000e0: b56b 33bd 3836 2abc 600c e03c f968 573a
000000f0: ec85 28bd 38a5 0339 7d92 29b8 2d55 cb3b
0.0010903999 0.006622054 -0.0023696402 0.009161656 0.0024471444 0.001974415 0.009323136 0.0027942583
0.00162506 0.011503997 0.6684269 -0.06775461 0.0038978937 0.021410419 -0.00031269997 0.004237541
0.3848903 0.033298258 -0.012628323 0.006525862 0.0077144173 -0.005516516 0.006921533 -0.0090663545
-0.0043942365 0.53044444 0.0023697966 0.003012739 -0.013009031 0.0010214152 0.002846582 -1.0771325
0.24894817 0.024638636 -0.21593013 0.007541987 -0.0018512917 0.00934897 0.009750436 0.041916966
0.87934446 -0.001475555 0.0024625752 0.0032801118 0.0064277947 0.0046517956 0.007120113 0.0012400879
-0.0074056494 0.0053516524 -0.00032572143 -0.0043754703 -0.0127914855 0.020623963 0.014208927 0.0012746366
-0.04380389 -0.010388903 0.02734965 0.0008217241 -0.041143343 0.00012554682 -4.0429168e-05 0.006205222

a2c_network.mu.weight f4 [12, 64]
00000000: 5a77 b5bd 90af c83c d645 1abd 4430 233d
00000010: 866b a03b 8429 173d edb3 4f3c 58be 96bd
00000020: c1ab a23c 4a5e 603d 0cce a2bc c0a4 b3bd
00000030: 4de7 de3d 8bd3 583c e7f8 973c 517f b4bc
00000040: c50b ccbc 3d0b d7bd ddab cabc 569a 313d
00000050: 77c4 283d db94 fa3b cf30 f1bc 8f81 cfbc
00000060: 9f8d 2d3d 4f54 ef3a 448b e53a f86a d6bb
00000070: 7b6d 3cbc 8d89 09bc 91b2 81bd 1176 6b3b
00000080: 4b26 ca3c 7ba6 1039 ed18 54bd d4bb a3bc
00000090: 9de4 003d 0172 c0bd 8f9d 42bd 6dda d7bd
000000a0: e520 b9bc ac2a d53d fcab 38bd 3fce 86bc
000000b0: b0f6 32bd ea54 14bb 20ca 223c 8f54 08bb
000000c0: 4b1f 06bd dd01 36bd 9c77 dd3c 3e58 4c3a
000000d0: 75ea cbbc 23e2 083d 4171 8bbd 4162 123c
000000e0: e15f 133c 5143 a7bc 2678 80bd 9b47 9d3d
000000f0: 7bda eebc fa1c 47be 2b16 9fbd 0cc8 dcbd
00000100: d719 27bb 1911 8fbc 758d 5dbc f25a 593d
00000110: 5a9c 113d 7a4b 41bd 59ac 1a3d 2daf 90bd
00000120: c1a0 b53d 4b8c d43c d113 ffbc 6e35 77bb
00000130: 49db 873d 7d9d 213d 6b4b 5abd 03b8 203c
00000140: 52ac b73b 1290 67bb d831 5e3d f299 2dbc
00000150: 4ec2 213d f5bb d43c af25 4ebd 9c67 3abd
00000160: 2aa2 d9bc aa16 8c3c 35cf cf3c fc03 b5bc
00000170: b862 00bc 764b ac3c f4e6 4fbc 53dd fb3b
00000180: a781 7dbd 73bb 243c 8860 b33c 3d54 a4bb
00000190: d828 7dbb 6499 eabb 45bd 293e 093a e03c
000001a0: 186c 903b a4b3 5a3c a9af 51bc f790 db3c
000001b0: b265 1a3d af68 a43c bc6e fcbc 1e3c 033d
000001c0: c808 04bd 2e4a 91bd 9f6a bcbd 53f5 e73c
000001d0: f2c6 283d f0f0 b3bd 2538 4dbc 4213 bc3d
000001e0: 4542 13bc 1816 1b3b 6aad 37bd 6617 f7bb
000001f0: 5b78 30bc 1317 d5bb c0f5 8bbd a7d0 1fbd
00000200: 3330 003c 94d5 b7bd d2f3 21be 785e 74bc
00000210: bbb5 a6bd 930b bebd 96e9 583d a15e 6dbd
00000220: 7e43 3a3b 4bbc 4f3d 7e9b f9bc 72ed 713d
00000230: 0ec2 373d 6d42 b43c c3a5 083c e0e1 e8bb
00000240: 3ae2 00be 1d2c 2abd f658 533d 32ea da3c
00000250: d06f 70bc 4fae a2ba e392 313c 4939 99bc
00000260: 6d2c e3bd c0ec 8d3d 879f 883b fa61 8a3d
00000270: 95d4 8e3c b80c fc3c ee89 143d 3fa8 14bc
00000280: edf4 ca3c 02a4 96bc 320d 173d a492 27be
00000290: 21fb 503d 2b3a 37be 0d97 7abc cfe9 b4bd
000002a0: 5806 be3c a133 b63d 7358 fc3a 564e 18be
000002b0: 2b4c 623d 1870 5b3d bca4 eebd 8ab2 91bd
000002c0: cdba 3c3d aff7 89bc b876 be3d c765 debd
000002d0: 8c84 d53d 3033 8d3d bedd 86bb c8b3 d23d
000002e0: 7a53 1cbc 1280 143d a59f 4e3d 31d0 4dbe
000002f0: 2cc6 723d 1cbc 5ebc 921d a13d ae00 b83d
00000300: f3ff c9bc 87b7 fdbc 88dc a4bb 5403 493c
00000310: 0be7 9ebd d664 a13d 2846 003d 58bb 393b
00000320: 8bfd 24bc 2f73 69bc 00e2 14bd b811 483d
00000330: 0f55 d73c b0ac 40bd 42b6 a83c 72b5 69bc
00000340: cf62 9f3d e9b1 26bc 15b7 d13d 882a 58bd
00000350: 5606 15bb 3c43 003d eb51 cd3b a32d bdbc
00000360: 1327 00bd 86a5 08bd ba6d 913c dfd6 063d
00000370: 7a70 86bc 0edc 2ebc 565d ef3a 690f 413a
00000380: 6a28 b3bd 3dd1 5bbc e971 cf3c 6d08 c03d
00000390: aada 06bc 4df6 60bd 0392 38bd 4241 a73d
000003a0: 8cef b03c 06c0 cebc cf53 34bd ec9e 003d
000003b0: 1e28 803b 3715 73bd d767 063b 2913 633b
000003c0: e7e2 f9bb c7e0 34bd 62b8 f9bb 4204 5abd
000003d0: 72ce a83d fa73 febd 3e17 83bd 193a f93d
000003e0: d35e c1bc 1d24 86bc 800c 89bc 43ab 1fbd
000003f0: 4aee bcbc 06f0 9bbb 341b 4abd 6081 c93b
-0.08860655 0.024497777 -0.037664257 0.03984095 0.0048956303 0.036904827 0.012677175 -0.07360524
0.01985729 0.05477742 -0.019873641 -0.08771658 0.10883961 0.0132340295 0.018551303 -0.022033365
-0.024907956 -0.105001904 -0.024740154 0.043360077 0.04120299 0.0076471395 -0.029442219 -0.025330333
0.04237139 0.0018259379 0.0017512818 -0.0065435134 -0.011500712 -0.008394611 -0.06332887 0.0035928527
0.024676463 0.00013794929 -0.051781584 -0.019987024 0.031468023 -0.093967445 -0.04751354 -0.10539708
-0.022598693 0.1040853 -0.045085892 -0.016455768 -0.04369229 -0.002263362 0.009935886 -0.0020802354
-0.032744687 -0.04443537 0.027034573 0.00077951315 -0.024892071 0.033418786 -0.06808711 0.008934558
0.008995027 -0.020417841 -0.062729165 0.07679673 -0.029156914 -0.19444647 -0.077679 -0.107803434
-0.002549758 -0.017464207 -0.0135224955 0.053065248 0.0355495 -0.04719112 0.03776202 -0.07064662
0.08868552 0.025945803 -0.031137379 -0.0037721056 0.06633622 0.039456833 -0.05329458 0.009809497
0.005605259 -0.0035333675 0.054246753 -0.010595785 0.039491944 0.025968531 -0.050328907 -0.045508966
-0.026566584 0.01710065 0.025367359 -0.022096626 -0.007836036 0.021032076 -0.012689341 0.007686296
-0.061891224 0.010054457 0.021896616 -0.005014925 -0.003862908 -0.007159399 0.16576107 0.027371423
0.004407417 0.013348494 -0.012798228 0.026802523 0.03769464 0.020069448 -0.030814521 0.032039754
-0.032234937 -0.07094227 -0.09200024 0.028315222 0.041205354 -0.087861896 -0.012525593 0.09183361
-0.008987968 0.0023664292 -0.044843115 -0.007540631 -0.0107708825 -0.006502995 -0.068339825 -0.039017346
0.007823992 -0.08976284 -0.15815666 -0.014915101 -0.08140131 -0.09279551 0.05295714 -0.057951573
0.0028421576 0.05071668 -0.030469652 0.059064336 0.0448628 0.02200433 0.008340302 -0.0071070045
-0.12586299 -0.041545976 0.05159851 0.026723001 -0.014675096 -0.0012411567 0.010838243 -0.018704074
-0.11092458 0.06929922 0.0041694078 0.06756969 0.017435351 0.030767784 0.036264353 -0.009073316
0.024774993 -0.018388752 0.03687782 -0.16364533 0.051020745 -0.17893283 -0.015294802 -0.08833658
0.023196384 0.08896566 0.0019252434 -0.14873633 0.05524842 0.053573698 -0.11652514 -0.07114132
0.046076585 -0.016841738 0.092999876 -0.10859256 0.10425672 0.06894529 -0.004115789 0.10288197
-0.009541387 0.03625495 0.050445218 -0.2009895 0.059271023 -0.013594653 0.07866968 0.08984505
-0.024658179 -0.030971302 -0.005031172 0.01226886 -0.07758912 0.07880561 0.031316906 0.0028340425
-0.010070215 -0.014248653 -0.036348343 0.048845023 0.026285676 -0.047039688 0.02059472 -0.014264451
0.07782518 -0.010174253 0.10239998 -0.052774936 -0.0022739372 0.03131412 0.006265869 -0.02309305
-0.031287264 -0.03336098 0.017752517 0.03291976 -0.016411055 -0.010672582 0.0018262069 0.0007364662
-0.08747943 -0.0134165855 0.025322871 0.09376607 -0.0082308445 -0.05492239 -0.045061123 0.08166744
0.0215986 -0.025238048 -0.04402524 0.03140156 0.0039110323 -0.059346404 0.002050867 0.0034648872
-0.007625926 -0.044159677 -0.007620857 -0.053226717 0.08242501 -0.124244645 -0.064009175 0.121692844
-0.023604786 -0.016374642 -0.016729593 -0.038981687 -0.023062844 -0.0047588376 -0.04934235 0.006149456

a2c_network.mu.bias f4 [12]
00000000: e4f0 373e 9edf 3abe a39a c13d da96 68bd
00000010: aae4 49be 665c e1b9 0e03 52bd 8458 a0bd
00000020: bab5 e13d 95a0 f73d 5acb 93bd 5bed a3bc
0.17962986 -0.18249366 0.09453323 -0.05678449 -0.19716135 -0.00042984186 -0.051272444 -0.07829383
0.1102099 0.120911755 -0.072165206 -0.02001064

exp_avg f4 [12]
00000000: 39e5 503a 862e b339 f818 56ba 1e7b 11b9
00000010: 851f 63b8 87f8 c139 5351 db38 cbb3 91b7
00000020: 025d b839 aa48 503a 3080 f939 62f6 d2ba
0.0007968727 0.00034176203 -0.0008167173 -0.00013874142 -5.4150372e-05 0.00036996996 0.000104578816 -1.736907e-05
0.0003516451 0.0007945398 0.00047588488 -0.0016095156

exp_avg_sq f4 [12]
00000000: 9c9e 1b36 20ab 1a36 c97b 1f36 1011 2236
00000010: 68ac 1636 72b4 1f36 af17 1936 0c08 1c36
00000020: 6e42 2b36 ab7b 2736 48d9 2636 7b92 2836
2.3189123e-06 2.3047396e-06 2.3764899e-06 2.4149813e-06 2.2452095e-06 2.379788e-06 2.2812562e-06 2.3250495e-06
2.5519653e-06 2.4956923e-06 2.4862402e-06 2.5119214e-06
