OmniIsaacGymEnvs/omniisaacgymenvs/runs/Naranjelio/nn/last_Naranjelio_ep_2450_rew_-0.9709317.pth (torch, 672859 bytes, 36 tensors)

value_mean_std.running_mean f8 [1]
000000 79 f2 64 99 77 c3 eb bf
       -0.8676107402785213

value_mean_std.running_var f8 [1]
000000 57 f2 6b 4f 1b 88 7c 3f
       0.006965738945606668

value_mean_std.count f8 []
000000 00 00 00 01 00 b6 bc 41
       481689601.0

running_mean_std.running_mean f8 [48]
000000 85 b8 4b cc fe b4 a0 bf 49 ff 35 73 d8 e7 c4 bf
       -0.03263088458867095 -0.16332536340268636
000010 4b f2 37 9e dd c2 e0 bf 85 ad cb 67 19 8b c0 3f
       -0.5237873163419605 0.12924497192521414
000020 7c e5 ed fc e2 dc ab bf 45 41 4f 81 82 88 81 bf
       -0.05441960656657849 -0.008561153002944475
000030 7c ff 62 fc 56 8b af 3f c1 8b a4 2a 4d e6 97 3f
       0.061609953221249264 0.023339467742640844
000040 b1 8f 31 dc 86 e4 ef bf 71 5d ac 01 9e fa 3b 3f
       -0.9966463375717379 0.0004269252546449032
000050 8b b5 10 ef 21 fb 44 bf e1 92 4f e1 ad 0e fc 3e
       -0.0006402888958569204 2.675756521232614e-05
000060 eb 01 f7 14 19 c2 8a bf fe bf 4e 5f 01 dd a6 bf
       -0.013065525009438658 -0.04465488708899555
000070 25 ff b3 a1 10 7d 24 3f 86 19 5b 54 d9 ab a6 bf
       0.00015631511710267293 -0.04427985338911626
000080 22 a4 27 da 6e ac a6 bf 89 e6 f4 af 56 1f aa bf
       -0.04428430951140451 -0.05102034471424328
000090 65 35 ac 9e de ad a9 bf d6 98 db a2 94 23 a0 bf
       -0.05015464484140856 -0.031521458511450426
0000a0 b0 a0 50 04 8f d5 97 3f af c1 ce 7a e9 89 66 3f
       0.023275599134792102 0.002751308455536803
0000b0 83 b1 6e b7 f1 4d ac 3f fe 00 28 6e b9 6f 61 bf
       0.05528216709294311 -0.0021284696279054707
0000c0 5f af 16 44 58 28 40 bf 5c d3 c1 ea 8b c9 42 bf
       -0.0004930907236277807 -0.0005733426273893771
0000d0 91 f4 be 86 bf 74 05 bf 45 b2 7b 2c 88 f0 4c bf
       -4.092416278876036e-05 -0.0008831658278417106
0000e0 92 ee 47 f5 62 b7 4e bf 6f cb 73 f5 b5 12 40 bf
       -0.00093738872470746 -0.0004905117483800912
0000f0 23 df 1e 15 d2 7d 43 bf 53 0a 71 e6 41 0f 97 bf
       -0.0005948329728573159 -0.02251913994792638
000100 a4 90 35 89 0c 12 53 3f 12 b5 c9 98 64 c8 44 3f
       0.0011639711782090245 0.000634240264458493
000110 98 a0 48 3a 67 2f 51 3f ba 89 2a 5c 57 2c e3 3e
       0.001048899467727826 9.142498020257905e-06
000120 af f6 df 95 46 76 cd 3f b1 b1 78 b5 40 aa ea bf
       0.2301719886599378 -0.8332828087200622
000130 14 34 69 73 e1 b7 d8 3f 91 cc 0f 63 23 18 eb bf
       0.3862231852588718 -0.8466965613173604
000140 61 23 4e d3 49 2f e9 bf 1c de 10 62 cb 46 df bf
       -0.7870225073867055 -0.48869595124003395
000150 8c f3 3c 05 b3 40 c3 3f 7e 0f f1 d2 55 ae b3 bf
       0.1504119659020059 -0.07687889480535934
000160 c6 0e b6 f2 c8 c7 e3 3f 30 1d 02 4d 86 f3 c5 bf
       0.6181378117039109 -0.1714942813889393
000170 df 69 2f d0 59 45 de bf 08 0f 23 69 a9 de 88 3f
       -0.4729828389223751 0.012143443604493168

running_mean_std.running_var f8 [48]
000000 e7 54 72 cc 0a f4 83 3f d2 1a b0 c0 55 af af 3f
       0.009742817272391636 0.06188457467219667
000010 95 a3 8d 24 b9 b9 d8 3f 44 49 c6 79 18 bd 9f 3f
       0.3863356453862761 0.03099477999928381
000020 8f ca 72 11 6f 35 74 3f ae 46 0d db 94 57 31 3f
       0.004933770999900346 0.0002646196763197256
000030 ac f8 e1 16 ad 5b 5b 3f a2 45 71 95 20 16 46 3f
       0.0016698065115004308 0.0006740244961155782
000040 40 84 ba b6 a5 03 e8 3e f3 62 fb 66 28 53 15 40
       1.1450885458787652e-05 5.331208809941688
000050 df fd 9a 56 36 55 f5 3f 47 99 df 54 39 57 95 3f
       1.3333037741684775 0.02084054546858141
000060 9f fe c8 ef 20 4e 30 3f 16 e2 16 80 1b 22 48 3f
       0.00024879745595638743 0.0007364877966927221
000070 0d e6 28 a3 6c 8c 76 3e 55 8b 50 4e 9e 41 49 3f
       8.399983001611495e-08 0.0007707617738826703
000080 da d4 72 eb b1 0c 48 3f 70 04 cd 0f 71 3a 4a 3f
       0.0007339352368008992 0.0008004238185109879
000090 c7 50 f2 38 1a 55 49 3f 57 74 5a b4 82 6f 51 3f
       0.0007730844535154484 0.0010641838465865938
0000a0 24 48 a7 0f 57 e6 43 3f c0 2b a7 d3 50 54 c5 3e
       0.0006072926619771252 2.542657651737637e-06
0000b0 68 12 64 70 12 e9 4e 3f 29 4e 86 c8 81 95 b6 3e
       0.0009433116945563704 1.3461119881861454e-06
0000c0 53 a5 9d a3 06 75 d7 3e 53 b3 57 6e a2 30 eb 3e
       5.592616213559209e-06 1.2965192079905706e-05
0000d0 8f 6f 9e 1f 89 b0 9f 3e 95 79 cc e7 1e 3f e2 3e
       4.7221172360679886e-07 8.700640358902382e-06
0000e0 9d e0 67 b2 6c e5 e6 3e a3 1b 83 4d 8c 51 d2 3e
       1.0917754093661957e-05 4.367481970918738e-06
0000f0 aa 20 d5 80 9d 1d c6 3e 73 12 6e 2c 16 0e 53 3f
       2.6363950441956495e-06 0.001163026479589349
000100 7c 25 b1 a3 32 36 f6 3e 57 92 b5 96 33 ce 9e 3e
       2.1182737537627544e-05 4.590373438777677e-07
000110 22 a1 88 fc 87 be e8 3e 8d 8b 1f a9 d0 18 ae 3e
       1.1798983806946486e-05 8.969585272268843e-07
000120 d5 ef 70 36 72 dc e3 3f 6d ab b4 33 81 5d b9 3f
       0.6206599295905969 0.09908301842066942
000130 5e b4 04 c2 9d e1 dc 3f 06 77 ac a6 db 85 be 3f
       0.4512705225668635 0.1192300111692611
000140 5f c4 65 1e c5 38 bf 3f 2c c8 46 c0 5c 70 d7 3f
       0.12195999137999668 0.3662330510807148
000150 42 1e 3d 61 51 7c d8 3f aa 77 3a 39 42 61 e2 3f
       0.38258776184054366 0.5743723981611215
000160 0f e1 67 33 66 13 d3 3f b2 28 4d 5e 8e 33 dc 3f
       0.29805903453917976 0.4406467362320071
000170 ea 30 3e ba 15 86 db 3f cc 8a a2 de 2e 00 df 3f
       0.4300588911799098 0.4843861745995752

running_mean_std.count f8 []
000000 00 00 00 02 00 b6 ac 41
       240844801.0

a2c_network.sigma f4 [12]
000000 b1 78 13 c0 5c 29 24 c0 eb 61 f0 bf 07 10 0b c0
       -2.3042414 -2.5650244 -1.8779882 -2.1728532
000010 4b c7 0d c0 e0 0b 16 c0 6c 24 1a c0 7f d2 0d c0
       -2.2152889 -2.3444748 -2.408473 -2.2159727
000020 d9 6e 1a c0 3d 01 01 c0 b4 a2 12 c0 6b c3 26 c0
       -2.4130156 -2.0157006 -2.2911806 -2.6056774

a2c_network.actor_mlp.0.weight f4 [256, 48]
000000 69 8c 5f bd 86 bb cc 3c af d8 f6 bd 84 f8 a2 bd
       -0.054577265 0.024991762 -0.12053048 -0.07957557
000010 7f d9 8a bc 39 c8 cb bc 13 ec ef bd ac 8f 22 3e
       -0.016949413 -0.024875747 -0.117149495 0.15875119
000020 8c e3 8f 3c 28 75 26 bf a5 72 a2 be c0 ce a6 bd
       0.017564557 -0.65022516 -0.31728092 -0.08144903
000030 f3 f2 d0 bd 36 ab 9c 3d 99 b0 d7 3d 6b 66 1c bd
       -0.10202589 0.076498434 0.1053173 -0.03818361
000040 1f f3 07 3e 0d f6 fa 3d ef d7 32 bd ac 6c 73 3d
       0.13276337 0.12253962 -0.04366296 0.05942981
000050 a9 af a1 be df dd b2 bc 87 40 e1 bd 43 d4 0f 3e
       -0.3157933 -0.021834312 -0.10998636 0.14045815
000060 2e 42 f7 3c d5 03 c2 3c d3 c8 0b bd dc ea a5 3c
       0.030182924 0.023683468 -0.034127068 0.020253591
000070 05 8b 80 3c 1e 59 af bc 41 0a fb 3c a3 df 4f be
       0.01569129 -0.0214048 0.030644538 -0.20300154
000080 fd 60 0e be b7 0e b4 bd 6c c4 33 be c8 28 73 3d
       -0.13904186 -0.08791869 -0.17555398 0.059365064
000090 0c 70 0e 3e ce 00 c6 3d 47 a0 00 3d fa 0e a6 b9
       0.1390993 0.09668122 0.031402852 -0.00031673146
0000a0 1b 1e 0f 3e 58 bf ae 3d bd ad 4d 3d b4 44 0f 3e
       0.13976328 0.0853259 0.050214518 0.13991052
0000b0 be 30 41 3e a4 3a 6f bd fd 6b fb bc 98 0b b8 bd
       0.1886625 -0.058405533 -0.030691141 -0.08986586
0000c0 cb 1e bf bd 96 64 e9 3d b3 bd 3e 3e b0 d6 89 bd
       -0.09332045 0.11396138 0.18627052 -0.067304015
0000d0 f9 0c e8 bd f7 c5 18 3e ec 6f 38 bd a6 1d 3d be
       -0.11330599 0.14919268 -0.045028612 -0.18468341
0000e0 d1 55 ca bc 1c 7c 2f be c0 84 4f ba 63 cf 08 3e
       -0.024699124 -0.17137188 -0.00079162046 0.13360362
0000f0 ba c2 01 3d 6d 10 eb 3b 4e 9e 11 be 20 86 c2 3c
       0.031679846 0.007173589 -0.14220545 0.023745596
000100 38 cf 36 3d 41 cd ca 3c 62 59 71 3c d6 84 cb 3d
       0.044631213 0.024756076 0.014730783 0.09937446
000110 00 b1 4e 3e e1 0b 84 3d e3 0d 21 3e 24 a9 4a 3d
       0.20184708 0.06447578 0.15727954 0.04947771
000120 db cf 81 bc 0f 0a 2d be 7e cb 1d 3e 2c 12 44 be
       -0.015846184 -0.16898368 0.15409657 -0.19147557
000130 65 50 e7 bd 8b 1b d6 3d 3f 91 aa bd a1 76 32 3e
       -0.11294631 0.10454472 -0.08328485 0.17428066
000140 43 2c bc bd c0 e9 97 bc 03 d2 97 3c 13 b7 7b bc
       -0.0918813 -0.018544078 0.018532759 -0.0153634725
000150 f7 fe 43 bd 1c 2b 45 bd 2c 38 d0 3d f5 cc af 3c
       -0.047850575 -0.048136815 0.10166964 0.021460036
000160 bf c4 a4 3d 39 38 35 bd eb 9d 9b 3c 5a c7 ee bd
       0.08045339 -0.04424307 0.0189962 -0.11659117
000170 dd 1e f7 3d fa 06 c9 3d 7b 7a 76 be 41 57 8a bd
       0.120664336 0.09815784 -0.2407016 -0.067549236
000180 0a d9 1d be 61 25 33 3e 66 41 5c be 90 7b 00 bd
       -0.15414825 0.17494728 -0.21509323 -0.03136784
000190 6c fc c5 3c c9 72 92 bd b0 10 21 3d 53 00 39 be
       0.024168216 -0.071508 0.039322555 -0.1806653
0001a0 bc 73 92 bd d5 03 a4 bd 42 d9 f2 bd 37 93 ba bd
       -0.07150981 -0.080085434 -0.11857845 -0.0911011
0001b0 eb 0c 1f 3d 8a 4c 89 bc e6 77 88 3e c5 0f 04 3e
       0.03883068 -0.01676013 0.26653975 0.1289664
0001c0 a9 dd 2e 3d 74 ad ea bd 84 18 06 be cc a0 08 bd
       0.04269186 -0.11458865 -0.1309529 -0.033356473
0001d0 81 97 a6 3d 89 8a 9b bc 53 74 00 3e 00 19 1e be
       0.08134366 -0.018986957 0.12544374 -0.15439224
0001e0 3f 95 83 bd 5d 53 7e 3d da 8c 10 be 98 77 2d bd
       -0.06424951 0.06209122 -0.1411623 -0.04235038
0001f0 28 58 8b 3d 37 d4 3b bb fa 1a 3f bd 8e b0 0b 3e
       0.06803924 -0.0028660425 -0.046656586 0.13641569
000200 3a d8 24 bd 8a f7 82 bd 2d 1a b9 bc 97 2d 1d be
       -0.040245272 -0.063948706 -0.02259549 -0.15349422
000210 4c bd fe bc 30 cc 9d bc 8a 59 3a bc 35 53 54 3c
       -0.031096123 -0.019262403 -0.011373887 0.012959291
000220 96 04 b5 bd 8b ca c5 bc d4 c5 12 3e ad 0f 4c bb
       -0.08838765 -0.024144432 0.14333278 -0.0031137273
000230 3e 42 94 bd ab 83 56 bd 97 09 2d bd 5b 05 0f 3d
       -0.07239197 -0.052371662 -0.042245474 0.034917217
000240 22 36 76 be e0 4b 1c 3d c7 03 66 3e 2f b3 a5 bd
       -0.24044088 0.038158298 0.22462378 -0.08090817
000250 97 31 11 3e 72 8e 1b 3e 2d 3e 93 bd a5 f1 0e bb
       0.14179073 0.15191057 -0.071895935 -0.0021811512
000260 69 b9 8a 3e 6f 41 d7 bd 0b ba 57 3d 34 63 25 3e
       0.27094582 -0.10510527 0.05266766 0.16151124
000270 b0 90 13 3e 46 98 eb bd 4c aa e7 3e 26 36 05 3e
       0.14410663 -0.11503653 0.45247114 0.13008937
000280 44 16 c3 3d 8b 28 8c bd c4 67 0a 3e d3 e8 24 3e
       0.09525731 -0.068436705 0.13516146 0.1610444
000290 82 27 31 3d cd 94 f8 3c 4d 3a cc bc 0b 24 ea bc
       0.04325057 0.030344391 -0.024930144 -0.02858164
0002a0 2f 34 88 3d a3 58 21 bd fd 8e 4c be b3 52 77 3d
       0.06650578 -0.03939117 -0.1997642 0.060381602
0002b0 b8 f4 67 3d 81 13 6f 3c d1 22 a2 be 03 64 05 be
       0.056629866 0.014592052 -0.31667188 -0.13026433
0002c0 45 ce 22 3e 08 f4 dc 3d 2a fe a3 3b 93 be cc 3c
       0.15898998 0.10788733 0.005004664 0.024993217
0002d0 88 ba f7 bd 11 e6 72 3d 8f ba 6a bd 06 37 7e 3d
       -0.12096125 0.05930144 -0.057306822 0.062064193
0002e0 c1 c4 c6 3d 4a ac 9b 3d d2 31 01 3d 4b c4 a1 3d
       0.097054966 0.07601221 0.031541653 0.07898768
0002f0 f6 e9 fe bd 15 a4 b8 bc 68 6f f0 bd 88 0e 9f 3e
       -0.12446968 -0.022539178 -0.11739999 0.31065774
000300 30 ce e7 bd be b7 85 3d c1 2d 1d bc a6 2b 88 3d
       -0.11318624 0.06529187 -0.009593428 0.0664895
000310 a0 12 a2 bd ba 28 e5 3d a2 09 88 3e 09 6b 6b be
       -0.07913709 0.111894086 0.2656985 -0.2299005
000320 3c db 9b bd 27 4d 2c bc 46 0a f4 3d 6c e1 23 bd
       -0.07610175 -0.010516441 0.11916022 -0.0400099
000330 72 76 db 3d ab 38 66 3d 74 1f d8 bd 89 5e 00 3e
       0.10715951 0.056206387 -0.10552874 0.12536062
000340 62 ee 96 ba fd 78 49 bd 10 c3 38 ba f1 73 84 bd
       -0.0011515135 -0.04918765 -0.00070481095 -0.064674266
000350 cc 76 ef 3d 43 41 1c bd ad a4 37 3e 00 2d 38 bd
       0.116925806 -0.038148176 0.17933913 -0.04496479
000360 0e af 01 3e bd 5c 9a bc 88 3e 4b bd 62 c0 69 bd
       0.12664434 -0.01884305 -0.04962018 -0.057068236
000370 d3 8b 0f 3e d0 0d f7 3d 1a 11 cb bd 5f 0f d2 3d
       0.14018182 0.120631814 -0.09915371 0.10256838
000380 27 e9 c3 bc 04 4f 28 be d3 8f 2f be 90 16 99 3d
       -0.023914887 -0.16436392 -0.17144708 0.074750066
000390 bd 5f de 3d e8 ee 7a 3d b2 a5 43 3d d9 1e b5 bd
       0.108581044 0.061262995 0.04776544 -0.08843774
0003a0 45 b0 99 bd 5e 09 8d 3b 16 83 c0 3d e0 a3 9a 3c
       -0.07504324 0.004304095 0.09400003 0.01887697
0003b0 55 ae a4 3d e8 10 96 bd 23 77 19 3a 73 8a b2 3d
       0.08041064 -0.07327443 0.00058542396 0.08717813
0003c0 86 f7 51 be 1b d2 85 3d eb 61 e6 3e a4 fb fa 3d
       -0.20504579 0.06534215 0.4499658 0.12255028
0003d0 ca eb 40 be fe 0c 00 3e 27 fc 19 3e 5e 2d cb 3b
       -0.18839946 0.12504956 0.15037595 0.0062004765
0003e0 cc 13 51 be 0e 4d cd bd c4 eb de bd 79 52 14 3d
       -0.20417708 -0.10024463 -0.108848125 0.036211465
0003f0 b5 6f 01 3e d8 3a 70 bd 90 24 09 bf be 38 ca bc
       0.12640269 -0.058649868 -0.53571415 -0.02468526

a2c_network.actor_mlp.0.bias f4 [256]
000000 ee 24 b8 bd 24 ec 62 3e e0 56 81 3e 6a 0e 2c 3e
       -0.08991419 0.22160393 0.25261593 0.16802374
000010 66 5b 93 3e 88 ad 78 3e 3d 13 80 3d 34 14 84 3e
       0.2878067 0.24284947 0.062536694 0.25796664
000020 95 1d 67 3e 6f 01 47 3e 06 a3 31 3d 01 12 77 3e
       0.22569878 0.1943414 0.043368362 0.24127962
000030 2f 9d b5 be ad 47 96 3d 20 c9 80 3e 2b a0 9d 3e
       -0.35471484 0.0733789 0.25153446 0.3078626
000040 27 3c 87 3e 62 6c 0a 3e c6 a8 8b 3e 58 86 8a be
       0.2641308 0.13517907 0.272772 -0.2705562
000050 25 94 ee 3d 16 cb af 3e cd 59 26 be 71 0f 44 bd
       0.1164935 0.3433463 -0.16245194 -0.04786629
000060 6d 1c 8b 3e 63 2a b7 3d bc 1e 8b 3e 0c c5 61 3e
       0.27170125 0.089436315 0.27171886 0.22047824
000070 ef 0f 31 3e 59 b4 5e bd c8 5a 82 3c db 49 7a 3c
       0.17291234 -0.05437121 0.015912428 0.015276398
000080 19 6d 54 3e 27 9c 39 be 34 43 64 bd 4f 6a 09 3e
       0.20744742 -0.18125974 -0.055728152 0.1341946
000090 f2 fd a1 3d b7 b7 4a 3d a9 68 a4 bc e5 41 e3 bb
       0.07909764 0.04949161 -0.020069437 -0.0069353455
0000a0 e5 15 0e 3d db 6d 54 3e 35 75 a8 3d 17 0f 8a 3e
       0.03468885 0.20745032 0.082254805 0.26964638
0000b0 13 29 db bd 05 d6 76 3d c8 2d 5f 3d c4 df 95 bd
       -0.10701194 0.0602627 0.05448702 -0.073180705
0000c0 2f a1 9a 3e 79 b3 a3 3e 8f 0f 77 3e a8 31 d5 bd
       0.30201098 0.31972864 0.24127029 -0.10409862
0000d0 27 30 6f 3e ef 45 c0 bd 77 5a 50 be b7 22 8b 3e
       0.23358212 -0.09388339 -0.2034701 0.27174923
0000e0 b5 9f 89 3e c3 45 f9 3c c6 4f 03 3e eb 77 90 3e
       0.2687966 0.030428773 0.128234 0.2821649
0000f0 88 81 02 bc ed 5a 25 3e 5d d3 f1 3d 2f be 15 be
       -0.007965453 0.16147967 0.118078925 -0.1462333
000100 84 0a 03 be 1c 99 4b be cf ce 35 3e 87 cc 8d be
       -0.1279698 -0.19882625 0.17754672 -0.27695104
000110 0f 5d 0f 3e 58 f6 65 3e c0 aa 91 3e 0a 56 18 be
       0.14000343 0.22457254 0.28450584 -0.14876571
000120 fa 00 73 bd 44 df a9 bd 79 a7 07 3c a7 91 48 3b
       -0.059327103 -0.08294538 0.008279675 0.0030604394
000130 95 35 6e 3e ab f6 6a 3e a3 3a e8 3d 49 77 4a 3d
       0.23262627 0.22945659 0.11339309 0.049430165
000140 ba 49 93 3e ec 34 a8 3d 72 18 5d 3e 8b fe 6d 3e
       0.28767186 0.08213219 0.21591356 0.23241632
000150 83 16 aa bd 0f fc 1e 3d b4 97 4d 3e b6 46 81 3e
       -0.08305075 0.0388146 0.20077401 0.2524926
000160 1e 2c ab 3e 9c cc a0 3d 29 ed 58 3d 1f 1d 5e 3d
       0.33432096 0.07851526 0.05296055 0.05422699
000170 8f 70 79 3e 39 f7 a0 3e d5 19 fa 3d 35 24 4d bd
       0.24359344 0.31438616 0.12211958 -0.050083358
000180 98 46 7e 3e 69 4c 89 3e ce 5c 83 3e 84 2d 03 be
       0.24831617 0.2681611 0.25656742 -0.12810332
000190 4e 53 76 3e bb cb b4 3d f6 68 a3 3d cc 20 62 3e
       0.24055216 0.08827921 0.07979004 0.22082824
0001a0 46 0b ae 3e fc 55 05 3e 06 46 a1 3e 9d 3d b1 3d
       0.33992976 0.13021082 0.31498736 0.0865433
0001b0 8f d2 6d 3e b2 66 42 bc 7b 50 ce bc 79 7e b7 be
       0.23224853 -0.011865305 -0.02518486 -0.35838678
0001c0 75 14 09 bd c9 7c 92 3e 42 07 90 3d e6 82 49 3e
       -0.033466775 0.2861083 0.07032634 0.1967884
0001d0 61 10 a1 bd 10 b2 af 3d 05 e0 6e 3e 3e f5 a3 3e
       -0.07864452 0.085788846 0.23327644 0.32023042
0001e0 c9 f9 f2 3d db ae 0b 3d 06 cd 76 3e 96 c0 09 be
       0.11864049 0.034102302 0.24101648 -0.13452372
0001f0 40 12 7c 3e 53 0d ea 3d 1a b1 30 bc 7a 3e c8 3d
       0.24616337 0.11428323 -0.010784412 0.097775415
000200 76 97 b5 3d 68 99 67 3e b3 e1 44 3e 9b c5 9d 3e
       0.088667795 0.22617114 0.19226722 0.30814824
000210 3f e5 8a 3e 12 d8 cf 3c 49 20 13 be 52 3a 0f be
       0.27128026 0.025371585 -0.14367785 -0.13987091
000220 e8 96 a4 3e 50 cd aa 3c 28 ff 9d 3e fc 1d f3 bd
       0.32146382 0.020849854 0.3085873 -0.118709534
000230 ce 6f 89 3e 74 19 2d 3e 13 31 b1 3e cc c0 89 3d
       0.26843113 0.16904241 0.34607753 0.06726226
000240 e4 c6 18 be 21 c7 70 3d 57 c3 3a 3d b4 20 d8 3e
       -0.14919621 0.058783654 0.045596447 0.4221245
000250 d3 e2 50 3d 24 ce 9d 3e 89 ea f1 3a 12 e9 03 3e
       0.050997566 0.30821335 0.0018456738 0.12881878
000260 e1 6e 1d 3e 2c 84 d4 3c 53 a7 c3 3e 1b 18 11 3e
       0.15374328 0.02594193 0.38213596 0.14169352
000270 82 6b 83 3e 28 ca e6 bd df 3f 19 3e 0b 38 d1 3d
       0.2566796 -0.11269027 0.14965771 0.102157675
000280 72 aa 54 bd 37 53 3f 3e 25 99 79 be 80 eb 41 3e
       -0.05192036 0.18684088 -0.24374826 0.18937492
000290 b3 22 37 3d 1d 51 80 3e 0d 30 81 bd 04 57 7f 3e
       0.044710826 0.25061885 -0.06307993 0.24935538
0002a0 35 c2 2c 3e 30 20 f3 3d 88 8a a3 3c fa 76 72 be
       0.16870959 0.11871374 0.019963518 -0.23678198
0002b0 c3 29 81 3e b0 0a a3 3e 0b 7f 93 3e a2 2f 6f 3e
       0.25227174 0.3184409 0.28807864 0.23358014
0002c0 ae 66 a9 3e 75 a8 0f be a8 c1 4d be 67 df 81 3e
       0.3308615 -0.14029105 -0.20093405 0.25365755
0002d0 08 38 ec 3c d5 aa f6 3d 40 20 9e be bb d9 54 3e
       0.028835312 0.120443024 -0.3088398 0.20786183
0002e0 e7 50 8f 3e 32 5d 09 3e b8 3e 9f be 85 fb 9d be
       0.2799141 0.13414457 -0.31102538 -0.30855957
0002f0 a8 10 1b 3e c9 5d 51 3d 6d 25 a4 bd e9 36 f3 3d
       0.15143073 0.05111483 -0.08014951 0.11875708
000300 b1 54 82 3d 01 77 c4 3e 09 dd 5b 3e 68 ca bb 3d
       0.0636381 0.38372043 0.21471037 0.09169465
000310 f7 6b be 3e 75 1c 8c be 23 f4 a4 3d 17 9f c4 3d
       0.37191746 -0.2736546 0.08054378 0.096006565
000320 79 bc 90 3e 75 f9 84 3e 7b 15 04 3e 7a 32 84 3d
       0.28268793 0.2597157 0.12898819 0.0645494
000330 2a 75 63 3b 2a 8c 00 3e f0 12 b8 3c 64 31 dd be
       0.0034707286 0.12553468 0.022469968 -0.43201745
000340 12 1f c3 3d 9d 06 9b be 7a eb 15 3d cd a5 b7 3e
       0.095274106 -0.30278483 0.03660152 0.35868683
000350 b4 7b 4a 3e df 4d 86 be b1 02 e6 bc ed bc 80 3e
       0.19773751 -0.26231286 -0.028077455 0.2514414
000360 39 4a 0b bd 28 91 c4 3d e1 42 6d bc bf 88 8c 3e
       -0.03400633 0.09597999 -0.014481277 0.2744808
000370 20 1f 24 3e 1e 3d 54 bd 71 91 85 3e 8a b7 9e 3e
       0.16027498 -0.0518161 0.26087525 0.30999404
000380 33 82 a8 3e 46 0f 86 3e 12 a2 a4 3e 3e d5 e6 bd
       0.32911834 0.26183528 0.321549 -0.112711415
000390 0a 18 87 3e d5 e4 1f 3e f9 57 aa 3e df 6c ad 3e
       0.26385528 0.15614636 0.33270243 0.33872125
0003a0 60 49 d7 3d 7e 83 25 3d 80 89 5c 3e b2 23 86 be
       0.10512042 0.040408604 0.21536827 -0.26199108
0003b0 54 8e 17 be 3a b9 b0 bd 08 63 6a 3e 90 62 99 3e
       -0.14800388 -0.08629079 0.2288934 0.2995801
0003c0 90 9f 98 3d d6 a7 fe 3d e8 b9 2f 3d ee c3 a2 3e
       0.07452309 0.12434356 0.042901903 0.31790107
0003d0 18 e8 67 3e 9e 99 9b 3e 5a 84 a4 3c 99 d3 00 3e
       0.2264713 0.30390638 0.020082641 0.12580718
0003e0 50 a1 58 be e4 b6 80 3c 1f d4 9b bd 54 47 11 be
       -0.21155286 0.015712209 -0.07608818 -0.14187366
0003f0 9a 76 55 3e cb 14 3b 3e 8b 88 af bd 94 cb b0 3c
       0.20846024 0.1826965 -0.085709654 0.021581449

a2c_network.actor_mlp.2.weight f4 [128, 256]
000000 e9 5b 0c bc d6 d4 6b bd 8e 2e bc bd 97 df 64 bd
       -0.008566835 -0.057576023 -0.09188567 -0.055877294
000010 63 2b fc bd 2b 63 d5 bc d7 5f 92 bc d3 e3 34 be
       -0.12312963 -0.026048264 -0.017867966 -0.17665033
000020 69 1e a8 bd f4 d2 08 be 0b 3f 89 3d 4e 62 10 be
       -0.08208925 -0.13361722 0.067014776 -0.141
000030 e5 a6 c3 3d 6b 77 03 3e 2f eb 9a 3d 86 06 dc 3b
       0.09553317 0.12838523 0.07564389 0.006714645
000040 d7 02 be bd 01 fc 2e bc 2d 83 b1 bd d3 7a ca bb
       -0.092778854 -0.0106802 -0.08667598 -0.0061791926
000050 da 30 d3 3c e8 63 16 be b9 fb 0a 3d 39 97 84 bd
       0.02578013 -0.14686549 0.033931468 -0.06474156
000060 91 48 1c 3d 6f 2c 6d bd 48 81 3c be 8e f6 a8 3a
       0.038155142 -0.057903703 -0.18408692 0.0012890862
000070 db b2 d4 bd 67 36 7a bd f8 8e ab 3c c7 a8 69 bd
       -0.103856765 -0.06108704 0.020942196 -0.057045724
000080 1f 12 24 3e ee 2b 66 3d 74 09 b8 3c 24 5d 1b be
       0.16022538 0.05619424 0.022465445 -0.15172249
000090 6e d8 e3 bc 4d c4 a5 bd 99 a3 dd 3d d7 13 c7 bd
       -0.027813163 -0.08094082 0.108222194 -0.09720581
0000a0 a0 09 19 3e 83 1d 05 3e d8 a5 47 3d 4c a9 79 be
       0.14945078 0.12999539 0.048742145 -0.24380988
0000b0 e5 88 1e 3d dd c1 60 bd fc eb dd bc fa 7c 05 3e
       0.03870477 -0.054872382 -0.027090065 0.13035956
0000c0 98 59 85 bc ee ab 67 bc 51 f8 5a bd a0 de 23 be
       -0.016278073 -0.014140112 -0.05345947 -0.16002893
0000d0 d4 55 58 be 60 a7 08 3e da 20 24 bd 74 6e 30 be
       -0.21126491 0.13345098 -0.040070392 -0.17229635
0000e0 ee e9 0b be ae d0 2d bd 6b 2e 2b 3e d7 c9 d1 3c
       -0.13663456 -0.04243534 0.16716926 0.02560894
0000f0 2c b7 bb bd 72 0f 97 3d 63 f2 90 3d 39 af fe 3b
       -0.09165797 0.07375993 0.070774816 0.007772353
000100 9e 14 e4 bd cf 42 27 3d 9a 6f 98 bd 20 0c 37 bd
       -0.11136745 0.040835198 -0.07443161 -0.044689298
000110 59 4a d1 bd 5c d6 3c be 6a a7 25 bd 15 42 83 3d
       -0.10219259 -0.18441147 -0.04044286 0.064090885
000120 2a 9c b6 bc fc b8 c6 3d 80 b6 1b 3e 35 6c 76 be
       -0.022291262 0.09703252 0.15206337 -0.24064715
000130 8a fa c8 3c 61 19 a8 bd 0c 09 6d bc 60 ac e5 bd
       0.024533529 -0.08207966 -0.014467489 -0.112145185
000140 ba a4 eb bd 6d e2 6c 3d ba 58 c6 3d 51 8b fe 3c
       -0.115060285 0.057833124 0.09684892 0.03107229
000150 08 f3 f2 3c cd a1 5e bd 6a 02 b2 3d c4 b8 21 bc
       0.029656902 -0.054353524 0.08691867 -0.009870712
000160 e2 3d 19 be fb 1a 47 bd 5b 83 31 be 26 f1 6f 3d
       -0.14965013 -0.048609715 -0.17335264 0.058579586
000170 58 6e c3 bd 2c d0 b0 bd 9f 28 6a 3c fb f9 8c 3d
       -0.09542531 -0.08633456 0.014291911 0.068836175
000180 ce fa a4 bd 6e 8c f2 bd 53 8b a8 3d 07 49 1e 3e
       -0.0805565 -0.11843191 0.08229699 0.15457545
000190 8d 3f 1b be 3c c4 98 3c f0 25 6b bd 91 7f bd bd
       -0.15160961 0.01864826 -0.057409227 -0.09252847
0001a0 cb b9 00 3d d6 6b fd bd fe b8 88 bc 02 31 2c 3c
       0.031427186 -0.12374084 -0.016689774 0.010509731
0001b0 dd 59 b4 bd 2a 24 52 bd 97 5a 3c be a3 b2 e4 bd
       -0.088062026 -0.05130402 -0.18393932 -0.11166885
0001c0 43 6f 4c 3e 57 08 bf 3d d2 b3 04 3d 05 26 70 be
       0.19964318 0.093277626 0.032398053 -0.23452003
0001d0 8d 62 33 be 2d 22 0e 3c 83 c9 a1 bd 69 aa dd bd
       -0.17518063 0.00867514 -0.078997634 -0.10823519
0001e0 fd a0 fe bd 5b b0 50 3e 3d 5e 68 be b2 48 99 3c
       -0.1243305 0.20379774 -0.22692199 0.018711422
0001f0 05 73 84 bd 1e c8 85 bd dd ee 0e be 18 48 c9 bc
       -0.06467251 -0.0653231 -0.13958307 -0.02457051
000200 ca 21 73 bd 41 34 e1 bc 4f 92 4f be 29 d1 80 3d
       -0.059358396 -0.027490737 -0.20270656 0.06289894
000210 41 31 a8 be da d2 ce 3d a0 95 e3 b9 4e 71 81 3c
       -0.32850078 0.100988105 -0.00043408293 0.015801098
000220 cd 23 cb bd f9 b3 0c be a2 cf 1f 3d 1d c4 01 be
       -0.09918938 -0.13740529 0.039016373 -0.12672468
000230 3e b8 ad bd 6e 66 91 bd 1e 7c 03 3c 0e 85 33 3d
       -0.08482407 -0.07099615 0.008025197 0.043828063
000240 17 5b af bd f0 46 41 be a3 c5 4a be 6d 2e 00 3d
       -0.08562296 -0.18874717 -0.19801955 0.031294275
000250 09 bb 27 3d 40 0d 95 be fa 87 df 3d 2b 78 45 be
       0.040949855 -0.2911167 0.10914607 -0.19284122
000260 b2 4c 20 bd fc d1 9b 3c 87 56 7c 3d d2 8d 94 bd
       -0.039135642 0.019021027 0.061605956 -0.072536126
000270 5b 35 ac 3d 02 b9 cf 3d 96 00 c4 bd 41 00 c2 bd
       0.08408614 0.10142709 -0.09570424 -0.09472705
000280 dc 10 41 3c 85 84 90 bd dd 15 fe bd 10 32 b0 bd
       0.011783805 -0.07056526 -0.12406514 -0.08603299
000290 66 f9 c7 3d 28 b7 0f be a4 5e d0 bd 2b d5 c0 bc
       0.09764366 -0.14034712 -0.10174301 -0.023539146
0002a0 8a 99 09 3e 5f 16 93 bd cb bf a2 bc b9 25 af 3d
       0.13437477 -0.07182001 -0.019866845 0.08552117
0002b0 7e 87 3e be 3f 1a 56 be 9b 61 13 be e1 72 19 be
       -0.18606374 -0.2090845 -0.14392702 -0.14985229
0002c0 55 26 4b bb 6f 20 20 be 98 5e 86 3d ea 92 12 3d
       -0.003099819 -0.15637372 0.06561011 0.03578464
0002d0 f7 4a 4b be d5 a6 79 bc 95 e8 db bd 96 ec 71 ba
       -0.19852816 -0.01523753 -0.10737721 -0.00092286745
0002e0 2e cc 8f 3a fe 31 84 3d fd e2 bc 3b 17 54 ca 3d
       0.0010970884 0.06454848 0.005764364 0.0987932
0002f0 fa 63 09 3e 75 f9 62 bc ee 83 da bd 3c 95 db bc
       0.13417044 -0.0138534205 -0.10669695 -0.026804559
000300 f9 47 bc bd 49 f6 0e 3e ae a2 06 be 93 42 96 be
       -0.09193415 0.13961138 -0.13147995 -0.29347667
000310 66 8c ce 3c 39 97 61 be b4 81 4a bd c9 e1 59 bc
       0.025213432 -0.22030343 -0.0494401 -0.01329846
000320 b9 d2 9a bd 9d 93 86 bd 8b 73 da bd bf 84 95 be
       -0.075597234 -0.06571124 -0.10666569 -0.2920284
000330 76 61 b2 bd 08 ac dc bb 55 58 e7 3b c7 ed be bc
       -0.087099954 -0.006734375 0.0070600905 -0.02330674
000340 7f 6a d1 3d eb fb f9 bc 1e b6 98 3d fc 93 1e be
       0.10225391 -0.030515632 0.07456611 -0.15486139
000350 fa 3f 44 be ca 88 4d bd 4f b0 79 3d 80 67 b5 bd
       -0.1916503 -0.05017928 0.060959157 -0.08857632
000360 f4 83 4e bc d8 aa 68 bc 2e 78 f6 bd 26 c6 66 be
       -0.012604702 -0.014200889 -0.12034641 -0.22536525
000370 97 d0 1a 3e 37 6b af bc 00 c4 af 3d 4d f0 82 bc
       0.15118633 -0.021413429 0.08582306 -0.015983725
000380 c4 6f ca 3d 43 d9 d5 3d 7e a6 94 be 8e 5a 10 bc
       0.09884599 0.1044183 -0.29033273 -0.008810652
000390 d1 f3 24 be f5 2e 32 be 0d 78 01 be 87 9b 1a 3e
       -0.16108634 -0.17400725 -0.12643452 0.15098391
0003a0 c7 68 a0 3d 53 32 49 3e ba 94 73 3d d7 a6 0e bd
       0.07832485 0.19648103 0.05946801 -0.03482708
0003b0 24 05 e0 3d c6 5c 9b 3d de 54 55 bd 09 24 b7 3b
       0.109384805 0.075860545 -0.05208289 0.0055890125
0003c0 33 ce 87 be 3f 66 fb bd 2a f7 22 be 41 5b d2 bd
       -0.26524505 -0.12275361 -0.15914598 -0.102713116
0003d0 40 94 ea 3d c9 15 b3 bd 13 2f c1 bc 51 b9 04 be
       0.11454058 -0.087443896 -0.023582017 -0.12961318
0003e0 34 8a b9 3d 12 cd 9e bc db 23 eb bd 8b 70 db bc
       0.09059563 -0.019384895 -0.11481448 -0.026787063
0003f0 39 0b 6d bd ef 1c 08 bd f9 7f 58 3d d5 8a 31 3e
       -0.05787203 -0.03323072 0.05285642 0.17338116

a2c_network.actor_mlp.2.bias f4 [128]
000000 5c 73 2b bc d6 86 cc 3d da a8 49 3d b8 8e 33 3e
       -0.010464516 0.099866554 0.049233295 0.17534912
000010 81 c2 62 be a4 3d c9 bc 1b 70 12 3e 3e 2a 23 3d
       -0.2214451 -0.024565525 0.14300577 0.039835207
000020 d0 98 cb bb 24 49 18 3d 5c 3b aa 3c 86 13 1e bd
       -0.006213285 0.037179127 0.020780258 -0.038592838
000030 5b 45 5e be 3c a4 1d be 32 f8 0d be c8 ba 18 bd
       -0.21706145 -0.15394682 -0.1386421 -0.037287503
000040 26 80 01 be d9 35 ed bd f9 ce 2d 3d c1 3e 17 3d
       -0.12646541 -0.11582536 0.042433713 0.03692508
000050 a4 f4 5a 3e fa e2 03 be 9e 71 a4 bd 43 4f e8 bd
       0.21382385 -0.12879553 -0.08029483 -0.11343243
000060 7d a8 af bd df 05 ba bd 9a a4 ef 3d 26 a6 2d be
       -0.085770585 -0.09083151 0.11701317 -0.16957912
000070 04 c5 a7 3d 9a b3 00 be 0e 64 fa bd 19 1b 13 3e
       0.081918746 -0.12568513 -0.12226115 0.14365806
000080 85 cc 41 3d 5b 39 43 be d9 46 02 3e 36 86 aa 3d
       0.047314186 -0.19064848 0.12722339 0.0832638
000090 75 2f 35 3e 86 5d fe 3c 9c cc 5f be 07 ef de 3c
       0.17693885 0.031050455 -0.21855396 0.027213586
0000a0 3f 34 38 bd 84 ac 66 be b1 87 27 3c 8e 34 6f be
       -0.0449717 -0.22526747 0.010225222 -0.23359892
0000b0 c7 51 42 be 09 db 81 be 83 ab 17 be 2a 61 a0 3d
       -0.18976508 -0.25362423 -0.1481152 0.078310326
0000c0 07 4e 1c be 09 3b 3d bd d3 6c cf 3d c3 4e dc bc
       -0.1526414 -0.04619888 0.101281784 -0.026893025
0000d0 fc b3 b8 3d ab bf 57 be 56 bc 0f be f4 d4 d0 bd
       0.09018704 -0.2106921 -0.14036688 -0.101968676
0000e0 74 69 94 bd 08 59 c3 bd 3b 8f a2 be b5 35 6a 3e
       -0.07246676 -0.09538466 -0.317499 0.2287205
0000f0 a4 00 44 be e7 8d ee 3d 44 44 57 3d e3 50 8a 3d
       -0.1914087 0.116481595 0.052555338 0.06753709
000100 12 96 3a 3d 39 ad 83 be 25 7b 68 3d 2d 00 fe 3c
       0.045553274 -0.25718096 0.056758065 0.031005943
000110 cb 82 ab 3d 09 4d 7d 3e c9 fc 8b 3c 6d e1 86 be
       0.08374556 0.24736418 0.01708831 -0.2634386
000120 7f b1 7e 3d 4e a5 55 be 77 b7 97 be 88 a4 99 bd
       0.062180992 -0.2086384 -0.2963216 -0.07502085
000130 51 34 9e bd aa 2f f3 3d 23 7a f1 3d 38 6e 8f bd
       -0.07724822 0.118743256 0.11790874 -0.070034444
000140 27 3d 08 3e 2f 84 49 3e 4c e4 46 bd bb 09 a3 bb
       0.13304578 0.1967933 -0.048557565 -0.004975525
000150 d6 86 00 3d 23 f8 7b bd 87 7a 93 3d 40 3f 40 3d
       0.03137859 -0.06151594 0.072011046 0.04693532
000160 04 4d 4c 3d 34 f3 35 bd 9c fe a7 be d7 98 b3 bd
       0.049878135 -0.04442139 -0.3281144 -0.08769386
000170 fa 8d 8a 3d a2 47 e7 3d c1 7d 71 be 9f ce 07 be
       0.06765361 0.1129296 -0.23583128 -0.13262413
000180 76 f6 51 3b ac 3f 0a bd 69 09 31 be e2 bd 4b be
       0.0032037771 -0.03375213 -0.17288746 -0.19896653
000190 96 73 2e be 97 2c 19 be 8b ec 36 3d 23 68 f6 3d
       -0.1703628 -0.14958416 0.04465918 0.12031581
0001a0 04 b9 3a bd 9c e6 04 be 6b d2 b7 3d ac 67 38 bd
       -0.0455866 -0.12978595 0.08975681 -0.045020744
0001b0 58 73 92 be 09 b2 31 be 50 42 1c 3d 39 93 2c 3d
       -0.28603625 -0.17353071 0.038149178 0.04213259
0001c0 0b 2c e4 bd 19 08 20 be b3 69 a5 be 9d bf 48 be
       -0.11141213 -0.15628089 -0.32307205 -0.19604345
0001d0 fd c3 97 3d 30 8a 33 be 71 4f 83 be 20 e4 57 be
       0.07410429 -0.17533183 -0.25646546 -0.21083117
0001e0 55 39 49 be b8 4c 24 be eb bf 0b 3e e2 57 81 bc
       -0.19650777 -0.16044891 0.1364743 -0.015788976
0001f0 84 71 4f bd e7 e9 9f 3d 9b bd ef 3d ca 0e 85 be
       -0.050645366 0.07808285 0.11706086 -0.25987846

a2c_network.actor_mlp.4.weight f4 [64, 128]
000000 75 7e 04 3e 98 a7 e3 bc ed 14 ec 3c de 53 01 bd
       0.12938865 -0.027789876 0.028818572 -0.031574123
000010 08 aa 87 3d 77 ad 85 3d db 80 32 bd fc cb 8e bd
       0.06624228 0.065272264 -0.043579917 -0.06972501
000020 f9 45 ce bd 75 b9 a1 bd 45 6b 52 be 9c 74 8b 3d
       -0.1007194 -0.07896701 -0.20548733 0.06809351
000030 67 99 70 3d 06 b1 7b 3d c4 17 af bc 28 bf 59 bd
       0.058740046 0.06144812 -0.021373637 -0.053160816
000040 56 aa 96 bd 3a da ae 3d 58 e1 60 3d 12 b6 52 bd
       -0.07356708 0.08537717 0.054902405 -0.051443167
000050 cb 24 65 bd 4f 8f c6 3d b6 e7 aa bd a5 ec 10 3e
       -0.05594329 0.09695303 -0.083449766 0.14152773
000060 4c 46 eb bc 47 12 5f 3c 5d d8 0a bd 2a 16 0b bd
       -0.028720044 0.0136151975 -0.033897746 -0.033956684
000070 f9 01 2a bd e3 df 27 bc c5 f2 09 bd 27 f7 05 3e
       -0.041505788 -0.01024625 -0.03367879 0.13082562
000080 4e d0 2f be 28 40 38 3d 0c 38 df bd 70 b7 e3 bc
       -0.17169306 0.04498306 -0.10899362 -0.02779743
000090 2e a1 0d bd ee ee 6e bd db 9a 5b bd 2f 49 06 bc
       -0.03457754 -0.05833333 -0.05361448 -0.008196159
0000a0 fd 0d 94 3c e6 f0 a3 3d ce 43 ec bd 5e 6d 0d 3c
       0.018073076 0.08004932 -0.1153637 0.008632032
0000b0 34 5e af 3d 2f df 04 3d 95 73 76 3e 1b 88 81 be
       0.0856289 0.032439407 0.24067529 -0.25299153
0000c0 80 88 63 be c8 67 13 be ac b0 22 3d fa 53 a5 bd
       -0.2222004 -0.14395058 0.03971927 -0.08072658
0000d0 6a ec 1b be 53 d7 86 3c 24 42 3c bd 02 a1 d9 bb
       -0.15226904 0.016460096 -0.045961514 -0.006641508
0000e0 3e 4a 37 3d 5d 28 a7 bd 06 36 c4 3a 4a 20 ec bc
       0.044748537 -0.081619956 0.0014969714 -0.02882399
0000f0 24 6c 4d bc 0b 68 13 be 59 7a 8b bd b1 71 e4 bd
       -0.01253799 -0.14395158 -0.06810445 -0.111544974
000100 00 f8 81 be 00 f4 d2 bd e9 ec 06 be 7d 76 ae bc
       -0.2538452 -0.103004456 -0.13176312 -0.021296734
000110 07 b1 81 be d1 c8 53 bd 6b 8c 0d ba 37 bc d6 bc
       -0.25330374 -0.051705185 -0.0005399647 -0.026212795
000120 49 c9 84 be 67 0c bc 3d 0a 2a 7c 3d 2c f4 7d 3d
       -0.25934818 0.09182053 0.06156353 0.06200044
000130 04 88 b2 3c 3c b7 96 3d bd d6 4f be 76 cb 95 3d
       0.021793373 0.07359168 -0.2029676 0.07314198
000140 bb da 0d 3e dc 1a b6 3d ba 1b 22 be 4a 55 22 bd
       0.1385297 0.08891842 -0.1583089 -0.03963212
000150 0a ca 32 be 0b f9 e9 bd 10 d4 8d bd 69 d8 24 3e
       -0.17459884 -0.11424454 -0.06925213 0.16098179
000160 74 60 53 bd e7 b9 b0 bd e1 14 be 3d b7 2a ec bd
       -0.051605657 -0.08629208 0.09281326 -0.11531585
000170 bf 37 21 3d b0 74 27 3e 4c a0 88 3d b8 ac 72 bd
       0.039359804 0.16353106 0.06671199 -0.05924675
000180 b4 3f 12 3d d1 56 3a be b8 30 f8 3d 1b 83 42 bc
       0.035705283 -0.1819718 0.12118667 -0.011872078
000190 09 d9 26 bd 54 ae a4 bd d9 db 8a bd d3 cc e4 3d
       -0.040734325 -0.08041063 -0.06780214 0.111718796
0001a0 bd 6d 24 bd 0d ba eb bc e5 b0 75 3d 47 0d 59 bd
       -0.040143717 -0.02877524 0.059983153 -0.052991178
0001b0 98 07 b2 3d ac 8b e4 bc 7d 92 da bd d5 07 76 bc
       0.08692855 -0.027898632 -0.10672472 -0.015016516
0001c0 25 60 9a 3d 68 a0 2f 3e 87 c9 b2 bd d0 18 61 3d
       0.07537869 0.17151034 -0.087298445 0.054955304
0001d0 1f e4 5f 3d 5b b3 87 3c 37 ea f5 bd fa 49 8d 3e
       0.054660913 0.016565016 -0.120075636 0.27595502
0001e0 5c 51 8d bc d8 c5 26 bd bf 65 ad bd ff 8b 9d 3d
       -0.01725071 -0.040716022 -0.08466672 0.07692718
0001f0 00 2b 1c bd c2 63 81 3c b0 12 f3 3d 30 94 55 3d
       -0.038126945 0.015794639 0.11868799 0.052143276
000200 7b 7d 12 be a4 41 8f bd de d0 ee bc ed f8 09 39
       -0.1430568 -0.06994942 -0.02915233 0.0001315807
000210 36 83 33 3e 92 04 ba bd 55 2e 95 bd 05 4e 58 be
       0.17530522 -0.09082903 -0.07284228 -0.21123512
000220 e1 18 f6 bd d1 58 b0 bd d5 fe f8 3b 91 18 a9 3d
       -0.12016464 -0.086106904 0.0075987377 0.08256639
000230 04 1c 8b 3c 9a e1 94 3d f3 9a 6d bc 2a 8b d2 bc
       0.016981132 0.072695926 -0.014502275 -0.025701124
000240 54 33 1c 3a f7 fd f5 bd 82 37 90 bd 6f 4e 87 bd
       0.0005958576 -0.120113306 -0.07041837 -0.06606757
000250 cb 8c 11 3e 27 38 ad 3c 15 82 a0 bd 64 03 71 3c
       0.14213865 0.02114494 -0.07837311 0.014710281
000260 02 12 44 bd db 26 f9 bc 12 82 16 3d aa b9 6d bd
       -0.047868736 -0.030414036 0.03674514 -0.05803839
000270 43 ed 4b bc e8 9f 89 3d e7 7c c7 bc 28 a1 28 3d
       -0.012446704 0.06719953 -0.02435155 0.041169316
000280 1c 9e 02 3c 6f da e0 3c 12 b3 0d be 6c 34 61 bd
       0.0079722665 0.027447907 -0.13837841 -0.054981634
000290 15 14 e0 3c 9b 22 05 be 40 96 b7 bd 8c 52 3b bd
       0.027353326 -0.13001482 -0.08964205 -0.04573302
0002a0 80 1b c3 3c ad 6e ea 3d 4a b6 1b bd 24 51 ca 3c
       0.023816824 0.11446891 -0.03801564 0.024696894
0002b0 f4 c6 4f 3e e6 90 24 3e 36 ff 93 3d c0 91 93 bd
       0.20290738 0.160709 0.07226412 -0.07205534
0002c0 2c 25 0f be b4 7f 02 3e 5c 4f 90 bd 1b 1d 9a 3c
       -0.13979024 0.12744027 -0.070463866 0.018812707
0002d0 d1 ee e5 3d 1d 01 07 bc 7d 26 50 be f1 f5 b1 3d
       0.11227191 -0.0082400115 -0.20327182 0.08689488
0002e0 f3 76 c2 3d b0 c0 32 3e ff e0 93 bb ee b7 5b bd
       0.09495344 0.17456317 -0.0045129056 -0.053642206
0002f0 ab f4 a3 bb ba 0e 08 be 14 17 b0 3c d3 21 21 bd
       -0.005003532 -0.13286868 0.02149538 -0.039338898
000300 9e 04 8c 3c 23 23 18 3d c7 90 bc bd fc 4f 92 bd
       0.017092045 0.037142884 -0.092073016 -0.07144162
000310 13 d0 84 bd b9 e9 92 bd 9e eb dc bc 73 84 48 3b
       -0.064849995 -0.07173485 -0.02696782 0.0030596524
000320 7c 58 01 3d d4 34 49 3e e4 03 98 bc 55 fe 67 3e
       0.031578526 0.19649059 -0.018556543 0.22655614
000330 fb 84 d7 bd 09 1e 21 bd aa e2 09 3d 94 30 d4 bd
       -0.10523411 -0.039335284 0.03366343 -0.10360828
000340 63 6d c6 3d d3 df 47 be aa 91 ab bd c3 2c 35 be
       0.096888326 -0.19518976 -0.083773926 -0.17692856
000350 14 e5 96 3d 0b dd 4c bd 3c 3c 0c be a2 71 84 bd
       0.07367912 -0.05001549 -0.13694853 -0.06466986
000360 9c 5f 91 3d 27 c8 4c bd 07 72 df 3d 0f 5e 15 be
       0.07098314 -0.049995568 0.10910421 -0.14586662
000370 12 7e ab bd 89 65 c4 bd f2 0f 4f 3c a5 65 d0 bd
       -0.083736554 -0.09589679 0.012638079 -0.10175637
000380 df 84 d4 bc b1 bf aa 3d 24 e5 fe 3d e3 74 76 3d
       -0.025942264 0.083373435 0.12446049 0.060170066
000390 06 37 c0 bd f4 51 8c bd 09 e7 c1 bd 86 7e 4f bd
       -0.09385495 -0.06851569 -0.094678946 -0.05065777
0003a0 ab c0 1d 3e 74 07 36 bd 3e 7e 63 bd d2 b0 22 bd
       0.15405528 -0.0444407 -0.055540316 -0.03971941
0003b0 1f 82 bb 3d c9 99 37 3e 41 25 af bd ae 10 a2 bd
       0.09155678 0.17929758 -0.085520275 -0.07913338
0003c0 82 bb 78 bc d9 73 cd bd 38 70 5b 3d ac ed 25 3e
       -0.015181424 -0.10031862 0.053573817 0.16203946
0003d0 e9 46 b1 bc 18 55 ec bc e9 09 8e bd dd dc 25 bd
       -0.021640258 -0.02884917 -0.06935484 -0.040493835
0003e0 1e 35 03 3d fd e0 41 be 8c 29 f6 bd 86 21 0e 3d
       0.03203308 -0.18933482 -0.12019643 0.03469994
0003f0 4f 69 14 3c bc 2e 8a 3c 87 d6 be 3d 29 d7 62 bd
       0.009058311 0.016867988 0.093182616 -0.055380974

a2c_network.actor_mlp.4.bias f4 [64]
000000 1c a8 38 bd 74 46 07 bc ee 78 ff 3c f2 be bd bd
       -0.045082197 -0.008256543 0.031185593 -0.092649356
000010 c6 d9 21 bc 0f 4f 7b 3d 7c ef 04 bc 01 d1 77 3c
       -0.009878581 0.061354693 -0.008113738 0.015125514
000020 fb b1 9f 3c aa 44 47 3c 4c f9 d6 bd c1 47 3d 3d
       0.019494047 0.012162367 -0.10496768 0.046211008
000030 48 1d 85 bd 65 59 a8 3c d8 f4 71 bd 7a 50 d5 bd
       -0.064997256 0.02055044 -0.05907139 -0.1041574
000040 ef ad 3e be a9 c0 6c be 62 e0 aa bc dd d0 fc bc
       -0.18621038 -0.23120369 -0.020858947 -0.030861313
000050 79 07 9e bd 2e 90 80 3c e8 9b 68 bd 14 e4 f0 bb
       -0.07716269 0.01569375 -0.05678931 -0.007351408
000060 76 0e a4 bd c2 e2 08 be cb f8 a6 3c c2 24 b1 bc
       -0.08010571 -0.13367751 0.020382306 -0.021623973
000070 8c a3 04 3d c4 66 ca bd 54 9f 04 be 3c 19 2d be
       0.032382533 -0.09882882 -0.12951404 -0.16904157
000080 99 f3 46 3c e7 df be bd 39 9b 67 3d ee ba 1c bc
       0.012143039 -0.0932005 0.056544516 -0.009566052
000090 bf 5a f8 3c e1 71 f3 bd 2b 1a 3d be bc ed e5 bd
       0.030316709 -0.11886955 -0.18467014 -0.11226985
0000a0 8f f4 ab bd 57 a3 70 bd a9 f2 68 3c 09 50 be bd
       -0.08396255 -0.058749523 0.014218011 -0.09292609
0000b0 ae 47 05 be f1 ab af 3c db 3d 45 3d 00 3e cb bc
       -0.13015625 0.021444293 0.048154693 -0.024809837
0000c0 4c 17 c7 bc 28 d6 4a bd 2c 93 22 3d 62 a4 ff bd
       -0.024303101 -0.04952064 0.039691135 -0.124825254
0000d0 5c 77 a0 bd 38 e1 80 bb c0 e7 49 be 11 6c 04 be
       -0.07835266 -0.003933098 -0.19717312 -0.12931849
0000e0 1a 18 b9 bb d5 c0 21 bd 0c be 47 be e3 21 22 be
       -0.005648625 -0.03949054 -0.19506091 -0.1583324
0000f0 da 26 11 bd 0f 08 bc bc a7 6e 22 be d8 da 85 bc
       -0.035437442 -0.022953061 -0.15862523 -0.016339704

a2c_network.value.weight f4 [1, 64]
000000 17 95 c1 ba 77 ed 31 3c 85 22 15 b8 b8 62 2d 3c
       -0.0014769164 0.010859839 -3.5556517e-05 0.010582618
000010 a9 b4 93 3b 81 f3 8e 3a b5 be 3d 3c 7c 89 c2 ba
       0.0045076204 0.001090631 0.011581113 -0.0014841999
000020 52 41 dd 3a 91 62 ed 3b 79 2f 2a 3f 65 5b 82 bd
       0.0016880429 0.007244416 0.6647869 -0.063650884
000030 c1 58 c3 ba 88 dd 69 3c 9f c6 88 3b cc a8 a7 ba
       -0.001490377 0.014274009 0.004174068 -0.0012791394
000040 c2 a4 c2 3e 51 c8 ff 3c f0 4f 1b bc 0e b0 27 b8
       0.38016325 0.031223448 -0.009479508 -3.9979866e-05
000050 d2 fb c5 3b b0 49 28 bc 6f 8d 61 3b 51 b1 d9 bb
       0.006041982 -0.010271475 0.0034416576 -0.006643452
000060 ed 53 21 bb 80 18 06 3f 19 aa 3f 3b 6f 87 8c bb
       -0.0024616674 0.52381134 0.0029245673 -0.004288606
000070 cf b1 d9 bb 10 c8 d8 ba 7a 89 b5 3a 27 5b 87 bf
       -0.006643511 -0.0016539115 0.0013850175 -1.0574692
000080 02 8a 7e 3e ea db eb 3c 71 8e 5f be b9 c7 1c 3c
       0.24857333 0.028791387 -0.21831681 0.009569102
000090 04 f9 5d bb ce e8 cc 3b 23 8c a2 3b 50 80 36 3d
       -0.0033870349 0.0062533384 0.0049605533 0.044555962
0000a0 78 ad 5c 3f 2b 63 14 bb 8c b3 95 ba 70 b7 5b 3b
       0.8620219 -0.0022642117 -0.0011421307 0.0033526085
0000b0 34 10 ca 3a c3 89 b1 3b 0a 83 01 3c 65 3b 9b 3b
       0.0015416206 0.005418034 0.007904777 0.004737305
0000c0 11 84 c3 bb f6 73 87 3b eb a9 ba ba f5 ef 2c b8
       -0.0059666713 0.0041336967 -0.0014241313 -4.1231473e-05
0000d0 96 ed 57 bb 98 d0 91 3c e4 18 56 3c 63 90 9e 3b
       -0.0032948009 0.01779966 0.013067458 0.0048389896
0000e0 2b 7b 1e bd 0c 23 87 bb cb b2 c2 3c b9 1f fa 3b
       -0.03869168 -0.004124051 0.023766896 0.007633176
0000f0 67 55 31 bd 05 62 e4 ba 54 6d e6 bb e7 a7 9c 3a
       -0.043294337 -0.0017424232 -0.007032076 0.0011951894

a2c_network.mu.weight f4 [12, 64]
000000 bb 88 bc bd 37 9b ef 3c a3 1c 0a bd 1d d4 26 3d
       -0.09205767 0.029248817 -0.033718716 0.04072963
000010 ef 80 da ba 0a f1 19 3d 65 35 25 3c 9d 16 86 bd
       -0.0016670505 0.03758339 0.010083531 -0.06547282
000020 9e 95 0b 3d e5 d3 77 3d 0e a6 b0 bc 75 0c c6 bd
       0.034078233 0.060504813 -0.021563556 -0.09670345
000030 90 92 d9 3d 2d bf 98 3c 9a 10 1e 3c 57 29 88 bc
       0.10623658 0.018645847 0.009647513 -0.016621275
000040 14 fe c1 bc 0d 0f d4 bd 20 19 24 bd e9 52 32 3d
       -0.023680724 -0.10354433 -0.040063024 0.0435361
000050 d6 8a 2c 3d d8 e5 22 3b df a5 f0 bc ed af 0d bd
       0.04212459 0.0024856236 -0.029375969 -0.034591604
000060 69 3f 3d 3d 7f 64 69 bb 9c 10 b1 3a ca 90 32 bc
       0.04620305 -0.003561288 0.0013508978 -0.010898778
000070 60 c6 5b bc 73 e8 0f bb 7e 6b 90 bd 0e b1 42 3b
       -0.0134139955 -0.002195862 -0.070517525 0.0029707584
000080 72 a9 d6 3c 1c 47 65 3a 7c 04 49 bd 69 1f 13 bd
       0.026203845 0.0008746253 -0.049076542 -0.035918627
000090 fd 5f 95 3c 72 26 c4 bd de 92 57 bd 20 8a d0 bd
       0.018234247 -0.09577645 -0.052630298 -0.10182595
0000a0 81 b1 c5 bc 43 a5 d3 3d 56 ef 39 bd 82 fc 68 bc
       -0.024132492 0.103342555 -0.045394264 -0.014220359
0000b0 9e 03 44 bd 4b 9a 19 bc 53 f9 9a 3c 30 12 53 bb
       -0.047855012 -0.009375165 0.018917715 -0.0032206886
0000c0 3c 08 f0 bc 38 5e 4e bd d2 68 16 3d a3 08 a0 3b
       -0.029300801 -0.050382823 0.03672106 0.004883842
0000d0 dc 80 d9 bc 26 b2 fa 3c ec 8a 8f bd da d2 e6 b9
       -0.026550703 0.030602526 -0.07008919 -0.00044026115
0000e0 d4 30 88 3c 43 b5 a6 bc cb 9f 80 bd 17 0c 86 3d
       0.016624846 -0.020350104 -0.06280478 0.06545275
0000f0 a7 a3 cd bc b8 3b 4a be 1c 17 9a bd 51 eb df bd
       -0.02510245 -0.19749343 -0.07523939 -0.10933555
000100 c4 b3 4d 3b 43 1e 67 bc 7d 4c e2 bb 8f 5a 56 3d
       0.0031387666 -0.014106336 -0.006906091 0.052332457
000110 11 07 15 3d cc 6a 41 bd 0a c4 1f 3d b9 dd 91 bd
       0.036383692 -0.04722099 0.039005317 -0.07122368
000120 c4 66 bb 3d 57 87 c7 3c 37 27 f4 bc 47 3f 8e ba
       0.0915046 0.024356527 -0.029803855 -0.0010852598
000130 4a b2 88 3d 32 9f 29 3d b1 de 56 bd 18 24 37 3c
       0.06674631 0.041411586 -0.05245847 0.011178039
000140 1b 2c 0d 3c 7b 70 85 bb 45 3a 88 3d 53 b3 40 bc
       0.008616473 -0.0040722466 0.06651739 -0.011761504
000150 0c 8c 29 3d d5 ec ad 3c 4e bd 4f bd d3 2a 36 bd
       0.041393325 0.021231094 -0.050717644 -0.044474434
000160 00 e7 d1 bc d6 17 e7 3c 12 60 d3 3c 35 34 8d bc
       -0.025622845 0.028209608 0.025802646 -0.017236808
000170 c9 13 1e bc ca 67 46 3c a2 e5 28 bc 84 50 02 3c
       -0.009648272 0.012109706 -0.010308655 0.007953767
000180 cb 7c 81 bd 9d 1b 41 3c b9 8c 8f 3c ba db ea bb
       -0.063226305 0.011786369 0.017523156 -0.0071673067
000190 af 2c 4c ba ad 36 eb bb 28 01 1e 3e 40 b9 dc 3c
       -0.0007788641 -0.0071781487 0.15430129 0.026943803
0001a0 2f a5 c5 3b 03 ec 3f 3c 52 0b c9 bb b2 5a eb 3c
       0.0060316543 0.011713984 -0.0061353827 0.02872977
0001b0 44 a2 3c 3d 68 3c 33 3c 74 b7 19 bd fe 3a 04 3d
       0.046053186 0.010939695 -0.03752847 0.03228282
0001c0 b3 30 03 bd cc b7 92 bd 45 78 bd bd 89 ef 9a 3c
       -0.032028865 -0.07163963 -0.09251455 0.018913047
0001d0 2c b9 0f 3d f5 9e af bd b5 3b 1e bb 75 b3 c4 3d
       0.035088703 -0.085752405 -0.0024144475 0.09604541
0001e0 07 27 84 bb 57 cb d0 39 4a 17 48 bd be 1b 8e bb
       -0.0040329727 0.00039824352 -0.048850335 -0.004336803
0001f0 09 7b 04 bc 4e d8 91 bb 01 26 83 bd f9 35 15 bd
       -0.0080859745 -0.0044508344 -0.06403733 -0.036428425
000200 44 9d a9 3b c5 a0 cf bd 7a 9b 27 be 7f 4d e5 bc
       0.005176218 -0.10138086 -0.16367903 -0.027991055
000210 86 17 9a bd 6d d4 be bd 84 7e 4e 3d 24 ba 58 bd
       -0.07524018 -0.09317861 0.050413623 -0.052911893
000220 12 65 9c 3b ec a5 48 3d 28 9d 10 bd 1d 43 63 3d
       0.0047727907 0.04898636 -0.035306126 0.055483926
000230 0c 4b 18 3d 74 58 ad 3c 8c 39 b7 3c 22 53 2e bb
       0.037180945 0.021160342 0.022366308 -0.0026599844
000240 50 7b f2 bd c2 85 0e bd b4 a4 43 3d e2 44 a3 3c
       -0.11839926 -0.03479553 0.047764495 0.019930307
000250 e5 1c b9 bc 79 82 be 3b fd b5 a0 3b 1a b4 57 bc
       -0.022596786 0.0058138934 0.004904507 -0.013165498
000260 0e dc df bd 3b f5 94 3d a3 85 42 3c f3 d8 8f 3d
       -0.10930644 0.072733365 0.011872682 0.07023802
000270 ba a3 93 3b 8b d8 db 3c 29 66 e8 3c 40 fb 52 bc
       0.0045056017 0.026836654 0.028369026 -0.0128772855
000280 7a d4 b6 3c ea 4d a4 bc 93 3b 10 3d 99 4b 16 be
       0.022318114 -0.020056684 0.035213064 -0.14677276
000290 4b 61 8d 3d 92 73 32 be ae f9 b1 bc 3d 42 aa bd
       0.06903323 -0.17426899 -0.021725502 -0.08313415
0002a0 0e 2b 9d 3c d7 c2 bd 3d d5 48 d3 3b 3f 3a 18 be
       0.01918557 0.092656784 0.0064478912 -0.14865969
0002b0 44 83 37 3d 4a 17 62 3d 3d 15 f1 bd 91 17 82 bd
       0.04480292 0.05519799 -0.11771629 -0.06352151
0002c0 3d 6c 3c 3d f6 8e 8f bc b4 ec bf 3d 3e c8 f5 bd
       0.04600166 -0.017524224 0.093713194 -0.12001084
0002d0 44 65 cc 3d 2a c8 97 3d 9c fb 59 bc 0b 21 c0 3d
       0.099802524 0.07411225 -0.013304617 0.093813024
0002e0 34 1e 11 bc f3 26 36 3d e7 ea 69 3d 05 73 48 be
       -0.008857299 0.04447074 0.057108786 -0.19575126
0002f0 05 d6 67 3d 80 1a a0 bc 2a 6e 83 3d bb df a6 3d
       0.05660059 -0.019543886 0.064174965 0.08148142
000300 8a e9 c6 bc f0 60 a5 bc bb 63 fe 3a 8d a3 cd 3c
       -0.024281282 -0.020187825 0.0019408384 0.025102401
000310 9f a4 9f bd 0e 82 b2 3d ec 80 e5 3c 95 cf a4 3b
       -0.07795071 0.08716212 0.028015576 0.0050296285
000320 8d 04 5a bc c6 9f 4e bc 36 c9 12 bd 01 c3 35 3d
       -0.013306749 -0.012611335 -0.03583642 0.044375423
000330 f3 ac 92 3c bc 6a 2c bd 5a 38 24 3c 17 be 5a bc
       0.017904734 -0.042093977 0.010023201 -0.013350985
000340 c8 58 a8 3d 67 ff f1 bb c7 f5 d8 3d 67 96 27 bd
       0.08220059 -0.0073851827 0.10593753 -0.04091492
000350 ab f4 82 3b c6 c1 15 3d 6f 76 18 3c 76 8d 80 bc
       0.003996452 0.03656175 0.0093055805 -0.015692454
000360 ae 38 16 bd 10 c0 f2 bc d9 e9 9a 3c 30 55 e8 3c
       -0.036675148 -0.029632598 0.018910335 0.028360933
000370 2e 60 b7 bc 7f 99 7c bc d0 19 b5 bb e0 46 a2 3b
       -0.02238473 -0.015417456 -0.0055267587 0.0049522966
000380 58 51 b2 bd 1f 8c f1 bb 59 fe d7 3c 8f 01 be 3d
       -0.08706921 -0.00737144 0.0263664 0.09277641
000390 42 96 8d bb 34 a9 46 bd 20 1a 65 bd 12 87 ad 3d
       -0.0043208906 -0.04850121 -0.055933118 0.08473028
0003a0 49 4b b8 3c fc 58 d4 bc 5e 96 1a bd 4f 38 1f 3d
       0.022496836 -0.025921337 -0.037741058 0.03887206
0003b0 22 41 34 3c 40 fb 42 bd 9e d8 36 3b e3 7e ca 3b
       0.011001857 -0.047602892 0.002790011 0.006179677
0003c0 24 57 f3 bb 9b 03 1d bd 1b 2b d0 bb 72 da 16 bd
       -0.0074261595 -0.038333517 -0.006352795 -0.03682942
0003d0 0d b9 99 3d 9b 89 01 be 50 8d 8b bd cc 1b f3 3d
       0.07505999 -0.12650149 -0.068140626 0.11870536
0003e0 2c 26 90 bc b2 9f 74 bc ec a2 c7 bc a6 a7 1f bd
       -0.017596327 -0.014930652 -0.02436968 -0.03897824
0003f0 b9 cb 91 bc 63 8d 41 bc 23 1a 4f bd 37 42 02 3c
       -0.017797338 -0.011813494 -0.050562035 0.007950357

a2c_network.mu.bias f4 [12]
000000 86 66 34 3e 1e 88 3a be 8e 6f b6 3d aa e6 74 bd
       0.17617235 -0.18215987 0.08907996 -0.05979029
000010 5e 85 4b be 1c 70 d2 3a 7c c1 54 bd 8c 4f a4 bd
       -0.19875094 0.001605514 -0.051942334 -0.08022985
000020 5b 6a e0 3d c9 e9 f6 3d 1e c2 96 bd 64 ae bc bc
       0.10957786 0.1205631 -0.07361244 -0.023032375

exp_avg f4 [12]
000000 bc ff 38 3a 43 e6 48 ba 15 fc 0b b9 67 f1 a6 39
       0.00070571504 -0.0007663706 -0.00013349981 0.00031841846
000010 e5 61 27 39 6a d7 bf 3a 43 7c 8f 39 3b e8 b4 ba
       0.0001596283 0.0014636342 0.00027367668 -0.001380212
000020 b4 ae 94 39 06 98 55 39 68 c1 61 3a 59 c4 d4 39
       0.00028358924 0.00020369896 0.00086118886 0.0004058208

exp_avg_sq f4 [12]
000000 c6 6c 3e 36 62 03 62 36 bf 52 59 36 c9 d9 53 36
       2.837552e-06 3.3678593e-06 3.2383684e-06 3.1568218e-06
000010 be 48 56 36 5b 6f 60 36 1f 99 46 36 04 73 53 36
       3.1930826e-06 3.3443418e-06 2.9593427e-06 3.1508398e-06
000020 94 93 3d 36 03 da 41 36 08 d3 53 36 7c cf 4c 36
       2.8249096e-06 2.888614e-06 3.1564286e-06 3.051914e-06
