OmniIsaacGymEnvs/omniisaacgymenvs/runs/Naranjelio/nn/last_Naranjelio_ep_7400_rew_7.7420573.pth (torch, 672807 bytes, 36 tensors)

value_mean_std.running_mean f8 [1]
0	0x3fdab9c53a9e823e	0.41758852695969384

value_mean_std.running_var f8 [1]
0	0x3fc45df121109ba3	0.15911687960143892

value_mean_std.count f8 []
0	0x41c5ae0000800000	727449601.0

running_mean_std.running_mean f8 [48]
0	0x3f1e196ba657ef71	0.00011481971304044631
1	0x3f6178a2fc2f8f13	0.002132719354891574
2	0x3f60fa07d7e1f9ea	0.0020723488988203436
3	0xbf5c7f54a9e6ee9f	-0.0017393423837423273
4	0xbf60d93a7a9e3fa0	-0.0020567075889132563
5	0x3f7774343eb95341	0.005726055223551908
6	0x3fcd30dff15e1a83	0.22805403981711345
7	0xbfb96f92fa28f236	-0.09935873610897591
8	0xbfece2f7232f5f53	-0.9027057349403357
9	0xbf97a30cdfc12c79	-0.023082924992462204
10	0xbf62e097b9ce2810	-0.0023043597597665125
11	0x3f90d52aedc7e4f5	0.01643817020701462
12	0x3fd4c6919a18a0f8	0.3246196751447452
13	0xbfb40b8756dcd153	-0.07830091353100004
14	0xbecc00e3728ae728	-3.33827383189053e-06
15	0x3fcd7b52c947bbed	0.23032603099952045
16	0x3fccc2c76a228f4d	0.2246941822278309
17	0x3fc4293a752186fd	0.15750818938527536
18	0xbfced3fb1870bba9	-0.24084414189698336
19	0xbfb44b26a905db69	-0.07927171350989472
20	0xbfe41fd57fde0886	-0.6288859841736361
21	0xbfda80d7b0faa8bc	-0.41411392481917253
22	0x3fae8a2be8ca0ee6	0.059647915045415265
23	0x3fd7a046c02712ed	0.36915749325662156
24	0xbf6484edde49ef72	-0.002504791819147139
25	0x3f58ec2233533486	0.0015211423863548414
26	0xbf3f1767cb86382a	-0.00047441753442789786
27	0xbf52355c911454ab	-0.0011113552066650916
28	0xbf85d089d9bdab15	-0.010651661832260776
29	0x3f619a2848526725	0.0021487032668802302
30	0x3f71794d952f9c6f	0.004266074235579883
31	0xbf60d9342ff06113	-0.0020566958696798337
32	0x3f7ae83b6829ab53	0.006569129999301665
33	0xbf637622eac50709	-0.002375667760276982
34	0xbf6afc14e1b76109	-0.003294029984072581
35	0x3f6862fdebf07320	0.0029768905074106927
36	0x3fd539633f19aed7	0.33162766611233735
37	0x3fd09dbcad8352ce	0.25962750382067845
38	0xbfd80c19b89cdf35	-0.3757385542735279
39	0x3fca535848987e74	0.20566848320685305
40	0x3fbd32d0f4a18ddd	0.11405664417684798
41	0x3fb12a907910feb5	0.06705573039743735
42	0x3fee7b773389fd44	0.9525714880582332
43	0xbfd193ea1138c908	-0.2746529739553272
44	0x3fe8882047d7ec95	0.766616955107923
45	0xbfebeef62bfbe55b	-0.8729201182424434
46	0xbfeb282b60add808	-0.8486534965766177
47	0x3feaa7a768af7b48	0.8329655689848119

running_mean_std.running_var f8 [48]
0	0x3f4501e62bde3a59	0.0006410955318062003
1	0x3f43a92615ea3586	0.0005999980893009328
2	0x3f5df21ca2207d30	0.0018277434942389308
3	0x3f306fdde84b893d	0.00025080840741344477
4	0x3f316ea328916fdb	0.0002659939132791924
5	0x3f450d6dfda396f9	0.0006424700798361708
6	0x3fa527c133fa6272	0.0413189292859827
7	0x3fa926b420d67124	0.049123410233024495
8	0x3fa0cbe96018df34	0.0328057222181414
9	0x40156b0a43710005	5.354531339427926
10	0x3ff564a79784da0f	1.337073890562923
11	0x3f947fde46669718	0.020019028708381986
12	0x3fb425d2e9c854df	0.07870214660245577
13	0x3fb92c64f5a6ad55	0.09833365437832715
14	0x3e6f2e8ffa08551b	5.808078574004989e-08
15	0x3fb3277795dbdb6d	0.07482097061789057
16	0x3f436ddc04cebed5	0.0005929302511642152
17	0x3fd2f7d2f11f7af2	0.2963759760586263
18	0x3f74ef0246cb7acd	0.005110749142402238
19	0x3fbac991bcc39140	0.10463820322508344
20	0x3fc9b0fb6a1d7a59	0.20071356469539373
21	0x3fc07cff8177ed55	0.1288146383447876
22	0x3fdf392a12dbb474	0.48786403504966036
23	0x3fbcfac61ed0a881	0.11320150615998338
24	0x3f1202d999a0ec9b	6.87070190971577e-05
25	0x3f0ed82044acfa02	5.8830723523407166e-05
26	0x3f12c83a775bf8f9	7.164818620350792e-05
27	0x3f1f934fedac6ee5	0.00012045073837579528
28	0x3f22e7253ed4eb5f	0.00014421777397352183
29	0x3f1b5806806e34a0	0.00010430850680461174
30	0x3f1463e57ea01cfb	7.77825186163323e-05
31	0x3f22846af7fd7071	0.0001412754609145836
32	0x3f24d9d5431949c1	0.00015907982155967222
33	0x3f322c624e2329b1	0.00027730369596370557
34	0x3f21de0831c89622	0.0001363167765628263
35	0x3f1c395221003126	0.00010766567015724603
36	0x3fe5d1e974bcc49f	0.681874015810667
37	0x3fe80940cadd6c71	0.7511295282560139
38	0x3fe712e25d29fb82	0.7210552043542153
39	0x3fe75fbe03080529	0.7304372843938484
40	0x3feabb7c37baab24	0.8353863800487926
41	0x3fe70b7f7ed8164a	0.7201535680221209
42	0x3f9c3475d0ee1e6c	0.027543869855007605
43	0x3fe7a29e0e8bb188	0.738600757989432
44	0x3fcf6f50ae615482	0.2455845691171455
45	0x3fbe8bc194c5185b	0.1193200100143214
46	0x3fbed382cebdd3d9	0.12041490123176803
47	0x3fbfa2ae6f8770c4	0.12357607100369977

running_mean_std.count f8 []
0	0x41b5ae0001000000	363724801.0

a2c_network.sigma f4 [12]
0	0xbfed611c	-1.854526
1	0xbff36c2b	-1.9017385
2	0xbfd8a2c7	-1.6924676
3	0xbff2f1db	-1.8980058
4	0xbfc9bb5c	-1.5760303
5	0xbfc5d9cb	-1.545709
6	0xbfc65560	-1.5494804
7	0xbfc45ed0	-1.5341434
8	0xbfde9405	-1.7388922
9	0xbfea140e	-1.828737
10	0xbfea0720	-1.8283424
11	0xc007ed27	-2.1238496

a2c_network.actor_mlp.0.weight f4 [256, 48]
0	0xbd037b21	-0.032099847
1	0x3da9805c	0.08276436
2	0xbc8696be	-0.016429301
3	0xbd29e2ef	-0.041476186
4	0xbd9a5669	-0.07536013
5	0xbd9e712e	-0.07736431
6	0x3d109e82	0.035307415
7	0x3dfb60d7	0.1227433
8	0xbe6363d6	-0.22206053
9	0xbd279cb2	-0.04092092
10	0x3df366c7	0.118848376
11	0x3d385e94	0.04501207
12	0xbe6161e4	-0.22009999
13	0x3b81fda9	0.003967006
14	0x3d1f7274	0.03892751
15	0xbd1d9c27	-0.038478997
16	0x3b87239c	0.004124118
17	0xbcebd8d1	-0.02878991
18	0xbe2308b7	-0.15921293
19	0x3e0c7238	0.13715446
20	0xbe2d2d95	-0.1691192
21	0x3d4228c3	0.047402155
22	0xbdbcfa18	-0.09227389
23	0x3e4a6f9a	0.19769135
24	0x3d8afa41	0.067860134
25	0x3db62887	0.08894449
26	0x3dad23de	0.08454107
27	0x3c5f84b2	0.013642477
28	0x3c013f21	0.007888586
29	0x3d8f6235	0.070011534
30	0x3d8fad87	0.070155196
31	0xbe3f63ba	-0.18690386
32	0xbe010933	-0.12601165
33	0xbe1fde56	-0.15612158
34	0xbceffbfe	-0.029294964
35	0x3d84b357	0.06479519
36	0xbdb26f45	-0.08712629
37	0xbe0d906f	-0.13824628
38	0x3d3d23e9	0.046176825
39	0x3da3d094	0.079987675
40	0x3e35e367	0.17762528
41	0x3f0ff74f	0.5623674
42	0x3cabb06e	0.020958152
43	0x3e35ab6a	0.1774117
44	0xbd26783f	-0.04064202
45	0xbe362980	-0.17789268
46	0xbce9e060	-0.028549373
47	0xbe3702c0	-0.17872143
48	0xbd4ab78a	-0.049491443
49	0xbcab02bd	-0.02087533
50	0xbce34a4e	-0.027745392
51	0x3da32eb4	0.07967892
52	0xbda13986	-0.078723
53	0x3e412c03	0.18864445
54	0xbdb5e31b	-0.088812076
55	0x3b81bfa9	0.0039596152
56	0x3e745e64	0.23864132
57	0xbe8f345d	-0.27969638
58	0xbd8833dd	-0.06650517
59	0x3e5bf6cf	0.21480869
60	0x3e227db7	0.15868269
61	0xbdea8041	-0.11450244
62	0x3e678f59	0.22613277
63	0x3cdb16c9	0.026744263
64	0x3e0c49ef	0.13700078
65	0x3e370330	0.1787231
66	0xbd57fd9c	-0.052732095
67	0x3e6913f2	0.22761515
68	0x3e414188	0.18872654
69	0xbd902116	-0.07037561
70	0x3de15412	0.11002363
71	0x3e293116	0.16522631
72	0xbd5c8868	-0.053841025
73	0xbd1c3c45	-0.038143415
74	0x3c21637a	0.009850377
75	0xbdeb6240	-0.11493349
76	0xbd940a5d	-0.07228539
77	0x3cba151b	0.022715142
78	0xbdbbcc9a	-0.09169884
79	0x3d6766f7	0.05649468
80	0x3caf24b3	0.021379804
81	0xbd2af36d	-0.041736055
82	0xbc668284	-0.014069203
83	0xbd414039	-0.047180388
84	0xbdf64d85	-0.120265044
85	0xbdc20790	-0.09474099
86	0xbd86e946	-0.06587462
87	0x3e11418a	0.14185157
88	0x3e25e8f9	0.16202153
89	0xbe6f43e7	-0.23365746
90	0x3d915484	0.07096198
91	0xbe15e417	-0.1463779
92	0x3dae9d31	0.08526076
93	0x3c2994bf	0.010350405
94	0xbd97d223	-0.07413127
95	0xbca9d6bb	-0.020732274
96	0x3de71a48	0.112843096
97	0x3e0ab4ba	0.13545504
98	0xbd2293b8	-0.039691657
99	0x3c57612b	0.013145725
100	0x3db22585	0.086985625
101	0x3cdf2970	0.027241439
102	0xbcff051a	-0.031130362
103	0xbdbd850d	-0.09253893
104	0xbdba170f	-0.09086429
105	0xbd12caf1	-0.03583807
106	0xbe019938	-0.12656105
107	0xbf4cb32d	-0.799609
108	0x3e3cf022	0.18450978
109	0x3cb74a24	0.02237422
110	0xbe0734e0	-0.13203764
111	0xbda00eb5	-0.07815305
112	0xbe4a32c2	-0.19745925
113	0xbda26cc6	-0.07930903
114	0x3e3de11f	0.18542908
115	0x3e0f5d4d	0.14000435
116	0x3e375cc0	0.17906475
117	0xbe201324	-0.15632302
118	0x3dfdfd13	0.12401786
119	0x3ca873b2	0.02056298
120	0x3d165e70	0.036711156
121	0xbd8a089a	-0.06739922
122	0x3d805228	0.0626567
123	0x3d58a1b1	0.052888576
124	0x3d3589c6	0.044320844
125	0xbc8abcd0	-0.016935736
126	0x3c8fc4d9	0.017549919
127	0xbd1d83f7	-0.03845593
128	0x3d900e32	0.070339575
129	0x3daa6e71	0.08321846
130	0xbd10340f	-0.035205897
131	0x3bd1db4f	0.0064043174
132	0x3d832fa4	0.06405571
133	0xbbb982df	-0.005661353
134	0x3d1a1ab5	0.037623126
135	0x3d398297	0.045290556
136	0x3d7c9b84	0.06167175
137	0x3d43cd5f	0.04780328
138	0xbd32eea1	-0.043684606
139	0xbdaedc07	-0.08538061
140	0xbd4afe24	-0.049558774
141	0x3d0b0b58	0.033946365
142	0x3b3d7982	0.0028911536
143	0x3d661efd	0.056181896
144	0x3d2e9077	0.04261824
145	0xbce688ce	-0.028141405
146	0x3d67a56f	0.056554254
147	0x3c25f478	0.010129087
148	0x3dac6695	0.084180035
149	0x3e5531b9	0.20819749
150	0xbe0069b8	-0.12540329
151	0x3e154cf1	0.14580132
152	0x3e2f5490	0.17122102
153	0xbe5fc24a	-0.21851459
154	0xbddae0ed	-0.106874324
155	0x3e8b7b8d	0.272427
156	0xbbccb2b2	-0.006246888
157	0xbd3dd0cb	-0.0463417
158	0x3ec7d731	0.39031366
159	0xbdb38187	-0.0876494
160	0x3d76e1a7	0.060273793
161	0xbe4b4091	-0.19848849
162	0xbe046534	-0.12929231
163	0x3d711736	0.058860026
164	0x3db7abbe	0.08968304
165	0x3da994f2	0.08280362
166	0xbda8b7d0	-0.082381845
167	0xbe447134	-0.19183809
168	0x3b8f3c72	0.0043712193
169	0x3c92d591	0.017924102
170	0x3d8ebce3	0.06969621
171	0xbcda1991	-0.02662352
172	0x3ca8a617	0.02058701
173	0xbb063164	-0.0020476216
174	0xbdaec55a	-0.085337356
175	0xbd6ca0fb	-0.05777071
176	0xbdb10c11	-0.086448796
177	0x3d7b45a6	0.06134572
178	0x3dee5bdc	0.116386145
179	0x3d5aa68e	0.053381495
180	0xbdfaa648	-0.12238747
181	0x3da48653	0.08033433
182	0x3cb9c82e	0.02267846
183	0x3e296d27	0.16545545
184	0x3e10cd41	0.14140798
185	0xbdbd63e8	-0.09247571
186	0x3e1b51b2	0.15167883
187	0xbe40d9c4	-0.18833071
188	0xbd94a844	-0.072586566
189	0xbe531a60	-0.2061553
190	0xbdce7e2d	-0.1008266
191	0x3c33fe57	0.010985932
192	0xbb8c83d3	-0.0042881756
193	0x3e0de630	0.13857341
194	0xbe52860c	-0.20558947
195	0x3e3264af	0.1742122
196	0x3d859edb	0.0652444
197	0x3d6ba378	0.057528943
198	0x3dd6d580	0.10489941
199	0xbd16acc8	-0.03678587
200	0xbe9e7496	-0.30948323
201	0xbde4c1c9	-0.11169774
202	0x3db70552	0.08936562
203	0xbe8c590b	-0.27411684
204	0x3e4075c7	0.18794928
205	0x3dc79269	0.097447224
206	0x3bb35e20	0.005473867
207	0x3e8f51c1	0.2799206
208	0x3df13b63	0.11778905
209	0xbdd94144	-0.106081516
210	0xbb91556e	-0.004435233
211	0x3e9448b8	0.2896173
212	0x3e587322	0.2113767
213	0xbdac9070	-0.08425987
214	0x3ec24368	0.37942052
215	0x3ccd49b8	0.025059566
216	0xbcca3c5d	-0.024686987
217	0xbd7b2d41	-0.061322454
218	0x3dd77a89	0.105214186
219	0xbd08a605	-0.033361454
220	0x3cc4b14c	0.024010323
221	0x3d8409bc	0.06447169
222	0xbdfc71cd	-0.12326393
223	0xbc1a0bcb	-0.009402226
224	0x3c0b54c7	0.008504099
225	0xbe3f7c8d	-0.18699856
226	0xbd87e049	-0.06634576
227	0x3d685058	0.056717247
228	0x3d97e241	0.074162014
229	0x3e165cc6	0.14683828
230	0x3e400c43	0.18754677
231	0xbe826e02	-0.25474554
232	0xbdd96036	-0.10614054
233	0x3da37591	0.079814084
234	0x3c8755f0	0.01652047
235	0x3e1622e0	0.14661741
236	0x3dead6a6	0.11466722
237	0xbd16207d	-0.036652077
238	0x3cf57deb	0.029967269
239	0x3da5834d	0.08081684
240	0xbdeaf1e6	-0.1147192
241	0x3d465835	0.048423965
242	0x3e9efa94	0.3105055
243	0x3d874f32	0.06606902
244	0xbe2fb487	-0.1715871
245	0xbd4b19ac	-0.04958503
246	0x3d3b58a8	0.045738846
247	0x3e62d134	0.22150117
248	0xbd95b2ef	-0.073095195
249	0xbe0ac355	-0.13551076
250	0x3d9cde84	0.07659629
251	0xbce4197e	-0.027844187
252	0xbd9e068b	-0.07716092
253	0xbdb9bef1	-0.09069622
254	0x3da6e2cc	0.08148727
255	0xbcaf2f76	-0.021384936

a2c_network.actor_mlp.0.bias f4 [256]
0	0x3e418ee4	0.18902165
1	0x3edd3768	0.43206334
2	0xbdcffb6c	-0.10155377
3	0x3e928df7	0.28623936
4	0x3dc8f001	0.09811402
5	0x3e8c6601	0.27421573
6	0x3d2adbc0	0.041713476
7	0xbddee4b3	-0.10883465
8	0xbe45c276	-0.19312462
9	0xbe888a2f	-0.26667926
10	0x3ecfcd3d	0.40586272
11	0xbe137003	-0.14398198
12	0xbecb16cc	-0.3966583
13	0xbcbc9f80	-0.023025274
14	0x3ed5fd5f	0.4179487
15	0x3ea63301	0.32460788
16	0x3f154afc	0.5831754
17	0x3e562df3	0.20915966
18	0xbdf789e3	-0.12086847
19	0xbd17afbb	-0.037032824
20	0x3da9fb96	0.08299939
21	0x3ed52685	0.4163095
22	0xbebba75c	-0.36651123
23	0xbe8cb4c5	-0.27481666
24	0xbea11498	-0.31461024
25	0xbd1048ed	-0.035225797
26	0x3eccbfdb	0.39990124
27	0x3e98f8d2	0.29877335
28	0x3ea3d0de	0.3199529
29	0xbcbecee2	-0.023292009
30	0xbe3ba33f	-0.18323992
31	0x3d913663	0.070904516
32	0x3d87d735	0.06632844
33	0xbeb027ee	-0.34405464
34	0xbe29acd4	-0.16569835
35	0xbeb6eb96	-0.35726613
36	0x3e056842	0.13028052
37	0xbe94d872	-0.29071385
38	0x3e28f263	0.16498713
39	0x3e8752aa	0.26430255
40	0x3e17a386	0.14808473
41	0xbe91e115	-0.28492036
42	0xbdfc0acb	-0.12306746
43	0x3ecdc85e	0.4019193
44	0xbe5d6b07	-0.21622859
45	0x3ed217d3	0.410338
46	0x3e00b208	0.12567914
47	0x3e9e6c62	0.30942065
48	0x3e8cdbfd	0.27511588
49	0x3e0b1635	0.1358269
50	0x3e0e64b6	0.13905606
51	0x3e8cb393	0.27480754
52	0x3e679f73	0.22619419
53	0x3d23609a	0.03988705
54	0xbd14dc81	-0.0363431
55	0xbec24821	-0.37945655
56	0x3e8bddd1	0.2731767
57	0xbed95f3d	-0.42455474
58	0x3e9bac3b	0.3040484
59	0xbe145f5d	-0.14489503
60	0xbeddef18	-0.43346477
61	0x3d745e35	0.059660155
62	0x3ec1b993	0.37836894
63	0xbdff6604	-0.1247063
64	0xbc4cb0fb	-0.012493367
65	0x3b7bc20c	0.0038415221
66	0x3e880be7	0.2657158
67	0xbde3b7f3	-0.1111907
68	0xbda7bf19	-0.08190746
69	0x3e0985eb	0.13429992
70	0xbdb8fb1f	-0.090322725
71	0x3d229abb	0.039698344
72	0x3d5470c1	0.051865343
73	0x3e67a52d	0.22621603
74	0x3e89bccc	0.26901853
75	0x3e822eed	0.25426427
76	0x3e96f2fc	0.29482257
77	0xbe0fddee	-0.14049503
78	0x3ed4d3e1	0.415679
79	0xbeb9b508	-0.36270928
80	0xbe1925a4	-0.14955765
81	0xbeb0d8f8	-0.34540534
82	0x3eb7097f	0.35749432
83	0x3f10d5f5	0.5657647
84	0x3ed74429	0.4204419
85	0x3e8af19e	0.27137464
86	0x3e256c91	0.16154696
87	0xbdc284ca	-0.09497984
88	0xbc6bf1f0	-0.014400944
89	0xbdde0d24	-0.1084235
90	0xbe8f45e5	-0.27983013
91	0xbd9b3bbc	-0.07579753
92	0xbe4a9380	-0.1978283
93	0x3e21f9ce	0.15817949
94	0xbda4d055	-0.08047549
95	0x3ec7b19e	0.390027
96	0xbdc12995	-0.09431759
97	0x3eccdb0f	0.40010878
98	0xbdce5a07	-0.10075765
99	0xbeba0749	-0.36333683
100	0xbdd2ee15	-0.10299317
101	0xbd96da7a	-0.0736589
102	0x3f00a9f9	0.5025936
103	0xbe3ca550	-0.18422437
104	0x3ee7e368	0.45290685
105	0x3d856ee6	0.06515293
106	0x3d9ed01a	0.07754536
107	0x3e49a56a	0.19692007
108	0x3dbe7e71	0.093014605
109	0x3cecfad1	0.028928192
110	0xbedb6b4a	-0.42855293
111	0x3baae150	0.0052148476
112	0xbe890175	-0.26758924
113	0x3e3350da	0.17511311
114	0x3ec55295	0.38539568
115	0x3cfb3539	0.030665027
116	0x3cfa9bdf	0.030591903
117	0xbe709879	-0.23495664
118	0xbd4a23f7	-0.049350705
119	0x3e0bc977	0.13651071
120	0xbe30f6fa	-0.17281714
121	0x3edd60de	0.43237966
122	0xbe2b94d6	-0.16755995
123	0x3ea7d748	0.32781434
124	0x3d0de626	0.034643315
125	0xbe11314c	-0.14178962
126	0xbdfac02f	-0.12243687
127	0x3dcbf68c	0.099591345
128	0x3efc1e66	0.49241942
129	0xbe84f810	-0.25970507
130	0xbc38505a	-0.011249626
131	0xbf04c8dd	-0.51868993
132	0xbde5807e	-0.112061486
133	0xbe05cbc6	-0.13066015
134	0x3e2b0cff	0.16704176
135	0x3ea0f3ff	0.31436154
136	0x3e8b2f6a	0.27184612
137	0x3e80a41b	0.25125203
138	0x3d18a2ca	0.037264623
139	0xbec2b9b5	-0.38032308
140	0xbdcabed3	-0.09899678
141	0xbde0b511	-0.10972036
142	0x3e873419	0.26406935
143	0xbdddd431	-0.10831488
144	0xbeb070ae	-0.34460968
145	0xbe548d68	-0.20757067
146	0xbe5b3790	-0.21407914
147	0x3e0ee7e5	0.13955648
148	0xbe8c935d	-0.2745618
149	0xbe21069d	-0.15725179
150	0x3edb5190	0.42835665
151	0x3eca435f	0.39504525
152	0x3ed73c3a	0.42038137
153	0xbcc686e3	-0.02423424
154	0x3e7d1163	0.24713664
155	0xbeab2b86	-0.33431643
156	0xbe6a2845	-0.22866924
157	0x3e87f33b	0.26552758
158	0x3e8303ce	0.2558884
159	0xbe7e5ad6	-0.24839339
160	0x3dd40b33	0.103536986
161	0xbd8a708d	-0.067597486
162	0xbc95b0e3	-0.018272823
163	0x3d90c8cc	0.07069549
164	0xbedc1413	-0.42984065
165	0x3ec9ca6c	0.39412248
166	0xbdfee9ec	-0.12446961
167	0xbd916367	-0.070990376
168	0xbddd4e3e	-0.10805939
169	0x3e1569af	0.14591096
170	0x3e695fb8	0.2279042
171	0x3ee84a00	0.45368958
172	0xbd92ef37	-0.07174533
173	0x3ea2d2a3	0.31801328
174	0x3e755aef	0.2396047
175	0x3e46780a	0.19381729
176	0x3e9190f4	0.28430903
177	0x3e857c00	0.26071167
178	0x3ea1f58d	0.31632653
179	0x3eea831a	0.45803148
180	0x3dbab6a6	0.09116869
181	0x3eb07201	0.34461978
182	0x3e0bdb9e	0.13657996
183	0x3e711f46	0.23547086
184	0x3ea9fddd	0.33201495
185	0xbe4efd5c	-0.20213836
186	0xbe8caf4a	-0.27477485
187	0xbe883aa3	-0.26607236
188	0x3e441c87	0.19151507
189	0xbe211156	-0.1572927
190	0xbda36f87	-0.079802565
191	0x3dec5a31	0.1154064
192	0x3dcc280c	0.09968576
193	0x3ea95ead	0.33080044
194	0xbea70fc6	-0.32629222
195	0xbe3c83e6	-0.1840969
196	0xbeb64032	-0.35595852
197	0x3e61e1bb	0.22058766
198	0xbdbc96c4	-0.09208444
199	0x3e85ff9d	0.2617158
200	0xbe39979d	-0.18124242
201	0xbe933124	-0.2874843
202	0x3ea3ec25	0.320161
203	0xbda047c6	-0.0782619
204	0x3e94a1fa	0.29029828
205	0xbe4773c6	-0.19477758
206	0xbd6669cf	-0.05625325
207	0xbd8ac78d	-0.067763425
208	0xbcdfa543	-0.027300483
209	0xbdb23e0c	-0.08703241
210	0xbe4d5b7c	-0.2005443
211	0x3f0ee5ae	0.55819213
212	0xbd8802a0	-0.06641126
213	0x3e96d4c6	0.29459208
214	0x3d49edc3	0.049299013
215	0x3edf7600	0.43644714
216	0x3cdd129e	0.026986416
217	0x3e83706c	0.2567171
218	0x3cdb8cb2	0.026800487
219	0x3deaa192	0.11456598
220	0xbd917361	-0.07102085
221	0xbeaa6822	-0.33282572
222	0x3eb2edf9	0.34947184
223	0xbd9025ed	-0.07038484
224	0xbd863a26	-0.0655406
225	0x3e8c4879	0.27399042
226	0x3e51f20a	0.20502487
227	0xbe23ecb2	-0.16008261
228	0xbe2fff50	-0.17187238
229	0x3e8e693b	0.2781466
230	0x3d48a237	0.048982825
231	0x3e65c43f	0.22438143
232	0x3ecd1842	0.4005757
233	0xba2da580	-0.00066240877
234	0x3e9bdddb	0.304427
235	0x3eb9672e	0.36211532
236	0xbe8a2ea7	-0.26988718
237	0x3d506eff	0.050887104
238	0x3ea9da67	0.3317444
239	0x3ee4ef42	0.4471379
240	0xbe2957b3	-0.16537361
241	0x3eba8838	0.36432052
242	0x3eaeb2f5	0.34120908
243	0x3ec031cd	0.37537995
244	0xbd4eca0f	-0.050485667
245	0xbc46e530	-0.0121396035
246	0xbe11a8d8	-0.14224565
247	0x3ed4a868	0.41534734
248	0x3e0302f9	0.12794103
249	0xbeb3bbd1	-0.3510423
250	0xbcabbf8a	-0.020965356
251	0xbe87dbe2	-0.26534945
252	0xbe8e188a	-0.27753097
253	0x3eaaca47	0.3335745
254	0x3ea0bd5c	0.3139447
255	0xbe8162d3	-0.2527071

a2c_network.actor_mlp.2.weight f4 [128, 256]
0	0xbe233ab2	-0.15940359
1	0xbd6ebc82	-0.058285244
2	0xbe2e6f36	-0.17034611
3	0xbd7c70ab	-0.061630886
4	0xbdbe97c4	-0.09306291
5	0xbdd85f44	-0.105650455
6	0xbd948882	-0.07252599
7	0xbd3eb22c	-0.046556637
8	0xbcff296b	-0.03114768
9	0x3dd7bc0f	0.10533916
10	0xbd447ba0	-0.04796946
11	0xbcd0b393	-0.025476253
12	0x3e0a866d	0.13527842
13	0x3d1fc090	0.039002
14	0x3db6c49f	0.08924221
15	0xbd9c44c0	-0.076303005
16	0xbddfb667	-0.10923462
17	0x3e086f73	0.13323765
18	0x3dd96180	0.106143
19	0xbd085058	-0.033279747
20	0x3d545a72	0.051844068
21	0xbe869e82	-0.26292807
22	0x3d6d212a	0.057892956
23	0x3de370ec	0.111055225
24	0x3c8ab2bb	0.016930928
25	0xbc1d1123	-0.009586605
26	0x3d41ee51	0.047346417
27	0xbd96bd1f	-0.07360291
28	0xbe70b404	-0.2350617
29	0xbcd77bde	-0.026304182
30	0x3d5d899e	0.05408632
31	0xbe1367e8	-0.14395106
32	0xbc2e05ac	-0.0106214695
33	0x3c66cbd7	0.014086685
34	0xbd1e970a	-0.03871826
35	0xbce54d07	-0.027990831
36	0xbd6db9c7	-0.0580385
37	0x3dbd6215	0.09247223
38	0x3ddf4e53	0.10903611
39	0xbe2bd5fd	-0.16780849
40	0xbe020ed9	-0.12700976
41	0xbd2f15bc	-0.042745337
42	0xbce44c54	-0.027868427
43	0xbe134622	-0.14382222
44	0x3e9b967c	0.30388248
45	0xbe011c3c	-0.12608427
46	0xbd828c35	-0.063743986
47	0xbe98d6a1	-0.2985125
48	0xbe337ab3	-0.17527275
49	0xbc7d3ad0	-0.0154559165
50	0xbdac232a	-0.084051445
51	0xbdccd08a	-0.10000713
52	0xbc8cebfa	-0.017202366
53	0x3df2dd0f	0.1185857
54	0xbe357c91	-0.177233
55	0x3c82a71b	0.015948823
56	0xbe8360ec	-0.25659883
57	0x3e023e99	0.12719192
58	0xbe9c94b1	-0.30582193
59	0xbdcf1312	-0.10111059
60	0x3e143f9d	0.14477392
61	0xbd217d6f	-0.039426263
62	0xbe0864d5	-0.13319714
63	0xbbc01aa7	-0.005862552
64	0x3d2ec6e2	0.04267014
65	0xbda19e74	-0.07891551
66	0xbd966a80	-0.07344532
67	0xbe0f89cc	-0.14017409
68	0xbd940112	-0.07226767
69	0xbe0c2740	-0.13686848
70	0x3c2377f3	0.009977329
71	0xbe1d6d28	-0.15373671
72	0xbe1ae384	-0.15125853
73	0x3d150049	0.036377225
74	0xbc107a88	-0.008818276
75	0xbe08eea6	-0.13372287
76	0xbe45e58a	-0.19325843
77	0xbe413400	-0.18867493
78	0xbdef2251	-0.11676467
79	0xbb1daf9e	-0.0024060975
80	0xbd5265c1	-0.05136657
81	0x3e65b881	0.22433664
82	0x3df88939	0.12135548
83	0xbe2f9494	-0.17146522
84	0xbeadf20e	-0.33973736
85	0xbd23b8ef	-0.03997129
86	0xbdc60bdc	-0.09670231
87	0xbd931152	-0.07181038
88	0x3e63d92a	0.2225081
89	0xbd9faf1f	-0.077970736
90	0xbb9b059a	-0.0047308924
91	0x3e5d9ff0	0.21643043
92	0xbdf01523	-0.117227815
93	0xbda33f93	-0.0797111
94	0x3c19b87e	0.009382365
95	0x3dea9abf	0.11455297
96	0x3be474b5	0.0069719204
97	0xbe2b093c	-0.16702741
98	0xbcee7adc	-0.029111318
99	0x3ddc7fec	0.10766587
100	0x3d0a9029	0.033828888
101	0x3dfba473	0.122872256
102	0xbe6f8b33	-0.23392944
103	0x3dca0822	0.098648325
104	0xbe8610a5	-0.26184574
105	0x3d91cb3b	0.07118841
106	0x3da1884b	0.07887324
107	0xbe397c92	-0.18113926
108	0xbd91749c	-0.071023196
109	0xbcd048ac	-0.025425278
110	0x3d4363b2	0.0477025
111	0xbd458e72	-0.04823155
112	0x3d724546	0.059148096
113	0xbdc0f95f	-0.09422564
114	0x3dbd9f01	0.09258843
115	0xbe45b848	-0.19308579
116	0xbc3e9403	-0.011631968
117	0xbd2bb4e3	-0.041920554
118	0x3db23233	0.08700981
119	0xbc52bf83	-0.012863043
120	0xbe4b00a6	-0.19824466
121	0xbd4075db	-0.046987396
122	0x3e10d0a1	0.14142086
123	0xbe25f1f1	-0.16205575
124	0xbe2a3c4e	-0.16624567
125	0x3daa1443	0.08304646
126	0xbc8af52d	-0.016962612
127	0xbd3502d7	-0.04419216
128	0xbe4543a6	-0.19264087
129	0xbc09ad00	-0.008403063
130	0xbe67acc5	-0.226245
131	0x3e0b3e40	0.13597965
132	0x3df629ee	0.12019716
133	0xbd032b23	-0.03202356
134	0xbd912db3	-0.070887946
135	0x3d3c565d	0.0459808
136	0x3b137162	0.0022498001
137	0x3c3279dd	0.010893312
138	0x3e2441d3	0.16040735
139	0xbe46b3c6	-0.19404516
140	0xbe21b9d3	-0.15793543
141	0x3c2c5dce	0.010520412
142	0xbe07408a	-0.13208213
143	0xbd084f55	-0.033278782
144	0x3d793ac3	0.060847055
145	0x3da809b4	0.08204976
146	0xbd95ff77	-0.07324117
147	0x3e2bb6ac	0.16768903
148	0x3e0f6093	0.14001684
149	0xbcb205f3	-0.021731352
150	0x3cc2407e	0.023712393
151	0xbde059e4	-0.10954645
152	0xbe05ee97	-0.13079296
153	0xbde571fe	-0.11203383
154	0x3d95c21f	0.07312416
155	0x3db57051	0.08859313
156	0xbdf37d5b	-0.11889144
157	0xbe138944	-0.14407831
158	0x3d27f19e	0.04100191
159	0x3e2518c3	0.16122727
160	0xbd34f7ea	-0.04418174
161	0x3ddb4f06	0.10708432
162	0xbdd857b1	-0.10563601
163	0xbd097a9c	-0.033564195
164	0x3e384d77	0.179983
165	0xbdc417ba	-0.09574838
166	0xbc738728	-0.014863767
167	0xbd9fae17	-0.07796877
168	0xbd30111c	-0.042985067
169	0xbdd2cc59	-0.102928825
170	0xbe3a1b1c	-0.18174404
171	0x3e0a41d9	0.13501681
172	0xbcaa4a72	-0.020787451
173	0xbd980c0b	-0.07424172
174	0xbe067191	-0.1312926
175	0xbe0f8b54	-0.14017993
176	0xbdec5800	-0.11540222
177	0xbe4eb46c	-0.20186013
178	0xbd9e0e7a	-0.07717605
179	0x3d058bb0	0.03260392
180	0xbda94125	-0.082643785
181	0xbdc55794	-0.09635845
182	0xbd496e02	-0.049177177
183	0xbe15d745	-0.146329
184	0xbe0fd97d	-0.14047809
185	0x3e0b7fcc	0.1362297
186	0x3e269e0f	0.16271232
187	0x3e108b53	0.14115648
188	0xbdc9c7d5	-0.09852568
189	0xbda7c3e1	-0.08191658
190	0xbdca138b	-0.09867009
191	0xbd61c248	-0.05511692
192	0xbdbc9701	-0.09208489
193	0xbdcb63c7	-0.099311404
194	0xbcbe8f41	-0.023261668
195	0x3da2f153	0.07956185
196	0x3d92314c	0.07138309
197	0xbe072f37	-0.13201605
198	0x3c1bc3bb	0.009507115
199	0xbab4627a	-0.0013762258
200	0xbd5fd116	-0.05464276
201	0xbd5da818	-0.054115385
202	0x3c2f02ee	0.010681851
203	0xbe0a2774	-0.13491613
204	0xbda1acb3	-0.07894268
205	0x3dc45936	0.09587328
206	0xbe39e4da	-0.18153706
207	0x3dab91ed	0.083774425
208	0xbdd50710	-0.10401738
209	0xbc3a2fe3	-0.011363956
210	0x3d998742	0.074965015
211	0x3ce5bb73	0.028043484
212	0xbcf293dd	-0.029611522
213	0x3d153826	0.0364305
214	0xbd95e6cc	-0.07319412
215	0xbe01cd43	-0.12675957
216	0x3cf37710	0.02971986
217	0xbd1569e4	-0.03647794
218	0x3d6f149f	0.058369275
219	0xbd7823af	-0.060580906
220	0xbd1b79d6	-0.03795799
221	0x3c2dda39	0.01061111
222	0x3cf70b93	0.030156886
223	0xbb9cb8e0	-0.004782781
224	0xbbf0cc36	-0.0073485626
225	0xbdbdbd7a	-0.092646554
226	0xbe4e40c2	-0.2014189
227	0x3db2b8cd	0.08726654
228	0x3e12cc30	0.14335704
229	0xbd9721da	-0.073795035
230	0xbd4e1ddd	-0.05032145
231	0x3db8ac96	0.09017293
232	0xbe81ba77	-0.25337574
233	0xbd2e2aab	-0.04252116
234	0x3d689db4	0.056791022
235	0xbe2b6219	-0.1673664
236	0x3d213952	0.039361306
237	0x3d605c0c	0.054775283
238	0x3d328d14	0.043591574
239	0xbe2684cc	-0.16261595
240	0xbcac92f8	-0.021066174
241	0xbe1b178c	-0.15145701
242	0xbea3e5f2	-0.32011372
243	0xbe25e17b	-0.16199295
244	0xbd86d0ed	-0.06582818
245	0x3e137324	0.14399391
246	0x3d27eb42	0.040995844
247	0xbe391fac	-0.18078488
248	0x3d97d736	0.07414095
249	0x3df84023	0.12121608
250	0xbd4cc527	-0.049992707
251	0xbc90b402	-0.01766396
252	0x3da97321	0.08273912
253	0xbda09029	-0.07839996
254	0xbd10b611	-0.035329882
255	0xbc812e98	-0.015769288

a2c_network.actor_mlp.2.bias f4 [128]
0	0xbe6eecef	-0.2333257
1	0xbe74c131	-0.23901822
2	0xbeb499e7	-0.35273668
3	0xbd5cba0b	-0.053888362
4	0x3d98e2fd	0.074651696
5	0xbe92cbfb	-0.2867125
6	0xbe067e23	-0.13134055
7	0xbe7386c1	-0.23781873
8	0xbea2d167	-0.31800386
9	0xbeb367fa	-0.35040265
10	0xbe3e29b5	-0.18570597
11	0xbca24061	-0.019806089
12	0xbe970a54	-0.29500067
13	0xbdafad27	-0.08577948
14	0xbb60ed6d	-0.0034321204
15	0xbdbdf82a	-0.09275849
16	0xbd9221a6	-0.07135324
17	0xbe5f7096	-0.21820292
18	0x3d07cc3a	0.03315375
19	0xbdc78c9a	-0.097436145
20	0xbe234b99	-0.15946807
21	0xbe9cdfa1	-0.30639365
22	0xbde6a545	-0.112619914
23	0xbdf7327c	-0.12070176
24	0x3d7645e1	0.060125235
25	0xbe96651a	-0.2937401
26	0xbe0c29a0	-0.13687754
27	0x3cdad7ff	0.026714323
28	0xbe1e7b39	-0.15476693
29	0xbe51b390	-0.20478654
30	0xbd33eb5b	-0.043925624
31	0x3e6f847d	0.23390384
32	0xbe7ca68f	-0.24672912
33	0x3cead559	0.028666185
34	0x3e12604e	0.1429455
35	0xbe823b2d	-0.25435773
36	0x3c2c2b73	0.010508406
37	0x3d670334	0.05639954
38	0xbd943c08	-0.072380126
39	0x3e21a7b5	0.15786631
40	0x3d34e1b7	0.04416057
41	0x3b8324a7	0.004002172
42	0xbf0383e1	-0.51373106
43	0xbe4ef734	-0.20211488
44	0xbe55c07a	-0.20874205
45	0xbdfbf98d	-0.123034574
46	0xbda46893	-0.080277584
47	0xbdeffd3a	-0.11718221
48	0xbe5afebc	-0.21386236
49	0xbdef3117	-0.11679285
50	0xbe9da186	-0.30787295
51	0xbe53d191	-0.20685412
52	0xbe75cc26	-0.24003658
53	0xbefa6587	-0.48905584
54	0xbd5b6ac1	-0.053568605
55	0xbdc98136	-0.09839098
56	0xbdfb47d0	-0.122695565
57	0x3e234c86	0.1594716
58	0xbd02c5d4	-0.031926945
59	0x3de2c9b9	0.11073632
60	0xbea27895	-0.31732622
61	0xbcd896f4	-0.026439168
62	0xbe75e719	-0.24013938
63	0x3de6498f	0.11244499
64	0xbe5c8c07	-0.21537791
65	0xbdd01247	-0.10159736
66	0xbde8717e	-0.11349772
67	0xbe948676	-0.29008836
68	0xbec7b78f	-0.39007232
69	0xbc8846ba	-0.016635288
70	0xbc44ad0a	-0.012004146
71	0xbe0f27f6	-0.13980088
72	0xbe357d1b	-0.17723505
73	0xbe22822d	-0.1586997
74	0xbdb15b58	-0.086600006
75	0x3d8471d3	0.06467023
76	0xbe1245f2	-0.14284495
77	0xbea2cff9	-0.31799296
78	0xbe8ba7b4	-0.27276385
79	0xbdb85a73	-0.09001627
80	0x3d1b79aa	0.037957825
81	0xbd90abca	-0.07064016
82	0xbf088832	-0.5333282
83	0xbe4b85fb	-0.19875328
84	0xbcce14dd	-0.025156433
85	0x3cee7057	0.029106302
86	0xbe72b7a6	-0.23702869
87	0xbe05555d	-0.13020845
88	0xbe26cdea	-0.16289487
89	0xbdd99772	-0.10624589
90	0xbe18c078	-0.14917171
91	0xbd4ca668	-0.049963385
92	0xbcec261c	-0.028826766
93	0xbec41684	-0.38298428
94	0xbd2d56f8	-0.042319268
95	0xbe896169	-0.2683213
96	0x3d9f0bf8	0.07765955
97	0xbbd7d7ce	-0.006587005
98	0xbd1eace8	-0.038739115
99	0xbed26263	-0.41090688
100	0xbe886f54	-0.26647437
101	0xbdbbfd0a	-0.09179123
102	0xbe9555ea	-0.2916711
103	0xbe5d067c	-0.21584505
104	0xbe7c55c4	-0.24642092
105	0xbd2fdc02	-0.042934425
106	0xbe3c026a	-0.18360296
107	0x3db2ecc2	0.08736564
108	0xbe3ebd5f	-0.18626927
109	0xbe5f1a5c	-0.21787399
110	0xbe731d6f	-0.23741697
111	0x3ce2b01d	0.027671868
112	0xbe807b9d	-0.2509431
113	0x3b8f2a40	0.0043690503
114	0x3bad3f47	0.0052870843
115	0xbec73aa3	-0.38911924
116	0xbec02459	-0.3752773
117	0xbe31b01f	-0.17352341
118	0xbdb0d5b7	-0.08634513
119	0xbd974ad4	-0.07387319
120	0xbb59abad	-0.00332139
121	0xbec14760	-0.37749767
122	0xbd90f9eb	-0.07078918
123	0xbca5a192	-0.020218644
124	0xbe468f9d	-0.19390722
125	0xbeb29f64	-0.3488723
126	0x3bd644ba	0.0065389546
127	0xbe61caab	-0.22049968

a2c_network.actor_mlp.4.weight f4 [64, 128]
0	0x3d83542f	0.06412541
1	0xbc45c251	-0.012070254
2	0x3dd7655f	0.10517382
3	0xbd664e3c	-0.056226954
4	0xbb18f152	-0.0023337197
5	0x3d95c8ed	0.07313714
6	0xbe29eded	-0.16594668
7	0x3da4ad24	0.080408365
8	0x3e9ed6fa	0.3102339
9	0x3edb88f7	0.42877933
10	0x3d83053e	0.06397484
11	0x3d4658c0	0.048424482
12	0x3bc21461	0.0059228395
13	0xbd88eb98	-0.06685561
14	0xbe43d6db	-0.1912493
15	0x3dd4f892	0.103989735
16	0x3dc083f7	0.0940017
17	0xbdda0cb3	-0.106469534
18	0xbcd05de3	-0.025435394
19	0xbd685545	-0.056721944
20	0x3e00c69e	0.12575766
21	0x3e56de1d	0.20983167
22	0x3e1baebe	0.15203378
23	0xbd89acd4	-0.067224175
24	0x3da70c5f	0.081566565
25	0xbd8a1b61	-0.06743503
26	0xbd75139c	-0.059833154
27	0xbe22ca7c	-0.15897554
28	0xbe567b09	-0.20945372
29	0xbdc34821	-0.09535242
30	0xbe05d399	-0.13069
31	0xbd83ec9c	-0.06441614
32	0xbbe1c69a	-0.00689013
33	0x3d7e4398	0.06207618
34	0xbe32abd5	-0.17448361
35	0x3e322566	0.17397079
36	0xbe03e3de	-0.12879893
37	0xbe33044e	-0.17482111
38	0xbdf469fd	-0.11934278
39	0xbc56ae94	-0.013103146
40	0xbc128cc8	-0.008944698
41	0xbe3b00b6	-0.1826199
42	0x3d5e8498	0.05432567
43	0xbdb10862	-0.08644177
44	0xbc813702	-0.0157733
45	0x3d9d28ae	0.07673775
46	0x3da5757f	0.08079051
47	0x3de48df6	0.111598894
48	0x3c7975a4	0.015225802
49	0x3c8812fa	0.016610611
50	0x3e772aee	0.2413747
51	0xbc569db5	-0.013099124
52	0x3d9a371c	0.075300425
53	0x3e16fbd7	0.14744507
54	0xbe4868bf	-0.19571207
55	0xbeb821f4	-0.35963404
56	0x3d2797da	0.0409163
57	0xbe410276	-0.18848595
58	0xbcf8137a	-0.030282725
59	0xbda85b13	-0.08220496
60	0x3dd8edf6	0.105922624
61	0x3d5528cb	0.052040856
62	0x3e97d088	0.29651284
63	0xbe2825ee	-0.16420719
64	0x3dc83365	0.09775428
65	0x3cf4488f	0.029819755
66	0x3d5ddd86	0.05416634
67	0xbbb5339c	-0.005529834
68	0x3d887829	0.06663544
69	0x3d1c4f4d	0.038161565
70	0x3e08b0d9	0.13348712
71	0xbe754093	-0.23950414
72	0x3e0801ce	0.13281938
73	0xbe010173	-0.12598209
74	0x3db27cd9	0.08715219
75	0x3da10e62	0.078640714
76	0xbd1f72e8	-0.038927943
77	0x3e2a6ddc	0.1664347
78	0x3daa954a	0.08329256
79	0x3d11735c	0.035510406
80	0xbe4ac624	-0.19802147
81	0xbd1ff371	-0.039050523
82	0x3d13445a	0.035953857
83	0xbdc2e279	-0.095158525
84	0xbe0c60f9	-0.13708867
85	0xbd3a0aeb	-0.04542057
86	0x3e9cf274	0.30653727
87	0x3e006764	0.1253944
88	0xb69af3b8	-4.6179302e-06
89	0xbe606ca0	-0.21916437
90	0xbd4564cd	-0.048191834
91	0xbe7a4ef7	-0.24444185
92	0x3d2713d6	0.0407904
93	0xbc1bc72f	-0.009507938
94	0x3e47463b	0.19460385
95	0xbd7aa52b	-0.061192673
96	0xbd30e852	-0.043190308
97	0xbe1be57d	-0.15224262
98	0xbdefd4cd	-0.117105104
99	0xbd014c8b	-0.031567138
100	0x3dc24ae4	0.094869405
101	0xbe04ba9d	-0.12961812
102	0x3e7be26a	0.24598089
103	0x3d6d9bc4	0.058009878
104	0xbcd3839f	-0.025819598
105	0xbe290c37	-0.16508566
106	0xbdd61b50	-0.10454428
107	0x3c34e93e	0.011041937
108	0xbd89f5d8	-0.06736344
109	0x3d1087eb	0.03528587
110	0x3c5aabfd	0.013346669
111	0x3b7782c0	0.0037767142
112	0x3d68f2b7	0.056872096
113	0xbe8d5a45	-0.27607933
114	0xbb57a263	-0.0032903187
115	0xbc676981	-0.014124275
116	0xbd623cee	-0.05523389
117	0xbd384b37	-0.044993605
118	0x3dad8ab8	0.08473724
119	0xbda7e1ec	-0.08197388
120	0xbe83d7e8	-0.2575066
121	0x3de27d0a	0.110590056
122	0xbe36df83	-0.178587
123	0xbe8d54a6	-0.27603644
124	0x3db5fe23	0.08886363
125	0x3d948ab1	0.07253016
126	0x3e756c88	0.23967183
127	0xbdc8e48e	-0.09809218
128	0xbd6c11ab	-0.057634037
129	0x3cd4120d	0.025887514
130	0x3e111e2c	0.14171666
131	0x3cb6f2ae	0.022332516
132	0xbe27f9c6	-0.16403875
133	0xbdc91cfd	-0.09819982
134	0x3def8344	0.11694959
135	0x3d0cc2c0	0.034365416
136	0x3e9ae717	0.30254433
137	0x3c589c5f	0.0132208755
138	0x3e8d2088	0.27563882
139	0x3b87c49e	0.0041433116
140	0x3ba2838b	0.004959529
141	0x3e0aaa14	0.13541442
142	0xbd823b10	-0.063589215
143	0xbc92383a	-0.017849077
144	0xbd49fa3a	-0.0493109
145	0x3ddaa029	0.106750794
146	0x3dbec8a9	0.09315617
147	0x3dbbdb35	0.0917267
148	0x3d9460c8	0.07245022
149	0x3e7f14a5	0.24910219
150	0x3bd3c3cc	0.00646255
151	0x3d12d522	0.03584779
152	0xbcf09d67	-0.02937193
153	0x3c428915	0.011873503
154	0x3dd5b4ad	0.10434852
155	0xbdb114f2	-0.08646573
156	0xbe0de4e5	-0.13856848
157	0x3d09898a	0.033578433
158	0xbe438232	-0.19092634
159	0xbdb25876	-0.08708279
160	0x3dd36f72	0.10323991
161	0x3d9a4ef3	0.075345896
162	0x3cae2c9d	0.021261508
163	0x3d8c2327	0.06842642
164	0x3e1c734f	0.15278362
165	0xbe182dc6	-0.14861211
166	0x3d0a675e	0.033789985
167	0xbd7df3a5	-0.061999936
168	0xbe42ec6b	-0.19035499
169	0xbd9bee85	-0.07613853
170	0x3e6507d4	0.22366267
171	0x3d763ca1	0.060116414
172	0x3c668695	0.014070173
173	0x3d2f519e	0.042802446
174	0x3e0529eb	0.13004272
175	0xbc8f44f7	-0.01748894
176	0x3cafd8e7	0.021465732
177	0x3cbb5176	0.022865992
178	0x3cd450aa	0.02591737
179	0x3da51428	0.08060485
180	0x3dec5085	0.115387954
181	0x3e07ea4a	0.13272968
182	0xbe40183a	-0.18759242
183	0xbe1e1b49	-0.15440096
184	0xbe6bd8a8	-0.23031867
185	0xbd65d56e	-0.056111746
186	0x3cc64e25	0.024207184
187	0xbcf8c017	-0.030365033
188	0x3e7adf18	0.24499166
189	0xbd295b8a	-0.041347064
190	0x3e59aa00	0.21256256
191	0xbcac329d	-0.021020228
192	0x3df90adf	0.121602766
193	0x3d722cd6	0.05912479
194	0xbd8ceea0	-0.068814516
195	0x3d2d5e9a	0.042326547
196	0x3dda471a	0.10658093
197	0xbce2cece	-0.027686503
198	0x3db36cad	0.08760963
199	0x3cf81306	0.030282509
200	0x3e340c3a	0.17582789
201	0xbc56493d	-0.013078985
202	0x3d3bc5bd	0.045842875
203	0x3e348b70	0.17631316
204	0xbe5f2e89	-0.21795096
205	0x3e0e65c8	0.13906014
206	0x3e6bee6d	0.23040171
207	0xbd63c2dc	-0.055605754
208	0xbdcf937a	-0.10135551
209	0xbdd9b389	-0.10629947
210	0x3e32e21a	0.17469063
211	0xbe229aa6	-0.15879306
212	0xbe528981	-0.20560266
213	0x3d31910a	0.04335121
214	0x3da47283	0.08029654
215	0x3ccd10e5	0.02503247
216	0x3dda3e43	0.10656407
217	0xbdc0e393	-0.09418406
218	0xbc6560a2	-0.01400009
219	0xbdf1ac82	-0.118004814
220	0xbc732bf5	-0.014842023
221	0x3c893299	0.01674776
222	0xbd152190	-0.03640896
223	0xbd941e63	-0.07232358
224	0xbe7d495d	-0.24735017
225	0x3b34510f	0.0027514135
226	0xbcb9b92b	-0.022671303
227	0xbde0afef	-0.10971057
228	0xbcf3bfc1	-0.029754521
229	0xbd6d9872	-0.05800671
230	0xbe05d7a0	-0.13070536
231	0xbd0d7245	-0.034532804
232	0x3d0a3238	0.0337393
233	0xbd83ae5d	-0.064297415
234	0xbd48627e	-0.048922054
235	0xbe00ffbd	-0.12597556
236	0x3df40c8b	0.11916455
237	0xbdf0ec9c	-0.1176388
238	0xbd65ce61	-0.05610502
239	0xbd268d41	-0.040662054
240	0x3dbd4314	0.0924131
241	0xbe53a9ce	-0.20670244
242	0xbc97b777	-0.0185201
243	0x3dac33bd	0.08408306
244	0x3df1fd9b	0.118159495
245	0xbe2f0c64	-0.1709457
246	0xbc08cfeb	-0.008350353
247	0x3dad60b8	0.08465713
248	0xbdd43477	-0.103615694
249	0xbdbe73fd	-0.09299467
250	0xbd6679d1	-0.056268517
251	0x3e12b796	0.14327845
252	0x3b10d577	0.0022099891
253	0x3da88423	0.08228328
254	0x3e74e2f9	0.23914708
255	0x3cc0f1e5	0.023552844

a2c_network.actor_mlp.4.bias f4 [64]
0	0xbdf09e7d	-0.11748979
1	0xbdd7002b	-0.10498079
2	0x3da4911a	0.080354884
3	0x3dbf3dab	0.09337934
4	0xbdbb4296	-0.0914356
5	0x3c8e9f8a	0.017410059
6	0xbe09530e	-0.13410589
7	0xbdb4de43	-0.088314556
8	0xbd875554	-0.06608072
9	0xbec99806	-0.39373797
10	0xbdd3cead	-0.10342155
11	0xbe03d7ef	-0.12875341
12	0xbdc4a24c	-0.09601268
13	0xbd1fab6c	-0.03898184
14	0xbea2c7c3	-0.3179303
15	0x3c421862	0.011846634
16	0xbd321031	-0.043472473
17	0x3db26262	0.08710171
18	0xbe591539	-0.21199502
19	0xbdcc8661	-0.09986568
20	0x3dd90f52	0.10598625
21	0xbe19c35e	-0.15015933
22	0xbd59a671	-0.053137247
23	0xbc2691c1	-0.010166586
24	0xbe223a5d	-0.15842576
25	0xbe59f5f6	-0.21285233
26	0xbe65f42a	-0.22456422
27	0xbd450a3d	-0.048105467
28	0xbdf57106	-0.11984448
29	0x3e277521	0.16353275
30	0xbd964bda	-0.07338686
31	0xbe86f251	-0.26356748
32	0x3e3a8800	0.18215942
33	0x3e14e07c	0.14538759
34	0xbec2b3bd	-0.38027754
35	0xbe1712d5	-0.14753278
36	0xbe1a64a1	-0.1507745
37	0x3d804baf	0.062644355
38	0x3d8e8102	0.069582
39	0xbe6b459c	-0.22975773
40	0x3d91b581	0.07114697
41	0xbe3a53c0	-0.1819601
42	0xbd952bad	-0.07283721
43	0xbe16f329	-0.14741196
44	0x3cc5dafa	0.024152268
45	0xbe641a6b	-0.22275703
46	0xbd58390f	-0.05278879
47	0xbdec5c03	-0.11540987
48	0xbe26bef9	-0.16283788
49	0xbcc95fd9	-0.024581837
50	0xbe29ca07	-0.16580974
51	0xbec66f2c	-0.38756692
52	0xbdef9500	-0.11698341
53	0xbcf3544a	-0.029703278
54	0x3c96fe8f	0.01843193
55	0xbd912c4c	-0.07088527
56	0xbce31676	-0.027720671
57	0xbeb4f9be	-0.35346788
58	0x3c68eae5	0.0142161595
59	0xbe2dc64f	-0.1697018
60	0xbe92a944	-0.28644764
61	0xbe8ce737	-0.27520153
62	0xbef6a7fa	-0.4817503
63	0xbdc65502	-0.09684183

a2c_network.value.weight f4 [1, 64]
0	0x3c8e8196	0.017395776
1	0x3e2b5107	0.16730128
2	0x3c51d137	0.012806228
3	0xbb90112b	-0.004396578
4	0xbc21502d	-0.009845776
5	0x3c31c47d	0.010850069
6	0xbe89bc70	-0.2690158
7	0x3c238c60	0.0099821985
8	0x3c9fdfd1	0.019515904
9	0xbb67eeb3	-0.0035390079
10	0x3ba66cb9	0.0050788787
11	0x3d49c4a4	0.049259797
12	0xbb955e74	-0.004558379
13	0x39e7e04d	0.0004422687
14	0x38464b0a	4.7276764e-05
15	0x3d1d4ff6	0.038406335
16	0x3f027284	0.50955987
17	0xbb6ef844	-0.0036463896
18	0x3ceb0487	0.028688682
19	0x3b1cec2e	0.0023944485
20	0x3c9ec2e7	0.019380046
21	0x3b2d3da4	0.0026434446
22	0xbbc8c46f	-0.0061269323
23	0x3d805665	0.062664784
24	0x3b8054c2	0.003916354
25	0xbcf0077b	-0.029300442
26	0x3c5857f9	0.013204568
27	0xbe73bd29	-0.23802628
28	0xbc4536a6	-0.012036955
29	0x3ea73539	0.32657793
30	0xbb89d7ac	-0.0042066183
31	0x3bb960cb	0.0056572906
32	0x3eda128a	0.4259227
33	0x3da5342d	0.08066592
34	0x3cc73681	0.024317982
35	0x3bb179b6	0.0054161204
36	0xbf164082	-0.5869218
37	0x3c6494a8	0.013951458
38	0xbb84383c	-0.004035024
39	0x3bb5af28	0.005544562
40	0x3cdfec74	0.02733443
41	0x3c40acf0	0.0117599815
42	0x3d056f35	0.03257676
43	0xbc070867	-0.008241749
44	0xbc0d8409	-0.008637437
45	0xbb5138b5	-0.003192467
46	0xbce80d06	-0.028326523
47	0xbe9dd1b2	-0.30824047
48	0x3cb051bc	0.021523349
49	0xbc9074a6	-0.017633747
50	0x3e89b04b	0.26892313
51	0x3ad15240	0.0015969947
52	0xb941c855	-0.00018480544
53	0x3bd28c88	0.006425444
54	0xbc1ef7d5	-0.009702642
55	0xbbcc5603	-0.0062358393
56	0x3c1b0b48	0.009463139
57	0x3d25e868	0.040504843
58	0x3b499a49	0.0030762127
59	0xbaac7b89	-0.0013159375
60	0x3e0e40d5	0.13891919
61	0x3e06d579	0.13167371
62	0x3e06dcf8	0.1317023
63	0xbb500b44	-0.0031744996

a2c_network.mu.weight f4 [12, 64]
0	0x3d8981f8	0.06714243
1	0xb986cbad	-0.00025710222
2	0x3d97735d	0.07395051
3	0xbbcdad83	-0.0062767877
4	0xbddc393d	-0.10753105
5	0x3dd85362	0.10562779
6	0xbd49ab99	-0.049235914
7	0xbd41007d	-0.047119606
8	0x3c6c2098	0.014412068
9	0x3c4bcbec	0.0124387555
10	0x3cf9142c	0.030405127
11	0xbe29297a	-0.16519728
12	0x3cd2de13	0.025740659
13	0x3d0dd91b	0.034630876
14	0x3c31f09b	0.0108605875
15	0x3d59b2c4	0.053149
16	0x3c377f87	0.0111998385
17	0xbe018d75	-0.12651618
18	0xbc9ba1ed	-0.01899811
19	0xbe1028d5	-0.14078076
20	0x3df94fd4	0.12173429
21	0x3d310d2b	0.04322545
22	0x3db55d0b	0.08855637
23	0xbd707ece	-0.05871468
24	0xbd9831b8	-0.07431358
25	0xbdda12bb	-0.10648104
26	0x3e2b6773	0.16738681
27	0xbdf461e5	-0.119327344
28	0xbd17c5e0	-0.037053943
29	0x3d0bbabe	0.034113638
30	0x3d5ead21	0.054364327
31	0xbc593f16	-0.01325967
32	0x3d6a7ab4	0.057245925
33	0xbddf6313	-0.10907569
34	0xbc020799	-0.007936382
35	0x3d1c2ee1	0.038130645
36	0xbb5119ff	-0.0031906364
37	0xbce0a697	-0.027423186
38	0xbcd334fa	-0.025782097
39	0x3d0e863f	0.034795996
40	0x3d014333	0.031558227
41	0x3d49748d	0.049183417
42	0xbde5f3b7	-0.112281255
43	0x3d7485b8	0.059697837
44	0x3d526d85	0.051373977
45	0xbd24b2a7	-0.04020944
46	0x3d887f87	0.06664949
47	0x3d35c690	0.044378817
48	0x3da018f5	0.0781726
49	0xbe057925	-0.13034494
50	0x3b873228	0.004125852
51	0x3e1add6f	0.15123533
52	0x3d693566	0.05693569
53	0xbc189b17	-0.00931432
54	0xbe886dfc	-0.2664641
55	0xbbe62096	-0.0070229275
56	0x3d0078e3	0.031365287
57	0xbdb391d1	-0.08768047
58	0x3d45f71f	0.048331376
59	0x3c83e920	0.016102374
60	0xbdd39c12	-0.103325024
61	0xbcba0001	-0.02270508
62	0xbdd0ce80	-0.10195637
63	0xbd879953	-0.06621041
64	0x3d03cd54	0.032178238
65	0xbddccfa2	-0.1078179
66	0x3e372a19	0.17887153
67	0xbc1c58c6	-0.00954265
68	0x3cd1f974	0.025631644
69	0xbd976eaa	-0.07394154
70	0x3d3f77e4	0.046745196
71	0x3dbc47c0	0.09193373
72	0x3c91358d	0.01772573
73	0xbd2a8e53	-0.041639637
74	0xbc8fcd27	-0.017553879
75	0xbc143a6c	-0.009047132
76	0x3d0f4929	0.03498188
77	0x3c2cf51a	0.010556484
78	0xbb8262f3	-0.003979081
79	0x3c03b195	0.008037944
80	0xbce854b8	-0.02836071
81	0xbd893c26	-0.067009255
82	0x3d8e19c7	0.069385104
83	0xbd361ec4	-0.044462934
84	0x3df1a4b2	0.11798991
85	0x3e2d183c	0.16903776
86	0xbc849096	-0.016182225
87	0x39cd2ed2	0.0003913553
88	0x3c87d5e2	0.01658148
89	0x3ceae555	0.028673807
90	0xbd445d2b	-0.047940414
91	0xbd646b77	-0.05576655
92	0x3d96de75	0.07366649
93	0xbdfc253a	-0.12311788
94	0x3d9336e1	0.07188202
95	0x3d3047b4	0.04303713
96	0xbd10fdc4	-0.03539826
97	0x3dc97587	0.0983687
98	0xbdcabf10	-0.098997235
99	0x3c7b05b7	0.015321187
100	0x3cb8b15f	0.022545515
101	0xbccb20aa	-0.024795849
102	0xbd65a39b	-0.05606423
103	0xbdd1316e	-0.10214506
104	0xbdd40fbf	-0.10354566
105	0xbcae8692	-0.021304403
106	0x3da24063	0.07922437
107	0x3c158638	0.0091262385
108	0xbdb9c787	-0.0907126
109	0x3d9693cd	0.073524095
110	0xbd9641cd	-0.07336769
111	0x3c818c18	0.015813872
112	0x3d0d223d	0.03445648
113	0xbdb38f99	-0.087676235
114	0xbd35f38d	-0.04442172
115	0xbb9e3e54	-0.0048292074
116	0xbd83f3e6	-0.06443004
117	0x3d36ea19	0.044656847
118	0xbdf75a95	-0.12077824
119	0x3e09e290	0.13465333
120	0xbd0898e9	-0.03334895
121	0x3b7aba8c	0.0038258163
122	0x3c946906	0.018116485
123	0x3d8997e4	0.06718424
124	0x3b221b87	0.0024735646
125	0x3da06da6	0.07833414
126	0xbcadc966	-0.021214198
127	0x3d1ae6f5	0.037817914
128	0x3d88b083	0.06674292
129	0xbd001e23	-0.03127874
130	0xbca8a06e	-0.020584311
131	0xbead5186	-0.3385126
132	0x3e070c9b	0.13188402
133	0x3dfb37c1	0.122664936
134	0x3ce36986	0.027760278
135	0x3c7a39a6	0.0152725335
136	0xbdbe6117	-0.09295862
137	0x3dfb80aa	0.122804
138	0x3d283612	0.04106719
139	0xbc2b737b	-0.010464544
140	0x3e27ffcc	0.16406173
141	0x3d17208d	0.036896277
142	0x3e1d9b2d	0.15391226
143	0x3ccb118a	0.024788637
144	0xbb39163f	-0.002824202
145	0x3cd57024	0.02605445
146	0x3d907122	0.07052828
147	0x3d7622e5	0.06009187
148	0xbe0d8edb	-0.13824026
149	0x3d875110	0.06607258
150	0x3d31b381	0.04338408
151	0xbe43eabc	-0.19132513
152	0x3c056fe9	0.008144357
153	0xbbb0b80e	-0.005393035
154	0xbdda0057	-0.10644596
155	0xbc3a0668	-0.011354066
156	0x3caf0532	0.021364782
157	0xbde0b85b	-0.10972663
158	0x3da46eda	0.08028956
159	0xbd942350	-0.07233298
160	0x3b902422	0.0043988386
161	0x3d9dbd8a	0.07702167
162	0x3cedfd14	0.029051341
163	0x3c1811f5	0.009281625
164	0x3cfeebd9	0.03111832
165	0xbd82e56c	-0.06391415
166	0xbdcc645b	-0.09980079
167	0xbd3d75c1	-0.046254877
168	0xbe041132	-0.12897184
169	0xbd39a6b9	-0.045325015
170	0x3cf26a04	0.029591568
171	0xbc787e30	-0.015166804
172	0x3d3d433e	0.046206705
173	0xbd001d7f	-0.03127813
174	0xbdbffc87	-0.09374338
175	0x3cfc4238	0.030793294
176	0xbd6999cb	-0.057031434
177	0x3b4bd5d3	0.003110279
178	0x3e15940f	0.14607261
179	0x3da726d8	0.08161706
180	0x3e6c3d33	0.2307022
181	0x3d644202	0.055727012
182	0x3d04b8dd	0.032402862
183	0xbe0055c7	-0.12532721
184	0xbd112b62	-0.035441764
185	0x3d64d4ee	0.055867128
186	0x3d8bb773	0.068220995
187	0xbc44d248	-0.012013026
188	0x3ce5efc8	0.028068438
189	0x3c9f4a94	0.019444741
190	0x3d876391	0.06610788
191	0xbbe33832	-0.0069341892
192	0xbd887e23	-0.06664684
193	0x3d53215f	0.051545497
194	0xbe229ab9	-0.15879335
195	0x3dda1d90	0.1065017
196	0x3d47d50d	0.048787165
197	0x3d38cf89	0.045119796
198	0xbd18ac93	-0.037273955
199	0x3c96e7c7	0.018421067
200	0x3da2c0c2	0.07946922
201	0xbda8c144	-0.082399875
202	0x3d443505	0.047902126
203	0x3d630624	0.055425778
204	0xbd8d958c	-0.069132894
205	0xbd903eea	-0.0704325
206	0xbc37f83e	-0.011228619
207	0xbd35aea1	-0.044355992
208	0x3d98bbab	0.0745767
209	0x3db840b3	0.089967154
210	0x3c3cae36	0.0115161445
211	0x3d008738	0.031378955
212	0x3d030a0c	0.031992003
213	0xbd938b2a	-0.07204278
214	0xbd88d740	-0.06681681
215	0x3d144ab6	0.036204062
216	0xbe075063	-0.13214259
217	0xbcedbb10	-0.029019862
218	0x3d9f5440	0.07779741
219	0x3d4b2942	0.049599893
220	0x3cba5cc0	0.022749305
221	0xbda07fcc	-0.07836875
222	0xba736c9c	-0.00092858984
223	0xbc53f13a	-0.012935931
224	0x3ce93558	0.02846782
225	0x3d969bd9	0.07353944
226	0x3beb9792	0.0071896994
227	0x3d021cd4	0.031765774
228	0x3c6d9bd3	0.014502483
229	0x3cd051b7	0.02542959
230	0xbdd7beb4	-0.105344206
231	0x3b9aba6c	0.0047219303
232	0x3da4047f	0.0800867
233	0xbe7e3769	-0.24825825
234	0x3d796d40	0.060895205
235	0xbdb35514	-0.08756462
236	0x3c18704e	0.009304119
237	0xbd1b5605	-0.03792383
238	0x3d8980bf	0.067140095
239	0xbd137840	-0.03600335
240	0x3c3af283	0.011410358
241	0x3c1cf128	0.0095789805
242	0xbad19049	-0.0015988435
243	0xbce6e939	-0.028187381
244	0xbba66226	-0.005077618
245	0xbdd55219	-0.104160495
246	0xbbe16583	-0.006878556
247	0xbe13e547	-0.14442931
248	0xbb8b5ae9	-0.0042527807
249	0xbdf68acf	-0.120381944
250	0xbcfec190	-0.031098157
251	0xbbf43d27	-0.007453579
252	0xbdab8a9b	-0.08376046
253	0xbb4dfc7b	-0.0031431008
254	0xbd16e5da	-0.036840297
255	0xbe497c3d	-0.196763

a2c_network.mu.bias f4 [12]
0	0xbafcb4fc	-0.0019280012
1	0xbd98f9a5	-0.07469491
2	0xbda6abb9	-0.08138222
3	0x3e0d50c6	0.13800344
4	0xbd7b6600	-0.06137657
5	0x3bba03b2	0.00567671
6	0x3e57c75d	0.21072145
7	0xbdca1bbf	-0.098685734
8	0x3e06f96a	0.13181081
9	0xbe425f68	-0.18981707
10	0xbe4cfa96	-0.20017466
11	0x3e57baa0	0.21067286

exp_avg f4 [12]
0	0x3b1602e7	0.0022889914
1	0xb9bdd2c4	-0.00036205922
2	0x3ab121f7	0.0013514151
3	0xbab16416	-0.0013533856
4	0x3ac00c23	0.0014652055
5	0x3ad38962	0.0016138966
6	0xbae0452a	-0.0017110456
7	0xbb052335	-0.0020315174
8	0x3b67f2f4	0.0035392614
9	0x3b1f0143	0.0024262227
10	0x3aa36973	0.0012467339
11	0x3a7441ba	0.00093176553

exp_avg_sq f4 [12]
0	0x3798add7	1.8200762e-05
1	0x378b39ff	1.6597098e-05
2	0x378fbb7a	1.7134229e-05
3	0x37930a18	1.7528466e-05
4	0x379e3700	1.886068e-05
5	0x379e6b01	1.8884895e-05
6	0x378d20e3	1.6823824e-05
7	0x3793cfeb	1.7620585e-05
8	0x37a48a4e	1.9614727e-05
9	0x378980d3	1.6391661e-05
10	0x379c04b9	1.8598848e-05
11	0x379fdcd5	1.905711e-05
