OmniIsaacGymEnvs/omniisaacgymenvs/runs/Naranjelio/nn/last_Naranjelio_ep_300_rew_-0.86598396.pth (torch, 672859 bytes, 36 tensors)

value_mean_std.running_mean f8 [1]
0.05245503016439701
00000000: d030 22be 62db aa3f

value_mean_std.running_var f8 [1]
0.015979662664319612
00000000: 026e 2d02 f95c 903f

value_mean_std.count f8 []
1440001.0
00000000: 0000 0000 01f9 3541

running_mean_std.running_mean f8 [48]
-0.16697679395067294 -0.2428764625007611 -0.19300004199740053 -0.4371336114126652 0.279558063207227 0.21590261182855885 -0.03909642597968564 -0.02784593987253548
-0.23558143671965276 0.19190595792172724 0.22283214932010306 -0.021962245208617098 -0.6615546084862145 0.07276929143656914 0.23751708395258245 0.20119505074348526
4.999993055565198 -4.999993055565198 -4.999993055565198 4.936212646969012 1.1353048397100214 0.3441823864363795 0.9740308317003447 -0.5435254519608566
0.012625221480164865 0.005524528316620786 0.02129846569260195 0.04081476404064372 -0.0064919945474792426 -0.00019582881779461127 0.008042943380402408 -0.32428245521443566
0.008640072100735315 2.844438135478808 -0.052361779437785146 2.4755516726386917 0.03748634521594744 -0.04619431361929034 -0.15387025741744698 0.11883607173990396
0.04275025119323714 -0.04733720678572399 0.011675913511986711 -0.29203441042509964 -0.036529540456142096 -0.136670559072265 0.08872094885107434 0.11981848940638291
00000000: d6c2 9ade 7e5f c5bf 1f58 b46f 9316 cfbf
00000010: f9b2 40b2 39b4 c8bf 39fc 3f41 fff9 dbbf
00000020: 94b8 b380 47e4 d13f b45a 7660 b2a2 cb3f
00000030: ce4b f25d 7204 a4bf 02d1 5064 a583 9cbf
00000040: 92b7 2053 8827 cebf 2737 97da 5f90 c83f
00000050: b7e2 e98c c385 cc3f dbc4 ab53 457d 96bf
00000060: 8cec fe91 742b e5bf 3d87 df1e 02a1 b23f
00000070: 09a8 e8b5 f566 ce3f e2b8 8769 c2c0 c93f
00000080: bf84 f72d feff 1340 bf84 f72d feff 13c0
00000090: bf84 f72d feff 13c0 8155 3387 aebe 1340
000000a0: 95b8 5868 352a f23f 7b9f 668f 1507 d63f
000000b0: 6d5b eeb4 422b ef3f 5ce5 167d 8f64 e1bf
000000c0: 3c82 e58a 40db 893f 20a3 2147 e3a0 763f
000000d0: 5c37 6bd6 43cf 953f 393e 7f39 ace5 a43f
000000e0: cf96 4684 5997 7abf ea06 70bc ecaa 29bf
000000f0: 245f 4296 d178 803f 6801 f432 0bc1 d4bf
00000100: e4a6 dcd8 e2b1 813f 7a03 fbc7 68c1 0640
00000110: 29c6 7dc4 29cf aabf 8a54 0c09 eecd 0340
00000120: d584 7f05 6931 a33f fa14 83f4 c7a6 a7bf
00000130: 44af b745 05b2 c3bf 503f b571 0a6c be3f
00000140: 3c9e 8a65 5ce3 a53f 56ae 0e16 953c a8bf
00000150: bfb0 7a95 8ae9 873f c546 8518 b1b0 d2bf
00000160: 20af 31fb ffb3 a2bf 104d c5be 6b7e c1bf
00000170: 7413 c985 6ab6 b63f 9ddf 74ad 6cac be3f

running_mean_std.running_var f8 [48]
5.054726622952516 6.047878613922866 5.738665604578354 5.874455960217577 4.131570740481432 5.047267005539171 0.2941119563722694 0.26092588914031023
0.3894275531119091 5.516969988322524 1.4461578052727726 0.019494607439623845 0.23045368077383116 0.012155840801581537 9.608481512427309 0.011169105315557098
3.611101273168511e-05 3.611101273168511e-05 3.611101273168511e-05 0.06171420287686791 0.3257812510767841 11.637738787237076 0.29485644557744695 13.038406664847738
0.052436171748210754 0.018801966146148662 2.4240796083802385 0.025748694419406033 0.13490716074814413 0.010752447467618617 0.04064387804355037 2.5312313603240124
0.5549885610723466 3.547511027190668 0.4173233059408988 4.014886582442052 0.5030041227043666 0.5916484063826061 0.45803870152603715 0.5259190819035646
0.5551449598812758 0.4804266582589238 0.6044160252877554 0.4948477500340063 0.5617942593834817 0.5339552815957178 0.5320542438082173 0.5562923233915045
00000000: d134 7f41 0a38 1440 f5e7 6317 0731 1840
00000010: 5b60 99c1 64f4 1640 03b5 1b62 717f 1740
00000020: bbe9 ed7a ba86 1040 e2e1 0bc3 6630 1440
00000030: 80d0 7ef4 bad2 d23f 0264 2280 02b3 d03f
00000040: 97b9 318b 61ec d83f 5a6f a394 6011 1640
00000050: f106 e85d 7623 f73f 032e 9bf5 64f6 933f
00000060: 8a4d 1597 817f cd3f d7dc 9555 29e5 883f
00000070: 1b31 88e3 8a37 2340 637a 72f0 d3df 863f
00000080: b431 1df3 bcee 023f b431 1df3 bcee 023f
00000090: b431 1df3 bcee 023f 3016 1c06 0199 af3f
000000a0: 8b95 c19a 99d9 d43f dc25 c5b2 8546 2740
000000b0: ac46 b191 edde d23f 5ef0 d209 aa13 2a40
000000c0: 296f 92f5 e9d8 aa3f f3f6 ca96 d240 933f
000000d0: 1e26 87d9 8364 0340 72c0 c8a1 dd5d 9a3f
000000e0: 4c6a b449 a344 c13f 0594 cd11 6105 863f
000000f0: 2b96 f53d 46cf a43f 1c9c 393a f63f 0440
00000100: e8b6 ee5e 77c2 e13f c5dd 1f76 4d61 0c40
00000110: 1dfc b7cf 6cb5 da3f 87f3 a26d 3e0f 1040
00000120: f196 181a 9c18 e03f 199a 84a3 c8ee e23f
00000130: 1bd3 d68e 8150 dd3f eec7 2341 54d4 e03f
00000140: 8556 e75c bfc3 e13f 3750 5674 4fbf de3f
00000150: 4741 b946 6057 e33f 9c4b b9e5 95ab df3f
00000160: 383e 64f4 37fa e13f ce5c ff62 2916 e13f
00000170: 7556 1b9f 9606 e13f 8e6f ff8e 25cd e13f

running_mean_std.count f8 []
720001.0
00000000: 0000 0000 02f9 2541

a2c_network.sigma f4 [12]
0.19283757 0.10628722 0.24153122 0.3424153 0.28498626 0.2136154 0.2930591 0.45159778
0.20333114 0.3272657 0.24450767 0.05275434
00000000: 3677 453e 1dad d93d f653 773e 0f51 af3e
00000010: b8e9 913e ffbd 5a3e d80b 963e d337 e73e
00000020: 0a36 503e 5f8f a73e 3860 7a3e ef14 583d

a2c_network.actor_mlp.0.weight f4 [256, 48]
0.061120316 -0.0232453 -0.04123043 -0.037414454 -0.13973397 0.09487306 0.1256583 0.07067401
0.021586379 -0.010703268 0.14006814 -0.037752636 0.040836796 -0.1981808 0.07242627 -0.029188117
0.0637566 -0.049600925 0.100183316 -0.10172354 -0.12684138 -0.1316473 0.14674643 0.10403426
0.15490529 -0.13950373 -0.18800385 -0.14047596 -0.118649445 0.092902355 0.09924157 0.08233221
-0.20320824 -0.14283673 0.034093484 -0.035208173 0.20990399 -0.03878969 0.00090405514 -0.15629184
-0.07015615 0.062684216 -0.11046809 -0.009890463 0.18161769 0.08893589 -0.06766425 -0.035003826
0.090714104 -0.13495862 -0.11326907 -0.24514103 -0.0725129 0.10427228 -0.057538267 -0.17906296
-0.08871315 -0.15270102 -0.11883503 0.017252374 -0.05170326 -0.10841948 0.13080892 -0.112023756
-0.007192405 -0.08294983 -0.04312557 -0.010006339 -0.021733789 -0.039258827 -0.091466166 -0.046535723
-0.13933742 -0.13526052 0.033733774 -0.021229582 -0.11902831 -0.060423113 -0.052732166 -0.1165977
0.20926908 -0.068516694 0.24160835 0.08209057 -0.08069431 0.042034116 0.012164871 0.0030558747
-0.06929165 -0.053095467 -0.014147813 0.032644253 -0.008642319 -0.03175154 0.09649848 -0.087777466
-0.0070149493 0.09916978 0.034215022 0.15328707 0.12528937 -0.11362757 0.016108342 -0.05300291
-0.039602783 -0.17845166 0.270491 -0.0446394 0.11196543 0.096648134 0.06515052 -0.076231
0.1892771 -0.02636293 -0.039513543 -0.1795937 0.03926701 -0.019318676 -0.08247294 0.14011145
0.055280834 -0.12248898 -0.08237573 0.03044941 0.061663516 -0.040162668 0.08761554 -0.072551414
-0.36292055 -0.03550699 0.14995602 -0.21622948 -0.015875768 0.08762189 0.000811347 -0.079288915
0.0600597 0.08642927 0.097741075 0.08272473 0.009756589 -0.030983225 -0.04277588 -0.0016951066
-0.038705207 0.18199053 0.06195117 0.04602389 0.0036296798 -0.082649745 -0.008968101 -0.0006134968
-0.18380041 -0.025428964 0.20094614 0.10086954 -0.022096483 -0.1082819 -0.06934894 -0.18974458
-0.10739137 0.10908613 0.15237433 0.05679726 -0.14504847 -0.12873642 -0.07483467 0.108473554
0.10298823 -0.0039267563 0.08189839 -0.06876989 -0.17070495 0.23953049 0.23754348 -0.0419527
-0.23030359 0.11278728 0.09820437 0.10772783 -0.057507727 -0.12065274 -0.10598337 0.07777766
0.19391367 0.12360394 -0.02507727 0.13200451 0.056962527 -0.17775221 -0.10360864 -0.011861051
0.06554098 -0.09032501 -0.04428193 -0.049321927 0.026237972 -0.14906475 -0.12778486 0.044005092
-0.061986025 0.120542675 -0.046076927 -0.18755752 -0.021974687 -0.070252776 -0.028560935 -0.116927065
-0.024123807 0.0043908893 0.17742653 0.0607671 0.1305588 -0.06334928 0.13480273 -0.11185277
0.101269305 0.1807785 0.009150537 -0.051126152 -0.026418822 -0.1782536 0.06846904 -0.09629616
0.18463753 0.2083737 0.16570523 -0.014347519 -0.0976164 0.031802773 0.089875326 -0.094803914
-0.106453665 -0.040881544 0.028881697 -0.104998 -0.07783865 -0.04278198 -0.17950252 0.05386455
0.02491592 -0.03354331 -0.06021337 -0.08459842 -0.17250095 -0.11649517 0.14224051 -0.059810746
-0.13482496 0.050711717 -0.07864875 0.038769443 0.021220371 -0.061521523 0.02163812 -0.12946565
00000000: 4c59 7a3d ed6c bebc 3de1 28bd e63f 19bd
00000010: 6c16 0fbe cf4c c23d 92ac 003e 89bd 903d
00000020: ebd5 b03c c35c 2fbc 066e 0f3e 82a2 1abd
00000030: 7c44 273d e8ef 4abe 3954 943d eb1b efbc
00000040: d292 823d 572a 4bbd e92c cd3d 6e54 d0bd
00000050: b5e2 01be 8dce 06be b244 163e ea0f d53d
00000060: 7e9f 1e3e 11da 0ebe 1584 40be eed8 0fbe
00000070: 7bfe f2bd 9743 be3d 2a3f cb3d ca9d a83d
00000080: d215 50be cb43 12be 9ca5 0b3d 7236 10bd
00000090: 12f1 563e f0e1 1ebd 1dfe 6c3a f80a 20be
000000a0: 07ae 8fbd 9560 803d 183d e2bd 9c0b 22bc
000000b0: fdf9 393e 0524 b63d 8e93 8abd 2c60 0fbd
000000c0: 51c8 b93d 9832 0abe 9df9 e7bd 4006 7bbe
000000d0: a581 94bd b58c d53d 3fad 6bbd 485c 37be
000000e0: 3daf b5bd a85d 1cbe c85f f3bd da54 8d3c
000000f0: ccc6 53bd 080b debd c6f2 053e b66c e5bd
00000100: 44ae ebbb 9ae1 a9bd 70a4 30bd a1f1 23bc
00000110: 0f0b b2bc ddcd 20bd 9d52 bbbd 3e9c 3ebd
00000120: 78ae 0ebe bc81 0abe 6d2c 0a3d a9e9 adbc
00000130: 1dc5 f3bd 3a7e 77bd affd 57bd c6ca eebd
00000140: a24a 563e 7b52 8cbd 2e68 773e 1a1f a83d
00000150: 0f43 a5bd f72b 2c3d 2b4f 473c 1245 483b
00000160: c8e8 8dbd a27a 59bd 3bcc 67bc fbb5 053d
00000170: 8398 0dbc e70d 02bd ffa0 c53d acc4 b3bd
00000180: a9dd e5bb 8719 cb3d 0d25 0c3d 49f7 1c3e
00000190: db4b 003e 92b5 e8bd a4f5 833c 9419 59bd
000001a0: 8736 22bd 08bc 36be cc7d 8a3e ced7 36bd
000001b0: 224e e53d 75ef c53d a36d 853d 001f 9cbd
000001c0: dbd1 413e 12f7 d7bc f4d8 21bd 69e7 37be
000001d0: 72d6 203d 3342 9ebc 93e7 a8bd 6079 0f3e
000001e0: 286e 623d 81db fabd 9bb4 a8bd 0b71 f93c
000001f0: e292 7c3d 9c81 24bd c76f b33d d695 94bd
00000200: b9d0 b9be c76f 11bd 128e 193e 436b 5dbe
00000210: e60d 82bc 1b73 b33d 93b0 543a 3a62 a2bd
00000220: 2901 763d d401 b13d 792c c83d 956b a93d
00000230: 1ada 1f3c 88d0 fdbc c335 2fbd 572e deba
00000240: 5a89 1ebd ba5b 3a3e 83c0 7d3d 8c83 3c3d
00000250: ecdf 6d3b 4544 a9bd f1ee 12bc 13d3 20ba
00000260: 2d36 3cbe 6750 d0bc d3c4 4d3e b094 ce3d
00000270: af03 b5bc e7c2 ddbd d106 8ebd 674c 42be
00000280: 02f0 dbbd 8d68 df3d 0408 1c3e 3ea4 683d
00000290: 9687 14be 7bd3 03be eb42 99bd 6227 de3d
000002a0: 7eeb d23d 05ac 80bb 58ba a73d 3ad7 8cbd
000002b0: 47cd 2ebe 7b47 753e 993e 733e 98d6 2bbd
000002c0: b4d4 6bbe 04fd e63d 5f1f c93d 69a0 dc3d
000002d0: 398d 6bbd c918 f7bd cf0d d9bd e549 9f3d
000002e0: 4e91 463e 1024 fd3d d96e cdbc 312c 073e
000002f0: 8a51 693d ad04 36be c430 d4bd db54 42bc
00000300: 593a 863d 52fc b8bd f860 35bd ca05 4abd
00000310: 04f1 d63c 6ea4 18be 09da 02be af3e 343d
00000320: 0fe5 7dbd 14df f63d 29bb 3cbd 140f 40be
00000330: 4204 b4bc b0e0 8fbd 9ff8 e9bc 7577 efbd
00000340: 4a9f c5bc 73e1 8f3b 4daf 353e ece6 783d
00000350: 35b1 053e 44bd 81bd ba09 0a3e 1113 e5bd
00000360: 4866 cf3d 001e 393e 22ec 153c a869 51bd
00000370: 496c d8bc 1d88 36be 7f39 8c3d ec36 c5bd
00000380: 9f11 3d3e ea5f 553e a2ae 293e db11 6bbc
00000390: 1beb c7bd a043 023d 8e10 b83d 8e28 c2bd
000003a0: 6104 dabd 6873 27bd 4f99 ec3c 3109 d7bd
000003b0: df69 9fbd 283c 2fbd 82cf 37be 13a1 5c3d
000003c0: 791c cc3c b664 09bd 4ba2 76bd f041 adbd
000003d0: 17a4 30be 0595 eebd 7fa7 113e 1dfc 74bd
000003e0: 8e0f 0abe 17b7 4f3d 9912 a1bd b5cc 1e3d
000003f0: 58d6 ad3c fefd 7bbd 6d42 b13c a592 04be

a2c_network.actor_mlp.0.bias f4 [256]
0.030520687 -0.08581083 0.08787516 -0.089418486 -0.13976188 0.011300631 0.035204515 0.13351934
0.036444567 0.091278635 0.017239656 0.013928497 0.074698865 0.15328898 -0.06884365 -0.064367704
-0.059182003 0.05727425 -0.010887419 0.09909056 -0.06957394 0.07405197 -0.005503455 0.058090623
0.059455484 0.11637227 0.08099476 -0.008683142 0.08221252 0.040202186 -0.029714974 0.016491009
-0.00061683834 -0.05374766 -0.064500704 0.057731282 0.09272007 0.07990282 0.015519046 0.05884343
0.022965657 -0.006910283 0.042630997 -0.009987487 0.14515503 0.005609506 0.00052240456 0.13296837
0.08562745 -0.091380954 0.05548642 -0.09242448 0.12190318 -0.025244204 0.1107792 0.06292916
0.06604395 0.041617114 -0.07367464 0.048141144 0.12784278 0.027790692 0.061927818 -0.035470188
-0.19926505 -0.11415018 0.08935507 -0.057437424 0.104659975 0.048612583 0.012318499 0.10297698
0.07178103 0.08322465 0.0633762 0.07650973 0.104749516 -0.041903883 -0.048386622 0.01252511
-0.015943492 0.0741542 0.08628979 0.084891014 -0.030478336 -0.1478873 0.1203627 -0.078282036
-0.051788196 0.15503 0.089638524 0.018926153 -0.030017197 -0.10931936 0.079474956 0.10424715
-0.015364632 0.07305786 0.04219685 0.07314471 0.11535752 0.048729956 0.15214501 -0.010581487
0.07645989 0.14997503 -0.041555308 0.07968178 0.07753849 0.105078936 0.08406485 0.011743223
0.066655695 0.15054236 0.073410034 0.024108611 -0.021811586 -0.06705108 0.070470825 0.101356395
0.19062589 -0.0628397 0.13484994 -0.13747256 -0.013521031 0.16569343 0.05433712 -0.09466167
0.03973462 -0.18548211 -0.025640639 -0.020302368 0.063609265 -0.08184521 0.13289733 0.08212322
-0.07299838 0.06845273 -0.047702495 0.05116826 0.035275552 -0.034907755 0.069056004 -0.040915634
-0.13470416 0.11372775 0.02958352 0.04125377 0.10625888 0.014392062 0.06212318 0.028187865
-0.012343598 -0.0010631745 -0.044198718 0.024199821 -0.049729344 -0.03685492 0.04546833 -0.13955164
-0.04129687 0.05306964 -0.16882741 0.09753335 -0.010601477 0.022658803 0.09588783 0.07361888
-0.012990087 0.04336631 0.03958465 -0.07981566 0.04271223 0.03558232 -0.04147239 -0.07271128
0.060945407 0.113773055 -0.11561457 -0.06667512 -0.0844373 0.04109815 0.14703421 0.0542904
-0.053844742 -0.08357359 0.13592413 -0.034538127 -0.049376603 -0.06201396 0.0050211754 0.05523109
-0.0003190866 -0.024316724 0.09245443 0.028516486 0.065216765 -0.044265974 0.08317032 -0.06660635
0.054051604 0.03214014 0.02668288 0.017687256 0.049217284 -0.051082443 -0.068384536 0.022884546
0.017085826 0.043667793 0.04956966 0.050891407 0.03430758 -0.08781966 0.1375315 -0.03806069
0.06026257 -0.052386217 0.07608631 0.0836027 -0.10217016 -0.031662446 0.052584264 0.065813914
-0.03851234 0.08434709 -0.10509338 0.12912747 -0.08579303 0.060830224 0.016583698 0.09282962
-0.004277311 0.08863732 0.07610139 0.10481356 0.09487779 0.047425892 0.0121722035 0.10345387
-0.10573857 0.06099001 0.06949532 0.09533328 0.11377158 0.08879794 0.030950954 0.020425182
-0.05673519 0.059596617 0.075427204 -0.009750728 0.030315787 -0.040320404 -0.049589314 0.0553578
00000000: 8506 fa3c 97bd afbd e4f7 b33d 0a21 b7bd
00000010: bd1d 0fbe 4826 393c 9c32 103d 4bb9 083e
00000020: e646 153d 4bf0 ba3d 2e3a 8d3c 5a34 643c
00000030: b8fb 983d c9f7 1c3e e6fd 8cbd 37d3 83bd
00000040: d468 72bd 6798 6a3d 2561 32bc feef ca3d
00000050: c87c 8ebd 8fa8 973d 5456 b4bb 6ff0 6d3d
00000060: 9887 733d 9654 ee3d 95e0 a53d bd43 0ebc
00000070: 0a5f a83d 0cab 243d d16c f3bc 2718 873c
00000080: 52b3 21ba 8226 5cbd f218 84bd a377 6c3d
00000090: 05e4 bd3d 17a4 a33d 9943 7e3c cf05 713d
000000a0: 7922 bc3c a86f e2bb d79d 2e3d 8fa2 23bc
000000b0: 85a3 143e f2cf b73b faf1 083a dc28 083e
000000c0: 725d af3d f025 bbbd ba45 633d 0c49 bdbd
000000d0: 60a8 f93d efcc cebc 35e0 e23d 01e1 803d
000000e0: 0d42 873d b576 2a3d bbe2 96bd a62f 453d
000000f0: 38e9 023e 4ea9 e33c 06a8 7d3d 3049 11bd
00000100: 230c 4cbe 92c7 e9bd caff b63d 8143 6bbd
00000110: f857 d63d fd1d 473d 88d3 493c 98e5 d23d
00000120: ef01 933d af71 aa3d 62cb 813d 22b1 9c3d
00000130: ea86 d63d 68a3 2bbd 0d31 46bd 1e36 4d3c
00000140: ed9b 82bc 28de 973d b4b8 b03d 57db ad3d
00000150: b4ad f9bc c56f 17be b880 f63d 5552 a0bd
00000160: dc1f 54bd 2fc0 1e3e 6794 b73d 050b 9b3c
00000170: a0e6 f5bc d4e2 dfbd c4c3 a23d 887f d53d
00000180: f0bb 7bbc 5c9f 953d 9bd6 2c3d e5cc 953d
00000190: 9040 ec3d 1099 473d e7cb 1b3e f95d 2dbc
000001a0: 0197 9c3d 0e93 193e e635 2abd 3330 a33d
000001b0: 80cc 9e3d a033 d73d 312a ac3d a666 403c
000001c0: c882 883d c727 1a3e 0058 963d 6c7f c53c
000001d0: 36ae b2bc 1452 89bd 0253 903d f193 cf3d
000001e0: 6f33 433e 1ab2 80bd 1a16 0a3e 9bc5 0cbe
000001f0: 5087 5dbc 8aab 293e 9a90 5e3d fadd c1bd
00000200: c5c0 223d 06ef 3dbe 510c d2bc 2751 a6bc
00000210: 9345 823d 769e a7bd 3d16 083e 3830 a83d
00000220: 2d80 95bd f230 8c3d b163 43bd cf95 513d
00000230: 197d 103d 6ffb 0ebd 3c6d 8d3d 2797 27bd
00000240: e3ef 09be 18ea e83d 2359 f23c b7f9 283d
00000250: 419e d93d afcc 6b3c e074 7e3d 3dea e63c
00000260: cd3c 4abc 375a 8bba b709 35bd b43e c63c
00000270: ffb0 4bbd 2ff5 16bd 003d 3a3d a0e6 0ebe
00000280: e826 29bd 8d5f 593d 18e1 2cbe 91bf c73d
00000290: d1b1 2dbc f49e b93c d760 c43d 7fc5 963d
000002a0: 60d4 54bc dfa0 313d 8423 223d 6576 a3bd
000002b0: 05f3 2e3d c4be 113d f4de 29bd a7e9 94bd
000002c0: e4a1 793d d901 e93d 55c7 ecbd f78c 88bd
000002d0: 77ed acbd 8956 283d 2390 163e 9c5f 5e3d
000002e0: 4e8c 5cbd a128 abbd b22f 0b3e da77 0dbd
000002f0: 1f3f 4abd 5a02 7ebd ac88 a43b ff39 623d
00000300: 144b a7b9 de33 c7bc c058 bd3d 689b e93c
00000310: 5e90 853d 3d50 35bd 3355 aa3d e968 88bd
00000320: 3765 5d3d 61a5 033d 0e96 da3c dde4 903c
00000330: 1098 493d d33b 51bd 310d 8cbd 5f78 bb3c
00000340: 93f7 8b3c 00dd 323d 8e09 4b3d 8273 503d
00000350: 1b86 0c3d cbda b3bd 0fd5 0c3e 87e5 1bbd
00000360: e2d5 763d ee92 56bd 24d3 9b3d e437 ab3d
00000370: 973e d1bd 7bb0 01bd 9962 573d 72c9 863d
00000380: 1ebf 1dbd 2bbe ac3d 333b d7bd fe39 043e
00000390: 42b4 afbd 1d29 793d 89da 873c 751d be3d
000003a0: af28 8cbb 7c87 b53d 0cdb 9b3d 7ea8 d63d
000003b0: 494f c23d a741 423d ec6d 473c 9fdf d33d
000003c0: 778d d8bd a9d0 793d 9053 8e3d 183e c33d
000003d0: 1301 e93d b2db b53d db8c fd3c b652 a73c
000003e0: 2963 68bd 951b 743d 9479 9a3d 84c1 1fbc
000003f0: d058 f83c 0227 25bd 2a1e 4bbd dcbe 623d

a2c_network.actor_mlp.2.weight f4 [128, 256]
0.047179922 0.0014805014 -0.06600813 0.032564316 0.027826624 -0.025631322 -0.0267197 -0.02569515
-0.018431747 -0.01879817 -0.020669885 -0.039503273 -0.014834272 -0.048757248 -0.11369546 0.08236257
-0.020945046 0.010743754 0.024152184 -0.020037124 -0.053721797 -0.03537334 -0.049074348 0.0016225915
-0.10955376 0.06159425 -0.12814766 -0.032116205 -0.010795344 -0.06633113 -0.051695075 0.068093285
0.012555675 0.002841597 0.04616855 -0.08876502 -0.087745175 -0.047851287 0.041217014 0.0628189
-0.031580158 0.059573635 0.07212112 0.031104295 0.030836292 0.028223235 -0.029064331 0.03204948
-0.05054527 -0.06937308 -0.058258515 -0.0525266 0.019569324 -0.008915552 -0.010008758 -0.12301624
0.03536581 -0.12573527 0.010431037 -0.0067629633 -0.025229827 0.1125124 -0.06983538 0.04207643
0.03736386 -0.06930525 0.0075025684 0.09283718 0.08551235 -0.012144738 -0.014305667 0.06027924
0.059484866 0.012854079 -0.10807923 -0.012441768 -0.06038579 -0.0045967596 0.041374594 -0.1089243
-0.031848572 -0.101474606 -0.057011545 -0.042501952 0.11622994 0.015601472 -0.033224516 -0.10737774
-0.049152143 0.015672322 -0.05900223 -0.043987855 0.015896833 0.039178386 -0.08726057 -0.09846589
0.09358613 -0.017325392 0.01463864 0.04055626 -0.08543874 -0.068749174 0.007549672 -0.04789308
0.030275486 -0.024213694 -0.005721517 0.05336928 0.08996857 -0.014398215 -0.012106166 -0.012267902
-0.0541608 -0.11730138 0.00660398 -0.040379442 -0.014270671 -0.0009154086 0.1495789 -0.00052927976
-0.12713899 -0.04922868 -0.05191325 0.07243652 0.056936536 -0.0019773706 0.029968748 -0.025880229
0.001367471 -0.006546951 0.0023640683 0.07844527 -0.008792149 0.036780696 -0.08180387 -0.07482291
-0.01266569 0.02730741 -0.0915225 -0.05963221 -0.0044785845 0.005296715 -0.011165492 0.0022972072
0.08409963 -0.01216755 0.013695038 -0.02387236 0.07836519 0.028467787 -0.004152187 -0.02150059
0.025186988 -0.07076633 0.003719024 -0.061190385 -0.011133832 0.015385693 -0.07457619 0.04920842
0.029594457 0.07472697 0.10531902 0.009521078 0.07001602 0.04800998 0.028164182 -0.019553289
0.07586454 0.016942753 0.0567199 0.04061012 -0.038348034 -0.06813611 -0.0448303 -0.044830732
0.015581602 -0.048959855 0.027747104 -0.0907512 0.038468793 0.06065504 -0.10819331 -0.053062454
-0.0017625884 -0.046280272 -0.07735282 -0.018211057 0.020729389 -0.081456356 0.009034294 -0.05127056
-0.089215025 -0.036805153 -0.08350915 0.066809565 -0.03421233 -0.07642328 -0.16280602 0.024618374
-0.04859354 -0.054590434 -0.011300379 0.029831585 -0.018488768 -0.059643615 0.08590747 -0.009810272
-0.110303834 0.047170185 0.09261936 0.07080834 -0.0987985 -0.01534633 0.0058270274 0.014720473
-0.030796545 -0.05428749 -0.0038597716 0.068837024 -0.050028123 -0.04063135 0.015807051 0.09752121
-0.025592925 0.051716488 0.0672999 -0.0052899527 0.042629126 -0.039606743 -0.02904489 -0.06475835
-0.016420595 0.027632078 -0.025496714 -0.08869566 0.044714466 -0.06907896 -0.036074936 0.0055410094
0.01735569 -0.00022147766 -0.005085936 0.017991537 -0.12911703 -0.10650871 -0.12205329 0.07981567
-0.041484337 -0.01892479 -0.108483076 -0.12400651 0.051788483 -0.031645034 -0.011131147 -0.05840719
00000000: bc3f 413d 620d c23a 452f 87bd 2962 053d
00000010: a9f4 e33c c7f8 d1bc 46e3 dabc a37e d2bc
00000020: 2dfe 96bc 9ffe 99bc e453 a9bc 2fce 21bd
00000030: 720b 73bc aeb5 47bd 2ad9 e8bd b5ad a83d
00000040: f294 abbc 9206 303c cdda c53c e524 a4bc
00000050: 630b 5cbd a3e3 10bd 2f02 49bd 23ad d43a
00000060: b95d e0bd 414a 7c3d 2439 03be 488c 03bd
00000070: f4de 30bc 9ed8 87bd 37be 53bd 7e74 8b3d
00000080: 51b6 4d3c 163a 3a3b 3c1b 3d3d 6fca b5bd
00000090: beb3 b3bd b6ff 43bd 2cd3 283d 32a7 803d
000000a0: 325a 01bd 7c03 743d 3db4 933d 6fce fe3c
000000b0: 649c fc3c 6a34 e73c 5218 eebc 5146 033d
000000c0: 8f08 4fbd 7913 8ebd 7ba0 6ebd 2226 57bd
000000d0: d94f a03c 8912 12bc c6fb 23bc f0ef fbbd
000000e0: bddb 103d bfc0 00be f1e6 2a3c d99b ddbb
000000f0: c8ae cebc e76c e63d da05 8fbd 5658 2c3d
00000100: d90a 193d e9ef 8dbd 1bd8 f53b 6b21 be3d
00000110: 1921 af3d b9fa 46bc 5162 6abc 5de7 763d
00000120: 67a6 733d ea99 523c a558 ddbd 8fd8 4bbc
00000130: 1757 77bd 6aa0 96bb 6878 293d b413 dfbd
00000140: a673 02bd ebd1 cfbd f084 69bd 8716 2ebd
00000150: f609 ee3d 519d 7f3c 6e16 08bd dce8 dbbd
00000160: c253 49bd 3e63 803c 53ac 71bd 9c2c 34bd
00000170: 133a 823c 8479 203d abb5 b2bd 7ca8 c9bd
00000180: 16aa bf3d fbed 8dbc e8d6 6f3c 521e 263d
00000190: 82fa aebd 5ecc 8cbd 3d63 f73b 892b 44bd
000001a0: 4c04 f83c cc5b c6bc 907b bbbb bf99 5a3d
000001b0: 7141 b83d 7ee6 6bbc f158 46bc 4fff 48bc
000001c0: b7d7 5dbd b53b f0bd 3366 d83b ea64 25bd
000001d0: 88cf 69bc 08f8 6fba 362b 193e 5dbf 0aba
000001e0: b930 02be 03a4 49bd fda2 54bd 9959 943d
000001f0: 4936 693d c696 01bb 0581 f53c c602 d4bc
00000200: b63c b33a ce87 d6bb 7cee 1a3b eaa7 a03d
00000210: f20c 10bc 5ba7 163d ca88 a7bd c13c 99bd
00000220: c183 4fbc cab3 df3c 2670 bbbd e740 74bd
00000230: 17c1 92bb 1190 ad3b 78ef 36bc be8c 163b
00000240: 6d3c ac3d 675a 47bc 2761 603c f88f c3bc
00000250: ee7d a03d 4735 e93c 120f 88bb 0122 b0bc
00000260: f154 ce3c f0ed 90bd deba 733b c5a2 7abd
00000270: ad6a 36bc 4614 7c3c 67bb 98bd c58e 493d
00000280: 1370 f23c 740a 993d 80b1 d73d 4cfe 1b3c
00000290: 8f64 8f3d 1da6 443d 92b8 e63c 382e a0bc
000002a0: de5e 9b3d 87cb 8a3c 2053 683d cc56 263d
000002b0: d412 1dbd f28a 8bbd fa9f 37bd 6ea0 37bd
000002c0: fa49 7f3c 218a 48bd e54d e33c c4db b9bd
000002d0: 7491 1d3d 6b71 783d 7494 ddbd 0458 59bd
000002e0: a706 e7ba 6290 3dbd 286b 9ebd 5b2f 95bc
000002f0: aed0 a93c 97d2 a6bd 9304 143c 1401 52bd
00000300: 5eb6 b6bd 00c1 16bd d806 abbd 74d3 883d
00000310: 3a22 0cbd cf83 9cbd 9fb6 26be 79ac c93c
00000320: 050a 47bd 389a 5fbd 3a25 39bc 5e61 f43c
00000330: c275 97bc dd4c 74bd 41f0 af3d 43bb 20bc
00000340: fae6 e1bd 8635 413d 38af bd3d f703 913d
00000350: de56 cabd 2c6f 7bbc a6f0 be3b 242e 713c
00000360: 0949 fcbc 8f5c 5ebd 39f4 7cbb 6dfa 8c3d
00000370: 4aea 4cbd 0f6d 26bd ca7d 813c 33b9 c73d
00000380: 41a8 d1bc abd4 533d 88d4 893d 5757 adbb
00000390: e19b 2e3d ae3a 22bd 8def edbc 07a0 84bd
000003a0: 7c84 86bc ab5c e23c 7cde d0bc 12a6 b5bd
000003b0: 8426 373d 4579 8dbd 50c3 13bd 5b91 b53b
000003c0: 852d 8e3c 753c 68b9 eca7 a6bb fd62 933c
000003d0: 4137 04be 3d21 dabd 13f7 f9bd 6676 a33d
000003e0: 7beb 29bd 2908 9bbc 602c debd 20f7 fdbd
000003f0: 2920 543d 399e 01bd 6a5f 36bc 613c 6fbd

a2c_network.actor_mlp.2.bias f4 [128]
-0.09039493 -0.08227008 -0.06898259 -0.11090784 -0.024407804 0.05889939 -0.058075763 0.03544559
-0.13607164 -0.03876235 -0.045137864 0.044476435 -0.039906316 -0.083877325 0.022294413 0.0014557311
-0.02210016 -0.110657126 -0.05753821 -0.10995155 0.024118487 -0.051712498 0.12963219 -0.05444409
-0.16183552 -0.082852505 0.029937062 -0.07279702 -0.026483694 -0.0138938585 -0.10663598 -0.12705265
-0.2362768 0.07080474 -0.099936955 -0.10656563 -0.053551376 -0.063252814 0.08137169 -0.024066823
-0.008412091 -0.07695673 -0.17846888 -0.07018134 -0.025643911 -0.07408411 -0.07710418 -0.07753897
0.043839365 -0.052301805 -0.077550665 -0.123839535 0.040129464 -0.020207306 0.018469652 -0.04105749
-0.07106517 -0.038297974 -0.09282157 -0.12113312 -0.12437096 -0.20877287 -0.09607832 -0.10625356
-0.1342168 0.0055372254 -0.10192597 0.059074905 -0.09777717 -0.11581002 -0.011015633 -0.05156035
-0.077594094 0.027858194 -0.12160172 0.17963487 -0.03663899 -0.12579761 -0.023244409 0.039967705
-0.17477886 -0.17259292 0.010075753 -0.07957145 -0.036066454 0.029318929 -0.11846498 0.006256517
-0.14463896 -0.09249141 -0.06980754 -0.11278696 -0.1634178 0.06918565 -0.016251855 -0.09990663
-0.04531722 -0.04641163 -0.13884808 0.026674837 -0.015030748 -0.11587139 -0.07166942 -0.0073226895
-0.083499864 0.08569622 -0.017175151 -0.048507944 -0.08079056 -0.0001381729 -0.045368347 -0.070032224
-0.060397744 0.0465951 -0.0045995964 0.028672926 -0.014217064 -0.13281502 0.018927379 -0.181695
-0.08458671 -0.010234892 -0.101328604 0.066271774 -0.120485745 0.025866453 -0.02945423 -0.1750276
00000000: fa20 b9bd 377d a8bd bf46 8dbd a623 e3bd
00000010: e0f2 c7bc 7d40 713d dae0 6dbd 652f 113d
00000020: 5d56 0bbe 45c5 1ebd 7be2 38bd ec2c 363d
00000030: ce74 23bd e0c7 abbd c6a2 b63c 3bce be3a
00000040: 650b b5bc 34a0 e2bd 30ad 6bbd 472e e1bd
00000050: 2294 c53c 7cd0 53bd 4dbe 043e c400 5fbd
00000060: 36b8 25be 93ae a9bd 923e f53c 9b16 95bd
00000070: 55f4 d8bc 11a3 63bc f763 dabd 171a 02be
00000080: 8cf2 71be 1302 913d bfab ccbd 153f dabd
00000090: b058 5bbd b18a 81bd 33a6 a63d c927 c5bc
000000a0: ded2 09bc 7d9b 9dbd 8cc0 36be 3cbb 8fbd
000000b0: 2e13 d2bc 69b9 97bd cce8 9dbd c0cc 9ebd
000000c0: e890 333d 6b3a 56bd e2d2 9ebd 959f fdbd
000000d0: cb5e 243d cb89 a5bc ab4d 973c e62b 28bd
000000e0: 9e8a 91bd 56de 1cbd 3c19 bebd a414 f8bd
000000f0: 34b6 febd 8ec8 55be b6c4 c4bd 779b d9bd
00000100: 2170 09be 9d71 b53b 90be d0bd 87f8 713d
00000110: 663f c8bd ce2d edbd ea7a 34bc f230 53bd
00000120: a7e9 9ebd de36 e43c 530a f9bd 34f2 373e
00000130: c412 16bd 17d1 00be 0f6b bebc 2db5 233d
00000140: 3bf9 32be 33bc 30be c514 253c 5bf6 a2bd
00000150: 6bba 13bd 402e f03c c49d f2bd 7803 cd3b
00000160: 3c1c 14be 236c bdbd 41f7 8ebd dafc e6bd
00000170: ff56 27be 35b1 8d3d 9c22 85bc d99b ccbd
00000180: 8d9e 39bd 1f1a 3ebd 312e 0ebe 3085 da3c
00000190: 8743 76bc fb4d edbd 6bc7 92bd 2cf3 efbb
000001a0: fa01 abbd 8081 af3d e7b2 8cbc 44b0 46bd
000001b0: 8575 a5bd 81e2 10b9 29d4 39bd 0e6d 8fbd
000001c0: a063 77bd 81da 3e3d 36b8 96bb 7ce3 ea3c
000001d0: b0ee 68bc a900 08be 970d 9b3c 410e 3abe
000001e0: cc3b adbd 40b0 27bc 5f85 cfbd 7fb9 873d
000001f0: 3bc1 f6bd e2e5 d33c ff49 f1bc 6f3a 33be

a2c_network.actor_mlp.4.weight f4 [64, 128]
-0.06345284 -0.004472602 -0.045486376 -0.025691176 -0.10318165 0.040636927 0.024112789 -0.100893214
0.08029222 -0.06115861 -0.077157706 -0.043465007 0.008008894 -0.07868759 0.0027639654 0.061339814
0.001278977 0.029893223 -0.071180336 -0.028589541 0.0022745917 0.059828375 -0.0035670286 0.0102625685
-0.07647205 -0.06706944 0.056821365 0.07558903 0.015436358 -0.07465782 -0.024803193 -0.02667551
-0.046776805 -0.10029283 0.13494816 -0.04257836 -0.09604413 0.030152744 0.02253314 -0.037987158
-0.098270744 -0.025577066 0.0275202 -0.10498472 0.07288988 0.00021833854 0.042348556 -0.038125962
-0.052315578 -0.1374648 0.035833742 -0.09964028 0.031016478 -0.031655747 -0.067691416 0.014617528
0.02004522 0.11173935 0.09167991 -0.0052521653 -0.087887436 0.0039395764 -0.04364708 -0.041314196
0.07847612 0.0063255783 0.024635464 -0.038649045 0.024551528 -0.028500285 -0.06422214 -0.04323025
-0.053830463 0.08721896 -0.06664045 0.0037283862 0.010998111 0.10803866 -0.091237366 -0.032391015
0.057482 -0.053064946 -0.07961399 -0.006862256 -0.101655126 -0.052010037 -0.0010692793 -0.10616194
-0.008266442 0.04619345 -0.0051702224 0.11434016 0.07915035 -0.00072499446 0.003088561 0.016961155
0.09557936 0.07775689 0.009533444 0.00011630132 -0.043992423 0.043634485 0.042468842 0.02129911
0.028909475 0.13225201 -0.08131271 0.06327961 0.10041125 0.008719685 0.102232695 0.036692344
-0.051187392 0.09825169 -0.089623794 0.010040899 -0.045871314 0.01233633 -0.08077431 -0.06930298
-0.079264484 -0.05476762 -0.035797857 -0.16378024 0.10293862 -0.14918575 -0.0037537147 -0.060746606
-0.084524415 0.048546117 0.009257733 0.14908507 -0.035363592 0.01751989 0.03144699 -0.07340615
0.019237122 -0.0482037 -0.09571679 -0.08348119 -0.038069583 -0.03970968 -0.0867114 0.10327917
0.090859585 0.14240207 0.046873596 0.010826066 0.023819152 -0.10108047 -0.070247285 0.07879499
0.16458584 -0.17385732 -0.09162645 -0.08816294 -0.077566266 -0.0064638015 0.066847935 0.11847538
0.04394091 -0.046423495 -0.15922819 -0.07156474 0.05016178 0.13198899 0.085976616 -0.02630845
-0.07186529 0.08984247 -0.036069408 0.05663901 0.06646947 -0.073599905 -0.018796446 -0.120463535
0.011448636 -0.006751559 -0.020828377 0.053179756 -0.011882538 0.018395564 -0.14695023 0.0032619822
0.090876766 -0.0355781 0.008984849 0.15406919 -0.0714111 0.11050511 0.020805363 0.13108888
0.015960373 -0.01746208 0.015150434 0.08554484 -0.047978662 0.065885745 -0.07215996 -0.07944915
-0.06764758 -0.047247373 -0.00045031114 -0.17362693 -0.011274421 0.09718533 0.08142054 0.04385429
0.14226033 0.021771522 0.029154552 0.024431828 0.18009238 0.08472311 0.11594909 0.016834157
0.096316494 -0.023151213 0.1038549 0.014555446 -0.0071672923 -0.005525597 -0.042732414 0.012192248
0.13631792 -0.13904187 -0.09362818 -0.1344362 0.047413692 -0.049504127 -0.050703116 0.1283661
-0.09082897 0.018470913 -0.05036128 0.13308655 -0.04677656 -0.07931303 0.1039096 0.09901689
0.064354815 0.07021604 -0.104768835 -0.15886265 0.027899979 -0.02639813 -0.020204801 -0.001840935
0.077596515 0.1065227 0.093570344 0.0076983515 -0.0056202793 -0.04451093 -0.093352795 -0.009435748
00000000: 90f3 81bd e88e 92bb ec4f 3abd 4d76 d2bc
00000010: e750 d3bd e872 263d 2f88 c53c 1aa1 cebd
00000020: 3f70 a43d 7381 7abd dc04 9ebd 5d08 32bd
00000030: bc37 033c f626 a1bd a523 353b 753f 7b3d
00000040: 59a3 a73a a2e2 f43c ffc6 91bd 9d34 eabc
00000050: 5111 153b 990e 753d cfc4 69bb 5524 283c
00000060: 619d 9cbd b45b 89bd 85bd 683d 6cce 9a3d
00000070: c7e8 7c3c 33e6 98bd 1130 cbbc 9986 dabc
00000080: 0999 3fbd 5466 cdbd da2f 0a3e a566 2ebd
00000090: c9b2 c4bd e302 f73c 6b97 b83c 6c98 1bbd
000000a0: 2c42 c9bd ff86 d1bc 0b72 e13c 3b02 d7bd
000000b0: 4a47 953d cef1 6439 ae75 2d3d f829 1cbd
000000c0: dc48 56bd 93c3 0cbe 67c6 123d 3410 ccbd
000000d0: 4516 fe3c 75a9 01bd cca1 8abd 5b7e 6f3c
000000e0: e035 a43c 9ad7 e43d adc2 bb3d 5b1a acbb
000000f0: 54fe b3bd 9017 813b 48c7 32bd 1339 29bd
00000100: 17b8 a03d cc46 cf3b 50d0 c93c 764e 1ebd
00000110: 4920 c93c 6e79 e9bc e686 83bd 3412 31bd
00000120: 557d 5cbd db9f b23d ca7a 88bd f157 743b
00000130: 6c31 343c 5f43 dd3d a8da babd 71ac 04bd
00000140: 3f72 6b3d a15a 59bd a90c a3bd c7dc e0bb
00000150: 9030 d0bd 7a08 55bd 0f27 8cba 6e6b d9bd
00000160: f96f 07bc 5835 3d3d f86a a9bb 2c2b ea3d
00000170: 9419 a23d 8e0d 3eba 7469 4a3b 1ff2 8a3c
00000180: 1dbf c33d 013f 9f3d 2a32 1c3c cce6 f338
00000190: 6631 34bd 13ba 323d cff3 2d3d 797b ae3c
000001a0: 90d3 ec3c 126d 073e 4787 a6bd bd98 813d
000001b0: 6aa4 cd3d 02dd 0e3c 605f d13d b64a 163d
000001c0: dfa9 51bd 2f38 c93d ae8c b7bd 9582 243c
000001d0: 8fe3 3bbd 511e 4a3c 006d a5bd b9ee 8dbd
000001e0: 6b55 a2bd 0354 60bd c6a0 12bd 02b6 27be
000001f0: 7cd1 d23d 26c4 18be e200 76bb 6fd1 78bd
00000200: 231b adbd 4bd8 463d bfad 173c c2a9 183e
00000210: 6ad9 10bd df85 8f3c 8fce 003d f755 96bd
00000220: 2b97 9d3c 3e71 45bd 2a07 c4bd 30f8 aabd
00000230: daee 1bbd 9ea6 22bd bf95 b1bd 0884 d33d
00000240: 9714 ba3d d9d1 113e 87fe 3f3d d05f 313c
00000250: 6220 c33c 4703 cfbd cfdd 8fbd 455f a13d
00000260: 3189 283e a707 32be a6a6 bbbd c68e b4bd
00000270: 10db 9ebd 4cce d3bb 92e7 883d 38a3 f23d
00000280: 62fb 333d 9026 3ebd b70c 23be 8990 92bd
00000290: 7076 4d3d 1f28 073e 8214 b03d d284 d7bc
000002a0: 1c2e 93bd 54ff b73d 84bd 13bd 4efe 673d
000002b0: 2521 883d 8cbb 96bd 01fb 99bc 96b5 f6bd
000002c0: 0f93 3b3c 2f3c ddbb 46a0 aabc 04d3 593d
000002d0: faae 42bc 4bb2 963c 1f7a 16be fbc6 553b
000002e0: 991d ba3d 57ba 11bd 3035 133c 50c4 1d3e
000002f0: fc3f 92bd 8150 e23d 0270 aa3c 2a3c 063e
00000300: 54bf 823c a30c 8fbc 8739 783c 2232 af3d
00000310: 4685 44bd 1bef 863d 9ac8 93bd 3cb6 a2bd
00000320: d08a 8abd 7686 41bd bd17 ecb9 42cb 31be
00000330: 59b8 38bc 1a09 c73d d0bf a63d 8ea0 333d
00000340: b1ac 113e 315a b23c 87d5 ee3c 4225 c83c
00000350: 236a 383e 4f83 ad3d b776 ed3d c9e7 893c
00000360: 9541 c53d 9da7 bdbc e1b1 d43d f779 6e3c
00000370: 9bdb eabb 1110 b5bb 2f08 2fbd ffc1 473c
00000380: ed96 0b3e fe60 0ebe 22c0 bfbd a5a9 09be
00000390: dc34 423d d7c4 4abd 12ae 4fbd 6772 033e
000003a0: 8a04 babd 5050 973c a147 4ebd d747 083e
000003b0: c798 3fbd df6e a2bd 8ece d43d 5ec9 ca3d
000003c0: 75cc 833d 6dcd 8f3d 0b91 d6bd e4ac 22be
000003d0: 7f8e e43c e440 d8bc 8a84 a5bc 874b f1ba
000003e0: ecea 9e3d 9328 da3d cfa1 bf3d 7442 fc3b
000003f0: 522a b8bb 1851 36bd c02f bfbd 6598 1abc

a2c_network.actor_mlp.4.bias f4 [64]
-0.0403788 -0.047627453 -0.055835582 -0.02536262 -0.032470714 -0.058651496 -0.0068134265 -0.055318862
-0.108350456 -0.08421384 -0.096799776 -0.05069958 -0.073385864 -0.03565812 -0.0032026 -0.11940584
-0.10973602 -0.2022221 -0.06861445 -0.011052132 -0.1737024 -0.13470873 -0.051282357 -0.08572885
-0.10993789 -0.04636825 0.0031595356 -0.01589969 -0.08474427 -0.08656047 -0.12321309 -0.07670056
0.019284694 -0.06664493 -0.033063818 -0.028599309 -0.11596355 -0.020088565 -0.004722251 0.008786582
-0.13366409 -0.09883321 -0.06899502 -0.09057952 -0.12037138 -0.08851927 -0.051686436 0.023615666
-0.048594497 0.003395005 -0.01862918 -0.046276703 -0.095027015 -0.10235186 -0.028137408 0.027372671
-0.12308414 -0.07770579 -0.06537388 -0.04187972 -0.085100405 -0.09657532 -0.04520786 -0.079984255
00000000: 3e64 25bd 0115 43bd dab3 64bd 45c5 cfbc
00000010: 0300 05bd 8d3c 70bd 2a43 dfbb 0896 62bd
00000020: d8e6 ddbd 4e78 acbd f63e c6bd 5daa 4fbd
00000030: 544b 96bd 400e 12bd b6e2 51bb 0d8b f4bd
00000040: 47bd e0bd 4f13 4fbe bc85 8cbd 0014 35bc
00000050: 0bdf 31be 16f1 09be 730d 52bd 9b92 afbd
00000060: 1e27 e1bd a2ec 3dbd 3610 4f3b 1140 82bc
00000070: 678e adbd 9e46 b1bd 2557 fcbd 2f15 9dbd
00000080: effa 9d3c 237d 88bd ed6d 07bd 1949 eabc
00000090: 4c7e edbd c690 a4bc 1dbd 9abb 99f5 0f3c
000000a0: 3ddf 08be 1169 cabd 434d 8dbd c181 b9bd
000000b0: 4585 f6bd 9749 b5bd 28b5 53bd a475 c13c
000000c0: 060b 47bd bb7e 5e3b 399c 98bc a48c 3dbd
000000d0: 869d c2bd da9d d1bd 6c80 e6bc a73c e03c
000000e0: 8a13 fcbd 3724 9fbd bee2 85bd 128a 2bbd
000000f0: 1f49 aebd 48c9 c5bd e12b 39bd c9ce a3bd

a2c_network.value.weight f4 [1, 64]
0.007264353 -0.0027643691 0.0054389136 0.0010235696 -0.00043011524 -0.003270038 0.16902326 -0.0053807404
0.00503012 -0.07583216 -0.018954683 0.010869025 0.0050895996 0.024491359 0.0072704675 -0.011969035
-0.04679127 -0.102368504 -0.01177365 0.20406736 -0.029214732 -0.08472304 -0.00967041 0.0016220829
0.02491364 0.11477226 0.001846118 0.019200908 -0.019125156 -0.07941207 -0.039768558 0.011243784
0.005567797 -0.017139992 0.0066415467 -0.0034127303 0.0035571586 -0.006091304 0.017250108 0.087712176
-0.014309099 0.0056244545 -0.01197869 -0.04852821 -0.04454797 -0.03313521 0.111848354 0.11239948
0.09888159 0.21930681 -0.0010898779 0.01472817 0.010116052 -0.09237779 -0.009237369 0.06165555
-0.022187293 0.17175114 -0.009032035 -0.0039135227 -0.05782083 -0.025358949 -0.004818426 -0.0012575202
00000000: cf09 ee3b 6b2a 35bb ea38 b23b 4c29 863a
00000010: 1781 e1b9 224e 56bb 6f14 2d3e ec50 b0bb
00000020: b4d3 a43b e44d 9bbd da46 9bbc ff13 323c
00000030: a8c6 a63b 1aa2 c83c 1a3d ee3b c519 44bc
00000040: 34a8 3fbd 94a6 d1bd 44e6 40bc 09f7 503e
00000050: bc53 efbc 4683 adbd a470 1ebc 129c d43a
00000060: b117 cc3c b80d eb3d 71f9 f13a 394b 9d3c
00000070: 5cac 9cbc cca2 a2bd 5be4 22bd d937 383c
00000080: 1172 b63b 2b69 8cbc 55a1 d93b 1da8 5fbb
00000090: 381f 693b 9099 c7bb 1950 8d3c 71a2 b33d
000000a0: b670 6abc 584d b83b 4442 44bc 84c5 46bd
000000b0: ef77 36bd c9b8 07bd c010 e53d b331 e63d
000000c0: 6e82 ca3d f791 603e 3cda 8eba 6c4e 713c
000000d0: ccbd 253c 9130 bdbd 5558 17bc 888a 7c3d
000000e0: 20c2 b5bc 88df 2f3e 1afb 13bc 023d 80bb
000000f0: 89d5 6cbd 92bd cfbc e3e3 9dbb 60d3 a4ba

a2c_network.mu.weight f4 [12, 64]
0.05648173 0.12960146 -0.0060186964 0.042737734 0.07115272 0.06298832 -0.060243055 0.13667703
0.01659191 0.11810049 0.062024016 0.004779393 0.020000638 0.018092154 0.062671766 -0.029941816
-0.10838631 -0.006725631 0.092652425 -0.028874919 -0.013082148 -0.05156022 -0.09294326 0.032411903
-0.05972745 -0.04900742 0.05124439 0.015584512 0.09439555 -0.006419797 -0.052858535 0.09766408
-0.053702835 0.046359815 0.09645785 0.07377157 -0.012292603 0.11875602 0.026686702 -0.12971559
0.046590988 0.011458171 0.016011793 -0.010168852 -0.044163194 0.07807251 -0.061238654 0.09037273
-0.062415197 0.054652233 0.1578263 0.08512684 0.01003542 0.17597045 0.02180258 0.11177202
-0.091216914 -0.089681156 -0.031837262 -0.015748277 -0.04816156 0.03692188 0.13724467 0.008902892
-0.013312585 -0.092155166 0.007001493 0.0032838176 0.0049968506 -0.027189387 0.09464824 -0.008090785
-0.0015575736 0.13234279 0.05587239 0.011821786 0.010456987 -0.08711938 -0.009613802 -0.027973764
-0.09126885 0.07553441 -0.018741589 -0.009022143 0.08291469 0.06874255 -0.0051475014 -0.020852592
0.054172993 -0.051326305 -0.077780135 -0.07208022 0.081817225 -0.00083385175 -0.023980515 0.07837641
0.017491901 0.05906204 0.075451136 0.053254373 0.14881594 -0.034355875 -0.062455468 -0.019868009
0.06351916 -0.051868577 0.08533948 0.055263516 0.028630482 0.0708224 -0.0090328185 -0.02577658
-0.07310391 0.05482279 -0.06555912 0.014445979 2.7102318e-05 0.13970014 -0.044123456 0.013491797
0.021806056 0.06826754 -0.0039090826 -0.04530253 0.022180367 -0.041750625 -0.050376497 0.15443073
0.0093293665 -0.06904562 0.017949123 0.003020505 0.038308788 -0.018563192 -0.093282536 -0.04047352
0.07115639 -0.06707682 0.084727 -0.037307903 0.021584453 0.049308054 0.040343396 0.11597921
0.10639826 0.053374626 0.06320668 -0.018906258 -0.015106314 0.027603954 -0.047080547 0.007683028
0.028443402 -0.018715676 -0.028791897 -0.028002618 0.013480294 -0.017631127 -0.038136717 0.025744826
-0.029292027 0.032810844 -0.009176366 0.030278161 0.1604309 -0.048894286 -0.113615 0.1605591
0.07726214 0.065209106 0.13189204 0.0010654392 0.070760384 0.056865208 -0.045620583 -0.0047271624
0.037572417 -0.032843255 0.033615626 0.10967996 0.101854555 -0.03376748 -0.015991313 0.053579513
0.063099355 0.06293589 -0.012235041 -0.036094803 -0.016388422 0.031435758 0.075534694 -0.0044657467
0.08672177 0.09372405 0.06445953 -0.043269593 0.013595928 -0.0037968159 -0.08170088 0.005772255
0.06316184 0.18075912 0.10537382 0.03332889 0.019424904 0.11099863 -0.010953007 0.030341536
0.017282808 0.15223286 0.1151495 -0.14121129 -0.025549568 0.097190544 -0.04495726 0.02663856
-0.027510207 -0.08042025 0.099626124 -0.11905267 -0.005913292 0.007041256 0.13203414 0.10941735
0.03007574 -0.006714317 0.1611545 -0.061782103 0.0064467653 0.050035246 -0.108560115 0.023646142
0.04898273 0.0890162 0.1621779 -0.023029735 0.19840227 0.010901758 -0.046657298 0.019375833
-0.059376776 -0.045316372 -0.04342234 0.012429127 0.045673966 0.046145435 0.03954283 0.028032843
0.039070204 0.0012930388 0.0125658335 -0.0045779403 0.016605787 0.0071897716 0.07463889 0.10358324
00000000: 6359 673d 3fb6 043e 7c38 c5bb c30d 2f3d
00000010: 84b8 913d 0500 813d 6cc1 76bd 10f5 0b3e
00000020: c2eb 873c abde f13d e50c 7e3d 749c 9c3b
00000030: 61d8 a33c ff35 943c 0e5a 803d 8a48 f5bc
00000040: a4f9 ddbd af62 dcbb 8ec0 bd3d 188b ecbc
00000050: 8156 56bc cf30 53bd 0959 bebd 58c2 043d
00000060: c5a4 74bd 01bc 48bd a3e5 513d 2e56 7f3c
00000070: 7452 c13d 295d d2bb 3182 58bd 1b04 c83d
00000080: 81f7 5bbd cae3 3d3d b18b c53d 8d15 973d
00000090: ea66 49bc 5b36 f33d 129e da3c 2ad4 04be
000000a0: 31d6 3e3d 0dbb 3b3c 2a2b 833c 429b 26bc
000000b0: 77e4 34bd 7be4 9f3d 62d5 7abd 5615 b93d
000000c0: 14a7 7fbd 05db 5f3d 389d 213e fb56 ae3d
000000d0: 9a6b 243c 9931 343e 539b b23c bbe8 e43d
000000e0: efcf babd c1aa b7bd ca67 02bd 8802 81bc
000000f0: 0e45 45bd 663b 173d de89 0c3e 6fdd 113c
00000100: 071d 5abc d9bb bcbd c86c e53b 5135 573b
00000110: 9fbc a33b 47bc debc f0d6 c13d 368f 04bc
00000120: 7f27 ccba de84 073e 72da 643d 2ab0 413c
00000130: c853 2b3c a56b b2bd 3583 1dbc 3c29 e5bc
00000140: 2aeb babd c9b1 9a3d f687 99bc 9cd1 13bc
00000150: 2dcf a93d e5c8 8c3d 5fac a8bb 0ed3 aabc
00000160: 80e4 5d3d 883b 52bd 314b 9fbd cb9e 93bd
00000170: ca8f a73d d896 5aba c972 c4bc d083 a03d
00000180: 2d4b 8f3c 0aeb 713d 2086 9a3d 4221 5a3d
00000190: 3563 183e bfb8 0cbd 4ed1 7fbd 3cc2 a2bc
000001a0: 5516 823d 2574 54bd 77c6 ae3d ff5b 623d
000001b0: 798a ea3c 560b 913d 63fe 13bc 6829 d3bc
000001c0: 81b7 95bd dd8d 603d dc43 86bd d4ae 6c3c
000001d0: c959 e337 8e0d 0f3e ccba 34bd b30c 5d3c
000001e0: 9da2 b23c dacf 8b3d c317 80bb 258f 39bd
000001f0: 9ab3 b53c b402 2bbd 9657 4ebd 1723 1e3e
00000200: 33da 183c ca67 8dbd 0a0a 933c aaf3 453b
00000210: ade9 1c3d d611 98bc ea0a bfbd 90c7 25bd
00000220: 71ba 913d 925f 89bd 5985 ad3d 2cd0 18bd
00000230: e1d1 b03c 3ef7 493d 1e3f 253d 8286 ed3d
00000240: 55e7 d93d 5a9f 5a3d 8172 813d 4ce1 9abc
00000250: 7980 77bc b021 e23c 88d7 40bd e9c1 fb3b
00000260: 2302 e93c 9e51 99bc fcdc ebbc bf65 e5bc
00000270: 73dc 5c3c 276f 90bc 3f35 1cbd d0e6 d23c
00000280: d5f5 efbc aa64 063d 7858 16bc e809 f83c
00000290: ff47 243e 6045 48bd fbae e8bd 9b69 243e
000002a0: 9d3b 9e3d 5a8c 853d b50e 073e 35a6 8b3a
000002b0: d2ea 903d 7eeb 683d a6dc 3abd 50e6 9abb
000002c0: 89e5 193d a686 06bd 8ab0 093d e39f e03d
000002d0: 1f99 d03d c54f 0abd 3700 83bc 3176 5b3d
000002e0: 3c3a 813d 88e4 803d 7b75 48bc 25d8 13bd
000002f0: 0341 86bc c8c2 003d efb1 9a3d 6655 92bb
00000300: 2f9b b13d 65f2 bf3d 5c03 843d 753b 31bd
00000310: 75c1 5e3c 00d4 78bb ca52 a7bd 2f25 bd3b
00000320: ff5a 813d eb18 393e 3bce d73d e083 083d
00000330: fa20 9f3c 4053 e33d 3e74 33bc d08e f83c
00000340: ad94 8d3c eee2 1b3e 80d3 eb3d b199 10be
00000350: 544d d1bc d60b c73d 1b25 38bd 1c39 da3c
00000360: 165d e1bc 5fb3 a4bd c808 cc3d e3d1 f3bd
00000370: 4ac4 c1bb 56ba e63b f533 073e 3416 e03d
00000380: 6661 f63c c603 dcbb af05 253e 3b0f 7dbd
00000390: 633f d33b c2f1 4c3d c454 debd 8eb5 c13c
000003a0: 1da2 483d 204e b63d f711 263e dba8 bcbc
000003b0: f729 4b3e 4a9d 323c b91b 3fbd 11ba 9e3c
000003c0: 1035 73bd a99d 39bd a0db 31bd 89a3 4b3c
000003d0: a014 3b3d ff02 3d3d aaf7 213d 22a5 e53c
000003e0: 1408 203d 2f7b a93a ede0 4d3c 8c02 96bb
000003f0: dc08 883c 2d98 eb3b 46dc 983d 7323 d43d

a2c_network.mu.bias f4 [12]
0.0839619 -0.078132845 -0.03184891 -0.027389452 -0.06581262 -0.05420028 -0.04106185 -0.061504424
0.07201126 -0.029333552 0.11309 -0.021980751
00000000: 37f4 ab3d 1d04 a0bd 0174 02bd d85f e0bc
00000010: c4c8 86bd 1d01 5ebd 7830 28bd 10ec 7bbd
00000020: a47a 933d eb4c f0bc bb9b e73d fa10 b4bc

exp_avg f4 [12]
-0.0028165134 0.0023419901 -0.0052583534 -0.0005766294 -0.00519946 -0.004648246 0.0015364431 -0.0010686986
-0.002761979 -0.00987547 0.0015088135 0.003977565
00000000: 4195 38bb 137c 193b 444e acbb f228 17ba
00000010: 3b60 aabb 5050 98bb 7a62 c93a 9313 8cba
00000020: 5102 35bb b9cc 21bc 61c3 c53a 3c56 823b

exp_avg_sq f4 [12]
0.00035754708 0.00041849763 0.00039592086 0.00040331227 0.00039412687 0.00037111752 0.0003552957 0.00038911714
0.0003813564 0.0005709107 0.00043608114 0.00032609256
00000000: 2875 bb39 cd69 db39 9993 cf39 a873 d339
00000010: d0a2 ce39 8d92 c239 fb46 ba39 6b02 cc39
00000020: caf0 c739 2ba9 153a d2a1 e439 67f7 aa39
