OmniIsaacGymEnvs/omniisaacgymenvs/runs/Naranjelio/nn/last_Naranjelio_ep_2150_rew_7.6647983.pth (torch, 672807 bytes, 36 tensors)

value_mean_std.running_mean f8 [1]
00000000: 8048 744d b2ec d93f
0.40507180751695415

value_mean_std.running_var f8 [1]
00000000: da41 c508 584e c43f
0.15864086559532958

value_mean_std.count f8 []
00000000: 0000 0002 0032 a941
211353601.0

running_mean_std.running_mean f8 [48]
00000000: 5532 cda4 80cc 6ebf b76e 7147 0231 3fbf
00000010: 1168 1f0d adce 4c3f 013e a543 ab48 383f
00000020: c05a bcd4 d653 6bbf 13ed fb89 e987 703f
00000030: 1f0a 8d34 1d8f d43f 4fa2 1ade 8063 b3bf
00000040: f9b7 3e58 f288 ecbf 9729 8a3c bd17 843f
00000050: 0cf2 61a2 0e7c 893f 3475 9bb9 3bc8 913f
00000060: 52d0 0c7b 490a da3f 2550 4910 7739 a1bf
00000070: 1507 dc5a d548 ddbe 3e18 f1fb 62d8 c53f
00000080: e213 e351 2de9 cc3f 2a0d 97c3 0d40 b53f
00000090: 4738 5e5b 0695 cebf 7417 1694 41b5 c2bf
000000a0: ebcb c2df f630 e3bf 63a0 316b f8ac ddbf
000000b0: e65e 6dc0 0784 c93f d0b7 f653 d756 dd3f
000000c0: de7f 0672 df91 62bf 80a3 7d3f 1f13 5a3f
000000d0: 7889 5586 5777 54bf b863 ac29 c541 5abf
000000e0: 2e85 8995 c8a5 88bf a9a1 49a0 7429 5b3f
000000f0: 671e 13ad 9278 703f 1cbb f37d 6857 65bf
00000100: c2da bfd1 aa16 7b3f 1df1 6e6f 922f 64bf
00000110: 47e0 27af d389 5dbf ac82 7966 8093 663f
00000120: ae0a cdfe 3a76 e13f 10e7 b581 1af2 d73f
00000130: c3d8 9fe0 b79b d8bf d419 113a 492a 9b3f
00000140: 9d5a 5643 f2bd c2bf beb2 ff9c a680 bf3f
00000150: 4885 c129 9439 ed3f 05ed 71b7 e6ea a8bf
00000160: b06d 09e6 e43c e93f b432 ff4a 89e9 e6bf
00000170: d66d e6a5 1d5f e9bf 9d05 7ac2 6fc2 e83f
-0.003759623772941626 -0.0004759436191698984 0.0008791298844201841 0.0003705423474870962 -0.0033358760755491657 0.004035866033287111 0.32123499042441667 -0.07573705122434514
-0.8917171214613965 0.009810903940224587 0.012443651514552755 0.017365391925399723 0.40687787071806725 -0.03364154886062946 -6.981970199994451e-06 0.1706660967049078
0.22586599825277093 0.08300863289973806 -0.23892287694292433 -0.14615649920250073 -0.5997270937281177 -0.46368227451467287 0.19934174438343816 0.45842536162933545
-0.002266823212451626 0.0015914731174808405 -0.0012491564496817913 -0.0016025948922957344 -0.012034956992638426 0.001657832997034795 0.004021237328920436 -0.0026051560267811424
0.006613414061567626 -0.0024640903534117868 -0.0018028800228631224 0.002755881101436172 0.5456824280339185 0.3741518274979265 -0.3845042890165013 0.026528495949856026
-0.14642170227007947 0.1230568059251693 0.9132786574884131 -0.048667154210273046 0.7886833660990558 -0.7160078491957251 -0.7928608169781295 0.7737349317905459

running_mean_std.running_var f8 [48]
00000000: e803 f193 cb93 463f ab15 5a6e 7d92 423f
00000010: ad40 5069 9c7d 613f 0404 e577 29a9 2f3f
00000020: 63fa 1b5a 0890 333f f03e 5e0a a9c9 443f
00000030: 1716 0c7e 887f a73f 3fe7 95fa 97de 9b3f
00000040: 5209 c5dd 955a 973f 960a e2e0 a81d 1540
00000050: 110f 9b33 6367 f53f 1284 964c 78be 943f
00000060: 2327 28f4 4223 a73f 7575 1b68 ded8 b53f
00000070: ba76 7bf6 e25f 563e 21e5 4954 258e b43f
00000080: 9cf7 02c5 6f14 483f 8b44 7789 3065 cc3f
00000090: b1e7 2c6d 7361 783f d501 a3a4 ded3 c63f
000000a0: 20a9 53a8 47b9 c53f e4af e618 8c05 be3f
000000b0: d390 0631 6f6e e43f 1384 99e4 f1f5 af3f
000000c0: 870e 91e9 ffa1 133f 72d9 ebb0 1fb8 0e3f
000000d0: c15c 2e5c 84c1 133f 00b3 ecff 1751 203f
000000e0: d1e3 4d15 3a50 213f 7374 e28e 0eff 193f
000000f0: 6acd cc61 170b 153f 6327 9a6b 8130 223f
00000100: edce b1ae 6ceb 243f 801a c9ca 9987 1b3f
00000110: 5618 76f4 b229 223f 0c18 991e 3824 1b3f
00000120: b6aa 39ba 06b6 dd3f 8f9a 1211 09ec e33f
00000130: 90bc 8235 1356 e43f afc4 917d 3bf8 e83f
00000140: 8b6b d33c ec6a e73f 3d79 3651 6a93 e63f
00000150: a7d4 e932 4f4b ae3f 5b71 63a1 0e97 e73f
00000160: 3cf9 350f 1b63 c53f cba8 76b7 8b31 cc3f
00000170: 4158 45d5 e87b c43f 0374 c32e 81d4 c13f
0.000689005282659247 0.0005667793709142518 0.0021350912961751374 0.00024155265050221375 0.0002985020056342267 0.0006343913453168131 0.045894875895140234 0.027216314954308315
0.022806493435618087 5.278964532658071 1.3377410903785327 0.020257835077817594 0.04519089918546928 0.08534040490800072 2.0837929963895017e-08 0.0802939730437129
0.0007348581075559027 0.22183806144906656 0.0059523114057870455 0.17834075011161468 0.1697167941959572 0.11727214439332517 0.6384807546169448 0.06242328563235602
7.489323105952006e-05 5.8592288146574754e-05 7.536287652808433e-05 0.0001244870945468421 0.00013209065459898623 9.916807514050319e-05 8.027391636460592e-05 0.00013877467954542385
0.00015960408868275576 0.00010501743481326244 0.0001385718298758133 0.00010353653456104966 0.46423500238476423 0.6225629170847514 0.6355072064524325 0.7803018047835816
0.7318020999913285 0.7054950319468741 0.05916831490041235 0.7371895935171254 0.16708696596828954 0.22026201685122823 0.16003141797654233 0.1392976263367985

running_mean_std.count f8 []
00000000: 0000 0004 0032 9941
105676801.0

a2c_network.sigma f4 [12]
00000000: b353 92bf 8408 9abf 2ff1 8fbf df8e 9dbf
00000010: 3e33 7cbf 5ad3 72bf 640b 83bf 65e6 85bf
00000020: a8b2 8cbf 9de4 a0bf 886d 98bf 1fe4 bcbf
-1.1431793 -1.2033849 -1.1245478 -1.2309226 -0.9851569 -0.94853747 -1.0237851 -1.0460936
-1.0992022 -1.2569767 -1.1908426 -1.4757117

a2c_network.actor_mlp.0.weight f4 [256, 48]
00000000: 0961 93bd 836f d03d a15e e0bc 0e50 bfbd
00000010: cfec d9bd d669 0bbe e114 003d a67c 103e
00000020: 9508 8bbd 28dd 59bd 9bd5 8a3d 858c 0c3d
00000030: 6391 48be 6ae7 693c 92fb 22bd 2e71 2abd
00000040: da19 65bd 6b77 dcbc 0054 eabd 315c 073e
00000050: e9df f1bd d3eb d83c b5a4 c6bd 7b24 343e
00000060: df33 143e 16a9 913d b020 b83d d382 f8bb
00000070: 2302 823d 4de8 c13c 1579 e03c 18b5 1ebe
00000080: 34c1 21be de70 f4bd d624 07bd 1976 263c
00000090: 46f7 f4bd 0b99 f2bd e6d1 273d d036 8c3d
000000a0: 99f0 0e3e a013 fa3e ddcc 283d 0083 193e
000000b0: 3c36 9abb a3d8 2cbe 81df 2dbd 48f4 24be
000000c0: 52ba 1fbd 135e ef3b 4b82 44bb f500 3e3d
000000d0: b79d 24bc 9eb7 2a3e 4d39 a7bd 18d2 b43b
000000e0: 4e9f 4c3e 3b66 95be ca18 c6bd 341d 2b3e
000000f0: 4a08 9a3d 36ea f7bd ef25 5e3e 05d0 153d
00000100: fbb5 573d 9518 3e3e 2f31 12bd 43c7 853e
00000110: 6e7d f33d e5ae 303b 43fb ee3d 3b40 fd3d
00000120: d87e b3bd fca2 10bd 5740 5c3c 39c7 ffbd
00000130: e037 73bd c81c b83c 4d17 91bd 4606 d53d
00000140: 2ccc 9e3c 5230 a8bc db49 2fbd 6af4 aebd
00000150: 471a f0bd 7c52 78bd af10 21bd c4c9 113e
00000160: 6aee 333e 5439 60be 9f8f 483d 498c 08be
00000170: 275d 493d f631 a33d 823b f3bd 3714 96bd
00000180: c90d 3e3d a80d ec3d e64f bcbc e222 f6bc
00000190: 6a6c 6d3d 6c63 d53b a3e2 50bc 378a cf3c
000001a0: f7ff ecbd d191 1abc 765b a5bd 0d1a 3abf
000001b0: 17e0 2c3e ede9 363b 95f5 7fbd 355e 55bd
000001c0: 5607 44be 3639 ebbd a9e8 bb3d 304c 083e
000001d0: 0dcd de3d 74c9 04be 06ac 7f3e 656f b7bc
000001e0: 0717 cebc c892 debc abb6 053d 7828 a03d
000001f0: 31d0 a0bb 5f90 173c 98d9 823d 2365 3dbd
00000200: 4dc2 a03c cce6 803d 1133 0abd 7c01 a53c
00000210: aad1 5a3d bbde 13bd 0946 2f3c 3281 893d
00000220: 9648 5e3d 2a49 443d 7a27 f3bc c207 c1bd
00000230: dc40 93bc b38b 643d 5add aabc 785e a33c
00000240: c0ff c73d 430c a63d 7c68 203d fc28 94bd
00000250: 7971 233e c64e 403e d683 2cbe 9727 c53d
00000260: b7c7 473e 4de9 57be 2b5c a1bd 2ce0 533e
00000270: 8800 e9bc bbb6 2ebd 3536 d03e 7e7b 81bd
00000280: 075d 123d 9c49 08be 0307 9cbc e02d b93d
00000290: 33e8 a33d c2ed 093e 1711 84bd d0bf 26be
000002a0: 93bd d13d 2036 4abb f694 ad3d edc4 a7bd
000002b0: 9ae7 50bd 7603 a03d 33eb f6bd ca8d aabc
000002c0: e8f0 dabd fce4 633d 58b3 6f3d 7e90 d83d
000002d0: 7c80 fdbd 7398 873d a320 9d3d e8ad 023e
000002e0: e65d 963d f554 5dbd e426 153e 721f 36be
000002f0: c7b9 05be 0060 00be b22e 11be 3027 d1bc
00000300: 9976 93bb e5d5 b33d f569 81be 43c0 d73d
00000310: 9d2b 693d ad2c d93c ff5b e03d da1f 37bd
00000320: 7542 91be f79c 2bbe 61d8 053e ecd9 76be
00000330: 8d08 153e 787c 503d 550e 003d a603 913e
00000340: 4785 8f3d 7b0a b8bd 5070 bc3c 977d 873e
00000350: 90a8 de3d 4239 82bd 24c9 a73e 47fa c93c
00000360: ed77 de3b 3f34 343c bc4e e53d fca2 42bd
00000370: 6701 903d f6d8 6a3d 93a5 11be cf54 1d3d
00000380: c0d4 03bc 2cf8 05be c98a 8abd 934a c53c
00000390: c956 1f3d d1e5 d13d c0f7 4d3e 8f4f 5dbe
000003a0: 98c3 efbd c08c be3d 62db 1e3d eafc 0f3e
000003b0: 193e 0d3e 68b9 9abc ca10 d73d 3fba 3a3d
000003c0: f95f 0fbe 6d86 993d 6482 ca3e 576f 623d
000003d0: 1240 60be 3c58 133d 2b03 cc3d 5644 683e
000003e0: 1efe 46bc 8430 fabd e4c8 ff3c 4da5 c23c
000003f0: 020b 60bd 1a96 9abd f533 a53d b672 0cbd
-0.07196242 0.10177519 -0.027388873 -0.09341441 -0.10640871 -0.13614592 0.03126991 0.1411005
-0.06788746 -0.053189427 0.06779023 0.034313697 -0.1958671 0.014276365 -0.039790697 -0.041611843
-0.055932857 -0.026912412 -0.11441803 0.13218762 -0.118102856 0.026479637 -0.09699384 0.17592041
0.14472912 0.07112329 0.0899061 -0.007583955 0.06348064 0.02367034 0.027401486 -0.1549877
-0.15796357 -0.1193559 -0.032994114 0.010159993 -0.11961226 -0.11845597 0.04097166 0.06846392
0.13958968 0.48843098 0.041210998 0.14991379 -0.0047061723 -0.16879515 -0.042449478 -0.16108811
-0.03899605 0.0073049157 -0.0029984887 0.04638763 -0.010047368 0.16671607 -0.08165226 0.005518209
0.19982645 -0.29179558 -0.09672697 0.16710359 0.07521112 -0.12105219 0.21694158 0.036575336
0.052663784 0.18564065 -0.035691436 0.26128587 0.11889158 0.0026959714 0.11669018 0.123657666
-0.08764428 -0.035311684 0.013443074 -0.124891706 -0.05937946 0.022474661 -0.070845224 0.10401587
0.019384466 -0.020530853 -0.042795043 -0.08542712 -0.11723762 -0.06062554 -0.03932255 0.14237124
0.17571416 -0.21896869 0.048965093 -0.13334765 0.049161103 0.07968514 -0.118765846 -0.073280744
0.046399865 0.11526042 -0.022987317 -0.03004593 0.05796472 0.006512096 -0.012749347 0.02533446
-0.11572259 -0.009434179 -0.080740854 -0.72696 0.16882358 0.0027910427 -0.062490065 -0.052091796
-0.19143423 -0.114855215 0.09175236 0.13310313 0.10878954 -0.12967473 0.24967965 -0.022391984
-0.025157465 -0.0271696 0.03264491 0.07820219 -0.004907631 0.009250729 0.06389159 -0.04623903
0.0196239 0.06294021 -0.033740107 0.02014231 0.053422607 -0.036101084 0.01069785 0.06714095
0.054268442 0.047921337 -0.02968191 -0.09425308 -0.017975263 0.05579729 -0.020857502 0.019942507
0.09765577 0.081078075 0.039162144 -0.0723438 0.15961255 0.1878005 -0.16847166 0.09626692
0.19509779 -0.21085091 -0.07878908 0.20690984 -0.028442636 -0.042654734 0.40666357 -0.063223824
0.03573325 -0.1330933 -0.019046312 0.09041953 0.08003273 0.13469604 -0.06448572 -0.16284108
0.102412365 -0.0030855015 0.08475678 -0.081918575 -0.051002122 0.0781316 -0.120565794 -0.020819563
-0.106904805 0.0556383 0.058520645 0.10574435 -0.12378022 0.06620874 0.076722406 0.12761652
0.073421285 -0.0540361 0.14565617 -0.17785433 -0.1305915 -0.12536621 -0.14177969 -0.025531381
-0.004500222 0.087810315 -0.2527615 0.10534718 0.05692636 0.02651056 0.10955047 -0.04470811
-0.28371015 -0.16759096 0.13070823 -0.24106568 0.14554043 0.050899953 0.031263668 0.28323096
0.070078425 -0.08986374 0.023002774 0.26463005 0.108719945 -0.06358577 0.32770646 0.024655474
0.0067891986 0.010998785 0.11196658 -0.047518715 0.070315175 0.057335816 -0.14223318 0.038410958
-0.008046329 -0.13082951 -0.067647524 0.024083411 0.038901124 0.10248912 0.2011404 -0.2161238
-0.117072284 0.0930419 0.03878344 0.14061323 0.1379322 -0.018887237 0.10501249 0.045587774
-0.14001454 0.07496343 0.39552605 0.055281963 -0.21899441 0.03597282 0.09961542 0.22682318
-0.012145547 -0.12216285 0.031223722 0.023760462 -0.054697998 -0.07548161 0.08066551 -0.034289084

a2c_network.actor_mlp.0.bias f4 [256]
00000000: d8a8 2e3e a602 b83e 72aa abbd aa0e 7b3e
00000010: ae03 e73d 5321 843e 8c2c 6e3d e89e 05bd
00000020: 5954 36be a0f7 28be d61c c13e dcb1 c8bd
00000030: fe6e b7be 4981 8c3d f73e ba3e 00c5 893e
00000040: 719d fe3e 5beb 463e 45c0 e4bd 255b 5bbc
00000050: a6f0 e73d f605 d03e b5a4 9fbe 5f3d 79be
00000060: 8a34 6abe 1c83 b0b9 7a3e bc3e 5615 823e
00000070: 2838 a13e a9b7 8e3b 7d81 d6bd b917 883d
00000080: 62f6 7a3d 9708 7cbe 1119 2bbe 0570 89be
00000090: 0d78 fa3d 8d47 8ebe 1d9b 323e 0066 753e
000000a0: 86cd 0e3e ad08 75be 43b7 aebd d595 aa3e
000000b0: bf64 0ebe f43b cf3e ab68 053e 8970 963e
000000c0: 0b41 6a3e 4da5 0f3e c7cd 2b3e 7fc0 863e
000000d0: 67fa 4f3e ac80 a63d b7a1 67bc 0119 a0be
000000e0: 9264 873e 95c6 cdbe e94d 853e 34b7 0ebe
000000f0: 19ce c2be 6ca9 263d bc8e 943e 714e 2dbd
00000100: 37b8 253d a072 913d 717d 6b3e 51ed acbd
00000110: 1186 07bd 8a91 033e 61c3 4f3b 3d2a 543d
00000120: 2b7b e03c dc87 7d3e ca76 8e3e ad3b 6f3e
00000130: 8849 653e 8014 b8bd 5402 ae3e 328c 92be
00000140: 1f65 dcbd 5a31 abbe d373 a03e 5cd0 f43e
00000150: 97f8 b53e 2094 4a3e 02ff 0a3e 8171 1ebc
00000160: 23c4 4ebd 9c3f fcbc cf24 76be 0b64 25bd
00000170: 349a 0ebe 76c6 033e bc0d a6bd 780c b93e
00000180: c519 4bbd 8e94 aa3e 228f 8dbd b0b9 a5be
00000190: 8bf9 9cbd b671 b1bd 8a17 c73e 85c9 25be
000001a0: 8ffb ca3e 7538 3d3d 030e 843d 384d 623e
000001b0: 5da4 ac3d 5496 453d 4ca7 bdbe f555 ad3a
000001c0: 847f 88be b2d0 513e c478 ba3e bed8 fa3c
000001d0: 2d15 0f3d 20d8 55be 9dde 6fbd a399 0a3e
000001e0: e9cf 22be 6b0a d53e b4a9 02be e085 9e3e
000001f0: bceb c33c 18cf b9bd cd51 1abe 0c17 803d
00000200: 75e5 d03e 85ce 48be 330e d9bc 85d0 b7be
00000210: e4fe 89bd c162 e9bd a7fa 1c3e d66a 983e
00000220: 2aba 693e 45f4 653e edf8 763d 592a 92be
00000230: 3eea 02be d3f2 9ebd e7a5 763e bde0 8dbd
00000240: bab7 9cbe c436 1fbe 3986 fbbd 7499 0e3e
00000250: 3fbe 57be d47c 11be 7c7e e23e 98da 9e3e
00000260: 3116 bd3e 6d6c 953b 9ef1 853e 4dc1 93be
00000270: 33b4 4cbe cbcf 7d3e dfca 623e 62b1 26be
00000280: 4cea 0e3e c3f6 1abc a70f 8abc da85 883c
00000290: 250d a6be 9af8 b63e 9f55 c4bd 6610 07bd
000002a0: 3218 a9bd f1c0 043e 8594 103e 199c d03e
000002b0: d077 943c b865 9b3e 0250 613e f285 343e
000002c0: 641c 5c3e 7d6e 613e 2282 943e b4a0 c73e
000002d0: 2d4f 963d 62b0 943e b36e c83d 72d2 7a3e
000002e0: 05e4 8e3e 71bb 00be 2edf 48be 2a70 47be
000002f0: 9397 253e 3096 b8bd b036 94bd ef30 503e
00000300: 0b0d bd3d 43b3 883e ed4d 86be 74bb 11be
00000310: ac68 91be c3e0 243e 5eb4 8ebd d8e1 8f3e
00000320: a73a c7bd 3ae2 8abe b43b 8c3e 1960 7fbc
00000330: 189d 5a3e 1e57 40be 35b8 70bd a3e9 67bd
00000340: 83e4 0fbd 0999 bbbd 90b3 fabd 9d40 ed3e
00000350: d141 8cbc 6409 ab3e ef7a a63d 2b2b c53e
00000360: e5c8 e03c 0c2a 393e dfbd 603d 40a6 033e
00000370: 24cd 4cbd 32e5 8cbe 35f4 ab3e 2066 34bd
00000380: 4877 32bd 551d 873e fb00 253e 25cc 07be
00000390: fe8a 12be 9709 873e 64b8 8ebb c3d7 443e
000003a0: b2e8 9f3e a688 243d 9faf 873e 8a02 933e
000003b0: e178 79be dd3a 943d 28d0 973e ce88 c73e
000003c0: 5010 22be c364 973e 5360 9e3e 9aad ba3e
000003d0: 3d71 82bc 37e0 843c 1cd0 dbbd 08a7 a73e
000003e0: fb6f 013e 0494 63be 74a2 253d 02ad 6dbe
000003f0: fa6d 85be 604a 963e 3d9f 833e b65d 26be
0.17056596 0.3593952 -0.08382119 0.24517313 0.11279999 0.25806674 0.058147952 -0.032622248
-0.17805614 -0.16500711 0.37717313 -0.09799549 -0.35826868 0.06860597 0.36376163 0.26908112
0.49729493 0.19425718 -0.11169485 -0.01338843 0.11325197 0.40629548 -0.3118035 -0.24339817
-0.22871605 -0.0003366702 0.36766416 0.25406903 0.31488156 0.00435539 -0.10473917 0.0664515
0.061270125 -0.24612652 -0.16708781 -0.26843277 0.12229929 -0.27788964 0.17441984 0.23964691
0.13945588 -0.23929091 -0.08531048 0.33317438 -0.13905619 0.40475428 0.13028209 0.29382733
0.22876374 0.14027901 0.16777717 0.26318738 0.20310365 0.08130011 -0.014137677 -0.31269076
0.26443917 -0.4019057 0.26036003 -0.13937074 -0.38047865 0.040688917 0.29015148 -0.042311136
0.040458884 0.07101941 0.22997071 -0.08443702 -0.03308684 0.12848487 0.0031702148 0.051798094
0.027402481 0.24758857 0.27825004 0.23362608 0.22391331 -0.08988285 0.3398615 -0.28622586
-0.10761475 -0.3343609 0.31338367 0.47815216 0.35541221 0.19783068 0.1357384 -0.009670616
-0.05048002 -0.03079205 -0.24037479 -0.04037861 -0.13926011 0.12868676 -0.081080884 0.36142325
-0.049585123 0.33316463 -0.06912066 -0.3236823 -0.07664784 -0.08664267 0.38885146 -0.16190155
0.3964505 0.04619642 0.06447985 0.22099769 0.08429787 0.048239067 -0.370417 0.001322447
-0.26659787 0.20489767 0.36420262 0.030620929 0.034932304 -0.20883226 -0.05856191 0.1353517
-0.15899624 0.4160951 -0.12760049 0.30961514 0.023916118 -0.09072703 -0.15070267 0.06254396
0.40800062 -0.19610031 -0.026496029 -0.35901275 -0.0673807 -0.11395789 0.15329991 0.2976901
0.22824922 0.22456463 0.060295988 -0.28547934 -0.12784669 -0.07761159 0.24086724 -0.06927631
-0.30608922 -0.15548235 -0.1228146 0.13925725 -0.21068667 -0.14207774 0.44237125 0.3102615
0.36930993 0.0045600445 0.26160902 -0.28858414 -0.19990616 0.24786298 0.22147702 -0.16278604
0.13956565 -0.009458247 -0.016853167 0.016665388 -0.32431903 0.35736543 -0.095866434 -0.032974623
-0.08256568 0.12964226 0.14119156 0.40744093 0.018123537 0.30351043 0.22003177 0.17629221
0.21495205 0.22014804 0.29005533 0.38989794 0.0733932 0.2904082 0.09786739 0.24494341
0.2790834 -0.12571503 -0.19616386 -0.19476381 0.16171102 -0.09013021 -0.07236993 0.20331167
0.092310034 0.26699266 -0.26231328 -0.14231664 -0.2840017 0.16101365 -0.06967996 0.28101993
-0.09727984 -0.27125722 0.273893 -0.015586876 0.21348989 -0.18783233 -0.058769424 -0.056619298
-0.035130035 -0.091600485 -0.1224128 0.4633836 -0.017121227 0.33405602 0.081289165 0.38509497
0.027439544 0.18082446 0.054868575 0.12856388 -0.050000325 -0.27518612 0.33584753 -0.044042706
-0.043570787 0.26389566 0.16113655 -0.13261469 -0.14310834 0.26374504 -0.004355477 0.19222932
0.3123222 0.04016938 0.26501176 0.28712875 -0.24362518 0.0723779 0.29650998 0.3897156
-0.15826535 0.29569063 0.30932865 0.36460572 -0.015923137 0.016220195 -0.10733053 0.32744622
0.12640373 -0.22224432 0.04043813 -0.23210528 -0.26060468 0.2935362 0.25707427 -0.16246685

a2c_network.actor_mlp.2.weight f4 [128, 256]
00000000: fd7f c4bd 9db0 0b3c 4697 30be 1624 8bbd
00000010: f241 ba3d 6cab c1bc d447 39bd b1de 95bd
00000020: d5f0 023c fc0e 343d 220f 393b 6970 8ebd
00000030: f574 7f3d 9459 243b ea94 fb3d 79b5 753d
00000040: db83 4fbc 03f6 ae3d d434 c23d a520 96bd
00000050: d430 323d b1a5 edbd 0fcd 48bd da37 353c
00000060: a291 1ebd 927a e6bd b27c b53d e489 503b
00000070: 5a77 2abe 3e87 543c 24b2 d63d 3fd8 e4bc
00000080: f24d a53d 88c9 f63c 88d7 8fbd 6334 dfbc
00000090: facd b3bd 0e78 8e3d 6b88 9b3d 301f 2abe
000000a0: 31b0 13bd 5193 28bd c513 e1bd 6575 cabc
000000b0: 2609 3c3e fe6e 69bb 373d 1f3c f535 7fbe
000000c0: f6aa 4bbd e0d0 cbbd d423 cdbc ce45 9fbd
000000d0: b0c0 5dbd c8f2 763d 1b97 06be 4e2b c0bc
000000e0: 6786 28be d42c 8b3d 835f 3dbe a33d a7bd
000000f0: 7e3f c63d ec11 ccbb e41d 41bd d6a5 70bd
00000100: 1a2a 5bbc 66ff a4bd 2b80 8cbc 24e6 1cbe
00000110: b685 18be e857 a8bd 6fed 73bc f96a 80bd
00000120: 861e f1bd f1d9 aa3d ca00 433d 70ef cabd
00000130: e604 47be a754 e0bd 3b18 24bb e956 333b
00000140: d9ef 58bd 824b 6b3e 84e4 e23d 386e c8bc
00000150: 20ac 9dbd d590 9abc 82c8 92bd 2afc a2bd
00000160: a79c 653e f98b 41bd 5cc6 123c 12ac 503e
00000170: 7bb2 53be 0d1f afbd 3b96 84bd 699e 4d3e
00000180: 3dd6 3bbc 3991 4fbd 9a0c bb3b c8ff 8e3d
00000190: 42ee 1bbd 4b21 433d a855 fabd 1d0a 8c3d
000001a0: f25c 22be 1fda 023e c791 723d 133f 1d3d
000001b0: 807a f93c aa5c b9bd 146b bdbd dc31 81bd
000001c0: 847f 043d 2204 16bd 6470 e53d 1d52 1dbe
000001d0: a15c 93bd d8c9 87bd d98a 833d 88e0 bc3d
000001e0: f33b 87be fd2c 2d3d e5ba a9bc 7b3d b2bd
000001f0: d414 3abe 8ff3 283d 7b7d 833b ce93 babd
00000200: 62c4 9abd 3f68 08bc c74e 75be 16e5 4b3d
00000210: 37cc b9bb a1ea ea3b fbcf d8bd ddb2 ac3d
00000220: a424 2a3d a9b0 903d 86d4 293e 82d0 78be
00000230: 60f6 48be 27a0 8fbd 6a42 00bd e33b cd3d
00000240: 5ba4 f5bc fabb 9d3d 85ba aabd 3567 3b3e
00000250: 4642 0d3e 534e ac3c cb23 b33c cec1 7ebd
00000260: 0914 4cbd a938 02be d42b 873d 27e5 8dbd
00000270: bb1a 51be 65e3 713d da34 56b9 d639 3d3d
00000280: e6a4 ca3c 777f f13d dc06 15be 19ff 843b
00000290: ee15 5a3d a137 6bbd 0256 c5bc 38ee 0fbd
000002a0: ee43 05bd 6f19 a7bd 9f75 d6bd 2701 4d3e
000002b0: a811 08bd 4069 cebc dfe4 12bd cfe5 4abd
000002c0: d7d6 c4bc e62c 30be 5693 db3c 4445 223e
000002d0: 6237 32be 3db4 89bd 13f7 f1bd afc7 40bd
000002e0: 8a6e 99bd e7cc 533d 368a 91bc c785 693d
000002f0: 6e6c 08bd 2877 12bd 5ded c6bd 2969 78bd
00000300: 2fa5 8abd 7bfe d4bd 168d 02be feac 2dbc
00000310: 19d1 853d e851 a7bd e047 dcbc f03c 9ebc
00000320: 64b0 22ba e0e8 01be c6cf 763d 6eb5 e3bd
00000330: c285 dfbc 96ba f43c d9cd 23be 2c5a 943d
00000340: 6221 34be 07af 8f3c 5106 f13d 1c34 d03d
00000350: a603 1cbd 5fa7 19bc 4b3c c6bc 578e 89bd
00000360: 2dc9 923d bdc2 1bbd 9f2d 853d 7f50 bfbd
00000370: 14eb fa3c 9f25 6bbd 6f63 013d bedc 36bd
00000380: cc52 ea3d 1d33 c03c 65f3 7dbe c57b 373e
00000390: 93c0 1b3e 611f a7bd f8cd 98bd 1e71 163e
000003a0: aa0f 0ebe e3d8 f5bc 2997 063e c0c6 89bd
000003b0: d09b 5c3c f324 18bb 8ca9 c43d e831 a4bd
000003c0: c762 b4bd d871 b3bc 912f 65be b014 88bb
000003d0: 08eb a53d 72b7 e93d 965c 2a3b 95e7 23be
000003e0: 94ac 163e c528 963c 39a5 9ebd e137 f43b
000003f0: 64b3 b83d 1b55 c83c 18eb 443b fc81 963c
-0.09594724 0.008525995 -0.17245206 -0.06793992 0.09094609 -0.02364131 -0.045234516 -0.07317866
0.007991989 0.043959603 0.002823778 -0.06955034 0.0623674 0.0025077807 0.122842625 0.05998752
-0.012665714 0.08543017 0.094827324 -0.07330445 0.043503597 -0.11603869 -0.049023684 0.011060679
-0.038713105 -0.11253847 0.08861674 0.003182047 -0.16647092 0.012971697 0.104831964 -0.027935145
0.080715075 0.030125394 -0.07023531 -0.02724666 -0.08779521 0.06956492 0.07594379 -0.1661346
-0.0360567 -0.041156117 -0.10990099 -0.024714181 0.18362865 -0.0035619135 0.009719185 -0.24922927
-0.049723588 -0.09951949 -0.025041498 -0.07776986 -0.05413884 0.060290128 -0.1314358 -0.02345815
-0.1645752 0.0679566 -0.18493466 -0.08166053 0.09680079 -0.0062277224 -0.047147647 -0.058751903
-0.013376737 -0.08056526 -0.017150959 -0.15322167 -0.14894757 -0.08219892 -0.014888152 -0.062704034
-0.117734 0.0834235 0.047608174 -0.0990895 -0.19435462 -0.10953646 -0.0025038857 0.0027365035
-0.05296311 0.22978023 0.11078742 -0.024466619 -0.07698846 -0.01886789 -0.0716715 -0.07958253
0.2242304 -0.04725263 0.008958425 0.2037814 -0.20673554 -0.08550844 -0.06473967 0.2007996
-0.011464653 -0.050675604 0.0057082893 0.0698238 -0.038069017 0.047639173 -0.12223369 0.068378665
-0.15855768 0.12778519 0.059221055 0.03839023 0.03045392 -0.090508774 -0.09248939 -0.06308338
0.03234817 -0.036625035 0.112030774 -0.15363355 -0.07195402 -0.066302955 0.064229675 0.092225134
-0.26412925 0.042279232 -0.020719001 -0.08703133 -0.18172008 0.0412479 0.004012761 -0.09110223
-0.07556988 -0.008325635 -0.23955832 0.04977902 -0.0056700963 0.007169083 -0.10586544 0.08432553
0.04153885 0.07064945 0.16584978 -0.2429829 -0.19625235 -0.070129685 -0.031313337 0.10021188
-0.029985597 0.07701869 -0.08336357 0.18301089 0.13794813 0.021033442 0.021867653 -0.062196545
-0.049823795 -0.12716927 0.066001564 -0.06928473 -0.20420353 0.05905475 -0.00020428319 0.046197735
0.024736833 0.1179189 -0.14553398 0.0040587303 0.05324357 -0.0574261 -0.024088863 -0.035139292
-0.032535486 -0.08159148 -0.10471653 0.20019971 -0.033219963 -0.025196671 -0.0358628 -0.04953557
-0.024028225 -0.17204627 0.026803654 0.15846735 -0.1740394 -0.06723831 -0.11814704 -0.047065433
-0.07491787 0.051709082 -0.0177661 0.057012346 -0.03330653 -0.035758168 -0.09713242 -0.060647164
-0.067697875 -0.10400101 -0.12749133 -0.010600327 0.06534023 -0.08169919 -0.026889741 -0.019316167
-0.0006206094 -0.12686491 0.060256742 -0.11118589 -0.02728546 0.029874127 -0.15996493 0.072437614
-0.1759086 0.017539514 0.11768783 0.10166189 -0.038089417 -0.009378283 -0.024198672 -0.06716602
0.071672775 -0.038027514 0.06502842 -0.09341525 0.030629672 -0.057408925 0.031588968 -0.04464411
0.114415735 0.023461873 -0.24799879 0.17918308 0.1521018 -0.08160282 -0.074611604 0.14691588
-0.13873163 -0.030010646 0.131436 -0.06727362 0.013464883 -0.0023215383 0.09602651 -0.08017331
-0.08807903 -0.02190487 -0.22381426 -0.004152857 0.08101469 0.114119425 0.0025995127 -0.1600631
0.14714271 0.018329987 -0.077463575 0.0074529503 0.09018591 0.024454644 0.0030047353 0.018372528

a2c_network.actor_mlp.2.bias f4 [128]
00000000: 6c8b 06be f7e2 54be e9b4 b3be d9af 94bd
00000010: 0ab7 843d fc6f 5cbe a4bf 00be abde 2dbe
00000020: 67b9 adbe 2799 adbe c62b 1cbe 31d1 24bd
00000030: 6781 80be 2a71 f3bd fdbe ecbc 9079 babd
00000040: 8087 36bd 0b6e 54be 047b 9d3c 1bc2 dfbd
00000050: 5e71 98bd bcc7 b7be 16c8 a4bd 3b1e c0bd
00000060: 88ea 233d 0e3e 81be 255c b6bd 4b1b 8b3d
00000070: 71b9 21be 50b8 01be b131 6ebd e7fb 253e
00000080: 4e8a 09be 6cdd 283c 8472 de3d f69f 3bbe
00000090: 19cd c43d 6c43 153d 60fd 65bd 78cf 573e
000000a0: 1b82 2f3d 4832 a93d 862c c5be d660 04be
000000b0: 5d13 3dbe 31ab c4bd c65a 88bd af36 bfbd
000000c0: bb2a 41be dffc 04be 6ca7 38be c13d e9bd
000000d0: ae29 57be f723 dbbe 0047 3abc a6c0 eabd
000000e0: 6a8d 3dbe 6b3d 523e ff0a 94bd 65f9 0b3e
000000f0: d716 8abe df48 9abc 4630 30be 080b c93d
00000100: 2e83 37be 7923 a6bd 55c4 80bd 26db 6cbe
00000110: fe3a 8fbe 4d76 ab3d 9c3d 6b3c b747 e4bd
00000120: a664 37be 6b5e 26be 18b5 cbbd d8c5 5f3d
00000130: ba97 94bd 480c 8cbe 0e49 60be 6539 a83b
00000140: 0ea2 253d cc6a 51bc effe 06bf 1067 23be
00000150: 504d 4b3c c93f 553d b75d 37be c5e6 dcbd
00000160: 7e47 11be 20fd 9fbd 12d1 c2bd 08ee 6ebb
00000170: 1998 5dbd 456a aebe 9033 7ebc 3b3f 75be
00000180: ddc5 083e d0e1 9fbc 79fe 6b3d eb4e cabe
00000190: 59c1 29be 46df 86bd 7fa4 8bbe 4c67 90bd
000001a0: e87d 49be 5027 4ebd 2022 35be 5436 d13d
000001b0: 6144 0ebe 6ff6 1abe 25ba 6abe 7b5b c43c
000001c0: 1ca7 1bbe ea29 b73b a085 a93c c044 8ebe
000001d0: 72bc adbe a153 febd f76d 6fbd 30d7 b1bd
000001e0: 81bd 773d 1cb6 a1be fd29 84bd f3a6 723c
000001f0: 8ef5 d5bd 11f2 8dbe 8c36 463d 1863 09be
-0.13139123 -0.20789705 -0.3509896 -0.07260103 0.064802244 -0.21527094 -0.12573105 -0.16979472
-0.33930513 -0.33905908 -0.15251073 -0.040238563 -0.25098726 -0.11886819 -0.028899664 -0.091052175
-0.044562817 -0.20745103 0.019223697 -0.109256946 -0.07443498 -0.35894573 -0.08045976 -0.09380766
0.04001859 -0.25242656 -0.08904294 0.06792315 -0.15793397 -0.12667966 -0.05815286 0.16209374
-0.13431665 0.010306697 0.10861686 -0.18322739 0.09609432 0.03644125 -0.05614984 0.21075237
0.042848688 0.082615435 -0.3851053 -0.12927565 -0.18464418 -0.09602965 -0.06657939 -0.09336602
-0.18863957 -0.12987088 -0.18032616 -0.11388732 -0.21011993 -0.42800876 -0.011369467 -0.11462526
-0.18510976 0.20531242 -0.0722866 0.13669355 -0.2697055 -0.018833576 -0.17205915 0.09816557
-0.17921135 -0.081122346 -0.06287447 -0.23130473 -0.27974695 0.083721735 0.014357951 -0.11146491
-0.17909488 -0.16246955 -0.0994665 0.054632038 -0.07255502 -0.2735312 -0.21902868 0.005133795
0.04043775 -0.01278181 -0.5273275 -0.15957284 0.012408569 0.052062783 -0.17906843 -0.10786203
-0.14187428 -0.07811952 -0.09512533 -0.0036457796 -0.05410013 -0.34065452 -0.015515223 -0.23949902
0.13356729 -0.019516855 0.05761573 -0.39513335 -0.16577663 -0.06585555 -0.27273938 -0.07050952
-0.19676936 -0.05033046 -0.17688799 0.102154404 -0.13893272 -0.1513307 -0.22922571 0.023969403
-0.15200466 0.0055897133 0.0206936 -0.27786827 -0.33932835 -0.12418295 -0.05845448 -0.08683622
0.06048346 -0.3158425 -0.06453321 0.014810312 -0.104472265 -0.27723745 0.048391864 -0.13416708

a2c_network.actor_mlp.4.weight f4 [64, 128]
00000000: 845e b4bc a8c0 c73b c8ce ca3d d548 39bd
00000010: c7cd 0cbe 79c9 adbc 6005 41be d1d7 80bb
00000020: 5194 5c3e f502 ba3e b7cf 663d 9299 65bd
00000030: 5866 4c3d 036f ac3d 720e 07be 9429 b13d
00000040: d7b7 ee3d e81b d5bd 0280 76bc 7ba8 33bd
00000050: a423 66bb 3067 3d3e 036d 8b3c 0827 8cbd
00000060: 52ab 353d 5ac0 1bbe 0ba0 e13c e058 b0bd
00000070: 6978 2cbe 9241 b3bd 5df1 aabd cf3e 2e3d
00000080: 454e 7c3b ebf6 b8ba 8a3c 23bd 7736 2e3e
00000090: 5fbc 23be e71c 22be 15ff a0bd 2ddf b7bd
000000a0: fc40 eebb d482 2ebe 6a6c 633d 70d2 1dbe
000000b0: 45bf 67bc 517c 733b 7828 b9bc e6dc 7d3d
000000c0: 56ed 9f3a e506 4dbb 5b54 0c3e 28a9 18bd
000000d0: e108 b93d 1397 9f3d 29d5 03be 6d37 67be
000000e0: 13bd 1e3d 2c71 40be c998 163d 70ef 483c
000000f0: d2b5 f23d 5830 973d 5380 223e 84f5 a4bd
00000100: 2cf6 233d b621 36bd 1e66 b83c f1dd 47bd
00000110: 60aa f8bc 49a3 afba b7d4 f73d 4dfa 64be
00000120: 8d1f 673d 7a5f 0ebe 23fc 433e c809 193e
00000130: bd7f cebd 3f97 133e 907f a6bc da57 6bbd
00000140: d47b 0dbe 5026 54bd 0b64 75bd 0cb6 a9bd
00000150: ea80 01be 5917 973c e625 c13d d14b 233e
00000160: c4ee 21bc 29c2 3bbe ebd1 adbd 5062 7bbe
00000170: 5b9e d23c c8d7 b3bd 60ff 623e d004 7e3c
00000180: 0929 51bd 2da9 8c3c ac7a d3bd 8281 2cbd
00000190: e542 993c 8a84 4fbe c7b7 563e 1a84 a13c
000001a0: 911e e23c aaaf 12be aabd 01bd c560 7cbb
000001b0: 62ce 8fbd 52e6 99bd 8ce3 b53c 39b3 10bd
000001c0: f4d6 853c 2b27 4ebe 8cf6 b8bd 254d 20be
000001d0: 9cfe a8bd 4ff6 a8bd 0cf8 b93d 7103 21bd
000001e0: 40ff 2ebe 287a a93d 9e71 03be aa2a 34be
000001f0: 32b6 153e acfc 0c3d 01de 2f3e 213a 26be
00000200: 1c4c 17be ded1 473d f8b1 e33d f5fe 213d
00000210: ffe2 04be a930 97bd 7e5b 3c3e 52f6 00bd
00000220: 2872 823e 4784 403c 5e81 a73e 7c6d 95bc
00000230: 94ea e5bc 6c45 203e 991c acbd 755a 67bc
00000240: c819 2ebd 5597 833d f2a0 c53b 5c49 393d
00000250: 7b11 8b3d 17b4 033e ad3c a8bc 7222 403d
00000260: 2a2d 843c 690a 10bd 1592 433e 0560 0abd
00000270: ae1f 2fbe 9f5c 2e3d 890a c1bd d7ce 93bd
00000280: 2c7d 243e cf4d 9a3d c735 063d 3d55 853d
00000290: 0104 0f3e 4cfe 93bd 3040 d9bd df24 1b3d
000002a0: 0184 72be 81d7 b3bb 6ecf 2a3e 8cf8 c63b
000002b0: c945 823d fdab ff3b 5b10 0a3e d98e a63c
000002c0: 01c0 433c aa01 cb3b e02e 603d 3694 a53d
000002d0: 4647 9b3d 2f86 ff3d c09b 2fbe a022 cfbd
000002e0: 5206 c3bd 2579 0abd ebea 8e3c 2a04 e23c
000002f0: eea1 353e 5730 033e be92 473e 84fa 22bd
00000300: b2f0 ef3d f093 923b 9be1 82bd 9757 ab3d
00000310: 1a56 0c3d 9c64 bb3d 4db4 d9bb 2fbd d3bd
00000320: 92e2 323e 6320 a6bc f288 9f3d 03df 7c3e
00000330: 0512 47be 4539 b73d 1b59 0a3e 4caf af3a
00000340: 0a3f a1bd 19c7 0dbd 2c4b 293e 0bcd 33be
00000350: dc0c 15be 226f a73c 9675 1c3d 6e47 813d
00000360: e164 1b3e d886 4cbd 34a0 19bd bd48 a7bd
00000370: 7665 343d 9002 9e3d 7cbd ae3d b2d7 78bd
00000380: 4be0 5dbe ec94 8abc bac9 70bd 6c26 22be
00000390: 92fd 583b 5e0a acbd 7b96 583a 661a 213d
000003a0: a7b7 40bd 1624 e0bd 47dc 80bd 1805 1dbe
000003b0: afab d03d eede 21bd be8a dabd 9750 18bd
000003c0: d0c7 833d e57c 87be 622c e6bc deff 943d
000003d0: 0288 073e 295c b3bd f182 89bd c8ee c53d
000003e0: 053c d7bd f7cf 1ebe c4c8 21bd 9d06 dd3d
000003f0: 1714 89bc 4e54 8c3d 543e 843e a81b c23d
-0.022017725 0.0060959645 0.09902722 -0.045235474 -0.13750373 -0.021214234 -0.18849707 -0.0039319773
0.21540953 0.3633038 0.056350436 -0.05605466 0.04990229 0.08419611 -0.13189104 0.086505085
0.116561584 -0.10405713 -0.015045168 -0.043861847 -0.0035116458 0.18496394 0.017019754 -0.06843382
0.044352837 -0.15210095 0.027542135 -0.086107016 -0.16842808 -0.08752741 -0.08346818 0.042540368
0.00384988 -0.0014111673 -0.039852656 0.17012964 -0.15989827 -0.15831338 -0.07861153 -0.08978114
-0.0072709303 -0.17042094 0.055523314 -0.15412307 -0.014144723 0.0037152956 -0.022602305 0.061978243
0.0012201469 -0.0031284627 0.13704054 -0.037270695 0.09034897 0.07792487 -0.12874283 -0.22579737
0.038754534 -0.18793172 0.0367668 0.012264118 0.11851086 0.07382268 0.15869264 -0.08054641
0.04002969 -0.044465743 0.02250963 -0.048795644 -0.030354679 -0.0013400103 0.12101119 -0.22361107
0.056426574 -0.13903609 0.19139151 0.14945138 -0.10082958 0.14413165 -0.020324498 -0.05745683
-0.13816768 -0.05179435 -0.05990986 -0.08286676 -0.12646833 0.01844375 0.09431057 0.1594689
-0.009883586 -0.18335785 -0.08487304 -0.24549222 0.025710275 -0.087813914 0.2216773 0.015504077
-0.051064525 0.017170513 -0.10326132 -0.042115696 0.018708656 -0.20265403 0.20968543 0.019716311
0.027602466 -0.14324823 -0.03167502 -0.0038509828 -0.07021786 -0.07514633 0.02220323 -0.03532717
0.01633785 -0.20132129 -0.090314 -0.15654428 -0.08251688 -0.08250105 0.09080514 -0.039309923
-0.17089558 0.082752526 -0.1283631 -0.175944 0.14620283 0.034420654 0.17174532 -0.16233112
-0.14775127 0.04878413 0.11117929 0.039549787 -0.12977217 -0.07382328 0.18394276 -0.03148491
0.2547772 0.011750287 0.32715887 -0.018240683 -0.028065957 0.15651482 -0.08403892 -0.014120688
-0.042505056 0.06425349 0.006031149 0.045235977 0.067904435 0.12861668 -0.020536745 0.04690785
0.016134817 -0.035166178 0.19098695 -0.033782978 -0.17101929 0.0425688 -0.094258375 -0.07217186
0.16063374 0.07534372 0.03276613 0.065103985 0.13966371 -0.07226238 -0.10607946 0.03787696
-0.23683168 -0.0054883366 0.1668069 0.0060721096 0.06360967 0.007802485 0.13482802 0.020331787
0.011947633 0.0061952667 0.054732203 0.080849096 0.07581954 0.12476765 -0.17149258 -0.10114026
-0.0952269 -0.03380694 0.017446002 0.027589876 0.17737553 0.12811409 0.19489571 -0.03978969
0.11715831 0.004473202 -0.06390687 0.08366316 0.0342618 0.09150049 -0.006643808 -0.10338818
0.17469242 -0.020279115 0.07789792 0.24694447 -0.19440468 0.0894647 0.13510554 0.0013403683
-0.07873352 -0.034613702 0.16532582 -0.17558686 -0.14555687 0.020438734 0.038198076 0.06312452
0.15175201 -0.049933285 -0.037506297 -0.081681706 0.044042073 0.077153325 0.08532235 -0.060752578
-0.21667592 -0.016916715 -0.05878613 -0.1583497 0.0033110124 -0.08400415 0.00082621694 0.039331816
-0.047050145 -0.10944383 -0.062920146 -0.15333974 0.10188996 -0.039519243 -0.10670994 -0.03718623
0.064345956 -0.26462474 -0.028097335 0.07275365 0.13235477 -0.087578125 -0.06714428 0.096646845
-0.10509495 -0.1550902 -0.039498106 0.10792277 -0.016733212 0.06852017 0.25828803 0.09477931

a2c_network.actor_mlp.4.bias f4 [64]
00000000: 6c1b 65bd 0e8b abbd 5dd6 8d3d 52e2 fc3d
00000010: 3a9f 37bd 286f 80bb d874 14be 82ba c6bc
00000020: e365 56bd ecc2 9cbe 0868 49bd 50f5 ccbd
00000030: 1b4b 80bd 21d8 84bc 5fb4 9abe e693 653d
00000040: 481f 2abc 7c49 943d 98df 43be 6695 c1bd
00000050: 0211 0a3e ddfb 0abe a7d9 34bc a5ad f13c
00000060: 4d04 12be cf60 34be abf8 00be 175f 33bd
00000070: 8863 a3bd dd86 2a3e 26d3 c4bc 15cf 79be
00000080: 50b1 143e dd0f 0c3e f432 83be 9a20 00be
00000090: 5544 0bbe 04d4 633d 9077 273d d127 26be
000000a0: 2828 b43d 2049 13be fe2f a93c 2baf 03be
000000b0: 12a4 8a3d 642f 1bbe b5e3 19bd 4b6e e6bd
000000c0: 56df cfbd cf8b 1d3b 4780 33be aeed 94be
000000d0: 95ed f2bd 1a59 f23b 7f5b 8e3c be76 8abc
000000e0: 3601 1f3c 1449 a5be 5b7f 1a3d a963 01be
000000f0: 7eee 83be 3a30 79be e347 b5be bf5c c0bd
-0.055934355 -0.08376132 0.06925652 0.12347855 -0.044829585 -0.003919501 -0.14497697 -0.024258856
-0.05234326 -0.30617464 -0.049171478 -0.10007727 -0.06264325 -0.01621634 -0.30215737 0.05604925
-0.010383435 0.072405785 -0.19128263 -0.094523236 0.1348305 -0.1357264 -0.0110382205 0.029501745
-0.14259453 -0.17615055 -0.1259486 -0.043791857 -0.079779685 0.16653009 -0.024026465 -0.24395402
0.14520764 0.13677926 -0.25624812 -0.12512437 -0.13600285 0.055622116 0.040885508 -0.16226126
0.08796722 -0.14383364 0.020652767 -0.1285979 0.06769575 -0.15154797 -0.037570674 -0.112515055
-0.1015002 0.0024039631 -0.17529403 -0.29087585 -0.118617214 0.0073958756 0.017377613 -0.016902324
0.009704879 -0.32282317 0.037719112 -0.12635674 -0.25767893 -0.24334803 -0.35406408 -0.0939269

a2c_network.value.weight f4 [1, 64]
00000000: 1131 703b 5f4c e33d 17c9 1a3b a1ea 2f3d
00000010: 5e1e b5bb 336d 71bb 8ac5 52be f305 053c
00000020: 98b0 1e3c 2358 9e3b 16b5 97ba 50d4 df3c
00000030: 0b49 e2bc e530 a2bb 037c 623b 6e03 1d3e
00000040: 533a dc3e 8a25 99b9 7f3c 073c 5b64 d33b
00000050: 9a8c 0f3d e757 bb3b f33b fd3a 942c b33d
00000060: 07d2 ffbb b6bc 7f3b 664a 25be 0d90 b7bd
00000070: 0c59 6dbc 58b3 e73e 999f f639 65d1 80bb
00000080: 9cf6 933e 90fd 553e 724e 613d 7027 f03b
00000090: 80f2 babe b83c fd3a 036e 5e3a 4198 dabc
000000a0: fcbf c73c 37dd 423b a566 6b3c 1531 f83b
000000b0: 83b1 f53a 2531 c8bc af5e a73a 24ab 0dbe
000000c0: f541 8dbc 5488 e33b f958 223d dbdb f73b
000000d0: c5db 143c ed27 1fbc e7d8 d3bc c304 1dbb
000000e0: 2495 e53b 9f5b cc3c 08ac 283b 3fc3 f4bb
000000f0: c335 dd3d 1800 f33c c75e aa3d ddac db3b
0.003665034 0.11098551 0.0023618394 0.04294837 -0.0055273017 -0.003683877 -0.20583168 0.008119094
0.009685658 0.004832284 -0.0011574354 0.027322918 -0.02762272 -0.0049496763 0.003455878 0.1533334
0.43013248 -0.00029210403 0.0082541695 0.0064511723 0.035046197 0.005717266 0.0019320234 0.08748737
-0.0078070196 0.0039022393 -0.16141662 -0.089630224 -0.014486562 0.45254016 0.00047039686 -0.003931212
0.28899086 0.20897508 0.055006452 0.00732892 -0.36513138 0.0019320464 0.0008485021 -0.026683928
0.024383537 0.0029733905 0.014367734 0.0075742104 0.0018744919 -0.024437496 0.0012769307 -0.13834816
-0.017243365 0.006943742 0.039635632 0.0075640506 0.0090856 -0.009714109 -0.025860263 -0.0023959137
0.0070063043 0.024946032 0.0025737304 -0.007469564 0.1080127 0.02966313 0.083188586 0.0067039565

a2c_network.mu.weight f4 [12, 64]
00000000: 6619 103d 1f70 8f3c b202 143d 018a 6fbc
00000010: 6db4 08be 47d5 2e3e 47de 22bd efbf c5bd
00000020: cbea 7ebd fbb8 f9bc 6db4 c13d 71bc 1abe
00000030: a9ae 663c ee1d f2bb a444 aabc 5a90 8b3d
00000040: 3639 17bd 26a5 f1bd eeee 61bd 34e1 a5bd
00000050: 47b9 023e 96d3 2cbc 4026 0f3c ad07 46bd
00000060: 7778 c0bd 4f56 cebd dd93 ff3d e496 f0bd
00000070: 58b8 73bd c4fc d8bd 9f36 ba3c 4eb0 403c
00000080: 3302 0e3d 1159 a0bd e4c0 50bd 2b49 493c
00000090: bc11 a23c 63c5 bbbc 3c6e f5bc 46c9 1e3d
000000a0: bd9d 663d 09a9 df3b 99e8 75bd 2b66 de3c
000000b0: 0de8 f03b 8e17 6ebd 237b e33d 4e72 793d
000000c0: 1382 b23d 6aff 73bd 4e82 f73b 5a3e 073e
000000d0: b3ab 083e 6d99 023d d1ef 8fbe a4ae 8d3d
000000e0: 3e3b 4f3d 03ac ecbd d2cd ce3d 9497 df3c
000000f0: 1517 0bbe edc1 7abc d0eb 06be 15ed 473a
00000100: df2b 99bc 9647 dfbd 3fa9 1c3e 7a71 abbb
00000110: 40c3 1bbd 4bd5 cdbd a71f a6bc 690a 153c
00000120: de78 373d 35cc 53bc 019e 6bbd 8729 50bd
00000130: ac47 573d afc3 a33d 164c 933d b333 23bd
00000140: b798 65bb 9ea5 53bd daa7 083d 892f cabd
00000150: d343 053e 6950 a33d d1f2 e0bc 42fd c1bd
00000160: 69aa 143d 42a5 0eba 9311 24bd 2995 93bd
00000170: 3fa9 963d 4f12 02be 0225 3e3e 95e3 543d
00000180: b6d1 5fbd e3e8 123e 785c c9bd e6df 773c
00000190: c217 b53d b523 22bd 760b 4cbd e4f5 bbbd
000001a0: c28e 05be fc77 94bc dbee 933d d754 093c
000001b0: 3cb7 a0bc aeab 6d3d bb5f eabd a520 553d
000001c0: c79c 513d 9107 edbd 031a 84bd c24c 993c
000001d0: 3ba7 9dbd b282 7b3d ed9b 69bd d2dc 273e
000001e0: c027 8cbd 537d 263b 7c5a 863d e437 8e3d
000001f0: 5606 14bd 1f3c ac3d 7104 8ebc 6841 2a3d
00000200: 093e 993c 1462 09bd 5b23 70bd 1469 99be
00000210: c310 f43d 0a71 fb3d 9c3e 21bc c16c 803d
00000220: 6f5c d7bd 12f3 043e 7aca 2d3d 9881 543a
00000230: 860e 6a3e e9ab cf3c 218c 363e 1729 bebc
00000240: 0005 8ebd 7bd3 4b3d 3ff3 e73d 6174 173d
00000250: 816d 35be 7495 193e 592e 7c3d 4c4e 16be
00000260: 16c8 0b3d b4f8 0b3c c459 06be b88c 29bd
00000270: 37c0 e53b 36c6 aebd 0c61 1c3d 8adf 92bc
00000280: 4efe e2bb c9d5 d13d 75f0 f03c bcd9 8ebd
00000290: e57e d1bc 9a84 1cbd 8399 9cbd 221f c1bd
000002a0: 5d87 a4bd bdea 613c a646 493c ef82 f23c
000002b0: 9ee2 983d 3c98 aabd bdd7 c7bd 5ce5 8ebc
000002c0: 845c 7fbd 9f08 66bc a529 1b3e 2d7a c73d
000002d0: b26a 523e 059c ae3d a46a a93d 0053 e5bd
000002e0: ff6e a7bc d005 533d dbb9 343d bbba b33a
000002f0: edbc 4cbc 9579 013c e169 823d 972f 3abd
00000300: 37fe 43bd b881 343d cd5a 10be 2cd7 343e
00000310: b0ed 563d 1f92 603d b76c dcbd 918a 8b3c
00000320: 514b 8f3d f826 b9bd a60f 2d3d 1932 553d
00000330: 206a 88bd c814 68bd 73af 0fbd d22d 80bd
00000340: a213 733d e2fa bf3c aceb 963c 4fe5 b23c
00000350: 4c38 523d c659 dbbd 87a7 8bbd bfbb 073d
00000360: 0285 11be f7c7 1ebc 4403 683d 6460 cc3d
00000370: b38c 6c3d 9bda 0fbe 4ef9 2e3d a754 eebc
00000380: 41af 313a f7bb 133d b554 84bc 4d21 c33d
00000390: ab8c 3a3b 1d89 883d 48c7 15be de94 cf39
000003a0: 72fd 4b3c e224 94be 580d 463d 40a9 95bd
000003b0: f765 b83d 966d 2abd 8a6d 133d fd39 ed3a
000003c0: 9606 0ebd d1df 8d3d 19b2 f0bc 9ee5 02bd
000003d0: f4aa 9ebb 522f c0bd 4054 09bd 5454 1bbe
000003e0: 8f03 d6bb 9e2d 0fbe 8b97 babc 5439 283c
000003f0: 5734 adbd 9b95 80bc 93df 59bd 984d 42be
0.03518047 0.017509518 0.036135383 -0.014620305 -0.13350077 0.17073546 -0.03976276 -0.09655749
-0.062235635 -0.030483713 0.094582416 -0.15110947 0.014079728 -0.007388822 -0.020784684 0.06814642
-0.036919795 -0.11799078 -0.0551595 -0.08099595 0.1276599 -0.010548493 0.008737147 -0.048347164
-0.09397977 -0.10075056 0.124793746 -0.1174753 -0.059501976 -0.10595086 0.022731123 0.011760784
0.034670066 -0.07829488 -0.050965205 0.012285511 0.019783847 -0.02292127 -0.02995979 0.038766168
0.056302775 0.0068255705 -0.060036276 0.027148327 0.0073518814 -0.058127932 0.11107471 0.060900025
0.08716216 -0.059569754 0.0075533753 0.13207379 0.13346748 0.0318846 -0.28112653 0.06918076
0.050593607 -0.11556246 0.10097851 0.027293958 -0.13583024 -0.015305025 -0.13175893 0.00076265755
-0.018697677 -0.10902326 0.15298937 -0.0052320333 -0.038028 -0.10050448 -0.020278765 0.00909672
0.044793002 -0.012927105 -0.05752373 -0.050820854 0.052558586 0.07996308 0.071922466 -0.039844226
-0.0035033652 -0.051671617 0.0333632 -0.09872348 0.13014154 0.079743214 -0.027459534 -0.09472133
0.03629533 -0.00054414955 -0.040055823 -0.072061844 0.073565 -0.12702297 0.18568805 0.05197485
-0.054643355 0.14346652 -0.0983209 0.015129065 0.08842422 -0.039584834 -0.049815618 -0.09177759
-0.13042739 -0.01812362 0.072232924 0.008382044 -0.019618623 0.058025055 -0.114440404 0.052033085
0.051174905 -0.11573709 -0.06450274 0.018713359 -0.07697912 0.061403938 -0.057033468 0.1639283
-0.06843519 0.002540429 0.06560227 0.06944254 -0.036138855 0.08409905 -0.017336102 0.041566283
0.018706338 -0.0335408 -0.058627468 -0.2996298 0.119172595 0.1227742 -0.009841587 0.06270743
-0.10515677 0.12983349 0.042429425 0.0008106469 0.22857103 0.025350528 0.17826892 -0.023212953
-0.069345474 0.04976223 0.113256924 0.036976222 -0.17717554 0.14998418 0.061567638 -0.14678305
0.034126364 0.008543182 -0.1312018 -0.041393965 0.007011439 -0.085338995 0.03817849 -0.017928857
-0.006927288 0.102458544 0.029411534 -0.06975123 -0.025573203 -0.038212396 -0.076464675 -0.09429766
-0.08033631 0.013788876 0.01228491 0.02960345 0.07465099 -0.08329818 -0.09757946 -0.017443351
-0.06234409 -0.014040141 0.15152605 0.097401 0.20548514 0.08525852 0.08272293 -0.111974716
-0.02043867 0.051519215 0.044122558 0.0013712266 -0.012496215 0.007902523 0.06367851 -0.04545554
-0.04784986 0.044069022 -0.14097138 0.17660207 0.05247277 0.054826852 -0.10762923 0.017033847
0.06996787 -0.09040636 0.04225125 0.05204973 -0.06660867 -0.056660444 -0.03507943 -0.062587395
0.059344895 0.02343506 0.018422924 0.021837858 0.05132322 -0.10710482 -0.06819063 0.033138033
-0.14210895 -0.00969123 0.05664374 0.099793226 0.05775137 -0.14048235 0.042718224 -0.0290931
0.0006778129 0.03606793 -0.016153673 0.09527836 0.0028465192 0.06666777 -0.14626801 0.0003959303
0.012450563 -0.2893439 0.04835257 -0.073076725 0.09003823 -0.041608416 0.035993136 0.0018098947
-0.03467425 0.06927455 -0.029381799 -0.03195726 -0.0048421565 -0.09384026 -0.033527613 -0.15168887
-0.006531186 -0.13982245 -0.02277734 0.010267574 -0.08457249 -0.015696337 -0.053191733 -0.18974912

a2c_network.mu.bias f4 [12]
00000000: 5df4 c53c e26c 9bbd 10b3 adbd e6a5 193e
00000010: 606b 39bd df46 2abb 4afc 4b3e 33b1 d0bd
00000020: 1c05 f63d c4cb 23be b8b5 48be f030 5a3e
0.024164373 -0.07589127 -0.08481419 0.15004691 -0.045268416 -0.0025982184 0.1992046 -0.10190048
0.12012693 -0.15995699 -0.1960057 0.2130773

exp_avg f4 [12]
00000000: 2a6e d5b9 defa 563b 35b4 2439 2409 1839
00000010: cbee 2d3a 880b 623a 38d6 a83b cbca 4b39
00000020: 1b6d a1bb 9a88 28ba 9df0 abba a0de 25ba
-0.00040708605 0.0032803337 0.00015707391 0.00014499255 0.0006635009 0.0008622934 0.00515249 0.00019435135
-0.0049263365 -0.00064290466 -0.0013117973 -0.0006327424

exp_avg_sq f4 [12]
00000000: 590f 4b38 6462 4738 fb75 4438 752d 6238
00000010: 0e40 5938 6012 4b38 e229 4d38 a577 4838
00000020: f706 4e38 758a 4538 f06d 4438 9ef4 5938
4.8413265e-05 4.753693e-05 4.683992e-05 5.3924934e-05 5.1796487e-05 4.8416085e-05 4.8914815e-05 4.7795143e-05
4.9120714e-05 4.709741e-05 4.683243e-05 5.196465e-05
