OmniIsaacGymEnvs/omniisaacgymenvs/runs/Naranjelio/nn/last_Naranjelio_ep_550_rew_-0.9755173.pth (torch, 672807 bytes, 36 tensors)

value_mean_std.running_mean f8 [1]
000000 a2 01 a6 97 c9 af eb bf
       -0.8652084314235717

value_mean_std.running_var f8 [1]
000000 53 72 78 a2 98 be 80 3f
       0.008176033456998832

value_mean_std.count f8 []
000000 00 00 00 04 00 c8 99 41
       108134401.0

running_mean_std.running_mean f8 [48]
000000 98 0a 2c e1 11 79 a1 bf f3 d8 a0 da a4 ef c4 bf
       -0.034126814591236954 -0.16356335330210178
000010 47 57 c8 c3 5e df e0 bf 1b 57 33 30 8c ae c0 3f
       -0.5272668670538473 0.13032677033941628
000020 48 ee c4 40 5c 6d ab bf 9b 42 9e 68 3b 0f 80 bf
       -0.05356872835770027 -0.007841552858537873
000030 5c 04 c5 ee 94 f3 ad 3f fc 62 42 ff 7e 21 9b 3f
       0.058499006411246696 0.02649496491412416
000040 a7 a4 ed 7e 28 e4 ef bf 98 69 4e 86 4d ed 45 bf
       -0.9966013411586986 -0.0006691578424693921
000050 24 15 7c e6 1f 3a 38 bf 12 e3 26 65 ae 05 17 3f
       -0.0003696754342715372 8.782269404762299e-05
000060 ac ea de b5 9d 5c 83 bf 44 76 ab e2 ef 91 a5 bf
       -0.009453994858508473 -0.04212903634991652
000070 92 0e df dc 29 85 25 3f af c0 a9 08 92 d8 a4 bf
       0.00016418586750265425 -0.040714801366335755
000080 c3 19 3e f2 5e d9 a5 bf 2a f9 da 19 53 ed a9 bf
       -0.04267403323233367 -0.050638768106625
000090 69 00 f2 b8 1c 7c a9 bf 55 83 7f d0 11 f9 9f bf
       -0.04977502591737066 -0.031223562575067493
0000a0 d5 5c 15 de 27 e4 98 3f cf 72 68 ef 65 58 66 3f
       0.02430784504880708 0.002727698414004421
0000b0 64 53 f7 5c f4 16 ac 3f 27 2b 61 f7 db 4f 61 bf
       0.05486262926903043 -0.002113275167208956
0000c0 4d 57 bf a0 5f 0f 2f bf 06 eb 8d ad a5 ff 40 bf
       -0.00023696939785960506 -0.0005187567686414103
0000d0 6a 0e b0 7c a1 d4 fe be bc 81 8e f2 ff 86 48 bf
       -2.9402340981489484e-05 -0.0007485151046360754
0000e0 04 4a 12 9d 0f 17 4d bf a1 95 9d ac 28 f8 43 bf
       -0.000887758849915266 -0.0006094168286209686
0000f0 50 92 9f 83 c1 a2 46 bf 9e b2 66 62 0a 1b 97 bf
       -0.0006907887357071128 -0.022564089065485342
000100 1b e1 81 91 71 8a 52 3f bf 3c df 33 95 a5 44 3f
       0.0011316403452195703 0.0006300905731623437
000110 be ec df f2 5d 74 52 3f 7e 05 b0 30 be 34 de 3e
       0.0011263768642482542 7.201678054792407e-06
000120 09 9b a3 67 f1 87 d8 3f 6f fc 78 88 fa 67 e8 bf
       0.3832973014927324 -0.7626927056770806
000130 00 b0 bf ea 81 8a ca 3f 36 fe f3 d6 a1 13 e6 bf
       0.2073519130930208 -0.6898965071013154
000140 3b 56 df 2b 43 1f e4 bf 0e a8 3a 2e b8 60 bd bf
       -0.6288162094958304 -0.11475707176819602
000150 15 78 67 10 ce 83 b1 bf 18 2a af 56 51 a6 c8 bf
       -0.0684174337434061 -0.19257561428669656
000160 d1 44 4a 3e f8 15 e0 3f 0f 75 20 d9 66 c0 8b bf
       0.5026818482021104 -0.013550570965942059
000170 c9 5d d8 b6 b9 de d1 bf 89 b1 94 e2 7f d2 c2 bf
       -0.27921908241247856 -0.14704893649594578

running_mean_std.running_var f8 [48]
000000 e2 eb 7d ff 89 df 84 3f 55 45 5e 15 aa dd af 3f
       0.01019199191045134 0.062238040073803326
000010 e7 c7 79 b1 1c d9 d8 3f fc a4 ea ca 74 79 9f 3f
       0.38825146991359677 0.03073675621513859
000020 ce e8 80 40 b5 b8 74 3f a3 05 e7 88 19 3e 31 3f
       0.005058963790412997 0.0002631008473167001
000030 91 f2 44 7f 4d d3 5b 3f 30 db 80 8b 70 23 4f 3f
       0.0016983277137817868 0.0009502696548285613
000040 8b c9 14 1f 07 dc ea 3e 15 fc d8 5e 34 51 15 40
       1.2807599861196204e-05 5.329301340097136
000050 6b 60 f6 f3 96 5a f5 3f 3b 0a e4 78 71 57 95 3f
       1.3346166162282553 0.020841382030093874
000060 21 2e 1d ee 2f 74 24 3f 52 9c 46 f4 43 f5 49 3f
       0.00015605053982380247 0.0007921773727063242
000070 dd 33 8c 18 6c d1 7b 3e 8b 8f 11 61 1e 9e 4b 3f
       1.036303328811142e-07 0.0008428238235293912
000080 ca 64 cd e8 21 76 48 3f 21 3a 9a 8a fa ea 49 3f
       0.000746504361454425 0.0007909510943180967
000090 2f 63 25 21 da 06 49 3f c5 2b ac 4d f6 6d 51 3f
       0.0007637562833152418 0.0010638146692964906
0000a0 aa 99 6e bf 81 2c 48 3f 0d 59 11 b0 17 24 c5 3e
       0.0007377275022591352 2.520201974702481e-06
0000b0 99 6f cf 60 18 8a 4e 3f 0f 00 f9 be f8 a0 b6 3e
       0.0009319895776758069 1.3487813212004239e-06
0000c0 0c 0c fc 31 96 d1 ca 3e 90 21 d0 7f 6f 6b ed 3e
       3.1970379409398136e-06 1.4028391882817804e-05
0000d0 81 eb 7d 11 a8 4c a0 3e 7f a2 76 91 6e 58 e4 3e
       4.857611512887323e-07 9.701460426851355e-06
0000e0 7e fc 7b 8e 52 8d e8 3e 90 f1 16 68 6e d7 d8 3e
       1.1707325441088911e-05 5.922681908851124e-06
0000f0 ca 4d 15 e7 eb 99 ce 3e 42 5b 35 47 ea 07 53 3f
       3.6479539679363755e-06 0.0011615550873409074
000100 fe 00 a5 48 10 b6 f8 3e 54 6b d1 54 f6 5a 9f 3e
       2.35664233880781e-05 4.672306957492047e-07
000110 77 f3 fb 51 12 45 eb 3e 1e d8 14 bc d3 7a ae 3e
       1.3003259084149014e-05 9.08368626684504e-07
000120 a1 c1 0f 17 4a 02 de 3f c8 00 ec 9f 7f 4c c5 3f
       0.46888973476509405 0.16639704998670468
000130 a7 23 ce 6b 09 39 dc 3f 1f 63 d7 5f ae 3e cd 3f
       0.4409812500749077 0.22847537688974115
000140 6e 4d 47 15 9b 80 cb 3f 4d 09 45 78 18 90 d8 3f
       0.21486223734846582 0.3837948965557601
000150 3a 95 7d be 7a 41 d9 3f a0 ed 8e 1a ea e0 da 3f
       0.39462154963105756 0.41997768968186655
000160 4c aa d1 5d 1f a9 d4 3f 80 df f6 e2 92 b8 d8 3f
       0.3228224197579592 0.3862654892395696
000170 0f cf 6b 71 5f b4 db 3f 41 53 02 41 e0 e7 d9 3f
       0.4328840835216718 0.40477758739989517

running_mean_std.count f8 []
000000 00 00 00 08 00 c8 89 41
       54067201.0

a2c_network.sigma f4 [12]
000000 11 54 b0 bf 13 61 da bf d6 62 65 bf 82 5a a6 bf
       -1.3775655 -1.7060875 -0.89603937 -1.2996371
000010 ef bd a7 bf f3 c3 8d bf bd ef a2 bf d2 ae 6d bf
       -1.3104838 -1.1075424 -1.2729412 -0.9284488
000020 66 35 ab bf a0 c2 69 bf e0 55 94 bf 66 01 ab bf
       -1.3375671 -0.913126 -1.1588707 -1.3359802

a2c_network.actor_mlp.0.weight f4 [256, 48]
000000 70 cb aa bd 52 44 9f bc 4a eb f3 bd ff 6b a0 bd
       -0.08339584 -0.019441757 -0.11910112 -0.078330986
000010 76 f2 a5 bc e9 bd cd b8 e5 78 e1 bd 33 e9 25 3e
       -0.020257216 -9.810535e-05 -0.11009387 0.1620224
000020 85 f6 9a 3c 68 95 29 bf f5 d1 9e be 42 d6 08 bd
       0.018916378 -0.662436 -0.3101956 -0.033407457
000030 fa 24 97 bd f5 b9 ae 3d 7c 35 0f 3e e1 9b 38 bd
       -0.073800996 0.08531562 0.13985246 -0.045070533
000040 d8 ff 0c 3e 1d a1 e4 3d cb ce 60 bd c8 82 59 3d
       0.13769472 0.111635424 -0.054884713 0.05310324
000050 7b a8 9b be 93 d3 7f bc a3 fd c9 bd 14 31 f8 3d
       -0.30401978 -0.015614408 -0.098628305 0.12118736
000060 af f3 48 bd 44 a2 02 3d cb 37 03 bc aa f9 16 3d
       -0.04906052 0.03189303 -0.008008908 0.036859192
000070 1f 0a 8f ba e2 da 22 bd c2 ae a3 3d 66 e8 51 be
       -0.001091305 -0.039759524 0.07992317 -0.20498809
000080 3c ca 42 be 07 1d d0 bd 19 77 21 be ef e7 67 3d
       -0.19022459 -0.101617865 -0.15768088 0.056617673
000090 02 cf 24 3e 4e d2 93 3d 3c 74 44 bc 13 b2 10 bb
       0.16094592 0.07217847 -0.011990603 -0.0022078797
0000a0 3b dd 18 3e a4 b9 d6 3d 5d b7 e4 3c 8a fb f4 3d
       0.14928143 0.10484627 0.027919466 0.1196204
0000b0 90 c7 49 3e 15 1e ff bd 70 37 98 bc 99 15 ce bd
       0.19705033 -0.124569096 -0.018581122 -0.10062713
0000c0 90 e7 bb bd f9 fd ee 3d 16 ca 3b 3e 15 d3 84 bd
       -0.091750264 0.11669535 0.18338808 -0.06485573
0000d0 91 93 fc bd 14 b8 07 3e 17 92 75 bd 27 31 47 be
       -0.123328336 0.13253814 -0.059953775 -0.19452344
0000e0 20 62 22 bd f6 b4 1f be a3 aa 87 3a 35 ba e6 3d
       -0.03964436 -0.15596375 0.0010350536 0.11265985
0000f0 f5 2a 57 3c e9 13 89 3b d4 ec 2c be 48 f9 ed 3c
       0.0131328 0.0041832817 -0.16887218 0.02904953
000100 5e 42 36 3d a0 d1 06 3d d0 b0 bd 3c 1c a9 de 3d
       0.044496886 0.032914758 0.0231556 0.10872099
000110 e4 95 3c 3e 1c f2 78 3d a5 2f 18 3e 84 f3 87 3d
       0.18416554 0.06077777 0.14861925 0.06638244
000120 a0 f0 25 39 b8 2c 27 be 03 f5 11 3e c3 2e 40 be
       0.00015825266 -0.16325653 0.14253621 -0.18767838
000130 97 a1 a7 bd a3 63 f9 3d 48 cf 07 be db ad 29 3e
       -0.08185118 0.12177207 -0.13262665 0.16570227
000140 5a 55 4c bd af bc 84 bb 5e 06 bf 3c ce 7a 73 bc
       -0.049886085 -0.004050813 0.023318466 -0.014860822
000150 a0 3f 6c bc ec 43 ef bc 23 99 6b 3d c4 e7 cf 3c
       -0.014419466 -0.029207192 0.05751909 0.02537907
000160 d7 df e3 3d 5f ba 87 3b fd 04 84 bb b6 fd b5 bd
       0.111266784 0.00414209 -0.004028915 -0.08886282
000170 28 9e b3 3d 29 ef 10 3e 44 b7 83 be 99 f4 38 bd
       0.087704 0.14153732 -0.25725758 -0.04515514
000180 b0 bf 34 be 0b cc 30 3e d1 4f 75 be d0 29 38 bd
       -0.17651248 0.17265336 -0.23956229 -0.04496175
000190 0c 38 08 3d 82 06 70 bd 9b cc 97 3c b8 7b 3a be
       0.033256575 -0.058599956 0.01853018 -0.18211257
0001a0 f2 da bc bd 32 a8 db bd 8d b2 26 be d7 23 87 bd
       -0.09221448 -0.1072544 -0.16279049 -0.06598633
0001b0 11 cc f8 3c 5c f1 93 bc 73 12 88 3e 5a dc 06 3e
       0.030370744 -0.018059425 0.26576576 0.13169995
0001c0 42 05 53 3d 22 d3 cd bd 6e 8f ee bd 8c ac 9f bc
       0.051518686 -0.10050036 -0.11648451 -0.019491456
0001d0 08 59 8b 3d 0b e3 df bc 11 ba e2 3d 6a 49 04 be
       0.06804091 -0.027329942 0.110706456 -0.1291863
0001e0 be e8 9e bd 44 28 5b 3d be 4a 40 be 60 5f 1d bd
       -0.07759236 0.053505197 -0.18778512 -0.038421035
0001f0 dc 18 7f 3d db a8 0c bb 73 96 1a bd 7d 06 1d 3e
       0.062279567 -0.002146295 -0.037741136 0.15334506
000200 26 d3 cd bc f4 8b 93 bd d9 91 0c bc bf 8c 31 be
       -0.025125097 -0.07204428 -0.008579695 -0.17338847
000210 8c b3 47 bd 4c dd 25 bc 39 10 55 3c 14 0c 95 3b
       -0.048755214 -0.010123562 0.013004356 0.004548559
000220 21 3d e9 bd 7c 68 d1 bc 80 0d 00 3e 77 2c 37 bd
       -0.113886125 -0.025562517 0.1250515 -0.04472014
000230 ed 20 9d bd b9 7a 88 bc a3 67 a4 bc 29 c9 23 3d
       -0.07672296 -0.016660081 -0.02006895 0.039986763
000240 f8 4e 45 be 5a f4 93 3d 6c b7 53 3e 84 11 c8 bd
       -0.19268405 0.07224341 0.20675439 -0.09768966
000250 b6 67 03 3e f8 5a 04 3e b8 b5 8d bd ef 33 0e bc
       0.12832531 0.12925327 -0.06919426 -0.008679374
000260 f3 d3 89 3e 92 73 2b be ad b0 2a 3d 71 be 36 3e
       0.26919517 -0.16743305 0.041672397 0.17846085
000270 67 81 04 3e 6a f3 ed bd 68 92 db 3e 31 ae 0a 3e
       0.12939988 -0.11618693 0.42885137 0.13543011
000280 bb 8a ae 3d 6b 7d a5 bd 49 00 fb 3d 1f 9a 16 3e
       0.085225545 -0.08080562 0.12255914 0.1470723
000290 e7 8d 7a 3d 71 b5 1d 3d c7 cd 48 bc d0 b2 42 bd
       0.061170485 0.038503114 -0.012256092 -0.04753381
0002a0 d9 97 02 3d 35 ae ab bd c9 47 46 be f1 e8 35 3d
       0.031883094 -0.08382837 -0.19363321 0.044411603
0002b0 f4 77 44 3d 2b f3 47 bc d9 c2 ae be a8 90 c1 bd
       0.04796596 -0.012203972 -0.34133032 -0.09451419
0002c0 56 b6 12 3e 26 32 f0 3d f9 34 c6 3c 9f cb 2c 3d
       0.14327368 0.11728315 0.024195181 0.042186376
0002d0 cd d0 fc bd 4a 7a 37 3d c4 a5 62 bd 78 89 19 3d
       -0.12344513 0.04479436 -0.055333868 0.037484616
0002e0 c6 47 a8 3d 46 d0 8a 3d d1 f3 8f 3c b4 51 36 3d
       0.08216815 0.06778006 0.017572315 0.044511512
0002f0 2e 8d bd bd ad 9d c2 3b 48 86 11 be 9f 40 7a 3e
       -0.092554435 0.0059392066 -0.1421138 0.24438713
000300 ad 1e 03 be c0 8a 33 3d a5 a7 45 bc 01 89 85 3d
       -0.1280467 0.043833494 -0.012063895 0.06520272
000310 2a 11 96 bd bb 10 d7 3d 2f 36 82 3e 6b e7 61 be
       -0.073274925 0.10501238 0.25431964 -0.22060935
000320 62 a4 ab bd 53 5b 45 bc 48 4f ef 3d 21 71 51 bd
       -0.08380963 -0.012045699 0.116850436 -0.05113328
000330 5a 91 9f 3d 35 14 23 3d 11 5a d7 bd 5d ac f4 3d
       0.077913955 0.039814193 -0.10515226 0.11946938
000340 c6 f6 2c bc 37 2a 3b bd 51 0a 5a 3b 95 d6 7f bd
       -0.010556882 -0.045694556 0.003327031 -0.0624605
000350 ef a1 e8 3d 01 74 0a bd 1c 2c 33 3e 02 3b d6 bc
       0.113590114 -0.033802036 0.17497295 -0.026151184
000360 05 c6 ec 3d 38 29 40 bd cc 06 72 bd 00 66 80 bd
       0.11561207 -0.04691431 -0.059088513 -0.06269455
000370 fb ea 23 3e 48 00 df 3d 7d 4e c6 bd c1 99 db 3d
       0.16007607 0.108887255 -0.09682939 0.107226856
000380 6c f7 ab bc 29 9d 18 be 78 dc 20 be e4 07 92 3d
       -0.020992003 -0.14903702 -0.15709102 0.07130411
000390 a5 c2 c6 3d 77 fb 90 3d 16 ce 66 3d ad 75 c3 bd
       0.09705094 0.07079213 0.056348883 -0.09543929
0003a0 8b 84 a5 bd c3 86 7f 3c dd a3 b9 3d b6 a0 b6 3c
       -0.08081921 0.015596095 0.090644576 0.02229343
0003b0 70 05 a4 3d 53 cf 9a bd f2 c8 3e bc 9e c3 a4 3d
       0.080088496 -0.07559075 -0.011644589 0.080451235
0003c0 e7 4a 57 be 7e f9 05 3e cb 79 d7 3e 45 ec e5 3d
       -0.21024667 0.13083455 0.42085108 0.112267055
0003d0 d3 da 2e be 8f 88 fc 3d 05 4e 0a 3e 4a 4d 32 3c
       -0.17075662 0.12330734 0.13506325 0.010882685
0003e0 ba 74 59 be b9 45 b3 bd 89 da 26 be 6c 16 00 3d
       -0.21235934 -0.08753533 -0.16294302 0.031271383
0003f0 10 a4 e1 3d 40 ed 91 bd f1 9d 0b bf 79 94 cd bc
       0.110176206 -0.0712533 -0.54537874 -0.025095211

a2c_network.actor_mlp.0.bias f4 [256]
000000 12 4d ca bd 4a 34 50 3e b0 ef 67 3e 41 2e 2e 3e
       -0.09877981 0.20332447 0.22650027 0.17009832
000010 d5 ab 8d 3e cf 90 66 3e af 86 47 3d 96 d2 64 3e
       0.2767016 0.22516178 0.04871243 0.22345957
000020 44 c5 5d 3e 26 ba 3c 3e 70 8c 5a 3d b0 0d 6b 3e
       0.21657282 0.18430385 0.053356588 0.2295444
000030 39 b6 ae be a6 10 b3 3d 74 97 67 3e c9 2c 95 3e
       -0.341234 0.0874341 0.22616369 0.2913573
000040 ea d4 7c 3e 07 44 cd 3d a6 49 74 3e 06 fa 83 be
       0.24690595 0.10022741 0.2385622 -0.2577669
000050 fa 01 02 3e 25 e1 a8 3e 28 60 17 be ea 9a d1 bc
       0.12696066 0.32984272 -0.14782774 -0.025586564
000060 04 de 7d 3e c6 71 b2 3d 6c 86 7d 3e 81 d0 6c 3e
       0.24791723 0.08713107 0.24758309 0.23126413
000070 c4 32 27 3e c6 31 3a bd de fe 7c 3b e0 62 e0 3c
       0.1632796 -0.045457624 0.003860406 0.027390897
000080 9e 26 4d 3e ed 66 36 be 3a 40 84 bd 49 e3 fc 3d
       0.20034263 -0.178127 -0.06457563 0.12348039
000090 40 b8 b6 3d db 5c 1f 3d 31 26 86 bc d8 ca ff 3b
       0.08921862 0.038906913 -0.016375633 0.0078061633
0000a0 f0 58 08 3d 6a f3 47 3e 01 90 9f 3d e3 f9 7c 3e
       0.033287942 0.19526449 0.077911384 0.24704699
0000b0 f7 11 ce bd 8f 04 65 3d ed 64 6d 3d 4b 2a 8d bd
       -0.1006202 0.05591255 0.05795758 -0.06892832
0000c0 b0 02 93 3e 66 9d 9d 3e 36 6d 56 3e 65 dd c5 bd
       0.28712988 0.30784148 0.20940098 -0.09661368
0000d0 a9 c8 50 3e 45 6c ab bd af 97 40 be 63 29 85 3e
       0.20389046 -0.0837026 -0.18807863 0.26008138
0000e0 30 dd 72 3e 29 a1 68 3d 09 03 04 3e 9b 4c 83 3e
       0.23717189 0.05679432 0.12891783 0.25644383
0000f0 1a c4 87 3a ac c8 15 3e 20 c0 df 3d ee 84 04 be
       0.0010358125 0.14627331 0.10925317 -0.12941334
000100 7e 18 0a be e2 1a 3e be e7 cc 46 3e 83 f1 89 be
       -0.13485906 -0.18564942 0.19414102 -0.2694207
000110 02 39 ff 3d 6a 60 59 3e 4c 23 8f 3e e7 d4 d7 bd
       0.12462045 0.21228185 0.27956617 -0.10538655
000120 00 2c 69 bd 8d c8 a8 bd 62 ea 70 3b 51 e2 77 3c
       -0.056926727 -0.08241377 0.0036760797 0.015129642
000130 c3 e2 62 3e cc f6 5b 3e 0b 3d 16 3e c0 94 4f 3d
       0.22156815 0.21480864 0.14671724 0.05067897
000140 a7 24 8c 3e d3 9b b9 3d a8 ca 56 3e 96 b0 6c 3e
       0.27371714 0.09062924 0.20975745 0.23114237
000150 19 10 7e bd cb 47 3d 3d 84 51 34 3e ae 6e 75 3e
       -0.06202707 0.046211045 0.1760922 0.23968002
000160 67 31 9b 3e d6 8b a1 3d 46 a8 80 3d c0 57 39 3d
       0.30311128 0.07888 0.062820956 0.0452497
000170 f8 98 69 3e 35 78 9b 3e 2c 2a e4 3d 6a a4 41 bd
       0.22812259 0.30365148 0.11140856 -0.047275938
000180 79 9e 66 3e 50 9e 83 3e 38 ae 7c 3e e9 4e d3 bd
       0.2252139 0.2570672 0.24675834 -0.10317785
000190 97 61 66 3e 48 44 d8 3d f5 44 b4 3d 48 a9 48 3e
       0.22498165 0.105598986 0.08802215 0.19595826
0001a0 f5 45 a5 3e ef 79 f9 3d d3 9d 95 3e 86 fd b9 3d
       0.32279935 0.1218146 0.29221973 0.09081559
0001b0 1b 12 6d 3e 74 15 a4 bc 97 a7 dd bc 63 0f b2 be
       0.23151438 -0.02002976 -0.027057452 -0.34777364
0001c0 e0 92 da bc 1b 2a 87 3e c0 d5 9f 3d 2f 5d 3c 3e
       -0.026681364 0.2639931 0.078044415 0.18394922
0001d0 1c 0b a4 bd 06 c5 8a 3d 05 de 60 3e 58 dc 99 3e
       -0.080099314 0.067758605 0.21959694 0.3005092
0001e0 62 21 dc 3d e1 b1 30 3d 87 e4 5c 3e 52 9c f3 bd
       0.10748555 0.04313839 0.21571551 -0.1189505
0001f0 85 10 69 3e ac 6f e0 3d 84 27 e3 bb f5 e4 b4 3d
       0.22760208 0.109588 -0.006932201 0.088327326
000200 4b ee aa 3d 4b 1c 59 3e f0 69 35 3e 82 f2 96 3e
       0.08346232 0.21202199 0.17716193 0.29481894
000210 ab 15 7c 3e 34 9e 0f 3d d1 a7 0f be 07 46 37 be
       0.2461764 0.035062984 -0.1402886 -0.17897807
000220 23 eb 9b 3e 22 6d 75 3d f1 56 91 3e 65 4c e9 bd
       0.30452833 0.05991853 0.28386644 -0.11391524
000230 1f 99 81 3e 9b 3e 19 3e 1d 51 9d 3e 84 82 bf 3d
       0.25312135 0.14965288 0.30725947 0.09351066
000240 e6 c5 0e be 13 d5 8f 3d 0d 04 b7 3c e9 c8 c8 3e
       -0.1394268 0.070230626 0.022340799 0.39215782
000250 4b 42 5c 3d fb 48 98 3e ce ee 5e 3c 52 5b 03 3e
       0.05377416 0.2974318 0.01360674 0.12827805
000260 c8 6d 14 3e 9d 8b 09 3d 52 ae b2 3e 99 36 09 3e
       0.14495003 0.03358041 0.3489862 0.13399734
000270 4f 5b 7f 3e 12 15 20 be 05 54 fe 3d eb c1 d5 3d
       0.24937175 -0.15633038 0.12418369 0.104373775
000280 af 94 1a bd 80 c4 2d 3e 90 1f 70 be f4 bc 32 3e
       -0.037739452 0.1696949 -0.2344954 0.17454892
000290 03 b2 fd 3c 23 7b 67 3e cd 9c 68 bd 44 d1 59 3e
       0.030968672 0.22605567 -0.056790162 0.21271235
0002a0 d9 10 2f 3e 7a 50 db 3d f8 35 de 3c fd d8 6f be
       0.1709627 0.10708709 0.027125344 -0.23422618
0002b0 23 d9 5f 3e d1 3f 9c 3e 01 bf 89 3e 7f 6a 66 3e
       0.21860175 0.30517438 0.26903537 0.22501563
0002c0 35 5c a4 3e 60 e8 08 be 28 03 51 be f5 00 7d 3e
       0.32101598 -0.13369894 -0.2041136 0.24707396
0002d0 e8 51 73 3c b7 d4 df 3d 1f 86 9a be e1 f6 47 3e
       0.014851071 0.10929244 -0.3018045 0.1952777
0002e0 c3 a5 85 3e c3 09 fc 3d 22 ea 98 be 0f a3 91 be
       0.2610303 0.123065494 -0.2986613 -0.28444716
0002f0 7a 7c 18 3e 5d f1 3b 3d 05 15 6f bd ca 6a d1 3d
       0.14891234 0.04588448 -0.058369655 0.102254465
000300 e2 38 28 3d d2 af be 3e dc ba 4f 3e a8 e3 ae 3d
       0.041069873 0.37243515 0.20286125 0.08539516
000310 12 6d b1 3e b1 3d 85 be 25 81 b6 3d 40 5c b9 3d
       0.34653527 -0.2602363 0.08911351 0.090507984
000320 99 bc 87 3e 35 7b 88 3e 31 39 ed 3d ad 3a 87 3d
       0.26511076 0.266565 0.11583174 0.066029884
000330 38 a3 d9 3c d2 f6 fa 3d b7 be d0 3c 27 df d6 be
       0.026567087 0.122541085 0.025481565 -0.41967127
000340 a2 90 df 3d f8 6f 96 be 88 0d b2 3c d7 86 b0 3e
       0.109162584 -0.293823 0.021734968 0.34477875
000350 94 89 39 3e 5b 60 7b be e5 59 a2 bb f8 68 6d 3e
       0.18118888 -0.24548475 -0.004954564 0.23184574
000360 46 5e 79 bc fb 7c a3 3d 80 20 d3 bc 6d e4 86 3e
       -0.01522023 0.079828225 -0.025772333 0.2634615
000370 d7 9b 14 3e c0 6b 82 bd 93 ee 70 3e a6 e8 9b 3e
       0.14512573 -0.06368208 0.23528509 0.30450934
000380 b4 2f 99 3e 50 52 70 3e d5 77 9e 3e bf 73 e9 bd
       0.29919207 0.234689 0.309508 -0.1139903
000390 56 0f 68 3e 2b c1 2e 3e 3f 67 a2 3e 32 1c a6 3e
       0.226621 0.17065875 0.31719396 0.32443386
0003a0 c3 e8 a6 3d 36 ec 48 3d 5f 13 46 3e 35 df 80 be
       0.081498645 0.049053393 0.19343327 -0.25170293
0003b0 2c 86 05 be b3 f8 7f bd 1b eb 3a 3e 80 96 8d 3e
       -0.13039464 -0.062493037 0.18253748 0.27653885
0003c0 c2 a1 b5 3d 88 be ec 3d a2 67 a4 3c 92 86 96 3e
       0.088687435 0.115597785 0.020068947 0.29399544
0003d0 44 b0 5c 3e 0c 14 92 3e f0 77 08 3d 3d 7a ed 3d
       0.21551615 0.2853092 0.033317506 0.11595581
0003e0 e5 fb 51 be 3e 2e d4 3a 66 b1 95 bd 9e 37 f5 bd
       -0.20506246 0.0016188098 -0.07309227 -0.11973499
0003f0 cb 84 49 3e 80 47 2f 3e cc c8 96 bd 40 b7 2a 3d
       0.19679563 0.17117119 -0.07362518 0.041678667

a2c_network.actor_mlp.2.weight f4 [128, 256]
000000 04 63 43 bd 91 0c 1e bd b3 30 2d bd 9f dd 39 bd
       -0.04770185 -0.038586203 -0.04228277 -0.04537737
000010 79 17 a3 bd f8 32 d1 3c 1b 80 ec b9 be bd 22 be
       -0.079634614 0.025537 -0.00045108874 -0.15892693
000020 0e b2 f3 bd 22 31 b8 bd 38 d3 51 3d be e9 fb bd
       -0.118991956 -0.08993746 0.051226825 -0.12300442
000030 80 db fc 3d 51 92 8f 3d 91 ae b2 3d de a2 98 3d
       0.12346554 0.070103295 0.08724702 0.074529395
000040 39 91 19 be d6 7b c6 bc 16 82 a4 bd a9 6e ff 3b
       -0.14996804 -0.024228971 -0.080326244 0.007795174
000050 0b 68 aa 3d 06 d0 01 be 9b c4 18 bc 33 09 e9 bc
       0.08320626 -0.12677011 -0.009324218 -0.02844677
000060 b4 6c 58 bb ee d8 32 3b d2 82 27 be 19 f9 59 3d
       -0.0033023776 0.0027289945 -0.16358498 0.053216074
000070 1f 5a 0d be d7 da a8 3b 5a ac 36 3d ed c0 8e bd
       -0.1380391 0.005153041 0.04459796 -0.069703914
000080 2a 8c 18 3e 99 5a 43 3d 8a 46 eb 3c 48 7c 31 be
       0.14897218 0.047693823 0.02872016 -0.17332566
000090 b1 8b 26 bd 91 8c 0f bd 4f ca f1 3d f7 d9 ec bd
       -0.040660564 -0.035046164 0.118061654 -0.11565011
0000a0 d6 f6 8e 3e 10 50 1c 3e 36 96 ed 3d aa e7 61 be
       0.27922696 0.15264916 0.11600916 -0.22061029
0000b0 64 f8 36 3c 27 25 da 3b 01 61 ee bc c1 42 04 3e
       0.011167619 0.006657261 -0.02909899 0.1291609
0000c0 22 8e 64 3d 23 8d 0b 3d bf 9e 3c bd ec 73 79 be
       0.05579961 0.034070145 -0.04604983 -0.24360627
0000d0 0b ef 27 be f3 46 d9 3d d4 59 52 bd 14 40 d8 bd
       -0.16399781 0.106092356 -0.051355198 -0.10559097
0000e0 f1 b5 7b bd 21 c2 7d bc ea b3 dc 3d f6 43 3b 3d
       -0.06145281 -0.0154881785 0.107765034 0.04571911
0000f0 b4 64 b0 bd 66 ef 2e 3e 29 fd 48 3d 8e e7 91 3d
       -0.086129576 0.17083511 0.049069557 0.07124244
000100 69 62 f9 bd 61 6a 70 3d a0 39 d7 bd f6 a6 fd bc
       -0.121769734 0.0586952 -0.10509038 -0.030963402
000110 03 ab fe bd 84 c4 b8 bd 5a a2 8b bd 2c a6 e5 3d
       -0.12434962 -0.090218574 -0.068180755 0.112133354
000120 7a 53 4c 3c 55 d9 a3 3d 51 e7 66 3e 5a 92 79 be
       0.012471074 0.08000437 0.22549178 -0.24372235
000130 0d 19 73 3d 29 e9 e1 bd 7e f1 3d bd ce a5 47 bd
       0.059350062 -0.110308 -0.046372883 -0.048742108
000140 f5 92 05 bd a5 7d 08 3c ca e0 b5 3d 12 87 ff bc
       -0.032610852 0.008330737 0.08880766 -0.031192336
000150 7e e9 49 3d 94 fc cb bd 16 06 a1 3d 99 64 fc 3d
       0.04929494 -0.09960285 0.07862489 0.12323875
000160 2b 06 da bd a4 57 cd bd 67 08 28 be 33 a8 0c 3d
       -0.10645708 -0.10026482 -0.16409455 0.034340095
000170 66 34 88 bd 5f c7 9f bd 3f 51 1b 3d 6d 5f 12 3d
       -0.06650619 -0.07801699 0.03791928 0.035735536
000180 41 76 bc bd 95 c4 87 bd a9 f7 a2 3d e3 bd 28 3e
       -0.09202243 -0.06629292 0.07957394 0.16478686
000190 67 8b f1 bd a9 1b c4 bc e2 6d f4 bc 8f 5c c0 bd
       -0.11794167 -0.02393897 -0.029837552 -0.09392654
0001a0 c8 08 ad 3c 27 14 b2 bd dc da 85 bb ce 0f af b9
       0.021122351 -0.0869525 -0.004084928 -0.00033390376
0001b0 9d 5d 08 be 66 3c 9e bd 5c 2d 16 be 1e 2e 68 bd
       -0.1331696 -0.07726364 -0.1466574 -0.056684606
0001c0 fd 33 4d 3e 80 00 f4 3d 79 e6 95 3c 3b 2e 74 be
       0.20039363 0.11914158 0.018298374 -0.2384576
0001d0 53 50 1a be f5 aa 2e 3d 20 da 12 bc 8b 16 13 be
       -0.15069704 0.042643506 -0.008963138 -0.14364068
0001e0 2f 6e 94 bd 61 5c 22 3e 23 29 ed bd cd 16 b0 3c
       -0.07247578 0.15855552 -0.11580112 0.021495247
0001f0 c0 78 2e bd 5b e3 70 bd 36 60 42 be 04 24 22 3e
       -0.042595625 -0.058810573 -0.18982014 0.15834051
000200 6e 98 25 be 6a b5 68 bd 77 b0 21 be 9a 53 5b bc
       -0.16171429 -0.056813635 -0.15789972 -0.013386631
000210 ab 1a 33 be f5 b1 b0 3c 08 2e 1f 3d 89 87 4f bc
       -0.17490642 0.021569232 0.03886226 -0.012666591
000220 eb 26 cc bd 91 90 34 be fc 03 83 3d 84 94 df bd
       -0.099683605 -0.17633273 0.06397244 -0.10916999
000230 00 e7 c6 bd 1a 4c dc bd 7f c0 6c bc 05 ea 72 3c
       -0.097120285 -0.10756703 -0.0144501915 0.014826302
000240 da 4f 63 bd 3c 6e 27 be 52 68 45 be 98 ef 57 3d
       -0.055496074 -0.16350645 -0.19278076 0.05271873
000250 d1 c7 63 3d e3 72 9a be 03 74 85 3d 6b f9 4d be
       0.05561048 -0.30165777 0.06516268 -0.20114677
000260 b4 cf 60 bd 45 cc 2e 3d f1 5d 45 3e f9 43 b8 bd
       -0.05488558 0.042675275 0.19274117 -0.0899734
000270 b4 eb 3e 3d fe 70 8c 3d 53 f3 5d bd 68 1a 7c bd
       0.046611503 0.06857489 -0.05418713 -0.06154862
000280 51 24 8d 3b d3 cd 87 bd 5a af d1 bd c3 e3 25 bd
       0.004307308 -0.06631055 -0.10238524 -0.040500414
000290 a0 f9 a5 3d be 90 26 be e1 09 97 bd 31 a1 a4 bc
       0.08104253 -0.16266152 -0.07374931 -0.020096393
0002a0 f9 fc b4 3d 38 80 70 bd c2 c5 a0 bd 31 31 82 3d
       0.08837313 -0.05871603 -0.07850219 0.06357039
0002b0 f3 33 28 be fc bf 44 be 7c 47 03 be 38 a1 e9 bd
       -0.16426067 -0.19213861 -0.12820238 -0.11407703
0002c0 1f 92 48 bc bd bf 19 be 59 be 34 3d 0e 2e 9c bc
       -0.012241869 -0.15014549 0.044126842 -0.01906493
0002d0 a6 79 52 be 68 0c 23 bd a5 6b a6 bd 38 99 a8 3d
       -0.20554218 -0.039806753 -0.08126 0.08232349
0002e0 4d 55 5c 3d 4a 2c b2 3d 77 54 a8 3c c2 78 ea 3d
       0.053792287 0.08699854 0.020548088 0.11448814
0002f0 9e 19 05 3e a0 27 93 bc 9f fd 62 bd ad 5f 32 bc
       0.12998053 -0.01796323 -0.055417653 -0.010887069
000300 c5 6c 05 bd 79 99 10 3e cd f0 05 be 73 50 2c be
       -0.032574434 0.14121045 -0.1308014 -0.16827564
000310 47 47 ec 3c 68 59 53 be de 28 36 bd c7 76 7e 3d
       0.028842581 -0.20639575 -0.044472568 0.062124994
000320 0f 08 d9 bd bc b6 e8 bd 0c fe c3 bd 8f 2a 89 be
       -0.1059724 -0.11362979 -0.0956994 -0.26790282
000330 f3 0d 91 bd 0a 81 9d 3b 74 d7 4d 3d 56 3b b9 ba
       -0.07082739 0.0048066424 0.0502543 -0.0014132063
000340 a8 cf 13 3e 59 c4 d7 bb ef 94 2a 3d 8f ff a2 bd
       0.14434683 -0.0065846858 0.04164594 -0.079589
000350 21 41 30 be d2 5b ac bb 6d f9 d4 3c 34 8a 33 be
       -0.17212345 -0.0052599693 0.025997842 -0.17533189
000360 e8 2e e4 bc 72 f2 04 3d 6b 83 c8 bd 88 9f 20 be
       -0.027854398 0.032457776 -0.09790691 -0.15685856
000370 ef 38 b5 3d f8 e5 a0 bd 84 8a a5 3d da 02 1c 3c
       0.0884875 -0.07856363 0.080830604 0.009522164
000380 42 f8 40 bc 3d 59 bb 3c 0e c0 6c be b2 67 29 bb
       -0.011777939 0.0228697 -0.23120138 -0.002584916
000390 f7 d4 10 be 89 ae 82 be 74 57 aa bd 75 d1 82 3e
       -0.1414374 -0.25523785 -0.083174616 0.25550428
0003a0 ab d7 07 3e f3 e0 72 3e c2 73 77 3d fb 26 79 3c
       0.13265865 0.23718624 0.06041313 0.015207048
0003b0 49 6e 04 3e a4 2f e9 3d 22 9a 80 bd 8e 9b bc 3c
       0.12932695 0.1138604 -0.062793985 0.023023393
0003c0 3a 64 90 be 2e 27 00 bd 11 07 22 be c6 05 8f 3c
       -0.28201467 -0.031287365 -0.15823008 0.017458808
0003d0 af 2a 32 3e 64 47 0b bc 42 c5 9e 3d 3a fe 31 be
       0.17399095 -0.008500908 0.07752468 -0.17382136
0003e0 35 b6 74 3d 44 a9 6e bc bf 3a 20 be 8c 69 e6 bd
       0.05974408 -0.014566723 -0.1564741 -0.112506
0003f0 58 c1 86 bd 6e 6a d2 bc 17 89 95 3d 05 a3 2b 3e
       -0.06579846 -0.025685515 0.073015384 0.16761406

a2c_network.actor_mlp.2.bias f4 [128]
000000 7b 82 e5 3c 26 f4 a2 3d d5 ef 94 3d 9c ff 2a 3e
       0.02801632 0.07956724 0.07272307 0.1669907
000010 47 e0 36 be 03 01 da bc f9 94 13 3e 02 8d a7 39
       -0.17858993 -0.02661181 0.14412297 0.0003195778
000020 db 2c 22 bc aa 2e 50 3d bc 21 18 3d 53 79 2a bc
       -0.00989839 0.050825752 0.037141547 -0.0104049025
000030 45 d3 30 be 87 3e ec bd 7c 3c 04 be d5 1d 2a bc
       -0.17268093 -0.11535364 -0.12913698 -0.010383089
000040 c6 b4 e0 bd 3f 59 b9 bd e9 ac ab 3c 5e 66 5a 3d
       -0.1097198 -0.090502255 0.020956473 0.05332028
000050 d6 91 39 3e d4 36 f2 bd bd 83 86 bd 13 c6 9c bd
       0.18122038 -0.11826864 -0.06568096 -0.07654967
000060 6b 28 8c bd e3 75 c2 bd 56 7c 04 3e 0a 70 0b be
       -0.068436466 -0.09495141 0.12938055 -0.13616958
000070 0c a7 51 3d f1 5b a8 bd f9 dd ba bd f2 a2 10 3e
       0.0511847 -0.082206614 -0.09124369 0.14124659
000080 a8 3e 2a 3c f9 e0 1f be 8b d3 04 3e 92 22 87 3d
       0.010390915 -0.15613164 0.12971322 0.06598391
000090 42 ae 30 3e 86 7f 43 3d 20 16 0d be 9f 7f b4 3c
       0.17253974 0.047729038 -0.13777971 0.02203351
0000a0 a9 85 3a 3d dc 64 35 be a4 bd d0 3c e9 63 4c be
       0.045537625 -0.17714256 0.025481053 -0.19959988
0000b0 6e 4a 23 be c5 5e 43 be e8 9a de bd d4 b3 89 3d
       -0.15946361 -0.1907912 -0.1086939 0.067237526
0000c0 b9 0c 1d be 28 96 47 bd 49 f7 ce 3d df ea 4a bd
       -0.15336885 -0.048727185 0.1010576 -0.049540397
0000d0 0a b9 a1 3d 4a a5 48 be 3b cb be bd 00 d0 a9 bd
       0.078966215 -0.19594303 -0.09316107 -0.08291626
0000e0 62 3c a6 bd 09 90 9a bd 0c 38 a6 be 35 31 50 3e
       -0.08116986 -0.07547004 -0.32464635 0.20331271
0000f0 6d c3 42 be 4c 7e bc 3d dd fb 37 3d 27 cf 3a 3d
       -0.19019862 0.09203777 0.04491793 0.045607712
000100 68 6b 62 3d fe 3d 85 be 98 9e 86 3d 95 a3 0c 3d
       0.05527821 -0.2602386 0.06573218 0.03433569
000110 7b 22 d0 3d f7 52 80 3e 7f ba 2a 3d f5 de 87 be
       0.10162827 0.25063297 0.041681763 -0.2653729
000120 3c dd 2e 3d 72 32 4d be dc cd 8e be c5 fa 33 bd
       0.042691454 -0.20038775 -0.27891433 -0.043940324
000130 5a c1 85 bd 4f 50 fe 3d e6 d1 c1 3d 72 60 c3 bd
       -0.065310195 0.124176614 0.09463863 -0.0953988
000140 18 6d 1b 3e b9 0e 32 3e 8c fd e8 bc 1c 54 2a 3c
       0.15178335 0.17388429 -0.028441213 0.01039603
000150 fc c0 5d bc e0 5b 18 bd 3f ab c6 3d ac 71 8d 3d
       -0.013534781 -0.037196994 0.09700631 0.06906447
000160 bd a8 d5 3c 48 37 8e bc e8 3c 96 be 80 cb bb bd
       0.026081437 -0.017360345 -0.29343343 -0.09169674
000170 30 cb 8d 3d 39 b4 16 3e 81 16 73 be 16 aa e7 bd
       0.069235206 0.14717187 -0.23739053 -0.11311738
000180 26 2b ed bb 13 78 d8 bc ab ea 24 be 83 0f 32 be
       -0.0072378097 -0.026424443 -0.16105144 -0.1738873
000190 57 78 35 be 8d e0 f9 bd b7 b0 22 3d 7d 8e eb 3d
       -0.17721687 -0.12201033 0.03971931 0.11501787
0001a0 56 01 c3 bc 44 23 e3 bd 0a e0 a2 3d 37 24 2f bd
       -0.023804348 -0.11090711 0.07952888 -0.042759147
0001b0 84 b9 5a be c2 fc 35 be f1 fd 58 3c 40 1c fb b9
       -0.21359831 -0.177722 0.013244138 -0.000478955
0001c0 88 c8 c8 bd 65 c3 13 be b7 d9 a8 be 7b f7 4a be
       -0.09803873 -0.14430006 -0.32978603 -0.19820969
0001d0 4d e3 6d 3d 46 93 23 be c5 b6 86 be d1 f1 2e be
       0.0580781 -0.15974149 -0.26311317 -0.17084433
0001e0 fc d3 12 be f2 5e 0b be 65 fe f9 3d 49 ca c5 3c
       -0.14338678 -0.13610438 0.12206725 0.024144309
0001f0 e6 b6 51 3c 7f 9e ce 3d 21 02 e4 3d 1c 30 85 be
       0.012799954 0.100888245 0.111332186 -0.26013267

a2c_network.actor_mlp.4.weight f4 [64, 128]
000000 4f 4a f6 3d 34 86 98 bd cf 98 c1 3c af 08 d4 bc
       0.12025892 -0.07447472 0.023632435 -0.025883047
000010 b9 84 d8 3d 7d 32 02 bc 74 e9 fc bc 55 71 bf bc
       0.1057219 -0.007946608 -0.030873038 -0.02336947
000020 d5 a2 4c 3c 12 ac 82 bd ae 02 48 be 52 cf 23 3d
       0.012489994 -0.06380476 -0.19532272 0.039992638
000030 f5 3e 34 b9 25 d4 29 3d e0 68 0e bc ec 87 59 bd
       -0.00017189591 0.041462082 -0.008691996 -0.05310814
000040 30 c6 c1 bd d4 77 c0 3d 02 e5 2a 3d 44 b5 05 bd
       -0.094616294 0.093978554 0.041722305 -0.03264357
000050 23 e8 5d bd 77 9a a4 3d 86 02 53 bd 32 1b 4d 3d
       -0.05417646 0.08037274 -0.05151608 0.050074764
000060 94 08 6f bd ea 06 d5 3c 2c 60 03 3d 88 ee 8c bd
       -0.05835779 0.026004273 0.03207414 -0.06881434
000070 d6 e3 3f bd 33 0c c9 bc 9e c4 2f bd 52 c5 e2 3d
       -0.04684814 -0.02454195 -0.042912118 0.11072792
000080 6c 0b 09 be 2b 57 2b 3c fb ee 28 bd 0d fd 53 3d
       -0.13383263 0.010457794 -0.041243535 0.051755
000090 ec 0e 6c bc a4 43 b9 bd b8 a4 90 bd 68 7e 85 bb
       -0.0144078545 -0.090461046 -0.070626676 -0.0040739067
0000a0 60 f7 5b bc 16 fe 3b 3d 6e a3 28 bd e7 f0 4f bc
       -0.013425678 0.045896612 -0.041171484 -0.012691713
0000b0 1c 65 c1 3d 82 98 28 3c 3b 32 5a 3e da f4 18 be
       0.09443113 0.010290267 0.21308224 -0.14937153
0000c0 68 e1 3d be e6 3c c3 bd b0 04 92 3d cd 94 94 3a
       -0.18543017 -0.095331 0.071298 0.001133585
0000d0 1b c2 b6 39 d1 70 33 bc fb c7 d9 bd 0a 7a 0f bc
       0.00034858365 -0.0109521905 -0.10633846 -0.008757124
0000e0 eb af 95 3d 33 01 6c bd 55 88 e2 bc 7f 75 e2 bb
       0.07308944 -0.05761833 -0.027652899 -0.0069109793
0000f0 10 05 10 bc 39 10 13 be 7e d4 38 bc cb d6 f8 bc
       -0.0087902695 -0.14361657 -0.011281131 -0.030375859
000100 75 ca 10 be 42 7d 0c be 6d da ca bd e5 1a ea 3c
       -0.14139731 -0.13719657 -0.09904943 0.028577277
000110 97 8b 39 be 6b b2 a2 bd d8 76 69 3d 44 f7 38 bd
       -0.18119656 -0.07944187 0.056998104 -0.045157686
000120 a0 37 43 be 8e 07 8f 3d b6 35 1d 3d c7 99 e9 bc
       -0.19064188 0.06983863 0.0383813 -0.02851571
000130 41 f4 fa bb ef 25 66 3d 2e b0 05 be b1 68 0f 3d
       -0.007658512 0.05618852 -0.13055488 0.03501195
000140 71 c7 c6 3d 28 32 c5 3d f1 07 23 be 4b 72 00 bd
       0.09706009 0.09628707 -0.15920998 -0.031359
000150 8d 78 20 be 8e 15 c8 3c f9 be fa bd ee ed ad 3d
       -0.15670986 0.02442434 -0.122434564 0.08492647
000160 a9 2e 7b bb 66 b4 c2 bd f1 1c 58 3d b8 68 db bd
       -0.0038327372 -0.095070645 0.052761976 -0.10713333
000170 68 2c c4 3d 08 28 fe 3d b9 33 6d 3d 90 73 23 bd
       0.09578782 0.12409979 0.057910655 -0.03990513
000180 0c 62 4f bc 32 91 44 be 5e 95 0b 3e da 9a 2c 3c
       -0.012657654 -0.19196013 0.13631198 0.010534966
000190 3e a0 f7 bc 0a 3f cb bd e8 70 9b bc 47 9e dd 3d
       -0.030227777 -0.09924133 -0.018974736 0.10821205
0001a0 0d 95 33 bd b9 16 09 bc 0e 8d a3 3d 13 2d 6c bd
       -0.043843318 -0.008367234 0.079858884 -0.057660174
0001b0 b2 9e 4f 3d 84 7b 56 bd 78 91 8a bd 43 9a da 3a
       0.050688453 -0.052363887 -0.06766027 0.0016678054
0001c0 2c 33 d0 3d 73 78 aa 3d bb c3 e7 bd 63 6d 37 bd
       0.1016601 0.08323755 -0.113166295 -0.044782054
0001d0 e4 d8 64 3d 45 6c 49 3c 38 a3 07 be 0d 75 04 3e
       0.055870906 0.01229388 -0.13245857 0.12935276
0001e0 fa 5d 16 bd 4a ae af bd 15 3f 9c bd 4c 43 28 3c
       -0.036710717 -0.08578165 -0.076292194 0.010269951
0001f0 0f 76 04 bd 6d aa c1 bc 9f 60 e7 3d 87 0c c9 ba
       -0.032339152 -0.023640836 0.11297726 -0.0015338816
000200 e3 09 31 be b4 29 8c bc 93 8f b8 3b 4e c6 10 bd
       -0.17288928 -0.01710973 0.0056323498 -0.035345368
000210 bc 76 e6 3d 86 90 c3 bd 42 b1 68 bd 41 1d 17 be
       0.112531155 -0.0954905 -0.05680967 -0.14757253
000220 b2 7b 7d bd 67 67 97 bd 0a 0f 8a 3c f3 8b 92 3d
       -0.061885543 -0.07392769 0.016852874 0.071555994
000230 2b 70 3a 3d 14 f7 56 3d 3c 2c 66 bd 10 cb aa 3c
       0.045517128 0.052481726 -0.05619453 0.02084878
000240 c6 3f 00 3d 94 27 d7 bd 8e d4 29 bd 08 d6 1f bd
       0.03131082 -0.10505596 -0.041462474 -0.039022475
000250 8e bb 11 3e 55 9c 41 3c 3b 1d 1a bd 8c d9 f9 3c
       0.14231703 0.011817058 -0.037625533 0.030499242
000260 b7 22 21 bd 96 a2 a3 bc d9 fc 37 bd 49 00 cd bd
       -0.039339747 -0.019974988 -0.04491887 -0.1000982
000270 ca c0 a4 3c 7a 60 10 3d 0d a0 09 3c 87 31 8e 3d
       0.02011146 0.035248257 0.0083999755 0.0694304
000280 2f b9 d4 3d 82 5f 98 bc c6 16 2b be 6d 8c 20 bc
       0.103868835 -0.01860023 -0.16707906 -0.009799105
000290 e6 07 79 3d 93 d1 de bd 4f c8 eb bd 7b e6 91 bd
       0.06079855 -0.10879817 -0.11512815 -0.07124039
0002a0 27 32 03 bb df 0b 8e 3d 52 e8 76 bb 6e 32 a9 3c
       -0.0020018907 0.06935858 -0.0037675095 0.02065393
0002b0 50 af 2b 3e 2f 6b 9d 3d c1 67 5c 3d 60 de f9 bc
       0.16766095 0.07686459 0.053809885 -0.030501544
0002c0 f9 e1 9c bd f8 f7 11 3e db 40 7d bd 68 f6 05 3d
       -0.07660288 0.14254749 -0.06182943 0.032705694
0002d0 d2 cd a6 3d 72 c0 f9 3c 1b cd 6c be 38 03 9c 3d
       0.08144726 0.030487273 -0.23125117 0.076178014
0002e0 16 ea cb 3d 50 fa 23 3e cc c8 e9 3c fc e5 7d bd
       0.09956758 0.16013455 0.02853813 -0.06198691
0002f0 fc 31 23 bd 79 59 c1 bd 3b d3 44 3d 3c 20 d4 bc
       -0.03984259 -0.09440894 0.048053008 -0.025894277
000300 b1 e2 7c 3d 1b 1f 94 3d 29 fc 02 be e8 09 15 bd
       0.061739627 0.072324954 -0.12791504 -0.0363864
000310 f8 38 c9 bc 70 2f e7 bc 65 f7 06 bd 83 b8 07 3d
       -0.024563298 -0.028220862 -0.032950778 0.03313495
000320 7d 8a 38 3d e1 38 2f 3e 2f ef 3c 3c 3a 56 51 3e
       0.045053948 0.17111541 0.011531635 0.20443049
000330 eb a9 30 be 7a 40 fd 3c a2 4b 84 3d 6e 08 f2 bd
       -0.17252319 0.030914534 0.06459738 -0.11818014
000340 78 07 2d 3e 8f 1d 37 be da c3 cc bd 6d 36 1e be
       0.1689738 -0.1788237 -0.09998293 -0.1545045
000350 b7 1f 57 3c ee fc 84 bd f4 f3 f6 bd 8d 59 8f bc
       0.01313012 -0.06493555 -0.12058249 -0.017498756
000360 25 af ff 3c 3f 89 b8 bd 9f 28 ed 3d 79 eb f1 bc
       0.031211445 -0.090105526 0.115800135 -0.029531227
000370 2e 0d 94 bd 5d 58 79 bd 18 bf 95 3d cd a7 ce bd
       -0.07229076 -0.060875285 0.07311839 -0.10090599
000380 63 78 20 bd 94 e0 d9 3d fc 26 90 3d 59 08 eb 3c
       -0.03917731 0.10638538 0.07038686 0.028690504
000390 a2 6a 79 bd cd 9e 78 bd 66 80 27 bd 55 57 ad bd
       -0.06089271 -0.06069832 -0.040893935 -0.08463923
0003a0 6c 9d 31 3e 60 26 2c bd 26 0a 31 bd 0b ce 25 bd
       0.17345208 -0.042028785 -0.04322257 -0.0404797
0003b0 56 4a 8d 3d 20 74 36 3e 78 32 85 bd 24 6e c1 bc
       0.06898944 0.17817736 -0.06503767 -0.02361209
0003c0 03 83 54 bd 87 6c d3 bd 7f 60 ae 3d b3 35 9a 3d
       -0.051882755 -0.10323434 0.08514499 0.075297736
0003d0 f5 f8 12 bd 9c 38 39 bd cf 53 ad bc 15 bb 6c bd
       -0.035881955 -0.045220003 -0.021158127 -0.057795603
0003e0 42 28 7b 3b aa 40 12 be ff 4b e3 bd 17 ea e2 3b
       0.0038323556 -0.1428248 -0.110984795 0.0069248783
0003f0 a0 f3 75 bc f4 dd 63 3d f0 1c b7 3d 21 6b aa bd
       -0.015011698 0.055631593 0.08941066 -0.083212145

a2c_network.actor_mlp.4.bias f4 [64]
000000 1c 93 a5 bb bf a1 b7 3c ed 5c a6 3d b6 58 cd bd
       -0.005052937 0.022415994 0.08123193 -0.10026686
000010 8e 1c 41 bb 4f b5 75 3d ab 6e 8c bb d4 fc 60 3d
       -0.0029466483 0.059987362 -0.0042856536 0.054928616
000020 f2 ed e7 3c bc b5 71 3c c2 e1 0e be 70 ba 47 3d
       0.028311703 0.0147528015 -0.13953307 0.048761785
000030 0f 4d 6d bd e1 70 97 3c 9f 4b 33 bd 5c 30 92 bd
       -0.057934817 0.018486442 -0.04377329 -0.0713813
000040 c8 d3 20 be f4 bf 58 be d6 df 8d 3c 94 11 24 bd
       -0.15705788 -0.21166974 0.017318647 -0.040055826
000050 8d 0c 86 bd 79 2e 59 3d 0e 2a de bc 8c 21 dd bb
       -0.065453626 0.053022835 -0.027119663 -0.006748384
000060 00 0f 90 bd 99 69 f2 bd e6 13 10 3d 89 3f 3d bc
       -0.07034111 -0.118365474 0.035175227 -0.0115507925
000070 e1 55 20 3d 95 8f 9e bd 70 7c e1 bd 87 c6 13 be
       0.0391444 -0.0774223 -0.11010063 -0.14431201
000080 3c c8 7b 3b c7 fe 10 be 80 a7 da 3d 71 b5 9a 3a
       0.003841891 -0.1415969 0.10676479 0.0011803341
000090 3d 06 91 3c f2 e2 9d bd 5c 3b 2e be 3f a3 6f bd
       0.01770317 -0.07709302 -0.17014831 -0.058505293
0000a0 7a 97 f4 bd cd a4 82 bd d0 ba 3e 3d d2 d8 bb bd
       -0.11942954 -0.063790895 0.046564877 -0.091722146
0000b0 af 3a bc bd d0 70 0b 3c 01 df 3e 3d fc f3 85 bc
       -0.091908805 0.008510783 0.04659939 -0.016351692
0000c0 96 f7 0d 3b 72 94 98 bd a6 12 34 3d ea 2c d2 bd
       0.0021662465 -0.07450189 0.043963097 -0.10262473
0000d0 70 52 af bd 54 64 06 bd 5a a5 19 be f5 5e 01 be
       -0.085606456 -0.032810524 -0.15004483 -0.1263388
0000e0 16 10 20 3d 51 15 e9 bb be 64 06 be 28 38 10 be
       0.03907784 -0.007113137 -0.13124368 -0.14083922
0000f0 f6 1d ec 3a 8f dc c5 bc eb 3a 17 be fe 2c b9 ba
       0.00180143 -0.024153022 -0.14768569 -0.0014127789

a2c_network.value.weight f4 [1, 64]
000000 ac 17 ef 3b 6b 26 4d bb 83 72 04 3c 0c 8a 85 3a
       0.007296523 -0.0031303416 0.008083942 0.0010188236
000010 5d 2e eb 3a af a0 4f 3b c2 dd e9 3c 15 29 b0 bb
       0.0017942894 0.0031681468 0.028548125 -0.005375991
000020 49 bb 94 bb db d5 e6 3c e6 d4 e5 3e fd 3b d7 bd
       -0.0045389277 0.028178146 0.4488899 -0.10509489
000030 fd ad 2d 3b ac fa 9b 3c 78 0d 96 3b f4 3a 08 3c
       0.002650141 0.019040428 0.0045792423 0.008314837
000040 74 b2 a7 3e 8d 45 1f 3c db 01 52 bb e9 42 a3 3b
       0.32753336 0.009721172 -0.0032044563 0.0049823415
000050 f0 24 ea 3b 65 1e 64 bc 0f fb 7e 3c 8a fb 82 3b
       0.0071455166 -0.013923262 0.015562787 0.003997271
000060 9c 00 83 3b 17 a6 b6 3e 8b aa 35 3b 6d c6 43 3a
       0.0039978754 0.35673591 0.002772006 0.00074682274
000070 bb 22 95 3b 33 41 4a bb a6 8e 3a 3b 15 ca 2e bf
       0.0045512593 -0.0030861616 0.0028466373 -0.682771
000080 18 bf 5f 3e 2f a6 80 3d 59 5c 48 be c7 b7 03 3b
       0.2185024 0.06281697 -0.19566478 0.0020098554
000090 f0 a0 d9 3b f7 44 9c 3b 20 05 32 bb 0a b9 9c 3c
       0.0066414997 0.0047689634 -0.00271637 0.019131202
0000a0 6f a4 04 3f da cc 39 bb 61 24 1a bc 89 8e 98 ba
       0.51813406 -0.002835086 -0.0094080875 -0.0011639158
0000b0 e4 9c be 3b b4 eb 65 3b 79 1a 04 3a 84 96 1b 3c
       0.0058170427 0.0035083117 0.0005039345 0.009496335
0000c0 68 e2 7a bc 9e 21 bc ba 0b 32 b9 bb 3c 4d 8e bb
       -0.0153127685 -0.001435328 -0.0056517175 -0.004342703
0000d0 3b c5 8e 39 cc af a1 3c 15 89 3e 3c ba 28 32 bc
       0.000272313 0.019737147 0.011629363 -0.010873968
0000e0 e1 8e fd bb 16 cf bf bc 59 06 32 3d 0b e7 46 ba
       -0.0077379798 -0.023414176 0.043463085 -0.00075875287
0000f0 92 9b 59 bd d2 b7 fd 3b c0 74 9c ba 75 09 50 3b
       -0.05312688 0.0077428604 -0.001193665 0.0031743918

a2c_network.mu.weight f4 [12, 64]
000000 13 bf c1 bd eb f7 c7 3c a7 fd 8f bc a2 aa 44 3d
       -0.09460273 0.024410209 -0.017577006 0.04801429
000010 ef 07 b2 bc 3b ec 90 3d 91 0c c4 bc 7d ed 22 bd
       -0.021732299 0.070763074 -0.023931773 -0.039777268
000020 fc d8 66 3c 7f c1 ff 3c 07 e4 90 bc 60 d9 e9 bd
       0.014089819 0.031220196 -0.017686857 -0.11418414
000030 40 d8 8f 3d e4 71 ae 3c f4 bc dc bc bf af a9 ba
       0.07023668 0.021294542 -0.026945569 -0.0012946053
000040 48 f5 b5 3c fb 13 df bd 1d e0 99 bc 87 ce e3 3c
       0.022211686 -0.10892483 -0.018783623 0.02780844
000050 9c 68 e4 3c 03 fb 10 bc 48 aa cf bb 0e f1 ef bc
       0.027881913 -0.008848908 -0.006337438 -0.029289749
000060 9b 23 80 3c 04 34 96 bc c9 a9 04 bc 0f 69 b2 bc
       0.015641978 -0.01833535 -0.008097121 -0.021778611
000070 65 bf 07 3c 02 a9 96 3c 39 71 b2 bc 00 ee 04 3d
       0.008285378 0.018391136 -0.021782504 0.032453537
000080 d4 b9 50 3d 82 42 29 bd 80 5b 0d bd 37 d4 0c bd
       0.05095847 -0.041323192 -0.03451109 -0.03438207
000090 a2 4b e1 3c ca 89 9f bd af e5 cc bd 85 8c 97 bd
       0.027501885 -0.07789953 -0.10004746 -0.07399849
0000a0 37 64 bc bc 0c c5 9e 3d 2e 95 24 bd 3b a1 0f 3b
       -0.022997005 0.077524275 -0.04018133 0.002191617
0000b0 e1 86 0a bd 78 74 6d bc c2 95 41 3d 32 e3 f1 bb
       -0.033820037 -0.0144931 0.04726196 -0.00738182
0000c0 b3 e0 f3 bb 5d b3 69 bc bc 8a 45 3d 8c 0e 9d 3c
       -0.0074425577 -0.014263955 0.04822801 0.019171976
0000d0 a3 15 e8 bc ca e2 60 3d eb 55 ae bd 5a e5 dd bb
       -0.02833063 0.054903783 -0.08512481 -0.0067717256
0000e0 3f fd 2b bc 7a 5d 00 3d 7a fe 5c bd 0e 47 8c 3d
       -0.01049739 0.031339146 -0.053953625 0.0684949
0000f0 f3 22 2a bc 2a 32 1c be c6 0f 73 bd e4 e6 bb bd
       -0.010384309 -0.15253511 -0.059341215 -0.09174898
000100 29 0c 3b bb 4e 16 3a bc 53 63 c8 bc 87 9c 4a 3d
       -0.0028541184 -0.011357857 -0.024461424 0.049465682
000110 eb eb 75 3d 70 95 81 bd 92 c7 39 3b 14 33 82 bd
       0.060039442 -0.06327331 0.0028347713 -0.06357399
000120 1d 3f 12 3c 63 61 70 3c 19 1e 08 bd 3a 17 64 3c
       0.00892618 0.014671656 -0.03323183 0.013921553
000130 4c be 14 3d e2 bb d7 bb ea a9 24 bd 32 ab 22 3c
       0.036314294 -0.0065836767 -0.040201105 0.009928511
000140 7f 44 9c 3c dd 34 c8 3c 59 3f 9c 3d df e0 05 3c
       0.01907563 0.02443927 0.0762927 0.008171289
000150 eb 3d 13 3d 1f 5c 1d bb 61 8a 10 bd ba 93 be bc
       0.03594772 -0.0024011207 -0.03528822 -0.0232638
000160 7e 53 28 bd 91 80 1b 3d 92 e3 a5 bb a5 84 17 3c
       -0.04109525 0.037964407 -0.005062529 0.0092479335
000170 29 e0 53 3c 70 35 9f 3c 66 d8 cd bc 10 ac 78 3c
       0.012931862 0.01943466 -0.0251276 0.015177742
000180 7a 42 7d bd 42 35 bc 3c d8 09 cb 3c c6 fe b0 3c
       -0.061830975 0.022974614 0.024784967 0.02160586
000190 82 53 f6 ba b7 c8 98 bc 62 a1 37 3e 48 4a da 3c
       -0.0018793198 -0.018650396 0.17932656 0.026646748
0001a0 f2 8d a1 3b 6b d7 e2 3c c1 8b fe bb ec e0 da 3c
       0.0049302513 0.02769061 -0.007768125 0.02671858
0001b0 0b 87 8c 3d 9e 18 a0 3c 13 61 40 bd d5 fe d6 3c
       0.06861695 0.019542988 -0.046967577 0.02624456
0001c0 7a b5 13 bd b8 e6 af bd 49 75 b3 bd 5d e2 26 bc
       -0.03606174 -0.08588928 -0.08762605 -0.010185805
0001d0 68 78 e1 3b 99 27 ea bd 0f 12 e9 3b 40 fe 17 3e
       0.0068808086 -0.11433334 0.0071127485 0.14843082
0001e0 7e 84 86 bc ff 66 84 bc ef 64 8a bd 1b 4c 45 bd
       -0.0164206 -0.016162394 -0.06757533 -0.048168283
0001f0 06 85 64 bc 71 d7 79 3b 6f ae ba bd f4 86 5b bd
       -0.013947731 0.0038122798 -0.09115302 -0.0535955
000200 dc e2 46 3c 5d ce 06 be aa 11 f0 bd 39 0b 98 bb
       0.012139048 -0.13164659 -0.11722119 -0.0046400097
000210 3a 99 6b bd ad 1b 1b bd dd fc a4 3c 8a 52 09 bd
       -0.057519175 -0.03786819 0.020140106 -0.03352598
000220 dc 77 ec 3c 53 75 5a 3d e8 00 0e bd 1e 91 9d 3b
       0.028865747 0.053334545 -0.034668833 0.004808559
000230 d3 1b 2d 3d b3 f7 a0 bc bc 25 0b bc c7 b2 1f 3d
       0.042262863 -0.019649362 -0.008492883 0.038988855
000240 af ab c4 bd 22 2e f5 ba c7 84 9c 3d ea a4 9d bb
       -0.096030585 -0.0018705765 0.07642513 -0.004810919
000250 32 4d a2 bd 43 46 81 bc 6d 61 4e bc 6e e7 dc bb
       -0.0792488 -0.015780574 -0.01259647 -0.0067414558
000260 1e e2 f1 bd 7a c0 b5 3d 4d b4 b0 bc 9e 07 70 3d
       -0.118107066 0.088746026 -0.02157035 0.058601014
000270 65 68 a3 3b f8 ca 66 bb b7 31 84 3d 6e 52 fe bb
       0.00498681 -0.0035216194 0.06454795 -0.007761291
000280 f7 c8 b0 3c cf 37 70 bd ae 76 2f 3c d5 88 e6 bd
       0.021580203 -0.058646973 0.010709448 -0.112565674
000290 e2 8b ae 3d f9 79 2e be 9a ea 89 bc b3 1f 7d bd
       0.08522774 -0.17038716 -0.0168355 -0.06179781
0002a0 60 46 9c 3c 21 16 bb 3d fd 9c f2 3c 88 04 aa bd
       0.019076526 0.0913508 0.029615873 -0.083016455
0002b0 f0 27 5a 3d 5e bb 9e 3c 24 80 fc bd 1c 9a 45 bd
       0.053260744 0.019376453 -0.123291284 -0.048242673
0002c0 e6 f5 5f 3d 38 37 f4 bc 81 17 e3 3d be 16 1d be
       0.054677866 -0.029811487 0.110884674 -0.15340707
0002d0 2b 02 dc 3d 47 c2 0b 3e b2 a0 83 bb a5 0e e6 3d
       0.10742601 0.1364833 -0.004016959 0.11233262
0002e0 4b 46 56 bc f0 fb b1 3d a8 1d 85 3d 81 4a 2d be
       -0.013078283 0.086906314 0.06499797 -0.16922952
0002f0 a4 a2 8c 3d 10 c6 c8 bb 17 cd 18 3d 13 5e ea 3d
       0.06866959 -0.0061271265 0.037304964 0.114437245
000300 5d b6 d3 bc f0 4b ab 3c f6 27 9e 3c b6 f8 19 3d
       -0.025843794 0.020910233 0.019306164 0.037590705
000310 a3 34 49 bd c3 92 7c 3d b8 6c 1f 3d 00 29 20 bc
       -0.049122464 0.0616634 0.03892204 -0.0097754
000320 d9 ab b5 3a 9d 4f af 3c 46 d4 22 bd 62 18 32 3d
       0.0013860419 0.021400267 -0.03975322 0.043480285
000330 f4 ee 1a 3d 51 bb c0 3c db f5 f4 3c 18 96 a0 3a
       0.03782554 0.02352682 0.02990239 0.0012251763
000340 25 0f 9c 3d f5 62 2a 3c fb b4 76 3d 09 3d 38 3b
       0.07620076 0.01039957 0.06023119 0.0028112552
000350 79 0e e8 3b 2e fb 45 3c 2d 01 13 3d 58 5e 91 bc
       0.0070818034 0.012083812 0.035889793 -0.017745182
000360 4c 02 87 bc e0 b9 dd bc 91 0c 26 bc d4 b8 f2 3c
       -0.016480587 -0.027066171 -0.010134832 0.029629149
000370 9d 6f 2e bd 10 9d 90 bc 60 a8 a1 bc ca e3 ca 3c
       -0.04258691 -0.017653018 -0.019733608 0.024766821
000380 e5 07 d1 bd 7b 8f cf ba 24 e6 ca 3c 2f d9 a7 3d
       -0.10206584 -0.0015835607 0.024767943 0.08195721
000390 23 fe 00 bc f5 89 0b bd 13 c8 96 bd ff 2a c4 3d
       -0.007873091 -0.034067113 -0.0736238 0.09578513
0003a0 09 37 e7 3c 22 fd a9 3b b6 0f 6c bd 4b 4e f6 3c
       0.028224485 0.0051876465 -0.05763217 0.03006663
0003b0 b9 86 38 bd ed d1 2e bd fd fa 6c 3b d0 65 90 3c
       -0.045050357 -0.04268067 0.0036160343 0.017626673
0003c0 8f b8 b2 3c 2d 3b 79 bd 96 90 c5 3c ad 85 c6 3b
       0.02181652 -0.06084745 0.024116796 0.006058416
0003d0 53 19 ae 3c 68 28 ee bd 7e a9 72 bd 36 09 a1 3d
       0.02125231 -0.11628801 -0.05924367 0.07863085
0003e0 25 ff d3 3b 78 95 50 3c a0 03 84 bd 6d ce 36 3d
       0.0064696246 0.012730949 -0.06446004 0.044630457
0003f0 d7 57 86 bd 84 3a 4f bc 4e 4f 90 bd 00 89 ac 3b
       -0.06559723 -0.012648229 -0.07046376 0.005265355

a2c_network.mu.bias f4 [12]
000000 96 c0 10 3e 9a b5 38 be 1d 14 90 3d 03 c0 6c bd
       0.14135966 -0.18038025 0.07035086 -0.057800304
000010 23 23 5c be a6 91 d8 3c ea ac 64 bd f0 d2 90 bd
       -0.21497779 0.026436638 -0.055828966 -0.07071483
000020 60 77 ea 3d 39 9d b3 3d 87 d0 ad bd 68 e4 45 bc
       0.1144855 0.08770222 -0.08487039 -0.012078382

exp_avg f4 [12]
000000 7f 92 ae ba 6f d7 82 3a 6b 0d 26 ba 5c f7 eb ba
       -0.0013318806 0.0009982417 -0.0006334397 -0.0018002796
000010 95 1d 4b b9 05 53 9b ba 9f 82 5e 3a d8 fc b4 ba
       -0.00019370609 -0.0011850303 0.0008488092 -0.0013808263
000020 58 96 5c ba 52 2e 34 3b 17 83 c9 39 c0 a3 41 3a
       -0.0008414737 0.002749343 0.00038435377 0.00073867664

exp_avg_sq f4 [12]
000000 56 7d e0 37 39 5a e1 37 d3 44 e1 37 a1 77 ed 37
       2.6761245e-05 2.6864103e-05 2.6854139e-05 2.8308308e-05
000010 85 ab 01 38 b4 0c ef 37 74 25 eb 37 1a 69 f1 37
       3.0915737e-05 2.8496936e-05 2.8031624e-05 2.877838e-05
000020 e7 ad fb 37 c0 47 e9 37 1a cf e6 37 76 94 ee 37
       3.0002511e-05 2.7809176e-05 2.7514576e-05 2.8440943e-05
