OmniIsaacGymEnvs/omniisaacgymenvs/runs/Naranjelio/nn/last_Naranjelio_ep_9600_rew_13.242832.pth (torch, 672807 bytes, 36 tensors)

value_mean_std.running_mean f8 [1]
00000000: 87f3 ffb3 3c6d e53f
0.6695846095677646

value_mean_std.running_var f8 [1]
00000000: 8466 39c7 beba ca3f
0.20882401206727164

value_mean_std.count f8 []
00000000: 0000 8000 0020 cc41
943718401.0

running_mean_std.running_mean f8 [48]
00000000: b84c 2a38 cf3e a43f cc9b 082e 6190 85bf
00000010: 5117 b108 d377 a23f 89b4 c5f5 8a80 8ebf
00000020: 709c 660b 70ec 8abf 90c1 eb38 4a93 71bf
00000030: a576 aa40 7445 b03f 1463 e0b2 25d1 b0bf
00000040: 5c70 4a97 622a eebf a133 8544 ba95 7d3f
00000050: a1d1 a5a4 575b 86bf 32ef 9938 197a 563f
00000060: c87f 2dee a93e be3f b104 a6fc c4a6 c6bf
00000070: b5bd 20a7 272c dd3e dd48 2bb9 a1dc 8cbf
00000080: 6efa 8145 6100 cd3f 5f33 c60f 5fc0 b5bf
00000090: 56b2 a3e5 0308 d0bf 0479 3e0e ef9a dabf
000000a0: 3c44 4c7e 0223 d43f 054b fb2e 0cda dfbf
000000b0: 2f31 857f 19b9 c1bf 39c3 7ded ed5b dd3f
000000c0: 424a 2544 7a5f 6abf 3e6d c650 390b 283f
000000d0: 768c bd3e 7937 1d3f 113f f25f d5ef 20bf
000000e0: e068 7a1e 3313 76bf 8d83 0485 1278 7f3f
000000f0: 0707 bc64 a318 6c3f e167 1609 d6fd 74bf
00000100: 31c6 c852 f6e2 753f d38b bc15 662b 78bf
00000110: c7f6 f848 2401 5cbf 82f3 9f3c 611f 873f
00000120: d834 a5a2 d25f bcbf 246e 96b5 1973 74bf
00000130: 9a05 3cb6 6f06 d5bf 35cd 1b2b 62d0 dcbf
00000140: caa9 e949 1cd1 b9bf 3603 19c1 dc74 e2bf
00000150: e466 4aca f4df eb3f 83eb d007 bfd5 cc3f
00000160: 76e3 6e4c bf3c db3f b780 4e31 f0ec e6bf
00000170: 12e4 3f88 a042 d2bf 77c4 4401 6ed2 e23f
0.039541698080165444 -0.010529288499197785 0.03607043725109683 -0.014893613458037318 -0.01314628157417827 -0.004290857249302241 0.06355978564030325 -0.06569133393385257
-0.9426739649675357 0.007222869499241919 -0.010916409217977487 0.001371883993129108 0.11814367356191646 -0.17696440063813193 6.9552612434321006e-06 -0.014092696631824381
0.2265740956681443 -0.08496660361397577 -0.25048921037413174 -0.41570640936869574 0.31463682493000866 -0.4976835688404864 -0.13846129156662232 0.4587359256029689
-0.0032193553935624683 0.00018343996670187353 0.00011145284196127807 -0.00012921790764552262 -0.005389403995332581 0.0076828692838554315 0.0034297171858960226 -0.00512488944641551
0.005343401146590974 -0.005900763291523742 -0.0017092565866642527 0.011290321028349263 -0.11083713980515897 -0.004992580821091806 -0.3285178451188472 -0.45021871766876426
-0.10084702305326868 -0.5767654200973087 0.8710884047497669 0.22527301675458142 0.42558271850753415 -0.716423126508764 -0.28531659417746014 0.5881872200753965

running_mean_std.running_var f8 [48]
00000000: 62f2 7de0 cc6c c43f 9fe4 d77f 331a d23f
00000010: be14 4f80 fadc a43f d5a1 6f6c 24fe a03f
00000020: aab3 6f06 331c 863f 8bc7 ed4c ba2f 653f
00000030: 576f 325d 9cd0 a33f bac4 8d27 215e ac3f
00000040: 18c5 5852 503f 823f f749 ff42 3f71 1540
00000050: 0be7 c9f5 c21a f53f 4ad9 f075 cd41 953f
00000060: aa2d d208 7c7b af3f b4e0 3898 ec5f b03f
00000070: 298b 81ec 6d9c 683e 9cdf 7be3 ee4b b13f
00000080: 040e b737 0d6c b43e 0e4d c51b 19fb af3f
00000090: 3144 c450 2d53 ab3f 0598 e22e c93f d53f
000000a0: 1288 40cd 4f83 bf3f 904a 8585 5454 bd3f
000000b0: 01ae 8326 da59 e03f 0b0b fd7f ee35 bd3f
000000c0: 4d02 5dcc 3532 7c3f c043 723f 6e0b 753f
000000d0: 91a6 29bd 1863 343f ced8 eb87 b7cf e53e
000000e0: b7f3 b787 f6f2 613f 8d0c 085b ae0f 743f
000000f0: c220 ee73 3c29 523f 0bba 19af 4864 7f3f
00000100: ac02 b895 65f8 993f 1c29 f790 aff6 773f
00000110: b7f4 5b6b 3895 703f 8aca f8bb 3f13 703f
00000120: 33c0 c1d7 45cf e53f dba7 c3ef 364a e63f
00000130: 3e8f dc76 f39e e53f 7ad7 cd85 5d85 e23f
00000140: caee 3772 7315 e93f 7daa 4ee0 250c d93f
00000150: 416f ef8c 0fa7 b03f 15e6 2668 486b e13f
00000160: 482e a90c 2eef dc3f 13b1 3109 7fa2 d43f
00000170: a3a8 f5ab ee33 e73f d80c 59cd fb83 d93f
0.15957032166979263 0.2828491924734155 0.040748432314595004 0.03318895171816264 0.010795973428651202 0.0025862349206641814 0.03870094907435256 0.05540565116724268
0.008909823906921008 5.360592886764144 1.3190335847015742 0.020758829425369364 0.06148898704222046 0.06396368709909234 4.584165719312746e-08 0.06756489805036242
1.2172506263932008e-06 0.062462601318339236 0.053368965253078555 0.3320181806433314 0.12309740792309778 0.11456802615911443 0.5109682800515999 0.11410418152540218
0.006883821630083786 0.005137854247679152 0.00031108240106068283 1.0400483231514867e-05 0.0021910491029743756 0.004897767139939846 0.0011084642753492057 0.0076639975755896745
0.025361621153936184 0.005850492292163414 0.004048557651683263 0.00392460724065081 0.6815518583298456 0.6965593989273161 0.6756532022013528 0.5787799466477133
0.7838685255842048 0.3913664522648686 0.06504914465716373 0.5443460497110119 0.4520983813897357 0.3224179830347264 0.7250893934808754 0.3986806397771949

running_mean_std.count f8 []
00000000: 0000 0001 0020 bc41
471859201.0

a2c_network.sigma f4 [12]
00000000: 906f d1bf f32b d1bf f25e 90bf 2fa7 b6bf
00000010: abe7 b7bf 8761 0bc0 9166 d8bf 7b2f 02c0
00000020: 3e2c f3bf 3f87 b3bf ad6a acbf f337 d4bf
-1.6362171 -1.6341537 -1.1278975 -1.426977 -1.4367574 -2.1778276 -1.6906301 -2.034148
-1.8997877 -1.4025649 -1.3470055 -1.6579574

a2c_network.actor_mlp.0.weight f4 [256, 48]
00000000: 4431 12bd 215c 95bd 7aca 8cbd 4fd6 85bd
00000010: 54ad 77bd 77e6 30bd 7b55 63bd 7e14 b73d
00000020: bb62 fcbd 277d c8be a9de c83d c258 613e
00000030: 8e21 c7bd e1f4 2a3d 4a28 adbd 1055 04be
00000040: 0ead 823d f0a1 59bc f227 8bbe 4dde e43d
00000050: 1f1f 7cbe 8601 0abe 9f12 36be 4bc6 2f3e
00000060: 8447 713c d30a 873d 2a25 62bd f772 8c3d
00000070: 963f 323c 8028 57be ba1d ecbc 96fc 6abd
00000080: 7861 07be 6dc7 4cbc 7c7e b5bc 5354 c13d
00000090: 8fcf db3d a7bb 81bc 4f2a 263d 84d9 a9bd
000000a0: 6b56 a63c a36c 973d 17a0 5e3d 9ed3 75bd
000000b0: 5865 9f3d b203 b23b 97c8 17be c5aa 11bd
000000c0: acad 21be eb29 67bd d69e 513e a024 ddbd
000000d0: 60ac 05bd 29a5 bcbd 9f73 f73d 6f7a 84be
000000e0: 2e63 083f 7800 12bf e7c9 323e a559 923e
000000f0: 2491 c0bc df59 4a3d d55f 99bd 6f45 39be
00000100: b53b 923d 0672 b03d 187c 9bbc 61bf e33d
00000110: cda3 9a3e 92c5 55be 8f78 1a3d c444 f83d
00000120: e74e 9ebd 649e 933d bc4e 323c 64e9 163d
00000130: 89d5 5a3c 5b27 213c 9988 b1bd e750 18bb
00000140: 3c7e d5bc bd07 3cba ef81 a13d e150 9abd
00000150: 4f91 c43d c2a1 05be 6cc1 c93b ed86 f7bd
00000160: 2299 6f3c c8b7 61bd f6a4 27bd 152a e8bd
00000170: 26e9 ff3d 815d d5ba a4f3 22be 3c70 1ebc
00000180: f01d f1bc bf76 5a3e 311f fabc 39e7 4dbd
00000190: e5c4 dd3c 397f 33be 7fe7 55be c1ff 0dbf
000001a0: 7bec 083d 2c04 87be 3b6a 3bbe 887c cdbd
000001b0: 63f9 933e 0bc0 7a3e ec9e 843d 6344 043e
000001c0: ae39 cbbd 2408 45be a875 40be d76e 70be
000001d0: 1d99 7f3d 90f5 63bd cb63 c23c 7985 aebd
000001e0: 6c70 40bd 44fc 103d 6d39 893c 3d63 c0bc
000001f0: cbea 9fbd d11a 2bbe b184 7b3c 7f6e be3d
00000200: 1215 97bc 3270 ca3a ce77 c53c 18c5 9fbc
00000210: 6950 863d d037 523c 5a14 11bd 85f2 873e
00000220: 80f1 72bc 18dd 1a3e 8365 8d3d 6a7c 1a3d
00000230: e52d 0bbe 4cdd 49bd f0e4 e3bc cf5c bcbd
00000240: 4348 e9bc 9b24 143e ebfe 6d3d bb49 2cba
00000250: 1ad1 303c 1fc0 b2bc 4b42 b7bd e2db 9fbd
00000260: 4ab9 bf3e 6da2 91be e618 95bb 6603 093f
00000270: 7bae 5d3d 1c7a 8abe dfff c43d 56bf 37bc
00000280: 71dd d23c 12da b5be 9bce 153e 6f50 aa3d
00000290: df8e 83bd c5bb b13d 1f9f 40bd 7c14 c9bd
000002a0: a8d3 013c e56c f3bd a791 bb3a 5934 203d
000002b0: 9d13 eb3c cdac eb3d d477 07bd 50a3 1cbd
000002c0: da6e 63bd 7ca2 f83b 7313 63bd 4a6c 56bc
000002d0: d28c f43b 258e 5abc a901 403e 4370 a8bc
000002e0: 427f 3cbc 78cb 993d b8a8 9d3d 2194 513e
000002f0: 9cf6 a9bd 7b81 363d accc 69bd 2367 743d
00000300: 6cb5 81bd ca36 173e 96e6 d6bd 4e22 08bb
00000310: b7f5 1abd 3c6f 5e3d b144 05be 9209 43be
00000320: f8fa 5cbe 2676 90be c06f 813e 5a0c 1abc
00000330: 6e1d 5bbd 0e1d 823e 0989 073e f825 0f3e
00000340: 9691 f63c c763 7bbd a970 da3d eb0b 9dbd
00000350: ca77 fc3d 2613 723a 130d 443e 230e 553c
00000360: 8198 56bd 1faf 7fbc 0f45 f6bc 6b57 873c
00000370: b991 bdbc 7359 033c 4575 b73c b68f 3abd
00000380: 92be 2ebc 19e8 773c 0d21 983d 3fe8 d03b
00000390: 5946 163b 7db6 333d 17fb 993d 6734 c2bc
000003a0: 0fab 843d c080 55bd fe1a c4bc 890b 263d
000003b0: 58bd 003e 41e5 a0bd 957b ef3d a6d0 2a3c
000003c0: 699e 2cbe 0a23 1ebc 7e9c 3d3e 2da2 513d
000003d0: 8510 5fbd fee3 813d 491b a2bd 5efa 12be
000003e0: 53ad 3ebe 7ccc a6bd 0193 1cbe 415d dcbe
000003f0: a5d6 ee3d 0c05 b2bd 0e8e c8bd 6679 1abd
-0.035691515 -0.07292963 -0.06874557 -0.06535017 -0.060468033 -0.04318854 -0.055501442 0.089394554
-0.12323519 -0.39157984 0.09808094 0.22006515 -0.09723197 0.04173744 -0.0845495 -0.12923074
0.06380664 -0.013283238 -0.27178913 0.11175213 -0.24621247 -0.13477144 -0.17780541 0.17165487
0.014726523 0.065938614 -0.055211224 0.06857865 0.010879418 -0.21011543 -0.028822768 -0.05736979
-0.13220775 -0.012498719 -0.022155039 0.09439912 0.10732948 -0.01583655 0.040567692 -0.08293441
0.02030488 0.07393768 0.054351892 -0.060016267 0.07783002 0.0054325694 -0.14822613 -0.03556325
-0.15788907 -0.05643646 0.20470747 -0.10798001 -0.032635093 -0.09211189 0.120826 -0.2587466
0.53276336 -0.57031965 0.17459832 0.28584018 -0.023506708 0.049402114 -0.07488982 -0.18092893
0.071402945 0.08615498 -0.018980071 0.11120487 0.30203095 -0.20876148 0.03771263 0.12122491
-0.07729893 0.07207945 0.01088303 0.036843672 0.013356575 0.009836043 -0.08668632 -0.002324158
-0.02606117 -0.0007172784 0.07886111 -0.07534958 0.09598028 -0.13049987 0.006157091 -0.12086282
0.014623912 -0.055106908 -0.040928803 -0.113361515 0.124956414 -0.0016278477 -0.15913254 -0.009670313
-0.02943322 0.2133436 -0.030532451 -0.05026934 0.027071426 -0.17529 -0.2088909 -0.55468374
0.03342865 -0.2637037 -0.18302242 -0.10033518 0.28901204 0.24487321 0.064756244 0.12916712
-0.09923111 -0.19241387 -0.18794882 -0.23479782 0.06240188 -0.05565411 0.023729226 -0.08521552
-0.046982214 0.03539683 0.016751016 -0.02348482 -0.07808455 -0.16709448 0.01535146 0.09298419
-0.018442664 0.0015444814 0.024104979 -0.019503161 0.06558306 0.01283069 -0.0354198 0.26552215
-0.014828086 0.15123403 0.069041274 0.037716307 -0.13591726 -0.04928331 -0.027819127 -0.09197389
-0.02847684 0.14467089 0.058104437 -0.0006572266 0.010792041 -0.021820126 -0.08948191 -0.07805611
0.37446052 -0.28444234 -0.0045500873 0.5352081 0.054121476 -0.27046287 0.09619116 -0.011215052
0.025740357 -0.35517937 0.14629595 0.08316123 -0.06423735 0.08678392 -0.04702675 -0.0981836
0.007923998 -0.11886004 0.0014310376 0.039112423 0.028695876 0.115075685 -0.03307326 -0.038241684
-0.05552564 0.007587729 -0.05543847 -0.013087342 0.007463076 -0.013339554 0.18750633 -0.020561343
-0.01150495 0.07509512 0.07698196 0.20466663 -0.0829899 0.044557076 -0.057079956 0.05966867
-0.063334316 0.14766994 -0.104931995 -0.00207724 -0.03783199 0.0543053 -0.13014485 -0.1904662
-0.21580112 -0.2821514 0.2528057 -0.009402359 -0.053494863 0.25412792 0.13235869 0.13979328
0.030098718 -0.061374452 0.106660195 -0.07668289 0.123275355 0.0009234421 0.19145612 0.013003859
-0.052391533 -0.015605717 -0.030062227 0.016521176 -0.023140775 0.008016932 0.022394786 -0.04554721
-0.010665553 0.01513102 0.07428179 0.006375342 0.0022930114 0.043875206 0.07518595 -0.023706628
0.06477939 -0.05212474 -0.023938652 0.040538345 0.12572229 -0.07856227 0.11693493 0.010425722
-0.16857304 -0.009651909 0.18516728 0.051180054 -0.054459114 0.06342314 -0.079153605 -0.1435332
-0.18620805 -0.08144471 -0.15290453 -0.43039897 0.11662034 -0.08692369 -0.0979272 -0.03771343

a2c_network.actor_mlp.0.bias f4 [256]
00000000: 0662 42be acfb dfbd 0a5c 6cbc a4f6 7538
00000010: 0802 623e dd8c 8e3c c22b 93be 16a6 bdbd
00000020: d0af 24be ea4f 863e 3d96 56bd 386a 70bb
00000030: cfc3 013e 46b7 87be 633c 533e 403c 543e
00000040: 9657 a23e 4f3c 88be 60c9 7f3e 1fb3 84be
00000050: 9a63 59bd 5d5f eab9 6a06 553e d547 62be
00000060: 3094 2b3e ad36 95be c017 3ebe 7c78 5bbd
00000070: 16ac 973c ccc7 1f3e 21d1 613e fbc3 e33a
00000080: 4b8e 07be 1189 013e b513 ecbd 9e28 00be
00000090: 77b5 b33e f94f 83be 2f1d 1f3e 0615 bb3e
000000a0: b753 5e3e a9c5 883e 643d b33e 44d9 053e
000000b0: 267d 2cbe 284e 8f3e 40d1 19be 69fa 8b3e
000000c0: 7779 943e 905d 56be 622f 783e f22e 08be
000000d0: 76db 0dbd 397b 02be 36e7 5f3e 54aa 91be
000000e0: 4f18 af3e 6619 76be 2b83 4b3e 2637 60be
000000f0: f758 ff3c f86d 2ebc 2be1 6e3e 1d82 21be
00000100: cd20 943d 1ba6 59bd 3990 55be cac6 a0bc
00000110: 36cf f13d 2a5e 68be a905 803e c874 46bd
00000120: 7f32 12bd f1b9 063e cb24 963c fa01 733c
00000130: b36f b53e 2a0c 203e 7b0f 533e bf7d 43bd
00000140: f3f2 db3d 1ae1 3fbe ff02 693c c0c1 513e
00000150: f240 993e db3a 36be 1855 fa3d 5f3b 593e
00000160: 1b85 293e fdfc ffbd a488 0bbe d586 6a3e
00000170: ddbd 073e 8ec3 18be 4791 8f3e 67f1 633e
00000180: 004f 85bd 1a1d bb3e 8c85 9e3d 0822 b63d
00000190: 6b41 f6bc 77fb 073e 9035 a93e 931d ee3b
000001a0: 9d97 9c3e 875a 4b3e ec73 563e d104 9f3e
000001b0: 0e7b b73d b3c0 c5bc b6ea 75be b858 b33e
000001c0: 7edb afbe 566a a53e be4a a93e 7401 803e
000001d0: 95f5 40bd 83d7 44be 98fd 5e3e 06ef 323e
000001e0: 7a1e 53be bb9f 8f3e 7c8b debd 4f03 883e
000001f0: a78b 8e3e 9a33 b13d 0364 18bd ab2a a33d
00000200: 6cf9 3ebe 4f94 963e 39d0 873c 9ce4 34be
00000210: 52b8 8a3d 1574 e2bd 5df9 b03e 0403 553e
00000220: 2df6 a73d 1e3f 51be 43fe 5b3e cbab bf3d
00000230: 5732 90bd 36c4 673e 3ca6 253e 1d1a 943d
00000240: 03d1 3cbe 17b6 723e c55d b53d 9993 503e
00000250: 0e92 3dbe 5c11 b83d abef 86bd abb6 9a3e
00000260: 4d4d aa3e 6a5f 2a3e b0da b3bd 0b3b 87be
00000270: 71ae 85be e502 953e b3aa 02be 43c8 99bd
00000280: 543e 88bd a5ee 45bd d67a ffbd 55cd a8be
00000290: 5524 f73c 3540 693e 3679 53be e33d 2fbc
000002a0: 20a2 1dbe 20c0 123e deaf ecbd 375b d53d
000002b0: bfed 973e 4092 91bc 556c 22be e0ee 523e
000002c0: d218 7f3e 7b1e c13e 9b0a 9b3e 9073 8cbc
000002d0: 6654 9c39 530a d03e a08f d7bd a961 8b3e
000002e0: 281e 783e e795 39be 5359 403e 3bbb 21be
000002f0: f167 adbe e88a bc3d 59a2 49be fbdd 033e
00000300: a1aa e7bd 97b5 8f3c cca7 323e 8c9c 83bd
00000310: 54d0 e83c cec2 533e 1167 7c3e d517 9abd
00000320: 4039 803c 32c6 1ebe 0016 8c3e c691 4fbd
00000330: f4b7 f83e 9aca e7bc ff56 89be 2b9c 403e
00000340: 8c5d debd 907e 3d3e efcb 883d e4d9 6d3e
00000350: 7140 653e 89a0 003e 5b07 2f3e c377 283e
00000360: 29e7 10bd 7407 223e a970 733e 0e67 af3d
00000370: 20ba 183e 51dd 47be 049f 9f3e 79d9 74be
00000380: 43db 3dbe d8bf e93e 7ffe a63e d282 3dbe
00000390: f6d4 963d d3a2 833e 7d82 f23c 6cb3 58b9
000003a0: ae06 9b3e 890e b83e e186 a83e 2759 81bc
000003b0: ed4f 93bd 419b 3b3e bd02 553e 8282 8d3d
000003c0: 4489 793d 3814 923e 77b7 863e c3be ba3e
000003d0: fd11 28be 06df 733e 8e7d ccbd 8bb8 a33d
000003e0: 58bd 693d 402a 39be ab6b 913c 9c7d 45be
000003f0: d338 293e 4465 22bd d26d d83b 4e8a 343e
-0.18982705 -0.109366745 -0.014426241 5.8642254e-05 0.22071087 0.017401153 -0.28744322 -0.09260194
-0.16082692 0.26232845 -0.052389372 -0.0036684405 0.12672351 -0.26507014 0.20628504 0.20726109
0.31707448 -0.26608512 0.24979162 -0.2591791 -0.053073503 -0.0004470301 0.20803228 -0.22097714
0.16755748 -0.29143277 -0.18563747 -0.0535817 0.018514674 0.1560356 0.22052433 0.0017377132
-0.13237874 0.12649943 -0.11527196 -0.12515494 0.35099384 -0.25646952 0.15538476 0.36539477
0.21711622 0.26713303 0.35007775 0.13071162 -0.16844615 0.27989316 -0.15021229 0.27339485
0.2899892 -0.20934129 0.24236825 -0.13299158 -0.034633122 -0.12742318 0.21865544 -0.28450263
0.34198233 -0.24033126 0.19874255 -0.21896037 0.031170351 -0.010646336 0.23328082 -0.1577229
0.07232819 -0.053136926 -0.20855798 -0.01962604 0.118071005 -0.2269217 0.25004318 -0.048451215
-0.035692688 0.13156869 0.018328091 0.014832014 0.35436782 0.1562964 0.20611374 -0.047727343
0.10739698 -0.18738213 0.014221906 0.20484066 0.29932362 -0.17795889 0.122232616 0.21214055
0.16554682 -0.124994256 -0.13626343 0.22902997 0.13256021 -0.14918348 0.28040525 0.22260056
-0.06509209 0.3654564 0.07740316 0.0889321 -0.03006049 0.1327952 0.33048677 0.007266709
0.30584422 0.19858752 0.20942658 0.31058362 0.08959018 -0.024139738 -0.24015316 0.35028625
-0.34347147 0.3230769 0.33064836 0.2500111 -0.047109205 -0.19222836 0.21776426 0.17473993
-0.20617095 0.28051552 -0.10866448 0.26565024 0.2784092 0.0865242 -0.037204754 0.07967123
-0.18649834 0.29410025 0.01657878 -0.17665333 0.067734376 -0.11057297 0.3456525 0.20801932
0.08201251 -0.20434234 0.21483712 0.09358939 -0.070408516 0.22633442 0.16176695 0.07231543
-0.18439107 0.23702274 0.08855776 0.20368804 -0.18512747 0.08987686 -0.06588682 0.3021749
0.332621 0.1663796 -0.08781946 -0.26412234 -0.2610965 0.2910377 -0.12760429 -0.075089
-0.06652513 -0.048323292 -0.12474601 -0.32969156 0.030168692 0.227784 -0.20651707 -0.010695907
-0.15393877 0.14331102 -0.115569815 0.104177885 0.29673573 -0.017769933 -0.15861638 0.20598936
0.24911812 0.37718567 0.3028153 -0.017144948 0.0002981752 0.40632877 -0.10525441 0.27222946
0.24230254 -0.1812359 0.18784074 -0.15794079 -0.33868363 0.09206182 -0.19690837 0.12877648
-0.11311842 0.017542643 0.17446822 -0.06426343 0.028419651 0.20679781 0.24648692 -0.07524077
0.015652299 -0.15505293 0.27360535 -0.05067613 0.48577845 -0.02829485 -0.26824185 0.18809573
-0.108576864 0.18505311 0.06679522 0.2322765 0.22387864 0.1256124 0.1709265 0.16451935
-0.0353767 0.15823156 0.23773445 0.08564578 0.14914751 -0.1951802 0.31176007 -0.23911084
-0.18540673 0.45654178 0.3261604 -0.18506935 0.07364838 0.25710163 0.029603237 -0.00020666205
0.30278534 0.3594859 0.32915404 -0.015789581 -0.07192979 0.18320943 0.20801826 0.06909658
0.060921922 0.2853105 0.26311848 0.36473665 -0.16413112 0.23815545 -0.09984885 0.07994183
0.057065338 -0.18082523 0.017751535 -0.19286197 0.16525583 -0.039647356 0.0066048885 0.17630884

a2c_network.actor_mlp.2.weight f4 [128, 256]
00000000: 599a 32bd 76b4 523d f633 17be 2f37 1fbd
00000010: 7cc2 20be 7d56 4f3d 875b e8bd 7ea3 2a3d
00000020: a759 e9bb ab66 b73d 3417 ebbd 1239 c7bc
00000030: a7c3 013e 279b 31be 8d2f 7e3d 9e77 c43d
00000040: 65d1 66bc 0767 2b3e 43e2 80bc 911a 0ebe
00000050: 0936 7ebd 3efd cebd ba09 263d 2cb1 143e
00000060: 19ee f73b ec02 53be 1593 96bd eb7d d5bd
00000070: 46b2 a0bd 8342 363d 6f15 ca3d 0e66 d3bd
00000080: 0186 d33c ecb9 2c3d cc5b 84bd 3eed c1bd
00000090: 5a14 69be 6a17 e0bd 5fb6 5a3d d3f4 953c
000000a0: 880c 2a3d b25f 86bc 0490 d2bd 01ac 883d
000000b0: 9b3e 5bbc 9f0f c5bc e44e 7fbe ebfa 18bc
000000c0: aefb 793d ce65 90bd 822f bbbd 0538 3b3d
000000d0: 3a61 3cbe f0f1 413e e904 5fbe f898 8dbb
000000e0: 0178 4bbe e2c8 443d cd84 74bd 3629 1d3e
000000f0: 0b98 0c3c d94b f13d 7561 91bd 24bd 4e3e
00000100: 82be b1bd c7f4 ba3d adab 163d ceab 873d
00000110: e72b c0bd 1dfb 95bd 2b20 6dbd bb9d 5dbd
00000120: 143f 24bc 9d3f a23d f12b d33b 8af7 dcbd
00000130: 2a2b b0bc 4094 cbbd bd0f fbbd 487b f8bd
00000140: 7ff1 093e 6e64 eb3d c41f 26bd c19b 93bd
00000150: 5c00 c1bd 754f d4bd ba90 7fbe 61fb a5bd
00000160: 7638 47be 191c 65bd 1617 e43d b736 743d
00000170: 4540 3abe eb1c e93b 667e 923d f7c4 463d
00000180: e7fc eebd 0ce5 5abd 2148 81bd 6945 ee3d
00000190: a1dd bbbc 2381 0bbe 4d06 12be aaed ea3d
000001a0: 718e 34be d631 943d 598e edbd 05aa 84bd
000001b0: 11cb 75bd 2a4e 1abe bc44 8dbd 82c8 c53d
000001c0: 0e7d 20bb 0c43 763d 096d 67be 506e a6bd
000001d0: 28cd 5ebe fd87 c93c 21e0 c23d c8f4 0fbe
000001e0: 1e28 b93d c938 cebd 358f afbc 864a 66bd
000001f0: 15d4 aebd c9f0 fabb edc1 6b3c 2b25 743e
00000200: a161 9cbd a2fb 3ebe 1e27 84be a2df 14bc
00000210: 1a5d dcbc 8d23 34be b09c 293d 497f 163e
00000220: 4ce6 5abe b84a 3cbd cde4 b5bb f9c9 15bb
00000230: 2dd5 32be 5eb0 1bbe 8dc0 b23b eed2 783e
00000240: 476d 88bd dfec 9abd 36ac c2bd 3817 e93d
00000250: ccc4 0e3d e029 9ebd abc6 173d 0f2a d2bd
00000260: d33d d9bd 1875 bcbd f847 8cbd 88ed 003d
00000270: 65c0 003d 0517 91bd 6006 5d3e 4166 92bd
00000280: fc1f 7f3d 2801 60be ac24 31be 5378 09bb
00000290: bd7c 09bc ba27 82bd ec93 903c d6aa c43d
000002a0: d667 2cbe 5574 8b3c b431 07be 51ed 883d
000002b0: 098c efbc 14c8 e1bd a399 f5bd 78da 2d3e
000002c0: 93c4 e83d abff 38bd 56c4 c53d fb71 44be
000002d0: 4ba7 98bb b8e6 b6bd ad3d 6cbe 431e d9bd
000002e0: a22b 863c dab1 ec3d d20c c13d dd89 9e3c
000002f0: 86cd 3b3e dd94 e8bb adf4 94bd 5d91 3b3e
00000300: 1d11 d7bc ef35 c73d 768d 19be 61ae 4abd
00000310: 9381 acbd da70 d9bd 0383 c2bd 435d 84bd
00000320: 0447 c93d 17e4 883d 0923 46be d0a6 9abe
00000330: 1cc3 47be 5567 ee3c 9fd7 05be 2998 a23d
00000340: db68 1c3d 1a2d 4b3d f24a 26be 5bcc 1f3c
00000350: aea9 5ebe 74bd 80bd aaa2 103e fb43 083d
00000360: 6c8b 113e cd0d 903d 3f98 1fbe 8642 dbbd
00000370: a686 9cbd 86ab 103e e36f 24be 7f68 85bd
00000380: 8836 3d3d d22a 30be 4bbe 8d3d 7c76 d9bd
00000390: f2fc d33c 20d0 8cbc 1304 5ebe e830 553e
000003a0: 9b58 c8bb b1aa 0e3e 3f41 cc3c 57b2 bd3d
000003b0: b440 13be f9a0 fa3c b6bf 463e 4d1f 93be
000003c0: 58eb f03b 5964 2c3e 8b56 8bbd cf33 1bbe
000003d0: 07a6 80bd 16bd f0bb 1de9 fc3d 2a6c 9fbc
000003e0: e537 293e acc6 eebc f747 28be 9865 86bd
000003f0: b2f9 073e 6086 b33c 2c41 833d 6cc3 213e
-0.04360423 0.051441632 -0.14765915 -0.038870987 -0.1569919 0.05061959 -0.113455825 0.041659825
-0.007121283 0.08955129 -0.11479035 -0.024319205 0.12672292 -0.17344342 0.062057067 0.09593128
-0.0140880095 0.1673852 -0.01573289 -0.13877322 -0.06206325 -0.10106896 0.04053662 0.1452071
0.0075662252 -0.20606583 -0.073522724 -0.104244076 -0.07846503 0.044497024 0.098673694 -0.103222
0.025820734 0.042169496 -0.06462821 -0.094690785 -0.2276167 -0.10941966 0.05339658 0.018305218
0.041515857 -0.016403053 -0.10281375 0.06673432 -0.0133816255 -0.0240553 -0.24932438 -0.009337167
0.061031036 -0.07050668 -0.09139921 0.04570772 -0.18396464 0.18939948 -0.21779217 -0.004321214
-0.19869997 0.04804314 -0.05969696 0.15347752 0.008581172 0.11782045 -0.070986666 0.20189339
-0.086789146 0.09128719 0.036784817 0.06624566 -0.09383374 -0.07323287 -0.057892006 -0.0541055
-0.010024805 0.079222895 0.006444447 -0.10789402 -0.021504957 -0.09940386 -0.12258861 -0.12132889
0.1347103 0.11493765 -0.040557638 -0.07207442 -0.09423897 -0.10366718 -0.24957553 -0.08104587
-0.19455132 -0.055935 0.11137216 0.059622493 -0.1818858 0.007114043 0.07153015 0.048527684
-0.11669331 -0.053441092 -0.063125856 0.11634333 -0.02293283 -0.1362348 -0.14260216 0.11471112
-0.17632462 0.07236068 -0.11599416 -0.06477741 -0.060008112 -0.1506888 -0.06897876 0.096573845
-0.00244886 0.060122535 -0.22600187 -0.08126509 -0.21757948 0.024600977 0.095154054 -0.1405822
0.09040855 -0.10069425 -0.021430591 -0.056223415 -0.08536545 -0.0076580984 0.014389497 0.23842303
-0.07635809 -0.18650678 -0.25811094 -0.009086521 -0.026899863 -0.17591687 0.041409194 0.14696993
-0.21376914 -0.045969695 -0.005550957 -0.002285598 -0.17464133 -0.15203997 0.0054550827 0.24299213
-0.06661468 -0.07564711 -0.09505503 0.11381382 0.03485565 -0.07722831 0.0370547 -0.10261928
-0.10607495 -0.09202021 -0.068496644 0.031476527 0.03143348 -0.07084469 0.21584463 -0.0714841
0.062286362 -0.21875441 -0.17299145 -0.002097626 -0.008391556 -0.063552335 0.01764866 0.09602897
-0.16836485 0.017023245 -0.13202554 0.066858895 -0.029241579 -0.1102449 -0.119921945 0.1697787
0.113656186 -0.0451657 0.09656589 -0.19184105 -0.0046586148 -0.08930725 -0.23070402 -0.10601475
0.016378228 0.1155736 0.094262734 0.019352848 0.1834012 -0.007097824 -0.07273231 0.1831717
-0.026253277 0.09727084 -0.1499537 -0.049482707 -0.08423152 -0.10617228 -0.09497645 -0.06463101
0.09827998 0.0668413 -0.19349302 -0.30205393 -0.19508022 0.029102007 -0.13070534 0.079391785
0.038185935 0.04960356 -0.16239527 0.009753312 -0.21744415 -0.06286135 0.14124551 0.033267956
0.14213341 0.07033882 -0.15585421 -0.10706048 -0.0764287 0.14127931 -0.16058306 -0.06514072
0.046194583 -0.17203835 0.06921061 -0.10618302 0.02587745 -0.017189085 -0.21681242 0.20819438
-0.006114078 0.13932301 0.024933456 0.09262531 -0.14380151 0.030594336 0.1940907 -0.28734818
0.007352274 0.16835155 -0.06803616 -0.15156482 -0.06281667 -0.0073467596 0.1234915 -0.019460756
0.16525228 -0.029147469 -0.16433702 -0.06562346 0.13278845 0.02191466 0.06408915 0.15797204

a2c_network.actor_mlp.2.bias f4 [128]
00000000: a6a3 1fbe ba33 a6bd 006a 1ebe 6c20 a2bd
00000010: 96c0 19bd e72c 08be 1c8f 94be e176 60be
00000020: ebe8 88be 15ba c4be 8a4c e6bc 5156 09be
00000030: 2b8e 91be 86ae d33c 6f98 95bd f74c 4a3d
00000040: e056 47bd 5d6d 31be 6bb0 51be c53d 193e
00000050: 36de a0bd c873 63be 795d a3bd 4efe 22be
00000060: 4b76 323d b021 5fbe b16b 93bd 201d 413d
00000070: 0a22 a1bd 2236 c6bd 9426 ab3d d69b 363e
00000080: d152 a2be c6af 53be 2c4c 3e3e 6c9f 9c3d
00000090: e91d 4fbe 1d80 2ebd 5af7 033e 894f 783d
000000a0: d14f 09bc 23e3 5ebd 68c2 93be 4c6a 80be
000000b0: 842f a1bd 85be 74bd d94e d7bd 62ef 6ebe
000000c0: ca16 d7bd 69d4 2ebd 21d0 9bbd 81d6 c3bd
000000d0: 7e36 82be 721a 93be 5f35 2d3d 3663 ffbc
000000e0: f09c 023d 964d 17bb 5e2a 12be d560 ca3b
000000f0: 4925 03bc 3f59 84bd 3af9 9abd 810b e1bd
00000100: 4c79 04bc 98c4 45bd aece 10be 297e 52be
00000110: c576 9bbc 261c 253d d17c 0ebe 5488 59bb
00000120: e9ea 39be 5c7f 37bd f19c 00be 42b3 c83d
00000130: dacf 213a 2f74 04be 406f 4bbe 46f6 9ebc
00000140: fbe6 69be 5bb9 3abe 0e27 7abe 62f0 3abd
00000150: 7424 12bd 9ca5 073c 8bd7 b3bd 66bb 5ebe
00000160: 9ca6 08be 46ae 5bbe 241d 6d3d 73e5 05be
00000170: 538a 08be 05b1 13be 7a49 b6bd 22eb 793b
00000180: 9c00 0fbb 59f4 0abe bf53 093d fed1 aabe
00000190: b938 83be 6269 36be 3c16 2cbe 76fb 57be
000001a0: 48a4 c9bd da43 f2ba 2155 21be d1aa 393e
000001b0: 15c1 1fbe e286 fabd 3121 62be 4580 e5bd
000001c0: c8b0 94bd dd32 2ebd bc1e 823d 2f19 b3be
000001d0: c5a2 74be 5257 2ebd 4f26 15bd db5d 333e
000001e0: 111a 3cbe 980e ccbd 6419 61be a1df 283c
000001f0: ec5f 0ebe 1fc4 65be 823e b6bd 8f18 42be
-0.1558977 -0.08115335 -0.15470123 -0.0791634 -0.03753718 -0.13298379 -0.29015434 -0.21920349
-0.26740202 -0.3842322 -0.028112669 -0.13411833 -0.28428778 0.025840055 -0.07304465 0.049389806
-0.048666835 -0.17326875 -0.20477454 0.1496497 -0.078548834 -0.22212136 -0.07976813 -0.15917322
0.043569844 -0.21790195 -0.07198275 0.047146916 -0.078678206 -0.09678294 0.083569676 0.17832884
-0.3170381 -0.20672521 0.18583745 0.07647595 -0.20226254 -0.042602647 0.12887326 0.060622726
-0.008380846 -0.054415833 -0.28859258 -0.25081098 -0.07870391 -0.059752006 -0.10513086 -0.23333505
-0.105023935 -0.04268304 -0.07608057 -0.09562398 -0.254322 -0.28731114 0.042287227 -0.031175237
0.03188795 -0.0023087016 -0.14273974 0.006176094 -0.008004495 -0.06462335 -0.075670674 -0.10988522
-0.00808556 -0.04828319 -0.14141342 -0.20555939 -0.018977532 0.040310048 -0.13914801 -0.003319283
-0.18156017 -0.044799194 -0.12559868 0.09799816 0.0006172635 -0.12934946 -0.19866657 -0.019404542
-0.22842018 -0.1823477 -0.2442896 -0.045639403 -0.035679296 0.00827923 -0.08781346 -0.21751174
-0.13344806 -0.21453199 0.05788912 -0.13075809 -0.13334017 -0.14422996 -0.08900733 0.0038134535
-0.0021820432 -0.13569774 0.033527132 -0.33363336 -0.25629213 -0.17813638 -0.16805357 -0.21092018
-0.09845787 -0.0018483356 -0.1575513 0.18131568 -0.15600999 -0.12232758 -0.22082974 -0.11206106
-0.07260281 -0.042528976 0.06353518 -0.3498015 -0.23890217 -0.042563744 -0.036413487 0.17516272
-0.18369319 -0.09963721 -0.21982342 0.010307224 -0.13903779 -0.22438096 -0.08898641 -0.18954681

a2c_network.actor_mlp.4.weight f4 [64, 128]
00000000: 241d fa3d 0f12 8e3d e592 dc3d 05d8 833c
00000010: 043f 5f3b a54d 5abd 933f 6cbd 4933 8cbd
00000020: a6ac 743e 0dcb 163e 5ebd 7fbe 2580 e53a
00000030: d639 d93d 201d 0c3e 2cbf babd 85f4 e53d
00000040: f1fc e9bd 68f8 a13d 8c55 3dbd de49 89be
00000050: 0d8c bd39 83c7 313e a48c 5b3d faea 93bd
00000060: 7cc3 30bd 9b44 ecbc 0fd0 033e c881 37bd
00000070: 6b28 83bb 8b3a 17bd 34ae 78be 9f25 b53c
00000080: c2db 0dbd 53b4 1ebe 5ebf b0bd 57cc 59bd
00000090: 417d ce3d 7d10 47bd 0189 10bd 6904 2fbe
000000a0: 5dd3 16be 9099 de3c 66dd 383e 1aa7 15bd
000000b0: 7154 c8bd cd54 51bc c9f4 e43d 7794 13bd
000000c0: 35fe a3bc 1997 23be 181e 663c 4bcc 933d
000000d0: bfcc c13c 0d9e 343e ca02 c33b c7d6 ecbd
000000e0: 63f8 5d3d e1cb 2ebe e8f9 1e3d c78d 023e
000000f0: 2fd5 a0bd 1b18 b3bc 224f ce3c 1957 723d
00000100: 3fa3 fcbd 26f1 96bd b150 6cbd fec6 783d
00000110: 45d0 8fbd 745f 62be a487 64bd 1037 8b3d
00000120: e2bb ea3b d8fa 1a3d b3b8 c23d fe6b 88bc
00000130: 9fe8 073d 68bc 3c3c 63fc 78bd 7420 df3d
00000140: 12f5 11be e3fe 47bd 4edd 3bbe 11ed 29bd
00000150: 8b10 11be 2385 97bd b5ea 803d e6b7 253e
00000160: c90a 90bd 70e3 30bd df23 babd b670 33bd
00000170: b9b4 1a3e 5eec 253d d896 8a3d ae92 50bd
00000180: 7f67 9ebe 2367 acbd f94b 0e3d 12dd b73d
00000190: b9ee ad3d e7c7 0ebd 9459 8a3d 77ee 2abe
000001a0: 8653 443d 2148 a63d 332d a63d 4127 ed3c
000001b0: 57d4 25bc b4da 833d b3fe febc 36ff ae3d
000001c0: bd81 4f3c 661e f93c 35ce d9bd 4cd4 103d
000001d0: fa7c 2cbd 4bdf e9bd 97e2 f9bc 9f49 f63c
000001e0: 33d9 47bd 92ef 173d 6973 2e3d a82a 12bd
000001f0: 91df 9fbd b0c1 543d 3a0d 75bd 0c8e 26be
00000200: e09d 07be 47b7 a13c 4074 023e c9fa 593c
00000210: 81a5 8f3e 70b3 0dbe b003 4c3d af3b 123e
00000220: 8526 3b3d d242 76bd 562d 183e 7c53 32be
00000230: 2b1b e83c 8788 1e3d f7d8 96bc 0868 d1bd
00000240: 7f63 203d fa02 073d 7d17 a13d 0cb7 673d
00000250: 3ece 343e 6aa1 dbbd f352 04be a4aa f83d
00000260: 5b43 9b3d f6e3 1dbe 7823 18bd 0404 a9bd
00000270: 05fe 163d ddaf d23d d5f0 aabd 54ed 293d
00000280: 50bf a53d d6ec 103d 076f 6d3c 9113 65be
00000290: cf78 c43d 183c f2bd 5fdf ebbc 7013 15bd
000002a0: 8efb 7abd 08c1 3fbd 900a 113e 85c9 e43c
000002b0: 3d49 343c cb4b a0bd fc4b 07bc e005 83be
000002c0: 43d3 633d ee8a e73c 27a0 dcbc b291 0a3d
000002d0: a965 493e 063b 003e 2495 e0bd 2fbf 163d
000002e0: f012 c2bd 62f4 21bc 3c65 103e 796a 78bd
000002f0: b031 9e3c 1edd 44bd 3d77 653e 3671 743d
00000300: 9dd8 3a3e 2697 5a3e 5e92 e4bd cb26 0cbd
00000310: 6bae 41bd 891f 74bc ff47 aebd 4772 bebd
00000320: ce3f 723d 97a6 ce3d b67d 8dbd bd1f 46bc
00000330: 63b9 70bd df40 9ebc 0e82 c9bb 2ab1 71bd
00000340: beac 8fbd 8862 31be 32e8 4b3d 54b7 88bd
00000350: c855 a5bd 99f9 45bd 32d4 0cbe b43c 12bd
00000360: 35ae 32bd 3ed7 babd 6d91 bcbc 3b8e a63d
00000370: 6138 e83d 0255 bb3b 4e8a 5b3e a6a9 cabd
00000380: 06d7 80be 5ae0 e43b c7f3 0f3e 0c01 4a3e
00000390: 458a 14bb c7d3 d43d aee2 32be a76b 7bbe
000003a0: 0d49 cb3d 1b2c 17be 88fd 0cbe 1df1 2dbe
000003b0: b4ef 993e f9a2 173e fe06 61bd 3356 bcbd
000003c0: a2aa b9be d195 2bbe 147b c63d 96eb a53d
000003d0: d3ab b93c c2ee fcbc 2cfc 4c3b 89b3 36bc
000003e0: 43a5 afbd 517d 89bd 1852 1ebd b029 28bd
000003f0: fa7f c13d b8ea ad3d 25d7 1f3e f4cd 633b
0.122125894 0.06937038 0.107702054 0.016094217 0.003406466 -0.053296704 -0.057677817 -0.06845719
0.23893985 0.14725895 -0.24974582 0.0017509504 0.106067345 0.13682985 -0.091184944 0.11228279
-0.11425198 0.07908708 -0.046224162 -0.2681417 0.00036153235 0.17361264 0.053600922 -0.072225526
-0.04315518 -0.028841307 0.12872337 -0.044801503 -0.004002621 -0.036921065 -0.24285203 0.022112666
-0.034633406 -0.15498476 -0.086302504 -0.05317339 0.10082484 -0.04859971 -0.035286907 -0.17091526
-0.14729066 0.027172834 0.18053207 -0.036536314 -0.09781731 -0.012776566 0.111795016 -0.03603026
-0.020018676 -0.15975608 0.014045261 0.072167 0.0236572 0.17638417 0.00595126 -0.11564403
0.05419196 -0.17069961 0.038812548 0.12749396 -0.078531615 -0.02186208 0.025184218 0.059165094
-0.12335824 -0.07370214 -0.05769414 0.06073665 -0.07022146 -0.22106725 -0.05579342 0.06797612
0.0071635107 0.03783688 0.09507885 -0.016653057 0.03318083 0.011519529 -0.06078757 0.10894862
-0.14253643 -0.048827063 -0.1834614 -0.04148585 -0.14166467 -0.07398441 0.06294767 0.16183433
-0.07033307 -0.04318565 -0.09088873 -0.04380866 0.15108003 0.04050862 0.067670524 -0.050921135
-0.30938336 -0.08418109 0.034740422 0.08977713 0.08492798 -0.03485861 0.06755367 -0.1669253
0.047931217 0.08119226 0.0811409 0.028949382 -0.010121427 0.06438199 -0.03112731 0.085447714
0.012665209 0.030410003 -0.10635034 0.035358712 -0.042111374 -0.11419543 -0.030503554 0.030064402
-0.04879112 0.037093706 0.042590532 -0.03568521 -0.07806314 0.051942527 -0.059827067 -0.16265124
-0.13243818 0.019740714 0.12739658 0.013304421 0.28055957 -0.13837981 0.049808204 0.1428058
0.045691032 -0.06012232 0.14861044 -0.1741466 0.028333267 0.03870442 -0.018414004 -0.102249205
0.039157387 0.032961823 0.07865808 0.05657105 0.176568 -0.10724147 -0.12922268 0.12141922
0.075812064 -0.15418991 -0.0371432 -0.08252719 0.036863346 0.102874495 -0.08346716 0.0414861
0.080931306 0.035382114 0.014491803 -0.22370745 0.09593355 -0.11827868 -0.028793035 -0.03639549
-0.061275057 -0.04681495 0.14164186 0.027928123 0.0110037895 -0.07826956 -0.008257862 -0.2559042
0.055621397 0.028264489 -0.026931835 0.033830352 0.19667687 0.12522516 -0.10965946 0.03680342
-0.09476268 -0.009884926 0.14101118 -0.060648415 0.019310802 -0.048062436 0.22408767 0.05967828
0.18246694 0.21346721 -0.1116073 -0.034216683 -0.04728548 -0.014900097 -0.08509826 -0.092991404
0.05914288 0.10090368 -0.06908743 -0.012092528 -0.05877055 -0.019318042 -0.006149537 -0.059006847
-0.0701537 -0.17322743 0.049781986 -0.06675592 -0.08073002 -0.048333738 -0.13752821 -0.035702422
-0.043623168 -0.091230854 -0.023018563 0.08132597 0.113388784 0.005716921 0.21439478 -0.09895639
-0.2516405 0.0069847526 0.14057837 0.19726962 -0.0022665423 0.10391956 -0.17469284 -0.24552785
0.09926043 -0.14762919 -0.1376859 -0.16986509 0.3006569 0.14808263 -0.05493831 -0.09196129
-0.36262995 -0.16756369 0.09691444 0.08101575 0.02266494 -0.030875567 0.0031278236 -0.011151203
-0.08576443 -0.06713355 -0.03865251 -0.04105538 0.09448238 0.08492035 0.15609415 0.0034760209

a2c_network.actor_mlp.4.bias f4 [64]
00000000: db68 b8bd b507 53bd 4bd1 8abd c607 c43d
00000010: e317 f8bd 608b 93bc f239 d8bc 59dd ddbd
00000020: d610 dfbd fabc 24be 342a 313e 793b 1bbe
00000030: bbc0 61bd 664c 583d 0639 67bd 954f c33c
00000040: 1da0 a4bd 6191 8dbd 3e6d 33be 6c62 18be
00000050: 5dd9 2c3d 81f6 e4bd ce13 b13d 5b61 403b
00000060: 2d27 93bd e56a 28be 7c14 02be 2fbe 02be
00000070: 7cb1 b6bd a6f7 1ebd 957a 0e3d f78e 56be
00000080: c893 a03d 4cdf 053e 1bb3 99be 2ef3 0fbe
00000090: c3c5 d8bd 5ba6 d33d 74b6 883d fbe2 69be
000000a0: daf1 1a3e ebd7 c5bd dec2 a8bd 2585 6bbe
000000b0: 1189 9d3d 3e43 c4bd 803f 1abd b316 b7bd
000000c0: 697f 9abd 873e 44bd a0ec 0ebd 484b cebd
000000d0: 6370 dfbd 46b8 003e e042 bcbc f9cf dabd
000000e0: a452 74bd fdee 34be 1388 cdbc 276c 33be
000000f0: 7035 2ebe 483d eebd d6b2 03be 421e 2ebd
-0.090043746 -0.051521022 -0.06778201 0.09571795 -0.12113931 -0.018010795 -0.026394818 -0.10833234
-0.10891883 -0.16087714 0.17301255 -0.15159406 -0.055115443 0.052807234 -0.056450866 0.023841659
-0.08038352 -0.069124945 -0.17522141 -0.14881295 0.04219948 -0.111798294 0.086463556 0.0029354903
-0.071852066 -0.16447027 -0.12703127 -0.12767862 -0.08920571 -0.038810395 0.034784872 -0.20952974
0.07840687 0.13073462 -0.3001946 -0.1405761 -0.10584595 0.10334464 0.06675425 -0.22840492
0.15131322 -0.09660324 -0.08240293 -0.2300001 0.07692159 -0.09583138 -0.037658215 -0.089398764
-0.07543833 -0.047911193 -0.034893632 -0.100729525 -0.10910108 0.12570295 -0.022981107 -0.10684199
-0.059649125 -0.17669292 -0.0250893 -0.17521726 -0.17012572 -0.11632782 -0.12861189 -0.042509325

a2c_network.value.weight f4 [1, 64]
00000000: 5d06 143c c909 dbba 77f0 253a f22c eebb
00000010: 5fe7 633b 01bd a93a 6f13 e6bb 8281 aaba
00000020: 2819 663b 26cb 1e3b c568 df3e 1994 1c3c
00000030: 6e43 a03b 51f1 0d3c 664a 01bb d01b 8fbc
00000040: 8e85 953b a4a7 e8ba 2141 67bc 87eb be3b
00000050: 044b e13b 85e6 97bb 25dd 543c 09ee fc3a
00000060: 85b8 243b 857e e23a 41b4 ac3b 2e52 363b
00000070: 38bf 273b 5b29 2eba e881 843c 0e52 583c
00000080: fb9a e23b b4ab 9e3e 0833 d13c 972c f43a
00000090: e3c5 903a 6b6e 483b 4a7d 783b 2ba7 bb3a
000000a0: f933 023f 3baf 92ba c63e 3e3b 7ea8 133a
000000b0: 8444 723c a9c8 52ba 855f 95bb 5f2f 723b
000000c0: 2fa9 d0ba d346 ba3b ac84 22bb 4dbc 3bba
000000d0: d220 b1bb 04f0 87bb 6800 023c eb09 b9bb
000000e0: 9f45 05bb bc98 ee3a b84e 2d3c a09d 473b
000000f0: b4cd d138 bb25 08bb 9e3d 5a3b c908 0ebb
0.00903472 -0.001671129 0.00063300825 -0.0072685415 0.003477536 0.0012950004 -0.0070213596 -0.0013008567
0.003511021 0.0024229973 0.4363462 0.009556794 0.0048908507 0.008663491 -0.0019728183 -0.017469317
0.00456304 -0.0017750156 -0.014114649 0.005826417 0.0068753976 -0.0046356344 0.012992178 0.0019297014
0.0025134396 0.0017280137 0.0052705114 0.002781998 0.0025596153 -0.00066437357 0.016175225 0.013203157
0.006915448 0.30990374 0.025537029 0.0018629011 0.0011045303 0.0030583392 0.0037916475 0.0014316788
0.50860554 -0.0011191139 0.0029029115 0.0005632712 0.014786843 -0.0008040765 -0.004558506 0.0036954505
-0.0015919561 0.0056847124 -0.0024798317 -0.0007161543 -0.005405524 -0.004148485 0.007934667 -0.0056469343
-0.0020335687 0.0018203477 0.01057785 0.0030458942 0.00010004212 -0.0020774442 0.0033300887 -0.0021672717

a2c_network.mu.weight f4 [12, 64]
00000000: c329 c33c 2d71 583c 6a6d 5e3e d9bd 26bd
00000010: 2b4e 4dbd d7b2 1ebd 882b b93d 77c8 d83c
00000020: 0020 113d 0e63 b53d d969 313e 84ed ecbd
00000030: 6f59 db3d a61a fabd 2a01 96bc 4998 cbbb
00000040: 314a 87bc 9913 e8bd e4f4 5a3c 0d8b 19bc
00000050: 1936 023e 8e5a 4f3d 8106 8cbd fb7f 7ebe
00000060: 2abe 123d 3fe3 06be 4f96 e1bc 7a87 533d
00000070: 98d9 96bc 5136 f2bd d2d4 02bd b699 fc3c
00000080: 06c9 fc3c 2b2c c9bd 4b12 8bbc 2b96 2a3d
00000090: 9230 ed3d 1c4f d6bc 20b4 23be eb6e 803d
000000a0: d87a 9e3c 5b8c 6b3d 5423 22bc a542 cbbd
000000b0: 1c26 b4bc 5b0d b3bd 506b 293e 64ef db3b
000000c0: 4a69 9dbd cb75 203e 0e8e 633d 6f43 a63c
000000d0: 9c42 2c3e b2a4 abbc 43e3 a1bc 807d c9bb
000000e0: 6c54 7fbd 5e1a 7dbd ee77 e6bb c92b 05be
000000f0: 7ae3 58be 5f5c 73bc dc5b c7bd e88d 45be
00000100: ced6 e23c 21ea 3bbd 7037 5a3e e343 553e
00000110: a490 4dbc 63e6 acbd e2fd 843d e0cc e5bc
00000120: 46f4 6abd fa71 fbbd 59e0 2bbd ab88 f13b
00000130: 59e4 0c3e ac88 f23b 73a5 ba3d 7fe0 d0bc
00000140: 4fd8 41be b479 a73d bb94 71bd 38fb d4bd
00000150: c132 9a3d 1534 12bd 5a2f 88bd 8f96 f1bc
00000160: afd6 183c 4810 b13d 09aa e43d f3e6 e5bd
00000170: 6295 9f3d 621f 34bd e94d 943d a10a 533d
00000180: adc4 103c ef62 a9bc 0a6a b4bd 8773 b9bc
00000190: 8d0d 0c3d 90c0 0cbd 1b1f 1f3e 2b05 933b
000001a0: debb 84ba 9e06 ccbc a94a ec3d b0c7 88bd
000001b0: 8349 60bd 8864 93bc e608 74be 79ac d23d
000001c0: bf81 133e a54e 7abd 8d3e 9cbd 8415 5c3e
000001d0: 339b 94bd 0851 b2bd 6da6 a8bc 78c3 083e
000001e0: f5ca acbd f4b1 133e 5c68 a13b 0209 10be
000001f0: 73e3 2abe cc1c 2f3e fcc9 17be d0d3 ba3d
00000200: 4c8f a03d 5135 a33d a138 383d 9aac 03bd
00000210: 6a29 e53d 9b90 8c3c 8f41 bb3c e4e0 f03d
00000220: 29e2 2cbd fc9d aa3d 873b 07be 1668 053e
00000230: 9863 7f3c 77d8 243e 937a 153e 3064 aebc
00000240: e402 4bbd 187c 63bd ed9e ec3d 3504 7a3d
00000250: 2907 98bd 5de6 313c dd9b 0bbd 1d00 e93c
00000260: 6ef6 1fbc 401e 3bbd 7b5e 6f3d bd6e 2abc
00000270: fa4b 6abe da2b 4bbe 4c60 b7bd 30e4 bc3c
00000280: 8f46 253d d94f 96bd 9751 de3d 6e01 d13d
00000290: 7a4b 36bc 7276 f0bd 0815 43bc c0a5 80be
000002a0: 954e d9bc 3542 9a3d 2327 b7bc 1075 3db9
000002b0: 7cbe 9e3d 2376 c0bd 4c73 0dbe a4e1 b1bd
000002c0: 3ce0 49bc 9940 1b3e cba4 a33d 8d3b f43c
000002d0: 95bd b8bd bea1 de3d 2707 c33c 7fc6 323d
000002e0: ae95 573a dd27 08be 1c89 58bb e621 efbc
000002f0: f271 bc3c edf3 10bd c78f 023c 59bf d4bd
00000300: 0ab4 f83d 7561 c33c a6ae 1a3c bf46 9b3e
00000310: 35c7 39bd 100c c23d c09b a4bd f916 b93d
00000320: df70 8b3d 3f6d cf3c 93cd e9bd abd5 bdbc
00000330: 94f2 8cbc d072 b9bb 6f78 843d 28ee 3abe
00000340: cab4 ff3d a5cb 44bc 9f52 553c 55d6 12bd
00000350: 4142 1b3c 0db5 98bc ca4d e1bc e146 c1bc
00000360: 3d8f 55bd e2d6 983c 4981 213e 4367 5e3e
00000370: d683 123e 97ba 98bd a8aa c2bd 7ddd 273e
00000380: 952e a5bb 9384 abbb db6a 283d 95aa 89bd
00000390: 33ab 0a3e f6ca 27bd 0908 02bc d6c9 cb3d
000003a0: 481a 4a3d 9a31 07be d141 b23d 817b 4d3d
000003b0: 48ff 94bd 59d7 c0bd 15d9 173d 6163 813d
000003c0: 1d48 9bbb 5c34 9e3d 062c 2a3d 8ba1 1bbd
000003d0: d02a bebc 2cb4 d5bc 031e 8cbe 14d2 6abd
000003e0: 55eb 233d f832 b43b ba1a 623d c57e febd
000003f0: a296 1dbd e14e d63d fb52 6abd 7c2a 76bd
0.023823624 0.013210577 0.21721426 -0.040708397 -0.050123375 -0.038744774 0.09041506 0.026462777
0.03543091 0.08856784 0.17325534 -0.1156874 0.107104175 -0.12212114 -0.018311102 -0.006213222
-0.01651487 -0.11331863 0.013364051 -0.009371531 0.12715949 0.05062347 -0.06837178 -0.24853508
0.035825886 -0.13172625 -0.027537493 0.051642872 -0.018414304 -0.11826766 -0.031941243 0.030835014
0.030857574 -0.098228775 -0.016976496 0.041647118 0.1158153 -0.02616077 -0.15986681 0.06271156
0.019345686 0.0575069 -0.009896118 -0.09924821 -0.021990828 -0.08742782 0.16544843 0.006711887
-0.07686098 0.15669934 0.055555396 0.020295827 0.16822284 -0.020952556 -0.019761687 -0.006148994
-0.06233637 -0.061792724 -0.0070333397 -0.13004984 -0.21180525 -0.014853566 -0.09734318 -0.19292414
0.027690317 -0.04587758 0.2131021 0.20826678 -0.012546692 -0.0844238 0.06493737 -0.028051794
-0.057361864 -0.12277599 -0.041962 0.0073710284 0.13758983 0.0074015465 0.09113588 -0.025497673
-0.18930171 0.0817751 -0.05897973 -0.10399479 0.07529212 -0.0356942 -0.066496566 -0.029490737
0.009328528 0.086456835 0.11165244 -0.11225691 0.077921644 -0.04397524 0.07241423 0.05152381
0.008835954 -0.020677058 -0.08809288 -0.022638096 0.03419261 -0.03436333 0.1553921 0.0044867
-0.001012679 -0.0249055 0.11537678 -0.06678712 -0.054757606 -0.017992273 -0.2383152 0.10286803
0.14404963 -0.061110158 -0.07629118 0.21492583 -0.072561644 -0.08706862 -0.02058717 0.13355815
-0.084371485 0.14423352 0.0049257707 -0.14065936 -0.16688327 0.17100829 -0.14823145 0.09122431
0.07839832 0.07969154 0.04497588 -0.032147028 0.1118954 0.017158797 0.02285841 0.117616445
-0.04220787 0.083309144 -0.13206302 0.13027987 0.01558771 0.160982 0.1459754 -0.021288007
-0.049563304 -0.055538267 0.1155375 0.06103917 -0.07423241 0.010858146 -0.03408419 0.028442437
-0.009763343 -0.045683146 0.058439713 -0.010402379 -0.22880545 -0.19840947 -0.08953914 0.023058027
0.040350493 -0.073394485 0.10855406 0.10205351 -0.011126393 -0.11741342 -0.01190687 -0.25126457
-0.026526729 0.07532159 -0.022357529 -0.00018068054 0.07751176 -0.09397533 -0.13813514 -0.08685616
-0.012321528 0.15161361 0.07990416 0.029813552 -0.09020535 0.108706936 0.023807121 0.043646332
0.0008223903 -0.13296457 -0.0033040708 -0.029190969 0.023003552 -0.035388876 0.0079688495 -0.10388059
0.12143715 0.023850182 0.0094410535 0.30327412 -0.045355994 0.09474957 -0.080375195 0.09037585
0.06808638 0.025320647 -0.11416163 -0.023173174 -0.017205514 -0.0056594387 0.064682834 -0.18254912
0.12485655 -0.012011443 0.013020187 -0.035848934 0.009476245 -0.01864102 -0.027502913 -0.023593368
-0.052138556 0.018657152 0.15771975 0.21719079 0.14308104 -0.07457464 -0.09505206 0.16393085
-0.0050409534 -0.00523431 0.04111753 -0.06721989 0.1354187 -0.040965043 -0.007936486 0.099506065
0.04934147 -0.13202515 0.0870396 0.05016661 -0.072752535 -0.09416074 0.03707226 0.06317783
-0.004738821 0.077248305 0.04154589 -0.037995856 -0.023213774 -0.02608689 -0.27366647 -0.057329252
0.040019352 0.00549924 0.05520127 -0.12426523 -0.038473733 0.10464264 -0.057208043 -0.06009911

a2c_network.mu.bias f4 [12]
00000000: 3283 1c3d 98c4 eabc 635d 89bd 0aa2 cbbc
00000010: 0353 acbc 889e 72bd 9720 833e c4c4 2b3d
00000020: 72d1 863d 24eb 00be 19bb f2bd 6be0 ee3c
0.038211055 -0.028658196 -0.06707265 -0.02485754 -0.021035677 -0.05923322 0.25610802 0.041935697
0.06582917 -0.12589699 -0.11852092 0.029159745

exp_avg f4 [12]
00000000: 895c b8ba 3786 8f3a 20f5 143a be90 50b9
00000010: 4257 cbb9 f145 353a 52bb 6e3a 44dc a03a
00000020: 07e5 38b8 ef91 86ba 3b6a 0dba 8ef5 323a
-0.0014065664 0.0010950033 0.00056822784 -0.00019890346 -0.0003878419 0.0006915024 0.00091068924 0.0012272676
-4.4082317e-05 -0.001026688 -0.0005394553 0.00068267516

exp_avg_sq f4 [12]
00000000: 909b b437 aabd b837 efd5 bf37 9097 bf37
00000010: 1498 be37 db8e c437 ab2f b037 5a1b ac37
00000020: 9559 c737 5a4f b537 b5d6 b437 3e68 c737
2.1530112e-05 2.2022828e-05 2.2868595e-05 2.2839551e-05 2.2720582e-05 2.3431543e-05 2.1003032e-05 2.0516734e-05
2.3764364e-05 2.1613832e-05 2.1557653e-05 2.377119e-05
